JupyterLab/best_model_M1_103.pt (torch, 126413 bytes, 12 tensors)

block.0.weight f8 [60, 9]
-0.3327529354271784 -0.3255802731533524 -0.18392911484494287 -0.3951620697603496 0.5882834478155117 0.2955818727063664 0.23878584094310704 -0.26365126790585103
-0.1762119643354005 -0.19534872212072782 0.19702689585224023 0.43984294181787936 -0.15218203182536247 0.11875751565092298 0.5354286816448038 0.1747967470325109
-0.14887644147223375 0.10421073880296998 -0.028377032903819675 0.03597907144971178 -0.29819508143663825 -0.04566598448246218 0.1913374330743126 -0.025227204808297245
0.2456077272270934 -0.2569773236512511 0.05226959740678579 0.2658400628631192 0.18931774344551858 -0.14804325433867488 0.45722569091833865 -0.149671905222638
0.6631376609365714 0.18495581318577028 0.2761449497686152 -0.22660771230489019 0.03452536381393391 0.05472430904189761 0.06352567897996468 -0.6646501774812019
-0.0039789635253288415 0.2704035290878339 -0.630163051337592 0.10988746907142156 -0.5646919144987941 -0.4519464352991883 0.1169735971308419 -0.07625514351873763
0.11170173767939127 0.4927723343965161 0.4349289281821784 -0.2731106537718731 0.06929102657564003 0.1854692349513444 0.33861248871350363 0.25869439255099946
-0.040964686732487404 0.0552501932797753 -0.1326076910951144 0.30217400150833074 0.227610243758538 -0.038330927993331744 -0.044432849447277045 0.10414355605565531
0.042335631676590595 -0.017503583992756474 0.197015301235679 -0.36826698686274617 -0.3472163323373303 -0.38866162612030825 0.05074197381347315 -0.5275666125297223
0.08564774767142415 0.20636870911328967 0.5645440800740678 0.21687381960927962 0.05684598931498337 0.25344044502709306 -0.36675825081569535 -0.38607772007013114
-0.1762917639566114 -0.3728765641864465 -0.47699273466049585 -0.1851604361965909 0.27913647526633356 0.3822314168778208 0.08987340891702814 -0.20048496188580509
-0.26865514983929517 0.4445738009513748 0.41416662472058957 0.05184897989840639 0.11320007343029237 -0.21316345221307817 0.5054243385436532 -0.29457795714506446
0.4538051161598121 -0.2469952083366454 0.06421194136821257 0.1214810239732607 0.2782021924100194 -0.39210253666944217 -0.13980198899391608 0.048177701442427154
-0.17278191259196934 -0.07133381798557924 -0.2525985761185557 0.23501896020171445 -0.6436742953926724 0.059626461807995156 -0.07827960583234085 -0.07097711527847944
-0.02064489649917557 -0.2875990702429222 -0.310883394188752 0.1542952820027926 0.2871214716163411 0.28761191056206004 0.13527977155810805 0.2589591407641429
-0.1973473904994125 0.5866278424405514 -0.19674558702535266 0.009618370985056753 0.2844568256083901 0.22738122855155563 0.3450680682611045 -0.43651262196524204
0.08208708029117581 -0.05273081378066578 -0.17820984881024052 0.1416983310420372 0.14956069074495462 0.5426756888413534 -0.07575071063833587 -0.04782453916376257
-0.2558526943516275 0.2812790836635446 0.1185477373625156 -0.21860642320681556 -0.13753697335660894 -0.34579350136389364 -0.29468124389653816 -0.36574165608527914
0.3950300282279393 0.2520592141000118 0.36769060764814937 0.23818188638468035 0.12987773424738575 0.3505658393183907 -0.09410580635073054 0.12402035116120004
0.10170019141496435 0.15696993402195064 -0.055947285247758806 -0.19298224012491413 -0.28847288989870434 0.1709720979763023 0.5653905972101753 -0.02290854544983065
-0.47169354534581454 -0.15947207321480802 -0.5440514879662055 0.1972906731795845 0.3113936251321007 -0.3180407225551255 -0.2935951189174342 0.1665686291561078
0.4442379120177479 0.01639026688068755 -0.025566848948397055 -0.3305349988555551 -0.032588698555956405 0.009517340395815392 -0.14466326272317176 -0.38258370591425606
0.5922875960884219 0.3243328468225323 -0.05531156014901508 0.24661412322253481 -0.26191032687260335 -0.014163392626078769 -0.2692154903742894 0.10569223074757965
0.5575938483985743 0.5232833663177886 -0.07475740210036767 -0.17031314262640004 0.061561391266547215 0.3927776377567087 0.16846121876693596 0.03137257160302371
0.39557673736056514 0.35740043545303085 -0.3810489420405378 -0.07504550043120047 0.24626239362364277 0.17199851974729177 0.6169447536861457 0.3023218194859887
0.17623553384943644 -0.09423966798685439 -0.5785277644495292 -0.3493516229540786 0.06679921656722107 -0.09013608798081815 0.1348192243906299 0.7178101669266367
-0.3382885950434093 0.23552030521650946 0.48005469425641406 0.25345475677796886 -0.5301854536476707 -0.1121708747485151 -0.17551830127041926 -0.03236052871897934
-0.17723864727010227 0.2117496655750008 -0.24153691243005584 0.5561005266557889 -0.4852691142223589 0.511013448835539 -0.058889344141311785 -0.468970137425126
0.11620836152224136 -0.2590818438447532 0.08413924583671895 0.0831883517561549 -0.13772084719674715 -0.4496143419534315 -0.4397542347702616 -0.06724922765976864
-0.016643981850093154 0.04653388725622144 0.3800424177713248 -0.03034950948360712 0.05517123959373712 0.7178363859501862 0.47648268001436905 -0.40921403454201666
-0.08584828036206926 0.15347491189829265 -0.05757322452712738 0.7163948954142053 -0.3442666849721739 -0.28178121865614814 0.11036633394406228 0.0819616360403487
0.17954859505677548 -0.2093654898733908 0.24300542110512133 0.23996043924742788 -0.0219538716603586 0.08601566872807385 0.019253899254311792 0.6245038432967148
00000000: ddb1 d3f7 d24b d5bf 39a6 5aa4 4ed6 d4bf
00000010: ef47 853e fd8a c7bf 4262 8fd9 554a d9bf
00000020: f2a9 24cf 37d3 e23f 241d 243b d0ea d23f
00000030: bb9b ccd0 8890 ce3f 9617 4d91 a9df d0bf
00000040: e702 fe17 1d8e c6bf 2376 69da 2f01 c9bf
00000050: 1513 0f65 2d38 c93f 81fd 9e02 6326 dc3f
00000060: 1b48 dd68 b37a c3bf e9fa df7d e466 be3f
00000070: 8d27 a054 3b22 e13f 38d5 f963 bd5f c63f
00000080: 2b51 a21b 620e c3bf 3bfe 0c13 8ead ba3f
00000090: a620 1e71 de0e 9dbf 4e15 6f4e d96b a23f
000000a0: 7b4c a6d2 a015 d3bf 719c c82b 8861 a7bf
000000b0: 6c02 c7b8 be7d c83f aa09 7c0e 29d5 99bf
000000c0: a2e9 0af2 1270 cf3f a753 3904 5172 d0bf
000000d0: cadc dfa6 14c3 aa3f f3ac fd09 8603 d13f
000000e0: a554 5356 903b c83f 1e96 e3d3 14f3 c2bf
000000f0: 3ea8 588b 2f43 dd3f c6d6 07f1 7228 c3bf
00000100: 0bfe ce78 6c38 e53f 9142 6bd0 a1ac c73f
00000110: 8f8d 0dde 5bac d13f 0079 af44 7b01 cdbf
00000120: f23b edf8 4ead a13f be25 431b d304 ac3f
00000130: 2bd6 ac09 3843 b03f d6fe f172 d044 e5bf
00000140: c487 69e3 3e4c 70bf 4fef 899a 4a4e d13f
00000150: 948f 14b4 4b2a e4bf 51e7 e6cd 9521 bc3f
00000160: 7ad0 22c7 f411 e2bf c2d7 c9bd b0ec dcbf
00000170: 6225 2c4e fbf1 bd3f 6894 9003 7585 b3bf
00000180: 7746 3d2e 7c98 bc3f bdd2 26f9 9489 df3f
00000190: 4f1d a824 e0d5 db3f 81eb 881b a57a d1bf
000001a0: b973 0c85 0ebd b13f 6ddc 43b5 74bd c73f
000001b0: adaa 42b7 d3ab d53f 7891 eaec 728e d03f
000001c0: 6c24 9dcb 52f9 a4bf fef7 77da c049 ac3f
000001d0: 98cd 39f0 49f9 c0bf c880 8b9f d156 d33f
000001e0: 9cb8 961c 5522 cd3f c539 5084 1ca0 a3bf
000001f0: c800 7d06 e7bf a6bf 7a22 59ef 26a9 ba3f
00000200: 7f4e 0313 04ad a53f 8f28 3fa3 75ec 91bf
00000210: d035 cf21 cc37 c93f bc67 31b2 af91 d7bf
00000220: 5ca8 01da ca38 d6bf dd66 5903 d5df d8bf
00000230: 2570 201c dafa a93f 68da 6860 d3e1 e0bf
00000240: 418e 39c3 02ed b53f ad97 4734 4a6a ca3f
00000250: 5e31 22bf be10 e23f 7f4c 4a75 85c2 cb3f
00000260: 4a82 08e2 ea1a ad3f d400 b845 5e38 d03f
00000270: 32a9 3299 f778 d7bf d596 5a53 7fb5 d8bf
00000280: d4b7 5f80 ba90 c6bf 5d0a 28aa 35dd d7bf
00000290: ccf8 f288 0c87 debf 2a1d fd50 56b3 c7bf
000002a0: 76ef 183c 5fdd d13f 6a9d bfc2 7a76 d83f
000002b0: c223 1498 f101 b73f dfd5 51c1 7da9 c9bf
000002c0: 5a8d 9d5e a531 d1bf 02a7 efab e573 dc3f
000002d0: bd41 11bb b481 da3f 6b3e fd11 f38b aa3f
000002e0: 18b4 4915 aefa bc3f 9b93 faa3 f048 cbbf
000002f0: b0b7 94a9 6f2c e03f e9df 0381 5dda d2bf
00000300: ea7c 2a9d 240b dd3f 728c 09fb 899d cfbf
00000310: a46b 309c 3170 b03f 33bc 0c61 6119 bf3f
00000320: eae5 8491 10ce d13f 1821 eb3c 3518 d9bf
00000330: f582 5215 08e5 c1bf 3ef0 2e68 bfaa a83f
00000340: 961f f6bb b71d c6bf 17cd 58df ee42 b2bf
00000350: d580 dc37 932a d0bf 15ce 00ee 1915 ce3f
00000360: 8c98 ffd5 fa98 e4bf 8310 e20e 5c87 ae3f
00000370: 7961 feda 210a b4bf 8caf e264 8e2b b2bf
00000380: 634d 2c8d ef23 95bf 366a 43ee 0568 d2bf
00000390: 2a40 ba76 83e5 d3bf 1386 10a3 f2bf c33f
000003a0: b994 a4bc 3260 d23f c876 73c9 3b68 d23f
000003b0: aa82 53f9 d850 c13f a743 255c c992 d03f
000003c0: 6fad 12e6 ad42 c9bf 1391 c6c0 a7c5 e23f
000003d0: befe f39a f52e c9bf 64aa 92e6 cbb2 833f
000003e0: 2f2b c766 8a34 d23f bc36 2dfe d31a cd3f
000003f0: 5cd2 0461 9815 d63f 7971 e8a2 d2ef dbbf
00000400: 7654 46ad a803 b53f aedd 5b81 88ff aabf
00000410: fd87 3b90 94cf c6bf 1f96 dcc0 2b23 c23f
00000420: dd24 c201 ce24 c33f 650d fd67 995d e13f
00000430: 3b25 d708 6664 b3bf da2b 4f3f 757c a8bf
00000440: bc5b b5fa e35f d0bf b88f 58fc 7900 d23f
00000450: 0b9f fcfe 2459 be3f 1c35 2f97 4bfb cbbf
00000460: cf5a 47c1 cf9a c1bf 8abe e110 7b21 d6bf
00000470: 4eef 51b8 0edc d2bf 2df4 eab0 4f68 d7bf
00000480: 4053 0b07 2c48 d93f c5c2 4df8 bc21 d03f
00000490: 734a b92f 3e88 d73f 02ca 427a be7c ce3f
000004a0: d619 8966 d59f c03f e6e7 bdb3 ab6f d63f
000004b0: 62dd a370 5117 b8bf 299a 4638 ccbf bf3f
000004c0: 59cc 1f14 0609 ba3f e22e 8a3e 9717 c43f
000004d0: add2 e060 1fa5 acbf 37cd 055d a4b3 c8bf
000004e0: 5c71 f9fe 5676 d2bf d819 abe8 69e2 c53f
000004f0: bf79 8f05 ae17 e23f 5918 0676 5675 97bf
00000500: faa6 bf1f 3a30 debf 0f9d 8ab5 9469 c4bf
00000510: aef5 84aa de68 e1bf 995a 8e1e d240 c93f
00000520: 3304 0887 dfed d33f 0ae9 8a79 c75a d4bf
00000530: c4ff 802e 43ca d2bf abec 61ef 1e52 c53f
00000540: 839c f0d9 646e dc3f dcab e630 9cc8 903f
00000550: af6b 6130 322e 9abf 0527 9144 7c27 d5bf
00000560: d6b8 0845 77af a0bf 2f9c f5cd d37d 833f
00000570: 2412 2a67 5384 c2bf ec96 385e 407c d8bf
00000580: dfd6 e01d 05f4 e23f 42c4 878e dec1 d43f
00000590: 238c dcfb cb51 acbf eb7a fc34 0d91 cf3f
000005a0: 95c2 1988 23c3 d0bf 300b 0961 b201 8dbf
000005b0: bcfc ae9b d33a d1bf 438c 8062 a50e bb3f
000005c0: 3853 ea0d cfd7 e13f a705 1cc2 bcbe e03f
000005d0: 23ae 2715 4d23 b3bf 4b66 d430 d2cc c5bf
000005e0: eb45 5f84 f984 af3f 04f9 30d1 4423 d93f
000005f0: 03c8 9f20 2390 c53f f984 0dd2 1010 a03f
00000600: 9768 8117 2151 d93f 0b34 7613 a6df d63f
00000610: 1f54 0f1a 1b63 d8bf ad5f 1092 2e36 b3bf
00000620: a092 6caf 8685 cf3f 2134 a328 0c04 c63f
00000630: 28aa 90ec 02be e33f 74cf e39d 3d59 d33f
00000640: 1362 23cf e28e c63f cb4b fd43 1720 b8bf
00000650: 6470 84a8 4c83 e2bf 4a1b d9e8 c65b d6bf
00000660: 9efc 8de2 c019 b13f 6e26 119e 2813 b7bf
00000670: a19e d09f c141 c13f 65f5 f506 4df8 e63f
00000680: 0b8f 1435 85a6 d5bf cc73 3984 8725 ce3f
00000690: 4fd8 0753 37b9 de3f f120 d84c 9a38 d03f
000006a0: d669 077c 47f7 e0bf 33cc 9bfe 3ab7 bcbf
000006b0: 9528 e739 6277 c6bf 73fe 0e29 8f91 a0bf
000006c0: 1b62 ce88 c1af c6bf 46b2 4af0 9c1a cb3f
000006d0: ddfa d479 aeea cebf b7cc e854 93cb e13f
000006e0: c902 d62f a60e dfbf eb12 52e0 385a e03f
000006f0: 15f3 567e be26 aebf 9fa8 c252 9b03 debf
00000700: 6180 42c8 d4bf bd3f ee3c 9303 cc94 d0bf
00000710: a0c6 2d4d 268a b53f 8f69 33f2 d44b b53f
00000720: 1cfe 5733 d6a0 c1bf c329 a03b 7bc6 dcbf
00000730: ef68 27f2 ee24 dcbf fbde 7ad1 3e37 b1bf
00000740: 35ae e2b6 1e0b 91bf 72aa d727 4ad3 a73f
00000750: 43eb da6e 9d52 d83f 9718 ba1a f113 9fbf
00000760: 5b42 789b 673f ac3f c41d 3103 84f8 e63f
00000770: df6a f135 b17e de3f ee04 db0f 9030 dabf
00000780: 50ab 9224 27fa b5bf f408 aedf 10a5 c33f
00000790: 1945 f0d8 3c7a adbf 4969 dafc b4ec e63f
000007a0: 59b3 4322 7708 d6bf e454 b017 b408 d2bf
000007b0: 6a81 ded2 f740 bc3f 6ae8 5112 70fb b43f
000007c0: 71e2 e7c7 72fb c63f e167 f505 7dcc cabf
000007d0: 97d7 3238 cd1a cf3f 4664 730f 06b7 ce3f
000007e0: ac10 3563 137b 96bf 1772 2174 1f05 b63f
000007f0: ea92 784e 4bb7 933f 3ff1 e57b effb e33f

block.0.bias f8 [60]
-0.04442868056620693 -0.03538913726028805 0.24765563619773767 -0.13867457638291122 -0.05247321540081002 0.21979533737927526 0.015146770112212984 0.14078602805678733
-0.07714352209306322 0.15819077796216555 -0.13339333708781478 0.0036627000548180625 0.37198857410053515 -0.0788390765077332 -0.27482388261993623 0.3132519097894873
-0.010442146267850089 -0.033106264079468754 0.22826683701955014 0.09932482045220944 -0.17927468903883167 -0.12896571439078708 -0.15555079495347637 -0.13677235823781994
0.21796583767592173 -0.023427878969166024 0.22488484971173303 0.12550388263888865 0.061243586608269396 -0.005982966313216087 0.32807813224336757 0.07349320717492867
0.16688759189917168 -0.03915807052209694 -0.1596896112050052 -0.16908622130156267 0.10188470148569907 0.21788697536224486 0.052340277340344236 0.13524810561458422
-0.27636836196633907 -0.22482708044517338 0.30743443666554304 -0.16308848130027276 -0.4204882070496064 -0.037245690652751365 0.2239006606965393 0.16112463432153418
0.0015595949907212258 0.12904770147269976 0.10472940019379628 -0.10467293525193776 -0.03939088783612861 -0.14948136884163044 0.2473386492904999 0.19600919418808121
-0.07545434544352769 0.01175400297782665 -0.20839303812564644 0.004513424464567544
00000000: 8a94 1224 5bbf a6bf 934b 5566 861e a2bf
00000010: 74d6 110d 2eb3 cf3f 03f6 2ca9 16c0 c1bf
00000020: 79f8 1ff0 c4dd aabf 24bb edec 4022 cc3f
00000030: 7b06 2d12 4505 8f3f fd6a 1ecd 4605 c23f
00000040: f2ea 7c88 adbf b3bf 8d2a f06c 983f c43f
00000050: adf2 256a 0813 c1bf 0b81 6a1e 3d01 6e3f
00000060: 91d6 0f2a a9ce d73f d45f 3f37 cc2e b4bf
00000070: a7ca 00e9 b696 d1bf 1d25 fdbc 510c d43f
00000080: f082 c325 b162 85bf 9732 07e3 4df3 a0bf
00000090: 7e52 e103 d937 cd3f bef7 85f7 596d b93f
000000a0: 9f0f 3617 79f2 c6bf f48d ced2 f281 c0bf
000000b0: e592 98a4 16e9 c3bf ef69 d0b2 c181 c1bf
000000c0: 594e 3bf8 4de6 cb3f 4ce8 f257 7afd 97bf
000000d0: b75a 70d9 06c9 cc3f 0b3f badf 8210 c03f
000000e0: 58ff 24c3 515b af3f 3392 5f4a 9881 78bf
000000f0: 5a27 216c 3bff d43f 7762 4b69 73d0 b23f
00000100: 6856 a896 925c c53f eca2 88d0 860c a4bf
00000110: 4677 d18c b570 c4bf 17e3 5807 9ea4 c5bf
00000120: 4903 d8a4 1d15 ba3f 93dd b36c b8e3 cb3f
00000130: 5775 e146 58cc aa3f b8f4 3a57 cf4f c13f
00000140: 5cd9 12ed 04b0 d1bf fb32 e23e 22c7 ccbf
00000150: d821 c97c 01ad d33f 44fd c456 15e0 c4bf
00000160: 5d6e 685e 47e9 dabf fa7e 8afe dd11 a3bf
00000170: 7249 9fdf c6a8 cc3f 66d7 7e65 bb9f c43f
00000180: 05d4 ba5e 6a8d 593f ed7f b994 a284 c03f
00000190: c815 c3c4 8bcf ba3f 2ff3 ae71 d8cb babf
000001a0: ba7c 08de 0a2b a4bf 749f 449b 3422 c3bf
000001b0: 49a8 def8 caa8 cf3f 4e66 604b d416 c93f
000001c0: c062 05da f950 b3bf e745 1893 7b12 883f
000001d0: 975b bb81 9fac cabf 4617 7e27 ab7c 723f

block.2.weight f8 [60, 60]
-0.023464959454068273 -0.46490783577153694 0.01226436666714804 -0.03973643561250923 0.33473358033093403 0.0693566409549679 0.13012358902461385 0.09133911941883056
-0.21016010466524412 0.17703454643644717 -0.6598892911767389 -0.30140819080438663 0.09308676702624087 -0.23691212847649432 -0.41228028600454786 0.10209072381264113
0.12481167916652633 0.10720190246743512 -0.07422925781300868 0.26681743198926555 -0.1500890834086905 -0.08284856856939575 -0.5429038458117774 -0.26602217286639585
0.041921175478790394 -0.07252798593637631 0.05384365629939461 0.08539811586111454 -0.14414334794239125 -0.19178353325734382 0.08162926886337167 0.18143026366991785
0.08326440187688647 0.027181878777701944 -0.06746806815262119 0.024375038632016142 0.13292617473607762 -0.062259978415237394 0.031027817384110437 -0.016901312267589497
-0.03879308795737533 -0.1893541685600993 -0.1076799997630355 0.1777750887331076 -0.4329923429808938 -0.03209733745514919 0.13338509433635762 -0.11654547644394217
0.23356195548765035 -0.05280949931259496 -0.0617147445707878 -0.1056511083682982 -0.01221441879287932 -0.09306653368212517 -0.05976750431956146 -0.1168277423259408
0.22461798783566195 0.12212935181193012 -0.38235499213912993 -0.154647669552119 0.3468662423025752 0.21578025827237382 0.19588477345175676 -0.20518233679755524
-0.3947733077536487 -0.47149933250987136 -0.13305940701076985 -0.021798782982059055 -0.38211619883590425 -0.007732967537942461 0.04036689968503648 -0.18980992955364998
-0.03548356714029515 -0.5634952759471588 0.18527445677287738 0.05417178132618183 -0.012933505519754349 -0.08598574580913931 -0.10947535447970176 0.0031940863858756544
0.4021211954655591 -0.08474362870281563 0.012781288087282261 -0.0627062910974709 0.05498034516761378 -0.23276909825616574 0.012568708124068734 0.24146328146486457
-0.3456655088653849 -0.16669347545692467 0.22495244926167143 -0.2463947612172807 -0.22484428315641902 0.06031595554343327 -0.10377533307170521 0.09926064845589193
0.11325597261841285 0.152375516599039 -0.16680647623546863 -0.0885470406828283 -0.21144555201191986 -0.036871980411815726 -0.07437822209385037 0.24201225825232273
-0.3259818403624289 0.2491874551260148 0.23635952363335497 -0.10010380771730927 -0.02268453012211814 -0.2353861459551542 -0.028840750916855867 0.17190819613548186
0.034721461010492234 0.20796493800374222 0.09159169994106263 0.0023814513096297655 -0.10858692800184525 -0.24726724656981378 0.02484041449143973 -0.28866692044663783
0.028573286895664525 -0.2338397294987299 -0.03193662131576968 -0.1124379857650822 0.020753909826142142 0.09163020171233431 0.04058701117822765 0.06116482671151096
0.0007034826096975421 -0.08888746098469015 0.06531247470550326 0.11160705343143665 0.13526860723993517 0.03038712235776584 -0.17083438782849547 0.1552366566655681
-0.04195890462984336 0.1432482429209399 0.04923518086723265 0.1603808054064493 -0.316158404634115 -0.08606820762701746 0.04098195965126988 -0.32155021341419565
0.25956918743717944 0.1684954057149156 -0.13737770659179868 -0.12283949724993451 -0.2493916824728633 -0.23477339213590967 0.14203407969862214 -0.04920594976003949
-0.03022357656704007 0.309187306462353 -0.5743813305092145 -0.0043261074775931795 -0.30502888243010506 -0.030996835141775904 0.06946533043114797 0.12888878721548375
0.44708444438003286 -0.24988342413100792 -0.13052443756379958 0.05849458207820622 0.055034069564702824 -0.1991066867787186 0.03197927617638565 0.07095839865214011
-0.009937393737377098 -0.09544379319595275 -0.16401787354190492 -0.24424201788425515 -0.11563687453204012 0.0326381442582032 -0.07414631063149087 -0.00438152642262941
0.0036631590263615775 -0.08872493704865969 0.01174521126684225 0.01488632704574549 0.28617411674522025 0.07967806860627547 0.08900319292725682 0.028401973834033836
-0.2134594633632112 -0.15304647652329795 -0.11377873704697632 -0.02281195773488764 0.010611670657022192 0.15607473240942796 0.09212979120650015 -0.14975297494139359
0.05878171256613895 -0.06344850939925453 -0.06499695952029874 0.09814603458497533 -0.03619177094222801 0.15852281418506378 -0.14726286921143827 -0.19753693262791017
0.11405997867440483 -0.17512028774052685 -0.33874978780694076 -0.014199231032094382 -0.2268980240732154 0.47703921455124365 0.26591482475830286 0.03668322967412619
0.2401540650524375 -0.20100463734015694 0.01185255684848434 0.11655610920860023 -0.13579423331726914 -0.2709352974900107 0.08275056839518635 0.2302547007063263
-0.055394652470259945 0.021514609148741554 -0.4292325134148511 -0.1667432635106729 0.015897958974823337 0.17107160533033727 0.16882450608049784 -0.07666431697213653
-0.07596593214041664 -0.07939540450446772 0.10797702763776178 0.17493365906797503 0.01913079168259013 -0.10593138680605728 0.08734047581683174 0.060698633394349374
-0.2656299574813743 -0.10557598360852895 0.03490929124092688 -0.07316423795802642 -0.0007165434560130828 0.06323629200582608 0.12182804975947407 0.021365603655759628
-0.16507208266950946 0.06798081989561033 -0.24427208698554398 -0.16573071597635547 0.0317373134196078 -0.05584462337014702 -0.02264182205626571 0.11954170095033997
-0.18800539739639952 0.16031334435378333 0.21442456252507605 -0.11252728605016203 -0.17565366070422103 -0.013257749183467681 0.22562832521468723 0.10986667633359855
00000000: 6b29 d4c5 3207 98bf b6be 92cb 0cc1 ddbf
00000010: 86b3 ee6d 0f1e 893f 09a7 d486 5558 a4bf
00000020: 0a3d 1965 466c d53f eb78 a958 5bc1 b13f
00000030: 1441 a6c7 e3a7 c03f 29d3 bf22 0062 b73f
00000040: 4f07 3bbc 86e6 cabf 4276 9a69 11a9 c63f
00000050: fcb5 9225 d01d e5bf 6c16 9094 454a d3bf
00000060: 696d 11cc 88d4 b73f 9788 eaf9 2253 cebf
00000070: 2d34 4bda cc62 dabf 2d11 0020 9e22 ba3f
00000080: ded7 2d80 a8f3 bf3f 51a7 2a79 9571 bb3f
00000090: e695 b64a b000 b3bf e461 196c 8913 d13f
000000a0: 6f0c 5d7c 1e36 c3bf dba5 8654 9035 b5bf
000000b0: 744b d4e2 775f e1bf b835 1edd 8106 d1bf
000000c0: b3ef 613b b176 a53f 4f38 a4af 3191 b2bf
000000d0: 5451 ce4d 6591 ab3f 1e75 c3a2 a6dc b53f
000000e0: 489c ac0a 4a73 c2bf 1635 a0e1 5c8c c8bf
000000f0: 6b21 2ae0 a7e5 b43f 27c5 7b5c 1b39 c73f
00000100: 5273 fbda d050 b53f 1e86 9301 91d5 9b3f
00000110: 0064 3d5a 9645 b1bf 5690 0d27 c5f5 983f
00000120: 050d a392 b903 c13f c845 4936 8ae0 afbf
00000130: e45b b993 c1c5 9f3f 1d8d cbdd 934e 91bf
00000140: 4df1 2c08 b0dc a3bf cad7 a9e4 c13c c8bf
00000150: dc5f 6a9d ea90 bbbf 227b 1388 55c1 c63f
00000160: dd5d 2184 25b6 dbbf 5f2c 51ed 0f6f a0bf
00000170: 7569 f944 c312 c13f eece d2a1 ecd5 bdbf
00000180: d462 34b0 5be5 cd3f 2474 eec0 d809 abbf
00000190: 299d 3933 1399 afbf bb5d 3a77 f30b bbbf
000001a0: 3f5f 0a8a df03 89bf aa4d 8456 35d3 b7bf
000001b0: 3005 d5a8 d899 aebf b530 8e44 6ce8 bdbf
000001c0: ae7a ec3f 48c0 cc3f 8bf6 e983 de43 bf3f
000001d0: 2acb ac12 8178 d8bf f681 90ad 7ecb c3bf
000001e0: 87a9 b177 0e33 d63f e17d 3300 b09e cb3f
000001f0: ae3c e193 c012 c93f eb94 2131 6a43 cabf
00000200: baae 8843 f743 d9bf 79ce 4d89 0b2d debf
00000210: 12a9 c434 1708 c1bf de8e 0090 6b52 96bf
00000220: 2369 5180 9774 d8bf cfe9 d2aa 9aac 7fbf
00000230: 0fee f963 f8aa a43f 71ca f117 b14b c8bf
00000240: 2773 d3f0 e62a a2bf e697 b43e 2708 e2bf
00000250: 8dd4 4fca 12b7 c73f 8ff3 525a 67bc ab3f
00000260: f8ff d6b9 e17c 8abf e023 2c6e 2903 b6bf
00000270: dd54 35ab 9306 bcbf 8b85 2c12 7c2a 6a3f
00000280: 5964 e389 5abc d93f 82ad d229 c2b1 b5bf
00000290: ad5f af72 132d 8a3f 3d60 84fd 840d b0bf
000002a0: d5db d540 6226 ac3f 53cb 43b8 60cb cdbf
000002b0: 3d4a c472 9fbd 893f aac8 89d0 44e8 ce3f
000002c0: 51a6 fb39 621f d6bf 17a4 c538 3656 c5bf
000002d0: fff2 5dea 3dcb cc3f debe aa10 dd89 cfbf
000002e0: 98b8 6c8d b2c7 ccbf afd9 f8a0 bbe1 ae3f
000002f0: cbaa ac2d 0591 babf cbd6 e556 2569 b93f
00000300: 7306 79ea 57fe bc3f 5782 407a 0a81 c33f
00000310: 909e 1824 ea59 c5bf 9bec e3d3 04ab b6bf
00000320: 794f 63d9 a510 cbbf 31d7 035c e2e0 a2bf
00000330: 887e 6d7f 730a b3bf e760 36f7 41fa ce3f
00000340: dd93 dcef e2dc d4bf 547b 2be1 5fe5 cf3f
00000350: 2b3c 0d64 0741 ce3f 9dd5 5934 67a0 b9bf
00000360: 839d ff0b 9d3a 97bf 0d89 671b 2221 cebf
00000370: 587f eb07 6e88 9dbf d27a 2878 1601 c63f
00000380: 81d0 04e7 02c7 a13f 2e6a b857 989e ca3f
00000390: fff7 d4bb 8d72 b73f 2f73 bdef 4382 633f
000003a0: 1281 8a58 5acc bbbf 2fd5 b100 74a6 cfbf
000003b0: 2974 70ff c36f 993f 8b57 b0d1 8479 d2bf
000003c0: 4240 06d3 5042 9d3f 8cec 59d3 75ee cdbf
000003d0: 9f22 3130 ff59 a0bf 956b b05f bcc8 bcbf
000003e0: a8a1 de4f 8340 953f 032c aeaf 1375 b73f
000003f0: 8645 4e1b d2c7 a43f b76b c804 ff50 af3f
00000400: cc7b a666 3d0d 473f 0127 f421 54c1 b6bf
00000410: d786 e17e 51b8 b03f 92ae 7da4 4792 bc3f
00000420: d0af 2252 7b50 c13f fa0f fc42 cd1d 9f3f
00000430: 78b6 60b6 e6dd c5bf 716e c275 cbde c33f
00000440: 9883 5236 a37b a5bf fa06 475b f555 c23f
00000450: 7e5a 4687 5a35 a93f 493c 10b5 5b87 c43f
00000460: 6b94 1076 f03b d4bf a5be fbe8 9008 b6bf
00000470: 773c db60 96fb a43f ccb0 a858 4794 d4bf
00000480: ffe2 c514 c89c d03f 3431 89e8 4191 c53f
00000490: ef70 81ba 9795 c1bf 0276 58c7 6872 bfbf
000004a0: 42c4 0e10 11ec cfbf 71ec 98f4 0d0d cebf
000004b0: 908c 9c37 2c2e c23f a6d9 f9b1 8531 a9bf
000004c0: 54c1 b1e3 edf2 9ebf 5106 668e b9c9 d33f
000004d0: 980a bff4 5461 e2bf 5cf5 29a2 40b8 71bf
000004e0: d0da 97dc 9785 d3bf aa8d da64 a2bd 9fbf
000004f0: 6659 68da 7ac8 b13f 7eaf f482 6d7f c03f
00000500: 9567 ca12 089d dc3f 3743 3a17 2efc cfbf
00000510: fb28 5557 06b5 c0bf 4ec5 097a 00f3 ad3f
00000520: b372 e4f1 6c2d ac3f d993 10f2 537c c9bf
00000530: 9397 a772 965f a03f 9564 9661 542a b23f
00000540: b346 e068 0e5a 84bf 78ff 6122 016f b8bf
00000550: 8135 69a5 89fe c4bf 2c9b 8f8b 5243 cfbf
00000560: 0ba7 53d2 609a bdbf 8ed9 6164 f2b5 a03f
00000570: f503 48ab 40fb b2bf cb6b 110b 5df2 71bf
00000580: bd11 fc86 3302 6e3f e8b1 f66e adb6 b6bf
00000590: 41a1 3492 df0d 883f 5d63 8dfe b87c 8e3f
000005a0: 5b79 183e ad50 d23f 7055 df2a c865 b43f
000005b0: a3b5 dcca e9c8 b63f 573d 0933 6815 9d3f
000005c0: 8056 15c3 a352 cbbf a0c1 b7e5 0697 c3bf
000005d0: 83d1 9872 9a20 bdbf df5f b791 045c 97bf
000005e0: c933 6c53 92bb 853f cd18 b7bf 41fa c33f
000005f0: 3b1f 3868 d195 b73f 1b0e ed00 1b2b c3bf
00000600: df1c 26fa a218 ae3f 0289 d958 293e b0bf
00000610: 8aa7 7a07 a4a3 b0bf 2b49 c638 1920 b93f
00000620: 0d92 2951 ba87 a2bf 3d20 4cbf 794a c43f
00000630: fcd0 967b 82d9 c2bf b8cb b1e4 e348 c9bf
00000640: 0564 30e6 0833 bd3f 1618 5b72 576a c6bf
00000650: 9418 0a97 13ae d5bf ec1f 4a87 7c14 8dbf
00000660: 16f3 7594 fe0a cdbf 3c0e 5a7c cf87 de3f
00000670: 5ef1 f69c bf04 d13f a128 86ef 24c8 a23f
00000680: 1b6a b34f 5ebd ce3f 4433 dc1b 85ba c9bf
00000690: d946 4e40 2746 883f 6d2f 3305 9fd6 bd3f
000006a0: dca1 8a97 b461 c1bf db4d 8300 0157 d1bf
000006b0: a094 fb28 242f b53f 2258 a46c fc78 cd3f
000006c0: 9a52 7719 b05c acbf 9563 b8fa ec07 963f
000006d0: 63c9 dfa5 8b78 dbbf b7a6 cddf d757 c5bf
000006e0: 74e5 7af7 8d47 903f 9c81 15a3 ace5 c53f
000006f0: 1186 309a 0a9c c53f 7b5e 2ace 45a0 b3bf
00000700: 0c3b 27da 8072 b3bf 2aa4 ccd9 4153 b4bf
00000710: db68 6cea 61a4 bb3f 0e52 55e4 3964 c63f
00000720: e045 7eb2 0597 933f 77b2 f3c1 511e bbbf
00000730: 5418 4007 f25b b63f 4666 ae2a e413 af3f
00000740: 981a 0ecb 1400 d1bf 4977 d714 0707 bbbf
00000750: cda2 6970 a1df a13f 6138 4439 e4ba b2bf
00000760: 4cba d85a cd7a 47bf 23d8 15ee 4030 b03f
00000770: 9bd0 7381 1f30 bf3f 31d8 d763 dde0 953f
00000780: d429 46fe 1421 c5bf 38f8 34e6 3067 b13f
00000790: aadb 76c8 4e44 cfbf 80d2 8702 aa36 c5bf
000007a0: cb75 6686 df3f a03f fa7e 109e aa97 acbf
000007b0: d598 03f5 6a2f 97bf 2605 17f0 489a be3f
000007c0: 97fe a494 8f10 c8bf 4552 8ecd 2585 c43f
000007d0: 318d c099 4372 cb3f af3a 7e95 96ce bcbf
000007e0: 0bdb 12b4 d17b c6bf 46e2 4af9 e026 8bbf
000007f0: 3496 ec92 63e1 cc3f d5e4 c5f5 3820 bc3f

block.2.bias f8 [60]
0.13323982729991218 -0.03328461158766833 0.12881429268171338 0.11173902982411281 -0.01732319208893066 -0.15129644865579533 -0.12397582332109403 0.0674031193590536
-0.021906117836033058 0.014795383890343277 0.04879539218850157 -0.12700157884124336 0.041499986836044465 0.16724573999934164 -0.09384804032172611 -0.02071875078172147
0.0742179581892614 -0.1213426580110585 -0.06508470839193813 -0.14780539624947012 -0.04500024845009355 -0.08424570227618083 -0.05296315771412311 -0.05143767330326721
0.1029670662345512 0.127617145189335 -0.04042359798998901 0.039691904935690116 0.023751730615097565 0.011190359456309145 0.13803203890040644 -0.16515219058624553
-0.010882296755627748 0.1542118913333167 0.051242326886050855 -0.13842724794191028 0.1818194021417943 0.006932999790896928 0.07043888583147867 -0.12901892907352505
0.05928235026604671 0.059298379530870846 0.07932312694941523 -0.033030691591301634 -0.01430897666484785 0.0016718724139989768 -0.09461508639550051 0.0618345918949824
-0.05367638425085679 -0.037381609320209896 0.07351257129038563 0.13835839357872495 0.1035140540000224 0.04831287508523585 0.15810941618150715 0.02967432120794861
0.11939097042944342 0.026608244793848233 -0.03934767438776184 0.07924049148466811
00000000: 4e8f 63ae 000e c13f 594c 753c ae0a a1bf
00000010: 73a4 299b fc7c c03f 7305 c8d6 ed9a bc3f
00000020: e9e7 efbd 2bbd 91bf 7a21 7d99 ae5d c3bf
00000030: 58a5 a82a e1bc bfbf 2ea7 4bb1 5441 b13f
00000040: 2a99 c0ae 8e6e 96bf b6bc 86cf 0a4d 8e3f
00000050: 9c4b 4aab b5fb a83f c2ed d475 9641 c0bf
00000060: 4b90 7d7c 7c3f a53f 8fa3 d8f3 4e68 c53f
00000070: 90ba f9d7 6c06 b8bf bffb 15d4 4b37 95bf
00000080: cbe2 32b7 f2ff b23f c967 c4fb 4f10 bfbf
00000090: 9f58 0336 64a9 b0bf 712a 8887 49eb c2bf
000000a0: a25f cfc6 450a a7bf dcd0 1a58 2091 b5bf
000000b0: 35d3 8cac fc1d abbf f15e 3de9 0956 aabf
000000c0: dfde 0ab6 0c5c ba3f 3da0 7f34 c255 c03f
000000d0: 2812 b5de 66b2 a4bf e5bd 3a53 7f52 a43f
000000e0: 7369 dca8 5f52 983f e3a3 299f f8ea 863f
000000f0: 2250 70aa 08ab c13f a420 b7fc b423 c5bf
00000100: 24c6 5d25 7549 86bf c427 f71a 37bd c33f
00000110: f905 4b2c 6f3c aa3f b394 64eb fbb7 c1bf
00000120: 7917 fdb0 db45 c73f 225b d7f5 c665 7c3f
00000130: 044c 0367 4808 b23f 1fc6 7738 b183 c0bf
00000140: e6d0 3e97 415a ae3f 06ef 9471 5b5c ae3f
00000150: 106f 103c 854e b43f fa3c 4c18 66e9 a0bf
00000160: f39a 8456 064e 8dbf 3763 d655 5764 5b3f
00000170: 36e2 c6bd b138 b8bf 2ea2 e69b c8a8 af3f
00000180: 4694 d995 787b abbf d819 01ab ae23 a3bf
00000190: bc7d 8949 b8d1 b23f b11b c653 bab5 c13f
000001a0: e541 9ba4 e57f ba3f 3003 ef14 77bc a83f
000001b0: 9238 d8e9 ed3c c43f 71ff 79fc f162 9e3f
000001c0: 35a2 6e19 6890 be3f 762f c614 313f 9b3f
000001d0: 7b93 56dd 6025 a4bf e413 72d7 1a49 b43f

block.4.weight f8 [60, 60]
-0.043276140522396665 0.29567582321112673 0.25167854855395183 -0.012659154618478769 0.11258084949479738 -0.01723326744375247 0.07835844959769325 0.15651457331855317
0.2252845212853353 0.10687298890745453 -0.3763270853212667 -0.28237334129635105 0.15339507876346148 0.22700468316716177 -0.15166602002565271 0.06596878395196908
0.03458774717106374 -0.1462119913535509 -0.1731993559208826 0.09365461294884245 0.007443169654480154 0.06244466531188151 0.10383547160695095 0.016008469771693932
-0.014178966498487837 0.04323432441063999 -0.14441689621620754 -0.10457994865027498 -0.02247090092619826 0.20958719933446304 -0.04030117755912904 -0.08479103881674753
-0.12989410079404132 -0.23566513649914894 0.019689563140346557 -0.03527409835968151 -0.15182761174089546 -0.01532198953010001 -0.08349814996973229 -0.23268000432723998
0.11310817662667808 0.09406405496095606 -0.187029691717447 -0.12742579652183222 -0.01946694228328903 -0.16752952977177374 0.04440684564123116 -0.1140484622644801
0.12410757578448468 -0.022681369216078336 -0.18673354361027023 -0.19297227602572703 0.1493772139144829 -0.0900276225915468 0.21906457554540873 -0.1262388594984732
0.24504053514670696 0.13438112983693992 -0.08698230828415258 0.025285804442548368 -0.009168991562141285 -0.0652826210694868 -0.3156985730791829 0.14515443373012477
-0.09361687475932338 0.1203591829483122 0.0537322622026264 -0.25413335498877415 0.013410989172541667 0.034875825043120756 0.1774244567387647 -0.05536850320284863
0.16886807823401312 0.15203898558155662 0.03317434833834044 -0.08191098827449991 -0.3450618452286292 0.1329691888433135 -0.04760544877049734 0.16319529247438314
0.023986070611643984 0.0715871244167599 0.004331630745751976 0.18330323271153115 -0.06771738452195898 0.16446180344321437 0.17907489900845014 -0.004788007898798814
-0.040833858239578184 -0.3169006022607636 0.08329421613031374 0.03303307903713922 -0.09889615186245392 -0.2435276618395361 0.307151044329766 -0.008330956704639276
0.14495624401945806 -0.14761930657293668 -0.13172104620963276 0.13327705382116592 -0.06718510959848915 0.09931786405317572 0.051716849914560346 -0.0099242452439102
-0.3483488743998655 0.1760291827818512 0.1442098122798517 -0.031135553878500165 0.08639278385759358 0.046832339793024313 0.12160121235673421 0.006623859731979381
-0.060745271459253854 -0.19621599845465534 -0.04421605456656377 -0.09056364960108483 -0.014552528691157474 0.08030504441478352 0.12940990156523036 0.053297492147083375
0.16207530484121743 0.008343512796203541 0.1594959645158207 -0.0792055266367191 -0.07489240760119194 0.28624136409822504 0.2025080420972038 0.0644748590709386
-0.14585980229246615 0.12451052717242271 0.26854421548359797 -0.0630412945543866 -0.08016026146222321 0.03362623445519845 0.19823963747355255 -0.01632044698452844
0.13614759472166035 -0.0968744831507862 0.3577716512180294 -0.09898891748286127 -0.02722670726947097 0.2053811730757492 0.026897272845626652 -0.0463514937527741
-0.1751575748599203 0.05900055739760618 -0.33558184041779465 0.16254786396805904 0.16024782467489193 0.1285217198727379 0.07723890849274834 0.16086158914095994
-0.1573297321645006 -0.208362212494375 -0.1351440327344504 0.06651178348997498 0.02785576960714459 -0.048371534837400754 -0.008714791002985608 -0.0639169255069209
0.044325972773542874 -0.047332999668818834 0.03183094241148385 -0.031535649099715596 0.11763465955665446 0.07488272987690771 -0.07240562535301287 0.09509875816784866
0.3469721054436444 -0.17544724704280784 -0.10058988094011108 0.013518772130250324 -0.2042554851442474 0.09500283372413143 0.21866369841999186 -0.06177420824812055
-0.08145672961260873 0.007355456117086649 0.13452892945170472 0.27844963619229796 0.061737181353022176 0.2568031897747801 0.039267232893328355 -0.38154665149395883
-0.6806189016855476 -0.28263404621833643 -0.05171831127594085 -0.07571343518604028 0.09505540634756111 0.10939743730082369 0.1927599367327617 -0.4300009688643014
-0.08009955776746278 0.10784099029228718 0.006214663974676889 -0.3329590909750022 -0.6087649623323108 -0.30664291931604376 0.026014338036913484 -0.09162927027052627
0.03352910765672892 -0.055198880369325846 -0.22327818217416842 0.022973999821538842 0.1149869722643244 0.07169787919611147 -0.6535815882642106 -0.15567363999465747
-0.4169650315157293 -0.14609196389681528 -0.11035663394742201 -0.33683363518759135 -0.44400101826174787 -0.03909667726793752 0.05959074161656971 -0.293007981609785
0.3272563541808364 0.11281120567090852 -0.07775099211739502 -0.39821247506528046 -0.16737983600551526 0.2857988866810211 -0.20245244177634833 -0.04100059631149828
0.29083740452777196 0.08177373543465533 -0.16076775781601904 -0.11066337884656507 0.23949885506471633 0.23796364331409883 -0.1392888780407667 0.0859007410244544
0.11396220724535842 0.4336537107826041 -0.009926612299819147 0.09352402635736214 -0.05668408588624622 -0.37283080709896704 0.039717124063267745 -0.08001249194312361
0.18990460170427526 -0.00785358096308719 0.3245670593857294 0.10358513193033439 -0.050648537932596216 -0.19585968911574547 -0.06095738355293202 0.013669682014006925
-0.27644995274995104 0.07555252730214729 0.1665202665241582 -0.3941555929733286 -0.026211994292002317 0.09737996862181907 -0.08198123368367827 0.22568536464930405
00000000: 5b49 7b50 4a28 a6bf fc37 ba49 5aec d23f
00000010: d336 c957 801b d03f 3da7 a6f8 0aed 89bf
00000020: f66d bc3a 19d2 bc3f eeea 4b00 99a5 91bf
00000030: d229 63a2 4c0f b43f 0213 e066 ab08 c43f
00000040: 8596 9b89 1fd6 cc3f f6eb 2e38 075c bb3f
00000050: 2672 0333 be15 d8bf 2253 88a2 6712 d2bf
00000060: 4805 542f 73a2 c33f 5af3 1e4d 7d0e cd3f
00000070: 3e5b f6c9 ca69 c3bf cb6e a189 54e3 b03f
00000080: 7352 e235 7cb5 a13f b0c1 9214 13b7 c2bf
00000090: 8629 af80 652b c6bf ee1c bcab bff9 b73f
000000a0: 34c4 e9a3 ba7c 7e3f 1dfd a546 bff8 af3f
000000b0: 8072 b722 f694 ba3f 2983 8338 8664 903f
000000c0: 4978 37ab dc09 8dbf ad13 d132 cf22 a63f
000000d0: 1f85 1ebb 407c c2bf c031 4563 c0c5 babf
000000e0: 74d4 5ba2 9c02 97bf cd9f 66db c0d3 ca3f
000000f0: b8a7 361f 5ba2 a4bf 5738 b692 ddb4 b5bf
00000100: 3147 6db1 5ea0 c0bf c21d 0973 462a cebf
00000110: 2790 0a37 8029 943f 7c91 b355 720f a2bf
00000120: 8949 8751 166f c3bf 860e 889f 2261 8fbf
00000130: 4281 657f 2260 b5bf 9b62 8258 75c8 cdbf
00000140: fa92 854f a8f4 bc3f f954 c9f7 9414 b83f
00000150: c858 a7c4 96f0 c7bf c22f 5d0e 7d4f c0bf
00000160: dbe1 d661 24ef 93bf 95f4 bd8d 9b71 c5bf
00000170: 79c6 7e7b 7ebc a63f aac4 95af 4732 bdbf
00000180: cd21 2e9b 83c5 bf3f c2d5 0bec c839 97bf
00000190: 8aa7 6f7f e2e6 c7bf e657 48c7 50b3 c8bf
000001a0: e0e0 43e4 ca1e c33f 5d6f c4de 0c0c b7bf
000001b0: d5fe d6d9 4e0a cc3f 42e0 834e 9828 c0bf
000001c0: 0321 53fe 7c5d cf3f 27b2 ec9e 6633 c13f
000001d0: f338 69f9 7844 b6bf 0402 899c 85e4 993f
000001e0: 5b6f 2c37 31c7 82bf 6198 7da2 5cb6 b0bf
000001f0: 9636 b1c9 6734 d4bf aac1 dea4 6b94 c23f
00000200: f3ec 7187 46f7 b7bf c349 8902 dccf be3f
00000210: 41fe cc89 cb82 ab3f 85f8 1f8c b843 d0bf
00000220: 3480 397f 3877 8b3f a862 f67f 3edb a13f
00000230: 4b0e 9a37 d8b5 c63f 672b f8ac 4259 acbf
00000240: 0a3e ad1c 789d c53f 3518 6573 0376 c33f
00000250: 21cb 5b6a 3afc a03f ae6f d257 1ef8 b4bf
00000260: 19ae 1647 7e15 d6bf 3e95 ba66 2205 c13f
00000270: 2250 29cb bd5f a8bf d8f1 0456 95e3 c43f
00000280: 90a2 58f3 cd8f 983f 5446 2fa6 8853 b23f
00000290: 2ffb 4246 0bbe 713f 18a1 dff6 7a76 c73f
000002a0: f178 e42f ed55 b1bf a069 9d99 150d c53f
000002b0: 4a4d 6321 edeb c63f 55cd 6915 979c 73bf
000002c0: ffbe 6aeb 2ce8 a4bf 53bb b276 1948 d4bf
000002d0: 68c4 390e c552 b53f 0b28 4d34 b6e9 a03f
000002e0: b711 f319 4251 b9bf f8d5 a217 ea2b cfbf
000002f0: a307 95da 5ca8 d33f 97fe b914 d20f 81bf
00000300: 9010 b51b ed8d c23f 4596 fe7e 30e5 c2bf
00000310: d027 d538 3cdc c0bf c30c bcf5 380f c13f
00000320: 9bf1 8018 0b33 b1bf bc57 0442 e56c b93f
00000330: bb02 1286 a17a aa3f b2a3 14a6 2953 84bf
00000340: 5855 c913 594b d6bf b046 98cf 1f88 c63f
00000350: aa8b c095 7775 c23f d6a0 9aa6 ffe1 9fbf
00000360: e45c 4765 d61d b63f 18c6 9c8f 68fa a73f
00000370: 4ce3 39ce 4121 bf3f c618 c1ce 9e21 7b3f
00000380: e9b7 9b14 011a afbf 1d49 2818 9b1d c9bf
00000390: 44a1 a498 7ca3 a6bf 5d39 3ee9 2d2f b7bf
000003a0: a0c5 6b56 b7cd 8dbf 631f 7713 df8e b43f
000003b0: c028 80ef 8090 c03f 5409 7613 cf49 ab3f
000003c0: 1321 e432 e2be c43f 9e63 bf54 6716 813f
000003d0: 203f b81f 5d6a c43f c131 913a d046 b4bf
000003e0: 75a6 5d19 262c b3bf 931d 644c c751 d23f
000003f0: 7e03 fe94 c8eb c93f 45b7 1fa3 6c81 b03f
00000400: 66d6 52b4 88ab c2bf 2f99 3602 ecdf bf3f
00000410: c80c c213 d42f d13f 9399 686a 7923 b0bf
00000420: 6047 6b05 6285 b4bf 16a0 8b32 7537 a13f
00000430: 8c22 dc9b ea5f c93f 8ef6 37a8 4eb6 90bf
00000440: 9719 61cd 486d c13f 6214 f320 c4cc b8bf
00000450: f1b5 5a11 bbe5 d63f 6d5d 4173 5657 b9bf
00000460: c258 3365 51e1 9bbf dc87 c926 ee49 ca3f
00000470: b0eb e46c f58a 9b3f 6aec 930b 62bb a7bf
00000480: 87c3 d53b 906b c6bf d8dd ef30 5235 ae3f
00000490: 7575 6e41 2c7a d5bf 2684 e34f 5ece c43f
000004a0: 3fed 1d2f 0083 c43f 2dec d653 6673 c03f
000004b0: d480 f4d9 edc5 b33f 6881 45d0 1c97 c43f
000004c0: 47e0 2a73 6123 c4bf 7b59 31ec 9cab cabf
000004d0: c708 6c50 664c c1bf e758 e38e ea06 b13f
000004e0: b1d1 de0d 3986 9c3f 2030 5e60 27c4 a8bf
000004f0: de5c cb72 0fd9 81bf 4b8d b610 dc5c b0bf
00000500: 4efc d9d6 e4b1 a63f 8ac4 32eb 073c a8bf
00000510: 4cfd 5031 254c a03f bc33 15cb 7025 a0bf
00000520: 4303 ac17 4e1d be3f f144 dbbb 832b b33f
00000530: c807 f0d0 2c89 b2bf 829b 3868 6458 b83f
00000540: 454d 607d ca34 d63f 866d 1c2e 0e75 c6bf
00000550: 6d41 f228 42c0 b9bf 01b7 73e1 baaf 8b3f
00000560: 6490 5c32 0b25 cabf 385a df0f 1b52 b83f
00000570: 8fa4 c40c 2cfd cb3f e4ed 5278 dea0 afbf
00000580: 3fab b925 59da b4bf 7853 8537 c120 7e3f
00000590: 0934 2e74 3e38 c13f 6ddb 416c 1ed2 d13f
000005a0: ed86 b70d 049c af3f 9ad5 65a5 766f d03f
000005b0: 029b 29b2 d51a a43f b626 84a5 426b d8bf
000005c0: 79ec 784a a1c7 e5bf 2e9c 4f1c ad16 d2bf
000005d0: d1ab 118f d27a aabf 73ea fda7 f461 b3bf
000005e0: b51d 9215 8d55 b83f cc26 796f 7801 bc3f
000005f0: d084 1f8c 5bac c83f b04f a1c8 2285 dbbf
00000600: 6e0a 0995 6781 b4bf 9d3f 7996 779b bb3f
00000610: af0b 6e28 8c74 793f 7c2f a9a5 334f d5bf
00000620: d25f 85a8 007b e3bf bfca 809f 09a0 d3bf
00000630: 6ced 61ac 80a3 9a3f c912 2b0f 0475 b7bf
00000640: b30d b329 ba2a a13f 8f94 ec13 0743 acbf
00000650: d597 2c25 6194 ccbf 0b39 9107 7f86 973f
00000660: 8f61 5745 c96f bd3f e700 57ce ca5a b23f
00000670: c899 5bef 23ea e4bf a12b 5024 1ded c3bf
00000680: f6e1 7b19 8eaf dabf 0a97 9237 24b3 c2bf
00000690: 0069 b315 5540 bcbf 38b4 d4a9 ae8e d5bf
000006a0: 42cb 343f 836a dcbf 7f01 7fcc 7a04 a4bf
000006b0: 5b6d c67c ad82 ae3f a3c8 9e8c a4c0 d2bf
000006c0: 475a a7a2 c4f1 d43f 0098 faf6 31e1 bc3f
000006d0: 2932 6030 7de7 b3bf 20ef 502d 507c d9bf
000006e0: eaa6 d3d4 b36c c5bf f5cd e169 874a d23f
000006f0: 8b5e 362c f6e9 c9bf f97b 8cb8 07fe a4bf
00000700: 909e 397d 149d d23f f414 5d9f 1fef b43f
00000710: 2c18 09b3 0994 c4bf 68c7 0269 6f54 bcbf
00000720: e758 f702 e6a7 ce3f 69e5 d5b8 9775 ce3f
00000730: 1bd9 f0cb 37d4 c1bf 65f6 6649 97fd b53f
00000740: 374a 1991 a02c bd3f c36b 667e fbc0 db3f
00000750: 729a 8059 6754 84bf 4959 98ca 30f1 b73f
00000760: f58f 2b4e b205 adbf 359b dbbe 75dc d7bf
00000770: 0cc5 e289 cd55 a43f 45cc 2adc b27b b4bf
00000780: a402 d742 cb4e c83f bfc1 24cb 8915 80bf
00000790: 12eb 5aea b4c5 d43f 1a1d fe21 8e84 ba3f
000007a0: 987c 05ec 9aee a9bf 64ad ad27 ee11 c9bf
000007b0: 2180 9e61 ce35 afbf 6135 93a9 d9fe 8b3f
000007c0: 9bac 8224 5bb1 d1bf 1c93 e411 6957 b33f
000007d0: d4d5 6b3d 8950 c53f 9ec7 5661 d839 d9bf
000007e0: cd04 fd28 51d7 9abf ef26 84c4 e4ed b83f
000007f0: 30a0 8edd b8fc b4bf 6263 2d0e 42e3 cc3f

block.4.bias f8 [60]
0.14617275935202567 -0.16100002647500852 -0.15400030962631642 0.12699425927030875 0.03510705011774873 -0.23085080102230093 -0.13963114236989183 0.08692758252764468
0.03606210614937382 0.04398063727135739 0.08877710178427682 0.05596635057479623 0.1674263527962023 -0.06446597664950683 -0.12001399643670581 0.012423893489245167
0.1946455995768369 0.2034303425407023 0.1431202342761275 0.205529150470862 0.0011892098646573796 0.11870351193029931 0.008882698182821112 0.07295954949954056
-0.10075519863644213 -0.0950187938956764 0.22122358009825516 0.18635755066611678 0.20727665978841 0.06040183247468849 0.23125553515200467 -0.0017354649500565052
0.11605967855654145 0.13351320530334548 -0.06818144272923862 -0.04047069608878924 0.10542422648352644 -0.10291634984656775 -0.07799249521395232 0.10719357434704994
0.08295740024525808 -0.09376736879036032 0.12807557351805637 -0.016041864815739753 -0.12345786949607769 0.15712906292740367 -0.06814947341819953 -0.20975412391043774
-0.010093193451965235 -0.06137813302101193 -0.04167291035583366 -0.27196637894994824 -0.054273767217634654 -0.060190632737496995 -0.13262535620205326 -0.041533738167250624
0.19717308986737592 0.015620657081782287 0.12115469439095114 -0.09472242437054025
00000000: e0d3 7dfa c9b5 c23f 03c2 2e1c a69b c4bf
00000010: 9d9e b53a 48b6 c3bf 9540 2c0f 5941 c03f
00000020: 50c2 3a20 8df9 a13f 38b6 52e0 848c cdbf
00000030: ccab fdea 6edf c1bf 6a9a 13d4 e240 b63f
00000040: 67a8 127d bb76 a23f 43b6 794d a184 a63f
00000050: db10 cc9c 18ba b63f 5b5a ca1a 9fa7 ac3f
00000060: 8fc6 df0a 3a6e c53f a111 6a9d d780 b0bf
00000070: 8506 c2bd 3cb9 bebf a267 cdc1 b271 893f
00000080: eb14 3fa2 25ea c83f 7afa 1c66 010a ca3f
00000090: 4f50 ce8a c351 c23f 66d1 d279 c74e ca3f
000000a0: 2ca1 835e e87b 533f 1336 a975 5a63 be3f
000000b0: df4a 9091 1731 823f 220b 081f 7aad b23f
000000c0: 11a6 0bbb 17cb b9bf 238c 49d4 2653 b8bf
000000d0: 2822 d0e4 0d51 cc3f 0fa0 bc70 90da c73f
000000e0: a3f6 81a5 0a88 ca3f c7cb 312e fdec ae3f
000000f0: 6798 3f08 c899 cd3f 22d4 0b4d 116f 5cbf
00000100: badc c84b 16b6 bd3f 1a56 2ef1 f516 c13f
00000110: 5e57 b7ca 5674 b1bf fa9f 4b38 93b8 a4bf
00000120: 87ed f304 15fd ba3f 6290 d0d4 b958 babf
00000130: 2e01 47f0 50f7 b3bf db73 29c0 0971 bb3f
00000140: 96ba 0339 b23c b53f 2af6 6266 2301 b8bf
00000150: 6a97 d6c7 c764 c03f 5b77 0053 476d 90bf
00000160: ad63 eb57 ef9a bfbf 131d 431d ce1c c43f
00000170: 2f1f 926f 3e72 b1bf 42bf 321f 39d9 cabf
00000180: 7ba0 4e7e bdab 84bf c291 0764 f46c afbf
00000190: 1203 37d6 2656 a5bf 88e6 ccab e567 d1bf
000001a0: 8ffe 756e c5c9 abbf 3b25 447e 4ed1 aebf
000001b0: b30b c11f def9 c0bf b5ca 37fe e843 a5bf
000001c0: dcd9 50c2 f73c c93f 815e 771a b9fd 8f3f
000001d0: 9e7f 2a7a fe03 bf3f b18a de92 ba3f b8bf
