JupyterLab/best_model_M3_503.pt (torch, 126413 bytes, 12 tensors)

block.0.weight f8 [60, 9]
-0.17276374357384233 0.01397336208052341 0.2794006098529954 -0.17043030093709913 0.1388227346465508 -0.05690875570679408 0.20528963099873151 -0.14014422901780724
-0.005397368291087523 0.3584979479533135 0.04316071278017719 0.14430927140760955 0.18271430423324236 0.044706076018078335 0.38359672206340234 -0.02074147162646806
0.4280148010278068 0.1494721714496333 0.23476907972011482 0.10875039792584656 0.1048982942794648 -0.36879895676445945 0.3800612386303449 -0.4000664184062507
-0.33435938635847234 0.10921433569425519 0.010520339103049052 -0.03483375694196222 0.336385578234748 -0.292704618986094 -0.3196556668306176 -0.2667822784228833
-0.04607969811950112 0.025556277341075788 0.23335436058231973 0.19194047635973036 -0.15843210200756536 -0.28875050343574266 -0.19263053393693413 -0.13127319360892623
0.17895344876854813 0.14896125068549695 -0.2214835166303926 0.4190241672682016 -0.2333841640672418 0.21227837176503667 -0.2919439315393905 0.25026885779424496
-0.047327243829627295 0.18271878715795342 0.19533889532458895 -0.22869380301623335 -0.22566979007187982 -0.28043360795271527 0.4031575646578464 0.24387990409098548
0.2803973239407724 -0.2170016512732508 -0.14801666117465734 -0.14002684484835176 -0.13121870645825814 0.016468346160613496 0.04094618760915333 -0.36659213947872554
0.14905204010927958 0.09181682698264225 0.2469708210357385 -0.1071380257988679 -0.12689258165110837 0.09068941833112527 0.08108431713507036 0.3151676305132299
-0.5583179931462793 0.1794083321286415 -0.01576938236213482 0.08992392703837171 -0.41938555340943345 -0.009606220495444401 -0.08296924103740166 0.05608761516045648
0.3517179881774078 -0.014951171946786803 -0.2989973189290026 -0.3033166676862755 -0.2013353515402765 -0.14684924514350667 0.2853911045846241 -0.33451596727014554
-0.21371570646541593 -0.045505339417362844 0.38195828727842496 -0.05570598991180963 0.05445216667247663 0.08479122372905783 0.013403951577441215 -0.3843720529702776
-0.2125783795102028 0.3118406222383055 -0.04784200295001937 0.19864393333213767 0.025955913640495293 0.06256032318662799 0.2575771227048612 0.19639544176976642
-0.050824539368751386 0.20291599845317965 -0.36515036275172924 0.3384812681399537 -0.49282316029111894 0.09613431462469872 0.05624187444390928 -0.2338813746146289
-0.17931927474008336 -0.3993486040001537 -0.16477606440267817 -0.3745247627700355 -0.26207463261457103 -0.4236333479347673 0.08610114283385781 0.2086340860278804
-0.28326387369803857 0.29995875168878217 0.3343083584702425 0.05565503619079589 0.07457368209694068 -0.39928456623184205 0.27605428703214535 0.21866314965069086
0.20810853040998137 -0.29376793071031837 -0.37983117288280693 -0.33361350347270685 0.12179461856264127 -0.16019835338445204 -0.3298471911371749 -0.2974139831331473
0.031387213556958365 -0.18500570184632079 0.16550805944091893 -0.07437997450427063 0.3843748922041578 0.04614329715688993 -0.2519381549138377 0.1563275684860888
-0.2751315728505949 0.32281200413849254 0.3266861533255577 0.21311711213954176 0.30258320733989563 -0.2479438524609612 0.39307116169176043 0.07547689169243126
0.169306373979285 0.3073910087698506 0.011948273293724193 -0.21572577984162594 -0.048669314159284036 -0.2618760949153117 -0.5219953273598565 -0.10846291717331864
0.07801680348967667 0.24224994749204748 -0.03288942534257388 -0.027775318131631355 0.013659686338723751 -0.1415360212472791 -0.07413139422925626 0.37321942849265616
-0.32251328996489115 -0.3288303645520253 -0.022548755664506447 0.12179416589333714 -0.07178143527019555 -0.10362312277164909 0.004237462901617035 -0.1270819915980669
-0.2080970684109292 0.15125822595394486 -0.2712466059880412 0.381996981980449 0.05075833149432259 0.23850097557639488 0.3384758724896817 0.17432168381665797
0.20177369085002364 -0.04462748128650062 0.22177209509792223 -0.24491998005549065 0.06576749420352833 -0.3868133080175613 -0.08062775654256148 -0.02225413928792225
0.25099809015684843 -0.11338842125029504 -0.18566250086400088 0.41641453533029676 -0.0827627690328851 0.0669970893896983 -0.10714413850159597 0.20808438442210092
-0.04935106181756712 -0.3124380446826493 -0.09671011014523868 -0.2630954789665111 -0.16188742729403577 -0.44670285964775164 -0.3618283450628932 0.07253977610399576
-0.0388124330079277 0.29137424619723706 0.30664717176453476 0.29921798106564934 -0.15078053475973224 0.22005977696263124 0.07085451628950279 -0.2789774158688096
-0.37538829613035524 0.23886082472102416 -0.2048152318998129 0.04592832159421734 0.03691895007273611 0.3643363668578201 0.2761981436977682 0.3285885389105299
-0.23666657930173926 0.2914173615386381 0.3935097478731493 0.1924167768723717 -0.0640413639643762 -0.0761135063535093 -0.0042341566792782025 -0.12560166300906372
-0.05576799374566706 0.20505558650375572 0.09054033799945588 0.0010905018987549847 -0.0008258980977262366 -0.20602193143788508 0.04482697419903978 0.004849630426591702
-0.15401855471739903 -0.3708471241519691 -0.01609464114178607 0.291370603991468 0.2876455888285279 -0.018018993937983358 0.23952642970540045 -0.4165952153799257
0.25396248889476186 0.18101912718072602 -0.17361465109941396 -0.20486871709379365 -0.1801491658105326 -0.026265417386503027 0.008799065838765066 0.04028893137820645
00000000: 82c6 4a52 1f1d c6bf 2047 35e9 109e 8c3f
00000010: be44 7318 b3e1 d13f 09da 62fc a8d0 c5bf
00000020: bbc5 9f80 f1c4 c13f 8dc4 3bf9 2423 adbf
00000030: 8f79 ac3d ee46 ca3f 1164 2d00 3ff0 c1bf
00000040: 190b b704 8d1b 76bf 3920 8960 a1f1 d63f
00000050: 60cf b933 2919 a63f 5146 9ae8 b978 c23f
00000060: ceb9 98ac 2e63 c73f d53a dcfc b6e3 a63f
00000070: 0a5e 0744 d98c d83f 51f3 3999 403d 95bf
00000080: 7f93 2731 9864 db3f 5be6 0474 e721 c33f
00000090: bb44 c1c7 e90c ce3f 3cbc 84ea 10d7 bb3f
000000a0: e523 5657 9dda ba3f 9d8b 86f0 669a d7bf
000000b0: da40 995f ec52 d83f be17 d22d b09a d9bf
000000c0: 0f4c 61e9 2466 d5bf 3faa 0f80 78f5 bb3f
000000d0: 7c97 1f03 b08b 853f ef9e b9ed bad5 a1bf
000000e0: 9050 5760 5787 d53f 10bd 7b27 acbb d2bf
000000f0: 5330 c10a 3d75 d4bf 35a2 3efa f512 d1bf
00000100: 4699 dd18 c297 a7bf 7eb9 8cbd 6c2b 9a3f
00000110: 3c3f 8a41 8ede cd3f a931 5f6a 8191 c83f
00000120: de27 61cc 8047 c4bf 7771 3d64 e37a d2bf
00000130: e22d bc09 1ea8 c8bf f926 b25c 8fcd c0bf
00000140: 54d1 fb54 f2e7 c63f 3961 088a 2911 c33f
00000150: f9ea 4366 9259 ccbf c4a2 a9bd 4ad1 da3f
00000160: 675b 0944 88df cdbf d681 300c f02b cb3f
00000170: d38c 8e99 35af d2bf 65bf dbab 6704 d03f
00000180: c387 eac8 463b a8bf 20a6 9a47 5463 c73f
00000190: f926 876b dd00 c93f d154 60aa d645 cdbf
000001a0: 80e6 0668 bfe2 ccbf f1cb b6cd 9ff2 d1bf
000001b0: 07ca d562 55cd d93f 9477 1cea 7437 cf3f
000001c0: cb89 0d9e 07f2 d13f 15c4 b2c9 b5c6 cbbf
000001d0: de0e 81bf 35f2 c2bf 3ac6 974f 66ec c1bf
000001e0: 4f4a 6e4a c6cb c0bf d256 b700 14dd 903f
000001f0: 2bb9 5a11 e6f6 a43f f508 82e0 3e76 d7bf
00000200: 9ef1 d522 2314 c33f 8fe9 1cbd 4e81 b73f
00000210: 0b17 b567 bd9c cf3f 01d2 f6cc 656d bbbf
00000220: 5ff4 2520 043e c0bf 6d50 d3f5 6b37 b73f
00000230: 6049 501a f1c1 b43f 01fa 73da b42b d43f
00000240: a59c 2ab2 bddd e1bf 80ab 8f2b daf6 c63f
00000250: 500d 1856 d925 90bf 68f8 c125 4105 b73f
00000260: 77bc 1381 36d7 dabf 1dc5 ed16 6dac 83bf
00000270: 705f d4e0 783d b5bf 734b a611 84b7 ac3f
00000280: a9c2 282a 8c82 d63f a1f6 6254 b89e 8ebf
00000290: 6612 99a6 c522 d3bf 0cd5 0250 8a69 d3bf
000002a0: 8973 3257 5bc5 c9bf fab4 aac0 f4cb c2bf
000002b0: 5da8 300d d943 d23f b290 daa8 b568 d5bf
000002c0: 2c8b f448 095b cbbf 6891 2ed1 794c a7bf
000002d0: 2e02 132c 0172 d83f 4f9d b9d9 7e85 acbf
000002e0: 3df8 1b86 27e1 ab3f 9374 e7ac e0b4 b53f
000002f0: 3758 4ced 8773 8b3f fb3c 403d 8d99 d8bf
00000300: aa9f eab1 c435 cbbf e1fa 845e 32f5 d33f
00000310: ad47 173c bf7e a8bf 47ec 9a16 2a6d c93f
00000320: d818 e5e0 2f94 9a3f 3a1f 1d0e f403 b03f
00000330: 26c5 8dc1 247c d03f 0008 be5f 7c23 c93f
00000340: 3b9a d88c ac05 aabf 2086 98c4 26f9 c93f
00000350: a509 89a0 9f5e d7bf b20f 3e56 ada9 d53f
00000360: a659 0a27 6a8a dfbf f321 5629 429c b83f
00000370: 02fe cd26 bccb ac3f 7182 8e2b d3ef cdbf
00000380: 588a 461a eff3 c6bf 1092 7872 ed8e d9bf
00000390: b2f4 e2cf 6117 c5bf edec e8b5 36f8 d7bf
000003a0: 0736 0cae d4c5 d0bf f7fc b70b cf1c dbbf
000003b0: fea0 9e78 b90a b63f 5109 2990 85b4 ca3f
000003c0: 67f7 6acc fe20 d2bf 5abf 2931 8632 d33f
000003d0: 492f 9ae2 4e65 d53f fb25 9820 d17e ac3f
000003e0: 3ea8 bfc5 4217 b33f 08da 70da e08d d9bf
000003f0: 7750 ae99 dfaa d13f 7387 4b72 27fd cb3f
00000400: 2d93 10e2 4ca3 ca3f 1eec c001 18cd d2bf
00000410: 4f1c 6268 274f d8bf 21d5 ba73 ec59 d5bf
00000420: af2a 8e9f ee2d bf3f 0a63 5430 6181 c4bf
00000430: e724 a764 371c d5bf 8584 bba8 d408 d3bf
00000440: 7cba 7a1f fc11 a03f db71 804f 44ae c7bf
00000450: 43f7 423b 5e2f c53f c320 f9e5 900a b3bf
00000460: 8fe7 da25 9999 d83f f2d8 6f20 18a0 a73f
00000470: 870c fe35 c11f d0bf aa33 0eb1 8a02 c43f
00000480: d761 df74 c19b d1bf 98fc 21ae f3a8 d43f
00000490: 4ab7 250a 6de8 d43f e4bb 6de9 6b47 cb3f
000004a0: 2efe f5f4 855d d33f b133 c8c8 9fbc cfbf
000004b0: b1e0 1df2 1328 d93f cb37 6c1d 7452 b33f
000004c0: 6e68 9fcd d4ab c53f b00f 7056 4bac d33f
000004d0: 905c 5218 5678 883f e274 a900 e79c cbbf
000004e0: 2608 4431 2feb a8bf 3afd d0f3 93c2 d0bf
000004f0: dc9c 758b 2fb4 e0bf ad91 16ca 39c4 bbbf
00000500: 91d0 86c3 e8f8 b33f dad0 f7d8 0b02 cf3f
00000510: af0f 76fc e1d6 a0bf fd9f 0b0c 2271 9cbf
00000520: 1299 c910 9cf9 8b3f 6644 3b33 da1d c2bf
00000530: 5d50 d269 46fa b2bf afe5 e6bd d3e2 d73f
00000540: 322c 3bc8 0ea4 d4bf 76b1 6b83 8e0b d5bf
00000550: e604 9460 0517 97bf d800 5b07 e72d bf3f
00000560: c107 f2a4 4460 b2bf 60e3 6983 0b87 babf
00000570: c88e 4949 4d5b 713f d580 e902 3944 c0bf
00000580: 0bf5 9bbb eca2 cabf e390 dcf6 6d5c c33f
00000590: 18a8 77b9 1a5c d1bf f1b5 3178 a372 d83f
000005a0: 6a08 89fb fefc a93f 3e15 1531 3387 ce3f
000005b0: 0802 b5b4 96a9 d53f 12f4 7c45 2c50 c63f
000005c0: c170 b265 b8d3 c93f ffb9 41c9 69d9 a6bf
000005d0: 8634 ce2b 0763 cc3f c8d6 3cb4 8959 cfbf
000005e0: 5778 be74 23d6 b03f b8f3 e59a 8cc1 d8bf
000005f0: ef09 8049 05a4 b4bf 71de c401 cac9 96bf
00000600: 8341 254b 5a10 d03f d9dc 0309 0607 bdbf
00000610: 66f8 a6f0 c9c3 c7bf 7ba6 b426 89a6 da3f
00000620: bc98 52da f02f b5bf 111f dba3 b826 b13f
00000630: 078c d25a cc6d bbbf 065b f354 82a2 ca3f
00000640: b303 0fd9 8a44 a9bf e70a fc23 fcfe d3bf
00000650: 0930 4468 fec1 b8bf 66be 786b 8ed6 d0bf
00000660: 5e44 ee2a bab8 c4bf 95df 4d97 c796 dcbf
00000670: 44e6 3313 3228 d7bf 689c 067e f791 b23f
00000680: b1fc e424 39df a3bf 1015 942a e0a5 d23f
00000690: bdee 8875 1ba0 d33f ca55 c32c 6326 d33f
000006a0: f24d d5cc c64c c3bf 641a 9c34 eb2a cc3f
000006b0: 98c0 3c86 8523 b23f 0baa 5e17 c4da d1bf
000006c0: 2596 cba1 5c06 d8bf 2e77 3cd3 fd92 ce3f
000006d0: b9bd 5db1 6237 cabf b127 6abe ea83 a73f
000006e0: 8982 5466 0ae7 a23f 7c75 197b 4951 d73f
000006f0: ee75 99fa 3aad d13f 7983 1d39 9807 d53f
00000700: d71d 1429 174b cebf 3fe2 5201 95a6 d23f
00000710: b46e 7182 432f d93f 282d efe9 1ca1 c83f
00000720: 6f77 d1cb 0365 b0bf 667c 92bc 2c7c b3bf
00000730: 9c11 6bc7 d557 71bf f03b 791d b713 c0bf
00000740: 4a33 9a5a 9f8d acbf 46a7 f2ee 423f ca3f
00000750: c42b adce a62d b73f 12bf 727f e5dd 513f
00000760: 0c6f e7a8 2210 4bbf 8969 e438 ed5e cabf
00000770: cdb7 53a8 8ff3 a63f 0243 47c1 34dd 733f
00000780: 6584 be47 e1b6 c3bf 5018 8393 f5bb d7bf
00000790: 661a 6115 1d7b 90bf 0f2f cae3 d0a5 d23f
000007a0: 35dc 360b c968 d23f 458d ae36 9273 92bf
000007b0: 1661 0e53 cda8 ce3f d484 6efa 7ea9 dabf
000007c0: 55ae 0de2 eb40 d03f 1189 987f a22b c73f
000007d0: 1b0a 4a40 0139 c6bf c516 f25b 2339 cabf
000007e0: e369 c7bb 200f c7bf 6566 c352 52e5 9abf
000007f0: 684f 1aa0 3e05 823f c203 5235 c0a0 a43f

block.0.bias f8 [60]
0.2564026532780278 0.292719878086735 0.07097038840412505 -0.14588767126941324 0.2990620047500732 -0.3206255737154361 0.08346877223932102 0.028960265639398918
0.2711353560828972 0.02594313498895802 -0.019237241198472102 0.37140592628080676 0.034408443720577865 -0.28077585227895124 -0.3252346005197716 0.33764632142658774
0.005780306102745669 -0.21169657452624652 -0.1123040544654345 -0.11677223426744907 0.049715617390709975 -0.06780819041732737 -0.2416781733508198 -0.1411786791402711
0.07989046000528417 -0.14388129915814268 -0.23543951553076098 -0.2581146135618047 -0.08664535894319697 -0.13017336354554537 0.03842285103012433 0.1009651832340715
0.21144440431287978 0.0959621307721361 -0.22566015417057933 0.04082150743836115 -0.18205751004269402 -0.0710562447693023 -0.1959237209655707 -0.1433684632879292
0.3362461573756469 -0.14695995259008618 0.0891943747452608 0.06942540541072065 0.12123425814176236 -0.27785052462009296 0.017252747335790946 -0.17816870875394214
0.18520293908106436 0.14822955238242716 0.06327360742585357 -0.11212097124102598 0.04926007315789127 0.046664509611037706 0.036668872837496654 0.2567178783712864
0.047659540239843146 0.24080757838658604 0.07056449842116888 0.1886013623544514
00000000: d2f3 9bac e668 d03f 7362 d127 ecbb d23f
00000010: 4f1d 2e89 1d2b b23f f7f0 7e7c 72ac c2bf
00000020: 3d2d 78f6 d423 d33f 469e 5720 2185 d4bf
00000030: ef51 019f 355e b53f e300 3887 c2a7 9d3f
00000040: 3a95 ca1b 485a d13f 7449 5551 d690 9a3f
00000050: d434 4067 edb2 93bf 6daa ba5c 1dc5 d73f
00000060: 25e7 f8c8 fb9d a13f 19db c247 3bf8 d1bf
00000070: 8ea4 30c9 a4d0 d4bf dd14 0951 ff9b d53f
00000080: cd2c c11a 17ad 773f 72fa 2194 df18 cbbf
00000090: 6b22 2361 f5bf bcbf 7e71 42ff c8e4 bdbf
000000a0: f34b 964d 5374 a93f f34c 3ea8 e05b b1bf
000000b0: f271 5975 4fef cebf 7e64 e698 2412 c2bf
000000c0: f52e fc80 b373 b43f 92f2 31d1 b36a c2bf
000000d0: 8a02 b2cd e122 cebf 3d87 f727 f384 d0bf
000000e0: ccde 02e7 632e b6bf 1285 9e51 85a9 c0bf
000000f0: 80da 2ff1 28ac a33f 6465 06b0 dad8 b93f
00000100: 2f17 b938 9c10 cb3f ef1f 5265 f990 b83f
00000110: 6e23 1693 6ee2 ccbf 27a5 d77e 8ee6 a43f
00000120: a9f1 cf15 a94d c7bf 0af2 75f7 bd30 b2bf
00000130: 8a64 074b 0714 c9bf 35ba 8cd6 e559 c2bf
00000140: 7261 559a 0e85 d53f cf1a 196f 95cf c2bf
00000150: cf9f 844a 71d5 b63f 7226 c005 ddc5 b13f
00000160: 38aa df55 3509 bf3f 0edd 1a91 4dc8 d1bf
00000170: 5b22 4b46 b4aa 913f c265 a274 3bce c6bf
00000180: d1f5 3cdb bab4 c73f 5341 e49b 2ff9 c23f
00000190: 530f 98fa b232 b03f eb0b adc0 f5b3 bcbf
000001a0: 5065 6cc6 9d38 a93f 0b9a 531d 69e4 a73f
000001b0: c188 3c33 43c6 a23f b7cd f9d2 106e d03f
000001c0: d854 58cd d466 a83f e350 e660 c8d2 ce3f
000001d0: a241 fad4 8310 b23f 9a8e a5e5 1624 c83f

block.2.weight f8 [60, 60]
-0.008020801887672022 0.10867520082376195 0.0038446374311861204 0.09630011995335397 0.00982962330823437 0.1681872698441841 -0.014314812950254958 0.05116899917674174
-0.23812332262958957 -0.06233099964309158 0.09251831649076635 0.09213012573971326 0.07737304729699013 -0.011783290547135615 0.07093119583600807 -0.055546574727635405
-0.0047423368927987375 0.10688422068415748 0.09295209243620227 0.08239154115704136 -0.08547894541993571 -0.09659063650934031 0.1502542786934511 0.07830918516914012
-0.07647436294869904 -0.010669088605496787 0.054114574583972244 0.1281806382504983 -0.08877429907152974 0.0604571400680729 0.06189210867782977 -0.0013162235202614355
0.1268359053635285 -0.156378144779694 -0.01332320979663524 -0.02761904624335223 0.01757987986833537 0.12725999285481016 0.22876792304980675 0.05633637168652048
-0.19392252807069643 -0.041475042475479645 -0.022033608762166545 -0.007934528978758112 -0.09881778527275213 0.09698436193463694 0.008460389389999693 0.19260976087925277
-0.02400913524228034 0.10075190471051042 -0.018037766380570766 0.07063605006166272 0.02828582175774971 0.08501417629817935 -0.041507385827252795 0.019955872778666842
-0.053135643639963474 0.159837424458803 0.06692995903350542 0.02025409562074879 0.0764337107762959 0.03095964515958025 0.0062977092808166575 0.01049758411497464
0.050644034238444866 -0.04301617684449196 0.02385917644786293 -0.2686340324501277 0.029509042097204986 -0.19338881907469968 0.01857005011597775 0.08805920837539302
-0.1075214096063073 0.10647535950595635 -0.16262710097777403 -0.105536399379768 0.09746486140545178 -0.022214154014035828 -0.011615845700750735 -0.018190515932514573
0.054975314515548865 -0.16618607536896274 -0.017165197402603853 -0.08096622750894764 -0.014719979982273368 0.0954011852028276 0.14005381098802924 0.01899451534677258
-0.16605060611723552 -0.08797221909789268 -0.06218675428768029 -0.03314900893504263 0.07535801451475131 -0.01694422956812889 -0.09604857353619438 0.03488720301807968
-0.0364776450574905 -0.10687313214836702 0.23772171101768802 -0.0011175336842519778 -0.02385500623260395 0.024892655593479075 0.057404888960915244 -0.22891747768434137
0.05489238900679283 -0.11240658370727027 0.046999256582338736 0.07275937754345964 -0.06435424066868073 -0.10491026171105029 0.1376019006451685 0.12584349298436984
-0.058949164110737216 0.11618371072561848 -0.06497336412320394 -0.03834746625787605 0.041235168097199605 -0.12190758589794012 0.006492167122712503 -0.0581865873405414
0.07089584868624726 -0.13390674570057204 0.14811763849358756 0.05254871356566657 0.00854098935228981 0.19046599873235667 -0.0995596684414576 0.0009816414860848676
-0.12520133770782502 0.1319407147264716 -0.08078891367248293 -0.09369664272989885 0.11327384363274907 0.0912002819505793 0.021914016300660845 -0.0160998425234455
0.07974333752321494 -0.0379408014586589 0.13704655697318713 0.08580459408846826 0.1450688672444662 -0.018528840373934048 0.13730267283387124 0.08387430415835409
0.05999853497248507 0.21259835979227026 -0.10974705571684464 0.12928096336771658 -0.018951065938700575 0.10112257923308371 0.021512746850010925 0.0038339312662801707
0.12655018987333863 0.03154853214459877 0.1269608780693467 -0.018185865719023454 0.037382724558589736 -0.03773805784907775 0.0710312486428475 -0.103551129548612
-0.12206481547907433 0.0325496144049577 0.03130791589445937 0.1456411708143937 0.024877011791536643 -0.10842780033044863 0.13116409632404735 -0.045377573894917284
-0.0065910812425410865 0.11509622525817055 0.042397028636174984 0.0029110382414985524 0.08262456367872596 0.1282470110703426 0.1243348543061955 0.03161058957057113
0.08406152420913342 0.15056858226719658 0.1559754620618993 0.1535177438735385 0.0787910561154008 -0.0649347389185291 -0.030765962313266608 0.049430741353592135
0.11803589582665308 -0.090109398455873 0.07712062026435276 0.09788391062693719 -0.048775426415805644 -0.06297825415942433 -0.04531405245353293 0.14382522453432858
0.06100570707717187 -0.1392744584516652 -0.0631604216680918 0.029763818501750354 0.0029828036402804515 0.15049427025069076 -0.030995569250879026 0.09124939711965502
0.07935668904679366 -0.00013152475886002134 -0.15568524964312191 0.0434734147739125 0.09309590771948752 0.1634964812261819 -0.018850643077619425 -0.005207122838229455
0.16164435263735694 0.10306974087301253 -0.08918874674457998 0.09529572958722139 0.01610049874380254 0.04359391029324398 -0.15493166587581633 0.06524773303121177
-0.07454198361072487 -0.1488355837209722 0.10680936608221486 -0.1705728830339236 0.016651920399035937 0.022267683817519517 0.16805499908706373 -0.059025561718276935
-0.020819478431262126 -0.16578293055155355 0.0864554493374271 -0.1791588737700038 0.06344304144609322 -0.07249548954463621 -0.09155988422994644 0.07276679127022181
0.10795097451068363 0.11650712011597855 0.04462275593680991 0.1561762027411383 0.16173035831466 0.01760127611003649 -0.07937803028942725 0.10279637595156342
0.035394254372016334 0.0076020062519139035 -0.05864127467041945 -0.08085919673548314 0.019647229776136938 -0.14796875012543784 0.1514363093498921 -0.16687324057302264
-0.14237642832383868 0.08211780360335381 -0.07321145618410885 0.019452974382747634 0.09424398275945975 -0.09640583517387064 -0.0442943386458924 0.09449585355914183
00000000: 25aa 5cce 356d 80bf 429e 6c51 23d2 bb3f
00000010: f280 0501 ca7e 6f3f b0ef cce9 1fa7 b83f
00000020: 537e 20b5 8d21 843f 45ca ca13 2987 c53f
00000030: 4af3 c1ab 1551 8dbf eaf9 10b4 d232 aa3f
00000040: e0f1 8d35 d37a cebf 38f6 fc49 d9e9 afbf
00000050: 8fdb 9bc7 47af b73f 9947 0705 d795 b73f
00000060: c880 bb53 b8ce b33f 1f4f 507c d621 88bf
00000070: 5abf 61fe 8b28 b23f c753 b8c3 9970 acbf
00000080: c069 c75d b36c 73bf d801 4ca8 c35c bb3f
00000090: c7b6 1b55 b5cb b73f 468d bcae 9c17 b53f
000000a0: d73f 13bb f2e1 b5bf 014e e8f8 29ba b8bf
000000b0: c845 893e 883b c33f 2a22 471d 120c b43f
000000c0: 51db d8e7 d293 b3bf 1121 1cd5 acd9 85bf
000000d0: 4a75 26d0 e7b4 ab3f 0416 a220 3968 c03f
000000e0: a5cf 3c97 e9b9 b6bf 60db cdfe 3cf4 ae3f
000000f0: 0db3 4d8d 52b0 af3f bce6 513e a490 55bf
00000100: 1459 bfb0 283c c03f fba7 d1f4 3204 c4bf
00000110: b498 d5f2 3249 8bbf 6698 72d1 2a48 9cbf
00000120: 508f 68c4 7500 923f f846 b331 0e4a c03f
00000130: c0b6 ef6d 4448 cd3f 6d14 f0f3 1ed8 ac3f
00000140: 68b9 0212 74d2 c8bf 3496 107e 373c a5bf
00000150: 237a 2f74 fa8f 96bf b88f c873 fa3f 80bf
00000160: 8376 0254 1f4c b9bf c491 bb96 f7d3 b83f
00000170: f589 ee3d ae53 813f 59f2 eec7 6fa7 c83f
00000180: 65ef aeca d995 98bf 27c9 bd77 e0ca b93f
00000190: a42d ca02 7e78 92bf 3ff7 ee44 3415 b23f
000001a0: 7761 8f5d f5f6 9c3f a3a5 e532 7dc3 b53f
000001b0: 634c 57c1 7440 a5bf 4140 caf3 4f6f 943f
000001c0: df00 5f57 9834 abbf 681c 5d7f 8d75 c43f
000001d0: 19e9 2b61 5222 b13f a966 3459 7dbd 943f
000001e0: e89a 18e0 2891 b33f 191c d39d e2b3 9f3f
000001f0: 9dc5 6976 a0cb 793f 1dc5 afe3 c17f 853f
00000200: de4f 95cd 03ee a93f abf9 7d61 3706 a6bf
00000210: 9a56 363a 8a6e 983f 53d1 fdcb 4c31 d1bf
00000220: 2aa2 f94a 9e37 9e3f 2e40 abfe f6c0 c8bf
00000230: 359a bbf7 0604 933f 8e7e 155c 0c8b b63f
00000240: 4000 e1e9 8586 bbbf ca6d e81a f841 bb3f
00000250: 3948 1200 f7d0 c4bf b0aa dff7 6e04 bbbf
00000260: dbde 3e08 75f3 b83f a48e fea3 4ebf 96bf
00000270: 186b 336b 0cca 87bf 6d2d 1cdc 88a0 92bf
00000280: 36fa dc73 b925 ac3f 0e51 61d7 9545 c5bf
00000290: eeee e4e5 c093 91bf b63e 3be3 33ba b4bf
000002a0: c01d f944 8225 8ebf e11e 724a 366c b83f
000002b0: 13d7 ef84 48ed c13f 0afc de58 4c73 933f
000002c0: 9793 6071 2541 c5bf 1264 fbeb 5885 b6bf
000002d0: 32e8 d137 f1d6 afbf e7a8 8a2a e8f8 a0bf
000002e0: e714 d5af a94a b33f 5a74 67ff d359 91bf
000002f0: 0b58 2aaa a396 b8bf d0eb 0548 bcdc a13f
00000300: 6e31 1da9 32ad a2bf 78f8 659f 095c bbbf
00000310: 8460 2f3f aa6d ce3f bd0c 11a8 464f 52bf
00000320: 01ab 755e 726d 98bf 9d03 bdd6 757d 993f
00000330: d36e 6f71 2c64 ad3f 0d8b 11fc 2a4d cdbf
00000340: 90be 2aef da1a ac3f 4eb8 e088 adc6 bcbf
00000350: e237 ea5b 4910 a83f 21c7 06cb 5ba0 b23f
00000360: dce8 07ff 8479 b0bf b552 101f 66db babf
00000370: 67b8 9167 f09c c13f 8d21 64bb a31b c03f
00000380: cbdc f6b7 952e aebf 0efb e435 37be bd3f
00000390: cd2f 052a 18a2 b0bf a890 ec72 47a2 a3bf
000003a0: 7d56 d8a4 c61c a53f fee2 90e6 5535 bfbf
000003b0: 0433 8ed7 8797 7a3f e20e 63e3 a1ca adbf
000003c0: a493 87f7 3a26 b23f 20b6 bf32 db23 c1bf
000003d0: f635 a5ce 84f5 c23f dd3d 6c3c aae7 aa3f
000003e0: e26d 8c2f f07d 813f f718 c799 3061 c83f
000003f0: e9e7 f40f be7c b9bf eb7c 1085 4d15 503f
00000400: 836e 6ff1 9806 c0bf 736a 61ef 6ee3 c03f
00000410: 5549 1a0e 95ae b4bf ef18 45d0 80fc b7bf
00000420: 8916 e5bd 83ff bc3f 921c 5dd4 e658 b73f
00000430: ca65 57bd a070 963f 3490 6f24 7a7c 90bf
00000440: e870 bc32 0f6a b43f 46df e50a fa6c a3bf
00000450: b857 1dd8 bd8a c13f e5de 7435 4af7 b53f
00000460: afca 3ddc 9d91 c23f 3262 c16d 39f9 92bf
00000470: 5dc8 bc4c 2293 c13f 32bb 5551 c978 b53f
00000480: 6e8b 07c3 20b8 ae3f 78da 3e4d 6c36 cb3f
00000490: e9d9 220f 6218 bcbf 9971 d452 478c c03f
000004a0: 6767 b981 e867 93bf b479 b15a 2be3 b93f
000004b0: 41f4 ab00 7007 963f f1ce eb2c 5668 6f3f
000004c0: 8b7f 67ef cb32 c03f a480 9813 2127 a03f
000004d0: e6f2 9609 4140 c03f faf4 0cca 509f 92bf
000004e0: d43b d416 d423 a33f 197d 8d18 6752 a3bf
000004f0: 5142 ea99 1a2f b23f af09 e0aa 5382 babf
00000500: f892 79c6 a33f bfbf 9ac0 bbd2 57aa a03f
00000510: 42c8 be55 9707 a03f 12ab ccb0 5ea4 c23f
00000520: f775 4400 5c79 993f b080 65a0 ecc1 bbbf
00000530: bc82 0f30 fcc9 c03f d473 b3b7 ba3b a7bf
00000540: b4a4 1ce6 3fff 7abf f97b 603b f276 bd3f
00000550: bd40 e136 10b5 a53f 4ab4 6dc1 e3d8 673f
00000560: 81ad d826 e226 b53f f6ad 2de7 656a c03f
00000570: 2f7f ffb4 68d4 bf3f 3b65 d360 432f a03f
00000580: 1384 5459 0e85 b53f d343 52d0 d445 c33f
00000590: 7565 4402 01f7 c33f 5a72 a52c 78a6 c33f
000005a0: 6ea2 3b91 a62b b43f 8285 0724 909f b0bf
000005b0: 8e9e dcc7 1c81 9fbf 9db9 0f73 fc4e a93f
000005c0: 985c 54b8 9937 be3f 1322 6ed7 6811 b7bf
000005d0: 0af4 e14d 2dbe b33f 1481 f282 eb0e b93f
000005e0: 6bd2 9bba 17f9 a8bf bd51 f9c5 571f b0bf
000005f0: 409f ac4a 6733 a7bf 817e db6d dd68 c23f
00000600: 1c18 88d9 233c af3f d8e7 1bd6 bed3 c1bf
00000610: 5a4d 7709 482b b0bf 7ec1 460c 687a 9e3f
00000620: cd8c bb82 646f 683f 2d26 7b70 6543 c33f
00000630: cc82 0371 4dbd 9fbf 4c9c 68d8 1e5c b73f
00000640: 04c1 2c50 b850 b43f 91ff 6913 3d3d 21bf
00000650: 34e9 d787 7eed c3bf 6b17 66bd 2542 a63f
00000660: 21f0 0b27 22d5 b73f e152 f0e3 73ed c43f
00000670: 4497 1b3e 954d 93bf 9342 be64 1054 75bf
00000680: 8e8c 141c c3b0 c43f 8dbc 414e c762 ba3f
00000690: 3f6f 70de 12d5 b6bf 1d8c 060a 4d65 b83f
000006a0: 1137 372e a67c 903f 8d4a 07e6 f051 a63f
000006b0: 4595 0603 cdd4 c3bf 6fd7 814f 13b4 b03f
000006c0: e27a c9f5 2e15 b3bf c504 485e 0b0d c3bf
000006d0: 5cc7 3ace db57 bb3f 8c89 1b0d 55d5 c5bf
000006e0: 5a29 1e76 330d 913f 3b02 04f7 56cd 963f
000006f0: 4a0e 8182 d382 c53f c782 6a32 9938 aebf
00000700: 0c9e ed8b b351 95bf 6b1b 7a04 6038 c5bf
00000710: 9819 77bf f121 b63f 97af d08f adee c6bf
00000720: 4674 2b9c cd3d b03f 15a4 b37c 108f b2bf
00000730: 89a6 64f4 7770 b7bf da8e bd2c d8a0 b23f
00000740: 4b3f 18d1 aca2 bb3f aa36 a61e 69d3 bd3f
00000750: b6dd cf3a cbd8 a63f 4ce4 97f1 94fd c33f
00000760: 7dac dd93 94b3 c43f 63b9 0aa5 1106 923f
00000770: 482e 1d5c 1e52 b4bf 27fa db00 dd50 ba3f
00000780: aafc fc19 321f a23f a37b c603 4823 7f3f
00000790: fe76 cfa9 3a06 aebf 784a 8f35 30b3 b4bf
000007a0: 35cc 6145 671e 943f 3f33 4fd7 a3f0 c2bf
000007b0: 4ad8 0ad6 4362 c33f 9f59 6b33 1a5c c5bf
000007c0: 70a3 af0b 6439 c2bf 3d50 e520 ac05 b53f
000007d0: 40d7 006a fcbd b2bf 83a3 2203 7beb 933f
000007e0: 66f2 cba7 5f20 b83f 9420 3785 0dae b8bf
000007f0: f29c c35f bfad a6bf 02e5 a458 e130 b83f

block.2.bias f8 [60]
-0.063423134631317 -0.11339338697341823 -0.09351465385890392 0.13612076046903152 -0.032619265866573245 0.0188791334151223 0.013906315029348285 0.003007428358398328
-0.024560287325368628 0.10553532239688912 0.09072573363872717 -0.09610595542488187 -0.014072286787930096 0.0691541870614241 0.1082241792396944 0.14976996643208432
0.12521162127030955 0.1414350170513833 0.1304777408803098 0.02974601794286454 -0.007998202403386627 0.05515980426987929 0.0024913758381788376 0.1386900171900135
0.046148493749188384 0.0034238665426999503 0.1066710666180652 -0.05317874948280466 0.08785053602760358 -0.01971567605451404 0.0661476947580008 -0.12387319908964244
0.09874090886593952 0.1646609152715706 0.1503753562666804 0.13067865821229355 0.03098154132374859 -0.013704318749681562 -0.0553693750600086 -0.022739893846371487
0.12975225969872078 -0.05483716174255995 -0.07367108141827343 0.004005002284875704 0.0518767016949967 -0.015155045960564145 -0.07344318153320921 -0.00032544881115358624
0.10586903164534672 0.09181301526294679 -0.043879295562701766 -0.14227986323995595 -0.030658503617074194 -0.013953690948899889 -0.12077599248984767 0.09009325278967281
0.1340429667931916 -0.1291633131200135 0.0651076737485667 -0.0344607492573384
00000000: c122 0da1 7f3c b0bf 4d2d a258 5907 bdbf
00000010: 0a50 058c 93f0 b7bf b7b4 42b3 676c c13f
00000020: cda0 3bf0 78b3 a0bf ab0b 6132 0d55 933f
00000030: d546 1202 ea7a 8c3f 5864 38ce 08a3 683f
00000040: 9e0c 5ffb 5426 99bf f077 44e6 5c04 bb3f
00000050: e949 e23a cd39 b73f f82d 805f 669a b8bf
00000060: 5ed2 455c eed1 8cbf b26e cfbb 16b4 b13f
00000070: d88e 786e 94b4 bb3f 55d9 df89 a92b c33f
00000080: eeb1 3735 ef06 c03f ad58 5fea 8a1a c23f
00000090: 1bec f79e 7eb3 c03f 35da 0079 bd75 9e3f
000000a0: e9a2 fe8d 5c61 80bf 3c29 c9e6 e73d ac3f
000000b0: 249c e737 cb68 643f c46f 0e30 98c0 c13f
000000c0: 4f29 d37e c6a0 a73f 9cdb 745a 5e0c 6c3f
000000d0: bdd4 8d86 cb4e bb3f 81dc bdbb 3e3a abbf
000000e0: 5db4 2c6b 5f7d b63f b69c 7d9f 5830 94bf
000000f0: dbff b029 0eef b03f 8fdf f06a 27b6 bfbf
00000100: 5545 5b8e 1547 b93f 51aa 02df 9b13 c53f
00000110: 3b16 a5ea 7f3f c33f 8d4a a709 14ba c03f
00000120: 7189 0f0b a0b9 9f3f 3130 c086 0211 8cbf
00000130: ff56 2aee 5f59 acbf d1e8 8971 2049 97bf
00000140: 367a fed7 b89b c03f 145b 94d0 9d13 acbf
00000150: 5b39 5aa5 1bdc b2bf 35d8 579d 8c67 703f
00000160: b1a1 6842 958f aa3f b6f5 28d6 9b09 8fbf
00000170: 8ba0 cc1e 2ccd b2bf 64f7 1b00 2054 35bf
00000180: ac71 939c 3b1a bb3f 0dc9 e6c9 0e81 b73f
00000190: f19e d3d6 5877 a6bf f65a bfff 3936 c2bf
000001a0: 16be 8459 f164 9fbf 4daa 45b2 c093 8cbf
000001b0: 3dc6 e2e9 2ceb bebf 6668 52f6 5910 b73f
000001c0: 6c5a 51e7 5128 c13f 7cc3 d866 6c88 c0bf
000001d0: cdfe 7781 e5aa b03f 2aa2 1cde d6a4 a1bf

block.4.weight f8 [60, 60]
0.032943571285120064 0.0030184126703574877 -0.057523925028648656 0.1448948082948827 -0.25085791633850457 -0.05342239907264523 0.0312777319978753 0.029640443698271127
0.16231358126438916 0.08424886531127695 0.15136999590789577 -0.1012969124081017 -0.09174793916392401 0.045234373815109426 -0.02266320931190898 -0.09330147873585243
-0.02004364681308993 0.2789591711870903 -0.028873319450166177 -0.08599863205667227 0.13489193725482357 -0.04218936780504128 0.04489176500902971 -0.0940984356865582
0.10747316342439239 0.006302671914696409 -0.006500106051482306 0.03901524431565916 0.11979924836755988 -0.005167289115327559 -0.11573398919042709 -0.1220959102590717
-0.15911742205992016 0.05455748083588578 -0.054276931476264834 0.10074320872996256 -0.17711957824892358 0.09456841089762681 0.053246340333851325 0.007411064134659879
0.01145182840782965 0.09697354124426061 -0.06591360092196981 0.09795999003248466 -0.0574137694289564 -0.02331391050832578 -0.09771094184143875 -0.0016620966981281673
-0.06925671051329978 0.0844923309443821 0.042639117469397796 -0.03483759445487199 0.07883468306632888 -0.15727164302451052 -0.15351302527096322 -0.022036744389921623
0.043204804133739144 -0.05038384913427354 -0.012636982022189347 0.15788498181913407 0.008262973622378503 0.25700645992379084 0.11940503493710525 0.07060114029441675
0.06981908117991553 -0.1038407076047941 -0.007068897148938697 -0.09684478042000497 -0.14203816911977618 0.18090296576798745 -0.3385815893104865 0.03545967380105602
-0.0921232218665986 0.03269660745533645 0.012682104402627134 -0.05789991506730931 0.10563681491548095 -0.3112940536402143 0.16540207980388558 -0.04900019732467421
-0.0721715075343321 -0.1030561760808489 0.05203676771973917 0.15853091799721247 -0.05601564717703125 -0.0046018627676215245 -0.07899859960930411 0.06387274673165767
-0.1979899754803123 0.059108713794672356 -0.24832920611949286 0.02596002168871966 0.11390750877968484 0.09701235125458237 0.05546452251538912 0.14458785303138988
0.023154594260752313 0.10362566668855876 0.12153155100090016 0.12697900934030287 0.04255569793671656 0.005131109410627751 0.10031953778458703 0.1312824236749129
0.03531694406642214 0.08502894322984372 -0.055914400497499295 0.03612707191069699 0.08360053463610505 0.035867898273604176 0.10189223766955172 0.06366051176242866
0.07964912157623207 0.0009367801208296613 0.2792046750379166 -0.10104002690311442 0.030929609752055155 -0.12247414334763851 -0.034502595612853085 -0.2037872829793283
0.10216038033648331 0.08601169647251718 -0.021770001700855145 -0.14805733837294097 -0.12295848935980097 -0.1076946285653252 -0.18916811515815582 0.02408613043516603
0.05548381449389782 0.08251523943250409 -0.14711052074932562 0.12398509035679395 -0.16054370211135685 0.09404149405236967 -0.04192760332812825 -0.07679155667405904
0.05500004727211238 -0.10436352455775978 0.15993644092732803 0.12647995470892662 -0.07321263280277407 -0.05013956826756459 0.1875239079400459 -0.09988249314684829
-0.04902464640888748 0.015346978735466673 0.044905824130910314 -0.07244054395926061 0.06822628581228547 -0.040459174476733716 0.08173968791013606 0.05141206093120996
0.11817000077954525 0.20920868773896853 -0.06943911509535014 -0.02986843349086848 0.055041317700824384 -0.0038207098644953224 0.10082811323863484 0.16581954048570538
0.0491358619563635 -0.1657245744031368 0.10377970084305953 -0.07141823238232269 0.02244690830237331 0.13019856869261626 0.010471630272718276 -0.06673222726239132
0.07880137192324208 -0.10499633090249878 0.10252934700398192 0.03697934516507905 0.12694778572132173 -0.16489604541638916 0.11755972850339343 0.06265074404550215
0.23115526813980136 0.03238146204317322 0.09534251644841209 -0.056662942702552496 0.06395956444140256 0.12102569644300627 -0.1053563567600993 -0.1027681225565225
-0.03214082882031038 -0.0453633746248961 0.004270331426814964 -0.14034854499924013 -0.032855820367354543 0.13387993602051249 -0.13626027415582115 0.11358340558020619
0.1051745973887781 0.016668129586599217 -0.13438384136892914 0.14129906892467614 0.06284897400208524 -0.23042619212369886 0.08491543284391086 0.1513315665811325
-0.10896622997120245 0.046040261445665726 0.153608068713461 0.12495836712462857 -0.04626979115417239 0.08294680938356284 -0.051234810085979667 0.13204342134425445
-0.19252886690958848 -0.1478642166046722 -0.13947960515220267 -0.02706455803040428 0.11382838631403215 0.19214139529345683 0.03322528212196676 0.022062938080194258
0.14231111188083526 -0.17796717337702767 -0.0529609440402218 0.15602656734248807 0.17840559137342857 -0.18285666332652706 0.17786742589071242 -0.03513116789562531
-0.005714222227015378 0.03480365886398168 0.027739729614866492 0.1546899902630403 -0.11009172930516234 0.04018576754683533 -0.032946176886297855 0.0530870141286135
0.23745503847326585 0.08122923062854696 0.11851036143069914 0.056040012917584384 0.029522161848849763 -0.09027200914201493 -0.06948185962207877 -0.18709594323179052
0.019135314114725903 0.2018041959988811 -0.11510158327567299 -0.060413286069761866 0.0758581925092055 0.01600884652018101 0.0331495801780243 -0.06892133646581032
-0.11349501998683248 0.15080642885380585 -0.22882029665014653 0.007931829279297543 -0.009392410467937349 0.12185102251238022 -0.06419305977385524 0.0659302733063103
00000000: 03ea 90d2 fadd a03f bb80 8ff6 11ba 683f
00000010: cea0 78a1 c673 adbf 894c 7ebf e98b c23f
00000020: 1176 a75c 0e0e d0bf 6020 c841 2e5a abbf
00000030: 2e40 0c88 a203 a03f 81c1 4a81 105a 9e3f
00000040: 8e14 9d01 b1c6 c43f e0ae 3c69 5591 b53f
00000050: 8791 028f 1760 c33f c983 fa2d 98ee b9bf
00000060: 3238 2ffe ca7c b7bf 11c2 61b8 f528 a73f
00000070: 36a9 443b 0635 97bf d4c3 d60f 9be2 b7bf
00000080: 691c 385e 5286 94bf 89bd 4a91 77da d13f
00000090: 6ccb 0fab f790 9dbf 1a24 2fa0 0104 b6bf
000000a0: 5e74 8095 2344 c13f 9752 ec45 d899 a5bf
000000b0: c2a1 25ad 0dfc a63f 21e7 e0c7 d516 b8bf
000000c0: 60fd 1a7a 5c83 bb3f 3d41 049c d4d0 793f
000000d0: 6b1c 96ee da9f 7abf 6f2d c35c cef9 a33f
000000e0: 03f5 d2dd 29ab be3f d120 269c 4b2a 75bf
000000f0: c7c6 9b22 bea0 bdbf 8dbe 8975 ad41 bfbf
00000100: d34f fcad f55d c4bf 0672 e247 f5ee ab3f
00000110: 084f 3c9b 2fca abbf f80e ca92 4eca b93f
00000120: 7dbc 07b6 daab c6bf 413d 0aa8 a235 b83f
00000130: ee2c bbb4 1a43 ab3f 1409 6461 105b 7e3f
00000140: 3ca2 ed63 0e74 873f 18ae 380c 42d3 b83f
00000150: ed4a 52b8 b6df b0bf b789 81e9 e713 b93f
00000160: f42c 136c 5665 adbf 4555 b30c 9adf 97bf
00000170: 3c9b ab93 9503 b9bf fc1e 85bd 563b 5bbf
00000180: b3e3 aeca ceba b1bf fe3e 2b16 4aa1 b53f
00000190: 576b 1f5e cbd4 a53f bec0 b5b1 3bd6 a1bf
000001a0: de76 8f81 822e b43f 5a71 b029 7a21 c4bf
000001b0: 5c3f 8697 50a6 c3bf 792f dce1 cc90 96bf
000001c0: 5ca9 91a9 f01e a63f b37d 8e70 e9cb a9bf
000001d0: cd25 0b04 6be1 89bf 8eab b838 9335 c43f
000001e0: 087e ce8b 2dec 803f 4bf0 0e39 cb72 d03f
000001f0: c458 0810 5491 be3f b6f4 9f94 ea12 b23f
00000200: 20f4 4dce a9df b13f 75f5 27fb 4d95 babf
00000210: adf8 2ca1 46f4 7cbf 7e35 b1cc d1ca b8bf
00000220: 9c9a 9385 4e2e c2bf 6f88 dc10 d427 c73f
00000230: 8570 471d 52ab d5bf 67cf 9a36 c527 a23f
00000240: 7083 1e31 6395 b7bf 94f0 6b17 9cbd a03f
00000250: a5dc 3a3d 13f9 893f b27f 4fc3 0ea5 adbf
00000260: e1ca 50a9 030b bb3f 41bc f4e4 3dec d3bf
00000270: 615a b935 e52b c53f 7298 03ca 8d16 a9bf
00000280: 101f 90f8 d479 b2bf 3506 ebb9 e361 babf
00000290: cc76 172f 90a4 aa3f 26f8 19ba bd4a c43f
000002a0: 6416 6139 15ae acbf 75de 6621 67d9 72bf
000002b0: 5073 c091 4039 b4bf f972 51de f659 b03f
000002c0: 21d8 cf4a bc57 c9bf 7740 5051 7f43 ae3f
000002d0: f961 765d 40c9 cfbf f741 a090 4395 9a3f
000002e0: a242 fae0 0a29 bd3f 8d4d f22b cdd5 b83f
000002f0: 9e6d 958c d865 ac3f 1c97 15d2 da81 c23f
00000300: c987 6884 d6b5 973f 471c 7431 3687 ba3f
00000310: 4624 fb14 b11c bf3f f691 3222 d940 c03f
00000320: 0316 cb45 dcc9 a53f 6204 c6b1 5b04 753f
00000330: 6944 ef8d 8aae b93f 4b97 1cca dccd c03f
00000340: 6d17 85ff 0f15 a23f f4b7 62f2 74c4 b53f
00000350: d03f 06f3 cfa0 acbf 429f b660 3f7f a23f
00000360: 0fb0 303a d866 b53f d46d 1ff4 465d a23f
00000370: b2c9 8114 9c15 ba3f 0df6 1028 0e4c b03f
00000380: 2136 5384 e263 b43f 68c4 c2fd 47b2 4e3f
00000390: f766 0b49 7dde d13f 30c6 225b c2dd b9bf
000003a0: 9dd5 73f9 02ac 9f3f 18a2 4828 775a bfbf
000003b0: 0292 91ff 52aa a1bf 2653 dea1 b315 cabf
000003c0: 66fb 7dc4 2e27 ba3f c945 6ccf dc04 b63f
000003d0: 932c 5b15 e04a 96bf a34e 1ff9 8af3 c2bf
000003e0: 6cdf 9022 357a bfbf a997 a40b e091 bbbf
000003f0: 4d6e 062a a936 c8bf b960 06da 08aa 983f
00000400: 7ed0 6ae1 5f68 ac3f 4bc2 c8fe b71f b53f
00000410: 7408 c27d 84d4 c2bf 2827 46a4 7cbd bf3f
00000420: 55d2 122f b28c c4bf 0c02 6c75 1a13 b83f
00000430: 0b1d 30ea 8877 a5bf ca25 8688 9ca8 b3bf
00000440: 9fd5 9f58 f728 ac3f 69f1 de64 91b7 babf
00000450: 6f5a 9c1b cc78 c43f f985 89c2 7e30 c03f
00000460: a4be 8a27 10be b2bf 2eb6 e3bb e4ab a9bf
00000470: cf09 e98d c800 c83f 6137 8229 e691 b9bf
00000480: 7f5b 0c2a c219 a9bf 5103 179e 3c6e 8f3f
00000490: 9799 156c e5fd a63f 22a0 35a7 768b b2bf
000004a0: 9d93 4a22 4777 b13f fbc5 669e 10b7 a4bf
000004b0: d6f9 5b66 e4ec b43f 4d96 a380 ae52 aa3f
000004c0: b368 b7a0 6340 be3f 8960 f0ab 59c7 ca3f
000004d0: 3ed0 6508 c3c6 b1bf efa7 1aa4 d495 9ebf
000004e0: b956 e826 602e ac3f d3df 4bfd 9b4c 6fbf
000004f0: 2198 e008 dfcf b93f cd40 b61f 9339 c53f
00000500: d9a2 53f0 5528 a93f 273d 9a7d 7636 c5bf
00000510: 070f 1c75 4e91 ba3f 7f92 6b1c 7748 b2bf
00000520: 0853 3884 52fc 963f 74a9 42c1 58aa c03f
00000530: d1ff 746c 2672 853f cd63 aefd 5c15 b1bf
00000540: 4e4e 4aa3 532c b43f 2d1d 6d1f 0ae1 babf
00000550: 9428 4300 5d3f ba3f df17 39ec f4ee a23f
00000560: 3181 fc35 d33f c03f b5cc 2649 501b c5bf
00000570: b5ab 3ff5 6418 be3f fdd8 be10 e109 b03f
00000580: 04b2 7aee 7e96 cd3f 59b6 f190 4d94 a03f
00000590: 2174 10fe 5d68 b83f 66ec 9adb ec02 adbf
000005a0: 7dcf 8a6d a75f b03f 1dc6 3240 8afb be3f
000005b0: 84d8 b55a a2f8 babf 039b 73fd 024f babf
000005c0: 1794 4c41 c374 a0bf c976 e644 de39 a7bf
000005d0: 64d8 235d c47d 713f c90d 68ed f0f6 c1bf
000005e0: 3c0d ec63 7ad2 a0bf ef3a 664d fa22 c13f
000005f0: ae22 9f06 fa70 c1bf 88d5 5554 cd13 bd3f
00000600: f09e 27f0 b8ec ba3f d8f8 d63d 7311 913f
00000610: e92b e55d 7d33 c1bf 4c4d fe7f 1616 c23f
00000620: 9115 edcf de16 b03f a413 a8ff 9a7e cdbf
00000630: 1583 fd8e 04bd b53f aec1 a830 d55e c33f
00000640: 3240 18fa 35e5 bbbf 8cb6 6ad2 9692 a73f
00000650: 2455 c3df 6da9 c33f 6e6e 2984 45fd bf3f
00000660: 2e8f 998f acb0 a7bf 9325 9c89 003c b53f
00000670: 05dc 78f3 723b aabf aeaa 2980 cce6 c03f
00000680: b4d0 7431 c9a4 c8bf c069 48f3 36ed c2bf
00000690: df39 4bbb 77da c1bf f830 7cbe cfb6 9bbf
000006a0: c141 936c db23 bd3f 5b21 7fd8 1698 c83f
000006b0: 237b 3a78 e702 a13f 4c4d 08b6 aa97 963f
000006c0: d55a b121 4037 c23f 123c b5da a0c7 c6bf
000006d0: 936f 3c65 b21d abbf 3785 05b6 adf8 c33f
000006e0: 4fab 2f92 fed5 c63f 3ceb 6bde d867 c7bf
000006f0: 4eb6 9c1c 5cc4 c63f 8f2e 5d62 b6fc a1bf
00000700: aaca 64d9 cb67 77bf b831 3401 c9d1 a13f
00000710: c3a1 fbbd cd67 9c3f 7062 99b0 e1cc c33f
00000720: 6afe ecb8 f82e bcbf 9fb2 c19a 3a93 a43f
00000730: af7f 8240 52de a0bf 80a3 0c9b 382e ab3f
00000740: 37ad 413c ed64 ce3f c362 0759 70cb b43f
00000750: 77fd 94ee b156 be3f da33 7fcd 46b1 ac3f
00000760: d194 97be 0e3b 9e3f c758 02ff 101c b7bf
00000770: b1f9 bd2a 90c9 b1bf 3a89 b286 c2f2 c7bf
00000780: 3e26 4931 3598 933f dc60 014b b8d4 c93f
00000790: b007 e31f 4c77 bdbf d7b8 d37f 7dee aebf
000007a0: 14f1 f547 716b b33f aae1 0081 9f64 903f
000007b0: d442 7b55 fbf8 a03f 3f05 1e26 d4a4 b1bf
000007c0: 1c31 1a77 020e bdbf 1a11 fa03 a04d c33f
000007d0: b2fe 62c5 fb49 cdbf 67f9 d01a 903e 803f
000007e0: b2bc 52fe 533c 83bf d8c1 acec a031 bf3f
000007f0: a7df 5bd4 f46e b0bf e0bc aa6f cee0 b03f

block.4.bias f8 [60]
0.14035538423404947 -0.10272507072907287 0.11462882384239814 0.11112325521198285 -0.04624839821105711 -0.03517067435723269 0.04783903951140739 0.12066876408158116
0.0874748792972403 0.11400418906802144 -0.11006856473008216 -0.1449033203006707 0.022211783779943903 0.01956393886604042 -0.03709220372408302 -0.07231602011528292
0.08537435285774686 -0.06810429162756584 -0.04989787932544749 0.0885361734287807 -0.12661471175523945 0.011266841512582941 0.012942626193471371 0.07201268399076069
-0.011532696800312268 -0.05875313772909313 0.032735997878903536 0.08279844430551674 0.14994686336859103 0.03270836902009809 -0.1411311035666888 0.10817661610817537
0.034072182052712 0.1727050158516257 -0.0868271371465458 0.02384784715166417 0.1272458432057525 0.15522926347472588 -0.03531591408093195 0.015434296005328266
0.17306034911181387 0.04028980922692973 0.007210089282641259 -0.13516311537963524 0.02362363309184923 0.16173186854725746 -0.026127895692194383 0.030955708309968567
0.0690349798381935 0.021154628925225023 -0.09645441163046854 -0.007645553120492282 0.12029017834067221 0.10754881258081612 -0.14761909107361737 0.0932343913277139
-0.004519102843814261 0.053464200839811224 0.04160339153311027 -0.04986976221764327
00000000: 2027 8d4c 2af7 c13f 47ba 42b3 304c babf
00000010: e800 9589 5058 bd3f 28e5 f5da 9272 bc3f
00000020: e424 9ebb dead a7bf 4600 4900 e401 a2bf
00000030: 18db 58cc 5b7e a83f b30e 61eb 25e4 be3f
00000040: 289e cdf1 c064 b63f 8f76 a7e7 602f bd3f
00000050: 3557 d515 742d bcbf 02f8 e226 318c c2bf
00000060: 59c7 ae93 afbe 963f b33d 71b6 9108 943f
00000070: 5aee dcd3 bffd a2bf 973c 5f7d 4d83 b2bf
00000080: a0f1 70f5 17db b53f d2f4 4169 486f b1bf
00000090: e962 afff 368c a9bf a6bc 6381 4eaa b63f
000000a0: 3932 172f e934 c0bf 7c27 9bde 1113 873f
000000b0: a570 cde1 a981 8a3f 3233 a35a 6c6f b23f
000000c0: 9f77 bc5c 749e 87bf e8ec 2a2a e414 aebf
000000d0: ea68 95d0 c5c2 a03f dfad 7362 4732 b53f
000000e0: 0a27 2775 7531 c33f 4e5f 7ebe 26bf a03f
000000f0: 7437 2281 9510 c2bf 3d66 6074 76b1 bb3f
00000100: af50 3db7 e871 a13f e90c 78ad 321b c63f
00000110: ea20 73a2 4d3a b6bf d3b7 62ee 916b 983f
00000120: 7c71 8f7f 9749 c03f 60c8 0071 8dde c33f
00000130: b30b 0370 ed14 a2bf 2829 a324 049c 8f3f
00000140: e7b4 d56d d726 c63f a3c5 fba9 dda0 a43f
00000150: 2e13 b99a 5388 7d3f 452b 1764 064d c1bf
00000160: 6135 2b2e cb30 983f 16d3 103f a1b3 c43f
00000170: 748b 0b66 45c1 9abf 0d69 436b dab2 9f3f
00000180: 1f60 afc4 46ac b13f 2249 921d 8fa9 953f
00000190: 29fe 817f 3cb1 b8bf 602a cc89 f150 7fbf
000001a0: 5ed1 004e 56cb be3f ed1b c2a8 5188 bb3f
000001b0: 5495 36b0 2ee5 c2bf 7570 9d85 35de b73f
000001c0: db3a be6e 9f82 72bf 663f 3ae4 a85f ab3f
000001d0: 0825 132c 0a4d a53f 2f72 918b 8788 a9bf
