JupyterLab/best_model_M1_503.pt (torch, 126413 bytes, 12 tensors)

block.0.weight f8 [60, 9]
00000000: 5137 7a42 e26d c7bf 299c 869b 89b9 c0bf
00000010: de81 7c83 8f6a c03f bc7a f703 fccf e23f
00000020: a2be acdc 192f dabf 71e6 5e1e d2b7 d6bf
00000030: a611 66b7 6950 bebf 4535 2f0e 1b92 de3f
00000040: 464d 6e6b 584f cfbf 4caa 48aa 5511 cf3f
00000050: 047d 99cf 803e d7bf f496 7c58 2709 b6bf
00000060: 72df b242 8fe2 a2bf 16c4 a356 e1d9 b13f
00000070: fc9e a3bc 0cee bb3f 425c c50a c212 b6bf
00000080: cae5 645a 4a2d 953f 028b 18ca 875b d63f
00000090: 9549 89e0 3ced d6bf 43c9 f514 fc9f c6bf
000000a0: d40a e6b8 0810 a5bf 7071 0a9a 853f 9b3f
000000b0: f72f ba37 7798 cc3f ca07 a2c2 717c c73f
000000c0: 3e37 c4aa 2419 d33f 549f 99e3 1bd9 cfbf
000000d0: 07cd a913 b1fe b13f 3d5b b1e3 d365 c0bf
000000e0: 9041 cacc 58af 973f f502 f651 dcaa d3bf
000000f0: 2850 bac5 f7d7 adbf 3126 ed1e c44f d73f
00000100: 2e63 e297 39eb d23f 5234 16ce 4b83 d33f
00000110: ad97 0a4c 5706 cfbf 4743 dc0a 6a62 b03f
00000120: 6857 1562 1a55 d2bf dc9f d5bc 895e 9abf
00000130: 8280 b4b4 bfdb a63f d84c 916d 8865 d03f
00000140: 063e 22f5 9738 d1bf 376c d5db f838 d93f
00000150: ae71 8428 14ce d03f d98b 9c79 5fff b13f
00000160: d2a4 08a5 21dd c93f c44b 78b4 8b0f d43f
00000170: 43d2 136d dcb8 cebf ba35 20a6 a8bc d0bf
00000180: e262 5c9c 3631 d2bf eb1b 9cb1 ecb3 c93f
00000190: 6127 ada6 2d60 d33f 89fd 8506 f1c7 cb3f
000001a0: 6405 da71 bc91 d3bf deb5 1a8a 0e65 abbf
000001b0: 76af d338 c753 913f 1e29 dbc8 4c04 b03f
000001c0: ec6d f3a2 12e1 cd3f 2d43 f0d2 95b2 d8bf
000001d0: 7719 3df6 f8ed d03f 62ef 320a 8aad d7bf
000001e0: 94d6 2e78 f508 94bf 336f 440e 1839 bcbf
000001f0: d67c e8b9 570d d03f 908e e897 ca47 ba3f
00000200: ecaf 29f2 bcca ad3f 88c4 3d46 fcee d3bf
00000210: fa85 4bc3 42b0 dabf 6aec 2f40 8001 dabf
00000220: 3fc1 e37d f8a0 7abf 3568 42c0 c8f7 a83f
00000230: f45b 4279 d569 6bbf 20b0 f21a e72b 8b3f
00000240: 8caa 6821 bbe4 c3bf 9f98 dae5 7f34 ac3f
00000250: 086f d29f 2f93 d2bf 4858 2810 c885 9cbf
00000260: 029c 5374 a31c bcbf 6b8d 649f 269e c83f
00000270: 9d4f 5538 df01 d1bf b68f 72a2 1cef a83f
00000280: 8ae2 44c2 051d adbf b631 5bde efb3 b33f
00000290: ed4e 6776 fa35 c53f 1d26 0893 ca65 bcbf
000002a0: 8e3c 8a57 949e c33f ea98 993e 6497 d0bf
000002b0: 7206 314a d39c d7bf 0014 feec 95da c03f
000002c0: c468 9140 1b65 d23f 0cc9 348e a066 d63f
000002d0: 7d6a f547 6e0f c73f eec5 6043 cecf b43f
000002e0: 6b77 126f b85d b53f b538 ecae 3d9b 87bf
000002f0: ecc3 4422 74f0 a93f ff0b fd65 5c05 c6bf
00000300: 9020 8787 1791 863f cb55 830f 5824 d0bf
00000310: d72a dd61 8ab9 dabf f354 2b6b 7b11 b2bf
00000320: 058a 1f27 9e04 d1bf 7c4b 4d79 0dcc c1bf
00000330: 0c9c fa77 05bd dfbf 7a4e f5e9 3e74 d13f
00000340: 03cb 8ac4 96e2 c83f e8b2 1a00 b680 c53f
00000350: 46af 6bbb b865 d03f add4 1d0b 8b1f c4bf
00000360: 92ef 4f22 cc0e d73f 3c31 7c72 6f11 9f3f
00000370: e91c 4aa9 9a63 a3bf 29a4 0fda 8191 b4bf
00000380: cfac d935 3a2a a43f 9c31 8f69 a34e c4bf
00000390: e525 024b dc58 cfbf 0d66 06d7 1753 d53f
000003a0: 2ee3 edee 1204 d03f 6146 8b54 1154 e0bf
000003b0: 3b16 81e1 4b74 ba3f 31c8 06ee 062c b8bf
000003c0: 8a04 080b 4b8d da3f abeb e1db 9a4c c7bf
000003d0: d4ca 3b53 3e02 be3f 3779 e223 0e14 c0bf
000003e0: d9d6 6491 fd8b bebf 2361 0df1 dac8 cabf
000003f0: ae38 8e10 d30b 9d3f 0717 947f edba d4bf
00000400: 1564 aad8 9081 ac3f a01d c8b8 522f b2bf
00000410: 3292 8780 bf3d a03f 4f1e 11f0 1965 ba3f
00000420: f889 8b32 4eb1 d43f 3147 c1d6 47a9 d0bf
00000430: 4f33 85ab 2e9f 853f fa3a c7b9 e4ec d63f
00000440: cc46 0abb dcb0 a9bf 484e ba5d d5a9 b8bf
00000450: 3d2c ac60 3d67 bd3f 5e0d 27e9 b771 d5bf
00000460: 6b6f 8f4d c67f c9bf 268a 0d10 6696 bbbf
00000470: 37c4 da69 6c2c b5bf cbab c886 d3c5 a8bf
00000480: faeb 93ae 7f42 d5bf a733 f169 dfa5 c8bf
00000490: 35a2 582b c78d a73f 79ca 766d e797 dbbf
000004a0: b595 bc7c 91d7 c13f 4fea 5226 a810 ba3f
000004b0: 85bd 216b a686 973f e233 c83c cb63 c0bf
000004c0: 2f7a f92b c033 c5bf f70b 578d 63bf ac3f
000004d0: f34a 6abf fc5e d6bf 0dd3 b59d 14d2 c03f
000004e0: f00b 678a 8084 bfbf 22e6 8cfa be46 ca3f
000004f0: a408 affa 7eef bf3f 9590 5719 43ff b4bf
00000500: 929e 4914 f40e 9cbf 2349 835e 7d38 c7bf
00000510: 2762 e564 5290 b73f 8b33 dde0 7617 b5bf
00000520: 7a41 c7b9 df8d bb3f f463 ef1e a39b df3f
00000530: e894 73af 051a c23f 034d 0d68 8bb2 d0bf
00000540: 106a 7e37 b0b6 ae3f 8feb 20bf 9811 d3bf
00000550: 8e44 d634 5f80 cdbf 66e9 8264 76dd cc3f
00000560: 6022 f730 be48 c9bf 9576 7125 f348 cfbf
00000570: 3ae2 5b09 b455 c43f 306d b903 87b9 cd3f
00000580: 34cb 8f45 185c ddbf d29b 96d9 7261 9dbf
00000590: 907e 4ba2 b0df c3bf 6c6e b6c6 921f d1bf
000005a0: 57d0 9516 dfe7 c93f 53f9 7d31 380d c1bf
000005b0: 29c3 0ecd ed4a 803f 9266 8b54 82b1 b0bf
000005c0: 4a52 866f 6c80 d8bf 5f2f 1cd3 54d5 cabf
000005d0: 29ee a516 9136 b63f 32f4 55a2 5d15 b63f
000005e0: d9e8 2980 0340 c2bf 8f73 6e0b 41a1 cbbf
000005f0: 38f1 075f b267 a23f 42d7 3cf5 ff54 bd3f
00000600: 89fc 4eca b31f c5bf ef90 fc30 664b cdbf
00000610: 5488 1602 07a1 bb3f b4c1 46f8 ee04 d33f
00000620: df02 d927 36d4 bdbf 2d75 5b2a a22f d13f
00000630: 7377 0ad9 4b94 cdbf 2ffc d600 c2ed 923f
00000640: 0408 fb91 6184 733f 27eb 3c62 233f bc3f
00000650: ecd5 d727 ccd4 b3bf 1798 e285 d479 a8bf
00000660: e44e 893a d7f0 cf3f 8b2a 0642 3499 d1bf
00000670: d79a f952 8c5f bebf 7069 8cdd 007b c5bf
00000680: d6de 0b10 b1c6 d03f 9636 e4a3 8bc7 cd3f
00000690: 4791 218d a4d0 863f e742 6648 15f2 d2bf
000006a0: 2d70 145f ad2c c4bf f5d6 3c65 7473 d23f
000006b0: 1d7a 924c ab26 c73f 2cc0 8941 b99c d13f
000006c0: 722e 7eb7 c543 e03f ed91 0ada 8f55 983f
000006d0: d9c3 2e56 5f03 d0bf 5046 6399 cdce d5bf
000006e0: 326d 92d1 41d1 bc3f 9fb3 5e5b ca07 c63f
000006f0: 092f d740 730f c83f d619 840b 610c 94bf
00000700: 52d0 f176 49d3 cfbf 56a0 c2d9 cb64 debf
00000710: 2d33 def0 c726 bdbf a6ac ac6b 2027 b9bf
00000720: 0031 e68c a3a8 d7bf a7df 4bdb 1cd3 d13f
00000730: 142b af99 d1d7 c5bf d9a0 63fe b956 b23f
00000740: 70d8 a20e 7160 583f 9ff4 83c4 9974 913f
00000750: 6dfe 3671 3c4c 9ebf 3609 fb30 5fd4 c7bf
00000760: 4a3f 95c0 253a b2bf bd04 e047 082b d93f
00000770: f66f a122 7a59 c9bf 0864 0c25 c4d6 d2bf
00000780: 628f fdda f53a c5bf 425d 0b35 1d94 abbf
00000790: 531e f340 0887 b7bf 5092 1697 2b1b a93f
000007a0: 596a 1f63 0712 72bf a834 2311 8e86 c63f
000007b0: 7f3f 88f8 f3b4 d5bf 5303 d9bb 7546 ca3f
000007c0: 5566 99b2 a96f d6bf 5acf a69f c46e 6bbf
000007d0: f20c 3618 0554 d13f 2ad1 3cbc 7878 9fbf
000007e0: a192 f632 4aaf b33f d3cf 89fd 0981 d03f
000007f0: 8baf 3db2 c5e9 c23f e9f1 4e2b 04b7 c8bf
-0.1830408882710182 -0.13066215604814715 0.12825197143776185 0.5878887250399525 -0.40912481832763536 -0.35496952978028334 -0.11841450431354036 0.4776675833243938
-0.2446089291157511 0.24271651091233293 -0.3631898906077853 -0.08607717428511902 -0.03688476266091713 0.06973083844401659 0.10910110097358577 -0.08622372401201608
0.020680581824512413 0.3493365739433757 -0.35822984626170157 -0.17675734542315 -0.04113795525610944 0.026609504248527427 0.22340288373050018 0.1834852409702406
0.2984096210137642 -0.24881313908849256 0.07029253702221548 -0.12810753457844185 0.023129832744019974 -0.3073035049820157 -0.058288329016392304 0.36424353618767485
0.2956069930310602 0.30488867879541204 -0.24238101208646637 0.06400168194910548 -0.2864442785115586 -0.025751258993665135 0.04464530068276053 0.2561970777507674
-0.2690791982540478 0.39410230129368834 0.2625780482938137 0.07030293196707706 0.20206089552201562 0.3134488356019427 -0.2400165112118363 -0.26151481841301527
-0.2842537428819424 0.20080336258271755 0.3027452590655369 0.21703923052335153 -0.305770026381728 -0.05350537715763058 0.016921151011885148 0.06256561187470708
0.23343117672526092 -0.38589997863259634 0.2645246891664991 -0.36996699329369254 -0.019565425358186575 -0.11024618480990682 0.25081437258809325 0.10265794953061858
0.05818739372338641 -0.3114615140867234 -0.4170081050088751 -0.4063416125133644 -0.0065011698445547874 0.048765443295636514 -0.0033463639648050273 0.013267331609618849
-0.15541781550685518 0.05508804016908297 -0.29023352248781054 -0.027854085909062826 -0.10981198873524536 0.1923263815198014 -0.2657392549638134 0.04869927866937422
-0.05686204906891586 0.07696437052363234 0.1657097890989613 -0.11092821206707311 0.15327696108258632 -0.2592402087524436 -0.3689468597914135 0.1316707045736223
0.28742104821652625 0.3500138653499938 0.18015841020208603 0.08129586358042903 0.08346131049844778 -0.011526567364424126 0.05066264074628876 -0.17203860263734325
0.011018928359490837 -0.25221826090759397 -0.41757449681305786 -0.07057925573765882 -0.2659068471968172 -0.13903969214387846 -0.49591194836324415 0.2727200779674842
0.19441494557175795 0.16799044613926317 0.25620859434888066 -0.15721262018965856 0.3602781615334091 0.03033994804631955 -0.0378692943241335 -0.08034526418454448
0.03938466937401019 -0.15864985136284993 -0.24489930784720496 0.333196601853701 0.250248654679626 -0.5102621699572404 0.10333704238390677 -0.09442179976648003
0.4148738486983993 -0.18202529655885988 0.11722173244542528 -0.12561203720265166 -0.11932358550697177 -0.20925461549882937 0.028365419278593755 -0.32390916308246215
0.055676008652149424 -0.0710345936896517 0.03172110027279408 0.10310518370635545 0.32332186637918836 -0.2603320691315388 0.010557522401222789 0.35820882933050735
-0.05017747672276371 -0.09634145296359364 0.11485656366510084 -0.3350658203964566 -0.19921187197803233 -0.10776365177074662 -0.08270909866657027 -0.048384294703587814
-0.3321837620603102 -0.19256203339537345 0.046003555337226144 -0.4311464852318419 0.13939112272889323 0.10181666312829772 0.022974586762243305 -0.12804546802399758
-0.16564180514520063 0.05614768123952978 -0.3495475644387362 0.1314111490315998 -0.12311557177513044 0.20528399690538018 0.12474816913803238 -0.08201999062254324
-0.027400792825942384 -0.18141142954716213 0.09204592669755894 -0.08238928785176662 0.10763357434848855 0.49387434025771815 0.14141913477866486 -0.260897494900931
0.059987551473757006 -0.297949015282648 -0.2304800994866451 0.22550849826604774 -0.19753243819129107 -0.24441375091821685 0.1588654561708312 0.23222434694148708
-0.45874602120527475 -0.02869204953244859 -0.15526397633128797 -0.26755208402184993 0.2023886547355029 -0.13321592728238815 0.007955415554393124 -0.06520857395244153
-0.3828383530720073 -0.20963535602674718 0.08677012255605433 0.08626351559901549 -0.14257854230874648 -0.2158585840051299 0.035947393513171055 0.11457824456450985
-0.16502997759196017 -0.22886350051806612 0.10792583275773043 0.2971761154722359 -0.11651934120983352 0.2685323156018338 -0.2310881433267543 0.018485099126106682
0.004764920362221762 0.11033841274631283 -0.07746578190548065 -0.04780449041690831 0.24953737600537018 -0.27497583816208565 -0.11864544893033312 -0.1678162652759272
0.2621271759703466 0.23265214445602983 0.011140142018299172 -0.2960255820299111 -0.15761344091959142 0.28829679380883927 0.18086758841396114 0.27519065284923516
0.508272989639819 0.02376389282530227 -0.25020583549763625 -0.34074726084972884 0.11256801001075159 0.1721127458708027 0.18797150293391265 -0.019578472450143845
-0.24863546665040076 -0.4749021174016027 -0.11387300139012942 -0.09825327519199564 -0.36966789970098546 0.2785102979246354 -0.1706487656031973 0.07163584194825336
0.001487837226290558 0.017046358699179916 -0.029587692651828968 -0.1861685742533809 -0.07119975997670483 0.3932514860062602 -0.1980431241125868 -0.29435828798301644
-0.1658618277825737 -0.05386439583315418 -0.09190417848287184 0.04903541774118436 -0.004411724907152769 0.17598129116814687 -0.33916949530338764 0.2052752654290325
-0.35056536141710143 -0.003348716764969878 0.2707531677662721 -0.03073300026808671 0.07689346069543969 0.25787591704942975 0.1477591629330813 -0.1930852138010686

block.0.bias f8 [60]
00000000: 85c4 b314 4a0b ad3f 6e42 2788 318c c73f
00000010: 9356 8daf 17a3 cbbf 8958 8fcb 183e d13f
00000020: 4500 97de 34ec d43f caa1 65a2 b64a ca3f
00000030: 195f 051a 08f9 c53f a909 a154 4eee cf3f
00000040: ac44 a12f fc08 c53f 4472 1394 baaf 93bf
00000050: 7079 11a9 3d08 d0bf f3b6 5886 ac7e bebf
00000060: 1146 84fc bd7c c03f ba16 acd0 b5e5 d13f
00000070: 73d5 983d fb23 cc3f df98 4539 c6e9 d53f
00000080: f67c 45b1 a30d c5bf be7f 9683 c8ba b9bf
00000090: 3beb e8fa 0fac c63f a039 f28d fe1b a93f
000000a0: 69c8 a98a 60c9 d7bf 5580 481e ad86 c9bf
000000b0: 2871 7428 cfd0 c6bf e36f 603a 9758 b83f
000000c0: 56c4 dad2 24a6 c43f 043a cea1 975c cc3f
000000d0: 4086 e0d1 a26f a63f a257 52ea 5391 abbf
000000e0: 9ce9 eb87 1ff4 b03f e5cc 2cea d604 ba3f
000000f0: d8fa 997f 9f7f c5bf d4e5 d0d9 10b6 a1bf
00000100: 044b 7584 c3cf b4bf 2804 afb0 4b97 8a3f
00000110: e93c 5eea d1a1 d43f 55d5 4305 6117 c83f
00000120: 7247 4b04 ddea bd3f b27d 4d52 b9a2 aabf
00000130: 8d1a 97d9 17e3 d03f 8886 3e35 83f8 c0bf
00000140: f6e4 d111 4a19 ca3f 6ba9 786a f0e0 b33f
00000150: e643 3fe4 4fc7 abbf deb2 5e20 085f b43f
00000160: 789a 3d56 44d2 af3f 9c6e 5be6 6308 c33f
00000170: dc6e 4d5d 607c ae3f a5bd 2927 ea32 b2bf
00000180: 9c16 a01c 9021 c23f ff39 c0ef d435 9ebf
00000190: c6b4 91cc 7c94 b33f ed25 4419 29fd ce3f
000001a0: 71bf 384d 6515 93bf 3cb3 2f37 47ce c9bf
000001b0: 3f64 17f9 300e b6bf 8ef1 2f48 6e51 c6bf
000001c0: 75b5 16e2 2df1 d0bf 166c 086a 5efc 903f
000001d0: ead2 5c1a 6d45 c9bf d559 06fe 8cae 903f
0.05672675612175574 0.18396586559403566 -0.2159146887958526 0.2694150913133702 0.3269169019440635 0.2054050724939443 0.17166234274440553 0.24946002132680903
0.16433670354539254 -0.019225039756621834 -0.2505029822404117 -0.11912039070076812 0.12880682783047395 0.2796453988852182 0.2198480654493938 0.34239345162349183
-0.1644787421782678 -0.10050633633227243 0.17712592841584204 0.049041704966941824 -0.37166608373002546 -0.19942249277756 -0.1782473514111953 0.09510178733074741
0.1613203076899789 0.22157569313681347 0.0438204652020997 -0.053843138078419686 0.06622502392193613 0.10163634507334825 -0.1679572461179848 -0.034592176998966245
-0.08129522308199105 0.01298388607927066 0.3223767079116003 0.18821347004965597 0.11686498026690886 -0.05202273492499944 0.26386066674278014 -0.13258400058571262
0.2038967692385893 0.07765104865453558 -0.05425500546665045 0.07957506933480427 0.06215108444921652 0.14869354961307557 0.05954266680666162 -0.07108939605836058
0.1416492595455353 -0.029502226956589436 0.07648448938717242 0.24210084661198952 -0.018636305654751554 -0.20160761065144495 -0.08615404206592901 -0.17436007046479712
-0.2647204120538256 0.016587710592016768 -0.19743121897922516 0.01629085827297579

block.2.weight f8 [60, 60]
00000000: 1d14 413d 60d0 a5bf 6df2 e182 54cc b23f
00000010: 8c9b 4145 b71a b33f 7f4e ad37 2ee1 c5bf
00000020: f191 e8be fea8 b8bf b647 e58f a513 c13f
00000030: f97e c9dd 501c aa3f ad7e adb2 77e2 b9bf
00000040: ad89 aa33 58b5 c9bf 1e51 ba2c 533c ae3f
00000050: f082 d585 02cf 9abf 608a 797d 2373 b73f
00000060: d056 7e7b d8ad bcbf afbd f490 991d d0bf
00000070: c816 aa19 d651 a7bf b206 919c e04d c43f
00000080: b334 1c56 9f21 a3bf c0c2 8675 b878 86bf
00000090: 9983 022f 088e b0bf 9103 5d60 6040 9bbf
000000a0: 197f 0bf9 b50f c13f 7ccf cd2d f67d c33f
000000b0: 6809 a096 b0ef c5bf f613 c27f 7f88 a1bf
000000c0: 608c b183 67fb a5bf 5546 9220 2272 9cbf
000000d0: 5b2b ebdd 1c24 aebf 8229 b860 a363 b6bf
000000e0: 4638 e8f6 0f62 03bf e175 8dd8 470f b53f
000000f0: da48 4edd 5f1a 99bf 5f91 ac96 78d2 b53f
00000100: 5afc f832 b194 86bf a41d 8d70 5eb4 c4bf
00000110: 9107 a7f1 1d3a cbbf 5529 aa3d 8cee b0bf
00000120: 9e1d 7352 0000 b1bf 2a29 8c07 6d91 b03f
00000130: 17df 7686 27f6 9bbf a201 59c7 a163 a73f
00000140: 9cb3 e203 7a52 b1bf bf88 6965 27e4 b43f
00000150: 9479 6d38 8700 a7bf 5180 65da 06cb b13f
00000160: 16be db5e 2605 803f 0b32 1b98 1b38 bbbf
00000170: 1f51 596c 26dd ba3f d199 b009 95bd c13f
00000180: 7d60 9728 a2f3 c3bf 9f8b e554 0fca bfbf
00000190: f47b 830b 16db c63f 46b8 2624 7709 c53f
000001a0: 2125 c44d 7ca7 a83f fdea 36a3 5e8a 8fbf
000001b0: 680f a6d1 7e93 b43f a55a 708b f90c b63f
000001c0: 7c6d 07c1 c3b1 bf3f 58ed 27fe c20e 933f
000001d0: b0ec 2fa0 a91a 99bf ca30 0127 acc8 cfbf
000001e0: d34f 08e3 3c07 a53f 3c34 6809 7f7c b43f
000001f0: 132d 10d1 dce5 c1bf f12e b6da e7a3 9f3f
00000200: d6be 4777 204d bcbf 5393 84f2 c401 b2bf
00000210: c9e5 f48e 6fa4 803f ea7c 02df a999 b53f
00000220: 1af1 194f 689e 70bf 6bd1 2290 0fa1 bb3f
00000230: b7ed a6b8 0e9a c33f dc9c 8f3a 15ec b7bf
00000240: 0502 1989 043d babf e5bb ab76 27e8 9abf
00000250: b923 73ee d89f 843f 55e2 2dcc a781 a33f
00000260: 6728 570c f723 bfbf 008f c5d7 efe7 a63f
00000270: f354 3757 6bb2 aabf 5da7 6ac6 0016 c23f
00000280: b73b 75c0 12b1 77bf 68f6 9546 53f2 b2bf
00000290: 363b 9691 78e3 c23f 60f8 f9ec de54 bb3f
000002a0: d34e 900d c0df b43f b2c1 942a b33c 7c3f
000002b0: 6bec c0a7 60d5 bb3f f3e8 7a22 5997 9b3f
000002c0: b5db 8a0b bc4d ccbf d5c9 49e6 6212 c2bf
000002d0: d974 235b d9b0 b63f 00ba fdbe 679d b93f
000002e0: 95b1 fa7f eee8 97bf 28a6 a54a c807 8f3f
000002f0: 35db f93c b9e8 bcbf acba 274c 042c a0bf
00000300: b701 e46f 772f a93f b18a d6ab 6762 b63f
00000310: 25d7 91f5 1848 b0bf f691 2945 f64a b0bf
00000320: b049 e47d 5202 a5bf c227 e11d 920a bebf
00000330: d1e4 ba07 64c4 bb3f 805e 9c71 104f b23f
00000340: a372 0386 3ca2 b3bf 1649 2644 ede3 7c3f
00000350: c577 ba26 db13 b4bf 210e 0330 a64a c03f
00000360: ec81 9019 e99c b2bf 45ff 1e44 459d 9fbf
00000370: 520f 1478 f2d3 c13f b785 9c9f 255c 96bf
00000380: 98e6 a2e9 81ec b43f e13a c105 35c4 a2bf
00000390: edcf 4c7c a78c c33f 15d6 b13c b199 743f
000003a0: 38e3 196e c04a b93f 44f1 ad60 c1cc 89bf
000003b0: 5335 8c21 cf83 b73f 4bf5 abc6 74a7 a73f
000003c0: fcf8 8571 03be c03f 6959 14ce a971 a0bf
000003d0: 5aaf d63a cd59 b8bf 41a2 b713 d04f aebf
000003e0: 4161 3f3c 3ed7 a93f 3699 f6fc 4249 a33f
000003f0: 7626 377c fcac 9f3f db51 33ca 8c81 b1bf
00000400: 66aa ec9f 74ca a33f 8b21 59ce 8fdd a33f
00000410: 0f48 b43b 06b0 a33f 6177 8d29 3850 c0bf
00000420: a135 776f 625f b9bf 67e5 e127 285f b43f
00000430: 03c3 cc44 fbf2 88bf 189e 5655 3a59 9abf
00000440: cca4 fad5 da44 a13f 7d46 6c24 7f55 a13f
00000450: 992c 3992 1a05 b0bf 98d3 9c76 a2ea a1bf
00000460: b0bb d263 27a8 a13f bf91 5042 6838 7cbf
00000470: 1d66 91a7 11d8 a4bf 984c 0ea8 4bcc 963f
00000480: fa91 34f9 6f16 b33f 8126 0c61 f5f3 be3f
00000490: 7030 38f1 d202 82bf f8ae c86a 270b be3f
000004a0: 6e06 7f26 9555 b93f 9552 4c85 e6b7 b1bf
000004b0: 6470 da8e fedf a23f 1c88 950e a259 813f
000004c0: 0356 86ca 4a41 c03f f2b2 14f5 c834 8ebf
000004d0: 6a9d 6c62 bebe a4bf 8b19 73fa def0 b53f
000004e0: 5a7e 6cb0 393d c73f 66d7 ff07 6196 a63f
000004f0: 5557 d3c1 4894 a13f f589 3ac2 6cef b63f
00000500: 5cb7 7658 bc3e a9bf 7a4d 877e 3452 a8bf
00000510: b1fa eaab afe1 a7bf 1b91 8d15 a891 a33f
00000520: 0a6a ca47 ebc2 a73f a468 ffb0 61a0 073f
00000530: eec0 9428 2962 c43f 24f1 b0a6 cde4 c13f
00000540: d156 2893 cfb6 9fbf 3dbd 816d 6852 bf3f
00000550: 487d 29cf 75ad 8f3f 240c a5ab 47b8 723f
00000560: 7a3f cad7 b09f b63f 4fc6 421f 5436 ca3f
00000570: b0db 2d9e f5a4 b53f 6bf7 2152 250d b03f
00000580: 3c20 1a62 d28f 813f 45e4 7467 31c6 a9bf
00000590: 59aa ff30 a824 a5bf 2b62 f06c f189 99bf
000005a0: 23a9 a4e8 bfb1 b23f 3874 aa3c 3760 c6bf
000005b0: a3ad c9b2 5dd8 b2bf ed02 a4da 6641 923f
000005c0: 0579 13a3 d68b b03f a895 796a 5849 aebf
000005d0: 0e14 59c8 7ad3 be3f 6a5d 0f60 2769 b1bf
000005e0: c88c b764 2ca7 a63f e82a a7d9 343b b63f
000005f0: 446a 8517 6c7f b13f 6904 c62d 41d0 b9bf
00000600: 38e2 f978 b034 be3f 8695 40c7 5489 b8bf
00000610: 2476 9f62 f31b bdbf 2589 e17d 6cc9 623f
00000620: 7a28 bc87 3782 b2bf ea1a a0e7 6208 a03f
00000630: ac86 515b e643 b0bf 54fe 8cc0 abd0 be3f
00000640: 9fbc 764f 846f c0bf 7f47 2d54 5459 883f
00000650: 4f65 08a7 ab13 b5bf b240 7bdb 1128 8fbf
00000660: 7a03 d80b 93ea a33f 2e98 34b2 49b6 adbf
00000670: deb5 e943 3af0 703f 707c 6241 d86d a3bf
00000680: 1576 efab af90 b63f d91b 128f 115b 70bf
00000690: aae4 948d 4cea b63f 1f5c a256 f667 81bf
000006a0: 0bcb bed4 2f87 c23f 427a 34bf c8e6 94bf
000006b0: 0d9a d400 4c7a b6bf 5ad8 5a98 e19f b83f
000006c0: 8755 bf36 80d3 abbf df04 edbc e271 a4bf
000006d0: 80ba b241 48da 91bf 8548 25d1 6513 6cbf
000006e0: 4d95 c3dd 3cb7 cebf 9dcd e2c5 8336 94bf
000006f0: 8ff4 64a0 06b3 d8bf 04c7 b936 0325 a63f
00000700: cee2 a24f 97a4 a53f 60f0 2c50 2908 c3bf
00000710: 7d48 4fd6 0bcd d0bf 654b 9dce a0b6 c4bf
00000720: a06f c3d6 7597 b33f 3b57 ded5 e9be c73f
00000730: 4bb9 2b38 8778 8b3f 3218 de23 3e3a c6bf
00000740: eaf5 beb5 7ee2 a83f 3765 9cac 5cf7 a33f
00000750: 7076 84b2 4e8b a33f 6e3f 2be6 9383 d0bf
00000760: 89f1 8edf 0eee b2bf 8801 8625 8bee b23f
00000770: 26d5 3a13 f876 b7bf 5ad6 3d69 5291 a8bf
00000780: 50ed e377 25db c33f e6c6 51fb 48d9 a0bf
00000790: b134 8ee1 c898 ac3f fcfa e765 091a a8bf
000007a0: 849c 6eda 2514 aa3f a1d1 96ad 275a a13f
000007b0: 0028 f28c 019a bc3f 3f87 bc8e a700 a43f
000007c0: 75cb 49ea 2537 a3bf ab21 3a76 13fc b23f
000007d0: 96b6 9ed1 0b91 b3bf 1017 fde5 9996 c7bf
000007e0: 0e49 036c 1726 ba3f b6b1 0b12 f412 c43f
000007f0: 0f61 171b ccd1 98bf b6df 60a4 7d28 88bf
-0.042605407216378156 0.07343033023239239 0.07462640229060308 -0.17093446463205805 -0.0963286605916165 0.13341207052377307 0.050997283052081906 -0.10111187088250047
-0.20084669611703757 0.05905399247163444 -0.026180304926472553 0.09160062611912556 -0.1120276738641579 -0.2518066325746657 -0.04554623664175278 0.15862662930344623
-0.03736589361333511 -0.01097244366323602 -0.06466723582935997 -0.026612764245558976 0.1332919565238562 0.15228154407997951 -0.17137725214713417 -0.03424452242419555
-0.04293368799769648 -0.027779134023666014 -0.05886926850288062 -0.08745785819352217 -3.697024554948128e-05 0.08226441418579312 -0.02451467312091258 0.08524278334204415
-0.01102579533391983 -0.16175442214647007 -0.2127110891288422 -0.06613995080457376 -0.06640626919680989 0.06471902307763303 -0.02730619199948511 0.04568200643962263
-0.06766474337446343 0.08160635209927401 -0.04492590488256379 0.0695041926569513 0.007822322625968641 -0.10632488692790092 0.10493698258625671 0.13859808896195472
-0.1558726022910867 -0.12417693922684102 0.17856097757518763 0.16435136094281882 0.04815281342787104 -0.015400637966072045 0.08037560099006458 0.08613547949094398
0.12380622351286336 0.018610998880814605 -0.02451577224927054 -0.2483115377857586 0.04107084533111984 0.08002466182388529 -0.13982734878695932 0.030898688053226434
-0.11055186187854402 -0.07033949776503094 0.008126136350813067 0.08437596983502585 -0.004057319123259151 0.10792634266801364 0.15313896194662188 -0.09344608955108263
-0.10249355647193432 -0.02627622281846333 0.010070509697827622 0.038098567651961325 -0.12164253283768432 0.04473828801090285 -0.05214248122835299 0.14129647911368695
-0.005784104584860942 -0.07401009057317653 0.14756686314327688 0.10676377568776863 0.08153915721078002 0.006893825405584074 0.10872463317439134 0.026944534997462587
-0.22112227023691636 -0.1411861061529424 0.08863600230275227 0.10005806362980962 -0.023349501191363215 0.015151562479064642 -0.11292608011886503 -0.03158582143429575
0.04919026604511905 0.08743904061570153 -0.06360012050012338 -0.063643829236362 -0.04103334223522681 -0.11734879712562843 0.10846543492052098 0.07151892446233354
-0.07669428130925353 0.007053305455331468 -0.07842797942654929 0.12727811188061458 -0.07270676492817757 -0.030873377115994378 0.1392806135482894 -0.021835887782008814
0.08173381761562337 -0.036653191521158986 0.1527299267705752 0.005029384930016719 0.09879687011733729 -0.012597571146891647 0.09185499733958595 0.04619946408454697
0.13079875033503885 -0.03211718216532484 -0.09512026487817363 -0.05920267334642349 0.05047029958194794 0.037668317202859944 0.030933327752598015 -0.06838302551779611
0.038653988382368706 0.038799756945596085 0.03845233420192084 -0.12744810131965337 -0.09911170216874733 0.07957697843257493 -0.012182200467209641 -0.025731002291335597
0.03372844564484864 0.033855412670289 -0.06257787771135027 -0.034993245104863735 0.034486037192770325 -0.006889731656916031 -0.04071097536570909 0.022263700611415332
0.07456111749758768 0.12091001147578063 -0.008794448839602093 0.11735769612340252 0.09896213712547716 -0.06921234850262643 0.03686519140066549 0.008471742696830424
0.12699255837348752 -0.014749116877817301 -0.04051775886028504 0.08570664991848369 0.1815559493488646 0.04411605093620956 0.03433444372210085 0.08959083310995893
-0.04930676059608061 -0.04750217480218573 -0.04664372418982533 0.03822064650629128 0.046408989442358786 4.5063954644057326e-05 0.15924562913415435 0.13979502333848715
-0.030970805508409086 0.12235119508271892 0.015467567810616104 0.004570274317589305 0.0883741881209498 0.20478297735603454 0.08454833137316942 0.0627005887526743
0.008575099581563099 -0.050340217474918826 -0.04129529569748475 -0.024940273546322594 0.07302474431768195 -0.17481127226065651 -0.073613983296744 0.017827612967269358
0.0646337650427747 -0.05915333080046575 0.1204144229059951 -0.06801076979842482 0.044244181913904834 0.08684091867250354 0.06835055898901837 -0.10083396308438498
0.11799147561567558 -0.0958455072837606 -0.11370774419580038 0.0022933119753797576 -0.07229945243685335 0.03131398274859072 -0.06353606919722193 0.12037156535097299
-0.12840322380131838 0.01188913232695987 -0.08233139827679746 -0.01521314574293373 0.038899035640503635 -0.058031371120066275 0.00413534889103803 -0.0379474239173242
0.0881452364696645 -0.003993099774681285 0.08951261955816628 -0.008499073523394128 0.1447505749507275 -0.020411621732927772 -0.0878036024119881 0.09618959397889296
-0.054347998316795425 -0.03993137890075515 -0.017434243211648326 -0.0034272183049007276 -0.23996697262115632 -0.019739207222938416 -0.3859268728591098 0.043251133375532574
0.04227135512468792 -0.14868656554051807 -0.26251502922708153 -0.16182336891742036 0.076529850895382 0.18551371519850499 0.013413483049103411 -0.17365242720933477
0.04860301941469543 0.03899659735743415 0.03817220620315431 -0.25803086736140457 -0.07394497831314174 0.07395238557911032 -0.09165907353856947 -0.047983718249196186
0.15512531618137837 -0.03290775363792679 0.05585315469134267 -0.04707364434215397 0.05093496600539374 0.033890953006820775 0.11172494593679971 0.03906749360454719
-0.03753012165989037 0.07415887485888699 -0.07643197887110839 -0.18428348283685425 0.10214373003990238 0.15682841187607516 -0.024237813142321814 -0.011795980051928594

block.2.bias f8 [60]
00000000: f8c0 7e19 0086 abbf fbff ed47 9f81 bd3f
00000010: 0175 8fd3 31f3 bf3f 9d0f fdd0 9c68 babf
00000020: 5e43 2f4d f990 a7bf a2ac 6ae1 a7b9 b63f
00000030: e286 e007 8200 b9bf 77b3 ef9e fd7c 903f
00000040: 5ec3 ad4e 891b b1bf 542b 0b7c 755d c1bf
00000050: c1b2 d4e6 7d21 a43f 122d 98d8 2ae0 bd3f
00000060: 279d 8d08 3b47 af3f c8cb 4b12 f0d9 b8bf
00000070: 5a64 0589 feb2 b83f 88fd 44ff f080 923f
00000080: 02e5 8043 ea12 9dbf c9e1 08ca 3ec2 983f
00000090: 91c5 237e f1ee a43f 658c da90 5917 b5bf
000000a0: 45e8 66fc e8bd b5bf 7f9d c2f4 f6fc b53f
000000b0: 2b6d 849e cacd b73f 6ed3 cf0f 0de1 a5bf
000000c0: 0fe3 285e ab87 c13f ee7f 9b9a 48f3 bc3f
000000d0: 6f6b 3c0f a7e4 b13f c9b5 4e2a 0830 a73f
000000e0: b686 13f3 3804 c33f 49f4 9da7 38db af3f
000000f0: 3f01 05cf cb4d b13f 4583 a668 b190 80bf
00000100: d94e db38 4fa1 a0bf 8ae9 258a b8b5 763f
00000110: 03c9 ea06 fa7c b4bf e5f9 e617 b640 6d3f
00000120: 98b6 68c7 7625 aebf 59f2 6a54 ff38 be3f
00000130: b762 098a 93ca 93bf 7485 7c00 5437 bcbf
00000140: 4d4d 5853 6069 bb3f 57f1 c8d4 d6ad b1bf
00000150: f98f ecea 6c6a 9d3f 903f dcb2 8a82 9e3f
00000160: 3a9b 2cee c307 af3f 3d6a d4f3 a7da b43f
00000170: 9f54 5bcb db3d acbf 46fa 2128 8e8b b7bf
00000180: e84f 51f2 598d bf3f a3be 85d6 6f64 bc3f
00000190: dc95 26a2 2628 bfbf df2a b29d dd61 bb3f
000001a0: 212f b1db 8cba 853f 9614 30fb 8211 b4bf
000001b0: e444 4c16 6452 c23f 183d bf5d fd44 313f
000001c0: eb96 ae6c 56b5 b13f 316d 812d 51da bf3f
000001d0: 46d3 c0d9 7681 c03f eaab feea 164a a9bf
-0.05375671683521149 0.11525912767501716 0.12480460562752073 -0.10315876104601647 -0.04602793757624711 0.08877038243615457 -0.09766400043784132 0.016101801706031673
-0.0668264214598486 -0.13566464001481882 0.0393180221820777 0.11670177257490291 0.061090321344460734 -0.09707546660119626 0.09648123593560012 0.018069997387326647
-0.028392467851721122 0.0241784869014923 0.04088549294273059 -0.08238754068820382 -0.08492904817731624 0.08589118457404331 0.09298387880373997 -0.042732628040460394
0.13695280168192212 0.11308721327395663 0.06989521142933851 0.04528832928131583 0.14856635922392564 0.06221940084558548 0.06759332470119704 -0.008088480001619333
-0.03248069352198763 0.005544396265003812 -0.0800319926154636 0.003570895815953922 -0.05887957748596512 0.11805721102695922 -0.01932745485314299 -0.1102192403018501
0.10707666430271452 -0.06905882544464724 0.0287262934099459 0.029794852415818307 0.06060611994171557 0.08146142676233921 -0.05515944344885181 -0.09197319488337383
0.12325060049016623 0.11090754496921788 -0.12170640429265894 0.10696206188201128 0.010609722570869064 -0.07839220650210374 0.1431393727184861 0.0002635115213224944
0.06917324212426094 0.12442500458694351 0.1289509356735385 -0.049393383203401545

block.4.weight f8 [60, 60]
00000000: 6bd8 d33c 269c b5bf 2f48 af1c ddd1 b3bf
00000010: edf5 2d44 b410 88bf 5ac4 54ec 6291 b13f
00000020: 0448 8ed8 1f9a ba3f f87f 3c66 57ee c53f
00000030: 36e5 ba0c a675 c1bf 6167 a58c c2e7 b7bf
00000040: b9ae 7c17 fa36 c0bf 7ccd 6f0b 2f08 c43f
00000050: 48a0 e599 67a3 bcbf e5cc 465f 9fe1 b8bf
00000060: bbcc 66c2 659e bebf 11a2 81fb 54ce c33f
00000070: 0642 6a61 9017 a5bf d2d2 07ac da15 8c3f
00000080: 4e7c fdf6 0a72 c03f dd0d 5916 d19e cd3f
00000090: 7fef e496 2aac b03f 6f28 f653 0896 c9bf
000000a0: 716a 1eff 7222 9f3f 93ed 5e38 a237 b23f
000000b0: c694 ce29 f9f9 bdbf a691 0daa 9388 9f3f
000000c0: c7c8 fc20 fabf a63f 3ea7 7e79 a6b5 c5bf
000000d0: c2a8 8e89 340e b1bf a499 8ec2 fc39 b13f
000000e0: d39e 9b57 3498 a8bf 416f d08c fbcb b23f
000000f0: 3978 f735 baab c53f fd4a 53f0 b6d4 c43f
00000100: f779 fe49 16ac bf3f 39b1 1139 55d0 ab3f
00000110: 4ee0 3a33 ef16 b2bf 84af 56d9 fd46 a03f
00000120: 51a7 793a 2db1 afbf 1aef 4ec5 beaa c13f
00000130: 5935 b958 1395 b4bf 6a40 189a 7397 a63f
00000140: 3b67 3d6a 7e89 8bbf 0372 c4c8 b713 c4bf
00000150: 59ca d2c3 3141 bdbf 5e62 2c7b 92af ad3f
00000160: eb03 1a04 caf3 be3f 7486 518a ad0e a2bf
00000170: 3d8d 0522 3014 c53f cb8e b26a 4f3b b2bf
00000180: 78e3 362c 6094 c03f 9027 eb3c dc4c babf
00000190: d514 8c72 b11e c0bf 54f5 489a 61e9 863f
000001a0: 9c3d a0ba 9bad a1bf cf6d 1f20 4ef9 b23f
000001b0: 3ecd b87d 244e b53f 4751 bed4 71e0 b03f
000001c0: 0c64 aa95 b950 c3bf 151d 55cc 2f3f 9f3f
000001d0: c2e7 2b8e 348c b93f b5f5 73a6 bf8a c6bf
000001e0: 9d76 ec93 b703 a33f 444d 25c2 18e3 ba3f
000001f0: 7cb9 d3ef 68bc 8ebf 57c2 2aa7 76cd b7bf
00000200: 2b4a 954f b0a9 b03f f61d f75d 2d3d b6bf
00000210: eedd 1e60 f077 b23f 5594 edd0 105c b6bf
00000220: d903 9387 6398 adbf d631 5d54 c901 b53f
00000230: a485 582f 6596 b63f b6c7 41c2 2d9c 9b3f
00000240: 8aa8 b270 2584 ba3f 4780 a9ce cbcb c6bf
00000250: 18c8 40b1 1638 c43f 53ac 904c ff39 bcbf
00000260: d0ce 9508 919e aa3f 6089 6ae1 a264 91bf
00000270: 3a24 3882 22ae c7bf 495e a581 0ed4 c73f
00000280: e89f e33e ad60 903f 4029 1285 f50a c03f
00000290: 4085 b911 169d c23f b783 ac77 12f7 95bf
000002a0: 2a05 6076 9a8d c0bf 7f97 2980 17ce b4bf
000002b0: 4c12 2eef 8583 c33f c98e cfb4 dc5b a7bf
000002c0: 8f69 3bf7 ec9c b13f d701 f775 a62e bbbf
000002d0: 8804 aa46 52ba a5bf b3ea 94d9 a2e5 a5bf
000002e0: 835a 5cb9 25f6 b0bf d29a 0c26 c346 87bf
000002f0: 0a0a a2c0 f24c bb3f b228 c347 26f4 ab3f
00000300: 3f4c 309a 1877 a4bf 5a1a fc72 c594 b73f
00000310: 69ba 8860 5e97 c23f 377e 139e 2b91 a0bf
00000320: 4d8e c264 d9a9 b73f 4dc8 610e 9f81 b3bf
00000330: b444 ee98 d979 b23f 1777 d684 b885 b2bf
00000340: a769 4e21 5bb4 bb3f 6855 c0f8 2704 bbbf
00000350: 197b 84d3 92e8 c3bf 8d12 5194 2f11 b2bf
00000360: 4de1 0e73 ca92 a43f 9dfd a5ec f147 bcbf
00000370: 098f 6e22 d502 b93f 9d85 17fa 4741 76bf
00000380: 8147 905e 7331 a13f 3341 2727 9633 a5bf
00000390: 0fa1 96a4 8307 7b3f a423 e28e de5a babf
000003a0: 7de8 97c3 f259 9fbf 3974 2ff6 54c9 ba3f
000003b0: 1ddc 72dd 008d aa3f edb7 f0c3 f0be 543f
000003c0: 86e4 484f 44fe b8bf f4c9 d247 12ad b53f
000003d0: dda4 c382 f119 853f cd8b cf65 fb7e cdbf
000003e0: 3048 2d87 1b09 a6bf 4384 0770 4ed4 9d3f
000003f0: 3b45 5308 f612 49bf 57ce c8b8 29f2 ad3f
00000400: 6647 9f4c 7a72 b63f 6dfd 78e2 2ba0 b3bf
00000410: ea1b 2909 a2a6 bc3f c26d 837b 8d86 b73f
00000420: 3316 74a0 d6b5 adbf b2a4 3ef7 48b1 95bf
00000430: 74f0 d4da a5ee a6bf ff77 d83e a603 ccbf
00000440: cad0 1fe2 2265 7abf 9a83 b5d1 609f b73f
00000450: ce84 23a8 2b24 ba3f 6af8 002d 9019 613f
00000460: a520 8ed0 3661 babf 4d7e 6e1e 840c 9e3f
00000470: 2ab4 c7d4 c8bf aabf e96f 5f17 4714 b53f
00000480: fd8b d924 cddd 96bf 4a5d d61e d54f 92bf
00000490: de9e 8e5d 3164 abbf a449 8439 7294 bf3f
000004a0: d173 49f1 7a62 803f 6719 e43d 246f bf3f
000004b0: ece8 b676 7098 bcbf fdb2 17fc 2ced c33f
000004c0: 2ab8 a86f 2c64 cdbf b01b 11df 9b2a c03f
000004d0: f49a 199d cf98 bf3f a3b6 1c58 bac3 81bf
000004e0: deeb fac1 0b27 c03f 30a7 43d2 d8e2 c7bf
000004f0: c7e1 bdee 09ef c73f f3e2 d162 a9b1 adbf
00000500: 6f2e 9d93 1db6 973f 9908 ac9d e066 a1bf
00000510: 159e cd5f 3f3a babf 63a6 3ea7 d01a 9fbf
00000520: 918a 5648 d2bd abbf d5ee 9773 957e babf
00000530: 90a0 14eb 75ef 8d3f 2547 ffdf f232 bdbf
00000540: ed02 0313 a91d c3bf a5c5 1e50 b1af 853f
00000550: 6b93 e249 ce9b a13f 5066 e7cb 0ce3 a7bf
00000560: f10f 4e5d 0469 b1bf 13f0 3432 fee1 bebf
00000570: f00b dad8 5933 c53f 13fc 87b8 3845 acbf
00000580: a85b 5d75 d92d bb3f a825 124a 3852 ba3f
00000590: c790 1292 0847 cebf 7ee9 5dce 4018 993f
000005a0: d62f a4b2 dd7d be3f a054 a1f8 f635 b93f
000005b0: 3778 6929 f447 b4bf 0492 dd11 e727 b73f
000005c0: 5881 96c9 21ae cd3f 63fb 9d78 5953 8ebf
000005d0: b47f c295 6cb5 b3bf ac31 082c dce5 cebf
000005e0: d2d6 6559 2e88 afbf 794e 41a8 af03 c23f
000005f0: 6547 951d b977 bbbf 20d8 4d3e a4af b8bf
00000600: 4a2e dc10 36e4 b0bf 18c5 543d cb97 a83f
00000610: c43a ee49 1198 b43f c42e e190 3b57 a93f
00000620: f4bd f5ac fd20 c33f ea56 9f16 6194 8abf
00000630: ef9a 40c1 9554 aa3f 3bc5 713f ece2 a23f
00000640: 3fde 95ca efda b43f 425f d5b4 1c01 393f
00000650: f28c ab1d 2c09 ba3f 60cf 2bc4 f358 b03f
00000660: cd7d 7f58 635f 90bf c6c9 c2f8 a0d0 97bf
00000670: 10bb 2bab 9045 c4bf 6369 342c d228 c4bf
00000680: 01b8 1bf5 4dbd 3abf f1f9 2ff1 60ea b4bf
00000690: d09c 771f 2f5a c13f 0f0e 09c0 0f8e b23f
000006a0: d847 038c 0326 c13f 8a92 a9ed a928 8cbf
000006b0: 1adf b5c3 e591 a3bf d168 66ee 0c0e bc3f
000006c0: 2483 ae00 765f c43f 389f b99a bb84 afbf
000006d0: 6b1a f4bc 8f33 c1bf 9501 bf8b 04dd a93f
000006e0: acc3 4926 f623 ac3f dfaf d2da 934d a0bf
000006f0: 4143 80d9 8b6d a63f c33e 1e22 72d2 a03f
00000700: 4d71 e3d6 8446 c13f c999 f864 9ae8 743f
00000710: e39d 46dd 7cf8 a8bf 03f4 73ad c514 bf3f
00000720: 838b 278a 6f1b b73f d3cc d25b b418 c33f
00000730: b7f3 5978 cc6c 8c3f 011a d6d5 aa75 bf3f
00000740: 68a0 4e59 e173 b63f 3a6f 0699 7ed5 b83f
00000750: 0952 9127 a98a 803f 0d5c 08ae 6388 bf3f
00000760: 8bfb 4950 8733 c0bf 87d1 9deb ca5d c23f
00000770: 1e64 6a9f 0c2d a13f f2d8 16a1 9b51 88bf
00000780: c665 f294 eea3 b03f cb5e 9820 e4a1 c3bf
00000790: 5fcc 3918 774d b8bf 5ff7 5071 efa5 cbbf
000007a0: f3fa 56a7 0e1e b03f e090 029b 67e7 953f
000007b0: f577 1165 659b aebf 5d21 8af5 646f b73f
000007c0: 2c5f 6489 a312 c13f 5153 7568 9776 ab3f
000007d0: a01b 374e 839c a4bf 80ea d074 15e7 a13f
000007e0: 0945 7476 0753 78bf 4c68 9fcb 867a b0bf
000007f0: 6d5f 8474 b585 bcbf bd5a f36a cb67 a23f
-0.08441390023276234 -0.0774210162192339 -0.011750610666918038 0.06862467069437753 0.10391425168043616 0.17133610240944086 -0.13640285131058655 -0.09338012632124794
-0.12667776247814347 0.15649974878725093 -0.11186835772753156 -0.0971927268608855 -0.11960445400363799 0.15473425179085656 -0.041195403949249296 0.013713558554607461
0.12848031101290974 0.231409202491803 0.06512705024664277 -0.19989112949071194 0.03040485078927663 0.07116140247574369 -0.11709553976705242 0.03079443669720807
0.04443341877630896 -0.16960602695808719 -0.0666230045159493 0.06729106664588486 -0.04803622788841513 0.07342502773138639 0.1693032039174243 0.16274153456341614
0.123719590249017 0.054323828903621814 -0.07066245079738673 0.031791622906296474 -0.061898625743949005 0.13802322992511834 -0.08039971271610592 0.044124233780281255
-0.013445842377837294 -0.15685174277395228 -0.11427603751034478 0.05798013452130556 0.12090742683541549 -0.035268233427598356 0.1646785894509807 -0.07121750216407034
0.1295280662432352 -0.10273529517431101 -0.12593668072819378 0.011187326928047504 -0.03452765133999522 0.07411659511802003 0.08322361058599356 0.06592475360804882
-0.15090102966203778 0.030514475676025905 0.09979561301216136 -0.17610927226625753 0.03713773422917408 0.10502772083173278 -0.015007800883236604 -0.0929788740275027
0.06508924429844203 -0.08687099021982889 0.07214262339299868 -0.08734231091291751 -0.057803259181589524 0.08205850896519648 0.08823234945204789 0.026962962132934108
0.1035788917676276 -0.17809436407969967 0.15796168951925504 -0.1102599679876886 0.05199101667213102 -0.016985459335623232 -0.1850016723476829 0.18615895586366296
0.015993792499017362 0.12533444402317606 0.14541889062369684 -0.02145031791144777 -0.1293213918689074 -0.08126971129385473 0.15245126894673644 -0.04562272746241331
0.06880074535312118 -0.10618057613374475 -0.04243714439963592 -0.04276760965372741 -0.06625591063889584 -0.011365437124891829 0.10664288714364303 0.054597088108111605
-0.03997113115487893 0.09211381966825041 0.14524440492228344 -0.03235756210937917 0.09243544301949065 -0.0761966142761434 0.07217178329144042 -0.07235291712865109
0.10822076380865174 -0.10553216765432227 -0.1555350811767873 -0.07057473536503718 0.0401824250652135 -0.11047279384182791 0.09769947138425662 -0.005433350715493471
0.03358040360775672 -0.04140919902750042 0.006598963003320315 -0.10294905651438896 -0.03061656302268333 0.10463458071122113 0.05185702040892457 0.001266226885273887
-0.09762980399763607 0.08467211011410553 0.010303389361484278 -0.23043768378474142 -0.043038234950146026 0.02913019713185273 -0.000765199788157179 0.058488181883515615
0.08768429155977983 -0.07666277197949052 0.11191761706969286 0.09189686074699124 -0.058027941786388836 -0.021184101191157274 -0.0447894887570052 -0.21886137074119458
-0.006444107306368527 0.09227566833352654 0.10211441855382761 0.0020873847898022395 -0.10304586974791848 0.029344620091818197 -0.052244449590809275 0.08234066315293344
-0.02233047997868808 -0.017882661826289316 -0.053498785658403256 0.12335885910241601 0.008000336159222162 0.12278963576327372 -0.11170103929808634 0.15567552861411818
-0.2296195550165419 0.126300319594717 0.12342546067666743 -0.008674102605790884 0.1261915871781118 -0.18661031977472353 0.18698238522826058 -0.05799607592866165
0.023155653128283434 -0.03398801731783969 -0.10245128716416503 -0.030375728805358892 -0.05418259747536525 -0.10349401542765276 0.014616891132917226 -0.11405866593056808
-0.1493426649886013 0.010589013345312656 0.03439182903210888 -0.046654128924001115 -0.06800868299438868 -0.12063587880851427 0.1656296070906076 -0.05521561863496784
0.1061683570418227 0.10281707580920474 -0.23654276974150987 0.02450658092082269 0.11910806285248951 0.09847968645165617 -0.07922292719874312 0.09045261560601864
0.23187658637199138 -0.01480741404861669 -0.07698706299060981 -0.24138977193832767 -0.06158585397035456 0.14073749270993455 -0.10729557964557797 -0.09643007775397949
-0.06598222648261146 0.04803309558554697 0.08044536642976668 0.049493657527447193 0.14944430299099987 -0.012978323462373226 0.05142658218419693 0.036887533898048074
0.08146570869382062 0.000381536014932394 0.10170245861404562 0.06385730304083159 -0.015988876606454917 -0.023256793196830626 -0.15837295873594615 -0.15749575766023857
-0.00040801194437178895 -0.08170133484234278 0.13556469952093275 0.07248018682826561 0.13397259079516632 -0.01374943501031935 -0.03822248472255137 0.10958939380944634
0.15916323693547796 -0.06155954612478215 -0.1343860314011239 0.05051435666928509 0.05496186463722749 -0.03184186979464675 0.043804521847170104 0.03285557428818955
0.13496456616020183 0.005104640105435051 -0.048770811091624976 0.1214107082814309 0.09026238558685233 0.14919142230573942 0.013879392073471537 0.12288921089757567
0.08770569258069971 0.0970076678844948 0.008076974411019415 0.12317488669246775 -0.1265725271259409 0.1434873247595869 0.033546823940192136 -0.011874404767564493
0.0650014032020386 -0.1533780249744637 -0.09493202535104349 -0.21600144417782993 0.06295863709872744 0.021390551410733205 -0.0597793279527962 0.09154349321955153
0.13338131149861832 0.05363915586591495 -0.04025659875656307 0.03496615458467023 -0.00593855776902897 -0.06436960669762576 -0.11141523451476383 0.035948139958852356

block.4.bias f8 [60]
00000000: 8c3d 41c2 e3d8 b13f 7421 d0a8 2aa8 b2bf
00000010: a781 e614 2437 51bf bcae f123 3b81 ac3f
00000020: ca59 4412 1a92 a03f ba91 0eed 0e0f aebf
00000030: 8613 4b8c 93bd a93f ece9 894c 525a a2bf
00000040: ce28 0810 876a a93f 9379 dce1 95cb 98bf
00000050: 8e56 436c 978c 88bf 214c 69af cb0d c33f
00000060: e048 4265 af9b 9ebf 24b4 4355 2232 9dbf
00000070: bf2b e71a 2b19 85bf 6534 a41b 3ce6 b2bf
00000080: 9c7b f582 650e 81bf d16d 734f 8a3b 93bf
00000090: c308 3747 5407 ab3f 0068 66ad 2a33 c0bf
000000a0: b75d 793e c4e3 c63f 0ca5 a27f bc1a a8bf
000000b0: cf3d b172 c170 a5bf f964 bb63 b9df bcbf
000000c0: e4d4 ccfd 2914 b1bf 1fc9 1e94 2dc5 b1bf
000000d0: c939 7c76 38d2 b23f aa2c 4315 3386 b1bf
000000e0: cefa 3ed8 24ef 9fbf c7fa 1bff b2a4 983f
000000f0: ce10 ff22 1595 c53f 6e1b a2ba bab2 743f
00000100: 0b3f 7bbd 5d39 b53f 80ab 5750 71fe 87bf
00000110: 4155 a3ba c4c3 b1bf a98c abb3 fdc6 8dbf
00000120: f837 cc4d c43f b33f e773 068b 36b9 bc3f
00000130: 8ff4 350f 0d41 a6bf 9def f0c1 34d9 a1bf
00000140: 5d75 5101 3f22 b83f dd0a 6929 9275 bebf
00000150: 539a 1650 82eb c23f 3fbe 7e18 ee4e 91bf
00000160: 3600 ebe2 5dce bdbf 29e8 9f10 1f71 b13f
00000170: a3ea 9990 3f2f bc3f 9bbc 4dc3 2202 b43f
00000180: fa0b e01e 22eb b43f af6c 7eb3 a5cf 94bf
00000190: 48bb 111e 6939 9fbf a8ab 590f a8f2 a2bf
000001a0: 1172 dbf8 a3e2 a93f 57fb 9928 5e0a ab3f
000001b0: 3f3b cb74 0e42 b2bf f582 8d2b c847 abbf
000001c0: 17c1 e52b c3b6 abbf fd04 a5fc d380 b2bf
000001d0: 1277 1d83 4c2a b1bf 88b2 332c 0060 b5bf
0.0697157239203447 -0.07287851926242245 -0.001050744281748542 0.05567345441599289 0.03236466858850269 -0.058708635747538776 0.05027447784008303 -0.035845348208528666
0.04964086600019045 -0.024214116964793652 -0.011986906997133031 0.1488585096836639 -0.02989076667342594 -0.028511558965807052 -0.010301911123766659 -0.07382560419883218
-0.008328240450905793 -0.018781815623567347 0.052790292447313834 -0.12656148402021472 0.17882588434689037 -0.04707898195312951 -0.04187588238766759 -0.1127887600408889
-0.0667139286641319 -0.06941494814126202 0.07352021115023101 -0.06845397252179689 -0.031185699175462038 0.024065777607570362 0.16861213883215104 0.005053262148186783
0.08290658832561008 -0.01171577955661518 -0.06939343983261372 -0.014539701505276463 0.0751917543350088 0.11220112699670858 -0.04346504984548815 -0.034860275911767526
0.09427255422766252 -0.11898149024004163 0.1478121653610339 -0.016902656788884803 -0.11643015661229658 0.06813234477877529 0.11009595184615732 0.07815758960872403
0.08171284917629854 -0.020323361473498277 -0.030492441616327498 -0.0370075720537309 0.0505572549134038 0.05281347509025263 -0.07132044173634443 -0.05328202754640713
-0.05412874136789208 -0.07227826040345416 -0.06705167962124062 -0.08349610404156682
