JupyterLab/best_model_M2_104.pt (torch, 127885 bytes, 12 tensors)

block.0.weight f8 [60, 12]
00000000: 5475 4d70 9282 cf3f 984d 4370 a061 c73f
00000010: 0f89 072e 9dd1 dfbf a7fc eb59 c39f c6bf
00000020: 8894 683b 7b1c b33f f0de 9c7d f93a bc3f
00000030: 5975 4dd0 32cb c43f b43a cb04 9af2 ccbf
00000040: 3409 2407 c850 be3f c0b5 4bd2 f628 c8bf
00000050: 2506 b6a9 c299 a33f fd12 93f4 ec43 a43f
00000060: d975 4d64 e95d c73f 92a8 72a7 8e26 cc3f
00000070: 40e8 38ee 33a5 b53f 0aa4 181e a9a7 b4bf
00000080: c0a5 b552 86db c1bf 687e 1f8f 95d3 d5bf
00000090: dc75 4d04 23a2 ce3f 8f61 515e 72de c33f
000000a0: ae54 b211 d196 dabf c0a5 b512 952f c4bf
000000b0: 9342 8dba 35d7 ba3f e716 dc35 1ffe 8fbf
000000c0: 0855 01b5 b262 c8bf a551 0e8d e71a babf
000000d0: fc51 7e9a 2c8d c43f 3485 2610 153d d4bf
000000e0: 0648 9f2f 4b04 983f ae88 9b39 18a2 d53f
000000f0: 0855 0155 6bb4 c3bf 641d e9f5 6e26 cebf
00000100: b9b8 69cf 18f1 bf3f fa2d 1884 2070 b9bf
00000110: 4a72 3fcf 2859 ca3f 2a72 4f99 d7fc bb3f
00000120: e577 788d b539 b73f e3a8 94eb e944 c0bf
00000130: 244f f102 7dd5 c1bf dba4 6ed1 6331 95bf
00000140: 8761 5005 7380 c8bf 0112 5dea 5e35 babf
00000150: 1488 87ba 8470 bebf 8859 e468 a9d8 c2bf
00000160: e746 bb89 bb0a c8bf a0c2 a0ba c341 b4bf
00000170: 6127 968c 811f d23f 9412 e4e6 ae05 ce3f
00000180: c0e7 2797 9196 cb3f b6b7 771a 5b8a 87bf
00000190: 968c c981 7a02 a93f c50e eca2 cb2f ae3f
000001a0: 2709 428c 42dc c23f 1c12 9fb1 c9bd c53f
000001b0: cce7 27d7 3d2a ce3f 2715 ecef 0859 ccbf
000001c0: 7ea4 d3df 34c7 b2bf 9112 8480 4892 b13f
000001d0: 051a f93f 42b1 d5bf 7fab 6d55 48b4 963f
000001e0: 8618 021f 8c5f d43f 789b 615b cd65 c3bf
000001f0: df24 cfec f43e b7bf 6337 f506 cf0f a53f
00000200: 7260 d7f3 c9b3 c9bf 8963 344c 5920 69bf
00000210: 9e9d f743 d362 b3bf acf0 16fa fe7a d7bf
00000220: 4c89 5f6e 4731 d43f 4d7e a278 d7bc a73f
00000230: d205 51be 3f47 cebf cf52 1617 ef0e d2bf
00000240: 1154 05b9 54d7 b13f 6c08 fb4e d8b0 c1bf
00000250: 58e3 6564 ac18 c63f 58da 637b 50cb c43f
00000260: 08cf 2ec0 07f2 c13f 4874 0183 9c21 c5bf
00000270: 22ab be11 cc2d d9bf f5b5 27c4 405a d6bf
00000280: 255e cebb 15dc c83f bd98 e8bf be25 d3bf
00000290: a0ba 0aef bea0 d5bf a8e7 7ee2 4e3e c73f
000002a0: aea3 6534 443f a23f c902 6ea6 60af a8bf
000002b0: f285 a432 e607 a8bf 641b 036f ba86 babf
000002c0: 6546 d6a3 2d44 b83f a3da 7911 b79c c93f
000002d0: 0269 190d 32ea c63f 4c1b e15d 7dcf d83f
000002e0: 1276 1d2f 06d4 cd3f 1323 eb81 f18f c23f
000002f0: a1de 747b d852 b33f 9ec0 405c b950 bd3f
00000300: 075d d7c0 a7c7 c23f 10f7 ee10 c306 c0bf
00000310: 2cbe 1836 e815 d6bf afeb 1a5f 224a c63f
00000320: 2279 89d2 3bef c63f 0aa1 9870 5b87 d03f
00000330: 0a5d d790 eb76 c93f 1a35 9fcf 23ef b43f
00000340: abce 6512 f6b7 c53f d21a dad5 febd abbf
00000350: 563c c84c 33d2 c5bf a7ab 9ee7 9329 c63f
00000360: 8ee1 faaf aeb4 9cbf d527 db5b 29d5 d3bf
00000370: b705 cae3 493e cfbf 55c4 daf3 61de c4bf
00000380: 5414 0c8a c619 bb3f 3491 1ff4 c6ef babf
00000390: 568f 0228 67cb ad3f 9838 a93f da37 d0bf
000003a0: e3ad 8553 fa2d a5bf df28 1894 7d14 ac3f
000003b0: f9d3 1e52 1be7 bc3f 02f1 9f4b b909 c4bf
000003c0: 2df1 51b9 b7bf c5bf 7c35 5fd5 e02a a03f
000003d0: 123a ac2e 6448 b43f 0881 433e e7e0 c23f
000003e0: 63e7 0014 ba55 c63f 5435 1fd8 1db1 c53f
000003f0: d50e aef6 21ff c03f 5c21 3309 0768 d33f
00000400: 9c31 53bf 34fc c3bf 0831 fe17 efc3 b8bf
00000410: 3fb4 2722 bf95 cfbf 80fd 2a76 e57b b2bf
00000420: 2c0f e235 7abf d2bf 60a5 fd46 1ffc aa3f
00000430: 89f6 69df 05eb d3bf 5efc 0cde 5a27 cabf
00000440: 5390 bc68 af0c c4bf 64eb 3e7d a1ae d5bf
00000450: 4185 efd0 282a a53f d3c5 d90d 5a3e a4bf
00000460: fc08 c7e6 66b0 9fbf ac6f 43d7 0ca8 ca3f
00000470: c076 e2e5 e8f5 c4bf e9c4 42eb 888e c43f
00000480: bd70 50e7 5354 c4bf 0232 054a b998 bdbf
00000490: 9a76 b8e9 eeeb d4bf 43dd 03dd 98c8 cebf
000004a0: 5a1d b706 1e5e cc3f a379 6d9a e56f b8bf
000004b0: bd70 50b7 a861 c9bf c148 e6a3 9964 c43f
000004c0: bc90 4e80 5fbd d5bf 058a 2345 cda3 a0bf
000004d0: 2441 3164 cd73 c33f d326 1d5c 85e5 be3f
000004e0: bb30 8601 37b1 c5bf 26af 84ad bfbd c93f
000004f0: 849e 1e97 0d0b cf3f d8a6 8b2d a995 b43f
00000500: 36f1 6650 a750 a1bf 59c7 3cf7 b075 bcbf
00000510: 46cf 795e b355 c73f 89d0 8d59 02f9 c83f
00000520: 6da5 e905 18c5 ce3f 7f87 cc57 1989 b23f
00000530: 3684 ac71 71ed aa3f 586a a1b1 a544 c6bf
00000540: 92f4 4bef e0fe 9d3f 2d1e 275a 8947 c5bf
00000550: cbbc 8b1f 4e71 d0bf 204a 6b84 6e00 9c3f
00000560: c891 7f49 3857 bebf afde 6437 bda4 c7bf
00000570: a37e 69d2 4c05 c13f 579e 0506 b997 b83f
00000580: 4422 df63 0b4f d93f 7cdc 00cd 1625 a93f
00000590: 5125 df13 7b34 ca3f f827 e7a4 a4be 93bf
000005a0: 4748 dddb ee0d c43f 914c 6bd2 7614 cb3f
000005b0: 34c2 918a 2315 d0bf 0b6d 6d74 d7d0 ccbf
000005c0: 0253 45b6 e634 b2bf ddc5 5467 3354 c83f
000005d0: 4f6f 4528 0ea5 bfbf 376a 8a67 c34d d2bf
000005e0: 71c2 20de 7814 9bbf 9a56 dd64 0074 ca3f
000005f0: efaa ba72 8706 c93f 7594 2caf 1ef0 c5bf
00000600: db70 d382 505a b33f 6fbf 6af2 0c17 dcbf
00000610: f1cf dfc2 8aed ce3f 49ec 8b4f 7eeb cc3f
00000620: 619a 746f 2662 b7bf f71f c4c7 440a bfbf
00000630: 2adc b448 32b5 d23f c6a1 a0e8 5f70 b7bf
00000640: 7a68 ffdb 061f d3bf 4a4d ba77 9413 c1bf
00000650: 9501 e838 6a40 93bf a58e 0c06 dfd1 923f
00000660: 9694 0bf0 2574 c63f 8d63 c1f7 c9cb b2bf
00000670: 5e50 d34c 42a7 ca3f a63d bd54 42cc c5bf
00000680: 79ae 9526 223c cabf 3351 e320 3b97 bebf
00000690: 9694 0b70 e3ff c33f 0d21 73e9 d36f d0bf
000006a0: 71c1 96d2 bea6 b1bf 8151 6a59 91bc cd3f
000006b0: c0eb 83c6 49c2 d2bf 407a 46b2 cea4 bbbf
000006c0: d531 c9d9 bf38 a4bf 794d f28b 52a5 a2bf
000006d0: bf7b be14 502d b53f e058 7129 8ed8 cbbf
000006e0: 05e7 98d0 a64e b63f d2d9 3279 08f0 983f
000006f0: 714c 72e2 e802 c6bf 9d06 ceff 080c bf3f
00000700: 0218 0406 cf3b cabf 8463 9cdd 612a 95bf
00000710: 577c b597 2d1c bd3f 04c2 d8e6 973d c93f
00000720: d88b 9f2b 3cf8 cd3f 45cb 3f02 aa7b cb3f
00000730: 3324 9737 cb9b c63f bc81 770f 8c33 d1bf
00000740: d9df 2386 8590 b9bf 3d1a 2167 78c5 c0bf
00000750: 2074 6094 177b c0bf 8ef2 e0da 1bc8 b03f
00000760: 4e10 9f9f 51bf b53f d9df 2306 d8b2 bbbf
00000770: dd80 7a5a a49e cdbf f145 0a7a f6f3 cbbf
00000780: e02f e2a9 8a60 d1bf c187 9f71 4e11 d33f
00000790: d77e c874 b0d8 cd3f 90b7 b718 f5a7 c0bf
000007a0: 0b16 cce1 5dd1 9cbf e623 03e2 0a11 d0bf
000007b0: 0a60 c433 23c5 c9bf 774d 401e 1732 cdbf
000007c0: 5d24 0621 cb9e c8bf eff4 190f 1999 a03f
000007d0: 824f 50b3 b171 d53f 21e8 701e 426d c4bf
000007e0: 36b9 77ca 3fa1 d43f 89eb 7a69 1275 d33f
000007f0: b144 f00a c54b bc3f 8e1f 8878 a9f7 8dbf
0.24617224200748444 0.18266683084094093 -0.49716882224142095 -0.17675058260644969 0.07465334129718049 0.11027488056867774 0.1624511258222963 -0.22615361436915793
0.11842012571654409 -0.18875012653681544 0.038282473770788784 0.03958073125389736 0.1825534572371186 0.21992667366186375 0.08455204549764606 -0.08068329796573451
-0.13951186216881517 -0.341039075630738 0.23932302198492905 0.15522603612295113 -0.4154551194017796 -0.15770209706833604 0.10484634212958559 -0.015621417838257169
-0.19051202619690621 -0.10197303003071186 0.16055829566597868 -0.31622816636270845 0.023453879148128486 0.33801847100961424 -0.15394345904011453 -0.23554789550164934
0.12477259696763356 -0.09936717247926899 0.2058459293320019 0.10932681553772086 0.09072432235595292 -0.1271030807777783 -0.1393276466720802 -0.020696220071532472
-0.1914199615428169 -0.10237687322393897 -0.1189043956178753 -0.1472369920890737 -0.18782753205464717 -0.07912848764750402 0.283172976771871 0.2345484378239645
0.21553249245317652 -0.011494361634472355 0.04884703478162426 0.0589584003810422 0.1473468003133089 0.16985436604422055 0.23566411023767697 -0.22146712984992087
-0.07335215057868713 0.06863835465999048 -0.3389440178620194 0.022172098364005684 0.3183317473234485 -0.1515442558477067 -0.0908043935916285 0.04113623580870642
-0.20079922109903553 -0.0030671829314425397 -0.07572670373303089 -0.36688208029569114 0.3155077531684085 0.0463626227149204 -0.23654934685514079 -0.2821614957295368
0.06969193951711385 -0.13820937973474956 0.17262797262426477 0.16245466256050878 0.14019867786338858 -0.16508823773156878 -0.3934202359475184 -0.34925860553525406
0.19421645803662205 -0.2991787790400727 -0.3379361471551565 0.18158899363862457 0.035638934513208084 -0.04821302444088855 -0.04693526619145051 -0.10361829004533046
0.09479031801154177 0.2000950656253809 0.17902207984554513 0.3876641670980703 0.23303296375790744 0.14501780360867453 0.07548287405085798 0.11451300146359464
0.14671799579694086 -0.12520635916546796 -0.3450871017730346 0.17413739818388538 0.17917583255889108 0.2582615470478379 0.1989416558487636 0.08177398508924619
0.16967655084919406 -0.05418392525193884 -0.17047730683450152 0.17314385232506632 -0.02803299855324464 -0.30988534899063086 -0.2440883981944759 -0.16303657919846395
0.10586205358784301 -0.10522120914499028 0.058192466386826666 -0.253408968132939 -0.04136640805776517 0.05484383042137763 0.11290140871899713 -0.15654674713722022
-0.16991325901825274 0.0315771351302869 0.07922960414382654 0.14748850383967516 0.1744911763833513 0.16946766903712762 0.1327860311977164 0.30322433374796787
-0.15613421766319113 -0.09673971496357947 -0.24675740401963428 -0.0722030080314564 -0.29293685209289566 0.05270478955828639 -0.3112196618820709 -0.2043260177833614
-0.15663712133494076 -0.33878361922295697 0.04133727598651627 -0.03953820628238316 -0.030946357570209124 0.20825348387631715 -0.16375457024417095 0.16059981810898386
-0.1588234786476103 -0.11561163003097621 -0.3269002230098096 -0.24049673835518534 0.22162223174948786 -0.09545741100507725 -0.19829281760110531 0.1593200731554756
-0.33968341379137335 -0.03249970883350176 0.15197150604445497 0.12068971156000012 -0.1694706685488024 0.201103172040683 0.24252481345068955 0.08040864335967102
-0.0338184629103772 -0.11117082630223986 0.18230287659718608 0.1950991570735179 0.2403898266668806 0.07240446465996618 0.052592797399718824 -0.17396994756093664
0.029292597394477378 -0.1662456217002143 -0.2569155986847817 0.027345396835537383 -0.11851836962120565 -0.1847149391630771 0.1329742457773949 0.09606510540981482
0.3954494929608112 0.04911109211428141 0.204726586058579 -0.01928193336951975 0.15667520270887023 0.21156201624271323 -0.25129021198430057 -0.2251233404630074
-0.07111970853777552 0.1900696043535807 -0.12361229403671568 -0.28599629508395047 -0.02644528251420514 0.20666508603124073 0.1955117521477727 -0.1713903766005022
0.07559683984749503 -0.43890689538510846 0.2416242076429849 0.22593668827161853 -0.09134140225487776 -0.12125043751814234 0.29230935192339536 -0.09155845097905688
-0.29876872524403775 -0.1334100327118029 -0.018800410960467657 0.018378720039562996 0.17541956158598698 -0.07342207239834249 0.208229339134621 -0.17029599321038552
-0.20496012577074277 -0.11949510147980362 0.15624659510573186 -0.25682542608093756 -0.06895058289842894 0.23231713167173143 -0.2931084097505696 -0.10798351147102725
-0.03949546369094362 -0.03641756018000825 0.08272266870925103 -0.2175462438924063 0.08713762848574554 0.02435315360772867 -0.17196379715878465 0.12127739186510174
-0.20495021623372628 -0.020669488097243796 0.11371121362525237 0.19719218036472352 0.23413803224602137 0.21471142873596186 0.17662944998144922 -0.26877118597442595
-0.09986147427468896 -0.13102631602869677 -0.1287564730163533 0.06555341809957779 0.08495054385190423 -0.10819769048600793 -0.23140386979958452 -0.2183826537989684
-0.2715174349802947 0.29793130012523866 0.2331753320913694 -0.1301256533328652 -0.028142420679634166 -0.25104019233236696 -0.20132865932168925 -0.22809113480671403
-0.1923459922075236 0.03241804417937454 0.33506433974366 -0.15958429800395016 0.32234186908944495 0.30402050305172473 0.11053115384153746 -0.014632534018360645

block.0.bias f8 [60]
00000000: 2d3f 5d46 b97a a9bf 61c0 e9cd ea79 ca3f
00000010: 65d4 d8c3 392c 8cbf 6cf3 65af 8413 c6bf
00000020: 3e88 9e76 a9a8 d23f 8922 2130 038f ac3f
00000030: e331 5aef 883d 883f 9849 7a4b 1539 9b3f
00000040: fd21 5f24 2ac9 be3f 7a03 b705 4b89 b93f
00000050: eb3a 8103 37e0 b43f e762 4232 7c87 a8bf
00000060: 2368 5baf 2b4e a7bf 4f2e f86e 4032 473f
00000070: e44e 014c b54d b5bf fd7e 09b5 8e57 643f
00000080: c0bd 238f ab80 abbf 0912 eb35 c044 c23f
00000090: 0291 6023 277b 953f 2bb9 2c4d ca22 b4bf
000000a0: def6 3363 112a c13f 9a9d 98aa 4b95 cc3f
000000b0: 6eae 8d38 5771 d13f 3274 0e94 554b af3f
000000c0: 0d6a ad96 5935 c73f d19b cbfd f8a2 933f
000000d0: c07e 2cac c123 cb3f ea15 cb88 e1b2 a13f
000000e0: 5858 d0dc c699 bdbf b731 4d06 d630 973f
000000f0: 84d2 e700 e615 a5bf 02d2 3dea 7fa9 a53f
00000100: f3cc 37b3 4a6c b2bf 4be4 ae5f d77a c03f
00000110: f18b d760 b956 a5bf 1b1b 1f5a 8cb9 e7be
00000120: 9bf0 06a3 d74a c33f 5cc0 6fa0 4841 a83f
00000130: ed1a 3bef 3951 cabf d889 917b 99c5 ce3f
00000140: c86a 0e91 b33d 6c3f e3fe 4af3 9602 c73f
00000150: 846c 9cb0 128d b1bf 8359 0e46 1ac1 c13f
00000160: e8a8 eed7 a992 bebf 609c 14be 7631 c13f
00000170: 94a0 398b c646 b7bf 3ad5 66b6 c8ed bf3f
00000180: d642 9867 7c38 a2bf 2794 bd10 320a a2bf
00000190: a9ec d711 daa3 b03f 1231 7b61 aed5 9f3f
000001a0: f4b6 74a7 5fda d0bf 9ea4 b86f 81b8 b13f
000001b0: b451 9586 97d1 a83f ce9a 0230 d606 c33f
000001c0: ec86 357a 596d b0bf 854e c34e f453 b2bf
000001d0: 671f 8f7d e490 bd3f dacd 3db7 25bd 4dbf
-0.04976443275393048 0.20684561781263525 -0.013756228722835393 -0.17247065128676853 0.29154430946266874 0.05577859842793937 0.011836118511632193 0.026584942561905217
0.12025702846506899 0.09975117578052375 0.08154624782148871 -0.04790866960064993 -0.045518269687548484 0.0007078947655271925 -0.08321698289483553 0.0024831568955930848
-0.05371605036077254 0.14272310860373263 0.020977603468183233 -0.0786558569350048 0.13409631103416236 0.22330613927736637 0.2725427677421298 0.0611216300232872
0.18131561143202682 0.019176378717840784 0.21202870280193586 0.03456787867393614 -0.11562769785845839 0.022647232184043378 -0.04118269692472601 0.04230880484002243
-0.07196490168989893 0.128748819084452 -0.041677277633219385 -1.1312865186752883e-05 0.1507215066939168 0.04737307508901331 -0.20560383015818876 0.2404052594529975
0.003447390285555716 0.17976652984179173 -0.06855885326187844 0.1387055246420453 -0.11942540666374024 0.13432201653742748 -0.09092369936991168 0.12472204640547072
-0.035587203641744544 -0.035234036010287455 0.06500018058425162 0.03108856649377951 -0.26332846978299007 0.06922158219880933 0.048474059275267406 0.1486461386131936
-0.0641685412752186 -0.07159354136393332 0.11549213471800855 -0.0009075578841319335

block.2.weight f8 [60, 60]
00000000: e883 74e9 023e a73f e723 1f3b de08 b03f
00000010: 31fb 0eb5 df8a b23f 43ad b001 3b4e 99bf
00000020: efe5 a081 6d38 a73f 6f5d 9229 5ea0 c63f
00000030: 8ff7 f867 5301 b93f 4317 4fe9 542b c03f
00000040: 4abf 5fe1 12e3 b0bf fdbb a47e 3777 99bf
00000050: 3ead df43 677b 983f 19ba 0e72 eba1 97bf
00000060: 1587 66a2 01cb ac3f 6a9c ce01 f4ab b03f
00000070: 4e05 22b9 ddc2 9ebf cca5 5fd9 f35f af3f
00000080: 73aa ae16 1532 5cbf a33d da89 617b c63f
00000090: 9782 d8c0 4e1f 98bf 6a45 bb24 3227 b33f
000000a0: 3c11 7654 0e09 b13f 78c3 b2a3 451b 993f
000000b0: c879 7f19 de24 963f 4e09 bd0d f1c0 b03f
000000c0: 345b e770 432f c43f be5c 00c1 d1b7 bd3f
000000d0: 03f1 5c3f 6b4e bc3f 1b98 6580 d0cc 9b3f
000000e0: c77e e05c c241 b73f b199 c68b b543 703f
000000f0: 0ff9 2e5d 4544 bb3f 62d4 8f3e e317 b03f
00000100: b007 2f5c b0c3 bb3f f08c bf30 869d bb3f
00000110: 552e 4535 2d6a ad3f 7f2d 3625 b725 a5bf
00000120: b5d2 d89e f2be b93f a0e9 1c45 5cf8 ba3f
00000130: ca41 658c b915 b03f 1015 cb2c 3198 bbbf
00000140: 996f aa89 3ff6 b5bf ac98 27f6 1664 96bf
00000150: 5fdd 9715 63a9 66bf 44e9 add9 eeb2 96bf
00000160: 941e f790 1d3f 7fbf f453 14e6 0102 c63f
00000170: af78 7faa e027 bc3f f1cb a244 544e c0bf
00000180: 57d8 fec1 2302 a2bf 88db 7dc0 e43c 9d3f
00000190: 0f9a 196d 9df4 b13f 1a4a 74ff 8ede b03f
000001a0: 866e 415b 83fb cc3f a94c 3b06 e1d3 bd3f
000001b0: 7506 b81b 56b5 c43f 1c5c 87bf d215 b0bf
000001c0: 4f7c a9d9 0dd5 b5bf c04f 9743 be20 62bf
000001d0: 388d 21bc 9751 a3bf 14e2 7628 9006 a0bf
000001e0: 949c 806c 0786 bbbf d45e eda0 b2ee 1abf
000001f0: 7409 68eb ceb5 c23f de74 849c b8d1 5fbf
00000200: 7243 b58b b6c9 72bf 3d01 5581 dbc8 b7bf
00000210: 9df5 8a8a 98d9 c33f 0f44 ec8b b604 b83f
00000220: 2d9a bf4e bf9d c9bf dd1e 1517 2306 a63f
00000230: d8b8 7afc a2fa b73f dc80 4b00 067d c23f
00000240: 3f9c dae8 145f babf 9f91 1dc6 8c38 b33f
00000250: a5ef 7e93 90d2 c0bf e434 6da2 e262 b5bf
00000260: 9291 f81a 83f1 bcbf 5679 6f69 1067 b3bf
00000270: 72b3 c55b 19a4 a33f 8ffc b136 7a53 90bf
00000280: d932 c13c 35ef a63f 748d 063d 77fc ab3f
00000290: e8f3 c499 e251 b0bf ad91 c75a 57e1 c23f
000002a0: 8180 4e32 1eda bc3f 06b0 db2d 321d bb3f
000002b0: c35e c33c 4ea6 bf3f f4e0 c04b 6bab 7abf
000002c0: 5a35 733f 3096 513f f9d5 d951 fbe7 a63f
000002d0: d952 5f45 7753 af3f 7ede 79e2 92b3 983f
000002e0: 08b6 2403 3cc5 c23f a768 27c0 d0f1 aa3f
000002f0: d3b0 452c f6f0 a1bf 858a 59b6 df2f 973f
00000300: 18bf 802d 2f20 a93f 1050 cbda 314d 913f
00000310: eb14 7bca c382 b7bf cd84 2a8f 5bcb be3f
00000320: 9ec6 42f9 0756 a43f e2b5 a2d7 e02f 6c3f
00000330: f9a5 5e2b d689 bcbf bb20 9dc0 a1ff c03f
00000340: aef3 30f1 cf45 c23f 6dcd 68d1 23dd b8bf
00000350: 6ab5 c3e2 915a b13f 2aa7 3e18 7c73 b03f
00000360: 3d60 e3fb d305 c53f b38c 87be 84af b83f
00000370: 71dc 3d82 8897 983f fe18 481a 28d2 c93f
00000380: 0da2 a7a5 023b b7bf ed84 ee12 3de8 c73f
00000390: 436b 74bc bf20 a2bf 1252 a24e 072b b73f
000003a0: b394 9b4d 0347 b63f 3dbf c526 fa09 b83f
000003b0: deda fce8 e801 bf3f 7f4e 2cea 9195 be3f
000003c0: c785 5003 854e 793f 4008 9c79 fdb8 b53f
000003d0: 2754 21b4 6384 673f 0311 0a68 e5d5 923f
000003e0: e624 08ac 913c b53f 14b5 9820 ab93 b03f
000003f0: 95f5 2646 1275 bfbf 5505 11da 973a c53f
00000400: c3c7 9bad b804 93bf 494a 87ef 7692 c43f
00000410: 6d49 a327 7444 c43f de66 d88f 5ea4 b13f
00000420: 5d15 179b 061f a2bf f7ff d652 02de b53f
00000430: 092c 120a 30e7 c03f 7d6b b7ca 7611 b53f
00000440: 704b e7b8 902e a0bf bd7e 70cb 5e77 9abf
00000450: c6a7 634e aa37 77bf 48e8 339e 0aa5 bc3f
00000460: 1428 b0c6 9fff 883f 3a2a 61ca 8a19 c03f
00000470: 82f9 648c 52f7 abbf a0f9 4621 585c c3bf
00000480: 6c33 0c98 c2a0 aabf 2c5a c2dc 5434 923f
00000490: 1c20 28c8 e5b9 85bf 3a89 717e 92d0 b1bf
000004a0: 9b39 0c54 c376 c6bf d4f6 7ed5 1c01 c3bf
000004b0: baf7 1f64 8f5c bd3f 4d32 73ff e18f b03f
000004c0: 89ec edd3 727e a73f 36cb 634f 9d77 c43f
000004d0: 21fa 3250 cf8c b43f e455 02d0 b3b3 a53f
000004e0: 96a8 5fb4 8062 b8bf e83e 7871 c735 bebf
000004f0: c304 7676 2e58 97bf 0fcf b5d5 3245 b2bf
00000500: c316 4715 d343 753f bb38 b1dc 3fcf c4bf
00000510: 08d5 1020 b959 9c3f 9ca5 2119 0947 abbf
00000520: beda 05b8 d46d c93f 8376 5268 d952 9dbf
00000530: ba56 f99c 6791 9e3f 1389 7980 3de5 b9bf
00000540: ceba d99e 84e4 b5bf 6104 ca95 2979 be3f
00000550: 0814 a802 2276 b3bf c6a6 c912 1495 a6bf
00000560: 5827 e49e 1cdf acbf c2a5 74a8 49e5 9fbf
00000570: c24b a903 2d2c 7c3f 8130 21b9 f7e9 9d3f
00000580: 1a7a 5fd3 b05d a53f 282f e72d 46ef b03f
00000590: 85b5 3012 24fa ba3f 349b cf08 ad03 b83f
000005a0: bedd bcb5 fa41 a9bf f48a 0efb 36c2 c23f
000005b0: 0a38 7fa8 a0b1 bebf fb77 bc3f aa4f b63f
000005c0: bca5 b3f1 0021 64bf d591 bce0 500b a93f
000005d0: b9d1 9284 8470 b4bf e78a dbaf 800c b13f
000005e0: 9aed 92b2 a8f4 b93f 1039 7f80 7107 babf
000005f0: 0cb4 93f0 ac1c b1bf abb2 a6bb e93e ad3f
00000600: 5e09 7855 9618 bb3f 12bd 5dfa b079 adbf
00000610: bc95 a23c ff88 a6bf b056 2a08 83c8 c5bf
00000620: 41c3 0b22 0d0d 933f 1f47 c25b 73e3 7cbf
00000630: 6f49 bbb3 4b7c 9bbf a887 661a 5b13 c1bf
00000640: 86ac 8979 141a c3bf f2a9 2b3e 1414 c2bf
00000650: 9ca3 f849 a5ef 92bf 7154 8cb9 0c8f c3bf
00000660: 7b29 46e2 4c3b c33f 872d f12e db62 c5bf
00000670: 037e 7f14 b31c a8bf d8fc 4802 b21f 7a3f
00000680: d2b0 5874 a3ed bebf a51c c756 fb94 b13f
00000690: 020e ed20 a415 c9bf 35a6 638e 0ad6 b43f
000006a0: 95c7 0dc7 3627 543f b52b bed6 9e13 b33f
000006b0: 0428 c633 c6e0 a6bf 0b07 dfbd 56e9 953f
000006c0: 879d edea 3f11 93bf 483e bc88 4e2f a0bf
000006d0: ade4 f192 9c05 9d3f c45c dfb3 a12f a43f
000006e0: fc12 f0b2 27bd b33f 3d81 4670 f35d 27bf
000006f0: 7a0c 9ac3 1962 b3bf a048 0ced 4d96 b33f
00000700: f83b 5738 c2ec 8c3f 467d 95a4 28f6 8a3f
00000710: 9221 6833 2433 b13f 9811 50dc d8ee 97bf
00000720: 3bc3 e16b b9ff c3bf 068c 63c0 1b4d c5bf
00000730: e821 957a 45eb abbf f40c 89fc b8ce adbf
00000740: 4105 5b4f c194 a2bf a7a9 d5e8 8707 c03f
00000750: 3f06 2e0f fded c4bf f64e 1fdd be60 ba3f
00000760: c388 b745 720e c13f 9fb8 66a8 d008 b3bf
00000770: 3154 8bcc a879 973f f1d3 3927 fe98 a5bf
00000780: b671 5aa7 ff43 b1bf f7d7 00be bad6 70bf
00000790: b4e7 f863 7701 b0bf 9d93 24f2 fe35 99bf
000007a0: bc27 d9f4 baa6 c0bf dfb9 ad21 3440 abbf
000007b0: 285b e478 ae3c c1bf de25 1b59 5930 b13f
000007c0: 6d0b 4390 f8b6 c3bf 4798 2ded 9b35 c13f
000007d0: 0520 3256 d010 c0bf 4df6 886d fa81 bd3f
000007e0: cdd7 382d e690 993f 0869 ba69 3ee9 c2bf
000007f0: 9996 c156 c99d 8abf a645 7b2d 261f 9abf
0.045394984243337266 0.06263531630897 0.07243154688238175 -0.024712488153608502 0.045352384637634795 0.1767690375315669 0.09767648018256934 0.12632237808264266
-0.06596487047476987 -0.02486883841009656 0.023908246534046322 -0.023078612171668043 0.05623631579807246 0.06512379688375494 -0.030040230202307776 0.06127893475042931
-0.0017209249442468294 0.17564028960303543 -0.02355692913090709 0.07481683155790156 0.06654443323174503 0.024518097034789105 0.021625013643523677 0.06544405541811679
0.15769236576917367 0.11608611070583927 0.11057157799672628 0.027148492657396255 0.09084715621474536 0.00397082249074858 0.10651048207271095 0.0628644969691137
0.10845472574786075 0.1078723782552975 0.05745068812629187 -0.04130337075465728 0.10056988123035178 0.1053521794064296 0.06283149411797875 -0.10779101699434457
-0.0857886992548046 -0.021866186880196523 -0.002766316913717467 -0.02216695026025063 -0.007628550999875156 0.17193626150461194 0.10998348391101119 -0.12739041663516518
-0.035172574454393306 0.028552603005177285 0.07013877786230459 0.06589597450901188 0.22642557102050292 0.11651426698817836 0.16178394654712105 -0.06283299613947729
-0.08528219760909049 -0.002212878808430546 -0.03773187800904981 -0.031300072612285984 -0.10751387022956954 -0.0001027390028246437 0.14617334837391704 -0.00194209125954297
-0.004586899823451828 -0.09290859134217029 0.1550779987791601 0.09382191577994113 -0.20012656541003207 0.04301557213562799 0.09366816200301586 0.1444404126587021
-0.10301333126936728 0.0750816329651287 -0.13142592622705 -0.08354011979573134 -0.11306018265219667 -0.07579138349635647 0.038361351444882966 -0.01594344099839567
0.04479376188883117 0.05466053600255352 -0.06374946836599771 0.14750186855884576 0.11270321586789757 0.10591424579223493 0.12363137229419423 -0.006511134266524932
0.0010734053774286907 0.044738630048339396 0.06118366929846326 0.02412251956272237 0.14664411691175894 0.05262615533475073 -0.035041516212773204 0.022643561844584176
0.049073671631388815 0.01689603708184967 -0.09183906262758838 0.12029049153581468 0.03971886556372549 0.0034407988979043716 -0.11147821959334427 0.13280126481027374
0.1427555015269752 -0.09712432730230143 0.06778823648683888 0.06426215736305765 0.16424035834529774 0.0964282002601518 0.024015553426093243 0.20172597201617032
-0.09074417633349459 0.18677485870742974 -0.03540610480759778 0.09050031347062085 0.08702107090683135 0.09390223929017068 0.12112289131332996 0.11946975676647219
0.006178397733522307 0.08485397547704654 0.002870745404872216 0.018394073939377097 0.08295546007152019 0.0647532419759112 -0.1228801175374968 0.1658506216790935
-0.01857269820806785 0.16071974464155606 0.1583390420478951 0.06891432773445724 -0.0353929580992751 0.08541883966881857 0.132055287282441 0.08229772996075542
-0.031605265208461186 -0.02584598652549518 -0.005668320902467222 0.11189333307621141 0.01220631432626721 0.12577948457540505 -0.05462129558371755 -0.1512556231009059
-0.05200775247622044 0.017777753805228766 -0.010608477755354832 -0.06958880984305874 -0.17549935916799772 -0.1484714548550331 0.11469360537009168 0.06469547735759669
0.045886600847517896 0.15990034462410002 0.08027358730303337 0.042386645452250155 -0.09525303271917304 -0.11800810356384839 -0.022797323208128228 -0.07136838643583253
0.005191635650083351 -0.16257475162496413 0.027686016637933825 -0.05327633315830413 0.19866427407733583 -0.02863635730010695 0.029851550060206768 -0.10115417849150203
-0.08551815870462606 0.11903629214249768 -0.07602131428582493 -0.04410612801878026 -0.05638970794286874 -0.031148100764004878 0.006878066861264411 0.029212828325669186
0.041730428507197284 0.06615103359871155 0.10537934726808913 0.09380609002219559 -0.04933150738218782 0.14655196436532203 -0.11989788163847961 0.08715309196529113
-0.0024571436348323743 0.04891445868841841 -0.07984188305528662 0.06659702580831671 0.10138944968905719 -0.10167607676632806 -0.06684380410634122 0.05712061324752445
0.10584392153399366 -0.0575690560934793 -0.044013954307313224 -0.17018163584423496 0.018604474261283647 -0.007052851313476243 -0.02684133800978244 -0.1334031943234184
-0.14923339781248418 -0.1412377646987149 -0.018492300643774592 -0.15280303058594627 0.15024720238245579 -0.16707935134978077 -0.04709396004886559 0.006377883288734419
-0.12081357565392928 0.06867953175161519 -0.19597293479647254 0.08139101005840461 0.001230052465157593 0.07451813452477903 -0.044683641262125234 0.021397929514711794
-0.018620489801290965 -0.031610922042201894 0.02834171912079302 0.03942590065678922 0.07710502737615949 -0.00017827603018095466 -0.07571564698632641 0.0765122131090572
0.014123456329711445 0.013164823076918918 0.06718660597846896 -0.023372066923927542 -0.15624158637685945 -0.1664156617544849 -0.05452935334557535 -0.05821779329974133
-0.03629116147704759 0.1252298247230332 -0.16351283303451855 0.10303872011655443 0.13325336841723442 -0.07435325728758578 0.022925031170263736 -0.04218286732513111
-0.06744382701658122 -0.004111031972618299 -0.06252237501840235 -0.024620040444591863 -0.13008820491296358 -0.053224209891471246 -0.1346643533986136 0.06714399743500318
-0.15402133029973744 0.13444851952516698 -0.12551311692027425 0.11526456045336282 0.02496680880559392 -0.14774303591259064 -0.012996266326989402 -0.025509449506733305

block.2.bias f8 [60]
00000000: 0ab0 ffb5 0e37 b3bf bd4d d234 7a78 8a3f
00000010: 33bb adf7 f9dc babf e1d0 6f0e b9a9 99bf
00000020: cb1d 3ce8 d059 ba3f 30e9 cff0 97e9 94bf
00000030: 2a62 e4ed 2abc bc3f 79f1 75cf 970d 6c3f
00000040: d535 b0f6 fb8c 99bf e7b2 6990 b69c b2bf
00000050: af25 3258 de62 b03f be36 2b88 cef3 c0bf
00000060: f10b 3620 5c7b b13f bfe1 f34f 8611 ab3f
00000070: 18b3 a582 1a7e 8f3f 7026 c387 dc86 bfbf
00000080: b83b 494f 1e2b 9cbf 26e1 349c 2c58 b3bf
00000090: 4df3 efac 1367 a6bf 6738 e18b b81d a1bf
000000a0: 347f 0d2e 79e0 b0bf 87db a849 f1d8 a1bf
000000b0: 1c81 d73f be9e bc3f c6cd 5d55 3e45 b6bf
000000c0: f5ff 8932 b819 ab3f 7225 ee2f 16ca 873f
000000d0: 53e7 4400 401c c6bf 4b49 c995 a293 b7bf
000000e0: f88d d364 e2d0 a73f c0b9 2616 9de8 ac3f
000000f0: 7bfc d21a e267 bc3f ff0d 7cc7 d69e bd3f
00000100: de4b 4fe6 a6a0 b53f ce6f 0c7b a949 ba3f
00000110: 13b4 434a f8c1 c0bf 07ec 2975 d846 92bf
00000120: cfce 03b1 05c2 a6bf 4799 2ace 71cc bfbf
00000130: dd1c 3cbf 8093 7cbf c6dd d09b d76e 77bf
00000140: aec7 165d 0535 b23f 9317 4dd6 b808 aa3f
00000150: d32d acef 4969 bd3f 4900 6d04 c233 94bf
00000160: 8074 d67b db94 b83f 6930 3ef9 83f6 9c3f
00000170: 1231 6708 58a9 643f 984b 4239 4c8f ad3f
00000180: e940 13ef 8410 9f3f 90de bbad b555 a93f
00000190: b498 c190 beb9 b2bf 761d 9017 de96 a1bf
000001a0: 9840 6faa dc34 9bbf 2fac 105e 698b b03f
000001b0: 880c bda5 bc08 b53f 09ed 36a4 2964 b1bf
000001c0: 76a7 4ed1 6de4 b0bf ab5b be37 672c a93f
000001d0: f98d d20a 09cc a03f 6970 3315 e1a3 a3bf
-0.07505886023835742 0.012925104844078267 -0.1049343328174757 -0.02506150389304274 0.10293298406406064 -0.020422338555342978 0.11224621112740665 0.0034244504019495495
-0.02495187466779732 -0.07270375276284434 0.06400861409397039 -0.13244039200656305 0.06828857218174257 0.05286807752594624 0.015377242195165716 -0.1231515723658505
-0.027508233632314222 -0.07556418241154414 -0.043755164013396276 -0.033429877352873665 -0.06592519163450278 -0.03485826515355144 0.11179722841871292 -0.08699407180920735
0.052930599374121735 0.011615918481555385 -0.1727371217073662 -0.09209648281947584 0.04651553612509568 0.056462201074612306 0.11096013216864435 0.11570494051198209
0.08448260424420037 0.10268649343600986 -0.13091949106402065 -0.017848379279239903 -0.04444902215791801 -0.12421332629546554 -0.0069766072445027446 -0.005720941754638392
0.07112153551750452 0.05084779373150563 0.11488782979375083 -0.01972869064343311 0.09602138303167074 0.028284132087307876 0.0025221557036500053 0.057733900060291166
0.030336453525536298 0.049482037980792204 -0.0731467345627575 -0.03435415303834592 -0.02656883993387335 0.06462725206863305 0.082164564574713 -0.06793461093086618
-0.06598554954567057 0.049166894487988465 0.032806665965178845 -0.038359674299244535

block.4.weight f8 [60, 60]
00000000: 0c45 7789 cec7 813f dedd 0615 c61b c33f
00000010: a6c6 b658 9eda b03f 5305 7b43 8e52 b1bf
00000020: 9181 f9d1 0426 b1bf e309 5081 78d0 b23f
00000030: 1a3f 27e8 e188 bb3f 9f2d 8fce d8a3 91bf
00000040: e2a9 5365 285e b73f e452 48ed 2f1e 923f
00000050: 0a67 d011 e0e2 bb3f e0ba f597 bc6f c73f
00000060: 52bd 0ae5 0d51 973f 3fde cafa 394e ab3f
00000070: eb98 3dba 1fdc 4d3f b482 990f b1a0 c03f
00000080: e479 d4a8 61d0 bbbf 6bb4 ec82 a907 c43f
00000090: 6a43 eead 11ad c13f 873c 9557 bafb abbf
000000a0: 991a bd5a 42e2 bebf 41b3 562b 7ac9 bd3f
000000b0: 0145 77e9 38ff a6bf b4e5 3de5 7cde 903f
000000c0: cdcf a0c6 5cb4 a63f ea91 8173 4f0e b93f
000000d0: 35da 36a5 549d 5b3f 5dff 8735 5227 4bbf
000000e0: 3ba9 5dbb c4c6 bebf ae3e 1e31 2ac8 97bf
000000f0: b31f 5916 ee84 c7bf 254b bd58 1c42 be3f
00000100: 012e 64fa c9e1 b5bf 78a2 217c 1d31 c5bf
00000110: 8634 27fd c086 bb3f 34b1 7f5e 6315 b13f
00000120: 527e 549a cfaf 983f fe19 a511 94c3 9b3f
00000130: 3233 ef48 399a 88bf 743e 7943 512b b73f
00000140: bc76 0464 787e 5e3f e577 7003 793d a7bf
00000150: bbff d88a ead1 a1bf 6b84 49ae 5432 adbf
00000160: 1615 87da 72c1 b9bf 9781 cee2 0237 bbbf
00000170: 31be e207 7334 b6bf e38f bbab 084c c8bf
00000180: da02 d09d 50d2 a1bf e8de 7d6d 18c6 9bbf
00000190: ecc0 2adc 9c58 aabf 2f24 0856 7802 b2bf
000001a0: 8e7d 64b7 3829 b0bf d9f2 3659 9a10 a03f
000001b0: e243 4ab5 2769 b6bf faa7 db56 dfbd 9c3f
000001c0: 3e3e cb8b f8f7 b43f 2834 f3ec c2d2 6dbf
000001d0: 0807 d098 a5c7 a63f 5400 2525 8b8f a2bf
000001e0: 5512 7788 4569 a7bf 647c da30 01cc c33f
000001f0: adf4 e833 a8ff b0bf 02f3 95a6 f3ea b3bf
00000200: 07e5 965f ac32 abbf d720 ea32 6a93 be3f
00000210: b3f4 fa80 9680 a9bf ef3b e149 eb10 a5bf
00000220: cb5e cf41 ba3b c33f 382d 4a74 06b6 adbf
00000230: 0b8e 8aad 6c8c 883f 4077 4adb 8e4d b23f
00000240: 9b38 2c33 4c44 b73f 8910 2498 474a c23f
00000250: 4b41 331b 87ef b03f 48d8 51e0 71fb ab3f
00000260: 41b9 a4c0 58dc 83bf 52e8 d8ff 024b 983f
00000270: a5d4 12a7 6b9c 763f ff5c 407a 904b a3bf
00000280: 405c adb9 1417 64bf 9aed 7b4e 29b4 c2bf
00000290: f043 b8f7 0be5 453f 99de 3003 84f3 b03f
000002a0: 6609 d681 2a07 c03f 1182 bb57 9da9 c03f
000002b0: 4b83 2b95 3ae3 c1bf a3a8 31b3 1226 b6bf
000002c0: af19 57e0 308a c23f 3729 cd41 2646 c33f
000002d0: d456 dd3f f3c4 8c3f ab61 c540 8488 c43f
000002e0: 9929 a635 0627 c1bf 699d a6f9 235e c1bf
000002f0: 1ca7 9688 3f84 af3f 36ef 3e03 8eac c0bf
00000300: eafb 3dfe 05bd 963f a0ae 9a8d 113a b1bf
00000310: f234 f4d8 2d22 b4bf 6067 d0b4 abe3 73bf
00000320: 21aa 5dad e93b 993f 612d e36f ee36 c33f
00000330: 845e 8807 185a c2bf 651f 9cf3 9faa c33f
00000340: 662a 847e e24b aa3f 7036 301a c177 b2bf
00000350: 5064 4cfe 705a 9a3f be5a f881 ea78 bdbf
00000360: eba6 5153 3657 79bf 0441 f3f2 4c5d aabf
00000370: c54d 2b6a a59e 423f 9d1b a220 7031 abbf
00000380: ecb4 83df a037 8dbf 0345 bd5f af06 b63f
00000390: 692b f634 bc96 b53f 9dc7 b6b3 0a15 a03f
000003a0: d514 13d2 b845 cabf 3f77 cd80 48f4 c23f
000003b0: 6900 89c4 321b a5bf c1cb c613 5ce7 c13f
000003c0: 6e14 b850 5dbb c13f db3a 5624 ad2e 9ebf
000003d0: fe83 9b5a 1e3c c33f be8a 5d6f 5394 943f
000003e0: e7d9 3158 1f46 b03f d6a8 5df0 25b7 bc3f
000003f0: ffb3 6619 f0a5 b3bf 9163 9f25 e777 b83f
00000400: 1094 e1d4 3407 c23f d5f6 8dba 6a87 acbf
00000410: fd18 ee8f 4da7 94bf ade6 9edb 46fe 923f
00000420: 24fe 2faa fb73 b8bf 64a1 0c66 1f94 b73f
00000430: 9228 b437 ae47 8f3f b50c b362 a6f9 a53f
00000440: 9da0 0a68 67e1 bb3f 8436 eae9 c3c7 bebf
00000450: 4cf7 ccc9 59f9 a53f 410d 7c25 745b ba3f
00000460: 4b4d 6a77 b086 b03f 6ed2 70e1 50c2 b23f
00000470: 6d0d 15df 177d b1bf 4d46 fde8 e6df a43f
00000480: cf0d f1fa 4469 a43f b815 d86f b160 b9bf
00000490: f3f0 840d 477e a03f bcb3 abe0 d395 c03f
000004a0: 8d1a 3aa9 2a07 b33f 0e55 6438 a564 ba3f
000004b0: 99cc 8407 e7b3 c83f 4d1d 47eb b359 bd3f
000004c0: 902d 0a90 3f68 b6bf 0e89 4469 49b4 b0bf
000004d0: 051c c728 596e a8bf a37f 531f 5dc6 c7bf
000004e0: 73f9 f8f2 d417 b13f d0cd 0f10 b40f b4bf
000004f0: 86b5 78b9 b308 b7bf bbe1 d98d 7e14 8ebf
00000500: b3cd fe21 02eb 99bf f992 a785 5ca8 c73f
00000510: 01fe abda 410e 9ebf 8289 51fc 9465 c93f
00000520: 3d2d 6b92 5ae1 a43f f69d 3b4f 4578 81bf
00000530: da04 887e 51ec a8bf 0c8d 190b 62f7 883f
00000540: 8c62 ef1b f866 8fbf 2f0f 5f3b c7b7 c5bf
00000550: ed62 f6b8 b6bc c13f 43b4 1c03 ff66 bebf
00000560: f71b 33fa ff79 bb3f a228 ded0 ffa9 b9bf
00000570: 9188 261d 7391 adbf 1c5f 900b 02e8 c63f
00000580: e67e acfa 406a c7bf f170 820a 7f14 86bf
00000590: f3c6 0797 2ec0 a33f 4418 6f8e 75f4 be3f
000005a0: c716 a079 d53d c0bf 3dbf 899d 1b91 a3bf
000005b0: 0000 0060 73c5 a3bf 0000 00e0 9c97 bdbf
000005c0: 0000 0020 981a 983f 52a9 8b2d f1b0 a03f
000005d0: 0000 00e0 da7a 8dbf 2a52 073c 1d5a b5bf
000005e0: 4b5a c6b8 d0cf b73f 16c2 24df d0d9 933f
000005f0: 6c52 0484 6b24 b5bf 0000 0060 e8e5 b03f
00000600: 0000 0060 27dc bebf fa36 452b aab4 7f3f
00000610: 0000 00a0 a31a 8cbf 452f 2c40 dc35 aebf
00000620: 871c 53ec 7e55 c0bf 916e 2fb6 7e2e 9d3f
00000630: 4e1d 43d1 a953 a5bf 0000 0000 bae0 b63f
00000640: 500f 8007 f9af bcbf 0000 00a0 66fe b4bf
00000650: 4d27 ce85 315f b2bf 1a07 3646 b88c bcbf
00000660: 634c f208 411f a8bf 4c72 c59f 33e9 b0bf
00000670: 6556 1a7a 2c02 b13f c5d9 4212 6b18 a6bf
00000680: 75c0 6750 2c13 9cbf 8608 6d07 1250 c1bf
00000690: 0000 0080 f612 bbbf bb8b 3d90 ca91 c0bf
000006a0: 0000 0000 f843 bfbf 3e7c 6033 a098 b13f
000006b0: c32c 095f c2ef a3bf 0000 0000 88bd bf3f
000006c0: 3608 75e0 6cc0 b1bf d36c 4ab0 5dcc c1bf
000006d0: 321d 19e5 db5b a4bf 0000 00a0 d4bb 71bf
000006e0: 83db 2f33 8669 913f 11e1 4f56 623c b5bf
000006f0: 0000 00c0 cfda b9bf de46 1288 9c77 bdbf
00000700: 1251 dc07 c967 73bf 0000 0060 0cbf bbbf
00000710: 43df bd66 9977 a83f 0000 0020 fe50 ae3f
00000720: e490 d800 1e12 b43f 0000 00a0 7e1f babf
00000730: e4c4 507e fa95 b53f 0000 00c0 3897 be3f
00000740: 0000 00e0 a506 963f 0000 0000 9e72 b33f
00000750: 0000 00a0 91b5 b13f 357e 7775 e5dd b63f
00000760: 0000 0080 9dc5 abbf aa5f 970c 63a6 b83f
00000770: e8ac 5d8e b493 b8bf 0000 0040 40a7 703f
00000780: 7f4a 93fc 442b a53f 1e40 f749 002a b9bf
00000790: 7d4b 6880 8eb8 bd3f 8e2d 8093 a19c c43f
000007a0: ccba 3567 1416 b7bf 025b 9d33 ffee a33f
000007b0: d026 b4ae 83cf afbf d161 06e0 db48 c43f
000007c0: 5bdb 1b0a e8e9 b13f 1c46 e4fe d3bc 8bbf
000007d0: 698c 289e 9639 bf3f 59f0 bd1a 6485 b03f
000007e0: 4b95 e64a 9dfa 9bbf b20c d5e9 924c bfbf
000007f0: ada5 0a56 a01d a73f 1284 fbfd 74b7 a83f
0.008681882448316823 0.14928508784008349 0.06583585420482993 -0.067665950274223 -0.06698637129148312 0.07349351079032078 0.10755741040997827 -0.01722658882844785
0.09128048394965263 0.017693280084205024 0.1089305919162166 0.18309743328014516 0.02277013502560738 0.05333119570189781 0.0009112505835957829 0.12990391980840388
-0.10864839908433727 0.15648383038333988 0.13809414856634855 -0.054654906455305734 -0.1206399413614271 0.11635554845879616 -0.04491594171452996 0.016473723880584948
0.044344805952647094 0.09787460870717948 0.0016854597678112153 -0.0008286620532657985 -0.12022046636926557 -0.023224505660947407 -0.1837442025300767 0.11819626966943682
-0.08547651637143618 -0.16556137620070266 0.10752493076798161 0.06673260743236115 0.024108165545042866 0.027113259865723542 -0.012012908495216832 0.09050472161583817
0.001861207551037066 -0.045390874547805805 -0.03480465836446408 -0.05702461841134084 -0.10060804209850391 -0.10630815541526882 -0.08673781340143517 -0.18982036958106993
-0.03480770040915156 -0.027122861559717132 -0.05145731151185537 -0.07035019016633791 -0.06312899091107324 0.03137667025609909 -0.08754203964259902 0.02806805579795222
0.08190873539864982 -0.00364053794291987 0.044491934684641576 -0.03625140026497378 -0.04572503367265727 0.15466322789595488 -0.06640101687749463 -0.07780382935557031
-0.053120981854087694 0.1194368719390043 -0.04980917286364086 -0.04114470745900422 0.15026024068241947 -0.05802936715653079 0.01198658852201275 0.07149594167500783
0.09088588952383463 0.14289183548692488 0.06615490354602575 0.05465274680402438 -0.009697621706973638 0.02372364698951685 0.005520267980661552 -0.037685885356205866
-0.0024524121085210127 -0.14612308819037595 0.0006681736408059562 0.06621575429823635 0.1252186902966727 0.13017622741519166 -0.1397469738358502 -0.08651844858983053
0.14484225229371137 0.15057829106292228 0.014047527681820972 0.16041615641257798 -0.13400342578490834 -0.13568544092161552 0.06155584852542814 -0.1302659526680771
0.022205442087848505 -0.06729230601438951 -0.07864653155066373 -0.004855795600656382 0.024642611700452236 0.150113873131299 -0.14337444656188236 0.1536445559979668
0.051360204643135884 -0.07213980569232503 0.025735631486075328 -0.11512628243540754 -0.006186687668653805 -0.051493076951034694 0.0005682285012319979 -0.05311155699114709
-0.014266259022827708 0.08603950583826152 0.08433128636367616 0.031410536229841336 -0.2052527452234815 0.14807993210973255 -0.04122313164816733 0.1398730370106858
0.13853041116104542 -0.02947493109018749 0.1502721731585836 0.02009706847401093 0.06356998351279906 0.1121696197348315 -0.07675076122423262 0.09557957333107782
0.1408449210604492 -0.055720649025699544 -0.02016946021060394 0.01854811397035998 -0.09551976113288468 0.092103922285451 0.015273438525145875 0.042920302913921494
0.10890814104152687 -0.12023567639172411 0.04291802013766119 0.10295797267103969 0.0645551959553831 0.07327752593921286 -0.06831502148002296 0.04077073663814854
0.03986564219715271 -0.0991316698128547 0.03221342124968087 0.12957237692117285 0.07432810431974186 0.10309822680240563 0.1929901873314506 0.11465000623785677
-0.08752820269199035 -0.06525095767986874 -0.047716890552287373 -0.18574108152006116 0.06676989490458655 -0.07836461441166098 -0.08997653272736814 -0.014687527374221845
-0.025310548138532684 0.18482548261740542 -0.02935126206557293 0.1984125358604381 0.040781813023921455 -0.008530179481978966 -0.04867796582767321 0.01219059559225013
-0.015333116867553252 -0.16967096709242344 0.1385715869080494 -0.11875909639339093 0.10733032091512472 -0.10025023316680629 -0.05775031786767316 0.17895532192846353
-0.18293010940487092 -0.010781281002259809 0.038575607239080066 0.12091765143768024 -0.12688702048051523 -0.03821646020958134 -0.03861580416560173 -0.11559467762708664
0.023538948968052864 0.03259996109939557 -0.014394483529031277 -0.08340628352682047 0.09301476012328995 0.019385589236835164 -0.08258697484081673 0.06600811332464218
-0.12054678052663803 0.0077406546809706215 -0.013722685165703297 -0.05900467189175499 -0.12760912455835102 0.028497676725108226 -0.04165392569989966 0.08936655521392822
-0.1120601313887708 -0.08200684934854507 -0.07176503674250263 -0.11152221407067167 -0.047113449422931074 -0.0660583748880949 0.06643941861178744 -0.04315504644312144
-0.027416889579342702 -0.13525605547517133 -0.10575810074806213 -0.12944919627179083 -0.1221308708190918 0.06873513464277978 -0.038938593007139775 0.12398576736450195
-0.06934242706213997 -0.13904925449319325 -0.0397633282814759 -0.004329519812017679 0.017004105447962835 -0.08295263869502302 -0.10099504888057709 -0.11510637590461267
-0.004737649227326795 -0.1083839163184166 0.047787469665250736 0.05921167507767677 0.07840144653943387 -0.10204306989908218 0.08431974014162652 0.1194949597120285
0.02150973491370678 0.07596766948699951 0.06917677074670792 0.08932336919632962 -0.05424205958843231 0.09628886277584905 -0.09600380397539576 0.00406575296074152
0.041345744926407406 -0.09829713636213497 0.11609736094423613 0.16103000356848124 -0.09018065948269366 0.03893277649938477 -0.062130084110391004 0.15847347677914894
0.06997537848279249 -0.01354375478379937 0.12197247849739913 0.06453538563613516 -0.027323205658509136 -0.12226217469019465 0.04514790582954773 0.048274665836068334

block.4.bias f8 [60]
00000000: 3075 4305 bc5c bebf 342c e262 5705 b23f
00000010: f4cf 4b7e e0b1 a23f 37a0 7eff d19c c2bf
00000020: 4b85 ce43 3682 a6bf 15b6 65ad 9850 6dbf
00000030: 8edd 83b9 bd8f b43f 613c 6a5c 623e ab3f
00000040: 0d75 4c26 52f2 7b3f 36ba 9876 6413 a53f
00000050: 0b87 e534 61a4 b8bf bef5 1232 7c8f b1bf
00000060: 922a 0385 025b bebf f428 e95c c3a9 a5bf
00000070: 5b97 623d f47b ccbf 8155 5125 db15 883f
00000080: c8db 5a8e 694f b53f 1bff ca1c 7d75 b93f
00000090: b258 ffee 8453 79bf f790 3649 e26e c2bf
000000a0: 93b9 f047 9451 903f b488 d95c 993d acbf
000000b0: 41a6 6eee c24b a33f 0364 2ebc 62f1 bc3f
000000c0: aaa4 edd5 6f56 be3f 524d dc30 2e42 b43f
000000d0: 5d8e 1e28 3275 a13f 7c1b 8a77 dcd1 9c3f
000000e0: 6129 a513 c324 a9bf f6c5 52bf 7dbd af3f
000000f0: 34dc a13a a783 b63f 5e98 401d ea06 83bf
00000100: 21e8 0661 9984 92bf 193a bff7 356c 8c3f
00000110: a36f dbba 8413 8dbf bf6d bd87 26de be3f
00000120: c885 cef3 e2e3 c0bf 8d4d 4e91 75b4 7ebf
00000130: 6053 7173 547c b53f da59 1106 6cb3 96bf
00000140: c49d 17da fe7f aa3f fc97 78e2 16d7 babf
00000150: 9752 e724 da76 84bf a91b e4fe 3d41 a93f
00000160: 3a28 311c 83be 90bf ea1f 33a8 62ea ba3f
00000170: b537 1df5 2f65 c03f 91d8 b70b f6ad 92bf
00000180: cba2 6057 6ce8 67bf ca23 9bb0 e3ea bf3f
00000190: 6e1f 7bc0 ff7e 7f3f f6af ac0d 6cc0 c13f
000001a0: acc8 82af d1a0 9abf 0fd2 31df bbd3 bbbf
000001b0: 1e7b 3f50 7434 a0bf a152 43d8 444d aabf
000001c0: 4b32 30a3 5001 9abf f3c5 22e1 8958 b6bf
000001d0: 1cf4 e355 cde8 c63f 4e7c e912 03ea bbbf
-0.11860251549247347 0.07039400257251388 0.036513343255052094 -0.14541077590297544 -0.04396218850821273 -0.003578470418850408 0.08031831530740005 0.053210328847051576
0.006822892090693655 0.04116357753479287 -0.09625823537274074 -0.06859565947066579 -0.11857619998333238 -0.04231081494488534 -0.22253277776070032 0.011760437084528121
0.08324298596822566 0.09944898560479169 -0.006183165809451706 -0.14400890898571791 0.015936200037850744 -0.055157463630864184 0.03768738899755109 0.11305825323360356
0.11850642178400742 0.0791348332680191 0.034097258946783816 0.0281443069420919 -0.04910859694298853 0.06199257812967211 0.08794636899425329 -0.00929053212901126
-0.01808395056443868 0.013878270743501496 -0.01419738478892169 0.12057724775279775 -0.13195454506516868 -0.0074963181003967596 0.08392837351250426 -0.022168815489146933
0.05175777828463482 -0.10484450368002735 -0.009992317439278238 0.049325883259420174 -0.016351746173576688 0.10513893705785873 0.1280879923673958 -0.018241733994692814
-0.002918445209634112 0.12467787801428112 0.0076894750888597384 0.13868475597098467 -0.026004101121266984 -0.10869955252730555 -0.0316501949271155 -0.05137076511315298
-0.025395641288968467 -0.08728849169235513 0.17897955602521243 -0.1090394898578648
