JupyterLab/best_model_M3_103.pt (torch, 126413 bytes, 12 tensors)

block.0.weight f8 [60, 9]
0	0x3fbbbd759eaa06fd	0.10835967181813184
1	0x3fd43f472828faa9	0.31636217996485044
2	0xbfbc1465c035a923	-0.10968624060266001
3	0x3fcb21afd5aca1c2	0.21196554120366612
4	0x3fcea8023692c6f6	0.23950221695627477
5	0x3fd3e7725f9668e0	0.31100138983459935
6	0x3fd328130444ae3e	0.2993209401781519
7	0x3f88bb8f2e956dcb	0.012076490983125595
8	0x3fc9d043c0f5145c	0.20166823312516413
9	0xbfc89f26f7aee8d4	-0.1923569402113744
10	0x3fd5e7236cde7fc0	0.34223256713630335
11	0x3fd6b1486833719a	0.35457048583864437
12	0xbfcbcd97b52145be	-0.21721168846356237
13	0xbfd785dc1337bfc8	-0.36754514576659547
14	0x3fb9b1504797102d	0.1003618407040114
15	0x3fb4e5b2f0a7999d	0.08162992835386836
16	0x3f89b9fbb766988d	0.012561766180464918
17	0x3fce0291c066ae78	0.23445341009697862
18	0x3fc41b0c1ddcfa9e	0.15707541902698535
19	0xbfc7a0c7a0534024	-0.18459410980585844
20	0xbfa94b2e95edbe59	-0.049401717950669784
21	0x3fb122a8a453586d	0.06693510066847504
22	0x3fde816f305f9137	0.47665004466968547
23	0x3fd4263ae38bb7cf	0.31483337613360346
24	0xbfc524f0521f4b16	-0.16518978128313994
25	0xbfc57bc54f655f02	-0.1678396833110512
26	0xbf5ab33ab58a1837	-0.0016296456653051136
27	0xbfbec00b95b19581	-0.12011787800437014
28	0xbfc4047b7c8b1be8	-0.15638679105015219
29	0x3fd44ff949de1571	0.31738121236443023
30	0x3fc8bcab888d6ef0	0.19325775306321402
31	0x3fb6841e7052b5ee	0.08795347444785026
32	0xbfdfd19f4db57d22	-0.4971693285824178
33	0xbfbef56b9f8ce06d	-0.12093231816550239
34	0xbfba3dbe08d45b43	-0.10250461307110208
35	0xbfae9f422d43e700	-0.05980879595331423
36	0x3fde222f95e16e28	0.47083654057289204
37	0x3fd0e00a4613acaa	0.26367432444994654
38	0xbfd50b60bb48cfc1	-0.32881944932455204
39	0x3fd387e6b1646e64	0.3051697475764057
40	0xbfcf89d969669083	-0.24639432569995642
41	0x3f67d9f9b091bf1a	0.002911555934183141
42	0xbfb14e4128e3ecec	-0.06760031936930816
43	0x3fa3cbde3ff0a414	0.03866476564900992
44	0xbfab1982292c4819	-0.0529289889583568
45	0x3fa6bf874309d957	0.04442999547329645
46	0x3fd23a39ddfb5a07	0.2848038356582098
47	0xbfcf17a4a8a50858	-0.24290903315165013
48	0x3fbc06db75f57d26	0.10947963361603694
49	0xbfdc1d669865b0c0	-0.43929448015729733
50	0x3fd66f9729e3aca3	0.3505609425616944
51	0x3fbff35b49b85ba5	0.12480707692917166
52	0xbfb4ae2f33d158cc	-0.08078284277994213
53	0xbfd100d0d3ba1091	-0.26567478825041585
54	0xbfddbbd9378f2f40	-0.4645903627940591
55	0xbfc2a03d793808cd	-0.1455151407136043
56	0xbfc45f9315cb684c	-0.15916670383632192
57	0x3fb4e00ac4c74348	0.08154361061248239
58	0xbfd4fabb89abdaab	-0.32780350155318655
59	0x3fd13933f0556b70	0.26911638708195706
60	0xbfd9949a6d679b3b	-0.39969502147726005
61	0xbfc9d2a1ccb5a1a5	-0.20174047942715592
62	0x3fbaae6e21f077c8	0.10422409370991581
63	0xbfb164efb4ffd649	-0.06794641655854962
64	0x3fbe085f93b47b10	0.11731526714400453
65	0x3f7757c0ab669a37	0.005698921790474424
66	0x3fcd150ec602f748	0.22720513027700862
67	0xbf67fa988d3e63f5	-0.0029271106267967314
68	0x3fd8dc3226ff3886	0.38843969162270076
69	0x3fd3a5e1df18fb20	0.3069996527373622
70	0xbfb8c657af7692a3	-0.09677646669167443
71	0xbfd4120b63560dc5	-0.31360134793086686
72	0x3fd144d17d0fac35	0.26982533658037094
73	0xbfa151cf68440360	-0.03382728717588779
74	0x3fb895b4a75ffe79	0.09603432737639563
75	0x3fbd2d765d823e4c	0.11397495062760149
76	0x3fbd73d8e6af1908	0.11504893905575753
77	0x3fd06bf8c7aa3fea	0.2565900754789242
78	0xbfd0c03e066fa57b	-0.261733537946007
79	0xbfd4784812c04a5b	-0.31984140235105024
80	0xbfb5fa899bf4de25	-0.08585414941341492
81	0x3fcd424b76a41492	0.22858565609945863
82	0x3fd69dc2938a4f69	0.35337891014318373
83	0xbfb4dca09be531f9	-0.08149150663411565
84	0xbfcfb6287caa63bb	-0.24774652564226848
85	0xbfc5d0e3422051f8	-0.17043724755116307
86	0xbfd5208a1bf78a52	-0.33011105281017195
87	0x3fc3e98bf583cebb	0.15556478012114447
88	0x3fd28a11c1e30560	0.2896770852494992
89	0xbfc38f70e7831829	-0.15281497291852134
90	0xbf7d81ee9a8c7ed9	-0.00720399097988863
91	0xbfd2e0396f701b05	-0.29493556864365217
92	0xbfd1c447554503f7	-0.27760489775761193
93	0xbfa7ece828cec9f6	-0.04672933099881853
94	0x3fbd0545958fc36b	0.11336169148831991
95	0xbfc644db9f68272c	-0.17397637637650953
96	0xbfd2a3d6faf8d129	-0.2912499857805125
97	0x3fa092fc8e225471	0.03237141833339131
98	0xbfc910aef09ac419	-0.19582163570660852
99	0x3fcf57d1102c86b7	0.24486745156996445
100	0xbfc3fdc5ac1cdfeb	-0.15618201164193066
101	0x3fd1276b713f2bd4	0.2680309873509803
102	0x3fd7814c7fba6638	0.36726677392434537
103	0xbfc7a24a0a083b26	-0.18464017381526182
104	0xbf804da75bfbdd72	-0.007960612768768558
105	0x3fa0ff839051932c	0.033199416510603846
106	0x3fd23f0f7eeee15f	0.2850989093381226
107	0x3f9808fc9da6e2d9	0.023471781847294124
108	0x3fd93ec10a496815	0.3944552040535439
109	0x3fc1b35451046bef	0.1382851977913044
110	0x3fc8ba4dae3d76c8	0.19318552978341175
111	0x3fa005e425681e1a	0.03129494625687475
112	0x3f93768cb14e074d	0.0190069182604085
113	0xbfc8671284701daa	-0.19064551798531443
114	0xbfb854b59a6ec8d3	-0.09504256267863136
115	0xbfbd2651b2c496e1	-0.11386595358325337
116	0x3fd38f1a83336542	0.3056093484170398
117	0x3f70d1c9eec4354e	0.0041063201899878676
118	0xbfcb721cbda41ed9	-0.21441993007487417
119	0x3fb15d8d817d4a88	0.06783375178683049
120	0xbfbdced32b20b55c	-0.11643714716838843
121	0x3fd3731551a7fe42	0.30389912580719536
122	0x3fd698e79988266e	0.3530825614294376
123	0xbfcd891f5ce5dd99	-0.23074714695006263
124	0x3fd237b6d91a8cba	0.28465052796873247
125	0x3fb6723f18f266ef	0.08768076285414471
126	0xbfd0c199f18aa9c9	-0.2618164881520469
127	0x3fca5ee06b112c19	0.20602040508160327
128	0x3fcb7e18a84b484d	0.21478565423473342
129	0x3fd4e057475adee8	0.3261926838708704
130	0xbfbde3285a303707	-0.11674740030158769
131	0xbfcbdcfa95d26edc	-0.21768123927619498
132	0xbfa7dd80dc30b8fa	-0.046611811522199134
133	0x3fc3834bc3da386e	0.15244433463198298
134	0xbfc99f965580ceeb	-0.20018271613081792
135	0xbfcfa9dae7b608c3	-0.24737106622712277
136	0x3fcc5c07329c331b	0.2215584752197167
137	0xbfbf46b2c0526ff1	-0.12217251963960486
138	0xbfc2f16628f346fc	-0.14799191474462947
139	0xbfc42cea46883d7d	-0.15762070125536445
140	0x3fd0e4f5c3bd9cb0	0.2639746104745866
141	0xbfcea5e61393c317	-0.23943782764356378
142	0x3f62bb746ef35eb7	0.0022866510476936236
143	0xbfc82fb6d5e76c65	-0.18895612186938418
144	0xbfc52b44a72ba9f5	-0.1653829399359236
145	0xbfcfaa2ad5c2bb5b	-0.24738059461148051
146	0xbf75246e8f216a71	-0.005161697265146801
147	0xbfce9b7ddc71d43e	-0.23912022842310593
148	0xbfcad69a8d18a378	-0.2096741856523996
149	0x3fc5a896f81dd6c9	0.1692074500567087
150	0xbfd241652a8da37c	-0.28524140506356566
151	0xbfb1861683d3c478	-0.06845226972997576
152	0xbfd64429311c908b	-0.3479102115254668
153	0xbfc49bda9febb84c	-0.16100628670341377
154	0x3fb3035e35718701	0.07427014164707303
155	0x3fc0db907dd03b05	0.13170057433350038
156	0xbfc14755184fbb4e	-0.13498939215738875
157	0x3fc55a289ab7e22e	0.16681392244915244
158	0xbfc986401302713b	-0.19940949371528824
159	0xbfcd4d4edc5e90de	-0.22892175445770752
160	0xbfb15c84c01fc954	-0.06781797113925353
161	0xbfc78c10b978cc0b	-0.1839619546531995
162	0x3fd03f3520a5ec81	0.2538578814343922
163	0xbfd4426af1590d77	-0.3165538174545967
164	0x3fd48b94b0b20811	0.321019337228905
165	0x3fd5f1350eb2873d	0.3428471225289405
166	0x3fa07826498faea6	0.032166668395658335
167	0xbf8fa396202eef33	-0.015448735100896371
168	0xbfbccdc6ab49a199	-0.11251489335848532
169	0x3fca95056608730d	0.20767276269989346
170	0x3fc2516f7586cd7d	0.1431102107868404
171	0x3fbc3aab53a85c96	0.11027022163794906
172	0xbfd4c5284662b755	-0.3245335280761215
173	0xbfcd788cb213b425	-0.23024138159908705
174	0xbfce554c8103ef69	-0.236978114124095
175	0xbfd64ea2854e011b	-0.34854949014699493
176	0xbfa1717a093dbac2	-0.03406888354117178
177	0x3fb809a567fe26d6	0.09389718808065636
178	0x3fc0e735fed9332f	0.13205599731227255
179	0x3fc97e30d7165b04	0.19916353704748968
180	0x3fd0bca52bbc5e1a	0.26151398917269975
181	0x3f969546ae116072	0.022053818105945706
182	0x3f95845f7c0a668f	0.021012775369490696
183	0xbfac5b4c70a3f53b	-0.055384052991920694
184	0x3f9afa1ecb37a6d4	0.026344758180050956
185	0x3fcb2b07889b694f	0.21225065393702855
186	0xbfa5b2afb3178f89	-0.04237889348203711
187	0x3fda946f02dbf06c	0.4153096702500594
188	0xbfc0784ea63f7cbc	-0.12867148511484128
189	0x3fd5a0cf58e6e168	0.33794006044219893
190	0xbfd16c6c3cee0cbe	-0.2722426028269175
191	0x3fa15c8e42a46029	0.033909268984814674
192	0x3fb38a449d5a2fa3	0.07632855264290454
193	0xbfc37b11b02767be	-0.15219327069536165
194	0x3fd02cec9a97a5b8	0.25274195763503426
195	0xbfac2bd6a7e7a08e	-0.0550219612085253
196	0x3fd104f85b17a3c0	0.265928353268972
197	0x3fbb5e4fb974bbda	0.1069078281186501
198	0x3fc5d4a19fd2be1b	0.1705514936816009
199	0xbfb5b2c0c9bdc00c	-0.08475880551645804
200	0x3fc3ac31b722f30a	0.1536924499722761
201	0x3fbc259b7652abcb	0.10994884146445753
202	0x3fd6bb5506638043	0.3551838457478917
203	0xbfd79030b7410dd6	-0.3681756772604933
204	0xbfd4401f657becdd	-0.3164137354903696
205	0xbfd361fe4882440c	-0.3028560360044714
206	0xbf91db4812da8281	-0.0174380551821991
207	0x3fd2ba690fcc838b	0.2926275877271613
208	0x3fafb03530c8bc8b	0.061891233639806385
209	0xbfc969489feebec4	-0.1985255032463923
210	0xbf992d79dd097fc6	-0.02458753978351049
211	0x3fbd8252b27c284d	0.11526982171577167
212	0xbfd1653ee1220391	-0.27180454240447555
213	0x3fc28b8c04a2af30	0.14488363481847832
214	0xbf767c544c54add9	-0.005489663400378452
215	0xbfd120faf74e0a65	-0.2676379599653614
216	0x3fc33a01ff0e83d2	0.1502077575105703
217	0x3fc78495cf9322d5	0.18373367915616848
218	0x3f86c2eff443122a	0.011114000932488006
219	0xbfbaa446775d9221	-0.10406914152333303
220	0x3facccb6a1a11ec5	0.056249339323185356
221	0x3fafa4532cfe20bd	0.06180057453372132
222	0x3f840e6264594d78	0.00979306095829345
223	0x3fdbd40f0c84d94e	0.4348180410628587
224	0x3fc5b39cceb3566f	0.16954383938598336
225	0xbfda448715ffb914	-0.4104325976212675
226	0xbfc8e54498d5950e	-0.19449670279133396
227	0x3fc8e9f356269cff	0.19463960367759367
228	0xbfd496cbd65419ec	-0.3217038720180472
229	0xbfd012ca4a37def1	-0.25114686248660606
230	0xbf6793f3de608ad6	-0.002878166490533611
231	0x3fcc967835efd9b2	0.2233419669498296
232	0x3fbc0a98d97595fe	0.10953669842782429
233	0x3fd9aab3294b2909	0.4010436919458163
234	0x3fb3a84705a8e790	0.07678645981005006
235	0x3fb0a479eedf5478	0.06500970918507842
236	0x3fc7e2ff2b1a89ff	0.18661489109679505
237	0xbfd41667a1c68c4f	-0.3138674812163957
238	0xbfd1d149ea97f66b	-0.2783989706948435
239	0x3fa7d6ae1493a54c	0.04655975342923088
240	0xbfd415de5c76af7d	-0.31383475331926275
241	0x3fd0bc1556f5dd04	0.2614796971533482
242	0x3fd0a71a01adbb7c	0.26019907154016386
243	0xbfbf0007b3e42f33	-0.12109420911673112
244	0xbfd4c5833a72de93	-0.3245552130497142
245	0x3fba991c92848976	0.10389879777043184
246	0x3fb9648881ec6cde	0.09919026538812001
247	0x3fd4c90811c853b2	0.3247699903161517
248	0xbfcd59e124c3f342	-0.22930540366351165
249	0x3fb1c6e2a293303e	0.06944099873652562
250	0x3f8f490040951450	0.015275957079788821
251	0xbfd385945b327968	-0.30502804666493555
252	0xbfd8ddf6d3cbb985	-0.3885476177519183
253	0xbfc9c85893717004	-0.20142657470103142
254	0xbfb7f40cc715c687	-0.09356765614009009
255	0x3fc7b3a039a3da70	0.18516924681144387

block.0.bias f8 [60]
0	0x3fceea6a7bf65d16	0.24152880719041353
1	0xbfcf0811bec79233	-0.24243375602158465
2	0xbfb7a2be104095ac	-0.09232700249466202
3	0x3fb3361e80e7780d	0.07504454276156043
4	0xbfadcc097b6c1bb0	-0.05819730407352297
5	0xbf710f3d76e13d86	-0.004164924712383727
6	0x3fb77038aac21500	0.09155611199283342
7	0xbfbc978dcc2ff7b2	-0.11168752894442838
8	0x3fba7b83d25d3aed	0.1034471882423806
9	0xbfc0e2413a837e03	-0.13190474850760844
10	0xbfbdd64faa0da02c	-0.11655137921991415
11	0xbfb6f0047c8c1d30	-0.08959987679201187
12	0x3fab6164b707ef13	0.053477427809381826
13	0xbfb5734c276b2353	-0.08379054987302696
14	0x3fba997fce0742d3	0.10390471248616544
15	0xbfa0e9ca12eeb067	-0.03303367119892258
16	0x3fc6a6e03526b6dc	0.1769676456000785
17	0xbfd027ae0f5585fd	-0.2524218702074846
18	0x3fd19155ea7c6bc8	0.27449558161759713
19	0xbfcb5c8056b8fa69	-0.21376041635990653
20	0xbfb339076efb6abf	-0.07508894404910914
21	0x3fb32dac090c7ba0	0.0749156496135428
22	0x3fbed10c873c90e3	0.12037733365702112
23	0xbfc331ed8f340ae2	-0.1499611806139774
24	0x3fc3b1a7f8ccda0e	0.15385913513610244
25	0x3fc1db544ce38f55	0.13950589899388413
26	0x3fd3aa474aacea7c	0.3072679738285513
27	0x3fca3f15ba851cd0	0.20505019767208532
28	0xbfa4bd4f1ca56487	-0.040506813284715774
29	0x3fd09e7083a00e27	0.2596703801538944
30	0x3fccbd553ac29f97	0.22452798241760938
31	0x3fd13cb49a000e8e	0.2693301681431216
32	0x3fbaec61a1312736	0.10516939339973139
33	0x3fa67f5221e2eb13	0.04394013084080064
34	0xbfc03b9a56754953	-0.1268189356001793
35	0x3fbd7f343b9896e4	0.11522222952825306
36	0x3fbfec7daf0d138b	0.12470231555660242
37	0x3fc7fa6e4c08dbaa	0.18733004295947114
38	0x3fb4678a2975ca2b	0.07970489036760202
39	0x3fcfc3f7d9349ca2	0.24816797357309378
40	0xbfc3c323189a5c63	-0.154392611516161
41	0x3fba06182e2cf2f1	0.10165549399694009
42	0xbfa39b996ad651ac	-0.03829650334515419
43	0x3fccdb1c27944f86	0.2254367059000481
44	0x3faf3f010ab4cb21	0.06102755790415971
45	0x3fb2a4bad9c21154	0.07282607857093143
46	0x3fd1df69b2df7e26	0.2792610403830359
47	0xbfbc135b6ec9155c	-0.10967036680911718
48	0xbfca59506d94134b	-0.2058506522227169
49	0xbfc0582e384e8c10	-0.1276910567222278
50	0xbfc71e05fbb5fb33	-0.18060374060220283
51	0x3fb73af619d717f2	0.09074342852463227
52	0xbfd25afdea486bf8	-0.28680370215596396
53	0x3f6f1f7b21024194	0.0037991909849283776
54	0x3fa54461e7c68c39	0.04153734163562501
55	0xbfd06c138005fc9d	-0.2565964460590722
56	0xbfc2a088b209d004	-0.145524107868937
57	0x3fd4ea9984910126	0.32681882806720564
58	0x3f966da16d871175	0.021902582464251325
59	0x3fa61c7fe408f7a9	0.043186184488589525

block.2.weight f8 [60, 60]
0	0xbfc4cb5a360d7315	-0.16245582236560865
1	0xbfb2d2b6c19c5c62	-0.07352773882699773
2	0xbfab68060cbba4e2	-0.05352801232749883
3	0xbf871995b52159be	-0.011279267873914086
4	0x3fc589650b229c03	0.16825545352659796
5	0x3f966e3aa40430c1	0.02190486551357718
6	0xbfc4a806c81580d8	-0.16137776155210903
7	0xbfb5db4be2dc6740	-0.08537744797322677
8	0xbfa4d68e388b6e78	-0.04069942894213069
9	0x3facbf7e0876b421	0.056148470433392335
10	0xbfbffef417966d1a	-0.12498403144711681
11	0x3fa5f39d90cd6536	0.042874263692917955
12	0x3fb65902e709fca6	0.08729570522881377
13	0xbfc42843ae98b71d	-0.15747877145025138
14	0xbfa6c1c46538216f	-0.044447076183191984
15	0xbfc44f2be928aeff	-0.15866612324440862
16	0xbfbc54bed6769f49	-0.11066811309740134
17	0xbfbd18154d230b98	-0.11364873059487335
18	0x3fb65f465ab42eb0	0.08739127840470462
19	0x3fb7e21753453106	0.09329362662282756
20	0x3f9b9bc8520b3dc3	0.026961450583994805
21	0x3f9f02cb11c6255c	0.030284092864837006
22	0x3fb326a71c86d7f3	0.07480854460195001
23	0x3fbb7a7caf48e1b2	0.10733775405322524
24	0x3fd0a2c24bf552ab	0.2599340192585184
25	0xbfc0360d87d1b6c6	-0.12664956218525542
26	0x3fab7b1770ab73e6	0.053673489097242386
27	0x3fa2c832bc4d0069	0.03668364094346616
28	0xbfbf491da34376c3	-0.12220940814901397
29	0x3fc11cf194a4776c	0.13369579084331507
30	0xbfc42e7915e24001	-0.15766824310821906
31	0x3fb1755429f2a93e	0.06819654487722901
32	0x3fb6b6e4ad4186a5	0.08872822980768065
33	0x3fc3a5060441825d	0.15347361762816805
34	0xbf8b031652609d50	-0.013189482106169464
35	0xbf82f1e45a45faaf	-0.00925043488018437
36	0xbfb6df40ddabf5d7	-0.08934407627017237
37	0x3fb11ba0105f4542	0.06682777785978991
38	0x3f8246121a69705b	0.008922711783434225
39	0x3fa2b0fb7dee1904	0.036506518480608846
40	0x3fc1611408b51132	0.13577509331856558
41	0xbf80f64922167914	-0.008282252648140566
42	0x3fb5842f1a666ca4	0.08404821772130561
43	0x3fb6803f365d9224	0.08789439275057781
44	0xbf72219b44303495	-0.004426580914708063
45	0x3fb4c397e675c4fe	0.08110951782670736
46	0x3fb09d3b5ee78b5e	0.06489916865352316
47	0x3fb0ad0e23cca4f9	0.0651406133080349
48	0x3fc29f0c721de0b5	0.1454787785730837
49	0xbfc0ec0f0a8b5cfe	-0.1322039414869564
50	0xbfbcc7ffa59eecf5	-0.11242673676945343
51	0xbf97b1ae9ae9436e	-0.02313874073508109
52	0xbfc2c67df68fcd2c	-0.14668249644419384
53	0x3fa423a95710ce9f	0.03933457553685326
54	0x3fc63bad4fcfcb8f	0.17369619748168616
55	0xbfaa4ed4e0c1908c	-0.051382687030838786
56	0xbfaa33065e8a2f98	-0.051170538940908006
57	0x3fa03201822b7cab	0.031631514682652316
58	0xbfa2b6b9e3e31dbf	-0.03655033976388777
59	0x3fa7ccc970461449	0.04648427482155932
60	0xbfc2234f06abe99f	-0.1417025358749244
61	0xbf9400e1ee3f3977	-0.019534616629067494
62	0x3fc0c88ff23a6993	0.13112067534968883
63	0x3fb15b71502a897a	0.0678015537946858
64	0xbf9e3cc066877526	-0.029528623826867627
65	0x3fb3df22afca8ce5	0.07762352744844099
66	0x3fa224611a88be8d	0.0354338021173791
67	0xbf8b9c8d5352f7a6	-0.013482193093633143
68	0x3f8483849e38e3b3	0.010016475752410025
69	0xbf8532b212d297f2	-0.010350600432797539
70	0x3fb9065acec47249	0.09775321529418436
71	0x3fa52a8867d07d6d	0.041340124771745625
72	0xbfc36ff93ceef94b	-0.1518546626593412
73	0x3fa1dc49dda0fd8d	0.0348837931674054
74	0xbfb7cfe914fc05db	-0.0930162121039965
75	0xbfb0991283f82a7c	-0.0648356983366884
76	0xbfb39e3bf467a6e7	-0.07663321225086471
77	0x3fc316e0db6d4712	0.14913569177820613
78	0xbfc2bfb07e5b03b4	-0.1464748970957125
79	0xbf92bb1e1cda1174	-0.01829192210290516
80	0xbfce02d960374780	-0.23446194837611856
81	0xbfa884506319acc7	-0.047884475800708474
82	0xbfc1ec2ff3051246	-0.1400203644390265
83	0x3f9b2c23c4968583	0.026535567163255457
84	0xbf9f41b4e2542bae	-0.030524088205350068
85	0x3fb14f70c9605113	0.06761841694271124
86	0x3f7f7687679d4b5a	0.0076813973663146465
87	0x3f6de630acd79039	0.003649802273445271
88	0xbfc827a12f3dee0d	-0.18870940024122299
89	0xbfa65abb04287f31	-0.04366096902617612
90	0x3faa97696468dfea	0.051936429507293116
91	0xbfb76f511ef850bb	-0.09154231077292511
92	0x3fae05dc91691856	0.05863847041159491
93	0x3f87c1a5039369a1	0.01159981648600167
94	0x3f6fd5b7c2dd03ee	0.003886088284076986
95	0xbfb05ed6770de809	-0.06394710928535131
96	0x3fb90aa181f28143	0.09781846449414382
97	0x3fb9916c424b8919	0.0998752271512199
98	0x3fc1d1177009f5a1	0.13919346781396505
99	0x3fa75598909f2d6a	0.04557492032435102
100	0x3fa2d4852d2ca160	0.03677765060848759
101	0x3fba0a7bf391618a	0.10172247597200204
102	0xbfa474f3012f43ed	-0.03995475186787432
103	0xbfd42e1ea3328efa	-0.31531492173438347
104	0x3fbbe63aa2d787d3	0.10898176646836015
105	0x3f94f0cca0bea844	0.02044982653720974
106	0x3fa2f542fa3103ba	0.037027447739553535
107	0xbfc2371d75434750	-0.14230697847102158
108	0xbf53e2904a13d7d8	-0.0012136849475701175
109	0x3f3819610705aeab	0.0003677236445784697
110	0xbfaa81b10a1e00d7	-0.051770718083391
111	0x3fb70089a4eb1143	0.08985195423435237
112	0x3fa0e546519c40cd	0.03299922701092015
113	0xbfb3d0f5db22b143	-0.07740723228443351
114	0xbfc1915e41c78b95	-0.13724878513229713
115	0x3f98d72b07fb73ba	0.024258301126667915
116	0x3fc4a7b42f9047b4	0.1613679153675186
117	0x3fb831cd6cc14587	0.09450992493773046
118	0x3fb4a610d3354758	0.0806589618344139
119	0x3fb3b50c013b981f	0.07698130636308108
120	0xbfbf0c1f1ad90311	-0.12127870946370602
121	0xbfb487dad66024ad	-0.08019798024919807
122	0xbfc0c2fcd78e18f2	-0.1309505512728673
123	0xbfc35dea3dedc817	-0.15130355857724062
124	0x3fa90804af104a37	0.04888929974562866
125	0x3fad98c144f18c78	0.057806052843056344
126	0xbfb25d97b6a55226	-0.0717406102097092
127	0xbfa61bf444d64f80	-0.043182023432705385
128	0x3fbe8f239be4e764	0.11937162929544126
129	0x3fa641b782b7a60b	0.04347012968703375
130	0x3f98526832e44560	0.02375185785883127
131	0xbf9e387befd69216	-0.02951234485012052
132	0xbfc36e9d16c2412d	-0.15181316005010484
133	0xbfba29a5bd0555d0	-0.10219798912779443
134	0x3fa7f41c67c75f75	0.04678429381209429
135	0x3fb1e45b9bfb2cdf	0.06989071424611691
136	0xbf83fee2c71e780f	-0.009763499929075463
137	0xbfaae261f11820a1	-0.052508412056398564
138	0x3faa26add839f5fe	0.051076347966027655
139	0x3fa94cb55934e9ca	0.04941336358975297
140	0xbfcadf7bbb72a267	-0.2099451699516692
141	0xbfc12e84ccff152b	-0.13423213967886602
142	0xbfa611a10c64d542	-0.04310324932377309
143	0xbfbe2fe92e180ba8	-0.11791856170024906
144	0xbfb1bf90aea67194	-0.06932930244369678
145	0x3fabcd114f086501	0.05429891671901466
146	0x3fbb6c455e77a945	0.10712083393415124
147	0xbf93e959d0cbd0bb	-0.019444850319772593
148	0xbfcf1d8aacb72dc3	-0.24308904107452464
149	0x3fa0134b00deb587	0.031397193771549196
150	0x3fbf73cf07cddf18	0.12286085072070951
151	0xbfb2bb0d601cbcf3	-0.0731666907929485
152	0x3f55f4e4fb961dab	0.0013401256713637493
153	0xbfa1f32aa720dd29	-0.03505833902493755
154	0x3f98ff684d9888d7	0.024411802040170762
155	0xbf797c65ee093a46	-0.006222150958434874
156	0x3fba58f79b89a22c	0.10292003199868621
157	0x3f7be9ca4ea6c7da	0.006814756643892717
158	0xbfa42c4204b88ac3	-0.03940016086223388
159	0xbfa8121e6b9951a7	-0.047013235697394955
160	0xbf91e265c9233bcf	-0.01746520080706287
161	0x3fc4511f7de8bed4	0.15872567794712344
162	0xbfbf836ea6c4745c	-0.12309924670667399
163	0xbfd18aff3dfcd116	-0.2741087060305899
164	0x3fa279be54df6fa3	0.03608507906002891
165	0xbfa1519e3f07f2d2	-0.03382582206174835
166	0x3fb6a1c426489393	0.08840585646301084
167	0xbfb0af4263ad5e0a	-0.06517424520040307
168	0xbfb8cfd8627d6a0c	-0.09692146687067565
169	0x3fbe12715bd6cfa9	0.11746891491094281
170	0xbf9def0a851c94bd	-0.029232181906213784
171	0xbfbb57e7633c0c20	-0.1068100564262271
172	0x3faedc92a86f312c	0.06027658754428197
173	0xbfa154ff35a8019f	-0.033851599979246354
174	0xbfc729493c26dd07	-0.18094745099163154
175	0xbfb95cac20842bb4	-0.09907031816344053
176	0xbf9db6e86704536a	-0.029018050468113378
177	0xbf8d439ad30604f8	-0.014289102139402918
178	0x3fc2385a5fdc88a7	0.1423447578500305
179	0x3f8aee22a12a3cda	0.013149519484868245
180	0xbf9e3d2f1bde8d24	-0.029530273509988395
181	0xbfc0e19f43802b58	-0.13188544078760844
182	0xbf9a37061842fac9	-0.025600524168789805
183	0x3fbe533f42d77017	0.11845775014757041
184	0x3f8d0fca5fc02b74	0.01419027428348383
185	0xbfb5b882f7e88f70	-0.08484667351200215
186	0xbfbbafa230954724	-0.10814870535002946
187	0xbfb1fd7bb04b102b	-0.0702740960505827
188	0x3fb43b3c206112e8	0.07902885237224277
189	0x3fc29b3cd1366a13	0.14536247458893622
190	0xbf7a0d7e41ca34c5	-0.006360524360059465
191	0xbf83a596c63bb898	-0.009593179630851531
192	0xbf8be6c3a7db5ff9	-0.013623741684043
193	0x3fba98692fe31e7c	0.10388810557480527
194	0x3fa873f356349544	0.04775963237106365
195	0xbfc5114b4f775f8b	-0.16459027652922162
196	0xbfa85c884e9f94bc	-0.04758096656568386
197	0xbfbef682a7bdef36	-0.12094894976865764
198	0x3fc752ab9f645da4	0.18221040041747216
199	0xbfb1744fb5f562b0	-0.06818102066371057
200	0x3fa782f319002e1a	0.04592094116386765
201	0x3fb2a4e6c4f429b0	0.07282869633141931
202	0xbfabac01887aa2af	-0.05404667654994932
203	0x3fc1c17a4ac2f88b	0.1387169709250354
204	0x3fc96e57762df424	0.19867985983356207
205	0xbfbcfe41297d7bab	-0.11325461638396798
206	0xbfaadfe208dd69ad	-0.052489341337337826
207	0xbfb28994492788ee	-0.07241179262158301
208	0x3f39cbd7c7e25534	0.00039361970983383125
209	0x3f89ca0067f193b5	0.012592318698986785
210	0xbfc3692e6e5b7cca	-0.15164738071960066
211	0xbfbed847c4e05342	-0.12048767620610781
212	0xbfa5d001dc25d4be	-0.04260259449339675
213	0xbf6490f8a27125a1	-0.0025105339186992236
214	0x3fb907eaa0cb9e36	0.09777704644840743
215	0xbf93846e65b1df55	-0.019059872586211075
216	0xbfb27aa3c03f1e3c	-0.07218383258361255
217	0xbfc0c13246328b22	-0.13089588573083072
218	0xbfb290f8b2331fd3	-0.07252458906725616
219	0xbfc01d2df5cc4d18	-0.1258904886422918
220	0x3fc095f32fa22833	0.12957610917902826
221	0xbfacc4e150df8143	-0.05618957626552625
222	0x3fa77c346ae0afbb	0.04586948208483884
223	0xbf9cd46502d506e2	-0.028153971002445106
224	0x3f9bebacc6afd2f7	0.027266215922241845
225	0x3fade3f1124ea77f	0.058379682049532804
226	0x3fc2dc1da0981064	0.1473423990393058
227	0xbfbb5eac3fea536e	-0.10691334305222508
228	0x3fbe84c0afb47612	0.11921314515753803
229	0x3fa795a74b5c6efb	0.04606364054617803
230	0xbfbdf924d025f020	-0.1170828827070527
231	0xbf7caf1205bc314d	-0.007002897644053552
232	0xbfb3e01fcc34cd86	-0.07763861403946323
233	0x3fc7cba375ae6ad9	0.18590205427320575
234	0x3fb90f734f33bfed	0.0978920048107736
235	0xbfc699d85b204eae	-0.17656998109361183
236	0x3fb450556a8ee7a8	0.07935079432982539
237	0x3f9078df0ded962e	0.016086087441541767
238	0x3fbd225c2b9675d6	0.11380554260400486
239	0xbfc119c5d909c421	-0.13359902474943033
240	0xbfc0f4b20f8355a0	-0.13246751553985536
241	0xbfc46433fa710f1b	-0.15930795410724205
242	0x3fa6510b8cc7c201	0.04358707517156191
243	0x3fc0e0149ada477a	0.13183839379467682
244	0x3fb502cfdf2d31da	0.08207415770193141
245	0xbf9fa7fc71907162	-0.03091425364628842
246	0xbfa0e738aa855bee	-0.03301407891802187
247	0xbf9f4ead45c0c519	-0.030573565847764692
248	0x3fa5db072d0b20a5	0.042686676262350155
249	0xbfc66bc469cff161	-0.17516379515280803
250	0x3fa97bdb086ba3a1	0.04977306821621786
251	0x3fbc6790cf698218	0.11095528663418752
252	0xbfb9fd36be46da61	-0.10151998658589313
253	0x3f777025e8629f6a	0.005722187115828928
254	0x3fbcf340fb923b82	0.11308675901294232
255	0xbfb3ce5d40e58a8a	-0.07736761888876678

block.2.bias f8 [60]
0	0xbfb231a5637558e4	-0.07107003858741084
1	0xbfbb5153c498d77d	-0.10670970487339378
2	0xbfb799cabed51569	-0.09219042929642786
3	0x3faa33442ff22050	0.0511723812606425
4	0xbfaf079384d6218d	-0.060604677167307754
5	0x3fa6fc8c3315a0c8	0.04489553569402599
6	0xbfbdb2f58a53ec32	-0.11601194979805099
7	0x3f8d7c94ddb9b66a	0.014397776619456699
8	0x3f5701e610353a23	0.0014042612754853266
9	0x3f9de566caae6fe2	0.029195409889879793
10	0x3faa1ac34a0955d8	0.05098543432965713
11	0x3fa975a060e7d6bd	0.049725543813037267
12	0x3faefb0cbf5c913f	0.060509107932633636
13	0xbfbae2c11bcce20f	-0.10502249649733407
14	0xbfa83ee3aa4ce549	-0.04735480741369231
15	0xbfb9b15a2c53db9d	-0.10036243040290889
16	0xbfb42ac36b75e6b4	-0.07877751706646557
17	0xbfb6336de4b0fdd3	-0.0867222483948276
18	0x3fb1fcea134fb1ec	0.07026541682689186
19	0x3fb57a22820a6b9a	0.08389487910100826
20	0xbfa1882faad3eae9	-0.03424214325237591
21	0x3fa49dc388b3f7aa	0.040266142308595335
22	0xbfb5e9810ea66a7a	-0.08559424026172194
23	0xbfb45aad47812376	-0.07950861926759764
24	0x3fa0ad5c9949e990	0.032572644912721604
25	0xbf9cfe484ed8e38c	-0.028313760578587074
26	0x3fa73541ce57bcdd	0.045328194082566255
27	0x3f9a2d74ec61c769	0.025564028670891945
28	0x3fc4d681579b0152	0.16279618051158679
29	0x3fb2bf614f09a81b	0.07323272876388424
30	0xbfb95b5e2661426a	-0.09905041157731778
31	0x3fa94247414f0daa	0.04933378860689726
32	0xbfaec7f1232986ed	-0.060119185964834766
33	0xbfa339af7ff2d0a0	-0.03754948078986442
34	0x3f935e7e942e8540	0.01891515521459053
35	0xbf82dcbcc11f4397	-0.009210085528964558
36	0xbf62b5121bd3230f	-0.0022836068806991803
37	0x3fb69e29914a6216	0.0883508662904052
38	0x3fc0c6f30bc49b0a	0.13107145380600854
39	0xbf8e7024f3cbdefb	-0.014862335863184742
40	0x3f97333640483e87	0.02265629546496808
41	0xbfbefb48217940a7	-0.12102175538280112
42	0xbfb1161608dcc255	-0.06674325672498445
43	0x3fbd9deff339ac4f	0.11569118202321359
44	0x3fc13fb072c16ecb	0.13475614169407488
45	0xbfb047512c2bc229	-0.0635882122840107
46	0xbf9f84158d03e1fe	-0.030777298671610602
47	0xbfbe699440e80c70	-0.11879850945119741
48	0x3fb4e53c601f7244	0.0816228613543411
49	0xbfa2111869ce8f4b	-0.03528667728030984
50	0x3fbf863c03e93bdc	0.12314200492367838
51	0x3f70523ddaec5284	0.0039846817224044075
52	0x3fb4d3e790fd9e48	0.08135840692340779
53	0xbfbd669b0a3dfbae	-0.11484688758899494
54	0x3fac3af6d3dd3792	0.055137360918350656
55	0x3fa82071ec65b53f	0.0471225358076972
56	0x3fc2df2647d2361d	0.1474349833192016
57	0xbf59901669196a9c	-0.0015602320530862307
58	0x3fb130027297fa55	0.06713881776520599
59	0x3fbabeb837501d11	0.10447265005506191

block.4.weight f8 [60, 60]
0	0x3fb776ccf3ed99e3	0.09165650325085255
1	0xbfb51cc85e0b60a4	-0.08247043891913336
2	0xbfbc964fe192d4c3	-0.11166857964674919
3	0x3fce32909e796208	0.23591811883922298
4	0x3fb521f115266332	0.0825491596828101
5	0xbfbfa6157ccb3ac5	-0.12362798973775131
6	0xbf91280b3395b674	-0.016754317306029567
7	0x3f968bec049ccc53	0.022018134862446036
8	0x3fbcb26491435814	0.11209705873929493
9	0xbf832323a6f1e403	-0.009344366581204971
10	0xbfbbbf756cea660a	-0.10839017781327001
11	0xbfb16c55627c3ea0	-0.06805928854395882
12	0x3fbd7f80e400a6cd	0.1152267986914481
13	0x3fa7a191e4d51ea7	0.04615455549588648
14	0xbfa105ea6cf1e565	-0.033248258398951326
15	0x3f97ffc529d3fba7	0.023436623266203018
16	0xbfa1917f926ae9d3	-0.03431318914723005
17	0xbfbc49e145945876	-0.11050231884687087
18	0xbfb9e93de6c666e9	-0.1012152374663874
19	0x3fc86c88d1ac1956	0.19081220853713415
20	0x3fb23024aecc175e	0.07104710834036385
21	0x3fafeda1f05d3f46	0.06235986765989181
22	0xbfc0dd76723c1cad	-0.13175850465652186
23	0x3fa895ac43bdcb3a	0.04801691367074175
24	0xbfa531ef238f4877	-0.04139659222677577
25	0xbfaeb8576ab3bc1c	-0.06000016381755577
26	0xbf481d912caa3272	-0.0007359465465284888
27	0x3f8df29d238af64e	0.014622905394726573
28	0x3fbec175f008d0c9	0.12013947591987341
29	0x3fa99409937d3821	0.04995756078152192
30	0x3fa85615be62105d	0.047531775941963096
31	0x3fa7272e18eb0a1b	0.045220795194399886
32	0x3fb2655f7a2d03e9	0.07185932858284584
33	0x3fcd907524fe437d	0.23097099596318663
34	0xbfb36f04c4d3748e	-0.07591275983164023
35	0xbfa33e0ec25a9cfa	-0.03758283731922947
36	0x3fc5c9e2ead5b98d	0.17022358385606787
37	0x3fbddddecf1dcd56	0.11666672283700072
38	0x3fc04bb7f0481258	0.12731074554916932
39	0xbfb337675604c710	-0.07506414270462991
40	0xbfc0a88537b715b8	-0.13014283390491044
41	0x3fb62f8d03ca62ea	0.0866630682234121
42	0xbfb6eb0cebffb7fc	-0.08952408563320086
43	0xbfb354c28c06d106	-0.0755120841848261
44	0x3fc5de5457fcd571	0.17084745689650618
45	0xbfb1b3a8887b4fe2	-0.06914761859962895
46	0x3fb0dfe2f90ba1c2	0.06591623859606613
47	0xbfa04553fc9158d1	-0.031778931218171665
48	0x3fad68daf4733bff	0.05744060739527156
49	0xbfaa4f68ff2d4f68	-0.05138710131600882
50	0x3fa6cb376e469be7	0.04451916905536973
51	0x3f95198f79447789	0.020605317856385894
52	0x3fc934746c1a1060	0.196913292678917
53	0xbfb313969f48ff10	-0.07451764477536593
54	0x3fceae25841503d8	0.2396895308429794
55	0xbfb5007ea064a2c0	-0.08203879752967236
56	0x3fbb4d52aa1826e8	0.1066486039418596
57	0x3fc255e068c68a98	0.14324574581140292
58	0x3fc19a9f45cf31b6	0.13753119381580142
59	0x3fb058b49a27e85e	0.06385353816577452
60	0xbfa95fea2fddf0fb	-0.04955989679635483
61	0xbfacbd79729ac3d3	-0.056133074989140795
62	0x3fbb32491ef6135d	0.1062360478009174
63	0xbf972526337afb33	-0.022602650539506896
64	0xbfba3a021fba03e4	-0.10244763636184434
65	0xbfa4da02176ec5bc	-0.04072577034038313
66	0xbfbfcbeadfc12ffb	-0.12420528376350141
67	0xbfbcc4f219ebe483	-0.11238015301559483
68	0x3fa3b7abb3fe2474	0.038510671350260234
69	0x3fbd58478bf96b75	0.11462828795758447
70	0x3fb2c078dc761a6d	0.07324939138752891
71	0xbfab23d8911b6a0d	-0.05300785800291772
72	0x3fc137ea2df3b6f2	0.13451888316870214
73	0xbfb5df4ccfd99575	-0.085438538307775
74	0x3fb6b536a4a7db00	0.08870259780801959
75	0xbfbc5a9b2f60b57d	-0.1107575407665617
76	0xbfc9336220179f88	-0.19688059393888246
77	0x3fbc4261c4156ac4	0.11038790738295307
78	0x3fc5bf2e9b52a679	0.16989691337703386
79	0x3fbd26ff0de314ad	0.11387628640211984
80	0xbfc2cf8146095413	-0.14695754928348545
81	0xbf9f9f8c0770478f	-0.03088206096078455
82	0x3fc0aae9e214de04	0.13021586932312357
83	0xbf920d442ff94394	-0.017628732135850436
84	0xbfa4a79b79e60f0b	-0.040341242437561396
85	0x3fbcb505d94e875e	0.11213718943920756
86	0xbfa59349f1daf139	-0.04213934972128403
87	0x3fb28ae02a79c4f1	0.07243157422069026
88	0xbf9cb6c9c3bc48b8	-0.02804103142904843
89	0x3f82b2ad080814d4	0.00912985974083328
90	0xbfa6384760000000	-0.04339812323451042
91	0xbfc1f92acf81c52c	-0.14041648037122323
92	0xbfaa5d183dea6c52	-0.05149150615508148
93	0xbfce72800d70e3b6	-0.23786926895425403
94	0x3fb48ea6b5966e03	0.08030168469706926
95	0x3fc09229782e479c	0.1294605099506584
96	0xbfbc51a6415c7c28	-0.11062087150320166
97	0xbfb7cf33cfca81d2	-0.09300540755294343
98	0x3fb2a0af408a4b70	0.07276435208977516
99	0x3fba8f6cfd338dbe	0.10375100309061389
100	0xbfb65340ecd0ee53	-0.08720784932750662
101	0x3fb0e50ce4c4c27c	0.06599503121538847
102	0xbf9b3e3a90dca462	-0.026604571429889375
103	0x3fc3a7c42e266be6	0.15355732205793443
104	0xbfbc83bd5ff6ac0f	-0.11138518898830817
105	0xbfba6813bcff8c11	-0.1031505905553305
106	0xbf777e664e17f8d1	-0.005735778454889665
107	0xbfa88b97d59c8380	-0.04794001085816202
108	0xbf8047b2c935f999	-0.007949253812282108
109	0x3fb3150f4e00cfe7	0.07454009680151295
110	0xbf8a8af97a141864	-0.012960385358848643
111	0x3f9ffcded566aa45	0.031238061690297653
112	0xbfb20d7b93aba57c	-0.070518230011336
113	0x3fb0a55ef6bdfbe5	0.06502336048104913
114	0xbfc6ac0e51edd5fb	-0.1771257305187389
115	0xbf957e1f80690f4d	-0.020988933765934182
116	0xbfc405436169bb9e	-0.15641062027449676
117	0xbf8a8ce6cdec9861	-0.01296406093531405
118	0x3f93f48f43e11384	0.019487608449952912
119	0x3faa01e18b43ee68	0.05079560112968978
120	0xbfcde4f44e23573e	-0.23354963126501532
121	0x3fc4188033f0cdeb	0.15699770485080874
122	0x3fc63d1b80e942e1	0.17373985094538738
123	0xbfc8649268bfc9fb	-0.19056921114641043
124	0xbfb0ff464c942d2f	-0.06639518136596644
125	0x3fa89c695a4ce221	0.04806832530306716
126	0x3fa2a3407fa8d6bd	0.03640176351875144
127	0xbfa113578ca18507	-0.03335069266973716
128	0xbfb49480430f9ecf	-0.080390945789641
129	0xbfc00e8ebc2f871e	-0.1254442614436408
130	0x3fb8a3ac46237b1c	0.09624745094650361
131	0x3fb448349f300627	0.07922676931777826
132	0x3fc335aa88247e22	0.15007526061616355
133	0x3fa9cd5dbaf92e22	0.050394944261452204
134	0x3fc3f8b48975258f	0.15602738105580413
135	0x3f907b82cade1dc5	0.016096156723077976
136	0xbfc1aa5634681b5e	-0.13801076468390766
137	0x3fbe3f6e7f0dc858	0.11815538980388973
138	0x3fafc04f6c3824ca	0.06201408573185459
139	0xbfcaa7a8e9cc7546	-0.2082415715785066
140	0xbfc17411a7b52dfc	-0.13635464371542116
141	0x3fb35284e89d9668	0.0754778926762697
142	0x3fbf417466162182	0.12209250919671003
143	0x3fb795f9eaa74e84	0.09213220576139675
144	0x3fb088c9d392e807	0.06458722510697622
145	0xbfabc6bd4860010c	-0.05425063618167955
146	0x3fbd410fbd85f1c0	0.11427400948554745
147	0xbfb62ff0ec4f1498	-0.08666902322063874
148	0x3fb05ce9848ebe44	0.06391772733945184
149	0x3f9f1bb9aea1af83	0.030379201205888783
150	0x3fa3c30b98bb39b0	0.03859745253940916
151	0xbfc8c550f6fe61ad	-0.19352161464918308
152	0xbfad5ea08c9f2847	-0.05736257282804096
153	0xbfc7c930b20d4462	-0.18582733816086533
154	0x3fc35cc02328a45e	0.15126802174316628
155	0xbfb2181d53285ad1	-0.07068045883384434
156	0xbfd06d2ea5c73c0f	-0.25666395367892475
157	0x3fbc2f2f93bb9d74	0.11009499890098146
158	0xbfb6c4a27fba964e	-0.08893790834789536
159	0x3fa6187170cc87d7	0.043155236262705614
160	0xbf9e91cedec073e0	-0.029853088708580944
161	0x3fa011b86a2c4311	0.03138519569450272
162	0xbfa5ed50ba902564	-0.04282619740849716
163	0xbf822275daadbc40	-0.008854790435831927
164	0xbfa001e91b171858	-0.031264576489363705
165	0x3f967dbc64fe2eb8	0.021964019455068068
166	0xbfcf19471297283b	-0.24295891196953953
167	0x3fa3843cf34d7acb	0.038118271541625136
168	0xbfceddbebba2ef3a	-0.24114212190567647
169	0xbfad526f4da0f076	-0.057269552446514035
170	0x3fa1938dc1d4926a	0.03432887068837405
171	0xbfb1910c7018c607	-0.0686195157693633
172	0xbfa838d97a0811f5	-0.04730872740404727
173	0xbfb52c037c7e9fa6	-0.08270284451884766
174	0xbfcbefc4fb5db469	-0.21825468324405797
175	0x3f5187c307093852	0.0010699657979276367
176	0xbfa5b1715d8ef48c	-0.042369406386094516
177	0xbfbe1d3c1a3ec5db	-0.11763358727218735
178	0xbfc4a7a48cd36c43	-0.16136605144751756
179	0xbfb3b0a5d10547c4	-0.0769141803077949
180	0x3fc2b48dfffe8051	0.14613509177888998
181	0xbf8be9bbab2b567a	-0.013629404221698883
182	0xbfc46e1c8b1bf188	-0.15961033623160525
183	0x3fbbf319cbf90581	0.10917817334941128
184	0x3fae68e5d477ce15	0.05939405649760602
185	0xbf9c1677bfee47c0	-0.027429457749867714
186	0x3fa01473edc53336	0.031406042837807055
187	0x3fc066a43baeed0d	0.12813237108444078
188	0xbfc433123d98510b	-0.15780857093398767
189	0xbfb1bd7ca59ae5cf	-0.06929759066669948
190	0xbfbeffc84283621d	-0.12109042762620743
191	0x3f7c22b319545b41	0.0068690296223142275
192	0xbf757cda5926f735	-0.005246022150854836
193	0xbfc6cc354ffe8278	-0.17810694128003823
194	0xbf91980152ea0f49	-0.017181416211783405
195	0x3f94d30481dfd260	0.02033621828737109
196	0xbfb548b48e99ec3e	-0.08314064485050296
197	0x3fb51733e2d97baf	0.08238529480284627
198	0xbfaf0f90967ca648	-0.0606656249713749
199	0x3fb8923d1a924669	0.09598142527308941
200	0x3fca4a414af3ef56	0.20539108428772107
201	0xbfb856b1709cd8b3	-0.09507283210118338
202	0xbfa74420cd09e405	-0.04544165137208015
203	0x3fc094c02feb1797	0.12953951205980438
204	0xbfc4f6df013f9ce2	-0.16378390847169216
205	0xbfb5300aaf7e91e0	-0.08276430878192498
206	0x3fc0a70f63cb727c	0.13009827015675401
207	0xbfcc03dfc9d2ffbb	-0.21886823038766842
208	0xbf9fba1dc725cc66	-0.03098341491699976
209	0xbf48b0995c970a39	-0.000753474124558124
210	0xbf9db9825f8cc56a	-0.029027974206831265
211	0x3fb009af74345a35	0.06264778697036706
212	0xbfc6d74c1bd5dada	-0.1784453521647354
213	0x3fc9aab45b9d69a0	0.20052198861487813
214	0xbfa6eeda4864fee3	-0.044791051232548694
215	0xbfaef222bca4641a	-0.06044109871636057
216	0x3fc86e762f597887	0.19087102233874395
217	0x3fa0fadc7f18493f	0.03316391993952771
218	0xbf7a154942875ca4	-0.006367956324957156
219	0xbfa1e803965185b0	-0.03497325143758745
220	0xbfb827bd4dffeaed	-0.09435637621201538
221	0xbfbb47abe535afd6	-0.1065623697847394
222	0xbfc3181af314be34	-0.1491731345099524
223	0xbfb4d3df5c0d7fd5	-0.08135791776066921
224	0x3f930593920d94ad	0.018575959958430022
225	0xbfc1558f3c488453	-0.13542356914061546
226	0x3fcc8e9d06d781fb	0.22310221513818349
227	0x3fb2de6f527ad445	0.07370658649127033
228	0x3fc3039dacda7913	0.14854784908397586
229	0x3fc3033c9845030e	0.1485362761977957
230	0x3f7ba3d309eefa0d	0.006748031969378687
231	0xbfc46caab8be502a	-0.15956625004457808
232	0xbfac0892067add6c	-0.054752887049683036
233	0xbfaa6fecd19f2e44	-0.05163517054424152
234	0x3fb1db1c0098442a	0.06974959387322657
235	0x3fbf9acb27ea47be	0.12345571255198615
236	0x3fb30ca9ca8068f6	0.07441197580229528
237	0x3fd0ed77fd82f283	0.264493939943158
238	0x3fbc56945a19e6da	0.1106960983251172
239	0xbf7936b47552f7ae	-0.006155686297629899
240	0xbf9c6a6be8256a91	-0.0277497158470888
241	0x3fbb529edab0329c	0.1067294391543307
242	0x3f737b86b6ecbb2e	0.004756475666723143
243	0x3fba29aedd264e53	0.10219853305016473
244	0xbfb34734b13d90ca	-0.07530526473198332
245	0xbfc42cdb8674b5bc	-0.1576189428828182
246	0x3fce5cf06c2a8494	0.2372112777857508
247	0x3fa310050fad1824	0.03723159614905594
248	0x3fc052c6613e5b01	0.1275260901281499
249	0xbf915afb9f152dea	-0.016948634705199618
250	0x3fc52266814d1b62	0.165112317214347
251	0xbfaba3ae7fd003dc	-0.053983166792029386
252	0xbfb0820831f40351	-0.06448413104591323
253	0x3fbd24ae04708e89	0.11384093864813329
254	0xbfc00688ff484766	-0.12519943680723172
255	0x3fbe816d472eb4ba	0.11916239726879754

block.4.bias f8 [60]
0	0x3fc234a6d084780a	0.14223179990307272
1	0xbfb59aa5254936e5	-0.08439094696333489
2	0x3f7ca775321a898c	0.006995637698908996
3	0x3fbc5a2f5702a2de	0.11075111269259305
4	0xbfa7131e9f309ca4	-0.045067746097907674
5	0xbfa2861693fd3e7f	-0.03617926174649443
6	0x3fb12eb12e550656	0.06711871510653941
7	0xbfb8787e289e93bf	-0.09558857433019251
8	0x3fc229ea60479cdc	0.14190416051062626
9	0xbfc3184e93776c02	-0.14917928886902138
10	0xbf8aaa1537fa2217	-0.013019719858918184
11	0x3fc1c3929dd8f710	0.13878090579412872
12	0x3fc2a56f44e58ec5	0.14567366470429569
13	0x3fae024aac5064f3	0.058611234220913654
14	0xbfbc613b7d763c9b	-0.1108586484244704
15	0xbf909c94e4bde468	-0.016222311459817368
16	0x3f8ab0fb8cdff2c5	0.013032880055101068
17	0x3fba8c2d3c64f063	0.10370142673940701
18	0x3fc5d469698951b9	0.17054479268212022
19	0xbf98abb75eb69e85	-0.024092545657963278
20	0x3fafe0185b127578	0.06225658523292571
21	0x3fbe5674ba7dca55	0.11850671341907433
22	0xbf4bebf61c17259e	-0.0008521033961922835
23	0xbfa32f4d3e41e288	-0.037470258569503534
24	0xbf6c9a0781d4f2a5	-0.0034914156555301995
25	0x3fbc8437c1d53d37	0.11139248354196672
26	0x3fc009afa7f4cd95	0.12529559803952553
27	0xbfa871c25cae98ef	-0.047742914022181775
28	0xbfab7ff12d00d175	-0.05371049570422574
29	0xbfbf61043a89cda1	-0.12257410458715025
30	0xbfbabef1bd7ff076	-0.10447607876261764
31	0x3fb5a3f67231319c	0.08453312194723711
32	0x3fc1a194517f3f33	0.1377435110030035
33	0xbfb243916aa14c38	-0.07134350636742759
34	0x3fb548b6512e2722	0.08314074975910704
35	0x3fc185de1097fd56	0.13689781007995333
36	0x3fb11ffa0f133ad0	0.06689417713208035
37	0x3fa53c88e506d473	0.041477468449934295
38	0xbfc01766450cfd4e	-0.12571409579866571
39	0xbfb09ea0624b14e6	-0.06492044830072849
40	0xbfb3735494ea57df	-0.07597855220441783
41	0x3fc44221fde67031	0.1582682122942756
42	0x3fc2dbffb971c1b1	0.14733883433247066
43	0x3f90c6c5bed653a0	0.016383256695536752
44	0x3fac85bcfe5b8713	0.05570784192037883
45	0x3fbb73bd85884201	0.10723480711045143
46	0x3fc1f1f7b752dd47	0.14019676638938902
47	0x3fc1404481328599	0.13477379139389425
48	0x3fbb222068295e10	0.10598948042876821
49	0x3f950113af25b853	0.020511920514245507
50	0xbfbfdcf0247bef47	-0.1244649972031172
51	0x3fbb986d14509c54	0.10779458757370836
52	0x3fb630c7717cb723	0.08668180962260101
53	0xbfc6d5b64b9d1a41	-0.17839697544168767
54	0xbfb83846f35039d5	-0.09460872116344572
55	0x3f989ed6a4f74199	0.024043420618740183
56	0x3fc2079b22349115	0.14085711641485746
57	0xbf9ae940f4ac3800	-0.026280417379034304
58	0x3f18fe52b78379eb	9.534244407258918e-05
59	0x3faf40efee7a0ef9	0.06104230676740303
