JupyterLab/best_model_M2_103.pt (torch, 127885 bytes, 12 tensors)

block.0.weight f8 [60, 12]
0	0xbfd24be392d5a09c	-0.28588189448647383
1	0x3fda55707fc993dc	0.4114648101734113
2	0xbfcf2a2092e82f64	-0.24347312138740584
3	0xbfe1bc41f9eef3dc	-0.5542306787025342
4	0xbfdf3a094ff5bdc5	-0.4879172592981969
5	0x3fc06acdf2039291	0.12825941388213782
6	0xbfe2e861dd6acfa6	-0.5908669781260769
7	0x3fadad1cfd40fdfe	0.05796137420156454
8	0x3fd71608912fdba3	0.36071981600201236
9	0xbfc6067b77eb7ba6	-0.17207282405339902
10	0x3fbd006b0ebfd575	0.11328763113109182
11	0x3fca30da5b426eb5	0.20461587387113914
12	0x3fdf38f8f89db9f3	0.48785232809942086
13	0xbfa599b27913e4af	-0.042188241271966624
14	0xbfdbc7013771ea29	-0.4340212861494899
15	0x3fcd659d0c6dc3b2	0.22966349703668026
16	0x3fb18ebc67bbca42	0.06858422787244314
17	0x3fb550a7670a768c	0.0832619310917499
18	0x3fe27475dc4edd2a	0.5767163565532532
19	0x3fbb429d08c6343c	0.10648519005026541
20	0x3fd573a1169b4c70	0.33518244941405495
21	0x3fc756218fdde51c	0.18231601261849384
22	0xbfe0b1ef20e57752	-0.5217204706675409
23	0xbf913056c66d4eab	-0.016785961018583134
24	0x3fc15ba97522ac18	0.13560980052474814
25	0x3feadc3aac871ca5	0.8393834466632099
26	0x3f9679a0dc5192c8	0.021948350379164677
27	0xbfcbc6648c38ffaa	-0.2169919666939653
28	0x3fd4841d4319d904	0.3205636172564399
29	0xbfb25d8dab61bf52	-0.07174001154066659
30	0x3fa7a84bb48ab0cd	0.0462058694732562
31	0xbfdc528e23279cfa	-0.4425387709911345
32	0xbfc140f7a16ff04b	-0.1347951448696015
33	0x3fd41f97a319d904	0.31442824294880745
34	0xbfd52061e711d996	-0.3301014668026253
35	0xbfd65c4254430ef9	-0.3493810484762743
36	0x3fc801f5c6d5eec8	0.18755981644414121
37	0x3fe14f3fe37119ab	0.5409240190718284
38	0xbfc0ad77fc3f8679	-0.13029384438327776
39	0x3fca40009fc66b96	0.20507819940106903
40	0xbfa195bbbc58c8c2	-0.03434549974589764
41	0x3fca7f5bc209a314	0.2070116708230435
42	0x3fc422deeed5eeaf	0.15731417333505734
43	0x3fdf06c605ed6d4e	0.4847884233365293
44	0xbfd4dd532e63df75	-0.3260086014774893
45	0xbfb511cd2c2c64b7	-0.08230287865116535
46	0xbfe0e1df86a8c666	-0.527572405821229
47	0x3fcea3a34a79c00f	0.23936883102896941
48	0x3fdb7a8c937abdeb	0.429354805014525
49	0xbfdb585c8ee304e0	-0.4272681613329734
50	0x3fe41e96bea3b6c2	0.6287339900424842
51	0x3fd3131c7a61528a	0.29804145766437584
52	0xbf7db454f36abb6d	-0.007252055968520616
53	0xbfe13680971668bb	-0.5379031134537152
54	0x3fd92418137abdef	0.3928280058125599
55	0xbf9cbf96e98acab4	-0.02807460594585605
56	0x3fb76e8a9b3a9487	0.09153047837988214
57	0x3f930f920325510c	0.01861408371162647
58	0x3fdf7ab246e2d996	0.4918637935874356
59	0x3fbfe9736580a77a	0.124655926018617
60	0xbfdc4af7d464949d	-0.4420756887578337
61	0x3fb7796ce1cb3895	0.09169655334992151
62	0xbfc95212f640915e	-0.1978172018435868
63	0x3fd8277f93ce6eba	0.3774107879087115
64	0xbfc7b6d41c6e3998	-0.18526698482714887
65	0xbfd70551516dc71b	-0.3596995635226549
66	0xbfd6db1d9464949e	-0.35712375155919485
67	0x3fbd3e75277e48da	0.11423427786056398
68	0x3fcc38d78e1dab4e	0.2204846805501241
69	0x3fce56d4e391c645	0.23702489005840924
70	0xbfc012a32ed9d863	-0.12556876933712421
71	0xbfddcd4043b0bb52	-0.46565252886187125
72	0xbfc47b75c1d6e4e3	-0.16001769985977096
73	0x3fd45e4b3134c99d	0.31825523190777877
74	0xbfc027bf8af0681b	-0.12621301921973402
75	0x3fcb0f3b412103d8	0.21140232734799613
76	0x3fcbca9a283b6238	0.21712042774631057
77	0xbfd1823e1e13bd10	-0.2735743802758899
78	0x3fbab5708c523671	0.10433104921158944
79	0x3f886767f3aafaf2	0.011915981410650176
80	0xbfc9e2657effb15e	-0.2022215719329194
81	0x3fd690eeb41db0e5	0.3525959738679048
82	0x3fecad0b51f68e6d	0.8961235619394309
83	0xbfd165a464aec0e2	-0.27182874519622946
84	0xbfd4f30c0b2ada30	-0.3273344143921433
85	0xbfc1939af7f30a00	-0.13731705767538926
86	0xbfc31ec45f644e35	-0.14937643678477888
87	0x3fca7cfd2beeaed0	0.2069393600953533
88	0x3fd804f0425406f0	0.3753014228569631
89	0x3fcab7d2eebeb4f8	0.2087348619219609
90	0x3fb2f0b11354984d	0.07398516389784611
91	0xbfd40f398d4819ab	-0.31342924878154105
92	0x3feb6a20b9949303	0.8567050575844352
93	0x3fc89b9844a80e96	0.19224837639204811
94	0xbfd92e435feafb73	-0.39344868056280474
95	0x3fa0cea0da9e743c	0.032826449095616245
96	0x3fb1dc731c81e6c8	0.06977004476530191
97	0x3fc7864327823d1f	0.18378486088884302
98	0xbfe6549d1a30dd9b	-0.6978288184681561
99	0x3fe1a9fe30a61c8e	0.5520010900662713
100	0xbfdfa930c85dacdc	-0.4947015721033503
101	0xbfa0cfbaba9bb7c0	-0.032834849623994966
102	0x3fdf9f6017207991	0.49410249956590585
103	0x3fe28e6fe4977109	0.5798873390845368
104	0xbfdb95cd102184fd	-0.4310181291130702
105	0xbfdabba1585dace3	-0.4177020419071608
106	0x3fcd3d838f4ece03	0.2284397554154652
107	0xbfdde2a8ddc2235e	-0.46695920616234854
108	0xbfc8c108e564ee93	-0.1933909530724703
109	0x3fdcebe69653e826	0.4518982379955808
110	0x3fde7c04d41294d2	0.4763195105573007
111	0xbfe32d026b43b022	-0.5992443175323425
112	0xbfaed7b1bd2ca49f	-0.06023936685807851
113	0x3fd846f2d4fc7996	0.3793303565925269
114	0x3fa6bcbaa26c4710	0.044408638312360194
115	0xbfd88dbfdec35799	-0.38365170244412067
116	0xbfecb15cd5816bcb	-0.8966507120161337
117	0xbfc4390a8f4b28d1	-0.15799076077229882
118	0xbf96ecc545b08aee	-0.022387583139912452
119	0xbf84e5f2b58382a9	-0.010204216160162831
120	0xbfe34574630d13c9	-0.6022283491698711
121	0xbfcc083d760a44d6	-0.2190014673583735
122	0x3fe3c1b58183a6f5	0.6173961190772547
123	0x3fc07de14659d5fc	0.12884155211547454
124	0xbfbd5aa9c14d1562	-0.11466465920701333
125	0xbfc0aa30f982f31c	-0.130193826515005
126	0xbfe28736bb0d13b8	-0.5790055898038338
127	0x3f7588fe47ccc38f	0.005257600100592521
128	0x3f6e31766ab6e1ee	0.003685694964328904
129	0x3fd8659f6facba37	0.38120256334051156
130	0x3fc04ef62dd2835b	0.12740971791665853
131	0x3fc8ea5aa3c79215	0.19465191838311627
132	0xbfe7bafe1596c9b9	-0.7415762349758587
133	0x3fc77b3655ed0072	0.18344763942332382
134	0xbfdbe56ddc4622a1	-0.4358782435524891
135	0x3fcd257fcca3d2fb	0.22770688526329494
136	0x3fc72c8e735b4f77	0.18104725487375692
137	0xbfb05427471caf45	-0.06378407941946047
138	0xbfe89e8d2596c9ba	-0.7693544134293042
139	0x3fe2028aca960dd3	0.5628103214989387
140	0xbfbb9098a76ded11	-0.1076751145137005
141	0x3fc3dfff335b4f73	0.15527334220552866
142	0xbf98b4cb2b63c87c	-0.02412717296915233
143	0xbfc13efa8cc9e0a5	-0.13473445772593098
144	0xbfc9783657b76a73	-0.19898108752279917
145	0x3fc8a2bc6650e27c	0.19246630664726527
146	0xbfbb6632afde711d	-0.10702816766428609
147	0x3fd8043a93f873ac	0.3752581067108689
148	0xbfc1d171ff1db1b1	-0.13920426327548577
149	0x3fc284d96f968ab7	0.14467924069056945
150	0xbfccbb25b7b76a81	-0.22446128340273577
151	0x3f826d1a2a4e21a7	0.00899715844731548
152	0x3fab76efec9a3615	0.05364179385388127
153	0xbfd10469df8ed8f6	-0.265894382780416
154	0x3fc1130c284d006b	0.13339378326236626
155	0xbfd5488d65944ade	-0.33255324287271815
156	0xbfce79ecc864d212	-0.23809585366110803
157	0x3fdd4f37488d5a52	0.4579599579350645
158	0x3fc06207147defe9	0.12799156666358094
159	0xbfdbaeb080995a9b	-0.43253719862460976
160	0xbfc52a558fd5adc0	-0.1653544380491052
161	0x3fc1e7a88dba7d86	0.13988215370498497
162	0xbfbce0a5d0c9a64b	-0.11280285212856105
163	0xbfd4344b2facf676	-0.3156917539198284
164	0x3fd669fd4bd06143	0.35021908191403756
165	0x3fc28ae9f02a523c	0.14486431338140615
166	0xbf86e318fbcfc499	-0.01117534178226469
167	0xbfdc14f629122193	-0.4387793923456453
168	0xbfc22374d6fd0c49	-0.14170704362376998
169	0xbfcae3447eaa657f	-0.21006065544933603
170	0x3fe01874646fd8bd	0.5029851876886579
171	0xbfa1777b4c530393	-0.034114697520187275
172	0x3fce65940ea50efa	0.2374749251849762
173	0x3fcd9fd3d37627ba	0.23144004655142486
174	0x3fbae7ff2a05e74e	0.10510248924211149
175	0xbfba0d675be722fd	-0.10176702493403052
176	0xbfd7db533fdae87e	-0.3727615474305209
177	0x3fca327e2ea50ed3	0.2046659209973912
178	0xbfe1799641b897b7	-0.5460921558012534
179	0xbfe2bbb80e6f65e3	-0.5854149133621686
180	0xbfd7b20f8e27932a	-0.3702429664829646
181	0xbfe118918c415ee5	-0.5342490901338947
182	0xbfc5cda517e70900	-0.170338284178861
183	0xbfa19a9dc7dc6da4	-0.03438275398931559
184	0xbfcc1e0e610b5fe8	-0.21966724146363892
185	0xbfc01b1603e02a4e	-0.1258265990184832
186	0xbfe15d9bf313c959	-0.5426769015887586
187	0xbfba2c41fa8997bf	-0.1022378193534612
188	0xbfd4d712129392c3	-0.32562686742884867
189	0xbfc03e0d110b5f58	-0.12689364750144239
190	0xbfc891390d100df2	-0.19193184984042905
191	0xbfe050aa22a5845c	-0.5098467518511245
192	0x3fc1503427624a87	0.13526012347263736
193	0xbfd971b9878eb14f	-0.39756620634104406
194	0x3f70e75fe5bbac48	0.004126906012724758
195	0xbfcce40eadb93d0a	-0.22570975763890316
196	0xbfced44b0f92c9b2	-0.2408536745111412
197	0xbfddfe9cbc50554c	-0.4686652983667343
198	0x3fc0a80087624a69	0.13012701616806346
199	0xbfcce38a31487abb	-0.22569396406557538
200	0xbfdd8d964f769e3c	-0.4617667938241288
201	0xbfd20f7467c9653c	-0.28219328055782333
202	0x3fed045c2d71cade	0.9067822349155354
203	0xbfb24e318c7dd29e	-0.0715056388851942
204	0x3fea88b01145f0a5	0.8291855180136919
205	0x3fd7e65fdf7ce404	0.37343594384179846
206	0x3f879cbea255880c	0.011529435471576498
207	0x3fc27e416eafd081	0.14447801499011706
208	0xbfcabad6fa433e01	-0.20882689685684855
209	0xbfd5f140b00b72bd	-0.34284989539973393
210	0x3fe71f36b945f07b	0.7225602739922715
211	0x3fa98faca603aab1	0.04992427374403031
212	0x3fdd5b806a5614d3	0.45870981583023
213	0xbfcbb6cdba433e01	-0.2165162238584202
214	0x3fc9aae540c95206	0.2005278173770792
215	0xbfd6e80a90f2f346	-0.35791267543008976
216	0xbfa5f7944b44af98	-0.042904504955316
217	0xbfb2935f2901331b	-0.07256121398058861
218	0x3fba4b9c03d6b4fc	0.10271620839803924
219	0x3fd9aea24abde3bc	0.40128381060599927
220	0xbfdbae5f419bb183	-0.4325178280548913
221	0xbfa4e17e7177d45e	-0.04078288207157564
222	0xbfc3572f6ad12ba5	-0.15109818187405924
223	0xbf9638e0da6075cd	-0.021701348618185002
224	0x3fe4e9c28fe241b4	0.6535351572256816
225	0xbfc95a8d0f376218	-0.19807589762673738
226	0x3fd10fd4cfcfbf05	0.26659126562206864
227	0x3fcd2235cec40bac	0.22760651203142623
228	0xbf92f068a57a9c29	-0.018495211696656497
229	0x3fe34f58a5dcc305	0.603435825300125
230	0xbfbd8a721646f5e7	-0.1153937630069418
231	0xbfa8c3dda15886af	-0.04836933702996526
232	0x3fc53471cbe029ed	0.1656629796492121
233	0xbfee44e10a19019a	-0.9459080884189917
234	0xbfd35e418a57a973	-0.3026279307365691
235	0xbfc0e63bfd66011d	-0.13202619431468401
236	0xbfbea2503f479e21	-0.11966420693317349
237	0xbfca9732341fd614	-0.20773913903364927
238	0x3fe2065528f42f49	0.5632730293159308
239	0x3fc21441740ca833	0.14124315420605313
240	0x3fc45ef41322a495	0.15914774832097991
241	0xbfc7704154b2a65e	-0.18311325679433116
242	0xbfe1ffebeef7d3a7	-0.5624904315324003
243	0xbfe13f6e0199e56f	-0.5389928847572899
244	0xbfcaab374e289e8f	-0.2083500987657669
245	0xbfc1fb2373cb92cd	-0.14047663835585525
246	0x3f9743a7b9152650	0.022719021483942392
247	0xbfd54b2f8ca7f060	-0.3327139733880866
248	0xbfda5fe4b92d76c8	-0.4121028717398585
249	0x3fbfa225e3aec294	0.12356793221148116
250	0x3fb45cdf9770ef17	0.07954213568967493
251	0xbfe9393d00a00556	-0.7882370960434553
252	0xbfd0e48a3083a1e6	-0.26394896257127554
253	0x3fc17b5418745556	0.13657618707717728
254	0x3f90f095e476cf0d	0.016542760915128563
255	0xbfe8d9aaf6001d60	-0.7765707783409361

block.0.bias f8 [60]
0	0xbfd65f569ede3fa8	-0.34956899179905543
1	0x3fd2a9c19b9147fe	0.29161110107554566
2	0xbfa3a470b24d755e	-0.03836395432038374
3	0x3f8474e579113021	0.00998858714788048
4	0xbfa366579413f0c2	-0.03789018328277073
5	0x3fab246b519d15a7	0.05301223155269535
6	0xbfc47fb9d0ba5f24	-0.1601478833369977
7	0xbfb1ea0329b807e0	-0.06997699516799072
8	0x3fcb3b3b1efef593	0.21274508489106533
9	0xbfc27c806a3ec2c1	-0.1444244879508201
10	0xbfdbcaa61825fc1c	-0.43424370153656056
11	0xbfdc35f44c99bd45	-0.4407931087543669
12	0x3fd45ea670c9ff8c	0.3182769872146245
13	0x3fd10cf78b19d67e	0.26641644081187354
14	0x3fa512192d2b976e	0.041153704418134804
15	0xbf8282b1d9ad5802	-0.009038342910269396
16	0x3f898d2f38149be4	0.01247631921667209
17	0x3fddc981bdf30a10	0.46542399930709255
18	0xbfa95cb92ce27d61	-0.0495355479517865
19	0xbfc314e74f045a84	-0.14907542570354704
20	0x3f7cc8cf44eb6471	0.007027444501283773
21	0x3f9761485d450b1f	0.022832041447382708
22	0xbf89140eca9980cf	-0.012245288427209648
23	0xbfc7eaab9cb5ced2	-0.18684907104363063
24	0xbf66f71b30322e21	-0.0028033762951673734
25	0x3f6f93f92328572e	0.0038547388042030816
26	0xbf9a44362e51ed4b	-0.025650831772947396
27	0x3fc8a3f4a96eec8c	0.19250353119955255
28	0xbfddcf5b103432df	-0.46578098852550726
29	0x3fd01ef0e59fc359	0.25188848900056865
30	0xbf7807158fbb9e29	-0.005866131042899827
31	0x3fc6ba9c77705cf5	0.17756992179850042
32	0x3fd51b2cada51b0e	0.32978360135568685
33	0xbfa96ab38481833a	-0.04964219086173789
34	0x3f79ff8c77a8e3a1	0.006347225857603529
35	0xbfc9fd1d8a59bea3	-0.20303696875952423
36	0xbfc3319fa1874d32	-0.1499518908227429
37	0xbf83200d4c50d46a	-0.009338477984878153
38	0x3fabcf4354c8bd08	0.054315666293741016
39	0xbfcdcb67fab444f3	-0.23276996365942856
40	0xbfb30b972c288a30	-0.07439560726246763
41	0xbfdbfb88ba740797	-0.4372274227936201
42	0xbf9bd2dc6b9b7bf5	-0.02717155844481663
43	0x3f8c724910acd00d	0.013889857121832017
44	0xbfc75efeefd5d8b8	-0.1825865431853282
45	0x3f5816ecc8a08992	0.0014703094807449785
46	0x3f89f79acffcf3cc	0.012679299804966869
47	0x3f9355b8cb7c28a0	0.018881690425623376
48	0x3fd3870cbbae1d36	0.3051177819074441
49	0x3fa3d4a9727bed95	0.03873185656081116
50	0xbfcbfbc02a79fc66	-0.21862032007263393
51	0x3fc2295696e8b07f	0.14188654297447909
52	0x3fa542fe7ffbec11	0.04152674972825577
53	0xbfb59eec1be162fa	-0.08445621185945731
54	0x3fa61df9a68a464a	0.0431974426075042
55	0x3fc590d6a8fb8250	0.1684826207265524
56	0x3fd343e892d2d7b9	0.3010198053192386
57	0x3fb7707d95f81b3e	0.0915602198730143
58	0xbfa0f26a12044858	-0.033099474620158886
59	0x3fcadb5642610ffe	0.20981863251847693

block.2.weight f8 [60, 60]
0	0xbfceb3b963c43e51	-0.23985974666037405
1	0xbf9c01a10174eb81	-0.02734996386901001
2	0xbfd3391f45bdbe37	-0.3003614598337409
3	0xbfbfb503bd786f55	-0.12385581374877337
4	0xbf9e971a6592e586	-0.02987328762967458
5	0x3f832cf8c3f604c6	0.009363120537047808
6	0xbfc57fb1677c7f9e	-0.16795938065569954
7	0x3fe574a6cab1230d	0.6704896887614226
8	0x3fd2767acc4fae4f	0.288481425783833
9	0xbfea90ff7697e072	-0.8301999393725181
10	0xbfe046e5521fd017	-0.5086542705525997
11	0xbfcc4d063512667f	-0.22110059348488062
12	0x3fbf5b5881203e44	0.12248757507790581
13	0xbfd13ff835338c86	-0.2695293921989975
14	0x3f8f89469e2ae150	0.015398551656617215
15	0xbfa362fa7d16872c	-0.03786452080681921
16	0x3f9de25758b9a204	0.029183735647537304
17	0x3fc345c91380340c	0.15056718303858962
18	0x3fa4c8bf32785a43	0.04059407702532216
19	0xbfcd2a716bd89364	-0.22785775915067596
20	0xbf9a78353de6d68a	-0.025849182036572084
21	0xbfe82f075a14f082	-0.7557408103380256
22	0xbfb151e10f5b2e97	-0.06765562653452616
23	0xbfe006f3ac80c5bb	-0.5008486146163514
24	0xbfd317b2020a4314	-0.29832124900080825
25	0x3faf04ff88a6500a	0.06058500807844787
26	0x3fb788ba56bbe694	0.09193005197075826
27	0xbfbf417ebeeba257	-0.1220931259264345
28	0x3fc23df8ff01b1e8	0.14251625491614495
29	0x3fd201643e5729ae	0.28133493507325624
30	0x3fc2d021afc548a3	0.14697667200613748
31	0x3f8575c24ba093a7	0.010478513653717615
32	0xbfd91bb871809a51	-0.3923169239446099
33	0xbfae7f3d237cada9	-0.05956450517836782
34	0x3fe059b8d06db0a7	0.5109523840779006
35	0x3fb1452e58b84269	0.06746186891565177
36	0xbfc7b2218f1809f3	-0.1851236294460957
37	0x3fd1539886cb7c01	0.27072728313027034
38	0x3fc7222e35013f47	0.18073060596588617
39	0xbfa2847d6a1d3c46	-0.036167067721742316
40	0xbf9c1e2334f800ac	-0.02745871554179817
41	0xbfc4f95ff9c17a5c	-0.16386031813722723
42	0xbfcad427dae935bd	-0.20959947766315948
43	0x3fd74240d5643f9c	0.3634187778379727
44	0x3f9735d4b0407380	0.02266628576045404
45	0xbfa8eca96e161a41	-0.048680586517595
46	0xbfca2f32d4345277	-0.20456538545171885
47	0xbfbc2db9d5f86ef6	-0.11007272218597194
48	0x3fd73f55aa92c21a	0.3632406392817146
49	0x3fcd12694d570487	0.2271243693958562
50	0xbfd55aa18a83452f	-0.33365667845380903
51	0xbf8d596a2583ebb1	-0.014330701131702957
52	0xbfc31c9b49502b1c	-0.1493105037664798
53	0x3fd39962d6af2c09	0.306236943867305
54	0xbfd33520aaaff7a3	-0.30011765164078436
55	0x3fc0b25a1be1c41a	0.13044287072583033
56	0xbfd1a6d7ee1c795b	-0.27580831769036757
57	0xbfce04f2179f76d1	-0.23452592996084445
58	0x3fc2d7230cb84849	0.1471904575451524
59	0x3fb927e81eb79c6f	0.098265178202938
60	0x3fcd3028204f345c	0.22803212716681542
61	0x3fa4f36c55368671	0.04091967144200915
62	0x3fd522fe20f899f5	0.3302607843383208
63	0x3f9c2a336404cd88	0.02750473306623527
64	0x3f91bf9ae8f0dc96	0.01733247801550116
65	0xbfce0414f179a5bf	-0.23449956694393667
66	0xbfe1ef3c94a6a1d7	-0.560453691800883
67	0xbfd75b252f47b9da	-0.36493806473927537
68	0x3fc93dcc65f8e378	0.197198438445209
69	0xbfc98902d16bbbae	-0.19949374414087856
70	0x3fd293ed40a67627	0.2902787333822254
71	0xbfc4a36737ea6ab9	-0.16123666982897136
72	0xbfd5244290a93455	-0.33033813597723355
73	0xbfc8601687d6acca	-0.19043237335913538
74	0x3fc7c137af56812d	0.1855840307371265
75	0x3fb12d92b3e07c61	0.06710163966680362
76	0x3f994051607c6bc0	0.024659415735282186
77	0xbfcaa97161578e1a	-0.20829598668125088
78	0xbfc8c7ee33bd77ad	-0.19360139395115308
79	0x3fdecf005e4b968c	0.4813843651630598
80	0xbfd1ff369be82a59	-0.28120198464663343
81	0xbf612c1f34e889aa	-0.00209623427441948
82	0x3f77e3060fb0e025	0.00583174102489895
83	0x3fd3ffa1c7e99e0d	0.3124775364180728
84	0x3fc17fb135c17ca5	0.13670935749812432
85	0x3fa23f962a9b1ad3	0.03564137716380391
86	0x3fb432a9adaa6f99	0.07889805307280397
87	0x3fc874e5cebc85b1	0.19106743425895226
88	0x3fbc2a0058135bc6	0.11001588964732809
89	0x3fc1e66269d97ddf	0.1398432747691762
90	0x3fbf50b47fb8df7c	0.12232521169869232
91	0xbfc64bc26f05d650	-0.17418699666056847
92	0x3fcc46eed3f3cc1f	0.2209147009776595
93	0xbfd10c003bc4b151	-0.26635747753859557
94	0x3fc4436185bc4695	0.15830630331088416
95	0x3fd75e468e5569aa	0.3651291265465725
96	0x3fb48391719a3182	0.08013257049078074
97	0xbfc9587c6a9c1ca8	-0.1980128784709667
98	0x3fb9bf8d488b07ee	0.10057909985610511
99	0xbfca52afa3c9e9d0	-0.20564837930198943
100	0xbfe26d3dd950d2e3	-0.5758351559112181
101	0xbfda5c9aa3608109	-0.41190210299284097
102	0x3fd0b8d12bfd1b09	0.26128033920069577
103	0x3fb4917a4ffd09b1	0.08034481480448254
104	0x3f91f4d410932a8c	0.01753550864376989
105	0xbf8c37fa7ecb6496	-0.013778645510159653
106	0xbf914a17b3b58abf	-0.01688420328481288
107	0x3fc3dab90af63b1b	0.15511239085432113
108	0x3fa7d14d87e61cec	0.046518729056566815
109	0x3f91b9e9091c8db9	0.017310753995060078
110	0xbfaf1c658c588708	-0.060763524419838844
111	0x3fa30f39503b93fd	0.03722552399066357
112	0x3f9d9f873e2bc2bf	0.02892886464082056
113	0xbfc12a1c449909b5	-0.1340976080846993
114	0xbfc63133022a494d	-0.17337644201013305
115	0xbfd44550815b8f06	-0.3167306197412788
116	0x3fd70b6d91de1755	0.36007251019360825
117	0xbfd605669f20cc4c	-0.3440796426759263
118	0xbfcd3968e3113b30	-0.22831450545569387
119	0x3fbd3c8b8b9635d2	0.11420509488944866
120	0x3fc8067ccb9e41d7	0.18769798223776377
121	0xbfcc1cf4dcb0e009	-0.2196336820213676
122	0xbfb51fb8a54fc953	-0.0825152782051977
123	0x3f8c1a9b59dad106	0.013722623519563115
124	0x3fd20156181601cb	0.28133156158585554
125	0x3fd844b3178623f3	0.3791930894590784
126	0xbfbfe40060b11543	-0.12457277641904789
127	0xbfcfa1661da451a7	-0.24711300322873095
128	0x3fe02f8b5ca3c800	0.5058037576075094
129	0xbfbcfcbddf2fe8f0	-0.1132315320864199
130	0x3fd6d595b2882da8	0.35678617892036835
131	0xbfaa78e2bc3dcc6e	-0.05170353458279285
132	0x3fdff8267bc445f9	0.49952089392272075
133	0x3fc25aa94cad2b27	0.1433917641064337
134	0xbfc47a51ebce553b	-0.15998291028942355
135	0x3fc2f9915555c544	0.14824120203733504
136	0xbfcce755e494c942	-0.22580979977790078
137	0x3fb62131012d2db5	0.08644396094057678
138	0xbfe01ed56b825935	-0.5037638759411381
139	0x3fd4cba085796611	0.32492840799895456
140	0xbfd1f3a8f10ea6f3	-0.28049682179208374
141	0xbfc4e9552ff7e5f6	-0.16337075082974167
142	0x3fc8e4cd3071c6bd	0.19448246827555762
143	0x3fcc8b9dd60b4dba	0.22301075888991112
144	0x3fb81fc4cf640966	0.09423475325823957
145	0x3f76db376f40a46b	0.0055801549351964614
146	0xbf8e7e37d979f95e	-0.014889179539065264
147	0xbfd112079289ac43	-0.2667254382165007
148	0x3fd4dc313130e219	0.32593946269801816
149	0x3faf4e3e7ed68a76	0.061143830283317976
150	0x3fb2545c547c3d15	0.07159974157933775
151	0x3fadadd31cb1ac01	0.057966801884354886
152	0x3fd26c6a031239b5	0.2878670721046562
153	0xbfa0e68955f12fa2	-0.033008853665335694
154	0xbfdee91c896026c6	-0.48297799506745454
155	0x3fd884e19903da15	0.38311042731166484
156	0xbfcba23420e67cc2	-0.21588756185972185
157	0xbfd11d769b2ecb14	-0.267423297448816
158	0x3fde22242d70943b	0.4708338207004236
159	0x3fdcc30128119223	0.44940213120415445
160	0x3fcb31c98cadd01b	0.21245688790406878
161	0xbfc16deab4b10e3a	-0.1361668951304738
162	0xbfc56997eb4dbc14	-0.16728495587764824
163	0xbfc670119d9a1c99	-0.17529506869707204
164	0x3fe24a0e5905f1d2	0.5715400446638859
165	0x3faae421c6d4d496	0.05252175857678158
166	0xbfa3edfb473c7277	-0.03892503017980158
167	0x3fb69875560ccdab	0.08826382971601869
168	0xbfd1294ae07ea698	-0.268145293458113
169	0xbfc62786074ed0a7	-0.17308116299466755
170	0xbf24d03ddc9f9c99	-0.00015879397534421662
171	0x3fd1ecc03e5827de	0.2800751313048958
172	0x3f92975ec8e3ff5a	0.0181555566896344
173	0xbfc875ac3dcdca24	-0.19109108941809538
174	0x3fb43d04234fa8b0	0.07905603277291351
175	0xbfc077f1939c47d8	-0.1286603899721388
176	0xbfd467b47acf77e5	-0.3188296508141078
177	0x3fcdaef6b88421a7	0.23190197000100207
178	0x3fd2a2dc762d91f1	0.29119025746174915
179	0xbfcc058b0ab32751	-0.2189191629643639
180	0xbfe1438afcafdfd9	-0.5394949851315644
181	0x3fcf0053db0816c1	0.24219749636556823
182	0x3fe1500ed7d51f70	0.5410227027395944
183	0x3f823c35ea6d91b3	0.008903905121493283
184	0x3fe48b1377787c51	0.6419770558749268
185	0x3fd3bdc300b54853	0.30845713681367676
186	0xbfca4bbf70ccf7fc	-0.20543663986057925
187	0xbfc7380f5bc19e82	-0.18139831524171163
188	0x3fd35ef7563ca0aa	0.3026712743908414
189	0xbfe65058ed034f3b	-0.697308028140902
190	0xbfb3db57441091cb	-0.0775656262563366
191	0xbfdbcd28555db178	-0.4343968232776869
192	0x3fce5a10fa0b9f94	0.2371236058163474
193	0x3fc0fc89a78aa684	0.13270683937780714
194	0x3f776d575fe3aeab	0.005719510371118434
195	0x3fa26c8830d016d1	0.03598428340778315
196	0xbfdd6a9260258732	-0.45962962521854245
197	0x3fbc9264f32f22d9	0.111608800288319
198	0xbfb6e116eec100ed	-0.08937209443047651
199	0xbfd10eef99bc4684	-0.2665366174052013
200	0xbfd79ba38ef13bbc	-0.3688744445725509
201	0xbfd2fee973f987fe	-0.29680858922631603
202	0x3fcaa43c2d92870b	0.20813705659116297
203	0x3fa799aacf3d2465	0.046094262883863014
204	0x3fcf88c761c645e4	0.24636165880342198
205	0xbfb790c4dbe045e0	-0.092052749329262
206	0x3fbcb0ec0315d2b5	0.1120746142895069
207	0x3fd78d40b852a51a	0.3679963874843267
208	0x3fb0e74a2bbacee8	0.06602920119876965
209	0x3fbb408d00692872	0.10645371685055396
210	0xbfd3c121765e36a5	-0.3086627632081707
211	0x3fd650c501436d12	0.34867978213670014
212	0xbfbf1ac444d396c8	-0.12150217705092381
213	0x3fbe2aa6dc36ceed	0.11783831478424718
214	0xbfc176be17838ff6	-0.13643623493328477
215	0x3fb31ce125554f57	0.0746594158311472
216	0xbfd151a3a285becb	-0.27060786124546315
217	0xbfe373d4bba48ad6	-0.607889524926885
218	0xbf9ef9d687de7fa3	-0.030249931376260652
219	0xbfe54252e3616390	-0.6643461648010192
220	0xbfe4adaa471da0df	-0.6461993588427751
221	0x3fb295ee3b3f809d	0.07260025927053211
222	0xbfdeae7186e6ad52	-0.47939718412336163
223	0xbfaf5ccbdd4e791f	-0.061254854931791274
224	0xbfcf4f0aa6fc3d99	-0.2445996585233672
225	0x3fc15e61feacc4cc	0.1356928342370679
226	0x3fd5c9cbd11927dd	0.3404416601157417
227	0xbfe3362895f4c3c7	-0.6003611496763533
228	0xbfcc409ee2e3200c	-0.22072206572033826
229	0x3fc1b6126d744e24	0.13836889595460022
230	0x3fb670b3d990e7dd	0.08765720426245545
231	0xbfe351c5c0b51426	-0.6037319911780556
232	0xbfc66e138dd001b2	-0.17523426460685482
233	0xbfea9555d3f8816a	-0.8307294025471894
234	0xbfe6642a00550f8b	-0.6997270590295427
235	0x3fd651fe6b81e806	0.3487545060994538
236	0xbf5138d3eb1ffede	-0.0010511464611226355
237	0x3fcf90e7102f54fb	0.24660957613256315
238	0x3fb55909b0e83202	0.0833898598577392
239	0xbfcdda65ac800b2f	-0.23322745249614615
240	0xbfe13ea8ca0a165e	-0.5388988443452936
241	0xbfb9d48b33dddab4	-0.10089941040301192
242	0x3fd320470df8c56c	0.29884506573133396
243	0xbfd09caf506ca17a	-0.2595632825273452
244	0x3fe811af1598d4c5	0.7521586820427265
245	0xbfb94d8af950e207	-0.09883946024718436
246	0x3fc6e5001ccbf78d	0.17886353880015485
247	0xbfc045eb92cbb13a	-0.1271337954307315
248	0x3fb14672b533c6a3	0.06748120235331583
249	0xbfa9de953f807139	-0.050526298524547326
250	0xbfa6d3da7fd83f54	-0.04458506403545806
251	0x3fd4732b5aec67aa	0.31952937964671924
252	0xbfae2fb39bfda63c	-0.0589576843183974
253	0xbfccffdc0d58fef3	-0.2265582146810555
254	0x3fac8838012e0b9f	0.055726766723658054
255	0x3fca0a8392b3913c	0.20344586051136015

block.2.bias f8 [60]
0	0xbfa86f8cb343c51d	-0.04772605598726385
1	0x3fd091f01ddd010d	0.2589073459275973
2	0xbfe7f87e05de3810	-0.7490835299120153
3	0x3fd5dc4e2ee4ecc1	0.341571374697832
4	0x3f6a1f0957506a06	0.00318862747600446
5	0x3fc9cbea5c47ce93	0.20153550630458436
6	0xbfceb8390b2c8f20	-0.23999703450783105
7	0x3fbb5919775fc1bb	0.10682830013661875
8	0xbfd2732f024c6f67	-0.28828025078268243
9	0x3fb580e09e159a14	0.08399776324731817
10	0xbfbb8050e50bac2f	-0.10742669670041559
11	0x3fda32e796fe2859	0.40935697312727864
12	0x3fdf6ced1e0e4090	0.4910233300697735
13	0xbfc39e9699e33e68	-0.1532772303967136
14	0x3fcd7101ccfd5700	0.23001120099313965
15	0x3fab7e5b70399f3a	0.05369840378699427
16	0xbfa53cf6d35ace57	-0.04148074464810907
17	0x3fc4cfee39c437b5	0.1625955373823992
18	0x3fd20d5d71c4674b	0.2820657359130691
19	0xbfc06483262acd69	-0.12806739200241715
20	0xbfb8583f6648efa3	-0.09509655234518148
21	0x3faee45df3228e50	0.06033605187374447
22	0xbfcf7ac2bff643ec	-0.24593386052268273
23	0x3fc620c886cf799b	0.17287546713391752
24	0xbfa6e285b6e1fc55	-0.04469697816329502
25	0x3fbe3042b6c2e6e0	0.11792389833399453
26	0x3fa4d9944efbb620	0.040722498551854835
27	0x3fd13ec99d390e0e	0.26945724824710815
28	0x3fcb9512bf43e86c	0.21548685397266654
29	0xbf56cc134f8a2462	-0.0013914288121290798
30	0x3fa8cf5543df81fa	0.04845682576683781
31	0x3fb6677cc045647c	0.08751659101598536
32	0xbfc52c15981727a3	-0.16540784765521463
33	0xbfd014f42cded9c2	-0.2512789190472199
34	0xbfc0ecb8a10a9087	-0.13222415793746142
35	0x3fc57f8d36b983fa	0.16795506641486196
36	0xbfcec3a4a5ce3be5	-0.24034555526711113
37	0x3fd51a49c0b0305f	0.3297294980736804
38	0x3faac98f4258747b	0.05231902775651861
39	0x3fcd85650c71baa6	0.2306333838236771
40	0xbfcaf75da45b2a80	-0.21067400479508436
41	0x3fbc3bec66703f8e	0.11028935910166934
42	0x3fbb18f487c0dc65	0.10584953607836807
43	0xbfe1d9477648bce5	-0.5577733335720977
44	0xbfb11fa5e0054a7c	-0.06688915938620171
45	0x3fb4ebb397933204	0.0817215199524029
46	0x3fcd42b65a83fe57	0.2285983983965589
47	0x3fbaab478b9cf65d	0.10417601736568245
48	0x3fdce8ab3990bfad	0.45170097943900595
49	0x3f7b0e333fd3dba9	0.006605339234048304
50	0x3fb23b23a7e59ca1	0.07121489380880287
51	0xbf98c2f12799d80e	-0.02418114475445781
52	0x3fdbaaad6e98533d	0.43229232597632344
53	0x3fa5a5cb3b7a3777	0.04228053189318264
54	0x3fce01cd41d171dd	0.23442998613144442
55	0xbfc416afc579bf98	-0.15694234030115406
56	0x3f9b0cc2df6f90b9	0.026415867698134508
57	0x3fb743b911d27789	0.09087711987601045
58	0xbfddccaca37ff6d5	-0.46561733214171613
59	0xbf90c619a805af7d	-0.016380692367803363

block.4.weight f8 [60, 60]
0	0xbfc4c6df0858c000	-0.16231906802704543
1	0x3fc0cd3d58b06f53	0.13126341658141402
2	0xbfcc299e1c2ce295	-0.22002006889103556
3	0x3fb6f37d33816a35	0.08965284831484939
4	0xbfa9106cef33bfc4	-0.04895344181011255
5	0xbfc236945fc69e23	-0.14229063679270934
6	0x3f8faa1797c6b6c4	0.015461143798201411
7	0x3fbecb5bc50c2b72	0.12029050408106715
8	0xbfcca60799088bd3	-0.22381682369549924
9	0xbfabd020922f224d	-0.05432225975488745
10	0xbfc9dc38534a0c37	-0.2020330816922937
11	0xbfd04d06d6e47f30	-0.2547013376770222
12	0x3fc9ea81dcce0ce5	0.2024690940998887
13	0xbfbdf302b5943890	-0.11698929722862972
14	0xbfa8eb105e8ec1ff	-0.048668395559960935
15	0xbf82c89e07e904fa	-0.00917170964851487
16	0x3fd49f36a95660bc	0.32221762215477745
17	0x3fce98458c9cebe6	0.23902196279399773
18	0x3fd2977ef7f9d313	0.290496580280249
19	0x3fd1b070c193f3b8	0.2763940706643626
20	0x3fe054413f101a27	0.5102850181290862
21	0xbfb2d4d5aa660620	-0.0735600987445868
22	0xbfb618351d7281df	-0.08630687683990555
23	0xbfd9ecffb9bc2ef4	-0.40509026659195446
24	0x3fbcf4bc0a8a4d06	0.11310935265855812
25	0x3fb662f8481688e6	0.08744766006433088
26	0x3fcd3df74e263f99	0.22845355335129794
27	0x3fcf64a428b9b142	0.24525882710021035
28	0x3fce1104cd637c7f	0.23489437130681165
29	0xbfa66049cd013573	-0.04370337131022497
30	0x3f9448133a83687a	0.01980619473111076
31	0xbfab973540104b79	-0.05388800055529592
32	0xbfe89261adfd0dfc	-0.7678688429081713
33	0xbfb8d1fffbb8bbd4	-0.0969543447069861
34	0x3f8f2df29cc40c55	0.015224357041466666
35	0x3fa893f228c88b55	0.04800373790592142
36	0xbfb6941a042fc3d8	-0.08819735147677876
37	0xbfd5ea52ec70c71b	-0.342426997088397
38	0xbfd03f21cc22aded	-0.2538532727728285
39	0x3fccc415c01b8d79	0.22473403816466567
40	0xbfe45aeb279de652	-0.63609845864921
41	0xbfe239d875cc348f	-0.5695612240539435
42	0xbfb9404677caded9	-0.09863701271649052
43	0xbfd52df26643da0d	-0.33092937456913846
44	0xbfcd6f67f431833d	-0.22996234344011582
45	0xbfdb70e013ef1ea2	-0.4287643618267599
46	0x3fb00255b25fba2c	0.06253562550384889
47	0x3fb9e09cd6268d11	0.10108356693540467
48	0xbfa456013d78c936	-0.039718664888271624
49	0xbfdf4a15c02d264c	-0.48889678733084874
50	0xbfa2115c445a1a03	-0.03528869947790627
51	0x3fc940d3bb0993b9	0.19729086525617648
52	0x3fb80d017acdbe9f	0.09394845245491944
53	0x3f892656cd64d5b1	0.012280157225727036
54	0xbfc44c27ab44d40e	-0.15857406485307063
55	0x3fdc8255e806e0bf	0.44545505198358265
56	0xbfc7e51c8b364315	-0.18667942807635343
57	0x3fb60555aca78e3f	0.08601890053938009
58	0xbfd5b561b635f069	-0.33919565958036074
59	0x3fc938d8ce02e826	0.19704732951305565
60	0xbfe67db3b7fe519b	-0.7028444856282933
61	0x3fbdaa4e128edf16	0.11587989762380987
62	0x3fc3c7f6f8d04f30	0.1545399393950162
63	0xbfb3b73e9ef55478	-0.07701484089678157
64	0xbfd4da7d30391e69	-0.3258355112961682
65	0xbfa3df5d627dc16d	-0.03881351306233936
66	0x3fcac0601bdc9934	0.20899583206591787
67	0x3fb3776fa4a77518	0.07604120035053474
68	0xbfd6be52091e9e87	-0.3553662385042817
69	0x3f5fbd00890998d9	0.0019371514537396743
70	0x3fc483263ffe8636	0.16025236248701596
71	0x3fc46a1a848a602f	0.1594880244417722
72	0xbfcb84895ed2c659	-0.21498219614072658
73	0x3f69be7f25c21025	0.003142593703218582
74	0x3fc1780044cc561c	0.13647464141165322
75	0xbfceef357f7bcf79	-0.24167507862841456
76	0xbfcc8e0aad6595fe	-0.2230847689308319
77	0xbfb22e6bc1e82288	-0.07102082714130564
78	0x3fd469c7bae20e43	0.31895631075187597
79	0xbfb72f84e7faaa1a	-0.09056883491090453
80	0xbfc022974b1c72cf	-0.12605563323531618
81	0x3fe817c4ef17de88	0.7529015226163702
82	0xbff05d64aa0413e2	-1.0228010789153292
83	0xbfaa3e7fda541485	-0.05125808277265612
84	0x3fc909fbe6fa4630	0.1956171872921444
85	0xbfe315253b2d9ca3	-0.5963312297652873
86	0x3fc22a84a7bb3f83	0.14192255201350798
87	0x3fc822ab3091c98d	0.18855800506169054
88	0x3fd5fe37c4f90cbc	0.3436412261546129
89	0x3fc33fa943e5b767	0.15038028540896706
90	0x3fc9302e57a3f08b	0.19678286818805577
91	0x3f94c81c6090c4dd	0.020294612306490534
92	0x3fdaaad334d6aeff	0.4166763320924786
93	0x3fa438323827b873	0.0394912427471902
94	0x3fb00b0d0e2b5095	0.06266862483909315
95	0x3f92c12a5cc31aa9	0.018314992820502116
96	0xbfe2a413a3355cc9	-0.582528895155428
97	0x3fb6e226c35b387c	0.08938829678956667
98	0xbfda12f0b9fe7b10	-0.4074060264919561
99	0xbfc4980dfe073f7c	-0.16089033988691515
100	0xbfc9db0b85892317	-0.20199722309396215
101	0xbfbbd039551709ce	-0.10864599540131012
102	0xbfca1d25cfc6e844	-0.2040145172630351
103	0xbfa857072b1948a8	-0.04753897095783205
104	0xbfd8c3215b5ea008	-0.38690980837645883
105	0x3fded01addc3a97e	0.4814517179171601
106	0xbfafb2e56c93a821	-0.06191174459839056
107	0xbfd5eda97e4c17a2	-0.3426307423945848
108	0x3fd6edd8e7c14b03	0.35826704628304656
109	0x3fbee21af942b7cf	0.1206375940843991
110	0x3fcaba61d80c8639	0.20881293343795607
111	0xbfe49f0b0ca505b5	-0.6444144484486772
112	0x3fcffd3fc5d9bd08	0.24991604958220415
113	0xbfdbcea08aa0aba6	-0.4344865182671874
114	0x3fc58b93327b9d27	0.16832199063285566
115	0x3fad6aa8610e6404	0.057454358909303976
116	0xbfd0f54dd203c6cc	-0.2649721671033205
117	0x3fd49c6d10317fd2	0.32204748708136066
118	0x3fc16327b0369f4e	0.1358384714524114
119	0x3fa84aa9a5bf5706	0.04744463108333545
120	0x3fdb06391f3f9b28	0.42225482989890617
121	0x3fcb4da38262c91c	0.21330684534547906
122	0x3fd237804d2d9160	0.2846375230494882
123	0x3fd34cdd955c257d	0.30156650148327185
124	0x3fa87fbf10c4e4d1	0.04784962730122689
125	0xbfd95589108fc24d	-0.39584566705074026
126	0xbfce3e4a64cef466	-0.23627595827375386
127	0xbfb5bb0196395b09	-0.08488473813609344
128	0x3fc57168231ee1b0	0.16752340044855663
129	0x3fd15fb8f24f8523	0.27146743453166006
130	0x3fc869464fb903ae	0.19071272747717444
131	0xbfacf7ccddbebbc3	-0.05657806593750749
132	0x3fdb5d7567973a30	0.42757926098139176
133	0xbfb75c4e17208f60	-0.09125221314076049
134	0xbfc2a7bd9b79138b	-0.1457440385003362
135	0xbfba7ebe78c77b06	-0.10349646042548608
136	0x3fc00f8c7ac4bb73	0.125474510140943
137	0x3fc41078e454200c	0.15675269268854242
138	0x3fcbadd2b66a68ae	0.21624215991034162
139	0xbfa34439f520e24f	-0.037629901097208866
140	0xbfc20618fff91fc8	-0.14081108568848166
141	0xbfb567c179fe3863	-0.08361443737359901
142	0xbfe0afef264eac6b	-0.5214763401212513
143	0x3fd2fd3fc48a649a	0.29670709794442873
144	0x3fce54cdb3264e4c	0.23696299788990627
145	0x3fd6309d4f3ac2a8	0.34671719300517134
146	0xbfd1dab59a8695e7	-0.2789739617386133
147	0x3fd9cb82d3e1a02f	0.403046328463918
148	0xbfd1b4ac476c8b98	-0.2766524026393937
149	0xbfc0a67e81ef54b4	-0.13008099884487978
150	0xbfbba43b9c6aeff7	-0.10797474449913112
151	0x3fb15ef523b5480f	0.06785518762379204
152	0x3fb9ffff50c92175	0.10156245920473402
153	0xbfc591eb0bc0520e	-0.1685155684832726
154	0x3fe0dac2df9c1de8	0.5267042510394591
155	0xbfb16e91e5fb8e1a	-0.06809341301737284
156	0x3fbdb08b0e4a4615	0.11597508524780438
157	0xbfe44eaa0bb36688	-0.6346025684863017
158	0xbf8b42938dcbc2ae	-0.01331057812191835
159	0xbfd2ab06f285f522	-0.2916886680976224
160	0x3fbe609d5a2838fe	0.11866172267056993
161	0x3fc8ed86cc118a24	0.19474873508723178
162	0xbfa88115a4567f45	-0.04785983687474852
163	0x3fc52c2f4eed1553	0.1654109130269413
164	0x3fd4ef2aeea980be	0.327097638195493
165	0x3fb1d526270ffe7b	0.06965864614175558
166	0x3fd983d5d6e09151	0.3986715887461019
167	0xbfb4f27f13648a33	-0.08182520125823416
168	0xbfdbede326860fe0	-0.43639448892667865
169	0x3fd172b752099a27	0.27262671481585915
170	0x3fc5b57df8dfdc58	0.16960119869301837
171	0x3fc77c1450e2f027	0.183474101538992
172	0xbf9c08cf8e2b090b	-0.027377360393765076
173	0xbfc07f333d613e2a	-0.1288818406778643
174	0x3faa031a67b2a98a	0.05080492511600017
175	0xbfa54ca7d61cf7cf	-0.04160046089826574
176	0xbfb795806e4db49a	-0.09212496464688727
177	0x3fcca787b027e280	0.2238626108299009
178	0x3f97a5722e4cc3bb	0.02309206397621087
179	0x3fc8abb88d71e806	0.19274050623408828
180	0xbfb47009c9538013	-0.07983456769170542
181	0xbfcb327f569b05db	-0.21247855881487862
182	0x3fc4746dd95dd006	0.1598031340942045
183	0x3fd639aec07744c8	0.3472706679868449
184	0x3fde3045c054f9b5	0.4716963175050311
185	0x3f97c422777a5ffb	0.023209131758079576
186	0xbfd50a4a9d9eb5fa	-0.3287531413323844
187	0xbfc6545b4f4ab46e	-0.17444936153097806
188	0x3fe14e9ea4095c5b	0.5408471301879091
189	0xbfd60919772997a9	-0.34430538784942627
190	0x3fc4e47b19a119c1	0.16322268248968722
191	0x3fd5d0370082e7b3	0.3408334259980805
192	0xbfe17fd82f6b6b87	-0.5468560148395775
193	0x3fe0e05b19cb5f24	0.5273871902272487
194	0x3f958549810cd6c4	0.021016262532802768
195	0x3fdd719ff1b696c6	0.4600601063233224
196	0xbfaf660969d3cc06	-0.06132535378301189
197	0x3f7c3e67e3a0e865	0.006895452324949235
198	0xbfa8685bd06b91f0	-0.047671193305891424
199	0x3fbf60ef5b3e5925	0.12257286050439527
200	0xbfb6ff7593d269fa	-0.08983549937185123
201	0xbfd2ab2ef2bb73fd	-0.29169820503540206
202	0x3fe40722dba305c2	0.6258711137563113
203	0x3fc42296838b8607	0.1573055403051031
204	0x3f91b1e5929902fa	0.017280184815038326
205	0xbfdb2f788ab093af	-0.42477239173814046
206	0xbfba198bd6fa63db	-0.10195230482567245
207	0xbfc7603c55f07c35	-0.18262438007602247
208	0xbfb73463cab40e0f	-0.09064315508663177
209	0xbfac348f33790c9a	-0.05508849623995467
210	0xbfd9997ad5a581a5	-0.39999266494671765
211	0xbfac8405a714d46c	-0.05569474854056797
212	0xbfd2e570425cb415	-0.29525381546665247
213	0xbfbae7ac41786655	-0.10509754751583363
214	0x3fce955a4d9fdf37	0.23893288412340905
215	0xbfd04f81959f563c	-0.2548526726871818
216	0xbfc48b8adb54993a	-0.16050849637503878
217	0xbfde3fbd5059192a	-0.4726403507851439
218	0xbf9f0695650af332	-0.030298551838075123
219	0xbfaf653b59136ee3	-0.06131921255447794
220	0xbfc3ad9c5ace8fce	-0.1537356799500444
221	0xbfcd6b90667f2e9a	-0.2298450947258644
222	0x3fc422b91fb249b5	0.15730966613462063
223	0xbf606506c7f32ca6	-0.0020012981836764086
224	0x3fd19151400ceca5	0.27449446921282067
225	0xbfcde4a3dab48a81	-0.23354004076925963
226	0xbfb5a007f49d53c0	-0.08447313043627869
227	0x3fd5cc8eef594c1d	0.3406102502241895
228	0xbf4117326d7cebdb	-0.0005215641240064976
229	0x3fc3b69d851277c8	0.1540104770437536
230	0xbfe729f036765044	-0.7238694251741511
231	0x3fb039ab5442f114	0.06337996298947629
232	0xbfc8ba952d788d2f	-0.1931940528894329
233	0x3fc1e8183f8e42db	0.13989546874338185
234	0xbfb24451baba9cf2	-0.07135496910870012
235	0x3fe2c5c23bec1ac8	0.5866404695851424
236	0x3fbcc7a74b75e8f6	0.11242147056865179
237	0x3fdb91f2ac3ee9d2	0.4307829553687529
238	0x3f8ac7c1d6b39f01	0.013076319088625167
239	0xbfd360d550eacaed	-0.3027852335173254
240	0x3fb55864b37bcd1e	0.08338002569125932
241	0x3fcf16ee175a30c2	0.24288726940392819
242	0xbfe0a4d20f2648ad	-0.5201196952714519
243	0x3fc557c3b0ea1543	0.16674085749051856
244	0x3fd22176298afc28	0.283292332238434
245	0xbfe010847fa26941	-0.5020163052425134
246	0xbfa50f11e694fff4	-0.04113059940073063
247	0x3fd5e404f4e6453f	0.3420421973797438
248	0x3fcd4df02d78e1dd	0.2289409849197587
249	0x3f861f857b4e97a9	0.010802309823542649
250	0xbfb9421bada035ab	-0.0986649798289451
251	0x3fe213cd3d3058c4	0.5649172015280546
252	0x3fb356e5152b626e	0.07554466025193005
253	0xbfaa15a8152b7745	-0.05094647653980514
254	0x3fc8ba1f7ef331e7	0.19318002413491728
255	0x3fa9599ced927db7	0.04951181793262143

block.4.bias f8 [60]
0	0x3fdd4916f20793ad	0.45758603702261774
1	0x3fc28d7f25721dd7	0.1449431355324424
2	0xbfe2640df229b05a	-0.5747136811965092
3	0xbfc030b2376e8dbf	-0.12648608881600684
4	0xbfb465408e8f73b2	-0.0796699855849983
5	0x3fc23dac0104b3fb	0.14250707673764382
6	0xbfb6d951f07d451a	-0.08925354119607612
7	0xbfc84abe7c81120f	-0.18978100852304222
8	0x3fe5016bea369993	0.6564235281446592
9	0x3fd6063bf1b6954c	0.34413050274664125
10	0xbfb5ac64ff8fac04	-0.08466178168571054
11	0x3fc411e739c4cc0b	0.15679636307467634
12	0xbfb014ee085dff98	-0.06281936363484275
13	0xbfc8796537e61e72	-0.19120469312132432
14	0xbfd9770a8dc52404	-0.3978906998132177
15	0xbfd052922e0b7146	-0.25503973480751474
16	0xbfc12c5a4b3d6349	-0.13416603730981994
17	0xbf8edee0bb3f5e8c	-0.01507354327615864
18	0xbfe08b0c1b1e43c6	-0.5169735459950224
19	0x3fb2d26b6f90f62d	0.07352324937615924
20	0xbfc6fb727be63790	-0.17954855966348449
21	0xbfd4a7549cfbffa6	-0.32271304445748183
22	0xbfc934ed35cac57f	-0.19692769171301092
23	0x3fb994067843e8e2	0.0999149364105594
24	0x3fc4b3161fd72d0a	0.16171528391564777
25	0x3fdb1e2cdee1f1c4	0.42371675268057296
26	0x3fc1c3934e707ec4	0.1387809880261469
27	0xbfc7b67bec1eff86	-0.18525647191381384
28	0x3fc80faecb30dc4a	0.1879786007063749
29	0x3fc3aca57c2952b1	0.15370625078744163
30	0xbfa44155cee4d279	-0.03956096792754677
31	0xbfc72ed6e98a9c10	-0.18111692813292324
32	0x3fb76d92352ab464	0.09151567266481347
33	0xbfccfe5222d94859	-0.2265112562332117
34	0x3fcc707545089b03	0.2221819483831596
35	0xbfc34e8f0a583096	-0.15083492283918493
36	0xbfc4694c1fd53592	-0.15946342043245615
37	0x3fd3df8fb6bfcea4	0.3105201038990606
38	0xbfbb0d3d1dcd4cd2	-0.1056707570799518
39	0x3fd7c6772a6b94ab	0.37148837225533765
40	0x3fd74a5c72a5173b	0.3639136428431475
41	0xbf82a1f8e50ba769	-0.009098000039972924
42	0xbfcdf22c9db279a0	-0.23395307254845665
43	0x3fc3f01a25b67c29	0.15576483575293423
44	0x3fd5fd53f560cdab	0.3435869117995149
45	0xbfc063dd515de931	-0.12804762337675293
46	0xbfcbf69e35fbc888	-0.21846368442453845
47	0x3fb3e8fe26b40bb1	0.07777393765358799
48	0x3f9cfbf8435453dc	0.0283049384207351
49	0x3f70fbee65317247	0.004146510345063143
50	0x3fb2eac0185d1147	0.07389450640500171
51	0x3fc558def191987b	0.16677462382648742
52	0xbf9ae5e975abc24b	-0.026267669493736084
53	0xbfcec3d3ac72140d	-0.2403511611957189
54	0x3f703ebed51e9ae6	0.003966088714071536
55	0x3fd9cc21af1537a1	0.403084202746749
56	0xbfca921a7a53a9ec	-0.20758372281063886
57	0x3fd4b07cc3a3bf8c	0.32327193360742323
58	0x3f6a097822fa6b7b	0.003178343431341655
59	0xbf7a67cbd990de23	-0.006446644104520813
