JupyterLab/best_model_M2_503.pt (torch, 127885 bytes, 12 tensors)

block.0.weight f8 [60, 12]
00000000: d19b 0b14 a210 c93f 9a3b a810 e888 ba3f
00000010: 0cbd 0b86 a12a c6bf 6fe5 f70f 82b7 923f
00000020: bb66 3874 8c2f b93f 531a 3eec 08b0 cf3f
00000030: d19b 0bd4 4ae1 c43f c260 2e24 433d 833f
00000040: 56de 8f4c d14f c93f bb66 3854 108d b33f
00000050: 93f9 ef46 bd1d c53f 999b c926 8af6 c73f
00000060: ef84 9f5f 3cf6 d0bf 8b7a 8524 b5ff d13f
00000070: 4899 e1c1 ee2d c5bf e2e1 ee08 c6ff c03f
00000080: 3012 b076 44bb c6bf 08a1 7d0d 0ec6 9e3f
00000090: 0b28 fc85 a301 a9bf 856f ba8a 9a55 c23f
000000a0: f8ef 0afe 640e c0bf d0ed 4fa9 1703 c53f
000000b0: 6ced aeaa f9b1 b13f 2735 a13a 8b21 c6bf
000000c0: eead 24ce 3ec4 d73f 6438 f13a b02b c5bf
000000d0: 0ac5 d11f 462a d7bf 895d db43 8b66 cf3f
000000e0: e1d8 c03e 13ca c53f 19a1 5fc7 5881 ba3f
000000f0: eead 242e 24de d83f 62b4 fefc f47e cf3f
00000100: 9194 0340 e8cb c83f c163 039b 1c3d a73f
00000110: 65a5 cc9f a0e9 cabf 57a2 edb9 45a6 d23f
00000120: 639c ccdb 5d3c c0bf 0b9d 43de 1478 c93f
00000130: 3781 bc46 db00 d63f c7bd e8df d00b b13f
00000140: 2703 93e3 5e5d 993f eefc 26e4 0a25 cbbf
00000150: 9463 3344 3698 ce3f e6b9 cbb5 b4dc c6bf
00000160: a7cd 3f21 ba9b c33f 5a60 72f8 0151 cb3f
00000170: 9f9a 7747 4a38 bcbf 97d8 80fc 7abd afbf
00000180: 49f3 40b7 9208 d6bf 20ba 7efd 68fb d83f
00000190: 5152 f666 7ad3 d7bf e794 e54d b287 c0bf
000001a0: a720 8d68 ee48 c73f cad0 cff9 da80 c03f
000001b0: d332 fc22 3c7a b93f 27ad 08a2 701a d0bf
000001c0: 2b73 2877 32d5 a2bf 00bf e5ae 5f20 b8bf
000001d0: 84a1 588b 2dab bf3f 0bbc 9744 14bf b73f
000001e0: ac27 f1f4 0871 c2bf 6bd9 5fe2 c648 ce3f
000001f0: c291 5fa3 4dbb d63f 1f5e 38f4 9a29 be3f
00000200: f848 4ebb cbce c93f 022e 1658 bb66 7fbf
00000210: b6b0 1d36 1323 b53f 1d7f 0f9f c3f2 d43f
00000220: 916f 0f13 43bc d03f a091 9c56 1dae b23f
00000230: 191a ec65 a92e 613f 61d9 a645 bc87 c5bf
00000240: e872 0d38 29b4 b73f 6b2b 456d c1e6 993f
00000250: 985a 6875 f186 c3bf e587 e2eb 9aee 67bf
00000260: 4761 149c 8e74 883f 1401 ab19 4789 ca3f
00000270: c05c 03de fa0d d83f f461 e56f 2e83 c3bf
00000280: 4449 efc7 b87d d73f e7b9 be53 8ee2 cabf
00000290: 9271 8537 7ebf cb3f 42b0 26c4 f177 cebf
000002a0: 4c55 c370 b071 c6bf b8b9 ab05 c4c2 d5bf
000002b0: 2a4f 4475 1750 bdbf fe94 b193 a510 b9bf
000002c0: 9615 378c 0065 a63f 9b89 7baa f75b b9bf
000002d0: 4d55 c3e0 754d c6bf 8a30 1992 9151 c5bf
000002e0: 3d25 1b3b 504a b13f 78ea c853 ca5c aebf
000002f0: 400a b4da 8f7a 94bf c91e acd2 a1d7 c0bf
00000300: 3848 49f8 1590 c13f fd37 911c 39fe be3f
00000310: 2e7c ea5a bae3 ad3f 1422 0a1b a3b8 b1bf
00000320: b0c6 cd14 88ee c0bf bbec bbef e01c d03f
00000330: a7de dafe c675 adbf 2d14 75f1 4124 d03f
00000340: 6b07 44f8 dda7 d43f c895 2333 3343 833f
00000350: d2d0 6f61 03a8 ce3f 2f56 8b22 1f40 ac3f
00000360: e07c 8c02 4d2e c93f 47c3 e837 7142 a73f
00000370: 6178 891a f81f c73f 2a0d 00eb bff6 d43f
00000380: 9a96 c82e f06e cb3f 561c 3841 4a1b bdbf
00000390: 2083 737d ae78 c6bf 852c 2093 998a b4bf
000003a0: 6eb1 26ee 1698 aebf 9b96 c86e f80a cf3f
000003b0: 69bb a757 c61c d53f b248 e8f8 082b cbbf
000003c0: 1968 8ffa d729 ca3f 5ea5 a3b7 5f9a bb3f
000003d0: eac8 73f4 8157 c3bf 7549 6bfe 0160 c1bf
000003e0: 842e affa bafb c2bf 97ef e3ab 5b65 c4bf
000003f0: d32f e16a 0543 b8bf 943c ed23 a851 863f
00000400: 9a88 e18f 4586 e03f 7fd1 5045 5988 c03f
00000410: a77b 48eb a89d cf3f c955 64b2 55cb bbbf
00000420: 5541 85da 58aa babf be08 9271 695a bd3f
00000430: d289 9b6b 36dc a8bf 92e2 550a 170c d7bf
00000440: 0c1e 2208 b2c6 c4bf 9252 f20f 5b25 90bf
00000450: 9bbe 7a65 9899 b83f d9fc 5e86 2018 b5bf
00000460: fe46 5986 5a39 bebf e8c3 bb8f 71da b23f
00000470: d989 3e68 dce2 d3bf a5eb 0b0e 819c c93f
00000480: 9d7d 34a2 7cb3 db3f 67d6 394e 9ca9 a63f
00000490: f3d7 72cb b68f c4bf 416f c4c1 5f44 b33f
000004a0: e74e ad0b db12 aebf d974 6e50 8a00 d33f
000004b0: f0fa 6870 46bf c03f 04a6 957a 00da 9abf
000004c0: fdd2 a25a 5e74 d7bf f6a9 7571 e20b d0bf
000004d0: a30d 249b 15d9 d0bf fce7 95bd 975c a53f
000004e0: cbd5 2371 7c4d a0bf 086a 8851 dfb4 cd3f
000004f0: 17ad 49c5 0a9d a63f 839f b168 1b94 ba3f
00000500: 90e4 4811 db13 c93f f2f4 9bcb 3925 ab3f
00000510: 4585 dbf9 1d2b d63f c2f0 672c c2c5 cdbf
00000520: 6bb2 3d21 32f7 dcbf b88d 5be7 1804 d2bf
00000530: c504 bc5a de96 cb3f 0308 7abb 1c43 a03f
00000540: c8a6 f651 4e88 d53f 0036 22d7 e9c3 cbbf
00000550: 5df5 a33b 6e73 9ebf c318 3d0d d7ed d4bf
00000560: ae15 00bd 6394 cdbf 3543 c4f4 5150 d23f
00000570: 64b2 121c 4048 c9bf ea67 c541 ed4d adbf
00000580: 99a8 aed5 972e c93f da51 ff67 28c3 923f
00000590: 81fa 7a17 4dae c93f e9c8 12c7 e3cb bd3f
000005a0: 083b f415 0c4d a7bf 97fe a614 2210 c23f
000005b0: 32af 63d4 4983 d6bf 554b 79e6 3003 aa3f
000005c0: e2fb 87dd 1a03 bdbf d916 d297 a53d d13f
000005d0: 9f1d fa9a d56c b9bf 9d8e edd6 6701 d33f
000005e0: 89d8 4c65 fec3 aabf edfd c3ee 358d c1bf
000005f0: 3eb2 d33a 4247 d0bf b453 16a8 5e93 d23f
00000600: 73f3 507e 8fc0 d33f 79eb e314 49c8 94bf
00000610: 9262 8679 222b b1bf e64b 7e70 f169 cebf
00000620: 7bbd 1b76 68be ccbf 462e 1d9f 0170 c8bf
00000630: 6832 bc86 7a37 bbbf 6687 1c69 83ba d5bf
00000640: 00ad 2943 fb16 b83f 3c21 f2f4 d534 d13f
00000650: 94f3 3395 03b2 a7bf 6a48 f0a6 6ccb c8bf
00000660: ad7b a388 2802 c83f f882 2d03 7b3f bdbf
00000670: d98d 450a 4760 dbbf dd65 7066 9be7 963f
00000680: 59a5 af22 1d39 ae3f 0831 6337 7bfc c53f
00000690: 5484 5cf7 501e c1bf 288a d4b8 dc99 cbbf
000006a0: 551b a17a 48e7 dabf c5d2 5709 dea8 b03f
000006b0: e263 3ea1 0482 b03f c8fc b5a8 9d93 b8bf
000006c0: d07d a97f 9db0 c53f dbaf ffe5 208b adbf
000006d0: c6a0 dd3d b76f a33f b882 f2f7 c4d7 c93f
000006e0: 621d 4e86 4c60 c8bf 7d1d 0e23 9bce d8bf
000006f0: 2941 2bc0 9134 d2bf 225b b92c 4e15 bbbf
00000700: c447 a7d1 8ccb ce3f 621d 4ee6 fd36 c9bf
00000710: f40a 94ac dba5 c13f 8e69 5028 292f c13f
00000720: 7181 90e2 9381 703f 456f a9eb 40e7 c4bf
00000730: 766f 600c b120 c13f 7a74 4862 7230 c9bf
00000740: 5061 1cec 7138 c2bf be7f cdc3 548e ccbf
00000750: 8620 a4b8 ae60 973f 2781 635f b705 c7bf
00000760: d8be 70bf 0376 d2bf dbc2 38b8 6287 b0bf
00000770: 5d59 cff8 0c02 b93f e2a7 cc3d e466 c43f
00000780: 50be d885 8edc d83f f70f 00de b44e b3bf
00000790: e36b 8b17 eaae d53f da20 04f7 5018 d73f
000007a0: 9afa 482c 6b6d a23f fc23 816f fb37 c9bf
000007b0: 51be d8f5 4747 d73f 0d5f eb48 5a0e a7bf
000007c0: b64c 15bb 00b5 9c3f b482 db89 1116 b9bf
000007d0: e316 b1e2 0898 c1bf 5b01 1c7f d8af bc3f
000007e0: fa8f 1a09 170a c9bf cd9a c2bf 269d 95bf
000007f0: ccd9 6936 1597 bebf 7b16 4261 2936 b63f
0.195820102489249 0.10365152746838505 -0.17317599339683232 0.018278152680044565 0.0983817847958574 0.2475596574333446 0.1631253753068607 0.009394192258512016
0.19774833906534423 0.07637121254119965 0.164970073354152 0.18721129316255938 -0.2650290426082184 0.2812321526197727 -0.16546425310952828 0.13280559002102083
-0.17758994860936772 0.03005239446011479 -0.04884062777098571 0.1432374169715979 -0.12543928532056703 0.16415687339018215 0.06912193696091656 -0.1728986774709622
0.3713528645627936 -0.16539576414146773 -0.3619551954971746 0.2453168946583271 0.17022934497953826 0.10353617541807515 0.388558430730625 0.2460619197203498
0.19372275472338576 0.04538812057734943 -0.21025474360184684 0.2913984599786423 -0.12684224350343518 0.19897709706058495 0.34380227954717973 0.06658654657871131
0.024770243301421104 -0.21206794872521278 0.23902014093507928 -0.17861040951488788 0.1531899130201115 0.21340965872946321 -0.11023391957096827 -0.06199249584499105
-0.3442732610308679 0.39034485583661827 -0.3722826009264156 -0.12914112857394075 0.18191318612139648 0.12893235395279695 0.09952140668992664 -0.25161376784918094
-0.036782815023093406 -0.09424398441273851 0.12370571758277121 0.09275938677431854 -0.14407455406245384 0.23659597447813083 0.3551820846025998 0.11782234632880105
0.20162340780058918 -0.007666332066388561 0.08256645270529614 0.32731714757209024 0.26149060117108386 0.07296927799740738 0.0020974453503897037 -0.16820481682743618
0.0925927888724335 0.02529432515556655 -0.15255563957972096 -0.0029213929947937583 0.011941064966365501 0.20731438401527014 0.37585326844186895 -0.1524408384673418
0.36704844975351514 -0.21003893937218196 0.21678140364646176 -0.23803541257564304 -0.17534451967245912 -0.3400125556353504 -0.11450335133514203 -0.09791025977900245
0.043739335170850754 -0.09905956184551316 -0.17423890566593983 -0.16655177720747744 0.06754018252390366 -0.059301684119834996 -0.019998786662663415 -0.13158057009444793
0.1372096502623792 0.12106663653796086 0.05837805137456829 -0.06922358904024178 -0.13227940574465924 0.25176261340648026 -0.05753919468901119 0.2522129877073123
0.3227457928152179 0.00940551757634979 0.2395023561254051 0.055176709143477935 0.1967254888959138 0.04542878921018328 0.18066312118293396 0.3275604052471005
0.21432306560852937 -0.11369766323342509 -0.17555791020915823 -0.08023986665664225 -0.0597541013442847 0.2425222912726682 0.3298812728889318 -0.21225082544021273
0.2044019673765554 0.10782430871372159 -0.15110802112719252 -0.13574242518241034 -0.14830720177120693 -0.15934320347866723 -0.09477266177526582 0.010897935482402844
0.5163905916381453 0.12916103252940656 0.2469988964885179 -0.10857139210960222 -0.10416179022764045 0.11466082594600643 -0.04855508864945403 -0.36011291512799304
-0.16231370350963947 -0.015767500732709445 0.09609367826009889 -0.08239939957182986 -0.11806264667509578 0.07364568480603817 -0.3107214944849637 0.2000886267267933
0.43283000793777565 0.04426277594477029 -0.16063580450071377 0.0752620552124741 -0.058737607169545396 0.29690797667156016 0.13083725441716565 -0.02622223613926701
-0.36647757388281815 -0.2507253749851367 -0.2632497801825712 0.04172205151822081 -0.03184117203810962 0.23208228570077005 0.04416688593195255 0.10382243448259314
0.19591844886761978 0.05301838503326363 0.34638165855547626 -0.2325976101709611 -0.4525876354808022 -0.2815000781394832 0.21554164343255003 0.031762025723779196
0.33644445423361136 -0.21691630367824644 -0.029737207784810028 -0.3270166043552189 -0.23109099129230287 0.28615235236161435 -0.19751740809205665 -0.05723515918607787
0.19673440870002848 0.01832259306668669 0.20063174864295166 0.11639236078443428 -0.045509698562559875 0.14111734398283168 -0.3517632078280598 0.050805595525750626
-0.11332862766720056 0.26938762499081076 -0.09931693109148519 0.29696079243715606 -0.05227656351637317 -0.13712190779186476 -0.25434928650682653 0.2902447358586031
0.30862796149795385 -0.020295278453868335 -0.06706443278234023 -0.23760812752570287 -0.22456079260835424 -0.19091816205251372 -0.10631528653557043 -0.3395088697890202
0.09410066976277065 0.26884983940592 -0.04628001400303741 -0.19370802069949217 0.18756586715514115 -0.11424988582212936 -0.42775131228537827 0.02236788571108216
0.05902949379362594 0.1717676182219139 -0.1337376792735393 -0.21563300156511045 -0.4203664014389024 0.06507671096899077 0.06448391853918126 -0.09600243920248197
0.16945236905574612 -0.05770209128954181 0.037961698820085085 0.20189725977708917 -0.1904388099467083 -0.3876102297149016 -0.2844585777902631 -0.10579384414573359
0.2405868552874023 -0.19699071641319238 0.1378740875880663 0.13425173252546724 0.004029824901437316 -0.1633072996800086 0.1338101683076009 -0.1967909793756098
-0.1423475649724062 -0.22309360085182378 0.022829751987075507 -0.17986194760943272 -0.28845304198601474 -0.06456582067108789 0.09768754076444482 0.15939000146437282
0.38846171446764277 -0.07541971607139418 0.3388009290626412 0.3608591472880228 0.03599104800786286 -0.19702094025186045 0.363725652775405 -0.045031377221390036
0.028034221094753696 -0.09799298873577805 -0.13745223111089108 0.1120581922841714 -0.195620421834178 -0.02110729737673971 -0.11949284151510325 0.08676394104448974

block.0.bias f8 [60]
00000000: abbf 7c25 54b4 d23f 956f 22eb 99ea c0bf
00000010: 3424 521f 8570 ab3f 589d 7c90 c291 babf
00000020: 6461 329e 33bc b5bf 1860 57bb 6eca afbf
00000030: b2c1 4b59 e191 673f 3661 025a 8321 be3f
00000040: 8437 f06a fe41 b8bf 4962 ab83 e170 b73f
00000050: 4abb e32d ebaf 7a3f 9e2f 7603 e2b9 62bf
00000060: f0e7 4c05 9920 b1bf 5b2d f77b acbf 793f
00000070: f8e2 fb92 36f0 a83f c7aa b672 f2fc babf
00000080: 3ae8 9ebb a1b8 c43f 1a31 a47f 9442 8b3f
00000090: 1132 6133 6f72 ac3f 9328 e8f8 af92 c23f
000000a0: fffc d122 87c8 a23f a139 a99b 8429 babf
000000b0: ed03 3ad1 30e2 d03f 3d61 8f87 e457 6d3f
000000c0: 77e3 a9d4 c81f 763f cb78 8bf2 6d5d 8e3f
000000d0: fbdc ba87 0c34 a33f b7ba 5092 bbfb c63f
000000e0: 2645 ace3 2f8a cb3f 32b6 93d0 dd15 9f3f
000000f0: cbbd f09b 69d1 96bf b1d1 0fa9 32e6 c13f
00000100: 84ef 5b9b f113 b03f cf87 cd4a ff7e c53f
00000110: 6d73 aa31 0d09 2ebf 3e15 00f6 a7d9 bd3f
00000120: 6195 aa06 e8de cebf 895a ba01 ebde b93f
00000130: 36a7 da4e acb1 bf3f f910 cc9a 7edc a3bf
00000140: 5b28 2d8d 1da1 b5bf 78d5 c1cb e21a b7bf
00000150: b250 9c4f a2be d03f 6b1e f6d8 7cfc b0bf
00000160: 5986 d655 a516 c8bf 2170 4a62 a57d 893f
00000170: 9347 f238 52b3 b2bf 68f7 7a00 d4d8 c8bf
00000180: 1883 73a1 6ef1 ca3f e95c 1dfd 9c91 a53f
00000190: d59d 6bee 1941 c63f 5778 710e 432a b63f
000001a0: 40b0 7150 b110 cfbf 3663 e71a 18d8 cc3f
000001b0: b05e d106 c65b ac3f abe3 356b 936c 7cbf
000001c0: 62c0 255d 4af7 d2bf 12e6 2903 940b a23f
000001d0: 0426 9a2d 101c 9e3f 8921 f122 e1a3 adbf
0.29225639019841293 -0.13215946179559226 0.05359283454260613 -0.10378662135609795 -0.08490297901369598 -0.062091312760174044 0.0028771783203113905 0.11769886920445036
-0.09475698576735964 0.09156617607676155 0.00651542536637246 -0.0022859014822582254 -0.06690365199474946 0.006286309973300898 0.048707681124090685 -0.10542216587661378
0.1618845144383288 0.013310585160546885 0.055560565015728376 0.14510154393821448 0.03668615627338489 -0.10219601440733196 0.26380558426177353 0.0035819495646870745
0.00540140580653136 0.014826640095119711 0.037506476944537646 0.17955727237991478 0.2151546346363286 0.030356851439981188 -0.022283220427366673 0.13983758215875988
0.06280431788394308 0.16793814804537852 -0.0002291515928235748 0.1166024184786538 -0.2411775620031831 0.10105770866571552 0.12380482602261797 -0.03879161491025402
-0.08448967644395237 -0.09025399660625577 0.2616353776404693 -0.06635265633496494 -0.18819109622295363 0.012446682035538061 -0.07304872408192713 -0.1941170694680594
0.2104929245315581 0.04212656583575287 0.17386173383350348 0.0865823660146544 -0.2426969187539516 0.22534467042603418 0.05538767655587884 -0.006939483503963932
-0.2963434133189421 0.03524458445185642 0.029403927596410653 -0.057890925898905606

block.2.weight f8 [60, 60]
00000000: 688d 2ee4 3a7a a03f a19e 7ee6 20b6 703f
00000010: 3df1 866a 7775 bd3f 4975 f812 f332 c33f
00000020: 22b9 dae1 f6c5 c1bf 4661 8497 eb5e b3bf
00000030: 773d c7e3 5c08 c33f a2cd 0581 b6c4 b43f
00000040: 3fab 57b1 7e29 b43f 3b34 ac4e 2f41 ba3f
00000050: 9436 ad09 8337 aa3f c9e5 c73c 6364 a9bf
00000060: 1a46 4e41 bff2 c53f c207 158c 829c a43f
00000070: a221 cb67 1405 b43f 3e68 afb2 d4ff b43f
00000080: c6bc aa88 b8bc ba3f 2b44 1d9f ba2d b8bf
00000090: c147 470a 8853 8a3f 1ab2 843e 3c0e aabf
000000a0: c4d0 c846 1816 a2bf 12d3 7a5e 873e b33f
000000b0: 2004 ca4b 495f 843f 6bb0 b3b3 f12a 7a3f
000000c0: f811 c21d 9414 b33f 5937 8037 fb95 abbf
000000d0: d55a 216e 1b02 c0bf 3157 b36c 600b b7bf
000000e0: a106 e4b6 8a5d a13f 5469 b89f 2540 9abf
000000f0: 0f3b 8edf 5239 a4bf cad9 9e6f 3432 313f
00000100: b493 7a29 604f acbf c9d4 2795 9449 ba3f
00000110: af9e a50c d671 b4bf db89 75c1 12fc 52bf
00000120: cce4 8f8c 343e bdbf dfee 749a 92ad a03f
00000130: f24c ad3a 4720 653f d0fe 4c10 3cf1 40bf
00000140: fcda 2d7f b99c b8bf 8266 d4ef 86bd b1bf
00000150: 7ad0 ef9f ce6f a23f 7552 ee10 3653 b1bf
00000160: 8e46 7d83 2a1f bc3f cf63 4b8c 6de2 9e3f
00000170: ff58 2d97 6f94 adbf b609 eeb1 d0d5 be3f
00000180: f98c 9823 f97b 90bf 9f16 4398 bd49 643f
00000190: 72f3 5ceb 7a23 a93f b9d8 ca44 0d59 9ebf
000001a0: 2b18 35d1 e532 cdbf c337 7dbe 691f a8bf
000001b0: ba7d 1e93 0a4c 9abf 5fd7 b385 cfce bbbf
000001c0: fd00 d0fd 0a74 c33f 832c 1b9a b1a0 9c3f
000001d0: c7a8 7e59 05b7 bfbf 0d2d 6b81 1d29 ca3f
000001e0: 55b8 0433 62a5 70bf f833 e07e 7257 a5bf
000001f0: 8304 17b8 0ecc cbbf 9ddb bd10 4e7d adbf
00000200: 43e1 feb0 997b b13f 959b 9d32 3d8e c0bf
00000210: 2d34 97a7 985a bcbf e260 5464 3586 c0bf
00000220: 717c 76d6 d81d 8e3f 0b74 07d5 34d6 c0bf
00000230: 68d3 8060 9676 963f c7e0 6e07 f16a b6bf
00000240: 4323 6818 bbb2 8ebf e2ca be5a af37 b43f
00000250: 6c61 a87c 4266 bf3f 599e 24d1 e599 a93f
00000260: 68b5 9a58 d38d c2bf b7be 4a45 ddc8 acbf
00000270: f6d0 9254 cb10 ab3f 28fe 7431 c7c7 be3f
00000280: e4ba e1ab bdbc b23f 66ad be1a 5100 923f
00000290: 2e29 6226 d629 913f daca 9d7b 5a13 79bf
000002a0: f13c 246c 7a0a 7dbf b5c7 673c 3353 923f
000002b0: 6c98 a659 cb9b b93f af66 882b 6b56 b93f
000002c0: f688 1697 7f25 a2bf 6e38 c450 3ea4 cfbf
000002d0: d455 de97 abf0 abbf abe1 e379 fd54 c4bf
000002e0: e100 e7ce 855c 90bf 3ddf e5e0 a10d 983f
000002f0: 29e8 9e15 9b30 bfbf 7423 49ee 5dde b7bf
00000300: 6013 3f87 6919 b6bf c655 79ce daf5 b3bf
00000310: d981 d252 ca78 80bf 023b 6e0c 071f 9fbf
00000320: 45e3 4720 0a75 a63f 9b6a 9209 8376 90bf
00000330: d6fd 2131 13cc 91bf e3f2 ce54 2760 bfbf
00000340: 74fc 02f0 ddb0 bb3f ac61 4dc4 def4 79bf
00000350: b4f4 7dac 7093 b3bf e110 c87a f4b7 a7bf
00000360: f78a cba9 82e2 7abf 90ab d414 cbb3 b2bf
00000370: 7270 90c4 9578 b33f e9b3 15f9 9962 be3f
00000380: 1214 9423 ff04 abbf 1f8f ce96 ed9d bbbf
00000390: fe8c 7f83 3ccd afbf 4e37 3615 9065 c2bf
000003a0: 0422 b90d f20c 983f d6bd 2a7c 3342 c63f
000003b0: 0a4a ddda 51da 8ebf 14eb ad04 12f2 983f
000003c0: c9a1 3ba4 a27e bdbf 4ba8 ba7e a4d8 c03f
000003d0: 93c4 e93b 2be5 b5bf b0db b31b cffe b4bf
000003e0: 9d32 b8f0 7b8c 7d3f 65e8 09e1 2d6a c33f
000003f0: 2f6c 6192 54a0 aa3f c389 ea68 24bd b23f
00000400: 5e33 6934 1427 9d3f 3e6a 1ce9 595c a1bf
00000410: f49e d62a cd93 97bf a6f5 029a 2658 af3f
00000420: 808b f05e 49da 933f 6f0e dfbc 8856 d1bf
00000430: 5d7d 8ad3 c068 ac3f daff 7d89 6670 a4bf
00000440: 9328 b729 b3a2 93bf 19f9 6092 65e9 b3bf
00000450: bc1b a6e1 cc78 b2bf 5eb5 a7e7 f81e b7bf
00000460: 249d 016f 4697 c63f 8341 d32e 77f3 b2bf
00000470: d79d a4da 4da5 b93f c219 0ed1 42cc cabf
00000480: c59d 0636 990b c0bf 5e91 b055 59d2 86bf
00000490: 9ce7 e46d a2ca 95bf 949e c67f 3e37 c3bf
000004a0: 819a e520 a35d c03f ad6b 01aa d96d 7b3f
000004b0: b99a e165 81b0 b13f 1403 4c0c 6960 c2bf
000004c0: acce 7973 409d 9abf 5f10 daaf c369 a7bf
000004d0: f284 f707 faef bf3f 9a6d bae5 c875 bd3f
000004e0: 6f13 530b ad65 bc3f 2c6e 6d11 1dd8 a7bf
000004f0: 580a 2044 8e6b b13f dd76 3767 13f8 a73f
00000500: 4407 b3d5 b215 b0bf bcda 92f4 7eef 8dbf
00000510: 94d4 a683 d6c7 96bf 002d a60b 2a69 bf3f
00000520: f6ad 2703 a88b a23f b20b 8781 2661 a6bf
00000530: 9e39 82ad 3000 ccbf 5165 3b5d 28df 9c3f
00000540: cfaa 5dc8 69bb cabf 262f 4c0f 1744 c43f
00000550: b78d caa0 67cc 9a3f 1343 2cc2 5770 b0bf
00000560: 7385 aa8b 7b8f a7bf 54ec a56c b483 b1bf
00000570: e181 7251 dd77 a7bf 5a4b 5574 a6eb 9ebf
00000580: c65a a670 985d c9bf bbff 3d76 84ad ba3f
00000590: c7c4 d040 c6d3 a83f 79b9 55fe 2814 a9bf
000005a0: 3fc8 63c1 a44c a53f 24e6 597b b231 c33f
000005b0: 6584 0b8e 63e7 c1bf f5ad d4e8 776b aebf
000005c0: 0b46 bf92 7fb1 bb3f 6d5f f16b ab4f afbf
000005d0: a432 9427 ea7f c43f 541b 5a5c da23 c13f
000005e0: 930c 9773 9197 bd3f 9424 15be cf55 74bf
000005f0: 28e3 d5e7 00d1 b0bf 904d eef1 0d38 833f
00000600: 7c47 9779 eab0 89bf 251d 0928 f5e4 953f
00000610: 3f7a ab4a ceb8 c03f 1378 ef99 c09b aa3f
00000620: 2208 29db 3717 a53f 1aa3 7fea e4d3 97bf
00000630: ace6 2d05 9fb4 b33f 23bc 3676 8f35 be3f
00000640: 3f76 fd07 7c5f 87bf aa17 ad91 dc3a c03f
00000650: e0fd 07b1 e226 b63f 9306 190c c9d8 a03f
00000660: c862 52c9 59d2 c4bf 160e 8952 17de 42bf
00000670: 6f6f 62d2 44d2 c3bf 9912 6131 5db7 9cbf
00000680: c55b 92c4 4c73 adbf 1c3a 8926 8e09 bc3f
00000690: 2e5a fcfe fffa 543f 9442 9b80 774f b63f
000006a0: 13f9 826b ad44 a53f 229f 551c 0a41 85bf
000006b0: 9109 b6f3 fed8 bbbf 7e99 166c a646 853f
000006c0: df42 160f 6231 92bf 48e2 4538 32df b6bf
000006d0: 6543 c9ea f601 b93f 6fd8 4a43 32ee c23f
000006e0: aa40 1ff2 d60f bd3f 49cb f228 4d70 a4bf
000006f0: 860b 16e4 0184 a2bf bf99 0b88 fed8 97bf
00000700: 7e5f 8149 39de 683f b033 20a4 d432 b33f
00000710: 823c 7a4c 961f ba3f f066 0318 dbf0 b33f
00000720: 43d2 defb ed9c 88bf d98f f564 f8d7 8e3f
00000730: 2e6e 1bcc 10e1 b4bf 94c1 0e85 1255 b0bf
00000740: 9411 2c2b 31f1 afbf d34a 216e 7c44 c03f
00000750: b8a0 8a02 2d57 9a3f c511 0d45 987b bc3f
00000760: 6217 16da 7b8b 9ebf 857c 1898 d2fb a4bf
00000770: de2e 32f7 6be6 b63f 05de 0829 8fec 983f
00000780: 3a7c bbf5 a44c b43f 55b1 9886 2d37 b83f
00000790: d395 045b 9dcf a23f c21b 28ad 1ba0 373f
000007a0: 50de 6728 d836 a33f f895 ba8b 21ea ab3f
000007b0: 3d97 bbed 22a1 b2bf 4b80 00de abdb 94bf
000007c0: a210 43cc ab46 b3bf 368b dd6a dec9 c4bf
000007d0: 1cbb 6f21 94c5 ac3f af05 7f25 031b c13f
000007e0: 1941 49e8 da7e b63f 2660 c771 1bab b13f
000007f0: fa48 c1f0 3e5a c5bf 0222 854e 5f9f a4bf
0.03218254123137393 0.004079941289013484 0.11507364607581834 0.14999235559745674 -0.13885389354749927 -0.0756671185412233 0.14869271394716652 0.08112660074203018
0.07875816182756255 0.1025571410247758 0.051204771929957676 -0.049594021958863595 0.17147055329091715 0.04025657615649393 0.07820251020451122 0.08202866899901637
0.10444215141864097 -0.09444776901843059 0.012854636014626554 -0.05088985694087374 -0.035324820175817645 0.07517286354670841 0.00994736921825462 0.006388610981257962
0.07453275419727123 -0.05387864162922424 -0.12506430509048153 -0.09001734403440477 0.033916792703178496 -0.025635326264912564 -0.03949984530401284 0.0002623918550130026
-0.055293088019687714 0.10268524781698142 -0.07986200150264254 -0.0011587317620401691 -0.11423042709056402 0.03257425437410943 0.0025788680262991354 -0.0005170386581098921
-0.09614142756423044 -0.0692982039949133 0.03600927069047173 -0.06767595208504835 0.10985055647076988 0.03016062897481558 -0.05777310104774535 0.12045006126394395
-0.016097920224763283 0.002476568510334356 0.04909881709179488 -0.029636580775979058 -0.22811577525334434 -0.04711466265017308 -0.02568069956725847 -0.10862442983838382
0.15197884934605801 0.027956748038189715 -0.12388642725878461 0.20437973803778 -0.004063972083072261 -0.04168279455925722 -0.2171648405910994 -0.057596625846535
0.06829224177534336 -0.12934079143016378 -0.11075738994186742 -0.12909572028070843 0.014705366177450526 -0.1315370598012183 0.021936750068749872 -0.08756929809067336
-0.014989339525543271 0.0789746853395559 0.12265410941507121 0.05000227144256248 -0.14495317293532684 -0.05621997328614497 0.05286250502959604 0.12023587186285367
0.07319245764095289 0.017579333550810892 0.016761156170596418 -0.006121972511993612 -0.007090070927247214 0.01789550834832428 0.10003348292102182 0.09897489369213973
-0.035442340081560816 -0.247199811398278 -0.054570543564448265 -0.15884369327228617 -0.01597794604617853 0.023489503242188226 -0.12183541562890866 -0.09323679988405137
-0.08632525970376781 -0.07797019520633972 -0.008042889263664076 -0.030391798146918177 0.0438616909413612 -0.016077086886620334 -0.01738004672415435 -0.12256093807713912
0.10816752538356572 -0.006337042029223399 -0.07646850787382925 -0.046325340259530064 -0.0065636734040903566 -0.07305592783511217 0.07605873154574441 0.11869203883334446
-0.052772496312208386 -0.10787854129608519 -0.06211270432666004 -0.14372445140582574 0.023486883246990345 0.17389529764976314 -0.015064849368774186 0.02436092523155782
-0.11521355161278914 0.13161140621133635 -0.08552808964465645 -0.08201307703335092 0.007214054242933668 0.1516778324910916 0.05200447356102022 0.07319858132772254
0.02846938676730148 -0.03390770884125914 -0.023024755229612517 0.06121941213630615 0.01938738481488711 -0.27090662426437623 0.05548670370375917 -0.03992004803058054
-0.019175338193044466 -0.07778010200215525 -0.07215576657300365 -0.09031634956018794 0.176491550638482 -0.0740274895972615 0.10017859065975841 -0.20935855109946827
-0.12535395753842074 -0.01114339630846278 -0.0212808017324516 -0.1501234172730973 0.12785758119862936 0.0066965582373893886 0.06909950959525703 -0.14356721020160335
-0.025990492866596313 -0.045728793350492174 0.12475550360206336 0.11507850273704037 0.11092645193555283 -0.04657069051492288 0.06804742015086995 0.04681454310387576
-0.06283109395283498 -0.014616958464427447 -0.022246696267491275 0.12269842895891614 0.03622174299729501 -0.043709948836770166 -0.21875580284217916 0.028195028963499628
-0.20884439738741498 0.15832794424965718 0.026170367421071563 -0.06421421518849639 -0.046016560362896274 -0.06841590549986282 -0.04583636874417941 -0.030195809221662408
-0.19816880703429812 0.10421016585132652 0.048490710651444106 -0.04898193459199524 0.04160036907877939 0.14995413802152868 -0.13987392841139293 -0.059413668796278
0.10817715962118528 -0.0611547059313001 0.16015364582599034 0.13390664586423873 0.11559399673483232 -0.00496464871805204 -0.06568914089247058 0.009384259172100312
-0.012544471583996623 0.021381216591433678 0.13063982625949852 0.05196954611868434 0.04119276571556464 -0.023269249737413046 0.07697481037566928 0.11800476680831244
-0.011412590974653301 0.12679631341069114 0.08653084585238657 0.03290394089391415 -0.16266939478079778 -0.0005757917288708471 -0.15485439560586253 -0.028043228281847552
-0.05752029323155442 0.10952080193349228 0.001280546184664676 0.08715006723219637 0.04153959214589711 -0.010377959241580085 -0.10877984476068138 0.010388660596458928
-0.01776650635798915 -0.08934320329525136 0.09768622619709573 0.14789417539367686 0.11352294360335927 -0.03991929173334669 -0.036163386433165676 -0.023288704923197786
0.003035652054716508 0.0749943638513304 0.10204448096395605 0.07789391838323545 -0.012018069504713519 0.015060368138342927 -0.081559228735778 -0.06379810093381472
-0.062387024421727194 0.1270900285477042 0.025723174362298734 0.11126090703789433 -0.029828963457041786 -0.04098375422130921 0.08945345673617619 0.0243399018092685
0.07929450034451771 0.09459194694563185 0.036740224228463035 0.0003604953355140183 0.03752780431017 0.05452065306353043 -0.07277124694846022 -0.020369229721950693
-0.07529710518707813 -0.16241054742848754 0.05619490535888458 0.13363684969776332 0.08787315531776975 0.0690171387462902 -0.1668165851174946 -0.04027841409203249

block.2.bias f8 [60]
00000000: b3ff f3c1 8a3d aabf 4363 505a d2ae bebf
00000010: 7462 a96c fad9 bbbf 270d b9cb 693d b0bf
00000020: dbaa 966e 810e bb3f 54a2 246c 5e06 b1bf
00000030: c5e5 c07b fb86 8fbf c6aa 2ff9 15d9 b9bf
00000040: 695c 6d21 6a11 b63f 372c 1de4 5d86 b7bf
00000050: ba0a 38ce c8e7 b53f f942 e417 d1f6 b6bf
00000060: 4b7e 02b9 34da babf 3ef7 b672 abea 57bf
00000070: 193a e043 cef7 aebf 94c9 cc61 5376 ae3f
00000080: a2da 4d84 0e2a b4bf 0b74 e494 a2b5 a0bf
00000090: 911b 8098 f5b0 bb3f 2397 a2d3 4f72 b53f
000000a0: aa1d 63b0 8bdf 923f 2d8a 1fc0 d141 b03f
000000b0: 6bdd 2d7f 43ed b1bf 1eb7 56e2 3350 b4bf
000000c0: 931a dda8 e2a9 b6bf 0a4f ec06 eb46 7d3f
000000d0: ccdb 2d41 1729 c03f 9c3b 7b2f b230 b63f
000000e0: ea59 4dcd 2d52 b33f fd66 1a70 18b0 c03f
000000f0: eceb 0100 b79f b73f 8b03 adb7 f2c9 b4bf
00000100: 52ab bcb8 364e a0bf 52de fa27 5176 be3f
00000110: 2460 0045 1dea b43f ec47 d29c 67a7 a1bf
00000120: fe16 0b2f 3159 b03f f545 aadb 8d45 93bf
00000130: 5337 a95c 5756 a7bf 7f1f 3b42 8c19 973f
00000140: 9a8b 24e3 c940 a6bf 2755 3a0e 7027 bebf
00000150: 73cc ef63 a93d 9a3f 0e88 86be 496a c6bf
00000160: ad97 ca84 acb0 c2bf 0f88 7725 0f82 9cbf
00000170: d021 04c0 2d79 a0bf cb45 089c 2431 af3f
00000180: abd7 8f88 a86e 8cbf c593 89f4 2360 9abf
00000190: 2b4e a2de 8631 b6bf ab18 9ec8 8a9c bc3f
000001a0: 01bf 5a2f a654 9d3f cf9c 3ccc 7b65 b83f
000001b0: 653b fef8 c8ca c9bf f7b6 11b8 584c a2bf
000001c0: 73f2 f8d8 1ad5 92bf 77a7 418c b733 b73f
000001d0: 8bab d5af c4b4 a5bf 3f66 b938 9fc3 9cbf
-0.051250778366010684 -0.11985506730014799 -0.10879483368752024 -0.06343709205343782 0.10569008779445303 -0.06650343075001192 -0.01539417716422776 -0.10096871694228601
0.08620322528928316 -0.0918940240782583 0.08556799921647498 -0.08970362504284059 -0.10489205853309007 -0.0014597582147497091 -0.060484357629423786 0.05949650353285843
-0.07876673441010465 -0.03263576571973922 0.10816893551974106 0.08377550999520315 0.01843088401872498 0.06350432339198937 -0.07002660613021809 -0.07934879566047612
-0.08852974531792261 0.0071477108711126645 0.12625399286818462 0.0866805425568899 0.07547270071277237 0.1303740069750389 0.09228080511267905 -0.0812064836909611
-0.03184672360506248 0.11899287439416043 0.08169730124097946 -0.03448032178233959 0.06386096380728287 -0.018820015461249857 -0.045580606518895415 0.022558394949356405
-0.04346304795969687 -0.11778927180633457 0.02562584564652721 -0.1751186542797431 -0.14601665958360624 -0.027839886342810923 -0.03217452019640954 0.06092180638018937
-0.013882939021623594 -0.025757371712092487 -0.08669321952248114 0.11176364324464554 0.028643223419464018 0.09529851661919796 -0.20150100858560474 -0.03573872801722005
-0.018391055577227932 0.09063288854818362 -0.042394777740660215 -0.02808998855321065

block.4.weight f8 [60, 60]
00000000: 8313 07f0 c3d3 c0bf 350b 5bb2 e098 c83f
00000010: 09e9 8edc 1719 abbf 24a3 1e5b 7bfa a43f
00000020: 8f38 871a d7a4 c3bf c514 0803 2782 a4bf
00000030: 8386 c327 002d b8bf a320 92b7 0f4f c83f
00000040: 0212 eb3f 9787 bd3f 5d3b c005 714b bb3f
00000050: b995 31a0 5c1e 87bf 1c6c 4abd 5364 c0bf
00000060: f49d 46dd 485a b4bf 3659 7fe8 d95e bebf
00000070: 2204 64a4 2b5c babf ef82 589e 65ed 9e3f
00000080: d319 d28f 9a69 d0bf 245d 294a ebae c23f
00000090: a314 6304 a6c4 ba3f 885a 0de9 6962 a2bf
000000a0: 1674 dd68 3124 bebf 31af 734b e413 c8bf
000000b0: f5e0 bd29 136e bbbf d672 1cb4 1fd2 903f
000000c0: b8cb c107 c115 bd3f 94a8 428b 50e0 953f
000000d0: 7b67 b795 86f0 c9bf f30a 257e e6a0 d03f
000000e0: 5777 f48e 601d 753f d9df 8355 2ba8 9cbf
000000f0: 3e09 5a3d 8afa a4bf df90 04d7 cff7 a03f
00000100: 7c40 61ad 56d9 90bf 6f27 e6a8 434c b63f
00000110: 1ca3 12ab b7fe acbf d80b d9b9 75f0 b43f
00000120: d61e c462 de9e c4bf cfdb 7b35 6142 c13f
00000130: 5749 434a db86 b4bf d51c 9c34 e7c2 b53f
00000140: b96d 12ce 720a 9dbf 178a d15e 8b9e b13f
00000150: 57ed 4287 80b4 a7bf 076e 7305 dad6 b2bf
00000160: 69c7 ffa3 48be b1bf 3178 d3b8 11cf a7bf
00000170: b59b 9067 fe75 c4bf 9e6b d23f 8c5f a03f
00000180: 275b 8952 4d05 b63f a170 1d4a eee7 a33f
00000190: ce30 a028 0573 ac3f 4422 7a51 6f96 913f
000001a0: fa61 082b ed2b c63f b2c2 f0a5 d309 b1bf
000001b0: eb62 967c 5edd b6bf db4a 842d 612b c3bf
000001c0: ebb4 5ab9 3413 913f fcc3 e1df ffb2 ae3f
000001d0: 5f56 a019 9da5 b03f 3f5a b330 490a a9bf
000001e0: ba8f 5973 2205 c6bf 7431 308b 966e b83f
000001f0: 5afc f723 22ba b23f adce c726 75d7 c0bf
00000200: 4ae4 ba1f 4355 a63f 1374 faa0 4da0 be3f
00000210: 27ae 2e4a 814e 88bf 1b12 4418 8137 9ebf
00000220: d552 b028 18e1 97bf c540 5ae1 8b82 b0bf
00000230: 6231 7de9 235d 943f 8f32 b182 c5d4 b7bf
00000240: 9d26 2d55 b0cf cabf c9c2 c1b7 ad5b cb3f
00000250: 53fb 479f 782a abbf 87dc 885a 7134 783f
00000260: 3251 00ab 657d b33f 553c 0d24 3301 b03f
00000270: 4f29 fe4c cba7 babf be05 f94e e7fd a13f
00000280: 7c51 9123 d18e 73bf 0e32 41d9 d981 95bf
00000290: 341e b3f1 37fd a6bf d481 47e1 69bf cebf
000002a0: ab7b 6130 4b3a b23f 6464 bdac d88a ccbf
000002b0: ef35 b0b8 a480 c53f b459 91fb d5f7 c3bf
000002c0: d1ac bcbd 93ff afbf 69cf a69f e603 b93f
000002d0: f59a 86f1 b661 bd3f 3e0e 0274 440e b9bf
000002e0: 3a02 13cc b5c7 c33f 1f72 63fd d509 bcbf
000002f0: a99c c53a 3688 bb3f 4056 9928 317b b23f
00000300: e473 13dc 6ae5 a23f 1965 17f2 955a b7bf
00000310: 0393 eb86 a683 aebf 7b4d c060 bc1c b5bf
00000320: 2833 ba59 db0b babf 2059 9257 a51c 83bf
00000330: e849 0098 b3d3 b2bf da92 d14a b691 993f
00000340: 3e53 4ca3 f5f1 90bf 4bc6 30c5 121e c2bf
00000350: 1f49 1748 4b22 c03f 0ef9 da3b 10f3 ba3f
00000360: 70f2 c44a 2d6c 8dbf 35bb 13f8 3805 b33f
00000370: 299b 9e7d 49ec 963f 79af 5ede 1413 a03f
00000380: ea06 9624 7496 89bf 1939 5131 2cef 8b3f
00000390: 3abb d0f5 edec a13f 6622 a2ed c9ad c63f
000003a0: 9d3e c4e3 fe9b 5abf 8ea1 8520 3563 c4bf
000003b0: 1f57 7f4a a431 6bbf 36d6 ddf9 47b5 b43f
000003c0: 9861 0e9c 7708 933f 3e2a 9a11 c010 babf
000003d0: 8099 e6fd 3484 b63f fb15 c085 6244 b93f
000003e0: 63be 24d1 2bb4 cabf ba12 7684 cc02 bd3f
000003f0: 9aab 13f7 3086 7d3f 6ebb b789 dd21 c63f
00000400: 652f d973 b085 a23f d38e 74e5 bd8f b53f
00000410: 3668 2dd0 9151 9a3f 2494 dce8 db1a c3bf
00000420: 475c 1c1c 0079 7bbf 4fd9 23e6 4d1e 70bf
00000430: 3f32 6d3e 5390 b6bf 4a81 2e66 bbbf 90bf
00000440: dcb8 bd3e a429 95bf e417 20a3 603d a33f
00000450: 4edd 9473 9dd5 9e3f 03fe 9cee 7c2b 953f
00000460: 74e7 b5b8 1c72 c23f d686 26f2 29f1 99bf
00000470: d0c9 6a56 f93b c03f 4e5b eb1e f7aa b33f
00000480: 8375 0ddd 7a32 62bf 9f6c 2ee4 1a26 a1bf
00000490: cf9d 1032 45ad a53f b981 5ca3 6c2c cf3f
000004a0: e91f cccc 1c87 be3f cc8f 167a fffe b3bf
000004b0: 8606 1393 17de b63f ac93 ba71 70cb bb3f
000004c0: 103b b67d 8d6a bd3f a6fd 2ad4 f80d 91bf
000004d0: b09d a1ec 264a b3bf f686 7d60 eb21 a23f
000004e0: 275d ba61 2df5 cdbf ec1c 40b8 91bb bd3f
000004f0: d049 f82b 1e5e 903f 36e9 a937 5997 a4bf
00000500: b71a bc3c f674 843f 4df4 f61f 5bbd b43f
00000510: 9c15 5516 b366 bc3f 1462 94e6 ea01 c2bf
00000520: fe55 a6ae 8a69 913f 5400 cf40 1f1f b6bf
00000530: 2068 52d0 ec82 b4bf e302 cae7 9ee2 a7bf
00000540: ae3b 8ccf 5d34 933f 58f5 1b0d 42d4 babf
00000550: fbaa 3d83 b70d 89bf 465a 67bd 7ec9 a53f
00000560: bc49 b084 98a3 a8bf 6db5 2030 fc75 b7bf
00000570: 22e8 5660 2377 c7bf 0781 99d8 4376 99bf
00000580: 3896 3044 225a 83bf aed4 cfea 72bd b53f
00000590: d76c 6da7 6037 ba3f c310 fc2d 8bd4 c23f
000005a0: 15ea 4222 d6a0 c3bf 3070 cb31 34d6 a5bf
000005b0: ca75 aaaf ca93 c03f ecfd 8f2b cf65 b43f
000005c0: a8f5 a3f7 39a3 953f f5c1 81b2 aa7d be3f
000005d0: 5c62 edde 5a3c c23f 8818 ca62 f714 97bf
000005e0: 67e5 e40e 342f b83f e4f0 5bd4 492a babf
000005f0: 103b 4b6c c80d c7bf d22c ee70 6a20 b73f
00000600: 527d aec8 92b3 a13f 1d93 1627 d35f ba3f
00000610: 4a10 795a be66 b13f aecd 89a6 de5c c4bf
00000620: bfe3 8130 a328 96bf ca24 4f5a 7b9c bd3f
00000630: b455 01f8 1852 bbbf 2084 8070 a25d be3f
00000640: e5bf 2216 6ae0 bbbf f6d5 b606 bac7 9bbf
00000650: d8e9 668a d584 b7bf 65f0 88e3 129a bdbf
00000660: 9da0 cd1f dadd 8d3f ca44 9ec0 cf57 b73f
00000670: efb2 30fa 8eb5 a53f d1bf d1d9 5da4 c3bf
00000680: 0767 b9ba 82e8 a5bf db40 f29c 9dd6 c23f
00000690: 6403 80b2 feb3 b8bf ca94 2e65 f041 a43f
000006a0: 3adf f113 c635 a6bf 1b88 cff8 a89a afbf
000006b0: 0ee8 7b36 6565 c13f bd2d 5070 9153 84bf
000006c0: 6b21 a2a3 f4f4 bf3f 8db7 e6e0 c1f3 b6bf
000006d0: a5cc d8ff e620 ba3f f498 4757 e5eb b4bf
000006e0: e180 c333 2ac9 9ebf a4ae c0f7 f4bf c33f
000006f0: e9a9 9b06 426e 95bf 9b55 9d70 bce2 c73f
00000700: a0e3 a6e4 1a50 bfbf 4294 75f3 6fff a43f
00000710: df67 b2c7 1673 bf3f 884e f80f 3c9d c13f
00000720: 247d 131a 730d 93bf 700c 6511 ed00 c43f
00000730: 774e 667d a964 c93f f702 03ee 0ec6 a53f
00000740: 2b1e 95e3 6cfc b53f 7573 c643 b840 aa3f
00000750: 78ed 3e5e a1f3 b23f e359 534f 0c48 c13f
00000760: 53b2 4073 48b1 c33f abee d5ea cdb1 90bf
00000770: 6439 48cc 55e1 bbbf aa29 5bea 8950 c03f
00000780: ade4 ca12 6eee c0bf e331 5565 77a4 c83f
00000790: 93ff d2da 28e5 b33f 607f 64f7 4a2d 75bf
000007a0: 93fe e720 d941 c93f 5e65 ba7d aa6e a83f
000007b0: 14a2 3b54 5d19 ba3f 1fde 7635 b123 873f
000007c0: 166e 76cb 0f2d c03f d290 6864 4263 c8bf
000007d0: 4d79 90eb e2c0 abbf acd3 620c a94c b13f
000007e0: 2586 4264 3a38 9bbf 7464 00d7 2546 a7bf
000007f0: 898a c6a4 ab23 683f db96 95ff 994a cdbf
-0.13146256656741792 0.19216545780917618 -0.052925820993055046 0.04097352492619269 -0.15346802516291233 -0.04005548393255646 -0.09443665476603695 0.1899127622930382
0.11535020170692437 0.10661989584353422 -0.01128837932464931 -0.1280617403288894 -0.07950263406984687 -0.11863481451232336 -0.10296890986866505 0.030202472486169304
-0.25644554181090234 0.14596310731097006 0.10456311804871858 -0.035907087038755725 -0.11773976144964168 -0.18810704883741772 -0.10714835900387583 0.01642655884562568
0.11361319007282489 0.021363504886416765 -0.20265276251194195 0.2598205787545986 0.005154969388312689 -0.02798526486819228 -0.04097396849558031 0.03314065456132353
-0.016454080898541154 0.08710120080482196 -0.05663083995142967 0.08179412638951022 -0.16109828779757746 0.13483824836268218 -0.08018274844224514 0.08500523600024519
-0.028360170200000676 0.06882544579415427 -0.046298996459394 -0.07359087594107204 -0.06930974964032334 -0.04650168782403375 -0.15985088402632433 0.03197897223545641
0.0860184027199976 0.03887886671756858 0.05556503411216483 0.017175425861326823 0.17321552849968197 -0.06655619431763674 -0.08931532422719683 -0.14976134035585784
0.016674827397470542 0.05995940788205442 0.06502706409113433 -0.048906600184342335 -0.17203169472042906 0.09543743990088221 0.07315266969816162 -0.13157524484232877
0.04361924898461973 0.11963353328833674 -0.011868486477246766 -0.029508607011864734 -0.02331960438103205 -0.06449198009272823 0.019886551977195473 -0.09309038582541461
-0.20946315917017425 0.21373530838493185 -0.0530584043917687 0.005909388339708894 0.07613215851626334 0.06251830701988699 -0.10412283544261423 0.0351402553465152
-0.004774872731179488 -0.021003154645130855 -0.04490065408168356 -0.2402164793011382 0.07120199137851439 -0.2229872554260367 0.16798838632568855 -0.15600085052092327
-0.06249677363515505 0.09771577260727117 0.11477225681901955 -0.09787395317294398 0.15453216995776292 -0.10952508388749792 0.10754717764722223 0.07219226113496635
0.03690656601404621 -0.09122597847398985 -0.059598163575890005 -0.08246972429360781 -0.10174342098816835 -0.00933198140618835 -0.0735428091141227 0.02496990996987134
-0.01654800233071118 -0.14154276493495596 0.1260465719229353 0.10527135335266655 -0.01436648735454435 0.07429843956536504 0.022385738651475116 0.0313955804298009
-0.01249399887706511 0.013639779334110135 0.03501075387645476 0.1771786127394705 -0.001624106326804687 -0.1592775734709559 -0.00331956947409652 0.08089113092668118
0.018586987399972082 -0.10181808881513008 0.08795481871366029 0.09869972005261467 -0.20862338745199613 0.11332395776669105 0.007208052892773953 0.1729084894609189
0.03617621816792286 0.08422457553802624 0.025701788264406576 -0.14925717230031055 -0.006707191876350888 -0.0039351504258234435 -0.0881397273453297 -0.01635639964263306
-0.020666662530339205 0.03757764807964728 0.030111751727614426 0.02067370611552911 0.14410742777891594 -0.025334029583638472 0.1268302604635907 0.07682747368685947
-0.002221336333987524 -0.033493843416374285 0.042337572442473374 0.24354322411183008 0.1192491531365928 -0.078109710032151 0.08932635632211303 0.10857298637945573
0.11490711516510665 -0.016654861402228292 -0.07535022046214723 0.03541503479824641 -0.23404471656679357 0.11614332912732878 0.015984031137188215 -0.040217197461020524
0.00998871205184791 0.08101434259784064 0.11094207091544778 -0.14068351992388328 0.01700417223908878 -0.0864123852943533 -0.08012275777801436 -0.04665085391480319
0.018754449646674658 -0.10480130024003154 -0.012233194058088417 0.04255291044289726 -0.04812313670858567 -0.09164405989641518 -0.18332330898357535 -0.024865207762901267
-0.00944926043127757 0.0849220107337085 0.10240749442657503 0.14711131806700992 -0.1533458392421642 -0.04264987094731543 0.12951024606165468 0.07967848599945854
0.021130471935057266 0.11910502298429278 0.14246688733216473 -0.02254091778242942 0.09447026599527462 -0.10220776972340989 -0.18010812080179806 0.09033837563599725
0.03457316112257537 0.10302467064191174 0.06797399243174698 -0.15908415920021696 -0.021639394603400804 0.11566897349179608 -0.10672145895781321 0.11861624952918293
-0.10889304199622492 -0.02712908426265944 -0.09187063816981522 -0.1156322293763324 0.014583305450017564 0.09118364765733414 0.04240080646591148 -0.1534535707064593
-0.04278954057072153 0.14717455066102655 -0.09649650438224239 0.03956557498103448 -0.04337901109187077 -0.06172683751334792 0.1359068408999637 -0.009925018539454262
0.12483147616342698 -0.08965694180252921 0.10206454988729037 -0.08172448521472458 -0.030064258012203807 0.15429555985735022 -0.02092841306049734 0.18660693644293933
-0.12231605608293572 0.04101133200564579 0.12284986853992973 0.13761091975958473 -0.01860599371582085 0.15627826070167172 0.19838446257618944 0.04252669005791703
0.08588295513356374 0.05127502276739097 0.07403000403330917 0.1350112330753311 0.1538477480657031 -0.01630326982329559 -0.10890709149700722 0.12745784705323376
-0.13227630536656446 0.19251911590471513 0.0777154478300857 -0.005170147740756054 0.19732202631711412 0.04771931442992171 0.10194953257053668 0.011298546260930796
0.12637517389963254 -0.190529154803818 -0.05420598149815934 0.06757599403756726 -0.02658168065011614 -0.04545706033258848 0.0029466965117575556 -0.22883915881828085

block.4.bias f8 [60]
00000000: 53fd 818c 97ba b03f de33 c2e1 6188 903f
00000010: b03e ad33 dbed ac3f 0111 0738 19d5 9c3f
00000020: 5e16 65d8 f138 b83f 95a5 2eda f7b9 aabf
00000030: 1542 1968 795d a7bf aeef 6b37 fd81 acbf
00000040: 6652 a46f f804 b03f 2336 2a9a 105f 6d3f
00000050: 21a7 81eb 8031 c33f 9892 1673 cedd a83f
00000060: e3d2 a57d ee46 83bf 5632 b258 ac2c af3f
00000070: 53f9 527d 3f1b a73f 46e6 8775 050d afbf
00000080: c3c5 3a42 8b2c aa3f 2f24 f945 9e41 c23f
00000090: d844 1eab b8ff bdbf babe 09e5 b854 acbf
000000a0: 8830 ecc1 2af3 a13f 16d7 1ab2 7c6e c3bf
000000b0: 0e08 e8cf f666 9bbf 83f8 bdd0 68d3 bbbf
000000c0: ca5e a25e 9cf2 aa3f ab97 0603 3d33 cc3f
000000d0: 55bd aae2 0d0b ac3f 73c8 f3d8 d348 b73f
000000e0: f997 6abb eeb4 c2bf 6025 0745 3e4a bb3f
000000f0: 25bb c24c 1c50 a93f 77c9 e3e5 cf5e b73f
00000100: b702 cffa d9ef c33f 6d23 8b06 38f7 883f
00000110: 764c 0d94 b816 bdbf 9cab ae76 f3f4 a9bf
00000120: c228 e961 d287 b93f b04d 5ecc ee82 c03f
00000130: 6626 d979 b973 a43f 5eae bb7d e098 b6bf
00000140: ae6f 2802 963d bcbf 2c35 2094 9759 c23f
00000150: 4dcd f283 e6b5 adbf 7af7 7446 18a8 a1bf
00000160: 8d16 88d4 128f aabf e060 21e1 7396 bc3f
00000170: 61ff 58d4 772e c2bf 4547 25e9 dc7b bb3f
00000180: 64a5 4e49 f835 a3bf 92da 4332 d637 be3f
00000190: 2e86 3e56 146f b83f c047 4425 d33f a13f
000001a0: 4560 dd50 c7eb b9bf c765 6210 1082 81bf
000001b0: c495 1128 5814 b0bf 1800 8e09 2de4 b73f
000001c0: 3dce 7ae2 906f 903f 4e6a 165c 9503 a33f
000001d0: 2342 0b53 0717 9fbf 36fa d50d e885 943f
0.065347167781501 0.01614525738164107 0.056502199228473216 0.0281566563078437 0.09461890729024833 -0.05220007456166368 -0.0456350268910947 -0.05567923833402176
0.06257584310180561 0.0035853695165488793 0.14994822978342717 0.04856724886784497 -0.00941263504930973 0.06088770468440845 0.045129760788301575 -0.06064621982291078
0.05112109359232477 0.1426275102296883 -0.11718324830714566 -0.05533387943148456 0.03505834214419773 -0.15180929848218544 -0.026759964408491092 -0.10869460197679541
0.05263222365573268 0.22031366966001306 0.054771837157540894 0.09095500990568599 -0.14614662314596652 0.10660161195041473 0.049439319963644736 0.09129046785873195
0.15575718637957944 0.0121902825352593 -0.11362794508504401 -0.050696953046404064 0.09972872629546983 0.1289957521336027 0.0399454079857378 -0.08827021665245513
-0.11031472733196665 0.14335913403230316 -0.058028415305126126 -0.03448558673925013 -0.051872814601705654 0.11167072531077649 -0.1420430933812851 0.10735874835998256
-0.03752113242019098 0.11803950049566428 0.09544493775913374 0.033690069483909735 -0.10125394558178964 -0.008548856258402971 -0.06281043031920946 0.09332543833988927
0.01605059034655042 0.0371367144500324 -0.03036128467903344 0.020042062611077514
