JupyterLab/best_model_M3_103.pt (torch, 126413 bytes, 12 tensors)

block.0.weight f8 [60, 9]
0.10823487469633007 0.32138267795173653 -0.07365797531152886 0.31545750969293546 0.313555634792433 0.14221476821200468 -0.30535412870499323 -0.36574648330117704
0.06528475010343134 -0.09534391198367427 -0.33008714211228957 -0.2777332400988554 -0.3095358999941245 0.2894761258843457 0.2721702708660585 0.10519200962894923
-0.08097398411187064 0.32101272761393984 0.048696469010007744 -0.2520606741569125 0.2359422505012025 -0.3380753002591094 0.05829886796635358 0.009088382851255345
0.11334672767303211 -0.10824441886630895 -0.21725411311630002 -0.3171478463091825 0.11745969579931954 -0.026015799837874738 -0.17004756992012096 0.3460734526841374
0.35674442100032033 0.023708393011410756 -0.020028545512638878 0.24098772805228053 0.3357947429575267 -0.004283664678877421 -0.016460533701706744 -0.15270631850747687
0.34980050787325917 -0.402271635729331 0.05119083182145487 -0.1870550189382533 0.1472207087845382 0.37644901131554126 -0.2944526636522149 -0.003492110282359979
0.15811146432848291 -0.09291043603590389 0.07700208263196273 0.13792007965962957 0.26079874895121463 -0.16904630840913862 0.38800925482860926 0.26955103034078653
-0.2665529013013089 -0.25552620836275447 -0.37624513803663645 0.29994653299224244 -0.11447243736456247 -0.260467587034611 -0.13809705599655836 0.07441409748246251
-0.1994288789956648 0.14006976810514912 0.3301944128390533 -0.28624853769176034 -0.2106142786359187 0.18017007880717406 0.07102426446926097 0.04509684667826974
-0.24031081052428835 0.12328933013401525 -0.2131267747086218 -0.07217611032048046 -0.27551546261926646 0.15767419787294115 0.30090453862535216 -0.25598682552726204
0.026690343898200884 -0.32366732605688875 -0.2137143084900969 -0.220874610256883 -0.26689294269367125 -0.07006021170265476 0.2181917672294229 -0.3098393609266914
0.29230647261866105 -0.3255700973657831 -0.0881119703355562 0.27904697417813984 0.2549645884909738 -0.26676601514949416 -0.05579474007371445 -0.380561677510787
0.27869425571745127 0.13786010507115243 0.33070184949523335 0.052428272344734995 0.0044402257773262675 0.2705136579862853 0.1726122954383577 -0.17016672915842604
-0.024250999586857856 -0.05806713003574128 0.36859237930614336 0.12897060361871818 0.039770921195859406 0.3123138216968645 -0.203839490831414 -0.29851163638105516
-0.10610010378016678 0.25393863893229396 -0.04000307091375151 0.3004749782661333 -0.09778182885357378 0.0641065487913857 0.2978455470285122 -0.009198769996326897
0.01297374327259607 -0.25114568893512756 0.23181702228821469 0.38339330205321126 0.42660643129653225 0.10013815970987217 0.4040242485234467 -0.08297239880550163
0.20000526353440498 0.0965227494901224 -0.010479302152367045 -0.304343537396453 0.24984967310186806 -0.1536291613337637 -0.2388998925844606 -0.32677437116100433
-0.04249476758534667 0.15185662579703335 0.022734485917770653 -0.2409467069695751 0.17943390914854285 -0.36302138823291885 0.024755318274985897 -0.14096359778253378
-0.017288219777677444 -0.2059558653441357 0.27844369513151845 0.28455810753646915 0.4133268015051266 0.3028195861122092 -0.010762784048618902 -0.323712391072523
-0.12068712769568136 0.01191044062356092 0.3201781388808721 0.23765024022159584 -0.15016251214365564 0.02543415388616169 -0.27075663687105334 -0.22958670974335693
0.06691885271286077 -0.000611885389966549 0.3632772918615619 -0.07638188230907413 -0.21699569595567042 -0.2579435235819946 0.21408824868279538 0.00473149834204914
-0.195302513690906 -0.006661252143490987 0.150371199609445 -0.36540112100831745 0.17373817074520334 -0.009352501237601214 -0.3140614296876899 0.2556963467813233
-0.30128942214737525 -0.31702941244487726 -0.10833196450808145 0.08045633562350811 -0.44955048376009327 -0.07483545950570515 0.10162852317283541 0.21659827108715213
-0.3455531064304807 -0.20242842261335645 -0.08879005584138068 -0.3132209402612953 -0.1726616269823521 0.016301038372922474 -0.1746463661226025 0.30414183027285424
0.2190268714773406 0.21786713478433486 0.2518318931495855 0.012438480069682565 -0.13087973138328482 0.3237188751206235 -0.21750173347335452 -0.010750410120952071
-0.172097100993829 -0.2740490568296637 -0.18987621549454908 -0.3449718846062372 -0.33766397922734276 -0.013649631108323509 0.24503710039954446 -0.31710030008126305
-0.28020533255340846 -0.16453270453892757 0.07216084178562712 -0.0919815709261326 -0.19033347390993854 0.11548404440725012 0.22594399890419836 0.31045581682595097
-0.2108158880163494 -0.22602474797627856 0.09866050123124588 0.19748291470489177 0.2231234603254124 0.25600734521556595 0.2991056070777229 0.08518812454337547
-0.20775265078962912 0.25748818623864045 -0.07463521479599236 0.2437532485897346 -0.35039992241485723 -0.22383942550519778 0.08662264611603605 -0.19876121640147482
-0.33225768649088716 -0.14757115759579748 -0.12166102242620369 0.14082697623197354 0.15609906745689764 0.1665399232908114 0.11455545159180226 0.4120308305895217
0.06723888637698909 0.30852064375384897 -0.2888190087149631 0.3563778204157714 0.22696688586098138 -0.26476655145017225 -0.12176283689794176 -0.25034653724375083
-0.3246958315568878 -0.220183856056006 0.40095704967962803 0.2817667034435469 0.03339720926142403 -0.33061956401347076 -0.03243875389087075 -0.003482143583028446
00000000: 477e 1bdf 47b5 bb3f 536e d3a6 8891 d43f
00000010: a976 0dc3 3fdb b2bf 2329 dab1 7430 d43f
00000020: c23d 3aa7 4b11 d43f ae48 3df1 1734 c23f
00000030: 2823 1f0b ec8a d3bf c9f4 19f0 6368 d7bf
00000040: 552c 9f5a 80b6 b03f 8db3 d767 7568 b8bf
00000050: edf3 0cd2 2520 d5bf 1726 cfa3 61c6 d1bf
00000060: 8969 daa9 6fcf d3bf c858 69df c686 d23f
00000070: 300b 14db 3c6b d13f 9627 2811 dded ba3f
00000080: d159 9605 b6ba b4bf 78e7 acf7 788b d43f
00000090: 3946 a85b beee a83f 4d25 0718 c321 d0bf
000000a0: deda d20c 5b33 ce3f 37b0 8c95 06a3 d5bf
000000b0: f75d 9e66 59d9 ad3f fd14 f518 ee9c 823f
000000c0: c8db 7688 4a04 bd3f ce5c 01ff e7b5 bbbf
000000d0: 63c4 6097 fbce cbbf f743 f97a 264c d4bf
000000e0: 3562 0eb0 d611 be3f 858b eec5 e2a3 9abf
000000f0: d91c c967 1ec4 c5bf f9b2 5244 1126 d63f
00000100: 6884 4e8d e6d4 d63f b0b7 7f52 0347 983f
00000110: 5e59 daef 5c82 94bf c866 5c95 afd8 ce3f
00000120: a3f6 ca3b a97d d53f 82b4 3e7b bf8b 71bf
00000130: 7fb3 b1b7 07db 90bf 09eb f071 e18b c3bf
00000140: 5126 5cab 2163 d63f bc37 e487 d1be d9bf
00000150: 3c6e 0e49 af35 aa3f 153c 723a 6bf1 c7bf
00000160: 1403 c3d0 20d8 c23f dd8d 0d98 bd17 d83f
00000170: 74ce 26fc 4fd8 d2bf 28ca 9d6e 7c9b 6cbf
00000180: b9ed 3418 ff3c c43f f136 3b74 fac8 b7bf
00000190: b8cf a092 68b6 b33f 07c7 cc7b 5da7 c13f
000001a0: d752 653c edb0 d03f 553a 1037 4fa3 c5bf
000001b0: 7230 02c5 24d5 d83f 8eac faf6 5240 d13f
000001c0: ed8d 6fe6 330f d1bf 2317 0c99 8a5a d0bf
000001d0: f35d c97c 6614 d8bf 5d04 70f1 5232 d33f
000001e0: 4032 c6ce 104e bdbf f9d3 fe3d 80ab d0bf
000001f0: b6ec 9611 2aad c1bf 9f6c 0c63 cd0c b33f
00000200: 7e08 95b0 e286 c9bf ebbf 9560 ceed c13f
00000210: 51cd 1dbf e721 d53f e57d fa62 e551 d2bf
00000220: 6aec 679f 68f5 cabf 30e7 182a d00f c73f
00000230: b430 1e6d a52e b23f 0094 4513 ef16 a73f
00000240: 77dd 0930 81c2 cebf 5210 dfb8 e38f bf3f
00000250: 4643 a3f7 bc47 cbbf fa02 6131 227a b2bf
00000260: e97d 5f9b 0ba2 d1bf bdc6 a409 ab2e c43f
00000270: 6c49 271c 0542 d33f 362c f690 1662 d0bf
00000280: f9a5 a5a8 b654 9b3f c4ad 0c29 f7b6 d4bf
00000290: fd7b d38e fd5a cbbf aff7 c885 9e45 ccbf
000002a0: e4c2 1923 c614 d1bf 6184 034e 77ef b1bf
000002b0: 58df 4034 b5ed cb3f 4065 8c78 68d4 d3bf
000002c0: e899 1335 26b5 d23f f375 2ff6 23d6 d4bf
000002d0: b232 fa8e 818e b6bf bc24 09d7 e7db d13f
000002e0: b63c 4dfe 5651 d03f 9815 b0c3 b112 d1bf
000002f0: c293 cfcf 2091 acbf 3d43 c15d 1f5b d8bf
00000300: cded 786e 20d6 d13f 9c13 5a61 66a5 c13f
00000310: 6bc2 1317 382a d53f 6d7c 36e6 e0d7 aa3f
00000320: 73ef 0108 ea2f 723f 0109 8b84 1850 d13f
00000330: 4eca e5e1 2818 c63f 3d26 4dfc 05c8 c5bf
00000340: c6c3 7b08 41d5 98bf d2c1 f390 f9ba adbf
00000350: 7f2e ab7d 0497 d73f f908 58d6 1b82 c03f
00000360: b96b bcab da5c a43f 3ab7 911c f3fc d33f
00000370: 1e8a 6095 6917 cabf 54da ee8c d01a d3bf
00000380: a188 d65b 6029 bbbf c8ea 59d9 8740 d03f
00000390: dad5 a052 487b a4bf afd6 3a67 fb3a d33f
000003a0: 08b5 11dd 3a08 b9bf d3b7 846a 4969 b03f
000003b0: c4c9 efc4 e60f d33f 5b96 6102 ced6 82bf
000003c0: 1200 8058 fa91 8a3f 2c7f 205e c512 d0bf
000003d0: 6d26 b120 2eac cd3f 49bc 740f 8489 d83f
000003e0: dfa3 ab0f 854d db3f 3818 0989 a7a2 b93f
000003f0: 5dbf 8c85 88db d93f d51d 57db ad3d b5bf
00000400: a13d f4c0 c599 c93f b04c 6104 b7b5 b83f
00000410: 880b 3c20 2c76 85bf 5178 f750 5d7a d3bf
00000420: aac4 71f7 12fb cf3f 60f9 d1cf 1eaa c3bf
00000430: a286 d58c 4594 cebf bdad 530d dfe9 d4bf
00000440: 6374 0fca dfc1 a5bf 6255 bdb4 0970 c33f
00000450: ed64 0886 b547 973f 34b1 4179 57d7 cebf
00000460: 0810 cbb9 b0f7 c63f b65e 8d0f be3b d7bf
00000470: 2192 9249 7559 993f 7d84 335d 180b c2bf
00000480: d869 34ca 00b4 91bf cd45 0905 c35c cabf
00000490: 4a81 1781 05d2 d13f 0092 6b35 3336 d23f
000004a0: 5c96 c141 f273 da3f 252c bc66 6561 d33f
000004b0: 9a96 056c cc0a 86bf 4bda 3d2d b4b7 d4bf
000004c0: e149 8002 5ae5 bebf b053 ac47 8064 883f
000004d0: aacc d872 cc7d d43f bfb3 d1b4 526b ce3f
000004e0: 8900 5f73 8638 c3bf 69ea 912c 690b 9a3f
000004f0: d24f 22a5 1354 d1bf c4d3 f8e8 1863 cdbf
00000500: 4e38 e30b 9821 b13f 6836 91de dd0c 44bf
00000510: d430 fb65 ef3f d73f b53e 8656 c38d b3bf
00000520: 764d c0d4 83c6 cbbf 9ffa 7f8d 2582 d0bf
00000530: 7b77 4665 3e67 cb3f a02c 3eea 5561 733f
00000540: 2c84 903a acff c8bf ed0e b541 d448 7bbf
00000550: f89a 4a0c 5d3f c33f f0c1 2962 bb62 d7bf
00000560: 0b71 b568 0d3d c63f 7741 9c77 6727 83bf
00000570: 7664 5c1c 9519 d4bf 337a c835 545d d03f
00000580: dd3c b06d 5348 d3bf b288 94bb 354a d4bf
00000590: d773 acc4 a4bb bbbf ab4b 4252 c998 b43f
000005a0: 19a3 6964 6fc5 dcbf 997b 28ab 6a28 b3bf
000005b0: 363c 5eaf 5304 ba3f 4040 58fd 7db9 cb3f
000005c0: 999b c9c6 8a1d d6bf abde 73af 2ce9 c9bf
000005d0: 797a 0cf2 f1ba b6bf 780e b6d7 cf0b d4bf
000005e0: c4e8 94b4 c619 c6bf 7467 cf2a 38b1 903f
000005f0: 1f50 6ee7 cf5a c6bf fc84 974b 0f77 d33f
00000600: 255e f890 1209 cc3f 01cf 62fd 11e3 cb3f
00000610: ffb3 4a84 031e d03f dfce e388 5879 893f
00000620: 810f 00c3 aac0 c0bf 506c 6f5f cfb7 d43f
00000630: e3b1 0bc8 18d7 cbbf e1c7 1a9f 4f04 86bf
00000640: b7a0 401e 4707 c6bf b550 250e 058a d1bf
00000650: da2d eb23 dd4d c8bf ee16 9bf4 0414 d6bf
00000660: ef64 f460 499c d5bf 3ea3 b379 56f4 8bbf
00000670: 3ae8 422e 605d cf3f e3a6 990e 5f4b d4bf
00000680: 11d4 de58 e2ee d1bf f1fd 8e5c 680f c5bf
00000690: ba66 8507 2279 b23f ba62 f6ae 1a8c b7bf
000006a0: 1a7d e3e6 d85c c8bf 175f f0c1 5c90 bd3f
000006b0: dcaf 02a3 bbeb cc3f 0fb5 0713 82de d33f
000006c0: 1bf3 40d8 03fc cabf 7387 5202 61ee ccbf
000006d0: 95f6 318a d041 b93f f08f 16c2 1e47 c93f
000006e0: 37b4 883e 4f8f cc3f 1325 cfa1 6c62 d03f
000006f0: 2bbd 1cd8 8b24 d33f 13df eb90 e3ce b53f
00000700: f43d 668c a397 cabf 9815 c0ba af7a d03f
00000710: c2c0 ad1e 4b1b b3bf 254b 7e73 4e33 cf3f
00000720: 67bc d2cb f36c d6bf 15d5 0c32 c5a6 ccbf
00000730: a54e 29d8 e62c b63f 6429 14ee 0171 c9bf
00000740: baab 54be b543 d5bf d278 da97 9ce3 c2bf
00000750: 48ba 8440 2d25 bfbf 6ecb a74c 9e06 c23f
00000760: b1ec d4e2 0dfb c33f ca95 0122 2e51 c53f
00000770: 3951 2a8e 8153 bd3f 78d8 948f b65e da3f
00000780: 7335 0252 9136 b13f cf12 c45e cdbe d33f
00000790: bf35 39b9 027c d2bf e626 edea e4ce d63f
000007a0: ed20 063c 400d cd3f 7c67 e367 eff1 d0bf
000007b0: 9047 586a d92b bfbf 893d 887b ad05 d0bf
000007c0: 85cc 6b06 d1c7 d4bf 5c11 6f0e fc2e ccbf
000007d0: a960 dec1 47a9 d93f ab12 1936 7708 d23f
000007e0: 7868 1c63 7019 a13f bbc2 b6f5 de28 d5bf
000007f0: 1827 2bf6 cf9b a0bf f202 e499 9586 6cbf

block.0.bias f8 [60]
0.11062927652061305 -0.20698176941374313 -0.11195216490561204 -0.023912817498015396 -0.018123548537669006 0.1781959289658785 0.07957736417633494 -0.07538026609870505
-0.2772463068091994 0.11391587054370095 0.05769099357949814 0.2699322973591145 0.1288102397195328 0.04426065804359399 0.2508012456433238 -0.132407013660294
0.2586236969044725 -0.15806683344421615 -0.05571973876276397 0.20267367693049912 -0.006498593066100315 -0.3504546397738621 -0.012282836670883831 0.10512321005947466
-0.2164887258334068 0.06668408053933463 -0.2245091849859321 0.05713320826854493 -0.22398701594665776 -0.2340175087365112 0.3250584902855151 0.33190291007760886
0.13496195462649208 -0.19087601257431108 0.14186364808510224 0.0928314609554994 -0.13115777706473639 -0.16865218238342372 -0.010173765265293538 -0.025818301137800755
0.1274553958590153 -0.1667360700780627 -0.1712548858901356 0.017783612544467513 -0.05824575784707016 0.0046438663796860265 0.06430065679568805 -0.15609512036891998
0.2222118527262845 0.25515285644678865 -0.19133805656646033 0.23132238282346804 -0.2862478606929868 0.09654770534909952 -0.2657203426465114 -0.08491891909713536
0.17429592122384113 -0.06624611696121334 -0.050979512686989886 0.04962202993105951
00000000: 48dc a244 3352 bc3f dc07 40ed 607e cabf
00000010: ab6a fca6 e5a8 bcbf 34d0 6f04 9a7c 98bf
00000020: 4feb 06c1 fa8e 92bf 2e2a 98cb 1fcf c63f
00000030: 45a5 a3a0 2e5f b43f 0e60 a801 1f4c b3bf
00000040: b3aa 2b4b 67be d1bf 5406 7b2a 9729 bd3f
00000050: b037 6585 ac89 ad3f a8a8 521d 9246 d13f
00000060: c11e 7e9b da7c c03f dbe5 973d 55a9 a63f
00000070: 8562 f5aa 200d d03f 624b b788 b6f2 c0bf
00000080: 8a38 0b68 4a8d d03f f1d2 1cb4 883b c4bf
00000090: a699 742f 4c87 acbf a199 1607 36f1 c93f
000000a0: dec9 05cb 449e 7abf 4bda 234c d96d d6bf
000000b0: 8bae 6d6e be27 89bf 0788 41cd 5ae9 ba3f
000000c0: e31e b40e e7b5 cbbf b98c 1439 3512 b13f
000000d0: cc45 958b b7bc ccbf 7cd3 0e5a 9040 ad3f
000000e0: 6a19 1c46 9bab ccbf 9d7b 5b25 49f4 cdbf
000000f0: 170f 4420 c2cd d43f 7ac1 0eb4 e53d d53f
00000100: 3c9a a9ee 6e46 c13f 8c7c cc0b a06e c8bf
00000110: 6d25 8288 9628 c23f 5e01 d878 cdc3 b73f
00000120: 0bf7 8d2d c7c9 c0bf c02f de0b 6596 c5bf
00000130: 70a1 bba8 fbd5 84bf afbc 19dc 1c70 9abf
00000140: e3e3 745a 7550 c03f 8140 0688 9b57 c5bf
00000150: fcd3 161b aeeb c5bf 4b05 2209 de35 923f
00000160: 2af5 2a52 63d2 adbf 5dd8 a463 7205 733f
00000170: 2e7e 0c02 0276 b03f 665c 86c6 ecfa c3bf
00000180: 5319 1f20 7071 cc3f 4ce0 7aa5 6c54 d03f
00000190: 4d71 b7f3 c37d c8bf 8fa0 87ca f89b cd3f
000001a0: 647c 0e8c e251 d2bf 116d fab4 59b7 b83f
000001b0: 951d 63e5 8f01 d1bf 4278 550c 3fbd b5bf
000001c0: 82c5 bd28 544f c63f ebdc d569 81f5 b0bf
000001d0: 2466 8397 fc19 aabf e718 6e07 0f68 a93f

block.2.weight f8 [60, 60]
0.0909909080275716 0.02110866197333331 0.14578988369533466 0.0490853723177157 0.14825956299614343 -0.11104518307908452 -0.05966054362964168 -0.020370161224014294
0.18351762021045312 -0.01213182856066737 -0.030896606766183308 0.09092889915594189 0.13759638042768643 -0.03008659405570316 -0.06227691496884825 0.07587073289943913
0.06984425096019015 -0.11184649451380606 -0.06341214689267309 -0.15059659590400562 0.19897210818699365 0.09361329651177185 -0.15588280959298506 0.07543878076574759
0.01985101570382037 0.01797437653181322 -0.01802493062520975 -0.08412519961073496 -0.16000023383191003 -0.09453712008037642 0.09953538317967472 0.11088592955355725
-0.01342592580382752 0.003450854721683625 0.08663344719915507 -0.1663988723471296 0.018366284367335832 0.041211144080578715 -0.13628485493196504 0.016663686054648387
-0.07930297151500813 0.11403019516486622 0.07808955778534973 0.0757695800321038 -0.10383210315187971 0.01111232365143385 0.005861948678364002 0.0360221587836989
-0.06510368651171887 -0.013269989540650015 -0.13141736730643994 -0.005835963596869142 -0.013543741530656402 -0.00668362000497073 -0.07307547935731627 -0.03528983629125391
0.11271439124606161 0.010024066701424686 0.10197859768111617 0.03573053622085031 -0.06931328908787054 -0.05692157555081182 0.13521186627456255 -0.09236825397519625
0.112117496652695 -0.03640486800751083 0.09121010565180453 -0.004288090815064271 -0.13416350064884283 0.049906664158097726 -0.16717770631862824 0.13517622915479535
0.005889029121007665 0.03538795483425557 0.1339803459171139 -0.05638007066540233 -0.12304004445690968 -0.04966962152237918 0.12143492584512201 0.03227026321949758
-0.024326726975345617 -0.051113285353403926 -0.012015224523040047 0.05765813608578136 -0.1319148620814921 0.08052597428795592 -0.05879302684703284 0.056769119938668795
-0.0051146215833866035 0.007682401248754507 -0.08657172221161644 0.017697254853837604 -0.02464086617786271 -0.09076518217639215 -0.0743641316631412 0.052781332116050315
0.16215340934342864 0.0864728059295146 0.13694603977779018 0.16276409650091495 -0.03319221903466923 0.06759001763758209 0.09568731963396698 0.14977117952873542
-0.09262642823522182 -0.08030595538754792 -0.11461073508468941 0.045884472531054175 -0.04854475705891598 0.11084751097610991 0.12397223046953479 -0.04751475995476931
0.07022226349024285 0.08504093727947537 0.012925825647823103 0.15486239008993843 -0.046274758402128226 0.043323587895525255 -0.048842078564523356 0.008499363596202653
-0.05629272240828487 0.03137833246852348 0.12904169939191826 -0.019551119880558212 -0.2107214756366736 -0.08004685227369056 -0.11686136544826842 0.11446699967929637
-0.08749072572746165 -0.03129700421578836 -0.0010415851044934833 -0.13960540534036764 0.03772584297868318 -0.12731763109760041 0.052776959125567895 0.11837690643342595
0.13436547962398146 -0.06181035552498036 -0.0017519735916049894 0.03654954013325487 0.0061402628403068185 0.07892806957574297 0.0369651381172517 0.028257909523616943
-0.06732096697424036 -0.052452896373960875 -0.08134597710183435 -0.09037948155503107 0.10543094972229758 -0.04757509073712364 -0.09737080846582198 0.013800904756048815
0.1383051770908745 0.016304450827354752 0.07840341737372035 0.15578529290938803 0.022717443904952846 -0.001004423214094551 0.15659148942406842 -0.1005618877532943
0.04229640193229166 -0.050898305006959375 -0.07382769996179009 0.031046771731678593 -0.0936499664514461 -0.09480411899799016 0.053564138410286254 -0.10439757863815108
0.07692798966609678 -0.07668548806150201 0.08886599950038265 0.04505244467396019 0.03559538751570239 -0.045127828037680624 0.1621904743225034 -0.09610863162275769
0.029903067959818126 0.04511789382699074 0.0745040190507534 -0.06512374190571928 0.05385252639810783 -0.10707450136369587 -0.12335845013478208 -0.025847612473773388
0.07418528182133007 -0.099290840530872 -0.0061978561086744564 0.04129183900627793 0.009000149089096958 0.10007852195852016 0.03701279292166992 0.03933838629289813
-0.06985451314748227 -0.07732555379831856 -0.047410253135182726 0.1451177795254324 0.03872145639332125 0.06989281162109628 0.04417255728358749 -0.008503533526698985
0.11113046961543985 0.06311156268605445 0.12857909545915136 0.15150539994901915 -0.06160493957854979 0.021003770680878327 -0.0447201557064596 0.13142562097759217
-0.02962451442400868 -0.03848045154926686 -0.12321651860993424 0.029469617982725377 0.08276957080777818 0.154659334350844 -0.043759524639251736 -0.09676144714344315
-0.003513404677156863 0.10179164157502661 -0.031011975494743247 -0.029309967332844165 -0.13874778436852608 0.20382536627736175 0.11727018720544154 -0.015245736489880653
0.10325920043978568 0.10783452033246002 0.018107605679590532 -0.03895694054192986 0.07818454892179331 0.08329131984029424 -0.05642333596414177 0.08568093826886347
-0.16657269436514108 0.10306441149264929 0.014414914804415382 0.049227684009815253 -0.06804884712751726 -0.11818457592825694 -0.020462527423969153 -0.10466119833858738
0.04400078234638824 0.07292803797508177 0.053540981200931696 -0.13661104028139243 -0.19123553366939416 -0.013730464243950094 -0.016043968448827998 -0.15158401020319928
-0.10193206532242953 0.03541116210023943 -0.030326808011347756 -0.11897280747717856 0.1587553140169777 -0.008995538040766518 0.0005157892351577833 -0.03988675519989708
00000000: 2836 361e 2e4b b73f 6ae4 5953 829d 953f
00000010: c990 472f 3ea9 c23f d015 a2c9 b721 a93f
00000020: c19f 315b 2bfa c23f d9f7 b305 756d bcbf
00000030: f074 80a7 d38b aebf ede6 1561 eadb 94bf
00000040: 2796 8560 817d c73f 271c 4577 92d8 88bf
00000050: f9f6 782e 5ca3 9fbf 55d4 22c8 1d47 b73f
00000060: cd10 fe18 c29c c13f 08b0 1126 05cf 9ebf
00000070: 2188 2c82 c2e2 afbf 08d2 86ac 436c b33f
00000080: bc08 b015 50e1 b13f 13ea 1bcc f8a1 bcbf
00000090: dbbb 1249 c73b b0bf 07f8 25cf bf46 c3bf
000000a0: 155a bd04 eb77 c93f b722 fd7e 0af7 b73f
000000b0: 8cf0 9ac8 f7f3 c3bf 162f 3db8 f44f b33f
000000c0: d20e f61c d353 943f c002 7bfd df67 923f
000000d0: 6b18 319e 2075 92bf e9fa 18a5 3a89 b5bf
000000e0: 3288 d43d e37a c4bf 71d4 00af 9533 b8bf
000000f0: 2a31 8d9f 267b b93f f8e2 0431 0563 bc3f
00000100: c6ba f741 0d7f 8bbf 2e38 8885 f744 6c3f
00000110: 05ca 750e 9c2d b63f dd3d 69e9 8e4c c5bf
00000120: 8eb4 d37a 9cce 923f c418 1d88 a019 a53f
00000130: ffba 6f39 c871 c1bf 5ac7 8a0a 4910 913f
00000140: bbf0 2115 334d b4bf 4756 fd36 1531 bd3f
00000150: bee0 d860 adfd b33f 9a00 459c a265 b33f
00000160: c6ed 4f9f bd94 babf ebe4 52d5 0ec2 863f
00000170: 1799 d4dd b202 783f 678a d013 7f71 a23f
00000180: ebb7 6a9c a2aa b0bf e548 c3d8 4b2d 8bbf
00000190: f491 5ac7 48d2 c0bf a68f a08c 73e7 77bf
000001a0: 3e65 8437 d2bc 8bbf 2ca0 7195 4860 7bbf
000001b0: 9fac fa19 13b5 b2bf 1d17 8169 8211 a2bf
000001c0: f6bc 30b0 d9da bc3f 9b8c 3e75 7f87 843f
000001d0: 88ad eef5 441b ba3f 2ffe 12d9 454b a23f
000001e0: 5483 cf05 84be b1bf 35e5 da22 d324 adbf
000001f0: 6a16 d757 9f4e c13f 5318 0326 72a5 b7bf
00000200: 61c6 6e75 bbb3 bc3f 3cd1 03ab a8a3 a2bf
00000210: 27d6 d6a4 8b59 b73f 4cf6 019d 6390 71bf
00000220: 8f44 cd03 452c c1bf 2dae d2c4 5d8d a93f
00000230: 6320 a13e 1466 c5bf 294e b565 744d c13f
00000240: 1fc0 ad37 181f 783f aaf3 5eb9 5e1e a23f
00000250: a3a8 029a 4426 c13f 85e2 4e3f d9dd acbf
00000260: bb72 0a67 8d7f bfbf 8e2d 16f0 4b6e a9bf
00000270: f5d3 18fb 5b16 bf3f a475 525a ba85 a03f
00000280: 947f 1c03 1be9 98bf f8cc f741 852b aabf
00000290: 0060 0b23 709b 88bf 496a ac01 5e85 ad3f
000002a0: b288 3f11 96e2 c0bf 4799 0baa 599d b43f
000002b0: 15eb 149f 1e1a aebf 795a 1e93 d710 ad3f
000002c0: 01b9 e9c6 11f3 74bf 6ef1 e3e1 9477 7f3f
000002d0: 1e44 a87b 9029 b6bf ef09 4eab 3a1f 923f
000002e0: 3121 8489 743b 99bf 6e26 1011 633c b7bf
000002f0: d316 7d19 8709 b3bf 5335 8e9e 2706 ab3f
00000300: 864f 0863 71c1 c43f 33eb 75f1 1423 b63f
00000310: 08c7 14a5 7287 c13f 009b b733 74d5 c43f
00000320: 079d 780e 92fe a0bf 3f1b 4a53 944d b13f
00000330: f443 78d4 f67e b83f 24c9 fab6 b32b c33f
00000340: 50fc 0398 5db6 b7bf 0845 105c ee8e b4bf
00000350: 1e92 f50e 2157 bdbf 6b86 d469 2b7e a73f
00000360: a8ad ebbf dbda a8bf b942 7ca2 8060 bc3f
00000370: 6294 7ae3 a4bc bf3f 3482 2ac8 da53 a8bf
00000380: a845 2415 16fa b13f b0c0 6f2c 3ec5 b53f
00000390: 1018 73f3 da78 8a3f f988 68e2 87d2 c33f
000003a0: 8d54 ef3b 53b1 a7bf 0f36 5062 822e a63f
000003b0: 7ce2 3434 d401 a9bf 50c4 7545 1d68 813f
000003c0: d026 7e53 66d2 acbf bcb9 821f d210 a03f
000003d0: d5b1 5a3b 7084 c03f 77dd f271 3505 94bf
000003e0: e251 36db ebf8 cabf 5fca a954 f37d b4bf
000003f0: d026 c45e a0ea bdbf 9d04 1894 b54d bd3f
00000400: a9e7 b3cd ca65 b6bf aaa0 2333 2906 a0bf
00000410: 0b5e 6d7d b910 51bf d60e 2405 97de c1bf
00000420: 6d6d 9d3b cd50 a33f 7c5a e2b2 f14b c0bf
00000430: ef70 dae2 9405 ab3f 13b4 bbed f24d be3f
00000440: 2722 5956 e332 c13f 6e5e 115f 9ba5 afbf
00000450: b8ac e151 4fb4 5cbf 34c2 1c0f 9fb6 a23f
00000460: b14a 6841 8826 793f 4a71 9045 a134 b43f
00000470: 3687 9c36 18ed a23f 9d6f 0735 a4ef 9c3f
00000480: 264d 7d67 f23b b1bf 2e66 0325 1bdb aabf
00000490: 6144 5007 17d3 b4bf 891f 8215 1c23 b7bf
000004a0: 0e22 0bd1 85fd ba3f 72ee a325 c35b a8bf
000004b0: fd1e f215 4bed b8bf 93d6 a814 a643 8c3f
000004c0: 8784 3cea fbb3 c13f dcb6 542c 1db2 903f
000004d0: c7c7 8311 3f12 b43f 5c2e 1fc1 c5f0 c33f
000004e0: f260 7bda 3d43 973f fcb9 c636 db74 50bf
000004f0: 4c43 f49e 300b c43f 1eda 1f83 6cbe b9bf
00000500: ae48 13be dfa7 a53f 837b dab6 570f aabf
00000510: 2af2 df44 5fe6 b2bf 248d ef94 b9ca 9f3f
00000520: 8232 2eb7 71f9 b7bf 8a59 9f2e 1545 b8bf
00000530: 5bd3 6b3d c26c ab3f 744e 08ba ccb9 babf
00000540: 2d4e c37f 8db1 b33f 914c 4dff a8a1 b3bf
00000550: 609b 9411 ecbf b63f 2082 f530 1d11 a73f
00000560: 366a 8902 8f39 a23f 4969 1fa3 fe1a a7bf
00000570: 720c 784f a8c2 c43f bddc ae45 939a b8bf
00000580: e2fb bfeb e89e 9e3f 2314 e74c b119 a73f
00000590: 1659 3e05 b212 b33f 1b9f ad15 f3ab b0bf
000005a0: c7aa 5fef 8e92 ab3f 66b3 9709 3c69 bbbf
000005b0: 689e 035d 6b94 bfbf b4a5 04e9 cb77 9abf
000005c0: 5564 447f cefd b23f a858 dfe0 1f6b b9bf
000005d0: 3c52 ac54 ec62 79bf 7a50 3f34 3424 a53f
000005e0: fc6f f98f ab6e 823f 5607 d8fa be9e b93f
000005f0: bfae 433e 57f3 a23f 95f8 3535 2924 a43f
00000600: c949 7241 fce1 b1bf 4b78 b584 9bcb b3bf
00000610: badf 6b1d 2846 a8bf 999f 902a 3893 c23f
00000620: 90c1 b979 4cd3 a33f 585a 23cc 7ee4 b13f
00000630: d0cf d311 c99d a63f 094f 2ef3 4c6a 81bf
00000640: 3262 96e4 0b73 bc3f 486e bc51 1428 b03f
00000650: ec20 f9a0 4775 c03f 6566 f968 8764 c33f
00000660: 581b 86c1 ae8a afbf bf10 ab30 0382 953f
00000670: 4069 766c 8fe5 a6bf a145 fa03 8ed2 c03f
00000680: 58a9 7182 e355 9ebf d5fa e0b1 b5b3 a3bf
00000690: 5ab3 c125 1e8b bfbf 387e d895 482d 9e3f
000006a0: 5b2e b9f7 6230 b53f b06c 8787 e0cb c33f
000006b0: 859d 6dfe a567 a6bf 08a6 feb2 5bc5 b8bf
000006c0: d0ba f3c5 24c8 6cbf 0f26 925b 040f ba3f
000006d0: 2919 2372 9ac1 9fbf 99c9 909c 6e03 9ebf
000006e0: 00ad 20c6 7cc2 c1bf aad4 2019 f316 ca3f
000006f0: edd9 d742 6b05 be3f a40f 051d 2839 8fbf
00000700: a265 e6e8 316f ba3f f22f 350a 0b9b bb3f
00000710: f391 cfd8 cc8a 923f 3cdc 2803 2af2 a3bf
00000720: ebee ab10 e703 b43f 9f36 c176 9452 b53f
00000730: a6f8 64fd 84e3 acbf 805f c19b 2fef b53f
00000740: a739 5a09 4152 c5bf ed0e bee4 6d62 ba3f
00000750: 48d7 461d 9185 8d3f 908c c2f9 5e34 a93f
00000760: e974 f134 a66b b1bf e1e4 8028 5841 bebf
00000770: 825b 51f8 20f4 94bf 3b3f 0688 13cb babf
00000780: 8c30 5a42 4587 a63f fa7d 1072 69ab b23f
00000790: d7eb 8136 b969 ab3f b6fb 2377 787c c1bf
000007a0: 4cb9 78ed 677a c8bf c8e2 17b7 b71e 8cbf
000007b0: 71a1 247f d46d 90bf aeaa 35d7 1a67 c3bf
000007c0: eb3b f946 3818 babf 518c 446e 6921 a23f
000007d0: 953a 67a2 fd0d 9fbf 3250 3a7d 0075 bebf
000007e0: d772 e218 1852 c43f 9b64 8fad 406c 82bf
000007f0: 73d2 c4f2 c0e6 403f 5615 416a 096c a4bf

block.2.bias f8 [60]
0.07781887262895369 0.020898059272498274 0.11945775934477262 -0.018575884119879715 0.0038643397747805362 0.00045694595470206095 0.1446764789550688 0.03925191525912597
-0.010129860543347156 0.11767152056446609 -0.08740258314504974 -0.12401307837700605 0.01439254855073447 0.008510296364814856 0.08675891817096548 -0.021872334702369427
0.12145591638304133 -0.08382914624158765 -0.01878386674724142 -0.09018256624902322 0.13651686575540467 -0.09590075279687163 -0.06986093535394126 -0.09131524970902086
-0.10764340989534361 0.08957378379876828 -0.056552806576730626 0.08003755789144272 -0.042685118743128206 0.07950013441348178 -0.0863515205838181 0.047033835819213395
-0.021225443520012953 0.09249716837765212 -0.07592202532666506 -0.056423359327034926 0.15755795944088566 -0.11369354905905564 0.1090568925234349 0.11576053669030045
0.11094000910278072 0.06156117630787173 0.08029373501592431 0.037264390440437584 -0.03221817822711666 0.042577026564782204 -0.09362203268119046 -0.08409601744181992
0.09660602400339363 0.026481314938762202 0.052814011086237685 0.0983829059655088 0.07311809717579093 -0.04409840857703446 0.15635964355910495 0.12177709060851273
-0.024474116258927602 0.0398904748664741 -0.06195463051165905 0.02609574190314532
00000000: 3ff4 f308 f0eb b33f 7141 8004 4d66 953f
00000010: 06a5 a3a1 c894 be3f f31b 287b 8e05 93bf
00000020: 388d 819e 1ba8 6f3f 84ca 75ee 47f2 3d3f
00000030: da64 ce44 c284 c23f 40c6 afb8 d318 a43f
00000040: ac46 f9dd f6be 84bf 92b6 7e84 b81f be3f
00000050: 0da4 3104 0460 b6bf 89d0 e733 52bf bfbf
00000060: c4e7 a62a d779 8d3f 5678 87a4 d86d 813f
00000070: 383e 2e1c d535 b63f 6e74 ef88 b365 96bf
00000080: f157 c524 bc17 bf3f 0f29 8fb1 d375 b5bf
00000090: 61bf 7cf5 133c 93bf 017b b564 3416 b7bf
000000a0: 24cd e278 6279 c13f d2a1 eca4 f38c b8bf
000000b0: 43f7 9c00 68e2 b1bf 6256 20ab 6f60 b7bf
000000c0: 7163 21bd 848e bbbf a3a3 feb7 4eee b63f
000000d0: f9f6 7c4d 7df4 acbf 9f6f 9865 577d b43f
000000e0: 3223 0eea d2da a5bf ce60 55ed 1e5a b43f
000000f0: ef0b de1c 221b b6bf d143 4ca5 d114 a83f
00000100: f6d3 0b67 1fbc 95bf 4295 27f9 e4ad b73f
00000110: e2f8 d237 a06f b3bf 4384 14c6 85e3 acbf
00000120: e3f4 82f5 db2a c43f 838d f93a 051b bdbf
00000130: 5aa2 ca0a 27eb bb3f 5c93 4087 7ba2 bd3f
00000140: 2b15 ea7e 9066 bc3f 9125 e44d f284 af3f
00000150: e192 f755 218e b43f ec7d 7e74 5114 a33f
00000160: daf2 a4ab e67e a0bf 1b36 50f1 a7cc a53f
00000170: 5cfe 8c10 9df7 b7bf 2fef a20c 5187 b5bf
00000180: 4cf0 b021 2cbb b83f 8dde 77f6 ea1d 9b3f
00000190: 299e c524 700a ab3f 4078 9b43 9f2f b93f
000001a0: 3ca3 1d1c deb7 b23f 89bb 490d 1194 a6bf
000001b0: c512 c0c1 9703 c43f 91ca 908d c82c bf3f
000001c0: 23ee b823 be0f 99bf 9d63 f239 866c a43f
000001d0: 0f45 c46f 84b8 afbf 7acc 2798 d7b8 9a3f

block.4.weight f8 [60, 60]
0.07018782039682366 -0.1403542499649788 -0.030561962970369377 0.02113179387346864 -0.11398280538028138 0.027400087526846518 0.17645858078238796 0.08045697610350498
0.21050361189903619 0.016622985171111077 -0.12498194360737183 0.016240060181549245 0.12272652138497986 0.04894254409760134 -0.07392048754096738 -0.12259670548524362
-0.01572396608162512 -0.14389340299809822 -0.04584451016217258 -0.1349736717482599 -0.10493995894567516 0.024968461242243667 0.0012736226731489071 -0.11032790628338918
0.02538275352177385 0.060041180137302634 -0.04835314892265614 0.1256462754128583 0.060963293225526696 0.02567908646638611 0.07126331610070995 0.14149941550669326
0.17541971159019876 0.02869660423714299 -0.09073046021492047 0.0681838772357181 0.07344773678487256 0.07161074567526766 -0.029562800793225073 0.03173355305182143
-0.05257460926148982 0.06858394600936281 -0.2070947375540051 -0.02362265696275535 -0.11412762658946686 0.07142595008232323 -0.1135439956346491 -0.039579791783400965
0.14945582896441 -0.16985031054627153 -0.0933297651714035 0.07818098102560732 -0.09885075751110665 -0.044699089661684656 0.15363015404293542 0.038818574223743005
0.10232118697497039 -0.058523721531826584 0.10243324720643071 0.09352133627073023 0.1308961806077803 -0.12433321996683072 0.13025584874052562 -0.04373667621968173
0.05554539001302546 -0.007000172883363149 0.06618757663168212 0.011230771949987416 0.1509881312457373 -0.0015707246607928034 -0.03276601432637696 -0.10612478755370143
-0.013865939751404342 -0.04044326502370309 0.04460483564876761 -0.04087096872042348 0.07184324347541549 0.03943825426404801 -0.0895500252171651 0.1257659802526302
-0.01868404718751436 -0.0019856292414420166 0.04341384605305133 -0.030249396566149812 0.07962745567705949 0.002017673939754591 -0.13882363289375702 0.07410946866307662
0.07505423657856979 -0.05421947408730215 0.024493967020152725 0.13836232861538655 0.12960543804781965 0.1222551652551566 0.14456451466896023 -0.07996703134510434
-0.15123459590563973 -0.09700496356646829 -0.10497396122134699 0.06224909293745454 0.050100959409879256 -0.031122006692688994 0.13144830832651097 -0.0744323344150456
0.06246211287719989 0.17422958041519987 0.08104687206685361 0.013429182987390677 -0.03346743735155504 -0.10813027143763979 0.12022818050228552 0.14275979663956748
-0.021779486023916265 -0.05050318688723503 0.09524933171892037 -0.03935305822753255 0.09064482405863127 0.12970959188213727 -0.02567382738605996 -0.06298585714712157
-0.13841528693265626 0.07640595096677948 -0.09300108756791446 -0.09019087153594223 0.028952425809121985 0.09935050617053486 0.12029301223272149 -0.019894376532789467
0.05424914150092872 -0.048335620873038734 -0.1442279049594065 0.07069147647874094 0.09569085691129353 -0.028812568808577188 -0.15206938131434025 -0.03783749999308293
0.05238893397003315 -0.03807705662813762 -0.05341398473144042 -0.16145813291931826 0.13821715693989853 -0.1333730440457377 -0.08027915419025074 0.013155086386605532
-0.14654481010211542 -0.0662758268234579 -0.04982802650489598 -0.011773017044099653 -0.043638592384037986 0.010336457398552809 0.027513217831739004 -0.024066626898349642
0.1113121376587837 0.22738235250897237 0.038904276669536705 0.08292186668669663 -0.003263736004543483 -0.15849277834759806 -0.02232357441315233 0.11860303111760517
0.12746556025991487 0.11807204911980572 0.08065161444344325 0.07713572450653922 -0.0762707004049565 -0.06330491795562189 0.13695068196008775 -0.15617207486217297
-0.05392326419983538 0.08833876201571564 -0.0257577795866271 0.11691246864877519 0.05253813635782757 -0.014294120877928525 0.10093948446010284 -0.09579933046532783
0.08537437329710004 -0.10845216679762966 0.10828654557803502 0.1424935573917311 0.06984437471195629 -0.002191463368977979 0.02922432272290058 0.0379687660319496
0.12181726513160347 -0.0030682503191177468 -0.04760048660785577 0.10684720893505485 0.01520247842313005 -0.12572482804501947 -0.14947879886642607 -0.12634872372273043
-0.07623263416279609 0.11171372015487314 0.17965889957647838 0.05466176567673462 -0.05532849378684671 0.0907736684886878 0.10163937116192011 0.13038706659289034
0.09523810624812326 -0.019314452916419214 -0.06065290013222892 -0.24231098984218247 -0.10655964387968547 -0.01472669133429446 -0.06667133721850113 -0.05137665760081321
0.15365750327417518 -0.09598724694977014 -0.14545310011284432 -0.0015446646759672636 0.06473051749383352 -0.0939149245293404 -0.029996610453555388 0.07348699304529348
-0.07771624244310799 0.0848652447980156 -0.061501594160378724 0.03183044181039428 0.1383717201695529 0.09125622029494558 0.07310405954633535 0.02076735944330247
0.13332987221055673 0.14812420055429074 0.012989591834973552 0.10752603698910856 0.08130446022561298 -0.12026939210208455 0.11764086819512176 0.0511481499780337
0.02611579670811263 0.05983911286933424 -0.023245547481175067 -0.041653382878427 0.1733393908498011 -0.06890866550224904 -0.07131967703795664 0.08750356814549651
-0.054145283055596564 0.01719130202054598 0.10865644582402353 -0.04592529557830752 0.2130838185905817 -0.07217855798117186 0.09564683254647707 0.14483959913621353
-0.15614399433733692 0.05459966109466589 0.16757009269175896 0.07825226881994246 0.09097451346212819 0.16450380065055506 0.18217515919093716 0.06674418039117228
00000000: a58f 2e39 d4f7 b13f 0023 bac8 20f7 c1bf
00000010: 9b52 d69d a24b 9fbf e093 5eae 92a3 953f
00000020: f025 6a25 fa2d bdbf 3d64 57bf c40e 9c3f
00000030: 088b c7dc 3196 c63f df7f 1911 d498 b43f
00000040: 17eb 6548 c8f1 ca3f 48f0 afa6 9d05 913f
00000050: 8259 6210 d1fe bfbf e794 75fd 3ba1 903f
00000060: 0849 b35b 016b bf3f 2f81 9044 ff0e a93f
00000070: 212a 7efc 73ec b2bf 1a0e a868 7f62 bfbf
00000080: 4d02 5680 f119 90bf 5e55 fe59 196b c2bf
00000090: eb01 b27f ee78 a7bf 976a fd38 d146 c1bf
000000a0: 1d1b b75b 58dd babf d015 de11 5591 993f
000000b0: 22b0 a1ee f5dd 543f 68c4 521d 733e bcbf
000000c0: 77a6 08c1 effd 993f 1fb7 34b2 b7bd ae3f
000000d0: 0917 9072 bec1 a8bf 7b97 e159 2d15 c03f
000000e0: 0af8 51ad 9436 af3f cfd3 4152 9e4b 9a3f
000000f0: 739b 0e0c 503e b23f f68e 0021 a71c c23f
00000100: 9844 2d32 2774 c63f f1b2 d182 a462 9d3f
00000110: d7c5 5f87 1c3a b7bf fb85 d7a2 7f74 b13f
00000120: 65cc 748b 78cd b23f adaa b7f2 1455 b23f
00000130: 291b 57fa b545 9ebf 9b3f 1659 613f a03f
00000140: 5f93 c126 0feb aabf 490e 24ad b78e b13f
00000150: 80ec 7b92 1482 cabf 830d 66ac 8930 98bf
00000160: a198 c5d7 7737 bdbf 6976 b097 f848 b23f
00000170: af71 e823 3811 bdbf cd9a 956e cd43 a4bf
00000180: 8ca2 cc5c 5e21 c33f bc7e 81ac a7bd c5bf
00000190: cb8f 27a1 75e4 b7bf 0f97 ac34 ab03 b43f
000001a0: 73ed b182 484e b9bf 6d0c 8490 cce2 a6bf
000001b0: df9c a523 27aa c33f de61 8935 07e0 a33f
000001c0: 78d2 bea7 b831 ba3f 9cef 093c d2f6 adbf
000001d0: f452 c6b6 1039 ba3f 38d1 c2a8 03f1 b73f
000001e0: 64dc 70bf 34c1 c03f 8c5c 9049 4dd4 bfbf
000001f0: 1705 3a41 39ac c03f d6a0 ff53 a764 a6bf
00000200: 4b59 1903 7270 ac3f 5433 9b99 36ac 7cbf
00000210: 7cd9 0845 abf1 b03f 2c4b dfb1 2800 873f
00000220: b06d e43e 9453 c33f 79e0 24c3 18bc 59bf
00000230: f473 e7ff b4c6 a0bf 6d8d d67b fe2a bbbf
00000240: 2caf 15ee be65 8cbf 6e93 3dc9 fab4 a4bf
00000250: 01b7 b5ec 71d6 a63f 4c26 0524 0aed a4bf
00000260: 905c 2a9d 5164 b23f b003 8d38 4031 a43f
00000270: 34e8 a91d c0ec b6bf f434 1182 1919 c03f
00000280: 9c59 822e e921 93bf 745c ed94 2a44 60bf
00000290: 429d fbf1 563a a63f aac1 e6a3 b2f9 9ebf
000002a0: 1d25 ff05 7762 b43f e043 ba72 5e87 603f
000002b0: 7565 9809 f9c4 c1bf 955a 3b90 d6f8 b23f
000002c0: fffc 8723 c136 b33f c7c6 05a8 a7c2 abbf
000002d0: 4214 344d f214 993f 0864 3356 dbb5 c13f
000002e0: 344a e636 e996 c03f 9bb8 8950 1d4c bf3f
000002f0: 6f28 550b 1781 c23f 8bab 6228 b878 b4bf
00000300: b520 b8bd a75b c3bf b251 113a 51d5 b8bf
00000310: f393 60d2 92df babf f47a bef4 1cdf af3f
00000320: 92ca 533c d5a6 a93f 0f56 b983 72de 9fbf
00000330: e73d b054 4cd3 c03f b8da 135a ff0d b3bf
00000340: 69e0 17b8 08fb af3f e085 f0a6 274d c63f
00000350: 2361 f8e0 7cbf b43f 6e57 f16d c280 8b3f
00000360: 96cc cfd9 a422 a1bf 9242 88eb 6cae bbbf
00000370: 5d9d 5027 46c7 be3f 1f12 e0f8 f345 c23f
00000380: 8e1f c990 5c4d 96bf c684 0cc0 8ddb a9bf
00000390: a9d8 b29c 4262 b83f a16f 2b84 1526 a4bf
000003a0: bf2c e2ca 7f34 b73f a43e 8eeb 529a c03f
000003b0: 85f2 f163 3d4a 9abf c0b2 8e54 d71f b0bf
000003c0: 1834 5295 97b7 c1bf c741 9f24 578f b33f
000003d0: 67bc 9855 ebce b7bf 1b05 a5bb bf16 b7bf
000003e0: 6dce f567 b4a5 9d3f 2fef d7e6 086f b93f
000003f0: f013 7ad9 85cb be3f bf9f 5402 315f 94bf
00000400: fd45 2a21 8bc6 ab3f 5a5b c34d 72bf a8bf
00000410: d351 7c5b 0f76 c2bf 7e07 952b d618 b23f
00000420: 10d1 f52c 327f b83f c081 fcc2 0a81 9dbf
00000430: e5e8 bb6d 0277 c3bf eebc 10d2 6f5f a3bf
00000440: 5aae 25ec b8d2 aa3f bc3e e401 d67e a3bf
00000450: 0e23 24eb 1359 abbf 8ee5 47fc a8aa c4bf
00000460: 83c7 668c 19b1 c13f a815 2c2f 5e12 c1bf
00000470: fd33 ccb5 2c8d b4bf aec3 73ce 0df1 8a3f
00000480: 39c0 64f7 fac1 c2bf 48dc b8dc 73f7 b0bf
00000490: 1787 8620 0f83 a9bf d9f0 6f99 731c 88bf
000004a0: ce0d 442e cc57 a6bf b8c2 ddd3 472b 853f
000004b0: c41f 2ecb 6c2c 9c3f 0d54 d0fd eba4 98bf
000004c0: 7a6f e4c6 f37e bc3f 9656 db6b dd1a cd3f
000004d0: 86bd f0e7 42eb a33f 0eea 8a11 5e3a b53f
000004e0: 6793 dfec 8cbc 6abf aada d3c9 7d49 c4bf
000004f0: 9822 23b8 fddb 96bf 2049 dbab c45c be3f
00000500: 2161 579e ca50 c03f bf90 8a45 f839 be3f
00000510: ff78 678e 95a5 b43f b4dd 1bb6 2abf b33f
00000520: 8dde e103 7a86 b3bf a99c 4b48 c034 b0bf
00000530: 147c 1796 9987 c13f 7b6e 0a51 72fd c3bf
00000540: 6eb6 7680 d49b abbf be9d d37d 5e9d b63f
00000550: 4bc0 c453 3f60 9abf 4c53 57bd f9ed bd3f
00000560: 9239 e652 47e6 aa3f def1 906d 3c46 8dbf
00000570: 1299 a188 2bd7 b93f 97c8 530f 4e86 b8bf
00000580: 1640 3a4d 18db b53f fd7e 936d 85c3 bbbf
00000590: ccbe dac3 aab8 bb3f 05b0 7198 3a3d c23f
000005a0: 3a8a 3229 52e1 b13f a32a 01f0 d4f3 61bf
000005b0: 8bd4 5e19 fbec 9d3f b8de c060 a470 a33f
000005c0: e511 d491 6a2f bf3f 2e84 d958 9622 69bf
000005d0: 3144 824a 175f a8bf 2981 0bb4 565a bb3f
000005e0: 40f6 291d 7a22 8f3f 8bd1 5f4c c017 c0bf
000005f0: 0ed0 490c 1f22 c3bf 54e6 23ea 312c c0bf
00000600: fdfc 9d5e fb83 b3bf a965 9436 4599 bc3f
00000610: abe3 0e15 10ff c63f 6dac d87f a0fc ab3f
00000620: b5f0 b32e 0454 acbf 3532 7f71 f13c b73f
00000630: 2f5f 20af 0905 ba3f 483e 6bfd 85b0 c03f
00000640: 7a2d ab47 8661 b83f a4f0 76fe 2ac7 93bf
00000650: c271 f39c e50d afbf 28b2 6ae8 0b04 cfbf
00000660: 4462 8929 7e47 bbbf 6ccc 450d 0729 8ebf
00000670: e61d ef6c 5f11 b1bf 7eb8 5890 0a4e aabf
00000680: 017e ac8f 0cab c33f 897a 7bc6 9e92 b8bf
00000690: c911 0b0a 359e c2bf 256a 0f11 cb4e 59bf
000006a0: 806d b0df 2d92 b03f 1bb7 75f9 ce0a b8bf
000006b0: 7e34 8e73 6eb7 9ebf 1f98 cf27 0bd0 b23f
000006c0: 8441 a92f 36e5 b3bf 9079 f98a bab9 b53f
000006d0: a331 240f 237d afbf 3e8d 2f65 144c a03f
000006e0: 28e5 681e 2ab6 c13f 4d2e b951 915c b73f
000006f0: 27d3 f498 f2b6 b23f 8a75 88e6 0944 953f
00000700: 99b2 5c08 f410 c13f c33b 90da bbf5 c23f
00000710: ddf0 f480 499a 8a3f 7832 568c d386 bb3f
00000720: df1c b07d 5ed0 b43f 01cb c991 f9c9 bebf
00000730: 4033 9241 b61d be3f 5a28 d01e 1730 aa3f
00000740: ebd0 1473 19be 9a3f 5844 9771 3ba3 ae3f
00000750: cd48 d648 aecd 97bf 8e12 769a 9753 a5bf
00000760: 887b 6733 fc2f c63f ef3f be90 ffa3 b1bf
00000770: 5a76 70a0 0142 b2bf eedc 7743 a266 b63f
00000780: d7b3 e937 eeb8 abbf 22cc d0bf 989a 913f
00000790: ae53 50a9 e8d0 bb3f 34cc 2235 8583 a7bf
000007a0: d1a0 13a0 5446 cb3f 1567 0042 4b7a b2bf
000007b0: a6cb c091 4f7c b83f 3a57 ba9e 1a8a c23f
000007c0: 5ba5 92c2 86fc c3bf 956d 8c9d 7cf4 ab3f
000007d0: a90b f3d1 ef72 c53f 4c61 6b37 5708 b43f
000007e0: cbdf 1610 1b4a b73f b150 eee5 750e c53f
000007f0: 8b30 6fff 8351 c73f 0a79 fa87 2516 b13f

block.4.bias f8 [60]
0.01317720945289674 0.04485295970751884 0.14895878718810526 0.07566260781130768 -0.03664062750260066 0.10802677108780774 0.0007431802520467256 0.06009665275095685
-0.10572660156277974 0.09308076736067998 0.13604165794484685 -0.0001798600231067352 -0.04333998719835653 0.0830521806426074 -0.034883553984881674 -0.032815337707427665
0.11352821064966638 0.017938893202667946 0.11956120529244843 -0.040318117704218205 -0.0830035242107119 -0.10094386496225602 0.06362102291228731 0.03061655903031772
-0.0823090926144288 -0.0956221904750259 0.011071248142184454 0.01344255190496958 0.10921780533003143 0.004483816892009751 -0.043317509066922846 0.14938949837271473
0.05747851958071416 -0.1191537332749769 -0.06200535503458673 -0.045256432408977205 0.02853720246253246 -0.051128898998264616 -0.07700605363003901 -0.10563191705639767
0.010955983134789276 -0.10002114532479617 0.05195243617292943 0.03475770426425935 -0.016233720768352104 -0.008617554190154602 0.15443770541088786 -0.0022194240632559792
0.011668807021625975 0.021347335296801617 -0.025563382674500312 -0.019025325235809975 -0.10037728399038315 0.03233990379516427 0.08647046972348149 0.06818265260815089
0.06181402875085147 0.1676402002084401 -0.007595059127035999 0.1576026788070326
00000000: 5ecc 381d a7fc 8a3f b72b 2596 f7f6 a63f
00000010: bf5d b6df 1411 c33f 5463 14ea 9f5e b33f
00000020: af3c a871 8fc2 a2bf 0d24 ea78 a4a7 bb3f
00000030: f555 5470 3f5a 483f ec2f 540c fdc4 ae3f
00000040: 3c84 0708 e610 bbbf 6361 b323 24d4 b73f
00000050: 6624 e223 d069 c13f ed4a 8ed5 1993 27bf
00000060: 1183 40a7 a830 a6bf 1db3 b85f e842 b53f
00000070: f60e 11d7 41dc a1bf 076d 8504 2ccd a0bf
00000080: 4be9 e94f 2f10 bd3f 9f0f 87be 925e 923f
00000090: e2f5 992a 909b be3f 9da8 f389 93a4 a4bf
000000a0: 8110 f00d b83f b5bf 9ea6 be06 75d7 b9bf
000000b0: 2f10 bfa4 7749 b03f 6b4c 017f f259 9f3f
000000c0: 9341 f16c 3512 b5bf d4b3 dc24 b27a b8bf
000000d0: 1a9a 92c5 85ac 863f c7f8 73c6 c487 8b3f
000000e0: 8f8b 08b6 b2f5 bb3f a654 996e 9f5d 723f
000000f0: 7abf 9269 b62d a6bf 3b36 f0f0 311f c33f
00000100: 02b1 a413 d36d ad3f d7c1 9ceb db80 bebf
00000110: 83d0 1978 2abf afbf 79a8 42e2 d92b a7bf
00000120: 6602 2f3d db38 9d3f 08f4 272a 912d aabf
00000130: c25e ef31 abb6 b3bf 7bc7 2b7d b10a bbbf
00000140: 3659 132a 1770 863f 2416 145c fc9a b9bf
00000150: 4fda 9e7c 8299 aa3f 8ab4 3206 c3cb a13f
00000160: ce7c 2b8f 929f 90bf a984 588b 14a6 81bf
00000170: 6828 015f 9dc4 c33f 7b81 9038 782e 62bf
00000180: 7c6a 54c4 d0e5 873f 3377 d36b 13dc 953f
00000190: 409a 3f92 492d 9abf 13f9 bbf6 5f7b 93bf
000001a0: 0000 0060 53b2 b9bf 70e1 4f1a db8e a03f
000001b0: 7038 88bf ed22 b63f 0546 1b17 6b74 b13f
000001c0: 7a7b d69f 16a6 af3f 31f0 b1ec 3b75 c53f
000001d0: 3628 fd28 ff1b 7fbf 407d 9e17 532c c43f
