JupyterLab/best_model_M3_103.pt (torch, 126413 bytes, 12 tensors)

block.0.weight f8 [60, 9]
000000 81 fe 04 1d 7c bd bb 3f c1 e1 90 15 47 3f d4 3f
       0.10836005886539547 0.3163621626477174
000010 01 0d 9c 2f 66 14 bc bf 60 87 42 83 af 21 cb 3f
       -0.10968626653998471 0.21196550282644022
000020 09 88 03 1a 04 a8 ce 3f c0 18 2c 20 74 e7 d3 3f
       0.23950244207577523 0.31100180761167096
000030 09 ab 55 ff 12 28 d3 3f c1 fa 57 75 78 bb 88 3f
       0.2993209355833391 0.012076321679157844
000040 db ef 61 42 43 d0 c9 3f 22 8e d9 5a 20 9f c8 bf
       0.2016681741841911 -0.1923561519243871
000050 d3 2c 82 15 24 e7 d5 3f 06 bf f7 4e 49 b1 d6 3f
       0.34223272419394596 0.3545707007569806
000060 50 57 89 06 97 cd cb bf d0 80 13 73 dd 85 d7 bf
       -0.21721160716213683 -0.36754547346027966
000070 9f e7 fa e1 2c b1 b9 3f e1 8a ba 1d b4 e5 b4 3f
       0.100359730883524 0.08162999845312015
000080 48 29 b7 e8 ef b9 89 3f 37 ad 4a 56 92 02 ce 3f
       0.012561678208744667 0.2344534798952311
000090 22 d2 8c 80 14 1b c4 3f 73 a5 65 e6 c7 a0 c7 bf
       0.1570764186559624 -0.1845941424356102
0000a0 ba 85 cf 9c 29 4b a9 bf 05 60 10 62 a6 22 b1 3f
       -0.0494015697402221 0.06693496603145384
0000b0 b2 15 bc 2c 73 81 de 3f 1d f9 e1 15 40 26 d4 3f
       0.4766509949552883 0.3148346151064219
0000c0 6e a0 ce 2a f1 24 c5 bf aa 89 d6 7c c5 7b c5 bf
       -0.16518988218490754 -0.16783970447165802
0000d0 7a e4 35 fa dc b3 5a bf 89 c7 ab fc f7 bf be bf
       -0.0016297967893861552 -0.12011670988775171
0000e0 1a 3f 97 b9 7a 04 c4 bf 53 cf 57 4e fb 4f d4 3f
       -0.1563867002682791 0.3173816933697157
0000f0 a9 7a 10 c4 a8 bc c8 3f 98 91 b5 d7 0c 84 b6 3f
       0.19325742314773223 0.08795242563571148
000100 7c 20 56 a3 a6 d1 df bf 59 a7 f3 7a 71 f5 be bf
       -0.49717107725928833 -0.1209326672721124
000110 b8 ed c9 b9 c8 3d ba bf e4 2b 47 9a 4e 9f ae bf
       -0.10250525031908964 -0.05980916627193958
000120 68 43 79 39 2d 22 de 3f 0a b3 ee 6b 09 e0 d0 3f
       0.47083597767509966 0.26367412128711065
000130 88 24 1f 31 63 0b d5 bf 0b b3 98 0c e7 87 d3 3f
       -0.3288200359061837 0.3051698325169105
000140 86 d6 08 20 d4 89 cf bf 5a a6 f6 7d c0 d8 67 3f
       -0.24639369548974716 0.0029109725580454384
000150 39 91 de 4d 3f 4e b1 bf d5 74 5b fc e6 cb a3 3f
       -0.06760020876987917 0.038665026002243565
000160 9f 15 39 12 7f 19 ab bf 5a bf cc 1c 84 bf a6 3f
       -0.052928896879659286 0.044429901614761305
000170 e5 06 39 84 3b 3a d2 3f d4 3f 06 a1 a1 17 cf bf
       0.2848042289007096 -0.2429086719753274
000180 94 3d 0a c9 d8 06 bc 3f 7d aa dd d2 67 1d dc bf
       0.10947947414591958 -0.43929477302905423
000190 3e fc cb 21 9c 6f d6 3f fd 7c b5 1b 58 f3 bf 3f
       0.3505621271178291 0.1248068874024177
0001a0 f2 41 1e a0 31 ae b4 bf 0b 54 1c 7a d1 00 d1 bf
       -0.0807829872048911 -0.26567494320744406
0001b0 a0 db 0a 96 da bb dd bf 79 c8 97 78 3c a0 c2 bf
       -0.4645906892068812 -0.14551502121281937
0001c0 7b 22 86 03 92 5f c4 bf 03 51 28 1b 0a e0 b4 3f
       -0.15916657611912285 0.08154357111954273
0001d0 4b 2e a6 b6 bb fa d4 bf bc 8f 78 a9 34 39 d1 3f
       -0.3278035434420629 0.26911655950447844
0001e0 ec ac 79 9b 9a 94 d9 bf 96 2d 36 d2 a2 d2 c9 bf
       -0.3996950643838335 -0.2017406011985769
0001f0 f8 52 5a ad 6d ae ba 3f 7b e3 c3 01 f1 64 b1 bf
       0.10422406656500616 -0.06794649403663115
000200 7a ba 23 7a 5e 08 be 3f 6b af 36 4f 82 57 77 3f
       0.11731520158694222 0.005698689480975942
000210 c9 94 ac a9 0f 15 cd 3f 0c 99 49 24 b9 fb 67 bf
       0.22720523629064918 -0.0029276481675878426
000220 27 2b c0 4e 3a dc d8 3f d4 52 4b f3 e1 a5 d3 3f
       0.3884416359948539 0.30699967154695895
000230 4c d6 a3 85 59 c6 b8 bf ed a9 4f 57 0b 12 d4 bf
       -0.09677657616324459 -0.3136013367317492
000240 cd 68 b7 fa ce 44 d1 3f 0d 2a 77 22 cf 51 a1 bf
       0.269824738350178 -0.03382727905007608
000250 49 72 12 f8 b4 95 b8 3f 43 83 be 79 75 2d bd 3f
       0.09603434616514862 0.11397489759702943
000260 3f 44 90 18 db 73 bd 3f ff 9d d8 6b fd 6b d0 3f
       0.11504906987853845 0.25659118205882686
000270 3c 80 f4 16 3e c0 d0 bf bd 46 f5 ac 49 78 d4 bf
       -0.2617335533304901 -0.3198417843860673
000280 db 82 0f 02 8a fa b5 bf 8f 26 eb 7b 51 42 cd 3f
       -0.0858541731863726 0.22858637381277844
000290 df 17 25 28 c4 9d d6 3f b8 bd 02 15 a0 dc b4 bf
       0.35337928696060134 -0.08149147522885059
0002a0 a3 fd 9c 14 28 b6 cf bf f0 4a 55 c5 e8 d0 c5 bf
       -0.24774647718912232 -0.17043790469559594
0002b0 48 60 83 2e 89 20 d5 bf 78 c9 ce 09 8c e9 c3 3f
       -0.3301108316641188 0.15556478957075703
0002c0 2b 86 ce ca 12 8a d2 3f ec e3 3e 56 70 8f c3 bf
       0.2896773319754142 -0.15281490527357222
0002d0 f2 f5 05 95 d8 81 7d bf 04 7b 7f 62 39 e0 d2 bf
       -0.007203908943095071 -0.29493555659239257
0002e0 6f 2e 45 22 48 c4 d1 bf 97 81 d8 00 ee ec a7 bf
       -0.27760508867934325 -0.0467295051605589
0002f0 c6 16 7f fc 42 05 bd 3f 8c 76 28 cb cf 44 c6 bf
       0.11336153664077661 -0.17397496623828024
000300 59 60 3e dd d7 a3 d2 bf 5e 0c 6e 68 fa 92 a0 3f
       -0.2912501965124697 0.03237135433939707
000310 99 78 c6 87 b0 10 c9 bf 4b 5f f0 a3 cf 57 cf 3f
       -0.19582182531025152 0.2448672819598364
000320 fd f1 70 f6 c3 fd c3 bf a9 e7 03 18 6c 27 d1 3f
       -0.15618180783521032 0.2680311426662408
000330 95 8e 1c d1 4c 81 d7 3f d5 fd 89 b3 44 a2 c7 bf
       0.36726684971856943 -0.18463953749231501
000340 e9 d8 f3 27 44 4d 80 bf 5f 9c 1e 3f 84 ff a0 3f
       -0.00795987364697877 0.03319943686010939
000350 24 3c 4c 69 0e 3f d2 3f 9e 58 11 83 fb 08 98 3f
       0.2850986507700688 0.023471765398732296
000360 c7 75 95 68 bf 3e d9 3f 11 d6 9c ad 53 b3 c1 3f
       0.3944548150373887 0.1382851217000938
000370 09 a4 7c db 4d ba c8 3f cb 05 d3 37 e8 05 a0 3f
       0.19318555085308756 0.03129506761025488
000380 0b f2 ab 8c 88 76 93 3f 92 8b af dd 11 67 c8 bf
       0.019006856523434517 -0.1906454403352567
000390 0d af 40 74 b3 54 b8 bf b5 46 d1 8c 52 26 bd bf
       -0.09504243457984902 -0.11386600435187229
0003a0 8c 41 91 07 1b 8f d3 3f fb fd a0 a8 57 d2 70 3f
       0.30560947169308217 0.004106848160574379
0003b0 99 de 4e b3 1d 72 cb bf 16 6f 98 b9 8a 5d b1 3f
       -0.21442004447248023 0.06783358603609843
0003c0 3d 31 ab da d2 ce bd bf 7a 65 44 63 16 73 d3 3f
       -0.11643712843505667 0.30389938062724975
0003d0 1b 89 19 44 e6 98 d6 3f 56 10 40 31 1f 89 cd bf
       0.3530822434460263 -0.23074712662503555
0003e0 d6 de 55 f3 b6 37 d2 3f d9 03 44 54 3f 72 b6 3f
       0.284650552398927 0.08768077666537923
0003f0 9b 32 10 48 97 c1 d0 bf 32 7b dc 74 e2 5e ca 3f
       -0.2618158534758465 0.20602064806095083
000400 61 75 ff 3c 1b 7e cb 3f f1 fd 7c 56 57 e0 d4 3f
       0.21478596189892143 0.32619269796484135
000410 87 b6 f2 50 22 e3 bd bf b9 d1 de fd f6 dc cb bf
       -0.11674704052230754 -0.217680810890341
000420 6e f9 84 a6 7f dd a7 bf 16 b7 1b 95 4b 83 c3 3f
       -0.04661177547176264 0.15244431286503674
000430 06 e4 66 1f 96 9f c9 bf 04 73 c3 bb d7 a9 cf bf
       -0.20018269093796465 -0.2473706881345593
000440 a9 64 f2 85 07 5c cc 3f 02 01 22 22 b5 46 bf bf
       0.22155851402638874 -0.12217266162224763
000450 ce 76 f4 42 66 f1 c2 bf 79 0b ef 71 ea 2c c4 bf
       -0.14799192685398171 -0.15762072146580033
000460 25 6b 26 8b f5 e4 d0 3f 62 46 56 84 e6 a5 ce bf
       0.26397455777048356 -0.2394378801514448
000470 a7 85 7c 9c 74 bb 62 3f 6a 6c 88 30 b7 2f c8 bf
       0.0022866513790098133 -0.18895616407175747
000480 ac a1 8d 07 43 2b c5 bf 1a 3a fe fe 2a aa cf bf
       -0.16538274639903017 -0.24738061381181425
000490 fd c5 b8 63 84 24 75 bf a1 69 a9 bf 7d 9b ce bf
       -0.005161778589852781 -0.23912021502003447
0004a0 5f 2d ef e1 9b d6 ca bf a8 dd e2 b0 99 a8 c5 3f
       -0.20967434436748086 0.1692077745153544
0004b0 75 29 c5 47 65 41 d2 bf 04 aa 2d c3 15 86 b1 bf
       -0.285241432273913 -0.06845222487542207
0004c0 d4 c4 52 45 29 44 d6 bf 44 68 40 90 d7 9b c4 bf
       -0.34791023034911217 -0.16100592177900996
0004d0 aa 43 5b 52 5c 03 b3 3f e8 25 78 eb 92 db c0 3f
       0.07427002916962402 0.1317008638146
0004e0 aa b1 00 c6 54 47 c1 bf 8b e4 7c db 27 5a c5 3f
       -0.13498935382939453 0.16681383340054298
0004f0 30 92 e9 64 40 86 c9 bf ad a4 77 db 4e 4d cd bf
       -0.19940953185427324 -0.2289217540376617
000500 ea 51 1f f5 81 5c b1 bf 30 a6 9b 97 10 8c c7 bf
       -0.06781780466491907 -0.1839619388841114
000510 b7 f7 09 9b 32 3f d0 3f d6 a9 b1 e0 6c 42 d4 bf
       0.2538572801639662 -0.31655427878163545
000520 b9 1c 09 5a 95 8b d4 3f 4d 09 50 9b 34 f1 d5 3f
       0.32101949493921783 0.3428470150685328
000530 f8 f8 28 97 2e 78 a0 3f 8c 0f 54 66 22 a3 8f bf
       0.03216691584792558 -0.015447872875036038
000540 30 fd ee 22 c8 cd bc bf 57 2b 6a 79 04 95 ca 3f
       -0.1125149808203687 0.2076726525159198
000550 2b 64 db 99 6e 51 c2 3f 49 75 00 80 a2 3a bc 3f
       0.14311010849522296 0.11026969552081768
000560 cc 49 64 b7 28 c5 d4 bf 83 f6 3e 4b 8f 78 cd bf
       -0.3245336333212918 -0.23024169134253122
000570 7d a5 05 23 4e 55 ce bf d5 f3 29 8e a4 4e d6 bf
       -0.23697830877362583 -0.34854997523490044
000580 e2 78 1d 80 8d 71 a1 bf bc 27 1e 10 a3 09 b8 3f
       -0.03406946362405151 0.09389704841137719
000590 ce fd e3 c9 35 e7 c0 3f c3 4a 9b 56 2f 7e c9 3f
       0.13205597265185393 0.19916335800970417
0005a0 9b af b9 a1 a1 bc d0 3f 06 b8 0e 9c 47 95 96 3f
       0.26151314538469145 0.022053831958764668
0005b0 47 b4 55 87 65 84 95 3f 73 87 93 5f 4b 5b ac bf
       0.021012865433864183 -0.05538402120306687
0005c0 24 78 fd dd 25 fa 9a 3f 55 46 3a 64 15 2b cb 3f
       0.02634486358089573 0.21225230592658542
0005d0 a7 b6 e8 bd ae b2 a5 bf b2 60 69 60 70 94 da 3f
       -0.042378864938979625 0.41530999579618844
0005e0 1d 0c f4 68 4e 78 c0 bf f2 f7 15 7e ce a0 d5 3f
       -0.12867145657227833 0.3379398566538604
0005f0 19 b0 a8 d1 6c 6c d1 bf 4b 62 ef b0 93 5c a1 3f
       -0.272242741341644 0.03390943083622185
000600 2a a3 13 91 44 8a b3 3f 7d 3f 8c 67 13 7b c3 bf
       0.07632854978477313 -0.15219347530409869
000610 a1 ce d0 28 ef 2c d0 3f fd 00 38 80 d6 2b ac bf
       0.2527425669279442 -0.05502195658846352
000620 98 9a 28 25 f8 04 d1 3f 97 cb ef bd 4f 5e bb 3f
       0.2659283030392685 0.10690782916189644
000630 e0 c9 06 94 9b d4 c5 3f 7e 1f 2e 6c bd b2 b5 bf
       0.17055077293259924 -0.0847586049186457
000640 6a 62 a9 8d 33 ac c3 3f 91 8d a7 91 9b 25 bc 3f
       0.15369266907761708 0.10994884782808458
000650 b2 d4 77 48 55 bb d6 3f 5a d1 85 93 37 90 d7 bf
       0.35518390728914107 -0.3681773129130953
000660 a0 b6 ec 61 1f 40 d4 bf 27 0d 56 e6 ff 61 d3 bf
       -0.31641373217540014 -0.30285642141116614
000670 38 ea de 35 47 db 91 bf 12 69 3a c0 66 ba d2 3f
       -0.01743804231930765 0.2926270367839986
000680 ed 67 1a a0 22 b0 af 3f be 15 d4 d5 4f 69 c9 bf
       0.061890680354920714 -0.19852636280863395
000690 48 b8 eb 0f 78 2d 99 bf f4 d3 77 db 53 82 bd 3f
       -0.02458751294300779 0.1152698908625352
0006a0 58 00 b2 2c 3b 65 d1 bf 01 81 aa 70 8c 8b c2 3f
       -0.2718036591031754 0.14488368512412111
0006b0 8c 36 2f fc 41 7c 76 bf b7 56 97 d0 fa 20 d1 bf
       -0.005489595178870165 -0.267637923910438
0006c0 f2 84 b1 a6 fe 39 c3 3f 00 70 fa e4 97 84 c7 3f
       0.15020735873535035 0.18373392754153883
0006d0 48 64 3d 75 ed c2 86 3f 55 62 a8 21 47 a4 ba bf
       0.01111398233449469 -0.10406918117258475
0006e0 80 68 4f a2 ba cc ac 3f 18 72 a6 06 6b a4 af 3f
       0.05624945861173192 0.061801285325803146
0006f0 c5 eb 55 fa 60 0e 84 3f 36 89 b3 d2 0f d4 db 3f
       0.009793050422322378 0.4348182256345753
000700 a1 b8 29 97 9c b3 c5 3f db c1 b9 0d 83 44 da bf
       0.16954381352428974 -0.4104316362418367
000710 3f db 95 fd 44 e5 c8 bf b3 a3 fa e8 f6 e9 c8 3f
       -0.1944967497072074 0.19464002967768365
000720 38 02 89 4f cb 96 d4 bf 10 b4 49 8c c9 12 d0 bf
       -0.32170374648197564 -0.25114668560019116
000730 ed b7 e8 33 ef 93 67 bf 56 02 70 3b 79 96 cc 3f
       -0.0028781577996346203 0.223342088720545
000740 ed cf 6c 64 9f 0a bc 3f 53 42 cf af b3 aa d9 3f
       0.10953708841117278 0.4010438172236139
000750 e9 77 37 9d 41 a8 b3 3f 3a e9 ea 27 79 a4 b0 3f
       0.07678613746926967 0.06500966286231327
000760 2c 00 92 88 fe e2 c7 3f d7 8b ba e1 67 16 d4 bf
       0.18661481541130465 -0.31386754077737805
000770 27 89 33 81 4a d1 d1 bf 3d 5d cc 20 a6 d6 a7 3f
       -0.2783991109592016 0.04655951643342824
000780 2b 82 c3 c2 de 15 d4 bf 67 39 27 a7 15 bc d0 3f
       -0.3138348485936457 0.261479771838728
000790 0d 98 c4 a1 19 a7 d0 3f 49 15 a7 90 01 00 bf bf
       0.26019898221636667 -0.1210938432842187
0007a0 79 31 3a 30 84 c5 d4 bf c5 e2 40 db 19 99 ba 3f
       -0.3245554419488808 0.10389863589160615
0007b0 77 28 7d b1 89 64 b9 3f fb f4 a9 22 09 c9 d4 3f
       0.09919033606743875 0.32477024445672925
0007c0 dc e9 e3 08 e8 59 cd bf a9 88 82 99 e3 c6 b1 3f
       -0.22930622514816335 0.06944105623054732
0007d0 18 3b c3 8f 0f 49 8f 3f 0a 44 50 1b 94 85 d3 bf
       0.015276071142947198 -0.30502798716867174
0007e0 9d 93 bf 9b f8 dd d8 bf af bd b9 31 5a c8 c9 bf
       -0.3885480423908179 -0.20142676761632347
0007f0 a5 fd 1b b8 18 f4 b7 bf 9f 37 ca 02 9e b3 c7 3f
       -0.09356836790902053 0.18516898285127767

block.0.bias f8 [60]
000000 1d 89 5e c1 6b ea ce 3f 79 ad 81 fc 12 08 cf bf
       0.24152895871981964 -0.24243390397473855
000010 e5 74 be 6d bc a2 b7 bf da 54 1f 97 25 36 b3 3f
       -0.09232690505310222 0.07504496516715467
000020 69 20 90 b5 09 cc ad bf 34 d9 b0 a5 07 0f 71 bf
       -0.05819731084199093 -0.004164724227896866
000030 87 db 49 df 39 70 b7 3f 74 c9 f4 02 8c 97 bc bf
       0.09155618382815876 -0.11168742248699975
000040 1f 52 71 c4 84 7b ba 3f ff df 55 b5 42 e2 c0 bf
       0.10344724460566866 -0.13190492491025904
000050 de b3 b5 e0 4d d6 bd bf 8f ea f5 00 05 f0 b6 bf
       -0.11655127273634444 -0.0895999076218834
000060 3d 4a 0b e1 61 61 ab 3f bd 27 4b ae 4d 73 b5 bf
       0.05347734329338436 -0.08379064088072048
000070 f0 19 d7 7e 80 99 ba 3f bc 07 a8 70 cb e9 a0 bf
       0.10390475365338836 -0.03303371191215329
000080 82 2a 4f 87 df a6 c6 3f 78 73 57 65 ae 27 d0 bf
       0.1769675646485958 -0.2524219503082388
000090 2a 24 9f 78 56 91 d1 3f ae 67 56 c8 7e 5c cb bf
       0.27449571399171424 -0.21376023084741064
0000a0 2d e4 85 43 07 39 b3 bf 4c 9d 18 5a ad 2d b3 3f
       -0.07508893393050249 0.07491572808850328
0000b0 e6 7f 6e a1 0c d1 be 3f e9 b8 cc d5 ed 31 c3 bf
       0.12037733975603224 -0.14996121348799044
0000c0 c7 4e 0e bb a8 b1 c3 3f 0e 33 a9 b6 53 db c1 3f
       0.15385922559345586 0.13950582903853398
0000d0 61 0d a3 39 47 aa d3 3f ed 02 aa 8c 14 3f ca 3f
       0.30726795796018364 0.20505005710949523
0000e0 31 e4 71 15 40 bd a4 bf 24 1e af e8 70 9e d0 3f
       -0.04050636541155262 0.2596704742722713
0000f0 04 69 a9 7d 55 bd cc 3f f3 5a fa d2 b4 3c d1 3f
       0.22452801357105312 0.2693302212077661
000100 bc ec 78 95 60 ec ba 3f 2f 2f 92 f6 4d 7f a6 3f
       0.10516933106639476 0.0439400065889387
000110 5a c8 af 85 9a 3b c0 bf 5f 39 ce 0d 35 7f bd 3f
       -0.12681895759266376 0.1152222784714687
000120 30 44 3b e4 7e ec bf 3f ef c8 10 bd 6d fa c7 3f
       0.12470238754328089 0.18732997638432589
000130 f0 54 74 ee 88 67 b4 3f 87 51 63 b9 f8 c3 cf 3f
       0.07970481702462329 0.24816807796618098
000140 e1 58 89 fc 23 c3 c3 bf d2 2d 70 c7 15 06 ba 3f
       -0.15439271765598675 0.10165535086723956
000150 65 97 4c 73 98 9b a3 bf 3d ad d5 15 1d db cc 3f
       -0.03829647452793842 0.22543681684633468
000160 ca ac 27 95 fe 3e af 3f 7d 6d 07 6f b8 a4 b2 3f
       0.06102748461474901 0.07282593451184556
000170 41 d6 f8 6b 69 df d1 3f 70 3e f3 2f 5a 13 bc bf
       0.2792609743513346 -0.10967029257448657
000180 bc 08 67 d3 4f 59 ca bf 87 1e f7 1e 2b 58 c0 bf
       -0.2058505804289491 -0.1276906872937966
000190 98 0c fa b4 06 1e c7 bf 88 a9 3d 6c f5 3a b7 3f
       -0.18060382687335585 0.09074338810538596
0001a0 7a 1c fb 25 fd 5a d2 bf 3e d1 37 43 b9 1f 6f 3f
       -0.2868035193354853 0.0037993067178324893
0001b0 34 d1 6c 33 65 44 a5 3f 71 f8 82 ca 13 6c d0 bf
       0.041537439849351904 -0.2565965154316308
0001c0 df 7d 18 51 88 a0 c2 bf 4b fd 2a fc 99 ea d4 3f
       -0.1455240627264933 0.32681893945478596
0001d0 c8 76 c9 56 9e 6d 96 3f 86 3b d3 62 7c 1c a6 3f
       0.0219025364370882 0.04318608003961004

block.2.weight f8 [60, 60]
000000 15 5e e1 f0 59 cb c4 bf b8 b9 41 a1 bf d2 b2 bf
       -0.16245579015479508 -0.07352826773578769
000010 89 d1 05 fb 05 68 ab bf 32 ab b5 d8 77 19 87 bf
       -0.05352801026575366 -0.011279045391992069
000020 11 3d bf f0 65 89 c5 3f b0 b2 41 cc 3b 6e 96 3f
       0.16825556044793946 0.02190488275703001
000030 64 05 a3 53 07 a8 c4 bf 5e cf 0e 52 45 db b5 bf
       -0.16137782653644728 -0.08537705663075942
000040 30 1a 3f 79 91 d6 a4 bf 64 fe 3a e0 86 bf ac 3f
       -0.04069952588138326 0.056148733970528025
000050 5c 4a 54 45 f6 fe bf bf b6 30 05 d3 9f f3 a5 3f
       -0.12498416130646589 0.042874331006346564
000060 59 a9 76 40 04 59 b6 3f 3a 30 42 61 42 28 c4 bf
       0.08729578565422481 -0.1574786162276512
000070 16 f3 b4 e1 b9 c1 a6 bf ae be 05 ea 2b 4f c4 bf
       -0.044446762849906715 -0.15866612364651672
000080 c2 39 b7 c6 bf 54 bc bf 54 c9 16 cf 16 18 bd bf
       -0.11066816903551227 -0.11364882045635244
000090 98 28 b1 75 4a 5f b6 3f c2 c1 11 4b 16 e2 b7 3f
       0.08739152310696097 0.09329356510875811
0000a0 57 c1 13 75 aa 9b 9b 3f 28 55 b7 94 e1 02 9f 3f
       0.026961005588362976 0.030284428312218697
0000b0 b5 15 99 b8 a5 26 b3 3f 0b 9b e7 01 7b 7a bb 3f
       0.07480846173083118 0.10733765408040712
0000c0 e6 68 63 77 c5 a2 d0 3f 3d 13 4a 5d 0e 36 c0 bf
       0.25993477496162 -0.12664966159004534
0000d0 c4 d3 e5 53 17 7b ab 3f 55 8d c5 9a 30 c8 a2 3f
       0.05367348574774369 0.036683577435520455
0000e0 f2 96 62 ff 24 49 bf bf 91 dd 76 6d f1 1c c1 3f
       -0.12220984683025529 0.13369577259957713
0000f0 d3 26 b7 19 79 2e c4 bf bf 59 eb 5c 54 75 b1 3f
       -0.15766824489246875 0.06819655674494295
000100 6b d0 d7 15 e5 b6 b6 3f 06 ff 58 9d 05 a5 c3 3f
       0.08872825415875389 0.15347356970777798
000110 a7 71 06 1f 05 03 8b bf 05 00 c3 d0 d7 f1 82 bf
       -0.013189353951752759 -0.009250341471101828
000120 da ad 7d cf 40 df b6 bf b5 b2 29 80 9f 1b b1 3f
       -0.08934407296845084 0.06682774428345335
000130 7c e5 cc b3 0b 46 82 3f d4 12 78 a7 fe b0 a2 3f
       0.00892266409356312 0.03650661272334835
000140 88 8d fb 5c 13 61 c1 3f 86 52 1a 09 4b f6 80 bf
       0.13577501335303688 -0.008282266822143624
000150 6d 6d 4b 1b 3e 84 b5 3f a3 12 07 75 4d 80 b6 3f
       0.08404911199925431 0.08789524180526569
000160 b9 16 5d 32 b4 21 72 bf dd 6d 5a fd 96 c3 b4 3f
       -0.004426673787582374 0.08110946355230149
000170 0a 52 13 7d 3a 9d b0 3f f0 72 b7 ee 11 ad b0 3f
       0.06489911607361179 0.06514083936731274
000180 0b 7b 4e 4d 0b 9f c2 3f c0 03 7c e2 0d ec c0 bf
       0.14547864222273463 -0.13220380362329642
000190 2f 46 40 eb 0b c8 bc bf 09 2b 66 d9 b6 b1 97 bf
       -0.11242746823725079 -0.02313886358164566
0001a0 83 68 a1 03 7b c6 c2 bf e1 47 5e 2a c5 23 a4 3f
       -0.1466821449019485 0.039335404798421576
0001b0 e7 93 13 b5 af 3b c6 3f ff f4 08 41 e8 4e aa bf
       0.1736964830553511 -0.05138326448330054
0001c0 a3 ea ce 1d 10 33 aa bf 99 e4 bd e9 00 32 a0 3f
       -0.05117082942839104 0.031631496937685806
0001d0 92 77 30 bc bc b6 a2 bf 4b 74 d4 cc c3 cc a7 3f
       -0.03655042454941716 0.04648410678257927
0001e0 4c 90 4f 75 4e 23 c2 bf 80 8f 2e f4 cb 00 94 bf
       -0.14170246818605603 -0.019534289148978257
0001f0 15 ff 06 2a 91 c8 c0 3f f3 5e e1 5f 71 5b b1 3f
       0.13112082054248533 0.0678015574534319
000200 07 1d 0f ab bb 3c 9e bf 02 b4 5f ee 21 df b3 3f
       -0.029528553310027152 0.07762348241494979
000210 2e 05 9d ab 5f 24 a2 3f 9e f3 64 7e b0 9c 8b bf
       0.0354337594021764 -0.013482455117463318
000220 55 58 1d 71 77 83 84 3f 63 5a cd a6 9d 32 85 bf
       0.010016377582058459 -0.01035044827737614
000230 e3 d1 c3 11 5d 06 b9 3f 0c 2f 95 1d 95 2a a5 3f
       0.09775335010255719 0.04134050356023353
000240 4e bf 04 b5 f8 6f c3 bf 24 a5 ee b5 4c dc a1 3f
       -0.15185459936901186 0.034883877953072934
000250 63 05 c5 13 ed cf b7 bf 02 9c c1 b2 12 99 b0 bf
       -0.09301645023972109 -0.06483570923010976
000260 62 9b d6 03 3d 9e b3 bf 4e f4 65 f2 e0 16 c3 3f
       -0.07663327544888213 0.14913570247509472
000270 df 40 ef ac b1 bf c2 bf 0b 8d eb ba 14 bb 92 bf
       -0.1464750379950663 -0.018291782292078767
000280 8a 4e e0 c0 d2 02 ce bf bc 27 9e d5 51 84 a8 bf
       -0.2344611589220345 -0.047884518934622616
000290 fc 9c 8a ea 30 ec c1 bf 44 b1 4e d8 30 2c 9b 3f
       -0.14002047970027565 0.026535762026172152
0002a0 3c 7c 85 a5 b9 41 9f bf 48 2b 88 ec 75 4f b1 3f
       -0.03052415917170158 0.06761872315125317
0002b0 7b 83 dd af 74 76 7f 3f ff f6 37 34 26 e6 6d 3f
       0.007681327637187314 0.0036497827693428016
0002c0 07 4f 70 89 a2 27 c8 bf b2 25 be a3 be 5a a6 bf
       -0.18870956145166692 -0.04366107701123258
0002d0 ba 45 e1 af 66 97 aa 3f 93 d9 d6 c1 51 6f b7 bf
       0.05193634888622563 -0.09154234869388338
0002e0 f4 e3 e4 5b dc 05 ae 3f aa af df 4a a1 c1 87 3f
       0.05863846418146315 0.011599788758722546
0002f0 c9 be a3 bf 6b d5 6f 3f 04 e9 d3 8c d6 5e b0 bf
       0.0038859466995900577 -0.06394711435487827
000300 ea e6 52 0d a0 0a b9 3f 4c 74 88 7c 6b 91 b9 3f
       0.09781837773598637 0.09987518110615773
000310 26 38 c6 ff 16 d1 c1 3f 8b 7b 2b b9 93 55 a7 3f
       0.13919341553668224 0.04557477603315537
000320 90 ec e1 ad 88 d4 a2 3f e2 64 3c 9d 7c 0a ba 3f
       0.036777754999058776 0.10172251547591629
000330 fc 5f 2b 71 f9 74 a4 bf 35 ba c7 a9 1f 2e d4 bf
       -0.03995494371855554 -0.3153151662835712
000340 86 5b d6 b1 3a e6 bb 3f 82 0d 8b d5 c9 f0 94 3f
       0.10898176995975292 0.020449784906998676
000350 1a 1c 1d 29 40 f5 a2 3f fd b7 f8 67 20 37 c2 bf
       0.03702736379505485 -0.1423073299096699
000360 b5 27 78 77 03 e3 53 bf bc 5e f9 d7 42 19 38 3f
       -0.0012137922148007633 0.0003677166168691672
000370 bb ce 2f 47 a1 81 aa bf 67 8d 0c c1 8a 00 b7 3f
       -0.05177024835566387 0.08985202038870953
000380 fd 54 82 c5 4a e5 a0 3f ec ec 1d 76 f6 d0 b3 bf
       0.032999359712599464 -0.07740726836884776
000390 63 6e d9 6b 5f 91 c1 bf 61 01 eb e2 15 d7 98 3f
       -0.1372489239318951 0.02425798604485985
0003a0 63 7f 4a 79 b5 a7 c4 3f 7e eb 1b df cb 31 b8 3f
       0.1613680689088098 0.09450983235357843
0003b0 ea 0e 47 91 10 a6 b4 3f f5 38 a7 41 0e b5 b3 3f
       0.08065894648376185 0.07698144057141916
0003c0 dc a8 48 43 1b 0c bf bf 35 63 6d 81 d1 87 b4 bf
       -0.12127848045989559 -0.08019742402883596
0003d0 b3 66 25 ea f9 c2 c0 bf 0a 0f e1 96 ec 5d c3 bf
       -0.1309502023021217 -0.15130383841653156
0003e0 16 b6 85 1b 0b 08 a9 3f 6d 59 27 a1 c0 98 ad 3f
       0.0488894911858148 0.05780603377540925
0003f0 08 c5 ed 61 99 5d b2 bf e7 00 9a a6 f2 1b a6 bf
       -0.07174070969428581 -0.04318197520933769
000400 b6 61 5c 7f 25 8f be 3f 70 cc 7a e0 be 41 a6 3f
       0.11937174186130659 0.04347034921865933
000410 2d 8c 45 b5 7d 52 98 3f dd 1e 29 79 a3 38 9e bf
       0.02375217837233039 -0.0295129339886263
000420 f4 9d 82 e6 9a 6e c3 bf 5b 36 cd 05 a9 29 ba bf
       -0.15181289916402785 -0.10219818488732228
000430 b2 4d fa 27 19 f4 a7 3f 33 8d b7 89 5d e4 b1 3f
       0.046784196977707096 0.06989082920295146
000440 6b fa 11 ae e1 fe 83 bf 31 0e bb 7a 5f e2 aa bf
       -0.009763491749479066 -0.05250833867242156
000450 db 07 e8 3f 93 26 aa 3f 00 3f df 22 ae 4c a9 3f
       0.051075555373259106 0.04941314864811197
000460 64 fe 70 3b 73 df ca bf 52 39 59 19 85 2e c1 bf
       -0.20994415666972366 -0.13423217523308978
000470 8a c9 14 e9 9e 11 a6 bf 06 38 e5 82 e6 2f be bf
       -0.043103185608191444 -0.11791840263069284
000480 67 65 86 aa 8e bf b1 bf 59 f1 ee c7 0b cd ab 3f
       -0.06932918227393757 0.05429875197976015
000490 8a 43 73 d0 47 6c bb 3f 98 bb 90 e9 5e e9 93 bf
       0.10712097968213477 -0.019444926267336266
0004a0 30 f6 b0 27 94 1d cf bf 4f 22 f7 f1 49 13 a0 3f
       -0.24309017122316012 0.03139716223410415
0004b0 86 c4 8e fc cd 73 bf 3f cc d3 bf d2 0d bb b2 bf
       0.1228607884975351 -0.07316671748397069
0004c0 fe 3d 69 dc cd f5 55 3f a7 89 dc 1c 26 f3 a1 bf
       0.0013403425561085975 -0.03505820371926243
0004d0 8e a0 72 22 62 ff 98 3f 2a 4f 9d fa 48 7c 79 bf
       0.024411710121655043 -0.006222043108056666
0004e0 5d 88 05 bb f8 58 ba 3f 98 b9 32 30 d6 e9 7b 3f
       0.1029200989337666 0.006814800904221839
0004f0 1b 1c 28 78 40 2c a4 bf 05 6b 49 ce 22 12 a8 bf
       -0.03940011469608625 -0.04701336639546664
000500 22 30 24 e9 51 e2 91 bf 6e eb ed cc 20 51 c4 3f
       -0.017464904646701147 0.15872583395306655
000510 c6 ba 77 ce 75 83 bf bf 69 6e bf e9 00 8b d1 bf
       -0.12309967318263224 -0.27410910441333286
000520 3e 95 9d 15 ca 79 a2 3f be 82 4a 76 98 51 a1 bf
       0.036085429323785764 -0.033825649680925704
000530 39 b5 39 32 c6 a1 b6 3f 87 93 c2 c6 47 af b0 bf
       0.08840597845274524 -0.06517456629315009
000540 7b a3 99 8c da cf b8 bf 7a 0b 02 57 72 12 be 3f
       -0.09692159588452214 0.11746897339075515
000550 1f f7 f6 53 e5 ee 9d bf ca 12 6a 32 e5 57 bb bf
       -0.02923162770252141 -0.10680992585009644
000560 1c bd 4c 87 a2 dc ae 3f 87 f2 a1 a8 0b 55 a1 bf
       0.06027706052406698 -0.03385197099212172
000570 09 75 c6 d9 4e 29 c7 bf 81 82 8d d2 a4 5c b9 bf
       -0.1809481204372008 -0.09906988277863073
000580 b7 9e 6b 57 cf b6 9d bf 60 d3 5d 86 aa 43 8d bf
       -0.029017677031247326 -0.014289219117679941
000590 a1 e1 31 c6 5b 38 c2 3f c4 a7 4d 82 04 ee 8a 3f
       0.14234492471201768 0.013149295069258111
0005a0 0a 6a 78 37 41 3d 9e bf 3a 14 fa 6a a7 e1 c0 bf
       -0.029530543337481098 -0.1318864128444675
0005b0 23 cb 21 5d f8 36 9a bf bd 4f 56 67 42 53 be 3f
       -0.025600319561316042 0.1184579374587988
0005c0 7a 6a 29 b0 d1 0f 8d 3f f0 e9 a2 bf 82 b8 b5 bf
       0.01419032877781955 -0.084846660410143
0005d0 38 88 75 d0 a0 af bb bf 83 09 d1 07 79 fd b1 bf
       -0.10814862336477027 -0.07027393761476301
0005e0 ef 59 9c c1 3c 3b b4 3f 9d ca 71 b6 3d 9b c2 3f
       0.07902888991188893 0.14536258133337734
0005f0 34 ea b0 28 96 0d 7a bf 54 38 e7 12 d7 a5 83 bf
       -0.006360613401791105 -0.009593658699398024
000600 c2 1f c5 a8 b9 e6 8b bf d9 ee 63 96 6c 98 ba 3f
       -0.013623667204811233 0.10388830825462082
000610 0c fb 45 79 ff 73 a8 3f f4 e1 e7 c2 4b 11 c5 bf
       0.04775999408138007 -0.1645903302849231
000620 be 2a 01 c1 86 5c a8 bf ad dc 8f b9 82 f6 be bf
       -0.047580920276762736 -0.12094895391770662
000630 89 79 7a 14 ad 52 c7 3f e5 0e 26 e8 4b 74 b1 bf
       0.1822105741493483 -0.0681807939309312
000640 04 a2 18 f4 d6 82 a7 3f 67 4a 90 c4 eb a4 b2 3f
       0.04592010240259373 0.07282899426380994
000650 e0 60 78 40 01 ac ab bf f1 85 02 35 7b c1 c1 3f
       -0.05404666816701975 0.13871708000537766
000660 9d ee 78 c4 59 6e c9 3f 00 bc dd 64 42 fe bc bf
       0.1986801347101065 -0.11325468981316078
000670 35 94 9e 96 e1 df aa bf 2d 07 c3 13 94 89 b2 bf
       -0.052489328037417605 -0.07241178019014845
000680 23 8d f1 64 d7 d0 39 3f 0e 24 3e 7f 0a ca 89 3f
       0.00039391764307179967 0.012592393882885158
000690 6e c9 e3 da 2d 69 c3 bf 8a 54 23 65 46 d8 be bf
       -0.15164731204965726 -0.12048759431066194
0006a0 85 66 35 d4 04 d0 a5 bf de 6f f2 8d ec 90 64 bf
       -0.0426026829761215 -0.0025105114178369655
0006b0 da c0 30 7d eb 07 b9 3f 68 63 26 1d 71 84 93 bf
       0.09777709776313107 -0.01905991306702806
0006c0 e4 7a b0 42 a3 7a b2 bf 91 d9 b5 2a 32 c1 c0 bf
       -0.07218380335005353 -0.1308958729311596
0006d0 07 78 4d fd f7 90 b2 bf 4d 12 48 0c 2d 1d c0 bf
       -0.07252454694886988 -0.1258903799026875
0006e0 70 31 d4 15 f2 95 c0 3f 0a 25 1d 49 e3 c4 ac bf
       0.12957597795356035 -0.05618963496687897
0006f0 e5 78 8e bb 41 7c a7 3f 41 f4 ed 3b 98 d4 9c bf
       0.04586987890728426 -0.02815473428517046
000700 55 d6 11 6c a4 eb 9b 3f c2 49 74 62 f0 e3 ad 3f
       0.027266091438340762 0.05837966157755005
000710 5a c2 64 c1 1d dc c2 3f f7 ca 15 70 b0 5e bb bf
       0.14734241431280531 -0.10691359268620802
000720 9d 9d 95 77 c6 84 be 3f 7a 1e e4 63 a8 95 a7 3f
       0.11921348971883679 0.04606367320417078
000730 ff 4a 38 90 2a f9 bd bf 82 08 cb d6 0a af 7c bf
       -0.1170832254504539 -0.00700287088392504
000740 8b d7 df fb 21 e0 b3 bf d0 5c bd 13 a6 cb c7 3f
       -0.07763874434735223 0.18590236629345336
000750 bc 8c 17 72 7a 0f b9 3f 56 e3 41 d2 dd 99 c6 bf
       0.09789243016671184 -0.1765706326148357
000760 74 76 cb e0 53 50 b4 3f 19 43 41 79 e5 78 90 3f
       0.07935070264962879 0.016086183095754245
000770 6d e6 b3 a1 5b 22 bd 3f eb d6 9f f2 c6 19 c1 bf
       0.11380551050015138 -0.13359915587323398
000780 e5 12 31 02 b9 f4 c0 bf 5f 5a fc 0c 35 64 c4 bf
       -0.1324683438016542 -0.1593080819518091
000790 45 78 53 ff 0b 51 a6 3f 9e d8 5c 7d 15 e0 c0 3f
       0.04358708850644225 0.13183849927162766
0007a0 53 15 69 9a ce 02 b5 3f e0 71 3b c3 05 a8 9f bf
       0.08207408208644056 -0.030914392510441036
0007b0 59 8b 04 3b 34 e7 a0 bf e1 da 8f fc de 4e 9f bf
       -0.03301394672805342 -0.030574306645543173
0007c0 d0 20 1a d9 05 db a5 3f 12 c7 74 47 cc 6b c6 bf
       0.04268663668796224 -0.175164732828812
0007d0 93 73 f8 98 da 7b a9 3f dc f1 39 f1 8b 67 bc 3f
       0.04977305524173583 0.11095499648394685
0007e0 d3 c5 83 47 30 fd b9 bf d4 6d 03 51 1c 70 77 3f
       -0.10151960130658404 0.005722151385465907
0007f0 2b 25 d3 3d 45 f3 bc 3f ae 96 8c 7e 5e ce b3 bf
       0.1130870128573817 -0.07736769284800957

block.2.bias f8 [60]
000000 8d 25 67 6c a5 31 b2 bf 66 f3 66 2b 56 51 bb bf
       -0.07107004066997132 -0.10670984801886405
000010 2b 50 c0 02 ca 99 b7 bf be 23 b9 c4 45 33 aa 3f
       -0.09219038550537621 0.05117242838293333
000020 1f c0 ef 7c 91 07 af bf c3 0b 53 45 8f fc a6 3f
       -0.060604616642990765 0.04489562722439857
000030 c9 45 c5 23 fa b2 bd bf 6e 52 44 1e a3 7c 8d 3f
       -0.11601222394280976 0.014397882805988273
000040 44 6d 7f bc 80 02 57 3f 9e fe 0a c8 63 e5 9d 3f
       0.0014044053259486136 0.02919536503281838
000050 fa ec f5 6e be 1a aa 3f 77 fa f7 41 a3 75 a9 3f
       0.05098528961658562 0.049725629618468874
000060 06 e8 86 92 08 fb ae 3f 96 8c 8f 94 c0 e2 ba bf
       0.06050898350390814 -0.10502246500941434
000070 79 99 ee 86 e3 3e a8 bf 25 ac 5f f0 58 b1 b9 bf
       -0.04735480329627512 -0.10036235683917079
000080 17 b0 54 ac c1 2a b4 bf 54 0a d5 6a 6d 33 b6 bf
       -0.07877741296096051 -0.08672222002227531
000090 14 e4 b3 29 ea fc b1 3f 0e 19 73 e1 23 7a b5 3f
       0.07026542204029368 0.08389496091976786
0000a0 d0 57 df cd 2d 88 a1 bf b9 65 9c 01 c8 9d a4 3f
       -0.034242087727463066 0.04026627559342039
0000b0 74 53 59 ce 82 e9 b5 bf 29 07 b3 25 af 5a b4 bf
       -0.08559434449973741 -0.0795087306060195
0000c0 76 8c af 25 56 ad a0 3f f4 fa 7a 87 4b fe 9c bf
       0.032572452640828795 -0.02831380857855499
0000d0 48 08 85 40 39 35 a7 3f db 5f 90 4e 7e 2d 9a 3f
       0.045327939153609054 0.025564168496288047
0000e0 b9 ad 0a 98 81 d6 c4 3f 9e ce 90 7c 63 bf b2 3f
       0.162796210517042 0.07323285857347137
0000f0 6a 42 61 26 5e 5b b9 bf 50 36 4d d8 4a 42 a9 3f
       -0.09905041157731778 0.04933389559174073
000100 61 84 1a 96 f5 c7 ae bf a7 0d 18 97 ae 39 a3 bf
       -0.06011931855506059 -0.03754945368202849
000110 4e f4 ba 97 79 5e 93 3f 24 a1 8a ca c0 dc 82 bf
       0.018915080915338493 -0.009210115605427456
000120 2b 79 46 30 09 b5 62 bf 26 ad df f0 29 9e b6 3f
       -0.002283590265690046 0.08835088854509773
000130 57 17 61 11 f4 c6 c0 3f 85 73 fd 51 28 70 8e bf
       0.1310715756282501 -0.014862360956323215
000140 df 48 9c 17 40 33 97 3f d8 d6 1d 39 2f fb be bf
       0.022656442109174498 -0.12102027077147726
000150 76 db da 28 0a 16 b1 bf 3f fb 0c e3 ed 9d bd 3f
       -0.06674254891809803 0.11569105904798692
000160 ea 60 5b e4 b0 3f c1 3f 7f 35 c7 19 52 47 b0 bf
       0.1347561945938261 -0.06358826760625468
000170 17 c4 8d 7e 17 84 9f bf ef f3 d9 e5 95 69 be bf
       -0.030777327632169085 -0.1187986074600784
000180 60 23 90 a5 3b e5 b4 3f 95 a0 2c 5f 12 11 a2 bf
       0.08162281791750337 -0.035286497228583937
000190 fa 83 35 cd 3b 86 bf 3f d9 3a 23 d5 3a 52 70 3f
       0.12314199218737079 0.003984670462343153
0001a0 2d 24 9b d8 e8 d3 b4 3f ae fb 3d 0a 9b 66 bd bf
       0.08135848320229462 -0.11484688758899494
0001b0 55 d5 0e 46 f8 3a ac 3f be 54 c2 95 6d 20 a8 3f
       0.05513740401458259 0.04712240651239473
0001c0 1a 5d 46 d4 26 df c2 3f 73 c5 64 96 62 90 59 bf
       0.14743504872306162 -0.0015603029983818045
0001d0 8a 0d b5 08 03 30 b1 3f 87 aa 7d 10 b7 be ba 3f
       0.06713885271624612 0.10447258141145187

block.4.weight f8 [60, 60]
000000 89 8f 71 fc d9 76 b7 3f 43 7d 84 0c ca 1c b5 bf
       0.0916572800938963 -0.08247053914646067
000010 fe b6 63 36 51 96 bc bf c0 9e c2 93 97 32 ce 3f
       -0.11166865899914666 0.23591894831519333
000020 88 ff cb 7c f2 21 b5 3f 72 49 9f 84 15 a6 bf bf
       0.08254924341963321 -0.12362799156043083
000030 f3 e6 cc 58 f1 27 91 bf 88 53 a9 bd 04 8c 96 3f
       -0.016753932042070607 0.02201850326158053
000040 0b 14 52 2a 64 b2 bc 3f 7d e2 9a 77 5f 23 83 bf
       0.11209703477113934 -0.009344812238269324
000050 44 55 77 5a 75 bf bb bf ea 35 aa 38 53 6c b1 bf
       -0.10839017351766694 -0.06805915959758804
000060 ee ec c2 f9 80 7f bd 3f 06 8a f8 ad 8f a1 a7 3f
       0.11522680375758274 0.04615448950450589
000070 bf 9f 12 07 f0 05 a1 bf e2 eb c8 48 e2 ff 97 3f
       -0.03324842535340577 0.02343705720180001
000080 2e 53 83 d2 8b 91 a1 bf f1 29 ae 10 e4 49 bc bf
       -0.03431355423678038 -0.11050248534426267
000090 46 1d 06 8d 3d e9 b9 bf cc c7 bb ff 89 6c c8 3f
       -0.10121521656957552 0.19081234919536738
0000a0 78 00 8c d2 22 30 b2 3f 15 40 bb 17 97 ed af 3f
       0.07104699745468845 0.06235954441729078
0000b0 67 42 fb 70 78 dd c0 bf 4f f9 b8 41 ab 95 a8 3f
       -0.13175874249147343 0.04801688363339684
0000c0 6a 42 4f 55 ed 31 a5 bf c2 c2 51 d5 59 b8 ae bf
       -0.041396538413782505 -0.06000023583408655
0000d0 70 f1 74 26 b5 1d 48 bf 3d 4d f6 63 5d f2 8d 3f
       -0.0007359632990425035 0.014622430432416617
0000e0 62 87 8e 6a 77 c1 be 3f e7 ae 02 4d 10 94 a9 3f
       0.12013956405146822 0.04995776119298317
0000f0 5d 10 62 be 15 56 a8 3f af d4 90 c3 3d 27 a7 3f
       0.047531775941963096 0.045221262095233576
000100 63 d7 07 81 68 65 b2 3f ae 36 ea 51 77 90 cd 3f
       0.07185986662065384 0.23097125530005286
000110 62 42 6c 98 08 6f b3 bf 74 c2 b3 5f 13 3e a3 bf
       -0.0759129879118148 -0.037582974846263634
000120 cd b8 4d a6 e4 c9 c5 3f c6 fd b5 c3 df dd bd 3f
       0.17022379036229154 0.11666677978609305
000130 8e c5 a9 16 b8 4b c0 3f 9c 8d d8 64 6d 37 b3 bf
       0.12731076342201358 -0.07506450378473634
000140 eb d7 b2 2d 85 a8 c0 bf a8 eb a4 52 8c 2f b6 3f
       -0.13014282924058249 0.08666302697831318
000150 96 85 8f 83 fa ea b6 bf ce d7 26 fa c1 54 b3 bf
       -0.0895229884331655 -0.07551205022068005
000160 2a c0 48 dd 57 de c5 3f 06 4b fd 0d a8 b3 b1 bf
       0.17084787659541806 -0.06914759007967683
000170 fb 15 38 70 f1 df b0 3f 67 f4 c9 23 61 45 a0 bf
       0.06591710080837025 -0.031779323214302484
000180 bc 2c 95 78 e0 68 ad 3f 8b 09 88 39 62 4f aa bf
       0.05744077178914028 -0.05138689949309868
000190 5d 65 14 5c 3e cb a6 3f 92 9d 9a 48 93 19 95 3f
       0.0445193755533164 0.020605374628443203
0001a0 85 7a 25 25 76 34 c9 3f 10 ff 48 9f 96 13 b3 bf
       0.19691349805630778 -0.07451764477536593
0001b0 70 e9 d1 db 27 ae ce 3f 01 e7 c8 b5 7d 00 b5 bf
       0.23968981011769186 -0.08203874290566306
0001c0 55 28 d9 40 55 4d bb 3f f1 55 4a b2 e5 55 c2 3f
       0.10664875825128324 0.14324637609085714
0001d0 b9 3c 96 b6 a2 9a c1 3f b8 ed 25 49 b7 58 b0 3f
       0.1375316039597914 0.06385369811862673
0001e0 16 0c bf 14 fc 5f a9 bf 66 b6 b4 51 75 bd ac bf
       -0.0495604300808951 -0.056132951949945206
0001f0 39 bc a5 a2 4b 32 bb 3f 61 24 f1 4b 62 25 97 bf
       0.10623619767078275 -0.022603546033029057
000200 6e a8 44 c3 05 3a ba bf e0 da 15 83 05 da a4 bf
       -0.10244785325326841 -0.04072587227977009
000210 53 dc 60 d1 f2 cb bf bf a3 1c 99 82 fa c4 bc bf
       -0.12420575725342191 -0.11238065422468195
000220 ec 48 9c ee a9 b7 a3 3f 03 bb 1d 51 5d 58 bd 3f
       0.03851061856961899 0.11462958555578599
000230 db 9d a4 fe 78 c0 b2 3f ef 25 1e 3f da 23 ab bf
       0.07324939934607448 -0.05300790806274935
000240 e2 66 54 38 ea 37 c1 3f 87 2d 41 07 4e df b5 bf
       0.1345188880011881 -0.08543861081232339
000250 6d da 8c 08 39 b5 b6 3f 25 cd 06 10 a5 5a bc bf
       0.08870274027581511 -0.11075812951348903
000260 98 3a 4b 7a 61 33 c9 bf da a7 7f 31 62 42 bc 3f
       -0.19688051673297902 0.11038793285811668
000270 7f 57 f2 0b 2f bf c5 3f 24 4b 67 a5 fb 26 bd 3f
       0.16989696582157518 0.11387608326121473
000280 a9 18 ff 8e 81 cf c2 bf 96 3b 26 3b 7a 9f 9f bf
       -0.14695758325814737 -0.03088179574984514
000290 6f c1 16 77 eb aa c0 3f bf ab 4f b3 3c 0d 92 bf
       0.13021605791937982 -0.01762862057141112
0002a0 d0 dd 69 e7 9d a7 a4 bf 11 e5 b9 22 06 b5 bc 3f
       -0.04034131479141545 0.11213720653349336
0002b0 d8 05 44 91 48 93 a5 bf 2e b6 23 b1 e5 8a b2 3f
       -0.04213930867446053 0.07243190359778204
0002c0 06 bf 5f e0 cc b6 9c bf c7 3b e6 de 86 b2 82 3f
       -0.0280410777995135 0.009129575421665493
0002d0 00 00 00 60 47 38 a6 bf ce 9b 09 40 30 f9 c1 bf
       -0.04339812323451042 -0.1404171288188238
0002e0 a9 76 20 1e 24 5d aa bf 51 80 da 8b 80 72 ce bf
       -0.05149186008223456 -0.23786932781968287
0002f0 e2 ee 7c 57 aa 8e b4 3f 79 98 89 ef 2a 92 c0 3f
       0.08030190120637884 0.12946068473974373
000300 ef 86 c9 fb a6 51 bc bf df cf 15 f1 33 cf b7 bf
       -0.11062091490887459 -0.09300541530484406
000310 bf 7b e7 49 ae a0 b2 3f a3 b9 9e 40 73 8f ba 3f
       0.07276429466536082 0.10375137641560754
000320 e8 37 c4 78 45 53 b6 bf 67 15 82 5e 21 e5 b0 3f
       -0.08720812033081382 0.06599625165298094
000330 5a 6f ac ac 34 3e 9b bf c8 c1 7f 2a c4 a7 c3 3f
       -0.02660448364177568 0.15355732035778957
000340 81 2c 04 69 bf 83 bc bf 2a 64 5b c8 15 68 ba bf
       -0.11138531030535327 -0.10315071240928889
000350 8f 44 bd 9b 53 7f 77 bf 24 0d 6b 2e 8e 8b a8 bf
       -0.005736662478583856 -0.047939723173408916
000360 8e 9c a8 48 b6 47 80 bf f7 8e 05 5e 0d 15 b3 3f
       -0.007949279873243034 0.07453998132183047
000370 ba 22 ac 72 08 8b 8a bf 30 e8 40 2e dd fc 9f 3f
       -0.012960496902011943 0.03123803705987188
000380 b9 aa 47 21 7e 0d b2 bf e5 fb bd f6 5e a5 b0 3f
       -0.07051838219164609 0.06502336048104913
000390 70 c3 06 4f 0f ac c6 bf b0 12 99 34 1e 7e 95 bf
       -0.17712584837638756 -0.020988914451907703
0003a0 55 a8 b4 d2 43 05 c4 bf 79 1a 76 2d 22 8d 8a bf
       -0.1564106730305094 -0.012964503300066032
0003b0 c5 c6 13 8f 6c f4 93 3f 46 c9 4c 37 dd 01 aa 3f
       0.01948709128641359 0.05079547214553996
0003c0 7e 43 5e 68 fc e4 cd bf ff 65 d4 e0 81 18 c4 3f
       -0.23355059715370524 0.1569979045678309
0003d0 2c 10 cc 9c 1c 3d c6 3f 78 41 49 45 98 64 c8 bf
       0.173739983140082 -0.19056990988839195
0003e0 49 85 e9 98 48 ff b0 bf 12 7a 01 f5 65 9c a8 3f
       -0.06639531834800495 0.04806822410386159
0003f0 18 6a b4 39 2c a3 a2 3f 0d 32 e6 4a 64 13 a1 bf
       0.036401159328495136 -0.033351072447747133
000400 82 d0 c0 69 7e 94 b4 bf 45 d4 30 f1 8c 0e c0 bf
       -0.08039083558907303 -0.1254440477074771
000410 1f 83 8f 0f ad a3 b8 3f b1 f7 10 e0 32 48 b4 3f
       0.09624749784371688 0.07922666521423484
000420 b2 cb bc 8b aa 35 c3 3f d9 b0 69 da 5e cd a9 3f
       0.15007526229018492 0.05039497772381347
000430 5f a7 ac bf b5 f8 c3 3f e6 ae 6c ae 5b 7b 90 3f
       0.15602752551177 0.016095573922185212
000440 d3 1f 3e 0c 53 aa c1 bf 7e 69 53 13 70 3f be 3f
       -0.13801038835322163 0.11815548393079742
000450 92 85 0b 97 50 c0 af 3f 63 9c ef 92 ab a7 ca bf
       0.0620141205197441 -0.2082418887577858
000460 98 53 7b 98 12 74 c1 bf 8b c6 1e bc 89 52 b3 3f
       -0.13635475583455725 0.07547818033961044
000470 a6 eb a0 b0 78 41 bf 3f 35 da c2 b7 fb 95 b7 3f
       0.12209276497098517 0.09213231312137611
000480 07 e1 64 3a ca 88 b0 3f d9 d6 b9 13 bb c6 ab bf
       0.06458724904667089 -0.05425057044787502
000490 4c aa ca c6 10 41 bd 3f 3d 2a b9 5c ea 2f b6 bf
       0.1142740712481693 -0.08666863216164074
0004a0 3f 8f ca 3b e8 5c b0 3f d9 3d 5f a5 b3 1b 9f 3f
       0.06391765079257271 0.030379111259945055
0004b0 b0 39 bb 98 0b c3 a3 3f 9a c8 fc 0a 54 c5 c8 bf
       0.03859745253940916 -0.19352198158737083
0004c0 0f ae 1b 39 b2 5e ad bf b8 e7 3a 4b 33 c9 c7 bf
       -0.05736309954758322 -0.18582764790863648
0004d0 d6 a8 89 78 c2 5c c3 3f d0 d5 03 b3 1a 18 b2 bf
       0.15126829991942853 -0.07068030233843747
0004e0 67 bd 9a 6c 30 6d d0 bf 4c c3 f8 37 2f 2f bc 3f
       -0.25666437726882524 0.11009497753617586
0004f0 69 a3 79 b2 a4 c4 b6 bf ef 03 0b 55 82 18 a6 3f
       -0.08893803937247714 0.043155739670971964
000500 71 da d6 26 d4 91 9e bf 6c 39 73 ef 9f 11 a0 3f
       -0.029853167410431817 0.03138446615195076
000510 db 1b 71 08 62 ed a5 bf 67 45 46 ab 77 22 82 bf
       -0.04282671311425875 -0.008854803957350567
000520 43 2f bb f9 f9 01 a0 bf 65 9e b2 b7 bf 7d 96 3f
       -0.03126507924534263 0.021964068972606294
000530 94 9f a9 0a 57 19 cf bf 5c 16 cb e1 49 84 a3 3f
       -0.24296081562647187 0.03811865693346014
000540 81 3a 73 c0 bf dd ce bf 9c 2c 96 ed 75 52 ad bf
       -0.24114224335649584 -0.05726974988200448
000550 c7 c3 30 28 87 93 a1 3f 1e 95 a1 c0 0b 91 b1 bf
       0.034328673988404605 -0.06861947491559703
000560 28 6c fa 72 e0 38 a8 bf a6 9f 7e 7c 03 2c b5 bf
       -0.047308935199190494 -0.08270284451884766
000570 57 75 86 fc c7 ef cb bf 3e 67 af 01 a5 87 51 3f
       -0.21825504141171834 0.001069937838784132
000580 e3 77 b5 f2 76 b1 a5 bf 3b 1b 42 03 46 1d be bf
       -0.04236957276110311 -0.1176341779665621
000590 92 2f 05 d5 a7 a7 c4 bf ee cd 33 2e a8 b0 b3 bf
       -0.16136644269351713 -0.07691432121264771
0005a0 9c 97 34 6f 96 b4 c2 3f d0 3e ef e0 cd e9 8b bf
       0.1461360972400002 -0.013629539896924753
0005b0 c8 b4 6d 96 1d 6e c4 bf a2 0f 0a 3c 2b f3 bb 3f
       -0.15961046071189444 0.10917921272090195
0005c0 23 a8 da 89 e6 68 ae 3f 7f ff 13 a6 82 16 9c bf
       0.059394077613731854 -0.027429620157817688
0005d0 10 f4 d4 25 48 14 a0 3f a1 12 52 95 a8 66 c0 3f
       0.0314047380620438 0.12813288966221584
0005e0 6d f7 ee fa 16 33 c4 bf 28 63 a8 7b 92 bd b1 bf
       -0.1578091359387445 -0.06929889220226626
0005f0 83 85 ab 2c c7 ff be bf 71 c2 a0 b4 e3 22 7c 3f
       -0.12109036293579405 0.006869210696138426
000600 dc 62 61 ad dc 7c 75 bf be b5 bb d3 35 cc c6 bf
       -0.005246030827117134 -0.1781070026258202
000610 d8 3f 03 8f 09 98 91 bf fd 06 2d 8a 0f d3 94 3f
       -0.01718153891926008 0.02033638268336001
000620 5b 67 6b da b3 48 b5 bf 90 5a 0c 63 31 17 b5 3f
       -0.08314060289867824 0.0823851458375009
000630 03 1b 62 de 8f 0f af bf b9 18 4a ee 3d 92 b8 3f
       -0.06066560353888486 0.09598147456753993
000640 6a 53 68 9c 43 4a ca 3f 7c f9 26 9f b7 56 b8 bf
       0.2053913606365783 -0.09507320056488838
000650 1c 1f 81 42 24 44 a7 bf 95 01 e9 da bf 94 c0 3f
       -0.04544175445385987 0.1295394724748006
000660 59 15 e2 5a e2 f6 c4 bf 20 f4 cf 25 0d 30 b5 bf
       -0.16378430783894762 -0.0827644555392486
000670 cb 05 6a e1 0e a7 c0 3f c3 6d 60 0d e6 03 cc bf
       0.1300982094435724 -0.2188689770999713
000680 6c b9 b4 43 17 ba 9f bf da fe 20 db c1 ae 48 bf
       -0.03098331785911894 -0.0007532545626034129
000690 6a c5 8c 5f 82 b9 9d bf 52 4b 70 48 b4 09 b0 3f
       -0.029027974206831265 0.06264807480355941
0006a0 54 54 53 1c 54 d7 c6 bf 07 bc 8f a9 b5 aa c9 3f
       -0.17844630606728862 0.20052214412086775
0006b0 07 5e c1 2e d8 ee a6 bf 7b 88 dd 8a 19 f2 ae bf
       -0.04479098864311131 -0.06044082470067821
0006c0 bf 87 ba ab 71 6e c8 3f c9 3e e5 02 dd fa a0 3f
       0.19087048421084593 0.033163935283139497
0006d0 87 66 4b d2 60 15 7a bf d1 c2 7f 39 0b e8 a1 bf
       -0.006368044098701404 -0.034973479050568586
0006e0 71 47 77 44 bd 27 b8 bf f5 e6 e5 89 b9 47 bb bf
       -0.0943563739922675 -0.10656318298961394
0006f0 6d c9 bb 92 21 18 c3 bf 34 31 5b 36 de d3 b4 bf
       -0.14917392410968536 -0.08135784937912122
000700 89 f1 ac e7 bd 05 93 3f e1 ee 1e ec 90 55 c1 bf
       0.01857659079108623 -0.13542377023065114
000710 07 6c 73 4f a4 8e cc 3f 3b 38 17 05 6f de b2 3f
       0.2231030834144294 0.07370656847271644
000720 b1 44 8e dc 9e 03 c3 3f 20 bd e5 60 3e 03 c3 3f
       0.1485479905063918 0.14853648883170312
000730 7e a8 07 a9 0d a4 7b 3f ad 5b 28 a1 ad 6c c4 bf
       0.006748250351373495 -0.1595665966894705
000740 04 d4 8d 3d 8e 08 ac bf 44 2e 9f d1 ec 6f aa bf
       -0.054752774251859676 -0.05163517054424152
000750 a3 3a 18 5f 1f db b1 3f a6 ee 40 6e cb 9a bf 3f
       0.06974979468962288 0.12345572892894072
000760 4f 6e 49 38 a9 0c b3 3f 45 c5 55 a6 7b ed d0 3f
       0.0744119417590181 0.26449481242805845
000770 a8 3a f3 2a 95 56 bc 3f ef ac eb d8 92 36 79 bf
       0.11069614695154917 -0.006155561087079805
000780 a0 ce a0 78 8f 6a 9c bf 26 37 35 89 a0 52 bb 3f
       -0.027750245797689588 0.10672953939248639
000790 5c 29 b3 93 a2 7b 73 3f b1 50 05 6d 9b 29 ba 3f
       0.004756579462262014 0.10219737445487699
0007a0 20 e5 bb 83 31 47 b3 bf 25 f6 0a 91 d9 2c c4 bf
       -0.07530507532273534 -0.15761870939415804
0007b0 48 f3 73 b2 f2 5c ce 3f 27 4e b8 b3 06 10 a3 3f
       0.23721154893419283 0.03723164504858927
0007c0 27 88 1d 19 c8 52 c0 3f ae 09 ba 41 01 5b 91 bf
       0.12752629495941045 -0.01694871867813113
0007d0 47 cb f5 17 67 22 c5 3f 74 3c ac 41 ac a3 ab bf
       0.16511238737038011 -0.05398309995336428
0007e0 3d 67 99 b8 06 82 b0 bf f9 40 35 4c b1 24 bd 3f
       -0.06448404318635155 0.11384113417193821
0007f0 fb f6 8f 83 89 06 c0 bf f8 41 e2 dd 77 81 be 3f
       -0.12519949840491748 0.11916302840314319

block.4.bias f8 [60]
000000 1d ac ee ec a7 34 c2 3f aa ac c3 94 a6 9a b5 bf
       0.1422319323440612 -0.08439103252355787
000010 9f e9 29 f8 4f a7 7c 3f 62 da 9c 0b 30 5a bc 3f
       0.006995499020030853 0.11075115474236832
000020 fb ba 5a 59 1a 13 a7 bf ac 5c 9b 67 20 86 a2 bf
       -0.04506761875869888 -0.03617955460293251
000030 56 06 55 2e b1 2e b1 3f ed 8e cd b0 7f 78 b8 bf
       0.06711871510653941 -0.09558866564253395
000040 6d 1f f6 32 ea 29 c2 3f b2 b0 cc 4e 50 18 c3 bf
       0.14190413940763894 -0.1491794953120738
000050 24 05 3a 76 2c aa 8a bf fa da 2c 7b 93 c3 c1 3f
       -0.013019893033972503 0.13878100885786876
000060 6e 4d 06 e1 70 a5 c2 3f ed e4 be 91 48 02 ae 3f
       0.14567385661630844 0.05861117152330473
000070 76 23 c7 f9 3d 61 bc bf 3a e3 f1 e4 89 9c 90 bf
       -0.1108587965783395 -0.01622214755886662
000080 58 9c f7 7a f6 b0 8a 3f 02 81 7b dc 2a 8c ba 3f
       0.013032842281019238 0.10370128519889835
000090 c2 24 34 ef 69 d4 c5 3f cc 02 4d 9b cb ab 98 bf
       0.17054485492579913 -0.024092847207841925
0000a0 3e fa 51 25 21 e0 af 3f 0a 54 49 c4 6b 56 be 3f
       0.062256847196284756 0.1185061792578638
0000b0 a5 c7 87 74 e0 e9 4b bf 95 6b bd e4 49 2f a3 bf
       -0.0008518548939362337 -0.03747015874133478
0000c0 92 eb 20 42 3c 9a 6c bf bd f7 34 67 3a 84 bc 3f
       -0.003491513912221086 0.11139264125537714
0000d0 32 5a 6f 3a af 09 c0 3f 9b b1 fc ff b3 71 a8 bf
       0.12529554703969975 -0.047742485998557536
0000e0 84 b4 eb ec f7 7f ab bf 27 00 ed e6 02 61 bf bf
       -0.05371069686030075 -0.12257402551495088
0000f0 1d 5a 21 f0 e9 be ba bf 28 18 c4 45 f9 a3 b5 3f
       -0.10447561371379561 0.08453329041739777
000100 fe e6 d1 8e 95 a1 c1 3f 36 83 7b d9 8b 43 b2 bf
       0.13774365876798095 -0.07134317454939496
000110 4f ca b4 b8 b7 48 b5 3f de 0f cb 4d df 85 c1 3f
       0.08314083346776012 0.13689795778748154
000120 d5 b8 c1 26 01 20 b1 3f 75 7a a5 33 8d 3c a5 3f
       0.06689459987839837 0.04147759681176392
000130 76 2c f3 99 65 17 c0 bf 19 42 1b 21 a2 9e b0 bf
       -0.12571401612362693 -0.06492055233253104
000140 aa 65 05 9f 52 73 b3 bf 89 78 0a 29 21 42 c4 3f
       -0.07597843534804008 0.1582681131739643
000150 d5 c8 31 ea 00 dc c2 3f 6e 47 6f 7a bb c6 90 3f
       0.1473389762427987 0.01638310370237355
000160 58 95 51 0b c8 85 ac 3f 17 8f 89 05 bc 73 bb 3f
       0.05570817125480215 0.10723471770466762
000170 d8 ff 3a fd f7 f1 c1 3f 39 9a b5 48 44 40 c1 3f
       0.140196798942269 0.13477376508963504
000180 a2 e9 b6 fb 1e 22 bb 3f 53 e7 24 6b 1a 01 95 3f
       0.10598939557431789 0.020512020864067292
000190 ff d3 bc bd f1 dc bf bf 39 5a 4c eb 6e 98 bb 3f
       -0.12446509248987069 0.10779469723306868
0001a0 ce 11 da df c9 30 b6 3f 9f 1a b9 eb b6 d5 c6 bf
       0.08668195452816649 -0.17839704999842795
0001b0 df 77 04 28 46 38 b8 bf 9d 55 09 ea e0 9e 98 3f
       -0.09460867382992387 0.02404357365079123
0001c0 80 c5 ce 9e 9a 07 c2 3f 66 84 61 a4 37 e9 9a bf
       0.14085705522806435 -0.026280278594985516
0001d0 cb 7d 7b 58 e2 f7 18 3f 9a 37 97 b2 eb 40 af 3f
       9.524649623981263e-05 0.06104218058645401
