JupyterLab/best_model_M1_103.pt (torch, 126413 bytes, 12 tensors)

block.0.weight f8 [60, 9]
00000000: 4824 6528 e560 d6bf 4ff8 f30a 1dde d7bf
00000010: c00b 33a3 383a cabf 49bf 19b9 52f9 dbbf
00000020: d83c 21ca 7f20 e63f e6ed 4d4f 3e85 d93f
00000030: 3cf6 e229 4db6 ce3f 4fdb 3ce0 4479 d0bf
00000040: a45e 45c8 bfd7 cdbf aad1 7100 e486 cbbf
00000050: 84ca 310a fbde c83f 14d8 1b15 c333 df3f
00000060: e054 b722 0dde c1bf da6b 460e a1ae c63f
00000070: ec37 60c0 2479 e13f bb4f 856f df3d c93f
00000080: 9aa5 4baf 3073 c4bf c673 ec18 fc31 c13f
00000090: 0a41 24ef 07f6 a4bf e552 658b 8ae6 853f
000000a0: f3af 494a 69da d1bf aa73 c5fb 368d 8dbf
000000b0: 8a71 e8ae 2e60 c13f 0918 28a7 03d8 afbf
000000c0: a431 1ebe f00a d23f c03b 93dd e578 c6bf
000000d0: 40bc f4ed bbc9 a03f 5f4d d18c d585 d13f
000000e0: e7d1 1942 6939 cb3f 2e25 227c a2f6 c9bf
000000f0: d9a1 965c 15b4 e33f 86f2 9c3d e305 cbbf
00000100: 3aae 841b c350 ea3f 846a 7d23 76e2 c93f
00000110: 28ac 9872 4aa8 d43f 0971 c667 9a69 d4bf
00000120: 3502 1cab 405d b33f 246f 2571 1e00 b23f
00000130: 54fa 1725 215b ac3f 058b 1712 2ce3 ebbf
00000140: 0349 b320 90ce 973f e274 d0ec 808d d23f
00000150: 5cb3 4f32 8557 eabf 9fdd eadc d7ce c03f
00000160: 0641 52e1 04ec e7bf 4215 8f80 7add dbbf
00000170: 5791 a568 eab0 b53f 0a2d 34c5 c301 bdbf
00000180: 6aba b5c2 9f9e ac3f dc45 dc5b 8929 e43f
00000190: 981f cdb8 04eb e43f f828 3a2a 658d d2bf
000001a0: 2b88 57ee f666 a93f be16 11c9 d4a5 d03f
000001b0: 14f4 25e3 6f02 d73f 5091 4f8b ec2e d63f
000001c0: 2f01 9ed6 a3b2 b9bf f157 2402 3bb3 bc3f
000001d0: 989b 3eb6 9535 b1bf 36b5 f2da 8cbf dc3f
000001e0: f3c6 1c26 b676 d03f e12b 3009 f09a a23f
000001f0: 7830 b713 925c babf 6418 626f e5bf ae3f
00000200: 34c8 1a4f 109a a13f 03ac 102e 43c6 743f
00000210: 05f7 befb ca6c d33f b9ee e556 a1c5 debf
00000220: 096b 5de1 a378 debf 98d0 861d db4c e2bf
00000230: 2eb8 7c51 d438 b73f eb8c 755c 0a8b e3bf
00000240: 35fb 457c 9c9f ba3f 12ee 3d29 0093 c83f
00000250: f73d 8307 4a42 e13f 35e4 ebde 9ad1 aa3f
00000260: 46ce bbf7 c265 bb3f cc2a b695 a604 dc3f
00000270: ef78 3456 8c27 dcbf f67f e5b1 6f2e dcbf
00000280: d5c5 1532 370c c0bf d6f2 5d58 6397 d3bf
00000290: c1f7 3dc7 1d57 e0bf 0c23 f881 7753 cfbf
000002a0: da2b d907 17e7 ca3f 852a 02e2 900d d93f
000002b0: a6f9 2c23 8896 bf3f 422e d24a 8325 d1bf
000002c0: ad4b 4785 0682 d3bf c4d4 47b5 10cd de3f
000002d0: ef57 d391 3ab1 da3f 6866 cb7f ba8f a13f
000002e0: 4def fa2a 41c3 c13f 58ce 1cd7 eacd cfbf
000002f0: dca8 499f 938c e53f f7e0 fbb9 06ce d6bf
00000300: c55c c7be ea01 e03f 3338 ee51 d4d0 d1bf
00000310: 2e3d 0214 fed2 af3f 4069 7cc5 e206 c93f
00000320: 2242 9b15 6825 d33f ee75 a74e a296 dcbf
00000330: ee24 4b81 6d7a bcbf 4273 e5ca 3f42 ae3f
00000340: 529f 33e4 02dd b4bf 4e33 962b 2868 8bbf
00000350: 2c79 4fa4 70e2 d4bf aac2 ec22 2f7f ce3f
00000360: 2d84 cc4a 8dc5 e7bf 54d4 9e01 362b 933f
00000370: da6f c66f 775d bdbf 38f3 4ad6 3140 adbf
00000380: d44b 8e98 5373 ae3f 09f2 6cb2 fc76 ccbf
00000390: cc33 0a78 015a d6bf c126 6e50 a967 c33f
000003a0: 1a95 e3fe b4e2 d53f a86c 2153 0f19 e03f
000003b0: 0835 6013 3d39 c13f 45d9 49fd b612 d03f
000003c0: 98f7 593f 756d c7bf a777 a8bf 09de e23f
000003d0: f965 5529 4bed c6bf 8c84 ace8 7445 853f
000003e0: a6f9 3482 b0e5 d43f 4cf5 5dfd 4add cd3f
000003f0: ce93 139c 9968 d93f 6e1a e49d 1448 ddbf
00000400: 268c 293e 63ae 993f 5c35 6449 53d8 b3bf
00000410: 3a34 9565 c176 d4bf fd90 a04e aae3 cd3f
00000420: d748 6895 fed2 c23f 7349 e24c f5cd e23f
00000430: 6e08 5f6c 27e0 b9bf 8420 997f aeb0 79bf
00000440: 179e dd10 b3eb d0bf 9835 e1ee f237 d23f
00000450: 8b1e a0f2 1f43 c63f fed4 17c3 5fbf c9bf
00000460: be80 02b0 b09d b5bf 650a 4941 39f3 d3bf
00000470: 3dfc 462b 2025 d4bf c720 a82f 7c12 d9bf
00000480: cd27 892f ce91 e03f f0cc cc7b a6b4 d43f
00000490: 8501 d3c8 f372 d73f 648a 18f7 8545 cf3f
000004a0: b32b 432f ec34 b43f 2245 834c 44ed d73f
000004b0: 788b 817c f85b a0bf 82cd b159 7993 bc3f
000004c0: c94d f779 a069 ba3f 6b67 520c 42e8 ce3f
000004d0: 23d2 cdce 3496 b7bf 981f 2fb9 6c1e ccbf
000004e0: 964a bd88 8a77 d7bf 42d4 b5a7 5c1d ce3f
000004f0: 1e50 23a0 7ab7 e83f e08e 7855 2c69 8cbf
00000500: 0aa3 195e 7611 e6bf b18f ad54 dae0 cbbf
00000510: 1037 ff47 315f e2bf c612 ff53 ab13 ca3f
00000520: 399a 8457 f4ab d33f 532f 867f c4dc d4bf
00000530: 018d bafe 6c3d d1bf eb65 1eee 0935 c03f
00000540: eafb 395d c568 dd3f 81d3 49bd 75d9 983f
00000550: c67c a722 8d0c b9bf bd71 fd61 94f3 c9bf
00000560: 024f af80 6f40 a0bf d9e8 daf2 8729 8e3f
00000570: 5ff8 6249 4749 c5bf 58b1 be89 ee9e e0bf
00000580: 08d3 58d1 1fba e83f 7690 52f4 fb41 d63f
00000590: 7a1a f6f0 f4d9 aabf c623 9aa4 fc3f d53f
000005a0: a568 d7d4 acab d2bf 5c58 21d9 f1dc b0bf
000005b0: 9678 d221 0dbe d4bf a461 f9e1 3a86 d13f
000005c0: ce80 a1ab 2b97 e83f a440 b90f ad65 e43f
000005d0: 8c4d 027f df5b b0bf ba3b 302b 2c64 c9bf
000005e0: f6a1 f10d a9ad b73f 2c3a e649 a9ba dd3f
000005f0: 9e0b d843 a4a8 c43f 651b 78fa aa93 51bf
00000600: 5e33 71b6 ce48 da3f 0da6 031a 2814 dd3f
00000610: e756 bf88 c7d2 e1bf cda4 3a7c 190f b6bf
00000620: efa4 ec8d 3081 d13f e71e f481 db9e cb3f
00000630: 358a df80 65db e63f c120 fbe7 e857 d83f
00000640: 531d 1cbe 19ba c83f f4db ab96 9960 bdbf
00000650: e289 c81a a011 e9bf 2f54 0615 9c7c dbbf
00000660: 4f65 b937 4364 b13f abad 54ab 0a2c c6bf
00000670: 5074 c2ca e6ed c43f d4c3 12bb e069 ea3f
00000680: a460 405d 70a8 d8bf 015a 62c7 e1dd d23f
00000690: 10bd 988a 7e54 e33f c549 9afe 91ca cd3f
000006a0: 2d3f b2fe d298 e5bf 214f e98e 9483 c3bf
000006b0: a493 e970 ed0c ccbf 70d7 9149 ec9b b2bf
000006c0: 74ea 4d3e fe46 d1bf 0fdb 608b bae9 cc3f
000006d0: 961b a14c d07f d3bf a6af fceb 0c91 e63f
000006e0: 7dda 9f10 2599 e2bf 7152 ff11 03d4 e13f
000006f0: 47f6 5ff2 9355 a1bf 5071 e472 f9c3 e1bf
00000700: 5cf8 74d6 43ca bb3f 6720 1bc8 1a45 d4bf
00000710: e153 bb11 6b68 b83f eeb4 1dcc 1098 bf3f
00000720: 0a06 067e dce7 c4bf 50c6 4cd3 d4cb e2bf
00000730: 017a 1879 f4bc e4bf 4efb f254 1d8e bbbf
00000740: b6d5 4164 93c2 a3bf 88b8 ad1c cbf1 ac3f
00000750: d740 5740 5206 de3f ff29 8437 43c4 b1bf
00000760: f8ad 2bdf 7ce1 b53f c738 d6fa a0e7 eb3f
00000770: a7f1 5e02 d38a e33f c9da c29d 03b9 e2bf
00000780: 4db2 f296 6556 b7bf 1a4c d041 4714 c43f
00000790: 91c6 2b1e 45b5 a8bf 42f0 1d57 17ac ec3f
000007a0: 8b4c fd70 d6e0 d4bf 24ef ac62 72a7 cfbf
000007b0: 850b 4434 a784 963f 2342 41aa f7a0 ba3f
000007c0: 7ef6 cdb6 bea5 c13f 6a16 7ad0 830a bbbf
000007d0: b53b e7f0 27fd ca3f 10b0 c0df 63e7 cd3f
000007e0: 5b0b edde 64af 733f 6c04 ecbb 459f b23f
000007f0: 5f5a f2ca 1423 953f 6985 979b 9c56 e73f
-0.3496640104754687 -0.3729317290270772 -0.20490177124710662 -0.4370924766180804 0.6914671848152478 0.3987575315911428 0.2399383978389994 -0.2574016752072809
-0.2331466415296194 -0.21505403539380313 0.19430482862260956 0.48753430425074495 -0.13958896823047606 0.1772042579367213 0.5460380322781453 0.19720070786808983
-0.1597653251585996 0.1343379136750668 -0.04093956751069257 0.010693628672620867 -0.278955767199249 -0.014429502066087913 0.1357477525751956 -0.0621949330853085
0.28191774908261835 -0.17556451148126762 0.032789109036791775 0.27379359008519616 0.21268954970913898 -0.20283919392776667 0.6157328422896696 -0.21111717709017713
0.8223586595026469 0.20222355587869256 0.3227716559510463 -0.31894550451558296 0.07564167191959188 0.07031431448325215 0.05538276269725331 -0.8714809754713718
0.02324891280734055 0.2898866951598632 -0.8231836302416968 0.13131235396370486 -0.747560920792268 -0.435392976327723 0.08473076872684736 -0.11330817760988424
0.055897705572409986 0.6300703806065786 0.6536887750053095 -0.28988007663487236 0.04961368236014637 0.26012153277802585 0.3595237463230785 0.3466140137154712
-0.1003820799796855 0.11210984041494478 -0.06722388934450263 0.4491912973561115 0.25724557611384496 0.03633833038482926 -0.10297501546227916 0.06005780205400482
0.03437853780396019 0.005071890279434224 0.3035151918846711 -0.48081239210271637 -0.47611329086582593 -0.5718818260852627 0.0907108973449062 -0.6107227140277279
0.10399797472016988 0.19198610318913772 0.5393419405681347 0.052380408966151405 0.10702150867637625 0.4377838575389148 -0.4399138299794591 -0.44033424732879156
-0.12537279077109412 -0.30611499433125056 -0.5106343165823476 -0.244734705411496 0.21017730601519596 0.3914529997934227 0.12339068278104168 -0.26791460329761574
-0.30481112494924895 0.4812661905592217 0.41706718674447435 0.034299686527174356 0.13877119635241755 -0.24847159865895452 0.6734102355087788 -0.35632484590998054
0.5002340055606501 -0.27837093354253567 0.06215661997077358 0.1955226387297646 0.29915811643607715 -0.4466939704996936 -0.11124309927540185 0.059099191205609816
-0.08149736472443905 -0.013382257299576896 -0.3263208012193839 0.23825635152163233 -0.7428652249255997 0.01871952423944763 -0.11470743636021954 -0.057130391510759215
0.05947362172368967 -0.22238119804559656 -0.3492435142769039 0.15160099437007626 0.3419620980406123 0.5030590652126152 0.13455928274235185 0.2511422608871679
-0.18302789300281286 0.5896042579004089 -0.17911662595979275 0.01038638434471497 0.3265191337158292 0.2333158242362664 0.3970092796501462 -0.457524446669061
0.025079298657498715 -0.07751961271079238 -0.31974825782964766 0.23351029242724755 0.14706404013902016 0.5876413823737451 -0.1010765685632877 -0.006272012361996929
-0.2643859543518103 0.2846648533639722 0.17392348620363793 -0.2011527731516835 -0.08443741128076263 -0.3117201936294463 -0.314765970480895 -0.39175324110011583
0.5177985123093493 0.32352602090686755 0.3663911305593717 0.2443091827891123 0.07893253473154864 0.37385661575270224 -0.03195168037270596 0.11162527503784328
0.10317423799215598 0.24146295167593776 -0.09213571595120888 -0.21967848818007663 -0.3666712127061741 0.23527105511644392 0.7723973396009602 -0.013872476919523036
-0.6896316373723448 -0.21779946455637636 -0.5741201788129917 0.20372525788675072 0.3073702673595196 -0.32597458318263256 -0.26937413097239477 0.1266186154069112
0.45951971153402715 0.02426704376053435 -0.09784776779223411 -0.20274596008938586 -0.03174160428866736 0.014727651690340004 -0.16629878123598282 -0.5194008531885101
0.7727202500160226 0.3477773557626799 -0.052444128431535966 0.33203044962334294 -0.2917282179383938 -0.06587134886771778 -0.32409981062836246 0.27381774966991146
0.7684534408727133 0.6374116236784357 -0.06390187121205865 -0.19836952313241146 0.09249359693934153 0.4645179006264779 0.16139653504077683 -0.0010728044234171394
0.4106938153898251 0.45435526409582466 -0.5569799109314005 -0.08616790087639288 0.27351011142543674 0.21578544469252067 0.7142817990355242 0.38036558775321444
0.19317933829027342 -0.11475524834155221 -0.7834015391456968 -0.4294805722541381 0.06793613539175179 -0.17321904531250473 0.1635101785695121 0.8254245427871134
-0.3852806959780628 0.29479259940254116 0.6040642458882832 0.23274445468685037 -0.6749052977120066 -0.1524530122575181 -0.2191445161180613 -0.0726916961301336
-0.26995807728204757 0.22588283353407987 -0.3046761272748254 0.705206356918542 -0.581194431752763 0.5571303702841545 -0.0338560326926936 -0.5551726573935785
0.10855506883396643 -0.31671781102750746 0.09534329588798542 0.12341408713628585 -0.16332584527485522 -0.5873817564917747 -0.6480657925747552 -0.10763724636033808
-0.03859387015192388 0.05653223729210405 0.4691358211830567 -0.06940097909333785 0.08547192047597452 0.8720250033527684 0.6106963201814793 -0.5850847321770171
-0.09116206107382503 0.1568688460689323 -0.04825798028276752 0.896007223272598 -0.32622300180555247 -0.24729757135525532 0.02199040657525188 0.10401866823782106
0.1378706352806382 -0.10562919463890244 0.21085070860723723 0.23362396645950456 0.004805940653400532 0.07274280393541382 0.02064163674057295 0.7293227232841392

block.0.bias f8 [60]
00000000: acfd 5467 edcb a5bf fc25 9b4f 7ed5 a7bf
00000010: 1e15 b678 2bfb cc3f 0a68 481f 8004 c2bf
00000020: d717 e9d6 f6f4 b0bf 8899 9855 14c7 c93f
00000030: eb8b 88d4 2a1b afbf 59cd 771c 1e46 c73f
00000040: 21c8 24fd 9270 bebf c38c e8a5 c53a c33f
00000050: 1791 88a3 e2e0 c3bf 9f69 fb39 5098 b9bf
00000060: 488b a1c2 9638 d93f 17fc f212 398c bcbf
00000070: 7a88 b799 8007 d3bf 6b93 7e91 4826 d33f
00000080: ab21 2ef0 b415 a4bf f847 7f86 d043 b3bf
00000090: 7e65 35b2 d995 ce3f 860a 6f86 9f92 b13f
000000a0: ce54 8523 ee69 c4bf 0192 a0ec 857c c4bf
000000b0: ee82 b44a fc6c c4bf 870c 50a2 41c7 c0bf
000000c0: 85f1 41c8 5e31 ce3f 6409 a7dc 2d87 a4bf
000000d0: 6913 50e6 4cf9 ce3f 4cab d4a9 03c7 733f
000000e0: 895e 6d9d 7a92 a63f da38 87de c67a 9bbf
000000f0: a147 a94e d931 d43f 03be 2d12 fb90 bf3f
00000100: df4f 4b5a ea7f cb3f 797b cd76 5b7c 95bf
00000110: dd80 b3dc 8f8d c5bf f887 3723 4505 ccbf
00000120: fa26 0244 e601 b93f 1042 e552 ecd8 cf3f
00000130: c91c d6b1 583c b03f bee5 39d0 1d7f c33f
00000140: 4054 206b a966 d5bf 57c8 fb94 3e44 d3bf
00000150: 577e 1cd3 61d0 d23f a7c4 77ab f203 c7bf
00000160: 6f33 3d4f f06f debf 39b7 1bc1 0513 7d3f
00000170: c3d7 f4a4 736c d03f f4c3 2469 82ba b83f
00000180: b5ef dac5 27fb 673f 1ea3 f129 e341 c23f
00000190: e2a2 b17c 2b2d bf3f 80ee 093e 0c06 c4bf
000001a0: ce93 369d 51b6 a0bf 5e4d 5bbf dbff c5bf
000001b0: 4154 5947 d5b3 c63f 641e 33bb e486 c63f
000001c0: d8c1 21be 9d30 b2bf 8f7f d486 bd88 75bf
000001d0: 4416 3c84 5941 cfbf 662d 7f96 4ed5 afbf
-0.04257146726967717 -0.04655070039514084 0.22641509431938628 -0.14076234366876889 -0.06623785731161945 0.20138792209145273 -0.060754145092026444 0.1818273200038714
-0.11890524559274286 0.15023108101840962 -0.1553004549506418 -0.09998036780908713 0.3940789128011386 -0.1115146323454471 -0.2973329068319185 0.2992116375774489
-0.03922810966384146 -0.07525351794836854 0.23894807054129424 0.06864354164194184 -0.1594827340547113 -0.16005014471114978 -0.15957597396575046 -0.1310808222334325
0.23588166025355065 -0.04009383505355649 0.241983044106884 0.004828466711198253 0.044086295811834715 -0.026835543949169295 0.3155425327469122 0.12330598062339253
0.21484116944213746 -0.020982197881831397 -0.1683826282160287 -0.2189108297307596 0.09768523369180207 0.24880746886857752 0.06342081395824829 0.15231678645413455
-0.33439097844649623 -0.301040311328625 0.2939686357148949 -0.17980798122838346 -0.4755821965998654 0.007098219373558306 0.2566193686392319 0.09659590785010136
0.002927377396956 0.14263572261850127 0.1217829875400969 -0.15643456486928997 -0.03264098209482534 -0.17187067836367026 0.17736307128748943 0.1759916223584127
-0.07105432407275403 -0.005257358873933428 -0.24418181378148252 -0.06217427813643432

block.2.weight f8 [60, 60]
00000000: b350 0d12 f532 a8bf 0c5c 1c01 c150 e3bf
00000010: f97c 5fdd 0bb6 c3bf f9e4 84e4 a2cf b2bf
00000020: b4e0 adef c78f d53f 046d 002b 52f3 cb3f
00000030: 53ee 572e b8a5 bf3f cfc0 14a0 08e1 c73f
00000040: 224d 29bf ed9c d7bf c0f9 6c02 7726 d43f
00000050: 449a f4bb 3dfe f1bf d2b1 cb90 3313 e1bf
00000060: e4af 412f 86d6 cb3f 56c8 4e27 0b80 e1bf
00000070: a99e 6d77 795f d9bf 1b04 5c81 fecd b23f
00000080: 5d67 f04a 73a4 a13f d12a f2d0 16a8 d03f
00000090: e390 424f 3ec7 b5bf 1095 837b 485e cb3f
000000a0: d924 fb72 705c bebf 309d f61a 4ff2 c5bf
000000b0: 0f61 60d9 8261 e0bf 6fab 047c 8f28 dbbf
000000c0: c7ca a6cc 89c5 cb3f f6d4 4c11 dcff b13f
000000d0: 7e37 b99f 96fe 38bf 1621 72aa 56e9 b63f
000000e0: 08c1 7408 0ac7 d4bf 1681 4676 8fcf d8bf
000000f0: 39c3 0e89 2a63 c53f 9aa4 2115 7c9b d83f
00000100: b1eb 6c78 7570 713f 3516 e641 1250 c8bf
00000110: 29c6 829c 82dd a7bf a541 6e97 19d4 c03f
00000120: 5d35 d7b5 319f a93f 5771 b957 decd c5bf
00000130: f81e 8d9d 742d b43f 1bd4 5765 d081 acbf
00000140: 6d2e 7acd b616 b8bf e9c9 a0cb 96d4 d3bf
00000150: 6257 c57f b494 953f c8d4 e5ae 291c c83f
00000160: 580d 81df 16c8 e2bf abb8 6ef8 96f0 a5bf
00000170: e459 65f5 a3d7 ca3f 3fee a0ff 78cf bfbf
00000180: 884b 11d0 794b d43f 4b27 d9dc 406b 703f
00000190: ffef 0c8d d4bc c5bf b07d a48e fefd b2bf
000001a0: 39ff 2561 2a4f bd3f fdb6 a73d 573d b4bf
000001b0: 1df5 b05b f4b9 cbbf 5e48 e21d a468 c2bf
000001c0: 0d21 f888 fe08 d93f e35c 9b1e 887e c03f
000001d0: 0499 ee7f 3efb dabf e237 f0e7 1ef7 cfbf
000001e0: ad6f f33f 473d e33f fe8e 4e62 cd88 d43f
000001f0: 67d5 2b00 9cf3 d23f 833d 2c3a bf6b ccbf
00000200: bf17 411c 0b3f e1bf 4a27 df4b 9e3e ddbf
00000210: 30fd 64f5 80d5 a9bf dc5c 6f33 7d5c bfbf
00000220: ef6b c4c4 0caf d7bf e887 4d42 5315 bebf
00000230: 96a5 53b5 e8cb c53f 4352 4efe 123c bfbf
00000240: 6b8b 6e39 94b2 c1bf c3bc 870a f6d9 ecbf
00000250: 0445 c9ba 2d9d d63f 158b b0ab 617c bd3f
00000260: da3d 867a ad43 833f 8de3 846b e3ed d1bf
00000270: 27b6 83ae 17e6 b9bf 31c3 1f0d 3493 b9bf
00000280: cdeb 37e9 ae6b 793f b630 a1ad a484 d23f
00000290: 8fa0 4cd1 656d 993f 015d 66ef 85bd ad3f
000002a0: 70d7 86be e6b6 b4bf 5f58 0c7c d53c debf
000002b0: 0303 1a2b 90e3 bfbf 02e1 0158 a94b d43f
000002c0: e335 9140 30a3 d5bf 142e 4bd0 1390 bfbf
000002d0: fbab 0e6f ca1f d53f d4fc 6ae0 3eb8 d6bf
000002e0: 156d 0489 1180 a1bf 651b cb5c 17f7 a0bf
000002f0: 2b6e 4b76 c049 c6bf 3457 5f35 8b86 b23f
00000300: 4307 aef3 a5fa b13f 4da5 443b 4ac0 d13f
00000310: 0fd8 7ed4 92d4 d5bf 5fc6 e6a1 cf8a ad3f
00000320: 2619 2298 3eea aabf 5438 32c8 2877 b9bf
00000330: 4a65 4c37 90d6 b1bf 2a13 3e47 5413 cc3f
00000340: c2fc ca83 56ea a5bf 930a b8f7 f116 c63f
00000350: c605 528d d3cb de3f 5d98 210f 2a8e c4bf
00000360: 698e b1b2 16e8 5b3f 2a52 f004 02cb d5bf
00000370: a1fd 2bed 8108 b2bf 6ad1 3a8d 1c1b d23f
00000380: af06 3a40 2f20 903f 845d 58ce 073d dd3f
00000390: 7baf a1a1 b075 a5bf 890b 1891 265c b03f
000003a0: 704d 1f13 26d3 d4bf 1a5d 6e04 fecb dbbf
000003b0: d257 52b0 77d5 c13f b06c 5ea2 1893 c7bf
000003c0: 437e 1306 84ec 693f d987 149a bb9c dabf
000003d0: 7244 9c95 8310 9ebf fde2 b231 d2b6 6d3f
000003e0: 3ee1 61a8 a83a c33f 5000 9147 06f5 cc3f
000003f0: 0a30 0e4d 02db c0bf 1386 1e2d ac1d c5bf
00000400: c27b 1a91 f9e0 c2bf 73f7 43a2 be6d abbf
00000410: cc05 dc8c 4023 bf3f 504d 482e d131 bd3f
00000420: 1f12 85c7 1cf4 c23f b299 9bbe 9828 a83f
00000430: 230d 38f3 877b cabf eaa5 ea14 1b5d cc3f
00000440: 81e8 7b8f a1b1 703f 54d5 1584 04c5 a73f
00000450: a7db 3836 f0f0 973f 6337 f85f ba2b cf3f
00000460: 73ca d32f be0b e0bf ba91 d7d3 5b82 e3bf
00000470: 21f0 d5a8 5630 c33f aa77 35ed 0b1a d0bf
00000480: 4f14 31ac 47e6 d63f aab9 dfaf cb7f c03f
00000490: 1912 5b48 0f75 c4bf 5a5e efbf c4d8 cdbf
000004a0: 3b7c f16a cc75 d1bf 9f1c de48 4590 dfbf
000004b0: da70 928d 45f8 d13f b65d a2cd e395 a83f
000004c0: a7b7 29ec d3a7 7b3f d99b 6f8c c3d0 de3f
000004d0: e705 85ab 1137 e7bf c47f 331b 22e6 a43f
000004e0: be45 78ec a7e3 debf f9f0 9d5a 99b7 bbbf
000004f0: 06d1 b1a0 dfae ac3f 3421 3926 db16 ce3f
00000500: ce6d 3a0b 4f93 e33f 6c7f e4c2 037c c2bf
00000510: 149b 7be4 d811 9c3f 640e e7e4 66dd c13f
00000520: b588 75f0 0781 9f3f b723 c989 8464 d6bf
00000530: 1430 870d c7bc c03f 0ab9 8726 ca3b aabf
00000540: c5e9 0ee0 7a34 b93f 74ff 93b7 6f1d c3bf
00000550: cb98 90cc c656 c8bf 4686 5532 cae8 d8bf
00000560: 27c9 c135 85fc b9bf 875f 9b9b a6cc c33f
00000570: f396 9deb db39 bfbf b0e0 e13e e7d4 a3bf
00000580: 7781 5252 8174 c4bf d5e2 d828 7b54 c9bf
00000590: 08bb f1dc c5de c1bf 853f 74d7 9ae3 c03f
000005a0: 9602 9ae8 763f d93f 2c29 1b7b 8698 cb3f
000005b0: 934b 76a3 b5c6 a13f 1a06 db82 dc80 bd3f
000005c0: 5ac1 1094 83bd d7bf c00d b40d bbd0 c3bf
000005d0: 6e47 dc79 db63 c3bf 8337 6590 50a3 89bf
000005e0: 4a6f d01e ea40 6e3f 64b9 d383 24ea c13f
000005f0: 24d1 3531 a6fe c23f b822 06de 2806 cbbf
00000600: 870b f762 05a8 bb3f ecfc 1ee7 a47e c6bf
00000610: 8c11 660d eb24 c8bf 2932 d694 c85f bd3f
00000620: 01e3 7457 4799 a1bf 16c6 edb8 b9b8 bc3f
00000630: 1933 e5fc bcf3 cfbf fb55 9dd7 2306 d0bf
00000640: 1a87 5312 71a1 cf3f 7d8e 7393 b7ba cfbf
00000650: d9a9 08e3 8376 e0bf ab9d 4904 d485 b0bf
00000660: 6d13 2e60 29f4 d3bf 4a96 7d3f c967 e63f
00000670: f3eb 1046 b479 d73f bb3f 35d6 0a5d c53f
00000680: 7cc8 801a 258f d53f c85a eddd 9ad7 d0bf
00000690: 0f8e 038f 5953 a13f f29d 3496 09eb c43f
000006a0: 10eb 54c5 d05b c2bf 8365 547f de03 d2bf
000006b0: 790e 1885 978c bd3f 2de7 834a 2ae4 c13f
000006c0: 69ba 08d6 c1a8 bebf a175 cbc0 0daf 6abf
000006d0: 98d5 ac20 f887 e6bf 7e72 9ea8 a700 ccbf
000006e0: a289 db65 08e4 9e3f 4a9a 298f 2663 be3f
000006f0: 8525 b80d d666 d23f da86 a0d4 0939 b0bf
00000700: 8d5f 1115 2300 afbf 6942 f6a6 ad54 b2bf
00000710: 38fc 9ab1 f5c8 ce3f d13d ef94 4fa7 d23f
00000720: 7e2d a222 c692 b9bf 906e 5103 3727 62bf
00000730: 20c8 1dda d53c bb3f 9dd0 41a7 481f c33f
00000740: b63c 5f6c e25d cfbf ef1a 80b6 6186 9ebf
00000750: e982 430e 4314 bd3f 3e41 15b9 2631 c4bf
00000760: 5f85 3e2f 4095 9bbf e46e 64b2 78e4 97bf
00000770: 2759 6c55 186e c93f 5e22 9812 91ac a23f
00000780: f7f3 6fc2 d417 c6bf dc60 e1de 26c2 b73f
00000790: bbad a702 fe15 debf ecac a2d5 4ff3 d6bf
000007a0: b35d 414b b72d ab3f 4930 0850 827f 99bf
000007b0: e61f f70b 1657 d13f 55e3 d058 f4b0 cc3f
000007c0: dfb9 4978 38bf b7bf 4c59 6a0b 2e5d c83f
000007d0: 4f5f 0a6b 3ae5 ca3f 7c90 6570 24f1 d1bf
000007e0: 3bc3 baff fd2b d0bf 2c9d 0a77 d661 963f
000007f0: ab6d b8ec 10d3 d53f b6da 87ce f74c c43f
-0.047263773397078344 -0.6036076566405213 -0.15399311360577153 -0.07348077849464464 0.3369006958596501 0.21836306667032812 0.12362242824013352 0.18655498329599715
-0.3689531676111121 0.3148477100075091 -1.124570593072023 -0.5335939243355432 0.2174842577691144 -0.5468803184251196 -0.39645229971800205 0.07345572145642658
0.034457781694256374 0.2602593460548351 -0.08507146296557581 0.21381479292828276 -0.1185980110850723 -0.17145718399590626 -0.5119032140383143 -0.4243506156077989
0.21696588986158913 0.07031035826078721 -0.000381385587137177 0.08949796353602255 -0.3246483881548703 -0.38766848135311827 0.16708881084698549 0.3844900328027251
0.004257639759823671 -0.18994358270372094 -0.046611863713576014 0.13147277731014842 0.05004268021330447 -0.17034510882775564 0.07881859632936628 -0.05567790257547519
-0.09409658924612936 -0.3098504055552938 0.021075077341570554 0.18835946121149605 -0.5869249692263265 -0.04285117895720821 0.2097058246824438 -0.12425953141149025
0.3171066791448358 0.004008534784199667 -0.16982514273865942 -0.07418814642414051 0.11448922035014854 -0.07906098609211294 -0.2166123817168363 -0.14381839236426947
0.39117396713165037 0.12886144155957088 -0.4215847253166347 -0.24972902608027342 0.6012302636186085 0.3208497486141225 0.29611873642655556 -0.22203817692250646
-0.5389457275239166 -0.45694692048401875 -0.05045702930010021 -0.12250502114999356 -0.3700591966205015 -0.11751289719316527 0.17028530935139646 -0.12201040943757228
-0.13826229862487635 -0.9016065793674887 0.35334342232552296 0.11517916146889846 0.009406428624770525 -0.28014455318366843 -0.10116718302352777 -0.09990239448940198
0.006206210371142396 0.2893459029771849 0.02483138170205784 0.05808657214509517 -0.08091585303813331 -0.47246300806125946 -0.1245660882214104 0.31711801142184026
-0.33808523469346435 -0.12329219661040042 0.33006535382691 -0.35499545970737967 -0.03418021009039244 -0.03313515670520565 -0.17412572647195765 0.0723654752067347
0.07023083876813722 0.27736144817261704 -0.34109946013939035 0.057699669373857836 -0.05256839377493554 -0.0994744766960321 -0.0696802268033895 0.21933988073956218
-0.042803481662752954 0.1725752315106389 0.48119057465381976 -0.1605885099299397 0.0017032834682816583 -0.34051561815548104 -0.07044231453254791 0.2829047564694266
0.01574777440556002 0.45685000563522515 -0.04191352818528934 0.06390610735256365 -0.3253874956837626 -0.4343256991646328 0.13932701215224924 -0.18417652061621004
0.003164537295205412 -0.41581621214765857 -0.029359870916838955 0.0036272149423804954 0.1502276251010332 0.2262275552220694 -0.13168362390968041 -0.164968034773708
-0.14749068818215788 -0.05357166033534968 0.12163165511085267 0.11404139881078845 0.14807471983125794 0.047184727923922934 -0.20689486862111392 0.22159136315649103
0.004075652213709203 0.04642500030869692 0.02338004427857823 0.24352197347655666 -0.5014334615828616 -0.6096629273929957 0.1499126743691486 -0.2515897575848337
0.3578051740226486 0.12890001380533295 -0.15982237847323758 -0.2331777512724667 -0.27281485027009794 -0.4931805812452214 0.28077830148118965 0.048018568851314766
0.006751849958716172 0.4814919349141156 -0.7254722928993801 0.04081827718778144 -0.4826450166011361 -0.10827024900749284 0.05602167927364303 0.23507251135220886
0.6117320269872211 -0.14440962806929336 0.027411831803784883 0.1395691507042215 0.03076565175195674 -0.3498851152003754 0.13076103363562253 -0.05123740883196788
0.09845703096554022 -0.14933582748198726 -0.1901482104160038 -0.3892083636802436 -0.10150940477777635 0.15468294713968708 -0.12197660925229652 -0.03873369829756379
-0.15980545539515464 -0.1978906583260797 -0.1396109894589801 0.1319459487935967 0.3944985648632068 0.2155922032455434 0.034719158367031565 0.11524751848903528
-0.3709420152618087 -0.15480745476825852 -0.1514849038144876 -0.0125185293260548 0.0036930630362927196 0.1399579662024265 0.14839627650111098 -0.21112547722829844
0.1080325476278131 -0.1757398727913605 -0.18862665323480277 0.11474279054363791 -0.03437254850945771 0.11219368710387587 -0.2496258005943666 -0.2503747563945066
0.24711430926168348 -0.24788565349364325 -0.5144671854262085 -0.06454205612828072 -0.3117774428613334 0.7001692047167094 0.3668032345046292 0.16690192660689526
0.33686187351407404 -0.2631594817407117 0.033839033801793865 0.16342277368788377 -0.1434269870313405 -0.2814861529783103 0.11542651175846598 0.1397755493015266
-0.11976253009263761 -0.0032573002448390152 -0.7040978086649146 -0.2187699864706651 0.03016675111474288 0.11870041842630843 0.2875266202905425 -0.06337033692446017
-0.060547920533905765 -0.07160458875865462 0.24050780460490429 0.29146184486759547 -0.09989584298653217 -0.002215964743795436 0.10639702391725381 0.14939220587587423
-0.24505262652971788 -0.029809500469151592 0.1135904226134802 -0.15774997746712843 -0.02693653381687022 -0.023332486999705263 0.19867233439499296 0.036472829360779654
-0.1726022672081908 0.09280627194800978 -0.47009229907299827 -0.35860057700001735 0.053083160339777356 -0.024900470862164324 0.2709403149460726 0.22415022217480876
-0.09276154457777562 0.19034362370866587 0.2101204893740438 -0.2803431604027151 -0.25268506978595767 0.02185759641238609 0.3410074531290898 0.15859887680536183

block.2.bias f8 [60]
00000000: 4003 a325 4ebb d23f 0d2f 2e94 402e a4bf
00000010: f724 880d 3ea1 c83f 07f1 af0a 4977 c23f
00000020: b6eb a1fd e456 c0bf 94dc cb91 3b32 c5bf
00000030: 2675 6d7e 3430 c4bf 411f e15e 60b5 b93f
00000040: 13c1 5300 12c6 9cbf 3b5a bc1b 259d 913f
00000050: 080f 13c3 59ba b63f feaf 3033 279b d0bf
00000060: 1696 0907 4445 a0bf 40da e083 7a5c d03f
00000070: 9740 43cb 9716 c0bf 02db d0e6 1bb2 a8bf
00000080: 4124 b945 3bd2 c13f 9c36 f6a3 a7fb d1bf
00000090: e0f9 a205 c5aa bbbf 418c a389 1647 cebf
000000a0: 731c e42b 9025 9ebf 488b 91c0 4f40 c3bf
000000b0: 6eba f890 67b9 a5bf ed12 1aa3 2c83 a7bf
000000c0: 2e5e 666a e4c0 c53f b6cb c6d7 9832 c33f
000000d0: 7431 cc25 7435 b2bf cc7f 0a30 2ae5 9fbf
000000e0: 10ea 5603 97bc b43f aeb8 87ee aff2 b53f
000000f0: e358 b715 ba73 aa3f 9fd3 8e75 9b02 d2bf
00000100: 0683 3584 7e24 59bf bd06 0c12 67dc d03f
00000110: 3f17 eed3 4246 b53f 1c51 1722 8a45 cdbf
00000120: bdb2 4894 9458 d23f 7322 00ac d47e 983f
00000130: 47ae 136b 65c9 ba3f 5a11 0705 99b8 c8bf
00000140: dccc 591c fcc6 b53f b77f 2899 4836 ad3f
00000150: 8ed9 7c64 be7f c03f d809 b621 14c6 8dbf
00000160: 0d8e 68da d42a 723f aa64 bbee a37b 793f
00000170: 1443 39e1 1b6a c0bf 978d aa63 d912 b63f
00000180: 40d1 e404 0554 a5bf 4427 c431 cabd 9fbf
00000190: 01e5 41bc 7bc5 c53f 7d82 eb2d eef0 cd3f
000001a0: b650 9872 7ff1 bf3f 8a70 541e 9f0d be3f
000001b0: 6530 cf37 dd84 c63f 3250 da5f 1fac a43f
000001c0: 9765 e59b 7d8c c03f 0644 ecec e03b 823f
000001d0: b1a1 f648 4720 afbf d257 7e0c 5289 b83f
0.2926822059198919 -0.0394153767475399 0.1924207273553191 0.14426529905166083 -0.1276518095436054 -0.1655954801460423 -0.15772110150548108 0.10042383495703879
-0.02809932829853874 0.017201022928100534 0.08878098499831932 -0.25946979521791025 -0.0317784555998452 0.25564444426291644 -0.12568948197304472 -0.04823386375976747
0.13922825722173296 -0.28098479282275846 -0.10807448756802485 -0.23654443474433332 -0.029440167120835924 -0.1504001322055848 -0.042430149504402034 -0.045922655973333316
0.16994910426432014 0.14998159919704585 -0.07112813875955287 -0.031147631818953234 0.08100265342265112 0.08573436330309178 0.05166417613115628 -0.2814091346766023
-0.001534579802715709 0.2634523082962053 0.08310334848473831 -0.22868467964747985 0.28665651779992257 0.02392132091339012 0.10463556160146324 -0.19313347573746392
0.08506751720578926 0.057054775901860415 0.12889842898011888 -0.014537961272030595 0.004435378511093113 0.006221428262244514 -0.12823818681001653 0.08622511561639211
-0.041656643721952324 -0.030997428214539782 0.17008921329742324 0.2339151119440607 0.12477871463517229 0.11739534845804847 0.1759296915537362 0.04037569089010197
0.1292874346934638 0.008903271894753938 -0.06079314008394777 0.09584534459131014

block.4.weight f8 [60, 60]
00000000: 9bd3 e124 c98c ac3f cba6 71c7 e184 d53f
00000010: 39e9 c776 dcfa bd3f 21df f311 dfe4 bd3f
00000020: 12e1 7858 d4a9 c73f 1046 ce4c 8ad3 a33f
00000030: 7a9f 663b 23c5 bf3f 0d0c c845 c2b1 c33f
00000040: 326a a8e3 b841 d83f bc4a 4a5b 7b31 bc3f
00000050: a7bf 7778 9520 e0bf 1970 0ad7 103d d2bf
00000060: 6d48 d668 586b ce3f a8cf cf48 edaa cf3f
00000070: 1dd2 e942 f40f c7bf 9497 ff82 20bd c03f
00000080: 329f c484 e9d7 b4bf dd76 8290 4e73 d6bf
00000090: 7fcd d30e 7f23 d0bf 5cbe 90b1 d127 ce3f
000000a0: fc3d c4f2 a8cd b13f 3ad5 195d 61df bb3f
000000b0: 1c49 a973 b0fb bf3f 5860 5324 8c38 c1bf
000000c0: f1ae 6551 6b0e 94bf 9360 6fb7 1192 bd3f
000000d0: 01c9 0311 dab8 bb3f e7e7 17cd e724 b9bf
000000e0: e60e 2c81 558a 813f 5d08 1edb cf0b d13f
000000f0: 1cdd 2fcb fcf9 babf 917e dac1 f94f b9bf
00000100: 457b 169b 5b89 d0bf 71bf f9db 475b dabf
00000110: 402a c26f 64bf 973f 9ec2 e6fe 748c 98bf
00000120: 7378 3d1f 822d d1bf 1903 7d9f fbc6 ac3f
00000130: a868 c18a bad8 ccbf 69f4 dde3 1fb2 d2bf
00000140: d8ca 43e0 7a1d ae3f eba4 76c6 83cd bbbf
00000150: 9996 b9c2 9df4 cabf d207 f65b 0fdf cdbf
00000160: 8249 7c6d a751 bf3f 92f5 8927 84c9 b1bf
00000170: 09cb 8202 8ec2 93bf 31e4 af29 8f70 babf
00000180: ff94 2d4a 25e9 c63f 9e29 90b1 179e bf3f
00000190: 9b31 7ee1 e078 92bf 52a8 9c16 b8f8 d7bf
000001a0: c0ec 9dc6 0643 b73f 5604 1f96 23c4 80bf
000001b0: cda3 e878 86cf d43f d373 e427 a5fc c9bf
000001c0: 2762 d8cb 7bc2 dd3f 153c 7aea 5bc5 b93f
000001d0: dc1b 3b7e dbb3 cbbf 17b7 0afa ec96 b93f
000001e0: a41b 95d1 7b28 b73f 826e 5b70 21b1 b2bf
000001f0: 166a 7b7c 2844 d4bf ccef 8151 b8a1 c63f
00000200: 2edc eae3 54fc b6bf 68b7 c99b 988c cd3f
00000210: 513d 3354 7623 d13f 2868 4233 f96f d7bf
00000220: 4c17 6fc4 04df a2bf cba9 90e6 baff c2bf
00000230: b8f0 fa4c e139 c93f 5887 f8a4 91b9 acbf
00000240: c0a7 06a1 8952 d13f 5e58 ab44 0c76 c73f
00000250: 345a ac0f 535c c63f 0ee5 8283 1741 c1bf
00000260: 021e 5b42 a59b d9bf 333f 4fc1 ed39 c83f
00000270: 1747 85b2 f88f a3bf eb3d e600 6e81 ca3f
00000280: eaff 9f2c 6e49 993f e11e f10c 60f6 bc3f
00000290: 15aa 80f9 d57f d43f 57cb c2c8 354b c63f
000002a0: 76e0 4d0e 8806 c2bf 6715 1779 78e8 c53f
000002b0: 0d9b f858 9a32 c13f eb1d 487d 42ef b8bf
000002c0: d9e4 5852 333a b4bf b56e 0e8e 8a2a d7bf
000002d0: 0b03 044b 36b7 aabf 1c06 0635 24a1 b53f
000002e0: bce2 8214 28d9 bbbf 5bf8 7acc cca8 d7bf
000002f0: 2974 04fb a0b2 dc3f 464f 5f04 69af b1bf
00000300: 88e3 f2b9 19ca c23f 0c69 9cc2 1bd0 c5bf
00000310: c674 905b 7dcc c8bf c366 758b b586 b63f
00000320: 9239 337c f813 c73f 6a59 4acd a643 b63f
00000330: 257b 733b 5413 c13f de58 af11 02d6 9a3f
00000340: 09c1 e7a5 43fe e1bf 46d5 ba85 29ce ad3f
00000350: 8bb9 5dc8 3cdd be3f d534 fa9d a5c4 cabf
00000360: 9550 ff30 5b58 c93f 18e6 3d44 dadb be3f
00000370: 5f47 9b68 d338 b23f 77b0 1a28 3498 98bf
00000380: 463c 3b3a 878b 86bf 9e65 58b9 61da c1bf
00000390: 037c d282 2f32 a2bf e075 f3b5 c43e b4bf
000003a0: f387 806e 51d2 ae3f 8dc0 95fe 1e8a 8b3f
000003b0: ba76 153b 8253 d23f b63b 8517 c97e af3f
000003c0: 9c36 2907 75af babf 64ee 5b52 0bbb ccbf
000003d0: 7aed 61fd 8131 cc3f 3091 ce20 7e25 9d3f
000003e0: 7c4e 375e 8ec5 a3bf bd57 f55a 0d27 c63f
000003f0: 35a1 48f4 4c80 cb3f 03de 3528 0d38 a83f
00000400: 252e 2f92 f5b9 d2bf f1c1 7ce5 2236 b33f
00000410: a907 bb15 381d d43f 74ce 6572 2a5e 91bf
00000420: f676 edfa 210f aabf bd8e e772 722e b8bf
00000430: e62e fe52 1833 d43f 3953 6b25 0528 bbbf
00000440: 1c18 ff59 3d32 ca3f 8911 7dfd 1b9f bbbf
00000450: e6ff 97c1 e125 d63f 94dd e181 6365 bdbf
00000460: 94b7 6538 6bf9 cfbf a3ba 622e 3352 d73f
00000470: 7896 2837 e390 99bf 5b6f f978 c38c a73f
00000480: d087 f16f c35c c7bf 24b3 cccd 8027 c13f
00000490: bb37 f7b9 cccf ccbf e56f 226b 409f b33f
000004a0: 3b40 0cfb 5df3 bc3f 2369 890a b8f9 a73f
000004b0: 6853 3ca7 bf4e cf3f 8b60 63c3 59ef ba3f
000004c0: 418e 7186 ca0b c6bf da12 ebd4 29a2 d6bf
000004d0: eebf 3338 c178 b53f 275c a5fe 23a7 aa3f
000004e0: 776c e426 b726 d3bf 875c 98d7 dcb2 cf3f
000004f0: a94a 18dc 3dd0 bbbf 7487 3f32 b5c2 a2bf
00000500: 7217 0d1a 6e53 a33f 333a e961 5030 c13f
00000510: 9360 7d85 b4b9 c83f d2fc 3d4e 7b13 d33f
00000520: f6ac b85d bd4a a13f 4911 a682 9a4f 61bf
00000530: 4173 f277 ff19 d1bf ecbd 7598 839b b2bf
00000540: 5c77 4e49 84dd dc3f 05ad c6af ca30 7e3f
00000550: 8161 c8fa c3de c5bf 3c56 eb43 b0d8 c93f
00000560: 2d8f a955 04cb d3bf fa98 105b 2e30 cc3f
00000570: 9756 92ce 1c3f d33f 040d 0dcc 05cc bcbf
00000580: 4359 dfe2 539b d0bf cb2e fd6d c50d b6bf
00000590: d52b b0d0 ac95 d93f 4187 fb34 4c92 db3f
000005a0: 8686 f4e2 1a3b 94bf d48d 4463 3bd4 d33f
000005b0: b934 1dbb 9c29 b23f c8aa 342c 4faf e0bf
000005c0: 40ae ad44 c8e0 e8bf 0926 2287 7423 d1bf
000005d0: 7c6d b3a4 7ee1 babf 38bf 43c6 fd09 b2bf
000005e0: 41d1 2210 b061 c63f c2f4 5efb 2029 6abf
000005f0: 7a23 3b56 0f69 d23f 23ed 25a8 bcd6 efbf
00000600: 42c1 db53 0158 a5bf fbea ef37 eb58 c13f
00000610: 8585 2c08 4788 b3bf 5fca e946 794b edbf
00000620: ddc9 3a49 55f3 e8bf c154 c9d3 fa37 eabf
00000630: 8ecb 788d 9752 c33f 67a8 307f 15b2 dabf
00000640: 9d62 b9dd ad89 a63f 64ff 8b59 eb32 bd3f
00000650: 12ad fb2b 7d11 c6bf d090 f128 3d36 b93f
00000660: 3123 c3c3 3cda cc3f e0dd 1290 d73f a13f
00000670: fd1b f64e aebe e3bf 7f57 73eb f61d a53f
00000680: 1527 8f24 c3e3 d8bf 20c7 bfb1 6598 c6bf
00000690: 6993 93d3 9070 ab3f 633d e615 68fb ddbf
000006a0: 71c3 b2f2 b7c8 e4bf 0f93 2ba9 d0c1 9f3f
000006b0: c71d c9fb 5a08 b83f 4329 f726 febe eabf
000006c0: eb47 9423 2112 dd3f 26ee 7ff5 82bc d53f
000006d0: 7e1e 4fdf 1ad9 b9bf 167b 7dda 24ec e0bf
000006e0: e00e 5557 25f2 7c3f a608 8de4 1c78 e23f
000006f0: 0323 f6a6 a24c ddbf fca7 33ab 1bec c2bf
00000700: c193 93d5 cbb8 d93f 2e0a 226e 9a8e c3bf
00000710: 313f 7ac8 d16f cdbf 334e 7211 8f61 d0bf
00000720: 3622 1f28 8a34 e13f 6d01 852c 7bdd d43f
00000730: 5234 77bd 3261 d5bf a20e 3480 7817 c33f
00000740: b8bf f75c 19b1 d53f 40d6 d54a 85b1 e43f
00000750: 31db 44b8 a5c4 d9bf 0634 d25d edd4 d23f
00000760: 0911 fc1b 7b72 a5bf be38 d649 bb5c e5bf
00000770: 5462 da0b dc12 b2bf ab01 57d7 1dab bcbf
00000780: 4bdf c93e 2927 c33f d5be ec34 d8e5 b3bf
00000790: b4d0 2753 add8 e23f a62b efc9 e741 c53f
000007a0: be33 ce29 2cd8 c6bf 3979 80d2 aec9 cdbf
000007b0: 6078 a272 b4de c3bf d15c 1093 4392 b93f
000007c0: c507 0777 28bc d7bf de2f 0e95 69d4 b23f
000007d0: 24b2 39d0 ad4d cc3f b37b 3506 3e88 dfbf
000007e0: c876 1e4c a8a2 c83f d31e e5f0 4012 a53f
000007f0: 5b40 5edc 8d1a d2bf 9835 0e8c 1855 d43f
0.05576160979482055 0.3362354705519521 0.11710908794330956 0.11677354992195578 0.184870284270581 0.03872329890795012 0.12410183143822265 0.15386227042481018
0.3790113661977187 0.11013003329052656 -0.5039775231252762 -0.28497715950084196 0.2376509200954077 0.24740377478849251 -0.18017438189748783 0.1307716979637773
-0.08141955844314167 -0.35078777420299706 -0.25216652343734575 0.23559018297372603 0.0695443718616317 0.10887726328822547 0.12493422340165633 -0.13453819059100414
-0.019586254923907146 0.11551008919139098 0.10828936496162457 -0.09821938283121733 0.00856463242008183 0.2663459434335261 -0.10537700615519835 -0.0988765810275203
-0.2583836569337346 -0.4118213318060873 0.02319104129905214 -0.02397330098910066 -0.2684026055411614 0.0562056190669919 -0.22536403441592268 -0.2921218610061432
0.05881866443259803 -0.1086046561746518 -0.2105900955968323 -0.23336975088392237 0.12233969138131864 -0.06948114362054117 -0.019296854880575007 -0.10328001754523154
0.17899004098868684 0.12350605092084385 -0.01803923965739927 -0.374555608827568 0.09086649273915537 -0.008186605471452928 0.3251663380383974 -0.20302261779661865
0.4649953356434104 0.10066771006152948 -0.21642631209962715 0.09995919327294832 0.0904614817310248 -0.0730152987775288 -0.3166600433011423 0.1768103025423201
-0.08978777470007124 0.2308531532939313 0.26778944227858853 -0.36620931630898435 -0.03685774705767972 -0.14842926271496845 0.19707885988998952 -0.05610327853015801
0.27066269612498317 0.18329003670686722 0.17469251885695913 -0.13479894563150946 -0.4001248500830742 0.1892678445715262 -0.03820779017645586 0.2070748810187831
0.02469417712563874 0.11313438716853909 0.320302480368498 0.1741702299383074 -0.140824324593044 0.1711569396267507 0.13435677856724518 -0.09740081366191304
-0.07901306877546989 -0.36197151062672656 -0.05217904725760122 0.0844900731517772 -0.10878229618800622 -0.3696777340773047 0.44840263856332513 -0.06908279759164512
0.14679261760263906 -0.17041346552361636 -0.1937405297366352 0.08799299864531478 0.18029695572336074 0.08696978103612243 0.133402375248772 0.026207001046565696
-0.5622881164872818 0.058213517736855055 0.12056331531286994 -0.20912618840922073 0.19800891773650578 0.12054218450602894 0.07117959312315979 -0.024018111179131964
-0.011008316483097979 -0.13947698164046768 -0.03553913566542379 -0.07908276979602347 0.06019834970381046 0.013447038788143817 0.28634696741014987 0.061514171715877294
-0.10423976349667402 -0.22445813676300752 0.22026085731691208 0.02846333575475163 -0.038616608620626075 0.17306677762343084 0.21485292365947264 0.047302638205049895
-0.29260005260286653 0.07504480459898112 0.31428339120986465 -0.016960776550560344 -0.05089670360642444 -0.09445872597967316 0.31561859230781264 -0.10607940829806929
0.20465819258078077 -0.10789656580624842 0.3460621252597761 -0.1148283187957218 -0.24979915860916135 0.3643920853600468 -0.024966764680490944 0.04599581577050912
-0.18251841512670675 0.1340180401688481 -0.22509154396396788 0.07664873710240235 0.1130884874257853 0.04682707909224095 0.24459071794322118 0.10521470089168099
-0.17223483624103333 -0.3536476687698219 0.0838738214695238 0.05205643161269107 -0.29923800275873397 0.24764595534427178 -0.10864626525316602 -0.03664175260907046
0.03774589603430813 0.134286926086547 0.19316727178625523 0.2980640663226498 0.03377334374484946 -0.002113153245945441 -0.267211787353336 -0.07268545601049653
0.4510203090556979 0.007370750183706369 -0.17086076493502492 0.20192530933734243 -0.3092661701723383 0.22022036978268728 0.30072708294879064 -0.11248813850129485
-0.25948044925225505 -0.08614763198164181 0.39976044063285815 0.43080430196834035 -0.01975671777939294 0.30982861227149994 0.07094745224204048 -0.5214000571625883
-0.7774392453552039 -0.26778901287670515 -0.10500327607171828 -0.07046495523877361 0.174856193426999 -0.003193439882095279 0.28766234799382284 -0.9949630054610775
-0.041687051283477064 0.13552608710582334 -0.07629817914541633 -0.9154631028198529 -0.779703753496786 -0.8193334709600536 0.15095800788693875 -0.41711938305764423
0.04401915866464388 0.1140582173939016 -0.17240872047055028 0.09848387002563475 0.22541007574752706 0.03369020112716803 -0.61702647611753 0.04124423622276562
-0.38890150614007385 -0.17652579478413433 0.05359318335266645 -0.4684696401463581 -0.6495017757607525 0.031012783360796322 0.09387749335393557 -0.8358145485920335
0.45423153376134334 0.3396308324297216 -0.1009690089405186 -0.5288261668573309 0.007066865791162974 0.5771622146496795 -0.4578024511798022 -0.14783044681036006
0.4019040666301486 -0.1527894056090004 -0.22997495926801428 -0.25595452026138615 0.537663534510165 0.3260181364785442 -0.3340575075388347 0.1491537691109573
0.33893426970370966 0.6466700040461504 -0.40262740130440294 0.29424604570596136 -0.04188904492005647 -0.6675697748303475 -0.07060027398473184 -0.11198603160210634
0.14963260236594986 -0.07772589962109618 0.5889498352176106 0.1660737739569786 -0.17847206155093248 -0.23271737364206915 -0.1552339133967875 0.09988806095531123
-0.3708592569711267 0.0735536564736203 0.2211205736852132 -0.4926905689844105 0.19246391026256604 0.04115488949406445 -0.2828707363160043 0.3176938407640022

block.4.bias f8 [60]
00000000: 0a7d 6643 dd7c d13f 3fb0 40cf bc84 d6bf
00000010: 469c bf07 0abd c4bf 62fe 6f22 1182 bf3f
00000020: 1d13 00c6 38b7 9f3f 44a4 89da b063 d6bf
00000030: 7fea 8791 c5fc d3bf 2485 1208 3a47 c33f
00000040: 1204 adb8 8692 86bf 18cd 871c 5516 c13f
00000050: 0de7 262f a855 c13f 178e 943a fa70 913f
00000060: 8120 bc0a 5aff cd3f b6a2 e337 8681 b5bf
00000070: 2ad2 c2bf 96e5 cfbf 54a0 2c09 9fcb a6bf
00000080: d66f cc7e 21cb d03f 2c88 71cc 97cb d43f
00000090: c869 4e24 d326 c73f 371d 56dd 86f1 d13f
000000a0: 5012 8d3d 9979 a23f 8ae9 9799 b0fd c13f
000000b0: b486 4a05 7e8c a73f 7927 ef60 259c ab3f
000000c0: 11a6 0bbb 17cb b9bf 77f8 65fd 9ff1 ccbf
000000d0: 857c ae9f 3082 d13f 87b1 f9d9 d2b9 d43f
000000e0: ab98 10f4 4f40 d43f 64b0 046a f81c a73f
000000f0: 4df7 2469 21a5 d83f a3a1 988f c3d4 82bf
00000100: e813 d07c dc5d c73f 924c b1b4 0365 c43f
00000110: a351 705f 820f c3bf 07e4 c6d3 041d 9ebf
00000120: bb94 d7e9 0073 c03f 85d3 d2f4 6f8f c0bf
00000130: 514f b9f3 3d06 ae3f 024c bd11 52e8 cc3f
00000140: 3a7e 2795 87db c23f e760 2f6d 90fb b6bf
00000150: 36e5 bd12 705e c73f 869c 3aed 830d 9abf
00000160: ef7f a761 1824 ccbf f08e c5ea cf8d cb3f
00000170: daf5 4706 9da6 bfbf 8866 22be b69f c7bf
00000180: d5c1 4e8d adc4 953f eca7 045a ef64 a0bf
00000190: 6c64 19ad 4335 bebf dd73 ee39 fe0c e1bf
000001a0: cc34 d89c 5043 abbf ad96 cd86 0696 b4bf
000001b0: ec46 d6d7 8ed3 cdbf bbcf 2ffd 255f babf
000001c0: f1fd c4e9 dc6f d13f 9917 a701 0ac8 2e3f
000001d0: 3af5 7e98 20f5 c63f 79af ef1d 43b7 c8bf
0.2732461126524447 -0.3518516563369793 -0.16201901796668688 0.12307841387518573 0.030972373089770067 -0.3498346456677306 -0.31230296337131586 0.15061116594464707
-0.011021664152965047 0.1334940327938987 0.13542654325811335 0.0170325372938703 0.2343552162567484 -0.08400763382418117 -0.24919399607974074 -0.04452225672713497
0.2623981226222417 0.3249263283270263 0.18087233803528435 0.28036662688141994 0.036083973659093105 0.1405544996230897 0.045993745942963044 0.053925674517428974
-0.10075519863644213 -0.22612380860295264 0.2735711631193641 0.32384177481323956 0.31642531237083443 0.045142901364983584 0.3850787665177123 -0.009194877452572586
0.18255191892981704 0.15933271716003056 -0.14891080532164577 -0.02940757315238687 0.12850963037559446 -0.12937735990785995 0.05864137268204551 0.2258398615473141
0.14732451231883364 -0.08977606454516583 0.1825695125115005 -0.02544218192511185 -0.21985153930927434 0.2152652641626598 -0.12363606837603616 -0.184561579550792
0.02125807929013653 -0.0320200726876719 -0.11800024963430794 -0.532836068293928 -0.053247946878494185 -0.08041420737353162 -0.23301873721043564 -0.10301434928243129
0.2724525721459648 0.00023484346531982002 0.1793556923493414 -0.1930927177594375
