JupyterLab/best_model_M4_103.pt (torch, 127885 bytes, 12 tensors)

block.0.weight f8 [60, 12]
0	0x3fccdd15030a06fc	0.22549688957592895
1	0x3fcbc2cd61697b0a	0.2168823934216209
2	0xbfc7a8df0ae86c0d	-0.18484104187595599
3	0xbfa72ba545e426ba	-0.045254864484446114
4	0x3fcf40ab348e88e8	0.2441610342621694
5	0x3fb4c70b1e54ccf3	0.08116216173657502
6	0xbfd2716a54b6f4db	-0.2881723239223228
7	0xbfbf0200e6befd8e	-0.12112432130287784
8	0x3fd38b067f659528	0.3053604358777471
9	0x3fc7dcea1f09cb62	0.18642927661457082
10	0xbfbaf14868b2461e	-0.10524418407501243
11	0xbfd28030f647d513	-0.2890741734584747
12	0xbfd5526c6622184b	-0.3331557271379821
13	0xbfd46da874be20e4	-0.3191929950776411
14	0xbfcb45327404c001	-0.2130492273804521
15	0x3fb67103a8f99809	0.08766196132054928
16	0x3f8e1e11d9bfd467	0.014705790956194243
17	0x3fc93e2f29545e74	0.1972102119259379
18	0x3fa34455150d19a4	0.037630709476206975
19	0xbfaf3c1f8bb83e7c	-0.06100557880938326
20	0xbfc29d503708b734	-0.14542582213601352
21	0x3fb0bd7f17013755	0.06539148627890985
22	0xbfcdef6ed6930f77	-0.2338694141127424
23	0x3fc9be0d6e6ba52a	0.2011124409830612
24	0x3fdc9e9bdd7f3bd9	0.4471807158524235
25	0x3fd49f17ef5ad1a8	0.32221029638756216
26	0x3fcb0715f6a276e2	0.21115374129015324
27	0x3fb240a1fa1e014f	0.07129871708275924
28	0xbfd47c75577a95e5	-0.3200963358197824
29	0x3f81b68c56d21894	0.008648964309270014
30	0xbfc95be47582cdf2	-0.19811683404769515
31	0x3fc2270dce79a9bb	0.14181683141516807
32	0x3fd5454c9203159a	0.3323546815775785
33	0xbfb3f38236918da0	-0.07793439705124294
34	0x3fd45bdb707256d0	0.31810651761166486
35	0x3fb6e4bedf4784e0	0.08942788077503705
36	0xbfbac177b37b3557	-0.10451458103053334
37	0xbfba8eaed72c7632	-0.10373966935409198
38	0xbfc0970a60029703	-0.12960939109796507
39	0xbfca81c7b981df0c	-0.20708557661031823
40	0x3f8221d10d51a1d1	0.00885356256385786
41	0xbfcbd13f5eaad967	-0.21732322809630064
42	0xbfa1289c66d0c723	-0.033512961912846494
43	0x3fc2c89913fa9270	0.14674676394965358
44	0x3fd49b53e8bb6ae8	0.321980454709474
45	0x3fc396e200cebcc4	0.15304207839424155
46	0xbfc495cf37579a57	-0.16082182123428154
47	0xbfafe24f75685db7	-0.06227348621558398
48	0xbfa0f2777d27265c	-0.03309987452264515
49	0x3fcfb288117c5dd2	0.2476358495120921
50	0x3fb7f53ed1f9bf7a	0.09358589769703754
51	0x3fd1e8f4844ebc2c	0.27984345360431706
52	0xbf9a1bd3d4ddbddc	-0.025496778361626102
53	0xbfc6522ef75ab322	-0.17438304021688916
54	0xbfd1221591826f6f	-0.26770533761895526
55	0x3f917f38816e4b65	0.017086871051627556
56	0x3fc29cac79a36536	0.14540630282753292
57	0xbfd44124650c44dc	-0.316475962333312
58	0x3fa926b150e355c3	0.04912332641985586
59	0xbfc962e238b2bcbe	-0.19833019035784177
60	0x3fbbe5fb8918e298	0.1089780053815822
61	0x3fd0b4a5ddf8a652	0.26102587391742305
62	0xbfd6d89d6b8bb2d7	-0.35697112562665495
63	0xbf9eb52ae5c6ef59	-0.029987974428635187
64	0x3fc6187c18fd2fda	0.17262221546331952
65	0x3fd1a4ff014529e9	0.2756955635456096
66	0x3fd2b7f08cba6621	0.2924767851160102
67	0x3fb247a02978f7a5	0.07140542042267713
68	0x3faf8945536238bf	0.061594168118163754
69	0x3fc2d245f60166e4	0.14704203140245575
70	0xbfc21664e35dc9ce	-0.14130841352341722
71	0x3fb5b7dc2ed22d4d	0.08483673232165252
72	0x3fc247d28b0b6118	0.14281684674529838
73	0x3fc20ab6dd7e79cf	0.1409519750131509
74	0xbfc4a2c0a21e2d71	-0.16121681133186486
75	0x3fd6cefd23136129	0.35638359475480513
76	0x3f8ae65cbf9cffb2	0.013134693715642107
77	0xbfc71555705647c9	-0.18033855424124415
78	0xbfaabee1ea4d68b5	-0.05223756775986158
79	0xbfae577653b3de80	-0.059261033742527225
80	0x3fcd6005158c8b5c	0.2294927935809835
81	0xbfa2922f515802c2	-0.036271551780378455
82	0x3fad63849d9187e7	0.05739988730853423
83	0xbf748f3492352e62	-0.005019383769944237
84	0xbfc02cc7d85c69fc	-0.12636659683705875
85	0x3fce79b946fd3ed4	0.23808971372863275
86	0xbfd0800f0f48f126	-0.25781609051388654
87	0xbfd85112c21f4576	-0.37994831998101775
88	0xbfcf9f9146099bdf	-0.2470571128826284
89	0xbfcd0b3251f6ffbd	-0.22690419199170533
90	0xbfa2852ceb602128	-0.03617229817615658
91	0xbfcc0a2fc15f8878	-0.219060868664261
92	0x3fa6f925a4f9f76c	0.044869591129993974
93	0x3fc711f2b26f15a7	0.1802352305659671
94	0x3fbadb44b0752693	0.10490826900527343
95	0xbfa3a8c834fa6746	-0.03839707991319456
96	0xbfd4a830824a287f	-0.3227654716835175
97	0xbfc931f5e65558b9	-0.19683717486140553
98	0xbfce56e67c30a8f1	-0.2370269876858582
99	0xbfcb4280cde3aa2d	-0.21296701481999616
100	0x3fd51fedac2becb4	0.33007375539427675
101	0xbfc1d541d4afd68a	-0.13932059178448625
102	0x3fd0edbcf29a9b5c	0.2645103806666407
103	0xbfd0ae22dd7e8eda	-0.2606284297018938
104	0xbfd4239f73508135	-0.3146742464177977
105	0x3fd3502b03d41a94	0.3017680680644983
106	0x3fbf9f830796fbbc	0.12352770743653613
107	0xbfa8ba4a03b3873f	-0.048296273185555176
108	0x3fc18db82cfcef51	0.13713743397408476
109	0xbfd48fe8b27aa5f3	-0.32128350667571154
110	0xbfc00260da20ae9b	-0.12507258082165582
111	0xbfd64c5648a00d07	-0.34840924351028985
112	0x3fcec5f53ba5f832	0.24041619694247768
113	0xbfc7c2847c7ea1d1	-0.18562370375481277
114	0xbfa25197eab103e4	-0.03577875842939429
115	0xbfa32a5fe19aaf92	-0.03743266705472971
116	0x3fc903c44dadf2f7	0.1954274539274576
117	0xbfc20993b2875dd7	-0.14091726510262845
118	0x3fcce41762ad7cd8	0.22571079557653806
119	0xbfa8e4e5f010e678	-0.04862135463231437
120	0x3fc790e622e0e801	0.18410946562818256
121	0xbfdc122f57aae293	-0.438609920132458
122	0x3fcbb5eab3e38c32	0.21648916038165705
123	0x3fcfc45c570c6ac9	0.2481799531022573
124	0x3fc10749c1692972	0.13303491538892903
125	0x3fcd31c65f4e628f	0.22808150914785982
126	0x3fa72969a705d2b4	0.045237828863638724
127	0xbfc5680927d5d643	-0.16723741955836333
128	0xbfa42c243e5ae0bd	-0.03939927350205739
129	0x3fb2deb32d209a15	0.07371063091032
130	0xbfae7ebf38e2c216	-0.05956075257688924
131	0xbf9405931544ea27	-0.01955251519505388
132	0xbfd279bb269ca7df	-0.2886798741407101
133	0xbfb8ef32df61f80a	-0.097399882828512
134	0x3fc51a6defc647b3	0.16486906249752806
135	0x3fc5fd7f5e4821d2	0.1717986307487665
136	0x3f8e6d10ee31d43e	0.014856464642642671
137	0xbfb849195d04fed9	-0.09486540337547512
138	0x3f947273a6adf6cb	0.019967848823845096
139	0xbf874f82970c1386	-0.011382122263521099
140	0x3fd4a5c06c75e626	0.3226166781601897
141	0xbfc295fe5c14f768	-0.14520244117914705
142	0x3fd7252189ef7a23	0.3616412970567657
143	0xbfc21667a8d624cf	-0.14130874389619527
144	0xbfc86c6ff48885aa	-0.19080924453832654
145	0xbfc699619920653b	-0.17655582405931533
146	0x3f9d6903ccef9e68	0.028720912345220034
147	0xbfc4d23c16a3bc72	-0.16266585450600562
148	0xbfd07ffe3923b80f	-0.25781207637817344
149	0xbfc2a6b36aa1d8c8	-0.14571230608607366
150	0x3fa6e24ed4d38e00	0.0446953425214609
151	0x3fb4dd41085a15c3	0.08150106862929989
152	0xbfc4e7d06dbb97bb	-0.163324407177411
153	0xbfade396f21f992b	-0.058376996093829035
154	0xbfcc651130f35c95	-0.22183432474296141
155	0xbfc2095b4fd69a30	-0.14091054342607512
156	0x3fdb05deea0b01ca	0.4222333226753362
157	0x3fbb86de135a08b3	0.1075266644711828
158	0xbfc85afd42af5eea	-0.19027677303414886
159	0xbf9fec96f8193824	-0.03117595567010069
160	0xbfc6a794ed6e2e0c	-0.17698918908386962
161	0x3fcbce397929007a	0.2172309724428521
162	0xbfd009963cc5d7b7	-0.25058513579221703
163	0x3fb5943cea746bcc	0.0842931816481915
164	0x3fcaf5f677daadb0	0.2106311879373215
165	0xbfc4de857e44e36f	-0.16304081597788975
166	0x3fcdd313395c580f	0.23300400067154256
167	0xbf8ba693b2d604d8	-0.013501314063207578
168	0xbfbfb07fa8b4061c	-0.12378690594416536
169	0xbfd26921b7abd03d	-0.2876667302764451
170	0x3fbe4b9620687ec1	0.11834085742202217
171	0xbfde8f02a176679d	-0.47747865455459665
172	0xbfc83585b8c76338	-0.189133372520496
173	0x3fcebe9c1b78556e	0.24019194928466042
174	0xbfbe80b755abf371	-0.11915155259698708
175	0xbfb320addff9f867	-0.07471739500212636
176	0xbfad2af56e3a3fd7	-0.056968373971471635
177	0xbfbf6455da0178ab	-0.12262474605947442
178	0x3fc59dcdfc541517	0.16887831516957227
179	0xbfb045d1c7eca980	-0.06356536036461158
180	0x3fcc10a35e379c22	0.2192577562375116
181	0xbfa6e955e16d774d	-0.044748958366411
182	0x3fd076f45055a84e	0.2572603973882267
183	0xbfb8b66da57c4ee8	-0.0965336350457694
184	0x3fd1d6c6f3a923e6	0.2787339572428763
185	0x3f3531d875dd6166	0.0003234055965229049
186	0x3fa383cd8ad42336	0.038114951321466625
187	0x3fc563f0c0c88b88	0.16711244023562366
188	0x3fc83b005ecbef7f	0.18930058125249258
189	0xbfd4db2f8824ea50	-0.32587803168613494
190	0x3f86dde7961995ed	0.011165437000452772
191	0xbfc16c5eb047cdd4	-0.13611968619771508
192	0xbfabd41bb0ebba79	-0.05435263189962298
193	0xbf9fefd1b46bb4af	-0.031188274991042316
194	0x3fd439af0632ec06	0.31602073293078126
195	0xbfc1653c3c3f97a7	-0.13590195600334917
196	0xbfcc1a98d21e3d8c	-0.21956167468713905
197	0x3fc0fc96b6b74f6f	0.13270839616472638
198	0x3fcde9516db99d0a	0.2336828027502878
199	0xbfa40ed409e6de88	-0.03917563076850877
200	0x3fbad412d21096e8	0.10479848507437917
201	0xbfd07414590043df	-0.2570849293852557
202	0x3fd189664aa6b8d7	0.2740112046257201
203	0x3f8cb0584ffc992e	0.014008226338387244
204	0xbfd6b076443351ac	-0.3545203844089666
205	0x3fcfd3493e1b7423	0.24863544018344994
206	0xbfd16effbaa2c61d	-0.2723998377433377
207	0x3fd9c05dcac09790	0.4023661117556623
208	0x3fc0782eb0662f38	0.12866767514457833
209	0x3fcae5c2f14b0d98	0.2101367643536889
210	0xbfa68e3dcdb78b61	-0.044053965913710476
211	0xbfb732096cecee54	-0.09060725125612495
212	0x3fc222b5f219dbc4	0.14168428727472648
213	0xbfb79bf5418818db	-0.09222348070042889
214	0x3fcfc66ecbc70be5	0.24824318838190532
215	0x3f564290cd2a13ef	0.0013586439205550656
216	0x3fd62e17d7f078e2	0.34656330192400564
217	0x3fc09e235c0eb101	0.12982599253644625
218	0xbfc9b09861c0f7af	-0.20070175908216245
219	0xbfc9c16f6bdbea0d	-0.2012156750350446
220	0xbfc6d45992145e4a	-0.17835540421286772
221	0xbfa4bfbf6c5945e8	-0.04052541921249625
222	0x3fc91e101c772727	0.1962299479476368
223	0xbfc54e4d0ed529f6	-0.16645205711604633
224	0x3f84435dfe5c5bd8	0.009894117665266863
225	0xbfc5779c452c0a44	-0.16771272065678222
226	0x3fc3bfe8b187f8b7	0.15429409664642943
227	0x3fcebc259c0cd00d	0.24011678809768036
228	0xbfa16667ec521ccd	-0.03398442039274983
229	0x3fa1bb732f9c8a6a	0.03463325458712492
230	0xbfb40bd1c7d86d0e	-0.07830535058058194
231	0x3f84b4ce8fce0cda	0.010110486758782167
232	0x3fd1f6221626902b	0.28064777529857804
233	0x3f8d86b097a6e965	0.014417056682635996
234	0xbfc34696839954cd	-0.15059167314271918
235	0xbfbb9af107625e6b	-0.1078329699542963
236	0x3fc29e61c76024c5	0.14545843348631685
237	0xbfceb7d20f08d6c0	-0.23998475774867778
238	0x3fc77b05b264fbcb	0.18344184122721993
239	0xbfc500128d2cb599	-0.1640647115067793
240	0x3fa3475474878620	0.037653578972605795
241	0x3fb95cc87397fd41	0.09907200643646254
242	0xbfd13a9ca89960b7	-0.26920238938101754
243	0x3fa4ed6b24fb34fe	0.04087385965758904
244	0xbfb621db4b0a1077	-0.08645411092772003
245	0xbfbc2488faa5d3c7	-0.10993248099641938
246	0xbfc1d7d147bb54d6	-0.13939872744109633
247	0xbfc65a21dab61f48	-0.17462561778324415
248	0x3fd3d090e8ba9a58	0.30960486152108535
249	0x3fba846944a98d06	0.1035829346306408
250	0x3f55daad30ac48fd	0.0013338748273708505
251	0xbfd64c687c247c37	-0.34841358302395825
252	0x3faefd290e2ab216	0.060525210360854384
253	0x3fc41f18d8472f1d	0.15719900665714528
254	0xbfd09ef614c8deff	-0.2597022250151752
255	0xbfc924b36812d6a9	-0.19643251973837053

block.0.bias f8 [60]
0	0xbfd178b35a059b6a	-0.27299197951508936
1	0x3fbde3e6048f0736	0.11675870524689178
2	0x3fd11c385d4bbf04	0.26734742270399203
3	0x3fbcf93113a9d5c4	0.11317736368240278
4	0x3f876e4128aa9731	0.011440762570895298
5	0x3fc84d05f868de34	0.18985056523682575
6	0xbf9f01a433f0bd3e	-0.030279699011029886
7	0x3fb3580c07a67c61	0.07556224047446981
8	0x3fc70df4ecedac01	0.18011342591066185
9	0xbf9bc85d75157ef1	-0.02713151957629995
10	0xbf8ffcda86e63ee8	-0.01561899875812807
11	0xbf922f099cfe19f2	-0.01775755902010618
12	0x3fcc257e64feaccd	0.21989421779048826
13	0x3fb0aa0014a0b91f	0.06509399894341471
14	0xbfc813c4e4e8c8b6	-0.18810330559933214
15	0xbfcf7e39f870955f	-0.2460396254620418
16	0x3fcb30fb9b6703f4	0.21243233764656078
17	0x3fb551397ae9fe5d	0.08327063799696917
18	0xbfd17dfeaecf6bcf	-0.27331511565506345
19	0xbfc148c21ed693a6	-0.1350329065873243
20	0xbfc85089db37a1c5	-0.18995784000368424
21	0x3fc91be8010cf9f8	0.19616413165381608
22	0x3fd7d0ebe1da7c89	0.3721265512085173
23	0xbfc9f818bbbeebd7	-0.20288380782389367
24	0xbf8ab98d80f69c26	-0.013049226282261083
25	0x3fd0b808b31d67e9	0.2612325429123517
26	0x3fbda070a3f3249b	0.11572937014274702
27	0xbfc0ed4df34ea2d1	-0.13224195842965128
28	0x3fcaa378612b0385	0.20811371559650751
29	0xbfd282a5b88c4fd3	-0.2892240812518569
30	0x3fd2f04ff0618984	0.2959174964400051
31	0xbfb9fbf47250c371	-0.10150077620416
32	0xbfc00ef4bc93671f	-0.12545642097284657
33	0x3fb04478e795b3c2	0.06354480413365507
34	0xbfc1045594c3fdb5	-0.13294477237648797
35	0x3f97f8022a604afd	0.023407014690813622
36	0xbfc6c29a35d98f47	-0.1778137934626278
37	0x3fd2deb7d134bc68	0.294843630125746
38	0xbfa89f2548b5d641	-0.04808918488099013
39	0xbf93ff3506e78269	-0.01952822546616276
40	0x3fbfc0d73fab56e9	0.12403626732278962
41	0xbfc9cac0188e5208	-0.201499950399594
42	0x3fbafc180571b69d	0.1054091466227995
43	0xbfc38d41d7479cc9	-0.15274832736688485
44	0xbfa37725b7271764	-0.038018396956927686
45	0x3fcd0fb2e1a6c07b	0.22704158800252458
46	0x3fb8f9aeb69b0c6f	0.09755985220094641
47	0x3fd3b74ee6511bf4	0.3080632447421856
48	0x3fc3635d7f6fea7e	0.1514698860408607
49	0x3fb476e0c77f7787	0.07993893499903325
50	0xbfc324ccb589f6d8	-0.14956053604321684
51	0xbfcd612b39e3ed32	-0.22952785803486503
52	0x3fd06de55c9f1cd6	0.25670751614638954
53	0x3fd28167d3deb4a2	0.28914828958915895
54	0xbfc3fedeb51d4de7	-0.1562155136440275
55	0x3fca7ed4b584f843	0.20699557173969838
56	0xbfc82f4bf7779da4	-0.18894338210450912
57	0x3fc6a1184c55fcfc	0.17679122664774372
58	0x3fc1db6792acd617	0.13950819646713405
59	0x3fa5adfa363f5f10	0.0423429671497485

block.2.weight f8 [60, 60]
0	0xbfbe1eba496cb8aa	-0.1176563672313217
1	0x3fc76bab01a97814	0.1829732664218119
2	0x3f8e29e63fb2fda4	0.01472835428137282
3	0x3fb2c0af9a3e1d41	0.07325265422524742
4	0x3fc05c382be88aa4	0.12781431335414084
5	0xbf9dfd385cae489e	-0.0292862707679623
6	0x3fb0690c4683fe8d	0.06410290452549301
7	0x3fb477fce2dacfe8	0.07995586908765484
8	0x3fbdc3f8a8e926ef	0.11627153514669052
9	0x3fa831219de3a227	0.04724984218939126
10	0xbfb6a65a38b817be	-0.0884758366083522
11	0x3f7e04773e6e8b01	0.007328477665313527
12	0x3f7f9475d4957a97	0.007709942126295963
13	0xbfb46029fa61f643	-0.07959234583719259
14	0x3fb0fa17c31ae9b1	0.06631611359890745
15	0xbfbd1d92c9874715	-0.1137325040829434
16	0x3fb3c37fc3d8c2d8	0.07720182925619257
17	0xbface8b27fdc552d	-0.0564628392295766
18	0x3fb8699f067896f3	0.09536165149674129
19	0xbfc6f9f2a49b2c4c	-0.1795028022519055
20	0x3fc6c6f95e553222	0.17794720750897947
21	0xbfc00213ff889ccc	-0.1250634191248764
22	0xbfc33124286adb24	-0.14993717168337029
23	0xbfb06725379b689d	-0.06407387359232293
24	0x3fb510572d4f287d	0.08228058677846835
25	0xbf8be648a1231ec3	-0.013622825067059257
26	0x3fbad1eb7d4e1763	0.10476562318043885
27	0x3f4d5bea35a95e1b	0.0008959668733252187
28	0xbfc049349d7868e1	-0.12723405541402769
29	0x3fa66ac05ea78b34	0.04378319888544127
30	0xbfb5090d04250d16	-0.08216935492696495
31	0x3fc564fdc18044f1	0.1671445078687053
32	0x3fb7c16efc23f6c9	0.09279531150601907
33	0x3fa5a7f4c7027df1	0.0422970288211636
34	0x3fad0f80823fb756	0.056758895778200966
35	0xbfa9ee538de15587	-0.05064641100822614
36	0x3f93d6f2429afa81	0.01937464267279632
37	0xbfaa28a5f023bee0	-0.05109137112037643
38	0xbfbc52b8eaaa01cb	-0.11063724259475476
39	0xbfbeedfe0b0c9cd6	-0.12081897516019366
40	0xbfa8ae372d6394ad	-0.048204159060142394
41	0xbf877ddceb9ceee4	-0.011470533314074279
42	0xbf84edda90e11d14	-0.01021929506909073
43	0x3fc09224f59e6e40	0.12945997231587292
44	0x3fb88297605fd2cf	0.09574266531837881
45	0x3fbbe958078ff9c6	0.10902929482106236
46	0xbfbb1c436b64192c	-0.10590001460886772
47	0xbfc77e161a86d5c4	-0.18353534980057706
48	0x3fb1e072f2b74a9a	0.06983107019122273
49	0x3fbde2971e9b846c	0.11673874375584753
50	0xbfb3e8637d586f43	-0.07776471910659404
51	0xbfa095efab71aa5d	-0.03239392249891602
52	0x3fa431ae77526ee4	0.03944153982703627
53	0xbfb6ec76327a495a	-0.08954561931958463
54	0xbfaa100a10a9a771	-0.050903620275518764
55	0xbfadc9f4f0e7e161	-0.05818143311256808
56	0x3fc0ce81c0033308	0.13130208850488878
57	0xbfa7e5c9970997f0	-0.046675014197532394
58	0x3f62ea3f90c0ec13	0.002308963919885007
59	0x3fc2eb2c9934909b	0.14780194740990713
60	0x3fab1299436e52b8	0.052876271706883526
61	0xbfc356fe7add4975	-0.15109234809149155
62	0xbfba9921025d2641	-0.10389906223022029
63	0xbfaf429880c01bee	-0.06105495998058773
64	0x3fc4b4f6d48bfabd	0.16177258852254353
65	0xbfab24e7531c304d	-0.053015927214886995
66	0x3fc05e319cc1c42a	0.1278745665945576
67	0x3fc4898d157795e7	0.16044772670936355
68	0xbfd2f9cbe02069ba	-0.2964963616119821
69	0xbf91558f4af499ab	-0.016927946996611414
70	0xbfa33d3f46232bc5	-0.03757665377778311
71	0x3f65dbcf0057db79	0.0026682894701894303
72	0xbfb1792db52e53f5	-0.06825528787005893
73	0x3f8fdef3ed4d0f2b	0.015561967543937868
74	0xbfc577f77eaaf31b	-0.1677235954756718
75	0x3fb1fa345fa45b56	0.07022406897554609
76	0x3f7a368113a2189d	0.0063996355112349275
77	0x3fbd5f55777c7a9f	0.11473592917580298
78	0x3fb1f29da78b158f	0.07010827389156858
79	0x3f93756f22a3b5d2	0.01900266312525451
80	0x3fc17ffe82b0941f	0.13671857243858285
81	0xbfc22b2b6dc65c6e	-0.14194243297672265
82	0xbfb654b7a41a5615	-0.08723018413942214
83	0x3faf52b0e717527f	0.06117775746284781
84	0x3f99b4e8e6f205d0	0.025104178520001075
85	0xbfc3b737bff03414	-0.15402886268603366
86	0xbf9fdffe85466a70	-0.031127907642807207
87	0x3f63c74ce2fc8925	0.002414369744557681
88	0xbfc0942c1eebd703	-0.1295218611700691
89	0x3fbda3dd0c2128b8	0.11578160806780857
90	0x3f967b58b2f13c7b	0.02195490448167135
91	0xbfb358d241c41720	-0.07557405572523779
92	0x3faf2706c8ad2e1e	0.060844623562470654
93	0xbfc471751e7edf96	-0.1597124480156224
94	0x3f983a2821d462f6	0.023659350456997928
95	0x3fc4bfc161232098	0.1621019100477994
96	0xbf5e9ed260084bc5	-0.0018689207501025745
97	0xbfc8dd00170ba614	-0.19424439549702355
98	0x3fb98308e7cb7712	0.09965568217327483
99	0xbfb47d0fa469a8d0	-0.08003328098280638
100	0x3fb785cdf853a850	0.09188544571557711
101	0x3f827ebed03f4185	0.009030810098835893
102	0xbfc13857175756be	-0.13453186645226894
103	0xbf83b1206dee689d	-0.009615186076008359
104	0x3fbf45200dd20322	0.1221485170117487
105	0xbfaa7bca0f758128	-0.05172568739613076
106	0x3fba5e7424e25eab	0.10300374889845425
107	0xbfb06c85b6cb80f7	-0.06415591919676787
108	0xbfb58d2e43d9cb55	-0.08418549686920802
109	0xbfa2d7c2ff1143e1	-0.03680238116852031
110	0x3fb25abf210b9861	0.07169718319673414
111	0xbfb1260cc33cf27b	-0.06698684469751896
112	0xbfc9403e1fb25d41	-0.19727303073589478
113	0xbfa9826a8bed38ed	-0.04982312162484157
114	0x3fb904193e42f9e4	0.09771878976878373
115	0xbfc0e3e5a171aea5	-0.1319548643399361
116	0xbfbaff905dcb612b	-0.10546209611800765
117	0x3fab7f296ce62cf6	0.05370454267821316
118	0xbfb2057d692f8f51	-0.07039626901638242
119	0xbf8adb12b7577567	-0.013113161296980548
120	0x3fb5f8ad156bbee4	0.08582574627848377
121	0xbf976ed7a0d7b131	-0.02288376731114389
122	0x3f99fad649efb123	0.025370929968560618
123	0x3fb6f977e0fafaba	0.08974408381161939
124	0x3fb2febe51aa75b7	0.07419957631869677
125	0x3fc5cb86bee484c3	0.1702736312954923
126	0x3fa742f24cce64d8	0.04543263614250187
127	0xbfbba584996cd0bd	-0.10799435373047835
128	0x3faf560469b34761	0.06120313444411241
129	0x3fb3215eda91db67	0.07472794376540791
130	0xbfad8acc77d612a7	-0.057699575069851954
131	0xbf9a052aafea1c90	-0.025410334574669735
132	0x3fb59898244168fe	0.0843596542848992
133	0x3f2209ffd854bc5a	0.00013762710674700384
134	0x3fc60a9efcb92af0	0.17219912853246155
135	0xbfb640ea7537f4f4	-0.0869280372789552
136	0x3faa612cb01bc3dd	0.05152263307343905
137	0x3f78bbfd3d333919	0.006038655486192001
138	0x3fbf09058f5105af	0.12123141049325768
139	0x3fa9a5d425eab64e	0.05009329760410407
140	0x3fbd6254169b6850	0.11478162338190256
141	0xbfa932152d59ca56	-0.04921022585485406
142	0xbfb59839bf5f6d3a	-0.08435402795969518
143	0x3fb3980e3963afbc	0.07653893376453785
144	0x3f9e4feae78cb11c	0.029601736433663026
145	0x3fb25bdc905574fe	0.07171419643187346
146	0xbf90a4092f7efe62	-0.016250747226648328
147	0x3fb08c9893b9de49	0.06464532476990671
148	0xbf9681f9f896e4f1	-0.021980195806212192
149	0x3fc5538b150e1dd9	0.16661203888018752
150	0xbfbf061b328749a4	-0.12118692382435953
151	0xbfc8c0e79fd1801a	-0.19338698676710991
152	0xbfc115ad6e5e36a1	-0.13347404374183205
153	0x3fb6761affe13599	0.08773964640678002
154	0xbfb96c7115afe9bb	-0.09931093959304509
155	0x3fbee1efe73fb88d	0.12063502689099632
156	0x3fb4a1254e4fc9f4	0.08058388864427696
157	0xbfb24e06e99c3ad6	-0.07150309756637382
158	0xbfa742758ecca986	-0.045428918534827153
159	0x3fc56b449d26ec19	0.16733606027068573
160	0xbfaadff115e1db69	-0.05248978988759385
161	0x3fc63f3d3f128f3b	0.17380490855895822
162	0x3fab47f9704ab026	0.05328349586247354
163	0x3fb09d7dc70567c6	0.06490312680162366
164	0x3fad8086b2a44729	0.05762120180783221
165	0xbfb848d29be0b56f	-0.094861186081024
166	0xbf9ca657247e6583	-0.02797828827133265
167	0x3f9399ead4e1f678	0.019141835444762084
168	0x3fa6412601d3d82a	0.04346579334553298
169	0x3fcaa906cea76d81	0.2082832821896368
170	0x3fc1b67c31559222	0.1383815041437098
171	0x3fb6ca22451fc28a	0.08902181804274725
172	0xbfba7f1b38114872	-0.10350198859058127
173	0xbfb720ece05582bc	-0.09034615017800268
174	0xbfae698cd321f0b7	-0.05939903332998269
175	0x3fc64f13d0d571ba	0.17428825089417704
176	0x3fa6356166f49b06	0.04337601072102441
177	0xbfc3d1c5e7c6fe80	-0.1548392659878921
178	0xbfbe6c09476893d2	-0.11883600228664129
179	0x3fb4ddadb8e8a647	0.08150754703879058
180	0xbfc936df7b3ffbe3	-0.19698709028304426
181	0xbf97200dd3efc7ad	-0.02258321386393163
182	0x3fb3dc828ab3fea6	0.07758346449190387
183	0x3fb0f342a411ea79	0.06621185784926266
184	0xbf9bcf61f144e3ad	-0.027158289290330085
185	0xbfb104ad10a39cb0	-0.06647760063389074
186	0xbfc1c7f07d601e8f	-0.13891416665886822
187	0xbfb6722fc0b7b7a3	-0.08767984824200296
188	0xbf9de4bb24522dae	-0.029192852107866755
189	0xbfba9ae32e9c7529	-0.10392589462249603
190	0xbfb69c0eb2d25e6f	-0.08831874719396081
191	0x3fb3ad4d238568ac	0.0768631183358674
192	0x3fa5221a2d61f10b	0.041275804557672734
193	0x3fad6d3c8c06282a	0.0574740334441944
194	0xbfcf9b08ab23d65f	-0.24691875797695936
195	0xbfbee6764bb74a5e	-0.1207040724614585
196	0xbfa04befec3169a1	-0.031829354841380615
197	0xbfa709d85f2be097	-0.044996987931825654
198	0x3fca207fdd6d083d	0.20411680518924583
199	0x3f821626cf250537	0.008831313320686192
200	0xbfb3923be022a95e	-0.07645010206275546
201	0x3f55385db02e2d96	0.0012951769756196266
202	0x3fc817ad9bc3e6e9	0.18822260003781047
203	0x3f9670ff9825d521	0.021915429746021012
204	0x3f9317ef61801356	0.018645992589898817
205	0xbfc2fd860de9f88d	-0.14836192778961213
206	0xbf9aba80ac3d290b	-0.026102076065662987
207	0xbfa04fc3319f21aa	-0.03185853939754975
208	0x3fc1b7fddb911909	0.13842747899088462
209	0xbfa626ffff698d5f	-0.043266296318303026
210	0x3f85bcb0c41955e7	0.010613804802384897
211	0xbfb58b4e8a8d5af1	-0.08415690310117065
212	0xbfc1e250c8f6cab3	-0.13971910298058318
213	0x3fb7e0e85d58c0ae	0.09327556876155782
214	0x3f92758aefae78ac	0.018026514891624032
215	0xbf6d1aee75b095ab	-0.0035528809944646764
216	0xbfc89dd5f7e97086	-0.19231676678726134
217	0x3fc6c7beab20fcd2	0.17797072749997384
218	0x3f916164905512a5	0.016973086652131503
219	0xbf9f13874eb45638	-0.030347932986009435
220	0xbfaeba42e15f2f7d	-0.06001481057282285
221	0xbfc02af57740acba	-0.12631100008852575
222	0xbfc0fe6824c924ae	-0.13276387973954712
223	0xbfb1b3d99be71a47	-0.06915054374904016
224	0xbfc52edc5ab1ac3d	-0.16549257687015198
225	0x3fa99249358cb64a	0.0499441984050973
226	0xbf9b9a642edcdda8	-0.026956143722797116
227	0x3fc22e02e7552889	0.1420291547349886
228	0x3f8a15cdf7f058d4	0.012736901406281843
229	0x3f62edc0e13ea5d7	0.002310635298233814
230	0x3fc00dc7705c02be	0.1254205034856763
231	0x3fa2a816b70b834f	0.036438665241581895
232	0x3fc40e95eded4aea	0.15669511907125094
233	0x3fa17bc817d0364b	0.034147503764057584
234	0xbfc37d17717ce3d1	-0.15225499192618355
235	0xbfb13cefcb9e4851	-0.06733607026242906
236	0xbfb7a2c4dd9ec89a	-0.09232740793848607
237	0x3f817ad7c1a62e3a	0.008535085293963286
238	0x3fbf9451bc91e4ee	0.12335692266232787
239	0xbfb3b382fc55fd6e	-0.07695788059753791
240	0x3fbda92551b2ab4a	0.11586220974519992
241	0x3fab84a11b13d93a	0.05374625640426918
242	0x3f928482a50ab840	0.018083611796719135
243	0xbfc6d00f34fed78c	-0.17822446906728506
244	0x3fbefa874bcc7e34	0.12101026154095323
245	0xbf9308aa1d9d6f9c	-0.018587739999346917
246	0x3faaf3a26540db20	0.052640032634761136
247	0xbfbf35b5ed8d172e	-0.1219133095702005
248	0xbfa3614a5cc218aa	-0.037851642439862346
249	0x3fc0963e0b407cd9	0.12958503293427873
250	0xbfcd79b84f41e00d	-0.23027709836947033
251	0x3f8eb627c02460d2	0.014995871115886326
252	0xbf9a68adcf29b108	-0.0257899434749769
253	0xbfb1a63832446e37	-0.0689425585482518
254	0x3fb3f9bc94f62156	0.07802942883256966
255	0x3f9db92ea8af3a89	0.02902672676628496

block.2.bias f8 [60]
0	0x3fb0a6270a4b9695	0.06503528596257475
1	0xbf7c1b3ce2831739	-0.006861913520145362
2	0x3fb883fe5e40bdf5	0.09576406289192348
3	0x3fab3279557d728a	0.05311946075992065
4	0x3fbe4ab2ad4d4b56	0.11832730036739511
5	0xbfb9c9ac81ff7f16	-0.10073354886798955
6	0xbf964c4af48e829b	-0.02177540891318817
7	0x3fae0287903f1d75	0.05861304889509259
8	0xbfbcc7db5865dc00	-0.11242457302238051
9	0xbfacfec842371db1	-0.056631334383890126
10	0x3fb84a58d3d2817a	0.09488444491808493
11	0xbf9378b6136d683e	-0.019015164314034154
12	0x3fbba62b7181602a	0.10800429841162953
13	0xbfa8c28aca6e7174	-0.04835923882567075
14	0xbf840629a62336f6	-0.009777379400840652
15	0x3f9d306199d10c86	0.028504872334690144
16	0x3fc45b4a7ea5e25f	0.15903598007186567
17	0xbfadb23cbb59ed74	-0.05800046717646526
18	0x3fc40e77bf052699	0.15669152094988162
19	0x3fab5801baa03301	0.053405813247172425
20	0xbfa0acec6fba125f	-0.03256930221417486
21	0x3f99545f15cd810a	0.024735913949713008
22	0xbfbabe9e78fdea28	-0.1044711156263608
23	0x3fb1c41eff4a4f3a	0.06939882023499147
24	0xbf5d200e32d2a7bd	-0.0017776621491898258
25	0x3f925d3cab391578	0.01793379588186414
26	0xbf8351340654bf9f	-0.009432226603706627
27	0x3fa08f8d7a2d550f	0.0323452197687094
28	0xbfa45e5a1dfd294f	-0.039782348786121184
29	0xbfbf9ac0558e703e	-0.1234550675275736
30	0xbf886a99949b28e1	-0.011922073218915976
31	0xbfa416667be1e3f1	-0.03923340093837869
32	0xbfb06b93b9cab53f	-0.0641414955705004
33	0x3fb4fc24a3c4d96b	0.08197239874139021
34	0xbfc3ccf0b13e6fbf	-0.1546917787026114
35	0x3f9d1081df3ba141	0.02838328289991066
36	0x3fa402d1617e681f	0.03908399882421087
37	0x3f619098faa004f9	0.0021441448088813622
38	0x3fbfa1efd296cf5e	0.12356470958075991
39	0x3fa9a1d1afb7283c	0.050062706660881834
40	0x3fbffd42c7ee186c	0.12495820408921227
41	0x3fa89b6a823fb902	0.048060730361486406
42	0x3f12d5bb99045866	7.184941774016212e-05
43	0xbfc1c97f8907ab05	-0.1389617365924424
44	0x3f9f45bcf3b2f7e1	0.030539467214786845
45	0x3f9a0e3e415e35bf	0.02544495843863159
46	0x3f9144f8067848bf	0.016864657778633992
47	0x3fc392c198db391b	0.1529161449784134
48	0x3f91faeba96c25f3	0.01755874845097156
49	0x3f8e9c35e32982ec	0.014946385378779202
50	0xbf8b1636f417dc7f	-0.013225964855321458
51	0x3fc0ff5edf7b685b	0.13279329216203703
52	0xbf94d50606a38c2c	-0.02034387031097766
53	0x3fa4f3931337a847	0.04092082604968588
54	0x3fbdc839c1c0f0bd	0.11633645038904468
55	0xbfad9a7b943a30db	-0.05781923469939595
56	0xbfba5915a09b809b	-0.10292182131843435
57	0x3f82a9af32d0f3e4	0.009112709749496468
58	0x3fb53975e4e067ff	0.08290802800948426
59	0x3fc06a7b822242a9	0.12824958662215138

block.4.weight f8 [60, 60]
0	0x3fca98c48214ae0a	0.2077870974693357
1	0x3fc64d06dc121ef5	0.17422567124980728
2	0xbfd438f005ebdca7	-0.3159751947236579
3	0xbfb22d930fd59dbd	-0.07100791107733691
4	0xbfd0604892b93da9	-0.25587667778469353
5	0xbfcb5540db3d5b80	-0.21353922562658667
6	0xbfd12ed8c9c2cbbb	-0.2684843035050865
7	0x3f7ceb106af41455	0.007060112125377567
8	0xbfcf0e46d167d93c	-0.24262318825612705
9	0x3fac5bbd82050976	0.055387422677557405
10	0x3f9d599f19a1580b	0.02866219133314733
11	0x3fb28d25b224f3c4	0.0724662361071316
12	0xbfc0a6c3fd2fc044	-0.13008928167937672
13	0x3fb99deae22a5ac8	0.1000658800279367
14	0xbfb36e64b1cdb658	-0.0759032186594707
15	0x3fbecee2db453924	0.12034433224946334
16	0xbfc6b725dc07bead	-0.17746423000015935
17	0x3fb3935eb4538e02	0.07646743681430482
18	0xbfb893cdc96512ce	-0.0960053078352516
19	0xbfc323decfac5d5d	-0.1495321764020713
20	0xbfc2df00d918a8ab	-0.14743052101522855
21	0xbfc32ec7837a2fda	-0.14986509246625596
22	0xbfc523d78ef1a051	-0.16515631179504678
23	0xbf9f5297c19047c5	-0.03058850401800563
24	0xbfb70dab37a06905	-0.09005231960364675
25	0x3fc2d5f247f0288f	0.14715412628749333
26	0x3fc59bdeb436d172	0.16881927299040062
27	0xbfa78b43e787158b	-0.04598438454881223
28	0xbfbb6d4c8f27d129	-0.10713652129181085
29	0x3fcb5194563aba02	0.21342710695667227
30	0xbfb730542c41c0ce	-0.09058118896951159
31	0x3fc68d1e5b8c7987	0.1761815974250107
32	0xbf7ade0d1315e768	-0.006559420654747551
33	0xbfca6f794c740491	-0.2065269110972037
34	0xbfb1dd833af24a74	-0.06978626431581764
35	0x3fc7ce705eecdf9a	0.18598751673721098
36	0xbf93e37ec6f3b873	-0.019422512906139788
37	0x3fa46bd870d3827e	0.03988529565117903
38	0xbfa9f8f89ea48ed7	-0.0507276242881553
39	0xbfa66d4fcf72467f	-0.04380273253731292
40	0xbfc907161d07e641	-0.19552875916979143
41	0xbfca4303e3cff213	-0.20517014144560672
42	0x3f9458ebe058ab96	0.01987045819093288
43	0x3fc3ce2217acdc8a	0.15472818523423754
44	0xbf90e19fd4526114	-0.016485688528150425
45	0x3fb4ea6c775f31c6	0.08170202173568616
46	0xbfd294b0c87281b5	-0.29032535147600963
47	0xbfbb5b63575533f4	-0.10686322099827789
48	0xbfc4c6e839e242f0	-0.16232016397818638
49	0x3fbaf9fcc4b6984f	0.1053770046479212
50	0x3fadec89307bffbd	0.05844525067186577
51	0xbf4f46d9a849b3a9	-0.000954490926756803
52	0x3fbdf135a6fa042e	0.11696181608751097
53	0xbfb1506f89d25379	-0.06763360132965869
54	0x3faa8bf6701ae4e7	0.05184908026189721
55	0xbf8e56b6af306cc9	-0.014813830586766124
56	0x3faf82dff1cc6830	0.06154537035600105
57	0x3fb463bfbf02a9b0	0.07964704907741438
58	0x3fb1f35a88a67f20	0.07011953197661258
59	0x3f9079bfe9d186cd	0.016089438100954468
60	0x3fbb4a5add4fac2b	0.10660331633668878
61	0x3fc4085a663accfc	0.15650491706546876
62	0xbfc952a08b6116ed	-0.19783407979610193
63	0xbfc3a5f5b3845adb	-0.15350219026068754
64	0x3f94b2b603c88cf4	0.02021297834484144
65	0xbfb623ae0d4f679a	-0.08648193192439493
66	0xbfae29c9232742a5	-0.05891254953497097
67	0x3f972a53896fd9eb	0.022622399581416913
68	0xbf8746bd1b70fd80	-0.011365392112678618
69	0xbfa64af3ce260008	-0.04354059115848946
70	0x3fbfd94720fdfe6d	0.12440914683792821
71	0x3f98d18163518232	0.024236699759400966
72	0xbfd00307b7997692	-0.2501849453891306
73	0x3fa006b167029258	0.031301063370197724
74	0xbfb0663139c8ca17	-0.06405933056593259
75	0x3fc29f6093907624	0.14548880772865502
76	0xbfcf4effa0613a8d	-0.24459834414524942
77	0x3fa83e32124fe9cd	0.04734951470887303
78	0x3fa6885172f2703b	0.04400877502595831
79	0xbfa725ed3c4fe93a	-0.04521123276932078
80	0xbfa74ba266908ec5	-0.04549891950617061
81	0xbfbdc4d1238403d0	-0.11628443829614743
82	0xbfd00b19d565467e	-0.25067754592337355
83	0x3fc5e6643beba54a	0.171093491800358
84	0x3fa998d14df58c0d	0.04999403072977069
85	0x3fb1b6164a5344af	0.06918467821675976
86	0x3fc0a843d5c1fecf	0.13013503968612958
87	0x3fb6c760260d54a6	0.08897972992902456
88	0xbfcb4fbdf4ee25a8	-0.21337103328214124
89	0x3fb430a4010bdba4	0.07886719728035857
90	0xbfceffe58b62d23a	-0.24218434625585578
91	0x3fb11864a5a2de27	0.06677845996716113
92	0xbf7cc7ace4284660	-0.007026362759022214
93	0xbfc3ad0c4c848326	-0.1537185071583959
94	0x3fa8726a211d09f3	0.04774791387764656
95	0x3fae234293013e6e	0.05886276287548929
96	0x3fbad8959550cdcf	0.10486731429482819
97	0x3f9e9e7070ba7619	0.02990127265967688
98	0x3fafd1c597e1c84f	0.062147307195929195
99	0xbfb2371183ecebfd	-0.07115277739369215
100	0x3fa3efc7de5c1868	0.03893875684120546
101	0xbf91a439d6a93fb5	-0.01722803471267272
102	0x3fab7783aee7ec01	0.0536461974151834
103	0xbfa7ea9c38132528	-0.046711809010569205
104	0xbfb5c1b36891c730	-0.08498688986744862
105	0x3fc1dabf7d25eb08	0.13948815928218772
106	0xbfcd09a1eb8f4776	-0.22685646058976844
107	0x3fb041f65233e768	0.06350650317099638
108	0x3fa43c692f62facf	0.0395233984322566
109	0xbfbe4e9b4018524d	-0.11838693919009664
110	0x3fb6782167f95e1e	0.08777054584913244
111	0xbfc10014f1cc23b5	-0.1328149967814888
112	0x3fbab4e2b3fe06fc	0.10432259458869092
113	0xbfbc0239cba54faf	-0.10940896245784758
114	0xbfb19a8e0a7149f1	-0.06876456980652514
115	0x3fb837c9b9b6b783	0.09460125717188643
116	0x3fa7fb00a9151d18	0.046836872711134514
117	0xbf985cd006dedbe4	-0.023791551989884044
118	0xbf9d8194d5c6935a	-0.02881462626250495
119	0xbfcb6b48181edc12	-0.21421147516022693
120	0x3fc0fc4746c5afc1	0.13269892650293794
121	0x3fc15fad5dc254f4	0.13573233678895458
122	0xbfc7ce356f89936b	-0.1859804911247481
123	0xbfb740ab4baac721	-0.09083052251187641
124	0xbf96d52376dad041	-0.022297433976476325
125	0xbfaf8b4aa0dfebf8	-0.061609584939979756
126	0xbfcdadbb8f6a1c58	-0.23186439993534935
127	0xbfb0c160548a2ea1	-0.06545068801841093
128	0xbfd068c70d3bac55	-0.2563951138715244
129	0x3fc26918579ea0f1	0.1438322475271501
130	0x3fbcf489b2d94c1a	0.11310635200906952
131	0x3fb7799b71baf94f	0.09169932867641716
132	0xbfbce4d41a0bdc33	-0.11286664615532586
133	0x3fc92c01afe7b2e8	0.1966554745589726
134	0xbfb943e554fb1821	-0.09869225811698402
135	0xbf986da5e5b2d8b8	-0.023855774063769458
136	0xbfc5e000e1c9c366	-0.1708985426407949
137	0xbfb037ef552b4280	-0.06335349873848806
138	0xbfa64dae95276f3b	-0.04356141634681739
139	0xbfc39692d58b77d6	-0.15303264071456962
140	0xbf854b7d1d55a3ed	-0.010397889573782815
141	0xbfb4643378dfd991	-0.07965394688640105
142	0xbfd1733c6ba36c60	-0.2726584483295422
143	0x3fc56aa4e608dfd3	0.1673170207229747
144	0xbfaa6b53c2790ef1	-0.051600091447225334
145	0x3fbe638dc3390779	0.11870656982594409
146	0x3fc38ad6adcbd25b	0.15267451749936609
147	0x3fbb931b32ff5991	0.10771341319136797
148	0xbfd1c811964431de	-0.27783622431232213
149	0x3fcd2a9ecd52c1db	0.22786316896009748
150	0xbfd03d856d7a2fd8	-0.25375495616094446
151	0x3fb85dcf1ae5f4d0	0.09518141180702178
152	0x3f64bf40abd15c20	0.002532602606645465
153	0xbfc01662f1876d53	-0.12568318169983658
154	0x3fb0be6892431a85	0.06540540285923598
155	0x3fb84145e68c1ed0	0.09474598768803877
156	0x3fc0e3d1c4e61af8	0.1319524966640626
157	0x3fbce546d6a734ed	0.11287348499827816
158	0xbfbfb6b5278616fb	-0.12388164725242838
159	0xbfb08ea2b58b94c1	-0.06467644626862336
160	0xbfa6ef16bed7af16	-0.04479285316105412
161	0xbfc537b0e62e6f09	-0.16576205481839448
162	0x3f80335891b83082	0.007910434672361303
163	0x3fbfc5a8f1b0bfcb	0.12410980129857234
164	0xbf96907b3fc223ec	-0.02203552796030188
165	0x3fc247e6ec01c239	0.1428192760827345
166	0xbfc92cba9fd5f580	-0.19667752079469025
167	0xbfad4e628b29f036	-0.05723865460183257
168	0x3fa6a0dd04de7e47	0.044196040005087193
169	0x3fc3c127db269223	0.15433214379039936
170	0x3fc286eafc6e58cb	0.14474236798986903
171	0xbfb81faa034776bf	-0.09423315601403724
172	0x3f86b3b191d2fa01	0.01108492590207977
173	0x3fa4aa617f03bd9d	0.04036240268203104
174	0xbfa2e0448a467ce6	-0.036867277030290954
175	0xbf6cf80ef0aa4260	-0.0035362521933353513
176	0x3fc58ff9e553d3b7	0.16845630357388838
177	0x3fc3e60e06defd6f	0.15545821509838784
178	0x3fba4aef44278dc7	0.10270591176918407
179	0xbfad2ff861113ea6	-0.05700660881904911
180	0xbfc9e24c7819d746	-0.20221858848861468
181	0xbfaa83570417243d	-0.05178329396182633
182	0x3fa8d453ec1fafd0	0.048494932721808603
183	0x3fb8c28ed7e79e23	0.09671871920692658
184	0x3fb88a3fbb502828	0.09585951159547845
185	0x3fb8572263131f92	0.09507956427398614
186	0x3fc109279d9dd22f	0.13309188076131437
187	0x3fa0468a88cf569c	0.03178818626444732
188	0xbf91ddcbd414d3ca	-0.01744764787618517
189	0x3fa670d102ffc489	0.04382947122201936
190	0xbfac2edf797ed269	-0.05504511221025583
191	0xbfbec91d34ceec56	-0.12025625743165
192	0x3fc4d2837b5e9e2d	0.1626743652716284
193	0x3fb227b6c5e74e4a	0.07091848689679484
194	0xbfb820d1c1bdb9ac	-0.09425078372962642
195	0xbfb24d67702d0774	-0.0714935921542102
196	0x3fc767960f09b64e	0.18284869894289318
197	0xbfb1ca2bc999fbe7	-0.06949113532935734
198	0x3fb9dc4fca28126e	0.10101793942892254
199	0x3f9fd9a53e328d8a	0.031103689118606982
200	0x3f7e94a7949b6244	0.007465986834823971
201	0x3f9a6430d41ec1b5	0.025772822329317175
202	0xbfbae729753bc7e2	-0.10508975135942891
203	0x3fbeb3d1ac397725	0.11993132071208075
204	0x3f984c627895558e	0.023728884324858472
205	0xbf8ea58daf01f4d6	-0.014964205649670975
206	0xbfc029f4bec29b9f	-0.12628039659940968
207	0x3fa8c69a339a5bab	0.048390215682210545
208	0x3f746ef1d9c8c6e0	0.004988617638945064
209	0x3fa9262c3b26189b	0.049119360180200654
210	0x3faa0a5f90305689	0.050860391951727264
211	0x3fa8027d72e31beb	0.04689399745398489
212	0xbfc7ed8218d9cc4f	-0.1869356747953099
213	0x3fd4c2814b01694f	0.3243716461635317
214	0xbfcaf46015002239	-0.21058274293342708
215	0xbfb2d98c07f86008	-0.07363200373254142
216	0xbfa78447e74d4dbf	-0.04593109797010752
217	0x3fb84269fc171758	0.09476339726014993
218	0x3f99dbab30695c06	0.025252032117659716
219	0x3fc34fcee84c169b	0.15087305395734493
220	0x3fb69227ba5ed27a	0.08816765117701122
221	0xbf8a20376c64e012	-0.012756760592864711
222	0xbfb66d75d422e52d	-0.08760773114308469
223	0xbfb9b7c4195d6a24	-0.10046029681453966
224	0xbf96003b571571bb	-0.021485259237452797
225	0x3faa3c06470907c5	0.051239200755403704
226	0x3fc79e86dbc40d3b	0.18452535372498766
227	0x3f97923e2742effd	0.02301880945809386
228	0x3fb77279c6d38d02	0.09159051040801461
229	0x3fb12ac88f64367b	0.06705907345550514
230	0xbfad02c23ff00000	-0.05666167288291035
231	0x3fcb889907a982de	0.21510613321426936
232	0x3f42ebbf5124648f	0.0005774196781970375
233	0xbfb34190f4a1b389	-0.07521921131565369
234	0xbfa48a0901a916c1	-0.04011562485952203
235	0xbfb29b09027ab4d9	-0.07267814932375262
236	0xbfc4e0bf3c376abe	-0.1631087345147843
237	0xbfbadc9fff89863d	-0.1049289702291611
238	0xbfa968e1c60ec7a9	-0.049628310610742084
239	0x3fb97f002f680657	0.09959412724858772
240	0xbfb92633c0846dd0	-0.09823916864518556
241	0xbfcabd0ee501c904	-0.2088945978353608
242	0xbf9296fbd3db93f4	-0.018154082113046102
243	0x3fb73713dff55740	0.09068416803105794
244	0xbfbb845761e4d8c0	-0.10748811855305274
245	0x3fc75ff801b024f9	0.18261623461174972
246	0xbfc6243eec2657c1	-0.17298113375426108
247	0x3fc27225c8b92763	0.14410850811901374
248	0xbfb8ea60ae7c6afc	-0.09732631931221286
249	0x3fbd134fc03df3b9	0.11357592051895339
250	0xbfc8c840e68002d8	-0.19361125235447818
251	0xbfc7bb507dd13b65	-0.18540388244079078
252	0x3f95a2fd8dbd7f2f	0.02112957170118007
253	0x3fa0c66752d749fa	0.03276369940035191
254	0x3fa6af6276b020d8	0.044306828487664596
255	0xbfb7ef4930e89e20	-0.09349496311244154

block.4.bias f8 [60]
0	0x3fa97f7fa7d8514c	0.04980086254014057
1	0x3fb13bc9548669dc	0.0673185187683098
2	0xbfb65094070cb34e	-0.08716702625379222
3	0x3fa229bdbb6c1990	0.03547470963353583
4	0x3faddac0f737b0a2	0.058309583833620296
5	0x3fc0d9bda9c045bc	0.1316449240553491
6	0x3fbd1d846bf27866	0.11373164782932718
7	0xbfa5e099de6ab9a5	-0.04272919502305975
8	0x3fbb8e9b6ecd1ac2	0.10764476256472746
9	0x3fba7db427d4c88f	0.10348058674279258
10	0xbfc0c4b81a88c360	-0.1310033921777416
11	0xbfbaed0aa14b0ad2	-0.10517946660824443
12	0x3f89c4350da374f9	0.012581266859735584
13	0x3f985430d406a4df	0.023758662167584595
14	0xbfa796ef4470ad28	-0.046073414902219334
15	0x3fbe538f7361d2a0	0.11846252982088368
16	0xbfb2b83fbdeab6c2	-0.07312391649858355
17	0xbfa710d3ac66d321	-0.04505025367271843
18	0xbfbffa42a44da625	-0.12491241942702709
19	0xbfafe1db514a84b2	-0.06227002494166224
20	0x3fbde8db96b28847	0.11683437756667657
21	0x3fbe6635ff3ab560	0.1187471149557573
22	0x3f8b0bb9bbb5529c	0.013205958405401667
23	0x3fc373b09fa14bfe	0.15196807665287787
24	0xbfa1b026402bd092	-0.03454703839625596
25	0x3f7d006feec72c2b	0.007080495106900601
26	0x3fb6b982bf849e9c	0.08876816917165303
27	0xbfb001e0d3068a74	-0.06252865936270685
28	0x3fbbd4ccf56d9291	0.1087158297719475
29	0xbfa7eefd21a30000	-0.046745214801831025
30	0xbfb1bf9b37fc8275	-0.06932993046621923
31	0xbfbd0b64c2c0c3dc	-0.11345510248862872
32	0xbf9caeb9e4d9ce09	-0.028010277359909384
33	0x3fb9145f03120f0a	0.09796708893741993
34	0xbfb5246a69ff900c	-0.08258690917824668
35	0x3f812ec1c3621638	0.008389962935562698
36	0xbfbc56b6d6c0b17c	-0.1106981539057354
37	0x3f94d894a5120206	0.020357439589590264
38	0x3fbc85495e5e13a3	0.11140879205602387
39	0xbfa5b2594d7298cb	-0.0423763186493474
40	0xbf9226580d6ac1f2	-0.017724395579252268
41	0xbfb839b1e9258a40	-0.09463035528237018
42	0x3fc1556fdef2478e	0.13541983018927478
43	0x3fa3722dfe1fa511	0.037980496664952075
44	0x3fb7704fdd2be6f0	0.09155749463743823
45	0xbf941076d7e1bd0d	-0.019594056059244958
46	0x3f9343eb6d352c27	0.01881378034640249
47	0xbfb8aca16eddab5c	-0.09638413387953676
48	0xbfb5b198c8580755	-0.08474116221625867
49	0x3faf30bfc2df71f0	0.06091880086725954
50	0xbf94d0e93d60dae2	-0.020328182574497762
51	0xbfba04c5bd71e319	-0.10163532137984212
52	0xbfb346c1cde45468	-0.07529841686876326
53	0x3f9c091bd2cd418a	0.027378496877021465
54	0xbfc2219c2a4e76b9	-0.14165069642779374
55	0x3fbdd9c13348ef33	0.1166039228637004
56	0xbfb02f92c26df5bb	-0.06322591063322751
57	0xbfa8ab1d63e2657e	-0.04818050236026304
58	0xbfa9b5de78f20289	-0.0502156756056183
59	0xbfb284bc8d734d69	-0.07233789876345544
