JupyterLab/best_model_M2_104.pt (torch, 127885 bytes, 12 tensors)

block.0.weight f8 [60, 12]
00000000: e72a 75e3 6db4 ce3f ae18 d93e d323 b23f
00000010: 3a2e fec3 33ae c0bf cb20 1f27 aa9e d1bf
00000020: 0194 f9b2 9b18 a7bf 79de 2184 c7d4 d2bf
00000030: e72a 7583 e1ef c53f 3a7a 1aff baf6 ae3f
00000040: 4d4b 3945 70ce d5bf ec9a 41ee 8f03 c33f
00000050: 40c1 9d30 81e4 a33f 6802 0045 29f2 d13f
00000060: 1d42 d74a f92a a1bf f717 2409 faec d13f
00000070: 169e 99da 16a6 d9bf fab9 be4e c67d d0bf
00000080: d115 f0e3 cb05 a3bf 1fb0 9593 8d38 9ebf
00000090: cf5e 941e 2eac b43f d484 1abe 244e d13f
000000a0: da65 e51a d573 cb3f ac05 fc98 fdf3 c0bf
000000b0: ceb2 7fb9 407c c4bf 26d9 e706 662e bbbf
000000c0: 9c0e 0854 4869 cf3f 257f a2df 8db7 a53f
000000d0: 82a8 d310 e194 95bf b7fb 1e33 aa4c afbf
000000e0: 38c4 0359 1d6f 743f 9c5a 3ace 9b9c b23f
000000f0: 65f1 f72b c53d ccbf ad2b 5094 7444 d4bf
00000100: 30aa 84b7 f8e4 d03f f7f0 9bfa a508 d3bf
00000110: 6a55 85e2 e7ce c93f b4e1 4c11 b476 d0bf
00000120: 7c66 59f6 b184 cd3f 69a5 86b9 880a b4bf
00000130: 72e7 bab0 9f82 c0bf 7a69 e6ca cc77 bbbf
00000140: 0380 48fb eb39 79bf db1d 9b24 7cd1 bebf
00000150: 8699 a629 d405 c0bf ab98 5aa9 cade d0bf
00000160: b8bd bc2d d423 613f e0ff 21cd bb30 51bf
00000170: ef54 ccc3 f355 d2bf 48be b8c4 13a8 d0bf
00000180: 7e07 48d1 5dea afbf 61a7 0faf 6a09 d03f
00000190: f4ba 0465 cea4 cebf 32f0 78c1 c412 d43f
000001a0: 0fe0 6cdd eb60 c9bf 0e25 58f3 ea0c c23f
000001b0: 88f8 b736 f537 a13f 7150 7836 3ac3 d43f
000001c0: c41a 9e08 6fef dbbf e03f 26e5 1b40 b63f
000001d0: 7b96 d24d ea16 b13f 67a9 602b 4bc9 ad3f
000001e0: 6103 bc63 4bf5 c7bf 8ad5 423e d624 cf3f
000001f0: e8c7 63f5 cba9 d33f 9e70 5fbe 0685 a1bf
00000200: 8cde 37e8 2862 b4bf 8351 5464 7ce0 b43f
00000210: ab38 ff10 0a5e 6d3f f596 80b4 969f cf3f
00000220: 0edf 3ff9 6680 b23f 2508 f2ed 0eb6 d23f
00000230: a0ee b874 bbb7 cbbf bdad 1457 633e c13f
00000240: 1d0f 57ed 6b76 ce3f 3c02 6ffa bda5 d23f
00000250: 19c3 88c1 8c7c 8abf d882 3b17 8d3e 6d3f
00000260: 46b0 fe68 fdaa c63f cc26 75b5 d2bb c73f
00000270: e3f0 a892 4d17 c1bf 90dc 9b7e b0ee c63f
00000280: 850a 79e5 5ae0 ce3f c960 fd71 a95f ba3f
00000290: 4975 f543 1145 c7bf 8831 c618 c407 d2bf
000002a0: 0723 c023 6f25 c33f 9e9d 238b 2afa c7bf
000002b0: 4471 0215 029b cfbf 223b f782 ef40 b9bf
000002c0: c183 27e8 5a1b c3bf f569 53a2 8362 d2bf
000002d0: 0723 c0a3 524b c83f 8558 af92 edc8 bb3f
000002e0: a4c4 dc64 b648 d03f 3f7c d8f7 a658 cf3f
000002f0: e9c5 03f6 a56d 9a3f 485b 48b3 9c1c c13f
00000300: 19a8 fd31 fe75 c1bf 437e a043 4df8 a43f
00000310: 3e5c 76a6 683c c73f a561 6684 ee58 ce3f
00000320: 8a61 fb0d f92a 99bf 1f73 a613 1593 ae3f
00000330: 20a8 fdb1 5f7f c4bf b667 21be 0d65 c9bf
00000340: 609b c358 ef7c d7bf c327 816c a453 b33f
00000350: 0d0f 0522 020b cabf ef70 ea5c b077 d13f
00000360: 6782 7a13 80ba acbf 888d 50f0 5cb2 b4bf
00000370: 7b4c 5ca8 a00a d3bf 7bed 316b 6309 cbbf
00000380: f7bc 4c80 7925 b1bf 5186 edd0 79bd 9b3f
00000390: 6e5f 21bb 10ef c43f 2d8c ea70 6577 cabf
000003a0: c4db b82a 0827 d4bf 845e 2610 8051 c8bf
000003b0: 41a4 6dda 9921 c73f 8ded 5221 7618 c7bf
000003c0: 43f7 6774 35b5 d03f aae7 1086 f189 c9bf
000003d0: cdb8 73c7 6451 b23f 7006 8fe3 da51 903f
000003e0: 5e82 ea0d cebf cabf 6eac 9b2d b5e3 b8bf
000003f0: 3cb8 3fa3 a287 a63f 56c7 9986 97f6 b6bf
00000400: 1109 85a2 c346 dcbf 9404 d5fb 6ca1 bcbf
00000410: d45d f8a4 2bb3 c6bf d289 d434 591a c83f
00000420: e9ae 1604 a999 85bf b597 8ae7 e443 c93f
00000430: d5fa 4edc 7ff8 b7bf 5c8a daeb 8a81 c23f
00000440: ae41 aad5 1d49 ce3f 4bac 80d5 c1c9 b63f
00000450: d46a c1bf a60a c6bf 8c92 5877 7f12 d2bf
00000460: 1514 207f 3a75 b4bf e420 d59a 82be d23f
00000470: 0473 b030 b857 cfbf 41f5 5075 0515 bc3f
00000480: a5c6 6cd4 2280 d7bf 8bed eeb9 0d5a c8bf
00000490: bf0e 347f ce52 b9bf 00b7 6b0d d1c5 c63f
000004a0: e420 63ba 8dfe bcbf 5a43 d3ab df62 bdbf
000004b0: b2c6 6c84 690b d2bf bf3b bb86 6b64 d2bf
000004c0: e6bf 3dab 90ee af3f 996f ce22 486d c43f
000004d0: 841e 2978 179a afbf 5564 39cf 8c60 b4bf
000004e0: 7f74 e30d 3ebf d3bf 1e65 d2a3 e430 af3f
000004f0: 5533 203d c2f9 cbbf c768 045e 7591 9dbf
00000500: 38ae 73ca f135 cbbf 6622 b35a dbca c0bf
00000510: 7e74 e3fd 8d35 d3bf e7ab a7f4 6f26 b63f
00000520: 0436 3d1a c1b7 97bf 38ae 732a 73bf c5bf
00000530: c110 b370 c2e9 d4bf e918 df4f 3809 c03f
00000540: baa7 f9fc cb06 bf3f d1bd 53d5 e1c8 b5bf
00000550: 30c5 3dbc 4461 b7bf f9f5 f23b 695f d2bf
00000560: a629 ba3c 2c47 bb3f 2353 195b 7bb9 d33f
00000570: 0296 c180 0149 d1bf 5620 0c3a d13d ad3f
00000580: b653 39a2 6533 c6bf a629 ba3c 177f b93f
00000590: b0bc 7069 f0cd babf 4b2f 6968 ddfb b1bf
000005a0: 66ab 608d 0c4c b2bf c0e4 2874 6038 d33f
000005b0: 1153 83e6 46cc b2bf b7ac 8aa9 999c c1bf
000005c0: efa0 d308 e073 ab3f 1c03 4e80 f315 a93f
000005d0: acad 8275 5834 97bf 8bf1 5ee7 90ac 92bf
000005e0: c018 cfe1 fc95 d3bf eda0 d308 e1c4 a33f
000005f0: e676 af66 60b1 ba3f 60bd 0756 0ddf c2bf
00000600: 7cd1 59fc 33c2 c3bf 4077 1704 faa9 c13f
00000610: 6464 b400 ecd8 c83f 6fcc 41ea d396 b13f
00000620: b50a 5ef4 48f6 d5bf 8a52 6388 3c14 c23f
00000630: ba45 6771 3d36 a2bf 1833 2de9 9480 a43f
00000640: bad7 3e10 c07f a33f 2d2a 7851 9255 b4bf
00000650: 936d a022 fb94 b2bf bbeb 17a1 c90e d83f
00000660: f314 46d0 cc7a a9bf 2498 0f1d a7f0 c2bf
00000670: 5d30 e50c 336e 963f d1d6 57da 0243 c6bf
00000680: 7312 de4c 71cf c8bf 1281 1cce e59a d6bf
00000690: a50a 23b0 a824 b5bf 5961 72d7 d783 d03f
000006a0: 6e1e 5c53 395f cd3f c124 bc59 6585 b4bf
000006b0: 1730 4647 da50 d83f 4fa7 c43d ce33 cebf
000006c0: b867 3c92 14b1 a0bf e536 1fbe 49a5 d2bf
000006d0: d03d 1036 20f0 d33f 8375 2b01 1b02 d63f
000006e0: 5385 473a e037 c1bf 6be5 f79a f99f c9bf
000006f0: 12cc e11a dab8 bf3f 1726 669c c72c d33f
00000700: 1cc2 ad95 2c92 cfbf 5285 477a 35b5 cdbf
00000710: 69d7 b996 ab2c b93f bf61 384e 137a c5bf
00000720: 76ea ca67 9f38 69bf f307 8d46 52dc af3f
00000730: 3330 ebd1 48c9 c7bf 2c9d 0344 2855 d4bf
00000740: cf8e c890 f0a4 9bbf 291b 4d36 6148 d23f
00000750: 5f51 8391 45fd ad3f 94f9 d7fb ba2c ba3f
00000760: 8ab6 4aa3 431f d23f b523 320c c136 b5bf
00000770: 8f1a c082 85f4 c1bf c5d4 18aa f26c ccbf
00000780: 5a3f 8a9d 4fd1 c23f b1cf 1ff1 bb7f ccbf
00000790: 1655 ba96 932d d13f 7997 712e f2a5 d4bf
000007a0: 426e f5d3 5900 ccbf 7594 7fef f844 c3bf
000007b0: 31e0 3ae1 110c d0bf 94cd 9dcc 7ac2 b83f
000007c0: cb5a dab3 371b d53f 1346 2a50 ca10 aa3f
000007d0: 00ac f9a3 46ad b1bf 1892 5480 348b c63f
000007e0: 1ec4 5dd2 a3a2 c0bf 4952 03c5 e66a b13f
000007f0: 32fe 61c9 cc10 be3f 61f6 8adb 8692 d43f
0.23988126379329985 0.07085914883018304 -0.13031622953381988 -0.27530912228077103 -0.045109620664142376 -0.2942370214800359 0.17138308447677916 0.060476153984599226
-0.3407250095380519 0.14854621060950224 0.038852727112387075 0.280405347235535 -0.03353098906120897 0.28008891003298636 -0.4007622847334188 -0.2576766747469318
-0.037153598379557125 -0.02951260770116459 0.08075226065227102 0.2703945023041119 0.21447242558751506 -0.13244600267357265 -0.16004189546165154 -0.1061767355784907
0.2454004679021765 0.04241603236118711 -0.0210757414360292 -0.06113178133045188 0.004988779677874304 0.07270215782987538 -0.22063507697010745 -0.3166781853075758
0.26397531434728005 -0.29740285371350644 0.20162676392161966 -0.2572450798939159 0.23061203507204542 -0.07828573731844347 -0.1289863217296517 -0.10729675248732021
-0.006158754160907168 -0.12038398641299557 -0.12517787965516564 -0.26359812296358126 0.0020922798265911834 -0.0010492166516371457 -0.2864961063472284 -0.2602586194143197
-0.062334949299851936 0.2505747518140336 -0.23940448696654182 0.31364554303923164 -0.19827030479223182 0.14101921922728206 0.03363004963829136 0.3244157344754575
-0.4364888748317919 0.08691572517841406 0.0667559089657405 0.05817637352477583 -0.18717329377980277 0.24331167259303427 0.30723856891483914 -0.03421803544890277
-0.0796227995814382 0.08155038308570366 0.003584880505491735 0.2470577603682426 0.07227176270668798 0.2923619579015642 -0.2165445632871199 0.1347164321135618
0.2379889401328165 0.29136609512719125 -0.012932872444339648 0.003569865768313068 0.17709319712355603 0.1854194055579711 -0.13352365170602018 0.1791592233855437
0.24122177319266683 0.10302218468621328 -0.18179527109433938 -0.2817239992080194 0.14957989926940504 -0.18732196611311464 -0.24691797281128391 -0.09864708850294027
-0.14927231155072998 -0.2872628293240774 0.18979866977340284 0.1085346682660618 0.2544380173668037 0.24489295102918793 0.025808900013492595 0.13368567232165618
-0.1364133590789727 0.04095689249538428 0.18153102996868314 0.23708898033943374 -0.024577990988150535 0.05971589913244756 -0.1601371401878291 -0.1983964136477973
-0.3670004240834057 0.07549502991710626 -0.20346094761963976 0.27293023179824066 -0.05611038434768006 -0.08084660403306121 -0.2975236553331297 -0.21122400983936615
-0.06697806722944565 0.02708998048490791 0.16354569565987326 -0.20676868451582334 -0.3148823182304421 -0.18998719013756127 0.18071292081302384 -0.1804340040888345
0.26106010787758666 -0.19952220007126914 0.07155446881708656 0.015937252177315064 -0.20897842101568903 -0.09722454417685508 0.044003565242619364 -0.0897001937499032
-0.4418191039186619 -0.11183816097492844 -0.17734284930405286 0.18830409125901199 -0.0105469898579353 0.19738446527224843 -0.0936355507719598 0.14457832828800832
0.23660633976807105 0.08901607000795868 -0.17220005381644532 -0.28237902312165697 -0.07991376498837639 0.2928778183018166 -0.2448644864788535 0.10969575990835258
-0.3671958040677999 -0.19024821833395963 -0.09891977887678659 0.17791188388167 -0.11325918007344488 -0.11478994317009264 -0.28194654399986085 -0.28737915189133995
0.06236698236796183 0.1595850152924612 -0.061722501199764884 -0.07959823664840944 -0.30854750973032447 0.060919899938378416 -0.21855953201920877 -0.028875192511897987
-0.21258375535340845 -0.131190699851021 -0.30014371675299134 0.08652400706311845 -0.02316190455103674 -0.1699050862583691 -0.32676754957016035 0.12528137111639318
0.12119746137764667 -0.08509646852666398 -0.09132794948324796 -0.2870734296264739 0.10655476076696022 0.3081959142339647 -0.2700809247383803 0.05711225350938835
-0.17344351216402537 0.09959550125691993 -0.10470488142230994 -0.07024940299123476 -0.07147291614152848 0.3003159651157823 -0.07342951896437123 -0.13759156015780658
0.053618432118868735 0.04899559918613347 -0.022660619900006715 -0.018236412164456744 -0.3060295300641762 0.03861144287822236 0.10426905161827058 -0.14743200970358838
-0.15436410734004002 0.13799977493084192 0.1941199305954654 0.06870769948163667 -0.3431570421600257 0.14124256763047455 -0.03557006844824735 0.040043500389037756
0.03808403204258988 -0.07943071831702105 -0.07258576960923895 0.37590256435185737 -0.04976501505283606 -0.14796914023389818 0.021904752409043094 -0.17392001782689318
-0.1938306451157988 -0.35320420387326223 -0.08259062099663568 0.25804706611372336 0.22946850366882948 -0.08016045990747768 0.37993485412948885 -0.2359559823610717
-0.03260101590258507 -0.29133838240237103 0.31153111724503635 0.34387850870356135 -0.1345176968161846 -0.20019455019773189 0.12391436725901908 0.299608137830178
-0.24664838131458644 -0.2320925566737438 0.09833786420662495 -0.1677879459318898 -0.0030787576091289527 0.062227793800516816 -0.1858302140229867 -0.3176975883674966
-0.02699638255775377 0.2856677084241022 0.05857293511658911 0.10224503181959782 0.28315821596593393 -0.08286673114538597 -0.14027470478341228 -0.2220748262931577
0.1470126647222923 -0.22264813684125564 0.2684067699386373 -0.32262854133147517 -0.21876070832773747 -0.15054237074142277 -0.25073668475261274 0.09671752448575993
0.32978622974171107 0.050909349714071926 -0.06905023101141694 0.17612320200090958 -0.12996337672987662 0.06803743657958096 0.11744384686061762 0.3214432853672858

block.0.bias f8 [60]
00000000: c35d 9f67 f2d3 cc3f da5d fd17 01f7 ce3f
00000010: 37e9 5cdc 2c47 ba3f e9d7 84bb f91a cd3f
00000020: 7c9a 642c 838f c33f 2729 dbb4 801d b43f
00000030: b8ec ca4d 8a0d ab3f d61f 786d a59a c93f
00000040: 5222 dc96 8b77 8b3f 696f dced 10fd c73f
00000050: 11d4 a967 3420 a9bf 6c6e 0476 ffb8 c7bf
00000060: 3755 f0ff df99 a6bf d3ef ebde 2cf9 c33f
00000070: 7692 9843 89f4 cc3f 90c7 4336 06f5 aebf
00000080: 9c56 1e84 e5f0 863f eecf defd ffae b43f
00000090: 4803 76c6 0c42 a63f 95ba 9917 14bf 953f
000000a0: 8a81 5d75 9bbb ce3f 1c1c a049 be92 ae3f
000000b0: 398c cba8 cf3e bfbf cdae b7d1 5b32 913f
000000c0: 010c 9707 210e cc3f f6d1 2b18 0086 c23f
000000d0: f458 046a e12a 973f 9df5 4e7a 1d46 bcbf
000000e0: 699a 1590 c12f bcbf ec8d 309d cc5f 88bf
000000f0: 1285 59da 4bb6 8bbf b66a 8d29 dcc6 c7bf
00000100: fe3f e172 142b c63f 77fd e28a 30d6 9c3f
00000110: 8bd3 9cdb 6ae7 8dbf cee1 2b52 8423 c7bf
00000120: 5abf 01f5 5ace c43f b6cf abcb fe08 c43f
00000130: f98e 6dff c5de 9cbf 7ab4 386c 9d68 94bf
00000140: af56 ba88 ed1d a43f 130e 25d2 4624 a8bf
00000150: c849 ca32 1b82 893f 5bde d242 a4ce c13f
00000160: c65d 13d7 6d2c 903f 763f ed56 7644 8d3f
00000170: 5b2a 8639 f806 993f f7e6 4ba4 880c b53f
00000180: da3f 2984 d1f8 ccbf 26ac 724d b3e9 b63f
00000190: 8d16 9c14 5a4b 9e3f fd4d 4f2c 7afb 933f
000001a0: 3e1f 5a4d a762 9ebf 3d54 8039 e566 c13f
000001b0: fc5f 0fd4 ecb3 bb3f 227b 1753 dedc c73f
000001c0: 95c3 1c6d d83b c33f 4b55 2e61 036c c0bf
000001d0: b415 c0e2 ff7a ae3f 858d 7376 bf0b b3bf
0.22521810588544441 0.24191297217724533 0.10264854793505128 0.2273857274646496 0.1528171507608994 0.07857517638618515 0.052837678905654994 0.20003192753961113
0.013411608258608574 0.1874104653769522 -0.049073827413771316 -0.1853331876999279 -0.04414272307637151 0.15604172596783758 0.22621265221200176 -0.06046313679134052
0.011201661199986383 0.08079528759009211 0.04347267077083089 0.021236719074688343 0.24010031920171243 0.059713312613944164 -0.12205217238401724 0.016793665576115658
0.21918118353468688 0.1447143667243293 0.022624513717425423 -0.11044487224622519 -0.1101037003296398 -0.011901472613380336 -0.013531296349528908 -0.18575622586179968
0.17318969354028008 0.028160818554849833 -0.014601549937290922 -0.18077138912464225 0.16254746402000358 0.15652451462631028 -0.028193563189588187 -0.019930324297253034
0.03929083150903289 -0.047151768829760375 0.012455189216130771 0.139118702534449 0.015794483425308113 0.01429073765544307 0.024440649519912188 0.08222249995369767
-0.2263433356588383 0.08950348511523085 0.029584319599072862 0.019513997034506392 -0.029673208328431892 0.1359526186721797 0.10821418931243437 0.1864278703423788
0.15026383712531968 -0.12829630131879308 0.05953216212223414 -0.07439800874595022

block.2.weight f8 [60, 60]
00000000: 236f 6132 908e b23f 9851 7f62 66b9 b9bf
00000010: 00fd 6be1 9d3c 923f 1129 8610 051b a93f
00000020: d05b b537 d205 b23f 903c 3fb3 375e a43f
00000030: a1c4 b92d 8fe0 bf3f 12f8 40ef 30fa a53f
00000040: 49d8 dfde 34d3 aa3f ce43 39ee 9e84 c23f
00000050: 0e3f 85c2 5694 a1bf f18e 00f4 e5e6 a4bf
00000060: 7ff6 8ec4 e17c be3f deb2 0cec 6d28 b13f
00000070: 841b 4e78 2158 c03f d3ec e25f f774 b4bf
00000080: c5ae 371e bafb 6a3f e0a1 e56d fdd4 7b3f
00000090: b865 259e 20ff babf 1513 137b c9cb b03f
000000a0: 267d f4ce e798 b7bf a478 6b9d f344 adbf
000000b0: 794c 7271 de57 a6bf 8530 4b07 12b7 9d3f
000000c0: 451e 5f53 a3b9 95bf 791e 53b5 3205 b4bf
000000d0: 314f c41d d711 963f 000d 6ffe ad55 bf3f
000000e0: da52 0afd 5d9d b7bf e075 1ebe bebe bfbf
000000f0: a399 6b3a aeaa 953f 0cc4 1024 a9a7 a23f
00000100: 56b9 094d aa25 98bf defc e587 81eb b0bf
00000110: 479c e3e1 6e35 bebf 828b 2cff 3277 9bbf
00000120: c86b 71ad 2e0d a9bf 90ba dbac ae9c c43f
00000130: 198d 8dce 57f6 a53f 0cac 4d8e 77c6 c43f
00000140: d817 267e ba69 c73f 3657 c2d3 0e8f b93f
00000150: 0dcf d36d f1e8 7e3f 36bd ce8d 21ba b33f
00000160: ce39 653e 972c 9c3f e456 e64e cd03 b83f
00000170: bd1b 6129 ac47 aabf e1d6 e833 cb5b a93f
00000180: ac26 f999 2b6f ad3f eb92 f93f 3c2f c7bf
00000190: 9b6f 07c9 3111 b73f 9805 76ea 4570 873f
000001a0: f3fe 6564 fb0a bebf ef48 2392 a019 a7bf
000001b0: ccc3 ac4a fff9 b73f 7212 52b0 ba93 b7bf
000001c0: 863e d3cd a5f8 a8bf 131f b56d 4912 783f
000001d0: 1722 a2d8 20ce abbf 0819 22aa 7345 c9bf
000001e0: ce56 eb3d b2c6 87bf b39f ea07 ddf4 a9bf
000001f0: d8ec 07b7 f86d 923f bc80 e685 665e 9d3f
00000200: 46b8 5581 db78 a8bf 76e3 fe52 99ce 763f
00000210: 1ae6 b51e 5519 ae3f 4bac 7363 73d6 b23f
00000220: 7fa6 6936 e400 2dbf 92bc c6ab faf9 903f
00000230: 2a80 1641 0608 a6bf cf31 168f 1cb4 a93f
00000240: 6e97 d216 a7e9 b9bf 3a55 bf4b ce95 b1bf
00000250: 124c a3d1 03d1 8d3f 4e16 dc7c b863 81bf
00000260: 11cd bea1 7c4a c23f ff79 8bde 6197 b43f
00000270: 708f 4507 6a2b c0bf 5555 bf14 0272 b9bf
00000280: f2fd 136c bf56 c03f 73df e465 1cf5 bd3f
00000290: 3822 94df 2248 c03f 0bd5 ebc5 1272 c5bf
000002a0: 7d36 942c fc01 9ebf 8932 64ae 9b84 c1bf
000002b0: 0591 ec7b f2d1 ad3f 128c a9ef 263f b9bf
000002c0: 4641 46fa 2013 9f3f 0564 f52a f96d b83f
000002d0: f18b 6274 670f a83f 91ea 11c2 ff39 90bf
000002e0: ee72 ff3b 33a5 c0bf fb54 202c f2c4 b93f
000002f0: 3edd df68 fa71 c73f 8002 bd2c 1a19 a9bf
00000300: ff20 9f7a 3b17 cbbf e43c abb6 04e1 b0bf
00000310: 771b b42a 5b20 afbf ea3c a51d 20a2 a33f
00000320: c1c8 497c d762 b3bf f6f1 ce28 7ae5 923f
00000330: 4f00 aa9e 4dbf aebf ca79 6b3a f05f 9fbf
00000340: e3b7 9480 457a b4bf 4bea 2eec 9487 bd3f
00000350: 114a 3d85 8b83 bebf 0f0a a4f7 c1b9 b73f
00000360: bb71 4406 783d 86bf 2e1e 3517 7c18 72bf
00000370: 8fe0 174c 55c2 b83f 7881 f63b fadb 7fbf
00000380: 2fab 555f 64c8 bebf ae25 8a19 3a7e c03f
00000390: 0e4d 7190 4785 b6bf b8aa e57d 3a64 933f
000003a0: 2448 3235 665f 9ebf 29a1 762c 64c9 b0bf
000003b0: b8c1 711b a626 c93f 74ee 4b97 e1d8 a7bf
000003c0: c150 1637 340d bc3f 2382 913f 45cc bd3f
000003d0: 35f3 85c9 6274 c73f e779 a362 0c65 ba3f
000003e0: 17ff 9b4e b50f 93bf b92f dac5 db74 65bf
000003f0: 8a32 4857 ac72 aa3f da60 45f3 2eb8 afbf
00000400: 03ad c1f5 e5a4 98bf af23 e8f2 11b1 ac3f
00000410: e305 284c 0786 ae3f 8d10 a006 cbc7 7ebf
00000420: 1078 afd5 94f4 5cbf 15d7 0086 1764 acbf
00000430: 613d 817b 7a4b a9bf fdf7 1f1a 0523 c53f
00000440: 2b40 5e26 ff08 99bf 3d01 a30d 768a 91bf
00000450: c589 6d7c 3295 8c3f 640f 6004 eb4f c03f
00000460: f3b4 96f7 8d40 aa3f 948e ca45 ffd2 c23f
00000470: b7e1 14d2 301c 813f ab16 e82f 6a74 aabf
00000480: 00aa c8b4 392c b9bf b758 258f dce3 a03f
00000490: 2f67 3ad9 5547 b23f 9aa6 7262 cf51 aa3f
000004a0: 02cf 3d8e 3025 7c3f 60b7 2e4e 4827 be3f
000004b0: 7f5b 38f4 46be a5bf 2e31 3ff4 ffaf b43f
000004c0: e30a 4554 9408 b3bf 58da 55a3 d57a 92bf
000004d0: b288 e2ad 73c7 c43f 311f a415 82ee a03f
000004e0: 61ab 64b5 da05 b6bf 3c79 20b6 955b b0bf
000004f0: 2526 d783 0811 a93f 13a9 1830 545f c13f
00000500: ec04 dc7c ab73 a63f 5b1e 7f32 21aa abbf
00000510: cd1f f2a3 4f6e b73f ff5b 6b17 4c98 a6bf
00000520: d943 0ead 513f 9abf 4997 b45e d7bd ba3f
00000530: d3da 2573 11e9 afbf 5df4 7afe 52d1 aabf
00000540: 5f0c 4e25 6e1c b3bf 0e10 f246 6a4f b93f
00000550: 87b8 8fcd 2fbd b2bf ffd6 2f23 b232 c33f
00000560: d89a 24e3 e44c acbf 1267 4cb6 7e68 923f
00000570: 2214 9539 eb9e b1bf c918 8528 2913 c13f
00000580: 6da3 3f61 a808 b2bf 0ad0 8b7f 3874 6abf
00000590: fbfe 8829 f0c3 c43f e398 fbea 6904 b73f
000005a0: ea08 e107 eab1 b5bf ae8c c260 68e7 92bf
000005b0: 4017 45c0 0ac9 a8bf 37e6 8d53 c841 c0bf
000005c0: 0ee2 9862 fc1a 633f 2c0a 1047 6c7c a43f
000005d0: 25d0 44ef d710 b3bf d45b 7bbf 056c 913f
000005e0: 5b56 5d7e f894 743f ac6d a52a 7b75 c3bf
000005f0: 8a98 272e d24d b83f 81d0 1be1 f6c8 b03f
00000600: cd38 18a7 89e4 9e3f a442 8cfa 44a4 bbbf
00000610: 1a25 9493 e4d2 a1bf 4baf 1475 ecde c8bf
00000620: f232 837c a94c c0bf 08e7 2275 0f9d b03f
00000630: 6602 80e5 0851 a73f 1481 030d 5367 bdbf
00000640: 0e59 507d e170 bfbf 7040 d6e0 2730 c13f
00000650: 3b65 5509 3f91 ac3f a8f2 fdb4 26cc a43f
00000660: 4eef 13ec 9aa2 b3bf bc03 3e10 015a b43f
00000670: c3e9 9836 c525 7b3f c5cd 8e2e 61a3 c13f
00000680: 8b3b 7ce8 aad6 b43f 961d c489 915d b2bf
00000690: 61f2 dd63 6cfd b6bf 8841 cbd7 1f56 a83f
000006a0: 3356 8f7c 8ca4 babf bb5e 635e 7aaa c5bf
000006b0: a310 2a44 c43c c73f 1933 9575 a201 a8bf
000006c0: b711 8f41 3655 853f e9df e766 e5bd b53f
000006d0: b998 dda3 f540 b1bf d162 5900 7ab2 c6bf
000006e0: fd16 2879 0628 c4bf 4062 97ed 7e49 bdbf
000006f0: 24fb 4a49 9359 a0bf 9ec6 15b5 0146 ac3f
00000700: 4d80 7ab3 578b babf 9d08 ac5c f86b 98bf
00000710: e9ba b26f d01e ac3f e218 26a8 a023 b73f
00000720: 8f37 31bd 2681 b63f c750 1c3d 05d0 bcbf
00000730: 21a3 71f3 c04a b03f f4bf 6518 aaec b53f
00000740: 6914 b3c8 5dcb a4bf 8eef ef03 d63a c3bf
00000750: 6d08 8599 ed90 b8bf d598 0d56 99a8 7cbf
00000760: 430c f5c9 d1b4 b7bf 2402 c345 07a3 b1bf
00000770: 6e67 50f1 9116 943f dd0f 8a05 5c0b afbf
00000780: 584f 73f3 5176 bebf 0512 8f70 9f10 b8bf
00000790: 4bea 1b25 1681 c33f 5272 fb74 4343 b13f
000007a0: 13fa d1f7 fa77 8cbf 27c7 46c5 8011 aebf
000007b0: 6508 8ee2 c231 bfbf 9b11 971c 9fac a23f
000007c0: ddd3 1bc6 89c6 793f ce2e 8e98 1c4f bcbf
000007d0: a4f8 6069 d449 95bf 70ed f0c0 e2db bb3f
000007e0: b8d9 bdef 997f a33f 3976 43a7 d89b c23f
000007f0: 7df1 9f22 474e b03f d269 4b57 d08d af3f
0.07248784284587066 -0.10048522858352837 0.017809359439522332 0.04903426958760993 0.07040132389134546 0.039781323080768094 0.12452025286053693 0.04292443199709352
0.052392627912852215 0.14467226631179958 -0.03433486103551618 -0.04082411387960672 0.1190930466536546 0.06702315342836182 0.12768953680298634 -0.07990976420380784
0.003293860923568067 0.006794919927735482 -0.10545543538082469 0.06560954336880472 -0.09217690279591703 -0.057166684118543004 -0.043639136646697226 0.02901867074506061
-0.021215965236278462 -0.07820431639549409 0.021552430335830045 0.12240111791384223 -0.09224498203031875 -0.12400428906990824 0.021158907237713753 0.03643539967777806
-0.023581181480431944 -0.06609353607017307 -0.11800282492514312 -0.02682189638575095 -0.04892869822716467 0.16103156509730754 0.04289507290266154 0.162306732639394
0.18291407737359466 0.09983914060498197 0.007546370584566875 0.07705888473605146 0.02751385038691883 0.09380801368964914 -0.051328067828357395 0.04952845581685295
0.057488787217676446 -0.18112900851988142 0.09010611684737883 0.011444612710650046 -0.11735507203229271 -0.04511739524754598 0.09365840504757655 -0.0920979195089531
-0.0487720311881477 0.005876814680341419 -0.05430700916719305 -0.19743200118336568 -0.011609451784731741 -0.050696284500474496 0.01799763314373312 0.02868042175543971
-0.04779706910891028 0.005568121836341136 0.05878702163586187 0.07358475854896189 -0.00022127900884365626 0.016578594908136575 -0.04302997154741235 0.050202267138135796
-0.10122150714104602 -0.06869210576345078 0.014558820567264905 -0.008490983305374258 0.14289815805168662 0.08043491061423678 -0.12632489543022585 -0.09939587599304407
0.12764733102083842 0.11702134597441986 0.12720142285276537 -0.16754374183771178 -0.029304447384723254 -0.13685937895970238 0.05824239504571164 -0.09861987448816503
0.030346408153094438 0.09542805956643015 0.04699252410616584 -0.015846248836604963 -0.13004150800306696 0.10066140725423971 0.18316583748649323 -0.04901963993188918
-0.21164649474508931 -0.06593350848855867 -0.06079373260768411 0.03834629403956476 -0.07572695526485786 0.018453510990854093 -0.06005327760522105 -0.030639413419402385
-0.0799907149236954 0.11535006300156529 -0.1191947174350292 0.092678187331366 -0.010859430018677388 -0.004417881707304212 0.096715289189776 -0.007778146245442812
-0.1202452404738039 0.1288521408753644 -0.0879711845057509 0.018937028822089558 -0.029660794255114933 -0.06557298741848129 0.19649196949059244 -0.046576547354530456
0.109576476525322 0.11639817048990912 0.1832393154144484 0.1031043759171336 -0.018614609644827498 -0.002619199031704125 0.05165613713697777 -0.06195208282105265
-0.0240665370223896 0.056038437749584495 0.059616306349209024 -0.007514756269305545 -0.0017672971214248746 -0.055451140506575104 -0.04940397985103107 0.16513122344616696
-0.024448382107550664 -0.017129749853439725 0.013956446096646933 0.12743890489229692 0.05127376220057469 0.1470641222741632 0.008354550753765773 -0.05166942438885987
-0.09833107627552096 0.032988445733893305 0.07140099099561036 0.051405411498604184 0.006871404333526733 0.11778690251113977 -0.042467324554471546 0.08081054413850516
-0.07434966142049464 -0.01804670152110996 0.16233678808663893 0.03306967271970363 -0.08602682999177837 -0.06389747330147072 0.04895807847385595 0.13572170589879615
0.04385124110377511 -0.05403236142552422 0.09152696373541787 -0.04413068567162525 -0.025632167994959907 0.10445924818176623 -0.06232504397023821 -0.05237826687287204
-0.07465256129039365 0.0988680289465835 -0.07319926041211221 0.14998461454495524 -0.05527415535680341 0.017976741673101655 -0.06883115917033014 0.13339724043379977
-0.07044460653527347 -0.003229246471500251 0.16222955730517427 0.08991109835514836 -0.08474600498542242 -0.018460875421294425 -0.048408828707165785 -0.12700752334403528
0.0023322038075799306 0.04001177184547475 -0.07447576133273566 0.017013635456205226 0.005024882009669075 -0.15202273924192633 0.09493745447943716 0.06556647296730668
0.030168677161832847 -0.10797530285732165 -0.03481210996148772 -0.19430309025607992 -0.1273395402880833 0.06489655122541305 0.04554012109293097 -0.11485785548893929
-0.12281617459698088 0.13428209761014243 0.05579564083991292 0.040620050042865785 -0.07669990790958289 0.07949835440196201 0.006627817501391356 0.13779845021563922
0.08140056777868503 -0.07174024213246918 -0.0898044341865414 0.04753207692340583 -0.10407331505788235 -0.16926507576748925 0.18154195144973526 -0.04688747105919883
0.01041643512315536 0.08492883455608048 -0.0673974537909058 -0.17732167260216739 -0.157471474798676 -0.1144027071053495 -0.031933405587088154 0.05522160850058565
-0.10368869907188234 -0.023849373489618676 0.05492259372237191 0.0903873835105489 0.08790819281531824 -0.11254914037664597 0.06364065116362073 0.08564246268883818
-0.0406140620703262 -0.15023303215263833 -0.09596142766989298 -0.006996726006809524 -0.0926028364238372 -0.06889386609237441 0.019617348054544896 -0.06063354079836334
-0.11899292176832199 -0.09400364397067314 0.1523769074627402 0.06743260961543143 -0.013900719344971646 -0.058727287370301355 -0.12185304671405246 0.03647324775696178
0.006292856387280357 -0.11058214878556358 -0.020789450580416827 0.1088239403770126 0.03808289577038998 0.14538105170406526 0.06369442553836353 0.061628828674389916

block.2.bias f8 [60]
00000000: b58b b177 f166 bb3f 83ea 99da b41a b83f
00000010: 9364 226d 8579 b0bf 20fb a3a5 214f b43f
00000020: 189e 95c0 b351 4a3f 9580 932c 15cf b33f
00000030: c16a a63a 2e6f c3bf 3582 8b91 dce7 5fbf
00000040: b2f8 bb19 144f babf 0e84 26cd 7547 b73f
00000050: 6f17 c707 095f c4bf ed28 e9c9 4d02 a4bf
00000060: 4889 375e ebe8 70bf a69f 1e2f 4f0a bcbf
00000070: 68b8 1f15 1574 9a3f a606 58c6 ad22 973f
00000080: 087f 44ee 3f57 7abf 6fdc a834 1c62 a0bf
00000090: 212d 72a7 4ab2 99bf e2c5 ff9e 880b bbbf
000000a0: b541 6e04 3ced aabf 6af0 5c64 272b 973f
000000b0: 776b d55c d7ed b6bf 74f0 dc76 5e57 9e3f
000000c0: 50f0 9f5a 0ad7 a93f 9433 3a3c 4262 a93f
000000d0: b4a1 1d0c 3b7d b0bf 9ed2 afd0 ff87 91bf
000000e0: 8ce2 b436 dda9 a03f 60db a450 75c3 9b3f
000000f0: b502 01fa 1f63 a83f c278 0d10 c26b a8bf
00000100: 3229 9656 8c3b a4bf 1058 00af e4e5 b63f
00000110: 1327 9f75 5633 a13f 2e8c 7bb9 ff23 893f
00000120: 8803 5ddd a49e bc3f 9ae6 9c68 4159 9fbf
00000130: d13b b5b9 e8ef c33f 4eff f8a3 66b6 b13f
00000140: b8da 053b 24a2 8e3f 3289 3385 b92f b03f
00000150: 801a abe8 6f6e b13f acd2 0834 493f b33f
00000160: 94ef 6226 7160 983f 7b3b cd4f 36ba c13f
00000170: 3c39 fbdb fd07 9f3f bd7e 7c82 f670 963f
00000180: ef3a 1730 e84f a73f 317a 7c1b c790 8ebf
00000190: 7a27 8cd9 39d6 94bf c94c 65b9 ebfd bdbf
000001a0: 7d5f 362d 852f ae3f 42fa 1b46 d132 b9bf
000001b0: 5461 8f80 f2fb c03f 7786 67ac 1ad7 a73f
000001c0: 558d e3d1 db7a 85bf 6fc6 dffa 59ee bc3f
000001d0: 8e7c b12b 6302 b93f 6ea3 0dd4 f482 c4bf
0.10703953907208937 0.09415750824875073 -0.06435426630413792 0.0793324498554111 0.0008031966873831035 0.07737858141217864 -0.15183046211025977 -0.0019473699559783401
-0.10276914242055815 0.09093414553218812 -0.15915024642725537 -0.03908007707339487 -0.004128379255663291 -0.10953230762845453 0.02583344403677082 0.022593226653049435
-0.00643086407606553 -0.031998521259475214 -0.02509419104584965 -0.10564473993124282 -0.05259120515904973 0.022625556469606435 -0.08956666962096259 0.02963016129000136
0.0504687533975533 0.049577779628726365 -0.0644108681277718 -0.017120358574134735 0.03254596035771326 0.027112801596753555 0.04763126303487778 -0.04769712873415834
-0.039516816682480985 0.08944539329999679 0.033594800813785984 0.012275693748455021 0.11179571537378596 -0.03061392022139007 0.15575894420405104 0.06918946746099872
0.014957697917208676 0.0632282209585682 0.06809138708477214 0.07518441696522399 0.023805397003101428 0.1384952439934429 0.030303923179240785 0.021915294374706507
0.04553151690526202 -0.014924579168618642 -0.020348457243961594 -0.11715577389013555 0.058956300515261774 -0.09843166314747356 0.1326888206228981 0.04656298975511402
-0.010488240568924093 0.11301195502144322 0.09769267861109851 -0.1602464709679014

block.4.weight f8 [60, 60]
00000000: 8224 e6c7 06d1 b23f f2d3 4b32 03b7 b53f
00000010: 5345 df4d 32f5 76bf 5d96 a9ca 7345 29bf
00000020: a171 88ab 0df9 6dbf 11fb 333f 0d3b bc3f
00000030: d93c e4bf d178 b9bf 1d07 66ee 3ee3 a63f
00000040: ea3f 165c 0e40 c4bf 114d 24b0 e4b3 c03f
00000050: efce 38da 6d7c d1bf 0436 acd9 b68e aa3f
00000060: 3081 cdbb 5443 b6bf 24e6 450a 34f8 b7bf
00000070: 075a d76f 9bac c1bf 51c1 edb5 6278 9fbf
00000080: 61c5 2eec 8802 b5bf 4d99 7b56 db96 a73f
00000090: 9db7 b86e b04b b93f 2486 a945 5f57 b2bf
000000a0: e0e3 8eeb 8ac9 a63f 521b 4bce 4daa aa3f
000000b0: 9989 94b3 0a4d 98bf fd2d c35e c51d b33f
000000c0: ff2a 6c7d 1dc4 d0bf 8496 8556 e987 b33f
000000d0: b4d2 0975 9c8f b0bf 8832 35f6 e41d c3bf
000000e0: 7031 7f97 c4ab 95bf f0f2 de1d 1916 a73f
000000f0: f42e 65b5 3da4 b63f 890a 5600 21b8 bdbf
00000100: 5c80 ef80 37e4 a5bf 21e9 a5a8 ea46 993f
00000110: ba55 ca94 5882 b03f 0979 c058 dee8 833f
00000120: 5451 7d7b adab bcbf aa7c dbf8 b8fd ccbf
00000130: 07eb 6714 8d53 c23f 7c5a 8a39 673e adbf
00000140: 2b5e 0536 e3ce 90bf 7946 9c0c 094e be3f
00000150: a2c5 a7e6 1149 a93f 1ee5 1d24 b54f be3f
00000160: 2a33 3797 000a a2bf 68cf e8df 342c 8c3f
00000170: 0524 4b34 ea6b ccbf 8cb7 8a7d bbac c33f
00000180: 2838 7ec4 26e3 b6bf 6c3c f8fe fd03 c03f
00000190: 4032 72ca 4895 893f a978 a74f 941b 9b3f
000001a0: 1c57 29fc bba0 b4bf ca3b bf50 221c b4bf
000001b0: 4088 86a4 1948 873f 540f 0bd1 55b7 afbf
000001c0: e58a 1cd5 ea99 c03f 9570 1e9c f5ac a4bf
000001d0: 7c26 bc0c 9dc8 a73f d005 a068 06cf afbf
000001e0: 9690 45c3 4d25 a9bf e3d3 9592 2bcf b2bf
000001f0: d629 1f5f b732 adbf d5de 89db e29c b13f
00000200: b807 82b4 d109 b53f 134f 5b3a 402d 57bf
00000210: 7a4e 81c7 4988 b1bf 3000 6b96 4eef c1bf
00000220: 96f8 11f5 5769 7dbf 8372 adaa d0e9 87bf
00000230: 439c 9f76 7601 8dbf 542d 6b22 6191 853f
00000240: 9311 1f0e b5fe ae3f 2836 d205 7611 7ebf
00000250: 81e0 381c d5ec c1bf c185 a850 8507 8cbf
00000260: aafd 1404 516a b93f df94 e37b cba5 b13f
00000270: 6a8a a184 b509 96bf bf8d ff1d 9186 b23f
00000280: b4b8 1732 4b45 b03f 759d cfab c197 b3bf
00000290: 8532 f4ab 6e92 babf b171 4abe 9d3c bb3f
000002a0: 4b5e 8878 cc8c b0bf 6ba7 6ca2 2a86 bebf
000002b0: a635 e43c 860b b5bf c67c 1293 b246 c1bf
000002c0: c8de c043 b044 bcbf b93a 2542 005f a23f
000002d0: 7605 c57d 2db6 bebf 5d7c 8560 de6c b9bf
000002e0: 4f00 8a87 755e 783f 33c5 9936 ad60 a43f
000002f0: b1f5 b9ca eea5 b5bf 48ac b115 a328 babf
00000300: c5a7 3ec7 7acc b5bf f26f 8cc8 6ac1 a1bf
00000310: bced 5f09 77fc b33f d348 c7df 9cd7 9b3f
00000320: 3831 9499 49f8 abbf e842 b687 e8a9 c1bf
00000330: 7780 3183 3a10 9b3f 782b 486c cf2c b8bf
00000340: 1895 27bf 975a c2bf 102b 3b73 5dee 833f
00000350: dea0 8ee7 2afc bb3f 976b 7e44 6303 90bf
00000360: 85bb 0cba ad99 a1bf e698 5706 a6d2 7cbf
00000370: 1e76 9b94 048d b2bf c9b9 1b50 f2ca a0bf
00000380: c53f 3016 446d ba3f 4e6f 47df c533 a3bf
00000390: fa63 b68a ee59 b2bf 8554 bd47 9d73 7fbf
000003a0: 8f91 3363 891d 94bf 4e05 359a 5fce 7cbf
000003b0: dd68 0dd9 7f58 adbf 8427 c973 d284 b53f
000003c0: a112 410a 8a9f 80bf ed6f b8c4 d7e3 94bf
000003d0: 2b56 c17a d9be ba3f 83a0 e5a0 b7d6 b1bf
000003e0: f110 fd06 05df bf3f b71b 47a0 3e5e 903f
000003f0: 6755 98cb 590d c33f 990b 7158 f36c bbbf
00000400: 59d2 27fe ad23 8b3f 9985 c0b4 cbe0 ba3f
00000410: 9041 fce4 73c8 b63f b8b1 fa2c 50f3 8e3f
00000420: 6db3 c860 e246 a2bf 0161 388a f53d b83f
00000430: 2084 c3cc f9c6 8a3f 5371 18d0 b07f b33f
00000440: d8d4 e94c b80e bfbf 6d93 c0ce d451 c33f
00000450: b177 b234 447c afbf dcc8 1aa3 0c00 a13f
00000460: e96d b0cb 14cf b33f b827 db46 1d53 a63f
00000470: 79e4 f880 81e3 87bf a4d6 73f9 6b37 a03f
00000480: 6bd9 d130 5aa2 c13f 1ab2 2065 8cc6 a43f
00000490: df6c c55f ed35 bcbf 35d1 959d dfd9 c8bf
000004a0: fd6f 2451 936e ae3f 2c0a d8f1 e373 b13f
000004b0: 5f2d 737a dd78 433f 97fd fce4 657b a73f
000004c0: be1b 1bcd 0208 c3bf f0b1 86aa dac8 b43f
000004d0: 4643 fd02 92ac 9b3f 6b94 2564 f23e b1bf
000004e0: a7ea 3ca6 a817 bd3f 4d80 d118 c072 c3bf
000004f0: a4c3 b659 2610 b43f a06e eda7 a1bd a5bf
00000500: d4dd 0d89 3fdf bebf 93c0 ccdf 02cc abbf
00000510: be48 c891 898c b43f bb77 64db dc59 c0bf
00000520: bc9d 9a1e 7f3b c33f bddd c5d9 d0c9 be3f
00000530: 7fd5 81c0 c58b b63f 2d46 bd64 db80 a43f
00000540: 2a2e 6e8f dff6 c5bf 5a27 9020 7da3 bf3f
00000550: 78cf b46a feaf ac3f 0a11 61e3 4efe ba3f
00000560: 100f 1cc9 9bb3 bbbf 91d1 4d62 7f5a c4bf
00000570: e69d 0812 e0da be3f 83c1 c8e6 8362 bfbf
00000580: 23a2 0869 c6ef 6e3f b2bb 9260 ffe5 c3bf
00000590: 2d7e 4b3d e4f3 96bf 8d19 b01f 09f0 bfbf
000005a0: 4782 ae6a 786b c43f fe7d 7073 e51c ab3f
000005b0: 2830 6ec2 6542 ae3f 1ee1 3817 7e94 b3bf
000005c0: 5b08 9d11 2068 bf3f 2cbf 882a 2249 8abf
000005d0: 37a0 17c5 97ac bc3f bf68 178f 5b27 a93f
000005e0: eb76 8cef ad3d c33f e4cd 01a7 0583 aebf
000005f0: dcc6 f5f1 0c85 9a3f 3cbc 30db ddb1 b3bf
00000600: 5b56 8a93 2adf b1bf 12da 4f85 8897 7f3f
00000610: 0774 c9a1 05b8 a3bf 96d5 af53 d2ad c13f
00000620: cc5a 2c94 a646 83bf 63fc 0a01 998f bbbf
00000630: 9375 e765 ef2a ab3f b4a0 7ae9 a292 c83f
00000640: 6dfe 95c6 ab52 c0bf b1b6 e106 3332 96bf
00000650: ed05 5fb1 ff68 9c3f 082c 9e23 2beb b23f
00000660: 13c0 9cf5 82ad b83f c8f6 341d e2e9 bdbf
00000670: 3600 d26f bedd bc3f 30f6 45d0 d3b4 b9bf
00000680: 2019 ee26 d63e a93f 66cb 46b3 8c68 b3bf
00000690: 5e40 b532 f518 c43f 3acf b091 b8c2 ad3f
000006a0: 72b3 1a22 1690 b0bf efff fe46 6c62 b83f
000006b0: cd15 433b 7310 943f 70ec c4b9 808c 613f
000006c0: 5db6 710b d46c 9f3f a4ba e353 dc58 c53f
000006d0: 822d 3e5b 78e5 983f 31db 28a7 ffc2 bb3f
000006e0: 4e8c 5b1a 8a30 ae3f 8632 2aeb 4a68 b0bf
000006f0: 6c96 4a85 19e8 a43f 3771 0d2e d283 7bbf
00000700: b80a 3de0 6817 c3bf 0560 eccf 118c a83f
00000710: 84bc 8959 b4ce 4a3f 275d d84a 17ed 86bf
00000720: 1ed0 cba8 a4ac a73f e65f 357c 46f6 b93f
00000730: 7401 35a0 c1fe a3bf 66af 3fe4 de0e b23f
00000740: 0c3d e12a 68d3 bc3f 2025 40d0 3923 bb3f
00000750: 2b94 856d cc26 ba3f f8da 4f0e a9c4 95bf
00000760: ffce ccdf c4b1 b0bf 7fb7 e856 7c3c c03f
00000770: d252 6891 d71c 81bf f305 e333 72d9 c53f
00000780: a717 7b3c abe3 b0bf 591b f517 defd c23f
00000790: 518b 69a4 eb11 703f f1c4 48b0 42e4 c53f
000007a0: 2d23 a032 331d c43f eec2 cef2 ce32 813f
000007b0: 94a9 7dfb 3bbc a9bf b1d6 a632 3628 723f
000007c0: c582 3810 659b a83f db09 c6e2 8925 b8bf
000007d0: 695a bcbc c386 c73f 40ee e7b6 3ced ab3f
000007e0: 7169 28ff 78cd c13f 5ec4 e57c f1c0 603f
000007f0: e269 99d7 83f2 c13f df49 4975 ef64 c43f
0.07350199108454272 0.08482379892286909 -0.005604931355223402 -0.00019280470344822361 -0.003658796977346238 0.11027605813067633 -0.09949980673649196 0.04470249805582525
-0.15820483681136405 0.13048990822481035 -0.27321955023511085 0.05187007338654939 -0.08696488938358438 -0.09363103152090752 -0.13808005295750567 -0.030732672075317883
-0.08206992880038434 0.04607282095621432 0.09881117537653812 -0.07164569330918674 0.04450639844385029 0.05208056586484723 -0.023731391154009882 0.0746730190614286
-0.2619699215726285 0.07629259455060305 -0.06469133241064179 -0.14934980413308474 -0.021163055178293033 0.04509047021517698 0.08844361952395358 -0.11609083421903156
-0.042756781090930146 0.02468458799692386 0.06448892242982299 0.00972150524472372 -0.11199459328537859 -0.22649299765814607 0.14317477699645328 -0.057116723798732644
-0.01641421334474395 0.11837822492477725 0.049385604292079735 0.11840374118573435 -0.035232561549128086 0.013756192286656435 -0.22204330018419696 0.15370887403463163
-0.08940355584329096 0.12512183141413702 0.012491768530048408 0.026472394334512348 -0.08057761102949396 -0.07855429145204976 0.011367988904400161 -0.061945611732453415
0.1296971836646527 -0.0403820756029926 0.046452434353409594 -0.06212635066186645 -0.04911273010910226 -0.0734736664652043 -0.057027559625186505 0.06880014285877263
0.08218107850009815 -0.0014145972467546938 -0.06848584290247031 -0.14011556954028626 -0.007180541594719389 -0.011676435669579327 -0.014162946219540845 0.010531195509790571
0.060537012075232564 -0.007340870882342844 -0.14004005315814896 -0.013686219715114302 0.09927851056726547 0.06893607878335527 -0.02152141210570805 0.07236582739238083
0.06355733845677741 -0.07653437084774402 -0.10379687975018655 0.10639367957850855 -0.0646484178799877 -0.11923471894684005 -0.08220709787948141 -0.13497001820812765
-0.11042310384879805 0.035881050180809955 -0.1199673111014102 -0.09931745392303655 0.005949458217060124 0.03980008403312709 -0.08456318330168845 -0.10218257217063453
-0.0851513611256954 -0.034678780537632195 0.07807105997920066 0.02718968501887604 -0.05462865829221858 -0.13799769045410604 0.026429094560058233 -0.09443375009156607
-0.143389671647278 0.009731988982272038 0.10931652215242901 -0.01563792329362065 -0.03437559982409425 -0.007036827596925676 -0.07246426227671818 -0.03279835918316427
0.10322976628981369 -0.03750437117170567 -0.07168475042853109 -0.007678617835911732 -0.019643923454070452 -0.007032750555766866 -0.057315821881916064 0.08405795409012567
-0.008116796911175785 -0.020400401479591258 0.1044746327109684 -0.06968257597111642 0.12449675961130759 0.01598451474435666 0.14884493294872955 -0.10713120373934117
0.013251647299491841 0.10499261057750288 0.08899616566146151 0.015112520573290364 -0.03569705420918621 0.09469542145268763 0.01307482868327453 0.07616715507942233
-0.12131835820931103 0.15093479247402844 -0.06149495261455174 0.03320350161574634 0.07737855885391522 0.043602862262175746 -0.011664401768131537 0.03167283458780659
0.137767099225765 0.04057730421513757 -0.11019786441959266 -0.19414897150603286 0.059437373786039395 0.06817459730522363 0.0005942422330006794 0.04586332721964508
-0.14868197455345283 0.08118979132877491 0.027025491173222414 -0.0673667425631536 0.11364225443404995 -0.15193940364679506 0.07837142648965184 -0.042462398289641046
-0.12059399696396805 -0.05429085714274708 0.08026943024768493 -0.12774239265939777 0.1502531909402317 0.12026696507188368 0.08807025861627514 0.040045600936206995
-0.17159647468030076 0.12358839077947206 0.0560302262551024 0.10544293452500511 -0.10820935878660642 -0.15901176738738035 0.1205272716548432 -0.12259697327022505
0.0037764430237710186 -0.15545646872985014 -0.02241474746813148 -0.12475640319471477 0.15952973565164738 0.0529548362176193 0.05910032270830384 -0.07648456637332798
0.12268257551207411 -0.012834803507842794 0.11200855790923546 0.04912840005609231 0.15031980702126843 -0.059593369137384916 0.025898172634191904 -0.07693277932479331
-0.06981149770793975 0.007712872776201711 -0.038513351439839076 0.13811711393615828 -0.009412099263085415 -0.10765987658941038 0.053061944188566156 0.19197498703329574
-0.1275229186685353 -0.02167587022306944 0.027744288636091175 0.07390088672234196 0.09639757629770455 -0.11685002530154087 0.1127585433005159 -0.10041545710370126
0.0493075296899852 -0.07581405045384101 0.15701165176369875 0.05812622812700714 -0.06469858486771132 0.09525181515982671 0.019594002239292686 0.0021421922848766026
0.030688584517000062 0.16677431198282477 0.024312859124206117 0.10844419318241873 0.05896407672641911 -0.06409137955979291 0.040833280106466 -0.0067175111915640994
-0.14915190648215115 0.04794364607931815 0.0008180981267979092 -0.01119440266761147 0.04623903809070405 0.10141411335405301 -0.03905301170971401 0.0705394084213232
0.11260081335898436 0.10600625356905313 0.10215451883193853 -0.021258012293368517 -0.06521254028194433 0.12684587710958437 -0.008355793118462716 0.1706984284738123
-0.06597395159323459 0.1483724228839616 0.003923340299112636 0.1710284577143635 0.1571411130137447 0.008397690567876617 -0.0502642387862863 0.004432880125411807
0.0480605680752482 -0.09432279383148716 0.18380018916714683 0.05454435093630794 0.13908302744750814 0.0020451275406050814 0.14021347071941564 0.15933030344838436

block.4.bias f8 [60]
00000000: 1ae9 9879 f32c c53f 3c37 ba47 a7d7 c3bf
00000010: a734 e493 8db5 b63f 8c40 5d26 41e7 b6bf
00000020: c88a aa61 51b9 b03f c87f 1e0b 6ca5 b6bf
00000030: 449e 247a ae04 b0bf 2884 c1fe 79bc b63f
00000040: 5aea 8808 6baa adbf ebb3 283e 6117 c23f
00000050: 983f 5128 fadf ac3f 1d59 f0e4 46b5 983f
00000060: 9f4c 5f04 4794 5dbf 78ce 3ef8 a895 af3f
00000070: 3085 0563 41ed 873f 95af b593 a6d3 98bf
00000080: e7ed 7305 e02a a43f 9bdf de7d 9a1a b0bf
00000090: 334d 3b84 442d bcbf e573 d6e1 8f2d b33f
000000a0: 216c a7cf 6960 a03f a917 84f7 5bed bbbf
000000b0: e2e0 e649 50df b33f 0a44 b3f9 f910 67bf
000000c0: d617 9b04 955d a83f cb8e f1b1 8f0b b93f
000000d0: 13e2 206a a006 7fbf 1b22 a299 f845 a23f
000000e0: 6ea2 d1f4 32c4 993f 7cd4 2e50 e8ee 91bf
000000f0: 2c06 2aab 231a b23f 6f69 8a61 53c8 9fbf
00000100: ef61 8f42 b2d3 99bf 4506 ef3f 4b9f c03f
00000110: 6a76 20f5 7da2 afbf 0558 91d2 441e a5bf
00000120: 9211 d553 3e9f a2bf 2882 b01c 337c 943f
00000130: ca22 7e90 9c6d adbf 93ad 638e 8a60 a4bf
00000140: c751 0102 92e7 bb3f 3c87 e0c2 a578 a13f
00000150: 3e96 f86f af75 bebf c2b8 4c42 8cd8 c23f
00000160: 4393 b03c d179 a73f 161d 8615 b22e b63f
00000170: 81dc 5430 cbf0 bf3f e3c1 429d 7e39 a73f
00000180: c9f1 4981 fa81 b13f d0ac f458 005d bd3f
00000190: 528b 1814 e7b7 b1bf a1b2 3d11 c6f9 b9bf
000001a0: 65e7 03ef 6f91 c0bf 192b 1c78 f3da 9b3f
000001b0: 7a3f eccf 2636 a9bf d581 5441 6a16 b4bf
000001c0: 54a0 3473 3dcc a63f d6df 43f7 39af b03f
000001d0: 1176 d0f5 3db1 bc3f 7416 b77b 9efd 94bf
0.16543429791801928 -0.15501872064890587 0.0887077795088823 -0.08946616350772468 0.06532772669246889 -0.08846164008582413 -0.06257143480308353 0.0888134238207533
-0.05794081191239249 0.1413384965429992 0.05639631025462605 0.024129016612357213 -0.0018053716207660287 0.061688690474878294 0.011682997545622159 -0.02424488331364179
0.0393896109253225 -0.0629059369374531 -0.11006572941123664 0.07491397155395381 0.03198557529295721 -0.1090905646597934 0.07762624553913924 -0.0028157121974818943
0.047588974773631484 0.09783266157460983 -0.007574679011718394 0.03569008708388229 0.02516250247245682 -0.01751292218587651 0.07071135453045291 -0.03103761942711841
-0.025221619904046418 0.12986126539003542 -0.06178659074087707 -0.04124655790717217 -0.036371181233820896 0.02000503409010626 -0.05747689498736504 -0.03979905117179352
0.10900223301843602 0.034123592413620035 -0.11898323520343809 0.14723351704873805 0.04585126748887671 0.08665001893506416 0.12476797037094124 0.045360523888465364
0.06838956505266149 0.1147003380944398 -0.06921238175031633 -0.10146749421046276 -0.12943839235941393 0.027202419477400406 -0.04924126899834298 -0.07846702666257184
0.04452697783773432 0.06517374312159005 0.11207949878049585 -0.02049872999284337
