JupyterLab/best_model_M2_103.pt (torch, 127885 bytes, 12 tensors)

block.0.weight f8 [60, 12]
0	0xbfd00d72b7eedcb1	-0.2508208080502739
1	0x3fd6cc52185f6a09	0.35622074489734296
2	0xbfcc3b34c65bf056	-0.22055682836060225
3	0xbfe006a8b62a29e9	-0.5008128698257767
4	0xbfdc11a866d66dbf	-0.4385777477525287
5	0x3fbf6be5e2906aa6	0.12274014264441266
6	0xbfe1c9296ff76e3f	-0.5558058916898928
7	0x3fb52b4df9059c6f	0.08269202546726871
8	0x3fd995bb0fb0b625	0.3997638371682533
9	0xbfbf6b734b59b6cb	-0.12273331250772938
10	0x3fb72b5a031ecfe4	0.09050524307423263
11	0x3fce87b6655a54d5	0.23851661633367507
12	0x3fdad42b6fb5583e	0.4191998091604353
13	0xbf976a719963975a	-0.022866988169787696
14	0xbfd6d9b132832a16	-0.357036876038053
15	0x3fcb6e08e9c5ced9	0.214295496126957
16	0x3fa33c6a145dcb1c	0.03757030008900683
17	0x3fa57df0bb144912	0.041976473652669224
18	0x3fe0420f17daac2b	0.5080638376142635
19	0x3fba5b85581bf473	0.10295899773696408
20	0x3fd300854b7e7573	0.296906779980268
21	0x3fc35ddde11772bc	0.15130208483505736
22	0xbfdbb3a4fc79ada5	-0.43283962875167453
23	0xbf6b593ecce5eb0f	-0.003338453919409352
24	0x3fc2847ed5fcaf4a	0.14466844032846843
25	0x3fe9258f31ca2390	0.7858348820164895
26	0x3f7d19ce5172cc8a	0.0071046885779423394
27	0xbfc6451efc633d78	-0.17398440669647264
28	0x3fd422f8c7df89af	0.3146345092665354
29	0xbfb42f62565f7fda	-0.07884802445141706
30	0x3fac4ba137f2bca8	0.05526450927697485
31	0xbfdb593b207b8a0d	-0.4273212258541726
32	0xbfc02e4c9de6330c	-0.12641294202730824
33	0x3fd3be7327df89af	0.30849913495890297
34	0xbfd372ccab7c641b	-0.30388180491132893
35	0xbfd3e12e71908469	-0.3106189831760902
36	0x3fcabaed5313fade	0.2088295608191037
37	0x3fdce3f66746fce1	0.4514137276236863
38	0xbfc0a3f6e7bf0986	-0.1300037986348565
39	0x3fc7a8d22e047f22	0.18483950850440417
40	0xbfa01654927f55d9	-0.03142036712931046
41	0x3fc62826a7989f0c	0.1731003111210544
42	0x3fc6dbd67b13fac5	0.17858391771001983
43	0x3fdb6e7c8f0b0761	0.4286185643105594
44	0xbfd08f4b60fa6f53	-0.2587459990552265
45	0xbfb45219973fab24	-0.07937774603457776
46	0xbfded4fa51d5e201	-0.48174913398500513
47	0x3fc99bcb7239c79c	0.20006697728564127
48	0x3fd8528f98b7b0c8	0.3800391188986052
49	0xbfd972f14b4aa030	-0.3976405368107434
50	0x3fe2809ec4611372	0.5782007060557659
51	0x3fd3f87cd630a6fb	0.3120414821338355
52	0xbf6feb11be64f48c	-0.003896269469946539
53	0xbfdd26963170bb50	-0.4554801447692869
54	0x3fd5fc1b18b7b0cc	0.3435123196966401
55	0xbf62c8a514259399	-0.0022929405396773903
56	0x3fa900a42a322dee	0.048833017493134054
57	0x3f967f4508336178	0.021969870210200665
58	0x3fddc7681236b1ea	0.46529580858876207
59	0x3fb9d7f819973ffc	0.1009516775586689
60	0xbfdca0ca9410066d	-0.44731392344701854
61	0x3fb9c60b1da366fb	0.10067815278616969
62	0xbfcb31657c8cd371	-0.21244495946453015
63	0x3fd6f7e95eb712ee	0.3588813233330218
64	0xbfc5c44e76979696	-0.17005329886085424
65	0xbfd55e5323f32e23	-0.33388212691054003
66	0xbfd730f05410066e	-0.3623619862483797
67	0x3fb90846056a9b78	0.09778249389874627
68	0x3fc89199973822fa	0.19194335826639258
69	0x3fd024ad44b434ac	0.25223857602470434
70	0xbfbf9b59fe330ea5	-0.12346422630349226
71	0xbfdac604d3b81b8b	-0.41833611179065916
72	0xbfc45c785d1a5271	-0.15907196565662532
73	0x3fd328565cef43fe	0.29933699679992276
74	0xbfbfd2fb936454d8	-0.12431309078631914
75	0x3fc70a847fdb9cc5	0.18000847094592679
76	0x3fc9972900b05cad	0.19992554219854722
77	0xbfcf2df5064fe434	-0.2435900002308543
78	0x3fbaf36b55cb5b8c	0.10527678341473584
79	0xbf9437dcecdf1fa3	-0.019744350392812426
80	0xbfc3703cfbdb7ea9	-0.15186273858761482
81	0x3fd5773620582e8a	0.33540108832014737
82	0x3fe9fdacd0a293d3	0.8122161936668085
83	0xbfcbd5d63e0b5363	-0.21746328382019006
84	0xbfd5406fb42bfaba	-0.33205788226033983
85	0xbfc221b3db38536a	-0.1416535206232326
86	0xbfc0010a5b8c95f6	-0.1250317523019217
87	0x3fcbafef42c19d10	0.21630659827790355
88	0x3fd7702809cd45a0	0.3662204833718423
89	0x3fc779eee2167a05	0.18340860404437379
90	0x3fb1bb226f5015c6	0.06926169602964824
91	0xbfd3f1c70e40ab6e	-0.31163193122727406
92	0x3fe8cbc28ae3a2e7	0.7748730385474943
93	0x3fc77207d39a8bfc	0.1831674369069275
94	0xbfd799b5c7e95731	-0.36875671885114786
95	0x3fa251d091abd6c2	0.03578044679845284
96	0x3fa220be02f1df11	0.03540605340907466
97	0x3fc873ff55a804d0	0.19103995974004429
98	0xbfe4760cfc705e23	-0.6394104891250588
99	0x3fdef3cbf07fa29c	0.48363016592205965
100	0xbfdd304d66617008	-0.45607314107996944
101	0xbf9f7ad5ddf9a883	-0.030742017434399315
102	0x3fdd6c5b105e3bec	0.459738508209681
103	0x3fe0d58e9dd17fc5	0.5260689813985598
104	0xbfd6a1761905271e	-0.35360481685039413
105	0xbfd842bdf6617008	-0.37907361088377955
106	0x3fc9570423780299	0.19796802265047544
107	0xbfdc4d591c91589e	-0.4422209528905884
108	0xbfc67dab7f6f566b	-0.17571014139564353
109	0x3fd9e9c780b59e3f	0.40489375657350374
110	0x3fdac726bf24a56f	0.4184052340156858
111	0xbfe0d70b19ae003e	-0.5262504102283925
112	0xbfa57f87fe299d3e	-0.04198861100740679
113	0x3fd67bf66a248f71	0.35131607404240756
114	0x3fafca303a42a7d3	0.062089449989187216
115	0xbfd5dc0f460bae76	-0.34155637588876375
116	0xbfe93f23a00ffe7b	-0.7889574171276331
117	0xbfc1e3001f8a6750	-0.13974000492162952
118	0xbf96e50e225089a9	-0.02235815128745747
119	0x3f835072383ebaa2	0.00943078264375902
120	0xbfe163f92f1f9dae	-0.5434537811642508
121	0xbfc952a90653b8e5	-0.19783509072244168
122	0x3fe1b80eaba207a0	0.5537179329114572
123	0x3fc28818f1b93385	0.14477836420919857
124	0xbfbfb77b775b01c5	-0.12389346755936177
125	0xbfc253976624e150	-0.14317600715163303
126	0xbfe0a5bb871f9d9d	-0.5202310217982135
127	0x3f97b6e7b2e6f424	0.023158664984055957
128	0xbf93c5f01d716a98	-0.019309760853824715
129	0x3fd7ce6b02293f44	0.3719737549881652
130	0x3fc25ebc6ca8fe84	0.14351611428900324
131	0x3fc4ce7f135ca5b0	0.1625517696896117
132	0xbfe5af9ab1793c7a	-0.6776860681801644
133	0x3fc8d68d9b4224c3	0.1940476425263907
134	0xbfd857a6042e3d7e	-0.38034963997139204
135	0x3fc73bf3f0f7ad8d	0.18151711717596833
136	0x3fc556ae64fb0fa7	0.16670780115793812
137	0xbfade0863038e9c2	-0.05835360850001649
138	0xbfe69329c1793c7b	-0.70546424663361
139	0x3fe0df06c81f0b1c	0.5272249134653495
140	0xbfbd6202cc84108b	-0.11477677815497793
141	0x3fc20a1f24fb0fa3	0.14093388848970986
142	0xbf93eadadfb2ec27	-0.019450588134287152
143	0xbfc0b9718d1801d5	-0.1306592883047545
144	0xbfc4c15b2bfd91e9	-0.16215076110815055
145	0x3fcc0bbbccc39d61	0.21910808084724478
146	0xbfb092dfa765d757	-0.06474111401425141
147	0x3fd7d76ce7ccfa28	0.3725235236815103
148	0xbfbda299d51de722	-0.11576234295889923
149	0x3fc145c538d9ddbe	0.13494172359399487
150	0xbfc8044a8bfd91f7	-0.18763095698808716
151	0x3f912d3ea8701e32	0.016774157553326847
152	0x3faa3547d1715dd6	0.051187748257401175
153	0xbfcf08aeaa8ef3bd	-0.24245246246382904
154	0x3fbaea28e0cfbacf	0.10513549316940927
155	0xbfd40ac465a01247	-0.3131571762499203
156	0xbfcc0dfdcae22d94	-0.21917698294087684
157	0x3fdb7177d9c902e1	0.42880054729543643
158	0x3fbaf7106ec51982	0.10533240036338579
159	0xbfd942790d885c96	-0.3946821815638456
160	0xbfc420482143fffc	-0.1572351610593613
161	0x3fb9e5fb7266e6de	0.10116550009743316
162	0xbfb808c7d5c45cc0	-0.09388398140832788
163	0xbfd2fde1d852a64d	-0.2967457401779015
164	0x3fd3f0d120566242	0.3115732970996171
165	0x3fc394f75ebc0000	0.15298359037115006
166	0xbf91699dc85c9b92	-0.017004456857786794
167	0xbfda5d0d7c8b0b7a	-0.4119294849626197
168	0xbfc108f4336c8185	-0.1330857516377472
169	0xbfc8875d8ca063ae	-0.19163102499513002
170	0x3fdd5f8417c8038c	0.4589548332442568
171	0xbf9d8ae877cf0bd0	-0.028850204765841714
172	0x3fccfd2ee7dc5ff9	0.2264765388615613
173	0x3fc9a75dfc77002e	0.20042013957390864
174	0x3fbd1d007126fc9c	0.11372378122813348
175	0xbfb7690d6c093aac	-0.09144672286604799
176	0xbfd521f2847d1a62	-0.3301969808420947
177	0x3fc8ca1907dc5fcf	0.1936675346739762
178	0xbfdf4934e70c6fd8	-0.48884317935312316
179	0xbfe0648dc63b9251	-0.5122746345264862
180	0xbfd53fa91c321fd4	-0.3320105338430015
181	0xbfdea28e491d73b0	-0.4786716188444258
182	0xbfc5dbd844c5bfb1	-0.17077163084058847
183	0xbfaa9ec66d7c68e0	-0.05199260794161531
184	0xbfcb4a2535d799f3	-0.2132002365971882
185	0xbfbc3f220426cdce	-0.1103383312354744
186	0xbfe02468ba190fcf	-0.5044444689487991
187	0xbfb6981e087f9556	-0.08825862605552479
188	0xbfd24216d2e49a72	-0.28528376193063487
189	0xbfbed447cbaf32ac	-0.12042664263499131
190	0xbfc6f143edf7218b	-0.17923783416177871
191	0xbfdd35ae48e42d88	-0.45640141599934525
192	0x3fbebd7ea86020b3	0.12007896052103
193	0xbfd7e7c148e30296	-0.3735202037605999
194	0xbf42a0b9f78e6485	-0.0005684764902184203
195	0xbfc671054f29a42f	-0.1753241192375596
196	0xbfcac2681eb46d78	-0.20905782222039782
197	0xbfdae1b43b268e50	-0.42002588058878576
198	0x3fbd6d17686020df	0.11494585321645755
199	0xbfc4fcd0d712e2b3	-0.16396532537125594
200	0xbfda7f78421a9bf2	-0.4140301366373357
201	0xbfd00682ef5a36c0	-0.2503974282670747
202	0x3fe9097e43663bba	0.7824088398355038
203	0xbfb1022e3a0f914d	-0.06643952291012063
204	0x3fe7e558a589c650	0.7467463715713141
205	0x3fd6704a0e57d7f4	0.3506035938329426
206	0x3f51b03c0e455917	0.0010796152574435497
207	0x3fc5b3753d5eb289	0.16953912254884454
208	0xbfc92074f69a12bc	-0.19630300561052205
209	0xbfd3b8cc1fe1a5c4	-0.30815413583203743
210	0x3fe47bdf4d89c626	0.6401211275498937
211	0x3fada72c9a4cbf48	0.05791606315176395
212	0x3fd87f07a2198c60	0.3827532847410051
213	0xbfca1c6bb69a12bc	-0.2039923326120937
214	0x3fc58a560274ee45	0.16828417892416972
215	0xbfd40672eabefc5a	-0.31289360927980214
216	0xbfa0da2a9183b3f8	-0.03291447664546604
217	0xbfa2906eaf758818	-0.03625818149409116
218	0x3fbf51c41843a3ad	0.12234140007389156
219	0x3fd620ea9844a065	0.345759056758203
220	0xbfda1882e9283af1	-0.40774605530979985
221	0xbfa0fcb6cec1fe48	-0.03317805551432379
222	0xbfc20fd4fc60ed1e	-0.14110815356421197
223	0xbfaaad7f1f12589d	-0.052104923766067325
224	0x3fe0f01170107e17	0.5293051899679452
225	0xbfc62ed45e5074eb	-0.17330412488164568
226	0x3fce06a88ac9f79d	0.23457819725802845
227	0x3fccd3b6d3b53afc	0.22521100365926106
228	0xbf822b036884db3f	-0.008871103884855123
229	0x3fe22286c13c9592	0.5667146467355215
230	0xbfb918ada138e135	-0.09803281007851157
231	0xbf98824e8fa5558d	-0.02393458129639252
232	0x3fc47d669b37dcd3	0.16007692889227218
233	0xbfea5388e6946c52	-0.8226971152793203
234	0xbfd2c0931b44269b	-0.2930038229247686
235	0xbfc004fe47d64e46	-0.1251523829238172
236	0xbfc0769887b138c2	-0.12861925721739992
237	0xbfcb4e3d64c8232e	-0.21332518979058918
238	0x3fde14387bdcb4c7	0.4699841699210307
239	0x3fc31c7d08f920b2	0.14930689752714482
240	0x3fc128a877783505	0.13405328591799318
241	0xbfc72a17d9448d05	-0.1809720812681023
242	0xbfdff71afdf2f761	-0.49945711898532436
243	0xbfdf449050a3fa0c	-0.4885597980027405
244	0xbfc932c2af7a8ad3	-0.19686158722205124
245	0xbfc441a1fcc38294	-0.15825295297601782
246	0xbf6375a921f2bfc8	-0.0023754409190459326
247	0xbfd29dcabcf1ceb8	-0.2908808560525631
248	0xbfd792836724e6bf	-0.3683174617068338
249	0x3fc1498790857520	0.13505644375519754
250	0x3fb9cb72f4ec8b7a	0.10076063613500522
251	0xbfe6d243b3c028c8	-0.7131670485262243
252	0xbfd07bcf9c5e43ce	-0.25755682249387923
253	0x3fc52fd8927057f1	0.1655226435693176
254	0xbf51ca2ad95167ee	-0.001085798115374899
255	0xbfe7a03964ccdff1	-0.7383086174731927

block.0.bias f8 [60]
0	0xbfd55d98707dd37f	-0.3338376139211547
1	0x3fcfd7bb5134b9b4	0.24877110924849222
2	0xbfa21e9142c6a3f5	-0.03538946094642618
3	0x3f939b88d8ca5012	0.019148004752949595
4	0xbfa15e9e38936052	-0.03392500343915174
5	0x3fa82852b26a282d	0.04718264034188766
6	0xbfc351abf1f74b2f	-0.15092992129083302
7	0xbfb2f5d9f8174eef	-0.07406389529142719
8	0x3fc9bbd26ce6e98e	0.20104437177162676
9	0xbfc2f1efd649a7e8	-0.1480083271338224
10	0xbfd7d2ce2f0ff9d7	-0.37224154087007605
11	0xbfd945825b75ec94	-0.394867505375893
12	0x3fd3558d74ea968a	0.3020967141877483
13	0x3fcf5dc5cb331432	0.24504921361781978
14	0x3fa9627726c50e1d	0.049579356653819164
15	0xbf8690cd47825514	-0.011018375153336403
16	0x3f82f67933d74639	0.009259173292693311
17	0x3fdae1237c0bcd32	0.4199913703334516
18	0xbfa3d6c07f413f96	-0.03874780229000334
19	0xbfc0dddd6412c86d	-0.13177077661891037
20	0x3f86ec1319ca66fa	0.011192464088981325
21	0x3fa3bfbbd900d2c9	0.038572187652254515
22	0xbf9d627938044bb8	-0.028695959133141463
23	0xbfc725fadaa3b4ce	-0.1808465545249533
24	0x3f4f054a720b6ebc	0.0009466756347040399
25	0x3f72dc7bdf14935d	0.004604801056562771
26	0xbf9bbd0c42b9111f	-0.027088347980922408
27	0x3fc393a6493fdd7c	0.15294340683588448
28	0xbfd7d497357e7e22	-0.3723505041507186
29	0x3fd0ab6773d67cb8	0.26046167671479337
30	0xbf7969fff489d362	-0.0062046049357505646
31	0x3fc2cd4a319a9cf3	0.1468899481016944
32	0x3fd1a071b9738807	0.2754177390144154
33	0xbfae08c5b83d8c0d	-0.05866067766216796
34	0x3f7bcbd04ea8760f	0.006786168766237845
35	0xbfccbdc7506063bf	-0.2245415823424803
36	0xbfc08a14f69c7fce	-0.12921392480438815
37	0xbf6fcb655b86a3c2	-0.0038811664237141394
38	0x3fafdda3832be691	0.06223784424032631
39	0xbfcabda49c799bfa	-0.20891244545347815
40	0xbfb3196a1baaa7f9	-0.07460654426054693
41	0xbfd9020e0ba35d7a	-0.39075041901147467
42	0xbf99c02e8345e024	-0.025147177469506357
43	0x3f8b6537f8211e2e	0.013376652965361915
44	0xbfc545d958609d26	-0.1661941224603904
45	0x3f6226c69e691695	0.002215755393339356
46	0x3f769eed4b9157fc	0.005522658285448397
47	0x3f95e9df7995a326	0.021399966998987406
48	0x3fd46f65dc1c78e9	0.3192991876147873
49	0x3fa3cb9b438927dc	0.0386627693120116
50	0xbfc4890173e1eb5e	-0.1604310813744076
51	0x3fc2b1b3e3ebe24d	0.14604805592513728
52	0x3f960f34cde59a16	0.02154238230414237
53	0xbfba990a05cf8739	-0.10389769212590928
54	0x3fa31f352f211047	0.037347471240111
55	0x3fc45d6ccce180b8	0.1591011047739863
56	0x3fd041272d553208	0.25397662570029
57	0x3fb85597b1ad2b27	0.0950560387401934
58	0xbfa0b45474cbcc3b	-0.0326258080075594
59	0x3fc9cc58ebee26f6	0.2015486862185793

block.2.weight f8 [60, 60]
0	0xbfb29f8a130ed5ff	-0.07274687733919193
1	0xbf97b5be0de3f0f1	-0.02315422973423237
2	0xbfd71ecc0d343330	-0.3612547043747325
3	0xbfc4a27184841b78	-0.16120738001356094
4	0xbf72c75759b971f2	-0.004584637844882599
5	0x3fb4308f2292613b	0.07886595338857642
6	0xbfc02e84eaa589fd	-0.12641965348582565
7	0x3fdd7be2105e69e2	0.46068622206226284
8	0x3fc84545bda85973	0.1896140266478131
9	0xbff082fda3ddbd0c	-1.0319801713010888
10	0xbfd7eb3b1bfb4bef	-0.37373235447483827
11	0xbfd77435d376f5bf	-0.3664679112515294
12	0x3f9ec95a48207343	0.030064974453227988
13	0xbfc2f822a34449ea	-0.14819748851785103
14	0x3faf66c1738e8f12	0.0613308385429986
15	0xbfb77a8fe1f88972	-0.09171389834276569
16	0xbf7c57d249754cc0	-0.006919690545447554
17	0x3fba552530d4e681	0.10286171381167188
18	0x3f624e1a0092c46c	0.0022345073562851005
19	0xbfd0bee5a6e20b84	-0.2616514329640085
20	0x3f86209889e1ec91	0.0108043591574101
21	0xbfe2ae57c6980337	-0.5837820891175401
22	0xbfbd63b880a9585b	-0.11480286732816707
23	0xbfdafb3026513d62	-0.4215813039963533
24	0xbfd4e36eae310966	-0.3263813687409737
25	0x3fa435f1bc34a55d	0.039474062179872794
26	0x3fcb49a24e78a304	0.21318463164904966
27	0xbf95804bdf98477f	-0.020997224352022222
28	0x3fc6c8150d2268fd	0.17798102513626893
29	0x3fcae07704b85be8	0.20997512560344878
30	0x3fbd72ace833b5d4	0.11503105801576591
31	0xbf64a721227382a5	-0.0025210997733754064
32	0xbfd3e3b21c49b49e	-0.31077244532100134
33	0xbf9c8c3523291f0f	-0.027878599425348812
34	0x3fd5d6838a7c47fc	0.34121788524600993
35	0x3fa0c58115f0eee6	0.032756837776529754
36	0xbfbeee3290530518	-0.12082210563223261
37	0x3fcf811c2707d7dc	0.24612762361328933
38	0x3fc1a842e1cd14fe	0.13794742608494198
39	0xbfbf672fb90fd05f	-0.12266824977979372
40	0xbfae1d01ef430faa	-0.05881506009748645
41	0xbfcfc839c018f64e	-0.2482979000068774
42	0xbfc969c24b438ddc	-0.19854000735277466
43	0x3fd4192464ef9ec2	0.31403455597908814
44	0x3fc0bb98e6dfd9e6	0.1307250144306657
45	0x3f270b09933cb3a0	0.00017580501445859948
46	0xbfb80cb9ffc5d2b9	-0.09394419187976667
47	0xbfc054ba3e3aefbf	-0.12758567846856114
48	0x3fc5d67ff7075494	0.1706085163301948
49	0x3fcc69577eb663dd	0.22196477591640376
50	0xbfc9161152a8049b	-0.19598595176652087
51	0x3fa1a640107b1141	0.034471513759430035
52	0xbfac4049c46a22a1	-0.05517797968520211
53	0x3fd2825ef0f0c9d2	0.2892072060523364
54	0xbfc798c7f128ce46	-0.18435000682221608
55	0x3fabbebedb8ff1c7	0.054189647962604996
56	0xbfc17c660aa74f6f	-0.1366088439959827
57	0xbfb727eda41e5bae	-0.09045300728608538
58	0x3fbaec7686e441c5	0.1051706389737382
59	0x3fbc22621b245089	0.1098996464027683
60	0x3fd01b4d092c51e9	0.2516663159924791
61	0x3f9c0dc943e0aa2a	0.02739634014884921
62	0x3fd0367d6061952e	0.2533257905218588
63	0x3fa07d987bbab79c	0.03220821867340293
64	0x3fa73b61ae1e48c8	0.04537492037265306
65	0xbfc07868a23bb9f0	-0.12867458268688337
66	0xbfd75879ad5c8910	-0.3647751038535185
67	0xbfd4691730b83a89	-0.31891422040727285
68	0x3fc48b69ea4f9367	0.16050456944426658
69	0xbfbdec0e5e8e0a80	-0.11688318069904291
70	0x3fd0db42f25a5884	0.26338266055370974
71	0xbfb7334d717b81a6	-0.09062656422202639
72	0xbfbb4d4ea94b9e8b	-0.10664836533725912
73	0xbfc28e44056d1c95	-0.14496660485221882
74	0x3fb6097dba067377	0.08608232299452633
75	0x3f9128424c9b87dc	0.01675513832640961
76	0x3fad1ff59d9b1647	0.056884456147184674
77	0xbfc4c129b1ede9c6	-0.16214486301380598
78	0xbfbaa3b9faf280a2	-0.10406076790468657
79	0x3fd10f407ba7d91c	0.26655590129611695
80	0xbfd0151d92ba85cf	-0.25128878907170543
81	0x3f9c5e087be6305c	0.02770245796413949
82	0x3fa18c203c46ae3b	0.034272200925752526
83	0x3fd47c30932a2ca3	0.3200799405246448
84	0x3fbf64726f877e19	0.12262644980318561
85	0x3fbdc5baf6afc037	0.11629837534542352
86	0x3fa88f52282f7a93	0.047968451886608275
87	0x3fc4caf184503c6e	0.1624433418332702
88	0x3fadc32ea9aa84b0	0.05812974759215572
89	0x3fca89758e5e6c13	0.20731992198565816
90	0xbf8bb6738f24d803	-0.013531592183976931
91	0xbfa32ddc97cff860	-0.03745927193811904
92	0x3fc6a663e7c7e28d	0.17695282761976153
93	0xbfcf337bd6e6a29a	-0.24375865929802815
94	0x3fc3aee24d829647	0.153774535986644
95	0x3fc570ccffc448e1	0.16750490654573638
96	0x3fc0cba32ba45a87	0.13121451979596463
97	0xbfb53427d4e9f028	-0.08282708118525817
98	0x3fbc4372acf54054	0.11040417406661734
99	0xbfcfdc87fd303d2e	-0.24891757834164124
100	0xbfdb0c157dfe49eb	-0.42261254600558
101	0xbfd3db0e3185e1a0	-0.3102450832007211
102	0x3fc50ff3e34e1a48	0.16454933737641597
103	0x3fb26684f352d1b0	0.07187682095065528
104	0xbfa1f1245c4b3720	-0.03504289271005079
105	0xbfc7a4713bdbcbed	-0.18470588133604285
106	0x3f954e43b2f1d097	0.0208063676804647
107	0x3fbadd08b8e4237a	0.10493521226829997
108	0xbfa78c2be6919f2d	-0.04599129857598281
109	0x3fa5b8a74a83b624	0.04242441925621801
110	0x3f65b4b8cccebec3	0.0026496514678554252
111	0x3fa043e32aba924e	0.03176793953506217
112	0xbfb9841ec4a826ec	-0.0996722440833328
113	0xbfb82ad1eb1ba455	-0.0944033812517245
114	0xbfc8d5ee9c07afa1	-0.19402868860867975
115	0xbfcd1c6972d7ec0e	-0.22742956264104958
116	0x3fcc2eddc7ac4f6e	0.22018024682676746
117	0xbfc96cf9734547f0	-0.1986381352276676
118	0xbfd5844eff4bbdea	-0.3362004750369737
119	0x3fb52112d98a2b08	0.08253591357258128
120	0x3fc530698fd3da70	0.16553992770032577
121	0xbfc560864e4d8365	-0.167008198007376
122	0xbfa940d01de2c696	-0.049322608612226634
123	0x3f8c77ef08d41cda	0.013900630433012418
124	0x3fcd4ef86cb350e4	0.2289724856151515
125	0x3fd9197669ef71da	0.3921791109585492
126	0xbfb2d09346314f43	-0.07349510635077387
127	0xbfccf72e97ac144a	-0.22629339605205906
128	0x3fdd53d0cf9deb71	0.45824070239148457
129	0xbfac3a4429dcf356	-0.05513203631423973
130	0x3fd51382511e21e4	0.3293157379307827
131	0xbf8838f6d26f2332	-0.011827400490703608
132	0x3fd60b5dfbc427af	0.34444379412218046
133	0x3fb6cdd41f8e2c36	0.08907819528956015
134	0xbfc4da656bb1d787	-0.1629149223187449
135	0x3fc77cdf2bfd8a3c	0.1834982838436917
136	0xbfc54adef9cbfcc1	-0.1663473815642416
137	0x3fb84bb1ac958f0a	0.09490499938470634
138	0xbfe02d214cd3dd1b	-0.5055090427912633
139	0x3fccc200c86abf13	0.224670503482678
140	0xbfd5f04494f1b4c5	-0.34278978867844173
141	0xbfafe6b97f98c2ab	-0.06230716402604249
142	0x3fd094db961b961c	0.25908555659256804
143	0x3fc38fc866fe52e6	0.1528254034898488
144	0x3fac9623c5615726	0.05583297523905477
145	0x3f9367d9693a6705	0.01895084099542201
146	0xbf8f3be7e488532c	-0.015250980054625517
147	0xbfbdbcde34a9a46c	-0.11616314683637236
148	0x3fd1cc4b805e5fc5	0.27809417282105314
149	0x3fae28d2241b4c6b	0.058905188472316926
150	0x3f81f31273889e60	0.008764404440696427
151	0x3fb648e8b13b1faf	0.08705000235488457
152	0x3fc8aba190a6cd94	0.192737765913631
153	0x3f5487c9ab9adc45	0.0012530774533112837
154	0xbfd87054fad5505d	-0.3818561982673197
155	0x3fd43d74fda7c46a	0.31625103732137083
156	0xbfced59f4e511429	-0.24089423488672537
157	0xbfd06b1cc24b96f5	-0.25653761839053796
158	0x3fd2b6a6cdbf595c	0.2923981675388825
159	0x3fd7afb62d34ca39	0.370099586626711
160	0x3fc35990a9501433	0.15117080943324054
161	0xbfb2602567c77f23	-0.07177957328485411
162	0xbfb0132ba760dbb4	-0.06279251896272237
163	0xbfc997acebdcaaae	-0.19994126812647067
164	0x3fdbb1db4706968f	0.4327305024729435
165	0x3f866a4e78ec8ee4	0.01094495111971789
166	0x3f8e3c3d968f8912	0.01476333728527782
167	0x3fa5e8befec5812c	0.04279133663181009
168	0xbfd03442e4073fd3	-0.25318977611914056
169	0xbfc2981a78368c5f	-0.14526682729510562
170	0x3f86d9070a38c21a	0.011156134604875457
171	0x3fca2e9453b32189	0.20454649054432775
172	0x3f9c070e8799ac8a	0.02737066939009173
173	0xbfba923bcab2df10	-0.1037938470716393
174	0x3fa0104ee8e1d9da	0.03137442200470604
175	0xbfc805a822b0771c	-0.18767263120474176
176	0xbfcedc952d5a4c6e	-0.2411066504906531
177	0x3fce8023dc97f800	0.23828552504704703
178	0x3fd396c7b17a3cf4	0.30607788402353653
179	0xbfce578fa2da5dee	-0.2370471520596164
180	0xbfe4fbbd7f28c932	-0.655730007513091
181	0x3fc25e76c5c394e2	0.1435078111309514
182	0x3fd7dfea5360c6e7	0.373041707443106
183	0xbfc27ddd0b968e77	-0.14446604791475057
184	0x3fe08395bb5cd44f	0.5160626086641374
185	0x3fce27aa60129b4b	0.23558549586342745
186	0xbfc55b749654154a	-0.16685349788910236
187	0xbfb82aec38496aeb	-0.094404948942081
188	0x3fd08ed3fd3982e6	0.2587175343415268
189	0xbfe1b986dcad35d3	-0.5538973150339025
190	0xbf880cce3c341a36	-0.0117431747553499
191	0xbfda12283ec4b913	-0.4073582280133376
192	0x3fc6ff3fbf104239	0.17966458157799695
193	0x3fca426faa44ca15	0.20515247167493614
194	0xbfb8698fd58667ad	-0.0953607460309331
195	0xbfa669fdb66d7fc7	-0.04377739765072835
196	0xbfd95b697c8c4e86	-0.39620434916398783
197	0x3fc59e145e00dad2	0.16888670530325683
198	0x3fae24714353c62f	0.05887178370347745
199	0xbfd671114ade465c	-0.3506510954985964
200	0xbfd5fbbc3bdbb2f9	-0.3434897026589137
201	0xbfd60eb675bb7afe	-0.3446479940156876
202	0x3fab9f0c653a22d9	0.053947818142722155
203	0x3fb81d90c99f4169	0.09420113489546157
204	0x3fd7befc84fcb82d	0.3710318850234014
205	0xbfba5d50b4717c32	-0.10298637776712452
206	0x3fa7f6bd46c91e15	0.046804346934148956
207	0x3fcbf412083766c9	0.21838593865577696
208	0x3fbafda3947edfeb	0.105432723764238
209	0xbf907f06417fd72e	-0.016109559772267072
210	0xbfc9f68ea2205fc8	-0.20283682743388298
211	0x3fd57190ae595111	0.33505646730670074
212	0xbf7b076adc16fbd5	-0.006598870678714304
213	0x3fb5f67c3a0a2bcb	0.08579231659875501
214	0xbfb3689c8b834091	-0.07581499486991762
215	0x3f9b1ed962f1d451	0.026484867729284215
216	0xbfc6dc23128673ba	-0.17859304813910432
217	0xbfda4d8aa1ea077a	-0.4109827595894938
218	0x3fc090171410e4c1	0.12939728240761464
219	0xbfe06060e39db20f	-0.5117649503350225
220	0xbfe1c7c979f64fa5	-0.5556380636285111
221	0xbfbb91dd8110bbf2	-0.10769447709093052
222	0xbfdc159d64dc9cd7	-0.4388192639330106
223	0x3f783cc24923f0a8	0.005917319229635044
224	0xbfcd1468997270df	-0.22718532078295703
225	0x3f98b97928cb50d4	0.024145024409180163
226	0x3fd77aec9d4e64d3	0.36687770235000733
227	0xbfdc0e2625f3385b	-0.43836358743727083
228	0xbfafa9661bf57c27	-0.061839285767512124
229	0xbfa1a549c1e2fde3	-0.03446417323857156
230	0x3fa665112ac56d15	0.043739830466359354
231	0xbfdb3f3f3fe25c68	-0.425735294711052
232	0xbfb93c3d0b6f467b	-0.09857541588942269
233	0xbfe48627627bf921	-0.641376201965418
234	0xbfe4e5efda603a1f	-0.6530684724000969
235	0x3fd4f28261b2527d	0.3273015932148054
236	0xbf89b5296fe0cd70	-0.012552570082425801
237	0x3fbe3cd09fda086c	0.11811546232823539
238	0x3fbabe4253160d46	0.10446562317342964
239	0xbfcb5b07c0c8c0a5	-0.21371552384653572
240	0xbfe0e3a82f54bb04	-0.5277901577408959
241	0xbfb9b1703b293501	-0.10036374515876291
242	0x3fbfce3ddfc58cc3	0.12424074853111038
243	0xbfd3759a01b4519a	-0.30405283132975003
244	0x3fe4f71573609c35	0.655161595674946
245	0xbfc40e1ca3545e8e	-0.15668066001011421
246	0x3fc176318d507ff1	0.13641948127860773
247	0xbfc72226293ab834	-0.18072964680817594
248	0xbfa8351afa97fa9f	-0.04728016194348083
249	0xbfc0eb7c9019bb81	-0.1321864799133117
250	0xbf918e02bcf22ded	-0.01714329031214661
251	0x3fcb7555df1dfa49	0.21451829332723296
252	0xbf62de5bf599e612	-0.0023032947618133537
253	0xbfd2f3386c3140cd	-0.2960949951711996
254	0x3faeb9d3e1fbbefb	0.0600115025862333
255	0x3fc6f920b2149b77	0.1794777745755842

block.2.bias f8 [60]
0	0xbfa72f09bc509d2b	-0.04528074668660972
1	0x3fc963c203eff8c5	0.1983568686700378
2	0xbfe1d1dec0c1b52b	-0.5568689121988987
3	0x3fd147c3c61e5fbb	0.27000517222904435
4	0x3fa93226eda005a1	0.04921075487801408
5	0x3fc388f298f9da14	0.15261681050806486
6	0xbfc22a7625abf50c	-0.14192082251967297
7	0x3fba06f03bf29c38	0.10166837180678179
8	0xbfcd53bb0fdfbc1f	-0.22911775851341162
9	0x3fb1e3e48a4ac60f	0.06988361717483137
10	0xbfb8b3e30801d1c6	-0.09649485536085142
11	0x3fd4b6744640e801	0.3236361204213836
12	0x3fd8f228a8f1c8bc	0.3897802018974621
13	0xbfb26d758acb2562	-0.07198271406664028
14	0x3fc94bc1e8ae3c3e	0.19762443410260916
15	0x3faf5cf6c4eb3585	0.06125613359254615
16	0xbfaf23bbb12b2332	-0.06081949746800887
17	0x3fc0e2f0f1614be3	0.1319256952870936
18	0x3fc93ded08a616be	0.19720232889465267
19	0xbfbc880c9a62539e	-0.11145094651358398
20	0xbfacb15cb23c468f	-0.05604066539502838
21	0x3f9c0730c1d93ced	0.027371179420069437
22	0xbfc9eff8ca014323	-0.20263585914155965
23	0x3fbcaefcc48586d4	0.11204509542360636
24	0xbf963980f5561add	-0.021703734373228357
25	0x3fb227d314e54adf	0.07092017421863826
26	0x3fa2622e048dad38	0.035905302100980696
27	0x3fc65e2453691584	0.17474798271920744
28	0x3fc9a7b22138cd4d	0.20043017027055968
29	0xbfa0740db68be972	-0.032135418447029176
30	0x3fa3e044834353ac	0.038820401213946226
31	0x3fad41646f3cad91	0.0571395288264639
32	0xbfbabb2b794e8f47	-0.10441848479837033
33	0xbfc7b7b006c52fe4	-0.18529320078448486
34	0xbfb9e3cb91a7b0c4	-0.10113212877303385
35	0x3fba89adb2710c2b	0.10366330725177934
36	0xbfc2fb2662421376	-0.14828948781737566
37	0x3fd0cba64ca89c0b	0.2624297855967945
38	0x3f991ada30ef6467	0.024516495930445716
39	0x3fc8ba50845be42f	0.19318586790885336
40	0xbfc6a11ad3a8ab5b	-0.17679152808099272
41	0x3fb4fcb13eb4b4cb	0.0819807794657265
42	0x3fb1949f428ef294	0.06867404341660183
43	0xbfdc0d8c51863035	-0.438326911557627
44	0xbfb33ee20bf03b3a	-0.07517826835122046
45	0x3fac1de923709777	0.054915700508259606
46	0x3fc6bfee8f132507	0.17773229585717606
47	0x3fbaf417f97b6c3a	0.10528707352516245
48	0x3fd63c7e22a8d7ac	0.34744218239517966
49	0xbf94a30a41aaa36b	-0.020153198488205442
50	0x3f9b5bef3bb8a01c	0.02671788980492816
51	0xbfa859cc921f9cfb	-0.04756011279806135
52	0x3fd8347108a1b787	0.37820077746334174
53	0x3fa017daa2a427fb	0.03143199191443099
54	0x3fc67567c98121c1	0.17545792903025695
55	0xbfaed8855b2bc25f	-0.06024567354132126
56	0x3f7fa3ecac059db4	0.007724689960333309
57	0x3fb92998ddee6c10	0.09829097192998426
58	0xbfd3f519016797e2	-0.3118345750539203
59	0x3f8b5f879486f5bc	0.013365802021207844

block.4.weight f8 [60, 60]
0	0xbfc80d79010945e4	-0.18791115332218944
1	0x3fc7788bb536d15b	0.18336626385065355
2	0xbfca2332d02e4631	-0.20419917264057255
3	0x3faba568489b92d6	0.053996332991834414
4	0xbfc0ee3bba3457bf	-0.13227030365004386
5	0xbfbbe712a65c8593	-0.10899464189107837
6	0x3f9388c162b5b05d	0.01907636799789746
7	0x3fc16e5c2de6e978	0.13618042222317306
8	0xbfc796c75be51cd1	-0.18428890215930108
9	0xbfbc3c9b3e31ca3c	-0.11029978054447381
10	0xbfcc89730b54ded8	-0.222944622548076
11	0xbfce6c2eb085a006	-0.23767646426426853
12	0x3fb9cfaa09a9fd0f	0.10082495437562876
13	0xbfb8f4bdb539037c	-0.09748445200331263
14	0xbfa8bc668a3e7f8e	-0.048312382102493875
15	0xbfbef5431268a188	-0.12092990111762536
16	0x3fce847fd5875490	0.23841855932429157
17	0x3fc92dae41f05001	0.19670656413711643
18	0x3fc48b26afba31d9	0.16049655514178943
19	0x3fd0a63d483a4295	0.2601464467379995
20	0x3fd914c938c15565	0.39189367811680703
21	0xbfb547f5199fd294	-0.08312923312753134
22	0xbfa2292d060d2ba6	-0.03547039698476988
23	0xbfd79557b6ccb172	-0.36849015094300974
24	0x3f9c4286273c1635	0.027597519058892146
25	0xbf9c9a627d696b24	-0.027932680992630257
26	0x3fc594480aa53074	0.16858768958843806
27	0x3fcdd4fa54c731a3	0.2330620683627674
28	0x3fd31701de5c3e45	0.2982792541015196
29	0x3f73f28287849f26	0.004869947319356338
30	0xbfa0b8938222513d	-0.03265820468473855
31	0xbfa43c878c38a7cc	-0.03952430330930631
32	0xbfe25772c7384312	-0.5731748476992797
33	0xbfa5dea5336b50eb	-0.04271427395511459
34	0xbf8332efcd8b2613	-0.009374497852507912
35	0xbf959ae5f2cfd716	-0.021098702378330968
36	0xbfb9454ba3cb84f2	-0.09871361493016531
37	0xbfd160e8af003afd	-0.2715398510926404
38	0xbfc65ed69c896889	-0.174769236024819
39	0x3fca82f1c3478a49	0.20712110552911359
40	0xbfde37a79ad1981f	-0.4721468936826358
41	0xbfd92ad51fab8845	-0.39323928921487933
42	0xbfb26d68405355ef	-0.07198192186782369
43	0xbfd25ea8d0605fd1	-0.2870275530744922
44	0xbfc7fe763e990bdb	-0.18745306068930642
45	0xbfdedf042fc2f596	-0.4823618379994853
46	0x3fb5fdeb26995cdd	0.08590573971138178
47	0x3fa87ec062fdb634	0.047842037280912214
48	0xbfa0ab7b1cc9d9d5	-0.03255829550191761
49	0xbfd637c7c1931534	-0.3471545591713323
50	0xbf98d68d803102eb	-0.02425595374029658
51	0x3fd21d064faacffd	0.2830215242386201
52	0x3fbbd1a2016e7452	0.10866749319980443
53	0x3fb18eaa8c44d186	0.06858316349536694
54	0xbfbd321b0bd4a1ce	-0.11404580153305874
55	0x3fd301c350da023b	0.29698260207809185
56	0xbfcabe896569f85c	-0.20893971874096706
57	0x3fb6b394024861e1	0.0886776452611069
58	0xbfc19d6d9f658e20	-0.1376168278030585
59	0x3fb1cddd1e7570e4	0.06954748147603912
60	0xbfe2a26850ae20ea	-0.5823251319680172
61	0x3fa65209da3a908f	0.04359465397763628
62	0x3fbe7d5afd155e77	0.11910027197643012
63	0xbfbeddf529462da0	-0.12057430513066558
64	0xbfd24f3bb1b3d893	-0.2860860095382886
65	0xbfb4b87dbc52f735	-0.08094011161571475
66	0x3fc7ff02a7aec061	0.18746979892376017
67	0x3fb2e81fff5cee12	0.07385444626282148
68	0xbfd0b1b678689f46	-0.26084672697696865
69	0xbfb5964d51d99ab9	-0.08432467697421488
70	0x3fb00c7c5eff5aaa	0.0626905185630259
71	0x3fbc8387aab3ca4b	0.11138198773895984
72	0xbfc89fbf31b49c6f	-0.1923750870421119
73	0x3f8aea8200e4fcf0	0.013142600681588651
74	0x3fb33b8e2b57d2d5	0.07512749250583835
75	0xbfd0557eb5eaeb9d	-0.2552181984462381
76	0xbfb65aa7bd3fc03d	-0.08732078905427527
77	0xbf915c10fd0dea70	-0.016952767796718893
78	0x3fc8fcc4a63fe4c7	0.19521387212424754
79	0xbfbcc71a732a2785	-0.11241307555806486
80	0xbfc00ccce022720c	-0.1253906340033527
81	0x3fe12b491e23c4f5	0.5365338886896597
82	0xbff014bca1e39509	-1.0050627063549789
83	0xbfa02ee65685f144	-0.03160781675521432
84	0x3fc75b7efd684ea5	0.1824797379818978
85	0xbfe2156015ec9cef	-0.565109293766822
86	0x3fc20fad6efbb872	0.1411034385595858
87	0x3fc55d1ec5466b3b	0.1669043029076763
88	0x3fcdee46bb671be3	0.23383411551023334
89	0x3fb4e0ac1e19a21c	0.08155322775713397
90	0x3fc9969628ed9a7e	0.19990803717083233
91	0x3f7199ed05abc8d9	0.00429718577173529
92	0x3fda5f8e8c2af97f	0.41208232582348353
93	0xbfb7434b2dae5379	-0.09087056985147325
94	0xbf6ffd50490e34b0	-0.0039049690316859884
95	0x3fa7206f1512a114	0.04516932613597838
96	0xbfd87b23b5e41095	-0.3825158382680994
97	0x3fc5bc89bc21ff47	0.16981622396633098
98	0xbfd20a3c86577f12	-0.281874781792781
99	0xbfb2386201b79945	-0.07117283384250069
100	0xbfc2e56233079160	-0.1476252316634925
101	0xbfb0f963d06d629c	-0.0663053878646544
102	0xbfc4ac5f192ecde6	-0.16151036004667602
103	0x3f8b74bf4aa6e3da	0.013406271424956918
104	0xbfd66887a4432c0f	-0.35012999573945164
105	0x3fdc2b9f35431223	0.4401624698769259
106	0x3f94501e5c4c99cf	0.01983687818860763
107	0xbfd02165793642ad	-0.25203835332016916
108	0x3fd153cba833efdf	0.27073947359144585
109	0x3fb96166d180f13f	0.09914248099170651
110	0x3fc7a2386c09edd1	0.18463807368594456
111	0xbfdfe263ea29fc25	-0.49819276683405384
112	0x3fcd893c6e244193	0.2307506120491892
113	0xbfd4ad5fa9d53cb6	-0.323081889965532
114	0x3fbad7cceae32799	0.10485535368493827
115	0xbf719d920492f5c4	-0.004300661451620728
116	0xbfcc0af884074e66	-0.2190848011656385
117	0x3fd1415503e2f95e	0.2696125543551683
118	0x3fba216eaa5355d6	0.10207263620699022
119	0x3fb2f9217f5a225d	0.07411393508130844
120	0x3fdb49458d66a38e	0.4263471489780891
121	0x3fc46e25483f64e9	0.1596113779803894
122	0x3fcd3acb284d4db0	0.2283567377840945
123	0x3fcfea28308f6b68	0.24933340426545247
124	0x3fb28e2c8f9a9e8f	0.07248190408665266
125	0xbfd04f648a88fdfe	-0.25484574822255
126	0xbfc35fd03b48b0da	-0.15136149306034136
127	0xbf8e3afff01e19eb	-0.014760970607096765
128	0x3fb762350f11e873	0.09134227388304499
129	0x3fc3b89f8cd2d19d	0.15407175422809596
130	0x3fce65b73bb5705a	0.23747911849466413
131	0xbf811eb3e36953f6	-0.008359341981455142
132	0x3fd62f6fea3a9e1f	0.34664533494876254
133	0xbfb55b39a8004d8d	-0.08342323638526335
134	0xbfb0b8b7bdfd817a	-0.0653185690730477
135	0xbfba1c5ad18aa196	-0.10199515929946865
136	0x3fb7c85f932fe7e8	0.09290120452342843
137	0x3fc1f1ed2f0a72af	0.1401955108348338
138	0x3fcca274bcf16317	0.22370776391724043
139	0xbfb64ce6a3e564a3	-0.08711091519707508
140	0xbfbe5a3a4da093e5	-0.11856426615902611
141	0xbfc3a75bff39b3bf	-0.15354490244081195
142	0xbfdbdb32b219c76a	-0.4352537860169067
143	0x3fcaf6dedc5aaef9	0.21065889129146578
144	0x3fcac0b52c43090f	0.209005972492442
145	0x3fd0ff9ca49f2c23	0.26560131145805793
146	0xbfcb806e1003f1a7	-0.2148568704796052
147	0x3fd4c54177f95ba3	0.32453953472343694
148	0xbfccb75e98a90451	-0.22434599355804832
149	0xbfb813b662b648c6	-0.09405078802072628
150	0xbfc2177b96f73636	-0.14134163733835842
151	0x3fb4dc29071b2f1d	0.08148437903872403
152	0x3fc06a0f38a87aad	0.12823667780408723
153	0xbfc2dc6da7b27435	-0.14735193909010183
154	0x3fdcd07026ffcc8d	0.45022205170170865
155	0x3fad4734ec74aeec	0.05718388925956028
156	0x3fb0ef795a8e3bf3	0.06615408383207448
157	0xbfe2c02e1b848b60	-0.585959485765084
158	0x3f9e5006b10f88fa	0.02960215049450541
159	0xbfd180d52e35ff7f	-0.27348832619463076
160	0x3fc02edb0b7e8289	0.12642992078055595
161	0x3fc2b9c73f725157	0.14629450414634945
162	0xbf759df7a17c715f	-0.0052776024893116105
163	0x3fc8b678736892ca	0.19306855807476203
164	0x3fc7b77383c1b4e7	0.18528598721915232
165	0x3f92c9bc6d5cdcb7	0.01834768693444452
166	0x3fd2a6ced93a7a1c	0.29143115247453166
167	0xbfbbbd16a5fb3c9d	-0.10835401108055227
168	0xbfd986232b0dd89b	-0.39881209568501114
169	0x3fd040aaa51d269a	0.253946934932722
170	0x3fbd620353fe8d16	0.11477680969851564
171	0x3fc45fed83fcccdd	0.15917748398496814
172	0xbf9c7b80651ceffa	-0.027814870997858045
173	0xbfc0238fe391c032	-0.12608526813301207
174	0x3fa307cae227e1c7	0.037168827158840005
175	0xbfb9ad6457179e52	-0.10030200125003688
176	0xbfa3337ef3afbd43	-0.037502257582554786
177	0x3fc9708788170310	0.19874662537588295
178	0xbfa3e1a3014f0780	-0.03883084670043413
179	0x3fc149276e952632	0.1350449838594599
180	0xbf7fd0d67bef828f	-0.007767522648436511
181	0xbfb75ebdd577593a	-0.09128939115121151
182	0x3fc0a6cb194f1997	0.13009012923994298
183	0x3fd4fec2e04e9718	0.32804939179401194
184	0x3fd4a25a987bb722	0.32240929499572435
185	0xbf92434c65900e88	-0.017834848116776075
186	0xbfd2ed7a9f5269eb	-0.2957445674780092
187	0xbfb4f901f00d8133	-0.08192455397284419
188	0x3fda5a51567ac452	0.41176255650777194
189	0xbfcafacb24ef2ae6	-0.21077861121587843
190	0x3fab66681e366217	0.053515676200906075
191	0x3fd460826e7ba6cb	0.3183904723106081
192	0xbfe2a1ff2e7c7657	-0.5822750003751008
193	0x3fdb78858400c9b7	0.4292310513584669
194	0x3faaf35b4abf1879	0.05263791358406506
195	0x3fd92506f4dccfbb	0.3928849593387402
196	0xbf5d7a331b9e7c3b	-0.001799154195829335
197	0x3f66de2956dcff47	0.0027914817245856846
198	0xbfc11f5fab217352	-0.1337699494933085
199	0x3fca70ce87f7634d	0.2065675891779172
200	0x3f8ba28a3ac11977	0.013493614118613035
201	0xbfd070c756187fde	-0.2568834629801112
202	0x3fe136de4afbef03	0.5379477943929206
203	0x3fc619c19642dad0	0.17266101681680945
204	0x3fbfd0cf6a46d656	0.12427994103094284
205	0xbfd5031ed00b74b5	-0.32831545178289484
206	0xbf76db2e51775dcd	-0.005580120974137026
207	0xbfacabc6801d612b	-0.055998042239197986
208	0xbfc32a69cc5bcd0b	-0.1497318504185404
209	0xbfa49bd79ecce826	-0.04025148213845879
210	0xbfdc46ab9e8baa48	-0.44181337817159205
211	0xbfa8431c908f079e	-0.04738702072746935
212	0xbfc9faeb50f550d9	-0.20296994641342428
213	0xbfbd1ff5574b0c82	-0.11376889592343001
214	0x3fce9351733a59ed	0.238870793594017
215	0xbfc4a6455dbe008c	-0.1613241870618406
216	0xbfb9c4911701fe7a	-0.10065562068666081
217	0xbfe0c76649b0a465	-0.5243407668359735
218	0x3f8a5c7390b7fcfd	0.012871649602856023
219	0xbfbabdff18bd3421	-0.10446161607724537
220	0xbfc25ee4dacfdf12	-0.14352093395404403
221	0xbfc5d61ef3d70ece	-0.17059695154431725
222	0x3fb65946284669e8	0.08729971392896341
223	0xbfb042593f05bd06	-0.06351239956505958
224	0x3fd3543780669acc	0.30201518572941377
225	0xbfd00a77d88ed4bb	-0.2506389250587053
226	0xbfc59d8ce48f1640	-0.1688705554972092
227	0x3fcf3bdc8456f4d7	0.24401432477853888
228	0xbfa3738f948e29bf	-0.0379910343973111
229	0x3fba6db9335f675f	0.10323674682822802
230	0xbfe3ff4f89960e74	-0.6249158560971879
231	0x3fc079c798b2a772	0.12871642070723116
232	0xbfcb8d19211d1ec2	-0.2152434741676555
233	0x3fc9e5665ddc3c37	0.20231322844526442
234	0xbfc14f71bfce145d	-0.13523694863775662
235	0x3fd9f7c41c9075ac	0.40574744023782716
236	0x3fc2bc015ff042c0	0.1463624685716436
237	0x3fd7007db3240622	0.35940496916018294
238	0x3f95da146b52c041	0.021339720774165242
239	0xbfc45ffb72604386	-0.15917914471404176
240	0x3fc5f864fec009dc	0.17164289893123807
241	0x3fc5556f7c13a78f	0.16666978414951614
242	0xbfd6fe8c4ae98bae	-0.35928637805607877
243	0x3fb300956b4219e8	0.07422765606506909
244	0x3fcf443f9f82c096	0.2442702797757234
245	0xbfdd9cba4a23f296	-0.46269089927936
246	0xbfbe0aafec329ea9	-0.117350573697531
247	0x3fc3559b9489ed1b	0.15105004074926218
248	0x3fc41cae42be4ff5	0.1571252656837029
249	0x3f45ec4060b175fa	0.00066903251116529
250	0xbfc4d2b0dcb6040d	-0.162679775017779
251	0x3fd8db2bd67372f7	0.38837715094068365
252	0x3fb749ca03342789	0.09096968248573324
253	0xbf86846e33d7443b	-0.010994778592165235
254	0x3fc371fb5583aec9	0.1519159476805412
255	0x3fbb3ffb1fe6120c	0.10644502190377397

block.4.bias f8 [60]
0	0x3fd67a82f9732ba3	0.35122751579609196
1	0x3fb98b14a040e27f	0.09977845108449833
2	0xbfd2c0c1a33d86ac	-0.2930149168151768
3	0xbfb6e517031a606d	-0.0894331343246237
4	0xbfa6400d53b2fe06	-0.043457428424059016
5	0x3fc3cfaff4c71a64	0.1547756142810669
6	0xbfa3da50816644f0	-0.03877498225768672
7	0xbfc03f3f1e5616d3	-0.12693013173355058
8	0x3fdd2a9f2349129e	0.4557264179787043
9	0x3fd2e38fb75ce316	0.2951392450955138
10	0xbfab21213074caba	-0.0529871341372163
11	0x3fbdb132216b7063	0.11598504367742772
12	0xbf8ed479831d394a	-0.015053700746332627
13	0xbfba9d2fe768311a	-0.10396098517975752
14	0xbfd387ddcb432df6	-0.3051676259026118
15	0xbfc9531a168b6799	-0.19784856892402727
16	0xbfbb72dafbab1087	-0.1072213043617599
17	0xbfa0728b71debd2f	-0.032123906755595726
18	0xbfd395fb6f838397	-0.3060291851998555
19	0x3f90a60dcf247665	0.016258445518465687
20	0xbfc3e0c23d20162b	-0.15529659256587655
21	0xbfca486dfffd0e0d	-0.20533537864149345
22	0xbfc5429bf30cad0f	-0.16609525077488071
23	0x3fb7377b50e08996	0.09069033360041198
24	0x3facec9635c724be	0.0564925137183052
25	0x3fd2b773ff542785	0.29244708952375503
26	0x3fbdeb48e5d22514	0.11687141047345434
27	0xbfc139e3609eff99	-0.13457910745455307
28	0x3fbe927db005c68b	0.11942277476716805
29	0x3fc195d393ed791c	0.13738484118489047
30	0xbfa831131e3529a1	-0.04724941009279183
31	0xbf95a53e4ce5a420	-0.021138165896818717
32	0x3fb25dc13bfe34f7	0.07174308504746195
33	0xbfbdfde3b04fdc80	-0.11715529493800325
34	0x3fbf0fce8bc9f466	0.12133494293989741
35	0xbfc34e8f0a583096	-0.15083492283918493
36	0xbfc3f30ac61c93dc	-0.1558545558301877
37	0x3fcd883c52a72faf	0.23072008167070865
38	0xbfb8199e21372daa	-0.09414089499403269
39	0x3fd271bc63b6bddf	0.28819188821486635
40	0x3fce9e6cf3424637	0.2392097652232665
41	0xbf9f3b2c507815a1	-0.03049916497368133
42	0xbfbaf98ac2ba6a04	-0.10537020925622903
43	0x3fb6b0a1a2a69872	0.08863268109289082
44	0x3fcf79d4871b8e0b	0.24590546223690554
45	0xbfa4c97f69476ff7	-0.04059980545181923
46	0xbfc8a63462247c66	-0.19257216255298032
47	0x3fb57d57f90a3472	0.0839438422210195
48	0xbf3e9553b27fe376	-0.0004666642512343647
49	0x3faa2af55442c613	0.051108995948549694
50	0x3fa6f96509c753ca	0.044871480411223866
51	0x3fbe8c1374edef0a	0.11932489018175488
52	0x3f8b3557f09e9770	0.013285338431000077
53	0xbfc120c53c5e0e1c	-0.133812574840804
54	0x3f9298b348e291bf	0.018160630534696184
55	0x3fd43c2265744035	0.31617031009318747
56	0xbfcb2cfa38cd9260	-0.21231010221085267
57	0x3fcf863035bae766	0.24628260253467288
58	0x3fb23476120cf299	0.0711129945820609
59	0x3f9f0b5d9e56ccfe	0.030316794194459533
