JupyterLab/best_model_M4_104.pt (torch, 53161 bytes, 16 tensors)

fc1.weight f8 [64, 12]
-0.03567427761597834 -0.20711032049456174 0.21944667659398737 -0.042958313032369126 -0.056454951500331516 -0.1031222926604844 0.24868153173499438 0.1442205101762269
0.05527792733226392 -0.1309054425926475 0.04239914137144374 -0.27213880215107505 -0.2488821662287041 0.22102397130344437 -0.05606707871013883 0.10925430258449485
-0.017948334749474857 0.07721283603297238 -0.04505308617929232 0.14963480014934377 0.10601095878514666 -0.21128860007197492 0.12721450367042875 0.12327139061621951
0.2556049195763367 0.17286189295021478 -0.0647828540373578 -0.06783955712098683 -0.2556122624340653 0.10228009038713605 0.16235098241054902 -0.1337695475138566
0.1111767683600775 -0.20518134769292584 -0.03339798987917026 0.16450037170300866 0.016005442195764576 -0.06712807643417024 0.19086578001830073 -0.016866239171840606
-0.1283307118912605 -0.0962813106557771 -0.18892339418627502 -0.08920875087916556 -0.0689783687967524 0.19178644538620987 -0.19197949203111414 0.13944803221905394
0.07079485723758387 0.1054924152568289 0.12112424017032736 0.15010250507487388 -0.0008240762338752151 0.10715748467785244 0.16856741417626203 0.05401314442728665
-0.20385684315781064 0.2407238141033764 -0.09582036838561059 -0.23497852829388394 -0.17797496895173717 0.0006961795713800199 0.04544242561131588 0.06058178009141562
0.020996126825987376 -0.07336869283394873 0.15157209099551144 0.12179887781384711 -0.007978710389941971 0.05119230062929443 0.196917126834097 -0.05389269226199139
0.1417238211468752 -0.08671303558616765 -0.16100873735517066 -0.052680575203061644 -0.20934266783888983 0.1491745285943894 -0.029710046605166657 0.228698306623941
0.2925336484747597 -0.18115257725061795 -0.1343373312492195 -0.07100058883682867 -0.04981152914602665 -0.14844748148664105 -0.029001709615003562 -0.08717283432944178
-0.07463751811257925 0.10969549606528815 -0.24372765291884346 0.10376174112039623 -0.08188774861137282 0.15064478379925506 -0.2071573752518359 0.10643873180616942
0.07087072056504638 -0.03174413454399528 0.25947515328939186 -0.17062482661141032 -0.2620786984417957 -0.14834037466921624 -0.09176985276391063 -0.08646727871490406
-0.035288190154011995 -0.11035446219098466 0.23610084772545892 0.059120524801716604 -0.15138875932859627 -0.06691627486706007 -0.17625289201081693 0.22164778258751386
0.06946748936974473 -0.09683303635119898 0.11829284535354045 0.12523008499028015 0.057011363248797735 0.21422029552319527 0.07780321445004679 -0.14075239717960214
-0.010694778065476671 -0.18980592195350257 -0.15101833777434417 -0.08257117135310621 -0.07176777998734318 -0.23054678922574826 -0.11875059747299209 0.08158169996749588
0.2203416460597683 -0.21594792437192784 0.00898779116282989 0.07903263269831379 -0.14899503496141295 -0.1669163982896499 -0.14946616001049412 -0.07043520532645345
0.042699511520547774 -0.057275257459508816 0.285685814934311 0.23247681699071274 0.07109494131576487 -0.21773716415724131 -0.19140694560042454 -0.029943448746961858
0.0066863906126680105 0.11110181010120797 -0.23779182856060466 0.0481436918287247 -0.09616309340658354 -0.1727252956532451 0.21457103869686625 0.12209363943850458
-0.2071454512561831 0.026097386142638856 0.2046621116238929 -0.16466821267239667 -0.13058679258165878 0.11212058112080336 0.012528407914288622 -0.21282948128910884
-0.038174704744358516 0.03270677058948093 0.039887731447384195 -0.07567110235425802 0.06666871996699573 -0.15474462426717814 0.09205652779274857 0.1482415480758217
0.10581074587458698 -0.009540136788266073 -0.15076416223223513 -0.028759461051813446 -0.013042429744583793 0.1405868670251166 -0.007492727786494722 0.06100804285501585
-0.11067912174632683 -0.2241085769706217 -0.07785665513226278 -0.17099998861732948 -0.15211002544044336 0.22262529954611104 -0.022170957279545923 0.12215814521138442
-0.09773986570179241 0.11345883515967248 -0.22562314519024337 0.16447440368074367 0.10623704485431389 -0.24769621032336953 0.05123266588070777 0.19466006098579258
0.2950650296465341 0.017876706867147818 0.09385138528651671 -0.13174104849432933 0.02657003803432847 0.10694007237505147 -0.1635898875536807 -0.18858812950608322
0.08784694856879041 -0.2440161972371387 -0.15184410088407757 -0.05093127756371685 -0.18461269240372508 0.04116016882432812 0.16731998638539497 0.17249367263499
0.21732226188748943 -0.21461036989993704 -0.19200514046601594 -0.028663111847421603 -0.10135663552493973 -0.15609660659951172 -0.17266829506366796 0.0271914923843155
-0.0036415571807049477 0.005433390231541277 0.069535695791702 -0.0795776921402922 0.10323469214423767 -0.0965349876312665 0.17040963131935485 -0.05263309305894579
0.03037651482776022 -0.016296274251757187 0.11608273609803972 0.16077378979602205 -0.18055015278991876 -0.11211237722528085 -0.2529702496877742 0.0342986239689307
-0.2742233727404831 0.03925656433099331 0.15433423930842463 0.2613468931599487 -0.12498095630505734 0.25251455344840357 0.291605774884566 0.008256124090611282
-0.0591233900838614 -0.026078109824095502 0.0006850479993198424 0.07477796938826771 0.061484311528367995 -0.17136226843512498 0.17274871864715263 0.23889356707721507
0.06330854104022973 -0.0985503524169794 0.12656429447206047 0.11969648639091922 0.05375854701094068 -0.12950365115409365 0.10197108467969178 0.1397648314329843
00000000: f68d 561f e643 a2bf a217 984a 9782 cabf
00000010: baf1 9725 d416 cc3f 5776 21cb a1fe a5bf
00000020: 0e4a c8d4 a9e7 acbf 4c1f 77fa 3866 babf
00000030: e7e2 f5e2 cbd4 cf3f 3246 4f53 d175 c23f
00000040: a55c 2a74 634d ac3f c9e3 6671 82c1 c0bf
00000050: e03d 231b 57b5 a53f eb88 cddd b86a d1bf
00000060: 0d45 41ee 5edb cfbf daae 3074 834a cc3f
00000070: b075 e2fa d2b4 acbf a735 8c08 17f8 bb3f
00000080: f90d 115b 0c61 92bf 9ad0 976d 38c4 b33f
00000090: f8a6 72b7 3211 a7bf 1a12 7eae 3b27 c33f
000000a0: 78f3 ffc0 8823 bb3f 20d3 a93d 810b cbbf
000000b0: ccb1 6b9a 9048 c03f 91a6 3abf b68e bf3f
000000c0: 9ebb 91bc d45b d03f cf10 79a8 5620 c63f
000000d0: 1d97 6eef 9b95 b0bf fcb2 35e7 ee5d b1bf
000000e0: a818 e788 f35b d0bf e9a2 3e2b 072f ba3f
000000f0: b4a0 f6bf eac7 c43f e4e8 e24b 5c1f c1bf
00000100: d076 2ea8 1476 bc3f a88f 0be5 6143 cabf
00000110: 59fc 9094 8a19 a1bf 4f77 5222 590e c53f
00000120: 57c2 270b bb63 903f 349b ed3c 4e2f b1bf
00000130: 3254 8d35 4a6e c83f c128 9926 6245 91bf
00000140: 3a9b 5209 246d c0bf 4b8a 7b58 e4a5 b8bf
00000150: ec5b bd4b a42e c8bf d703 8b7b 62d6 b6bf
00000160: ec0c 1dfe 90a8 b1bf 76fb 5f4f 758c c83f
00000170: b65e e3b3 c892 c8bf 82aa efe0 6ed9 c13f
00000180: 2377 8f9c 9c1f b23f c40e 8109 8d01 bb3f
00000190: ccce 488a ff01 bf3f a010 2c13 8f36 c33f
000001a0: 67ea a83c da00 4bbf fe86 3644 ac6e bb3f
000001b0: 6e77 87f5 9d93 c53f 9e17 bd61 9ca7 ab3f
000001c0: 4ddc 3625 fb17 cabf 14a0 78b6 09d0 ce3f
000001d0: 38c2 8104 af87 b8bf 9a68 24c3 c613 cebf
000001e0: f9c0 933f e2c7 c6bf 1350 e03e facf 463f
000001f0: b6f9 b3c7 3a44 a73f 97c2 7338 9304 af3f
00000200: 1bbb 3d38 0280 953f fea6 4568 4ac8 b2bf
00000210: 82f1 e7da b666 c33f a764 e614 362e bf3f
00000220: e22f 8361 2457 80bf 1a07 0592 e035 aa3f
00000230: 602a e395 9434 c93f 286d 84ad d297 abbf
00000240: f0ea 7194 0124 c23f d3be fa53 d332 b6bf
00000250: 65c5 a72e ef9b c4bf 7a63 43c7 f2f8 aabf
00000260: 0e41 0394 bdcb cabf 6cc4 daa4 2618 c33f
00000270: 2897 207a 4f6c 9ebf 21da cc71 fc45 cd3f
00000280: 0e6f 4b0d dfb8 d23f 8052 70f5 0130 c7bf
00000290: df74 2c36 f731 c1bf 3609 0d37 182d b2bf
000002a0: 07b8 4a91 e580 a9bf ea4f 14bb 5300 c3bf
000002b0: 5851 4cc9 9fb2 9dbf 8069 8b78 f550 b6bf
000002c0: 691f 59c3 711b b3bf d770 1e08 0115 bc3f
000002d0: 2869 35bd 7732 cfbf a528 b024 2190 ba3f
000002e0: 389a 3a72 98f6 b4bf 908a dd09 5448 c33f
000002f0: 9179 ea03 2284 cabf 4c9d 2298 913f bb3f
00000300: d721 1263 9524 b23f 019e 6967 c440 a0bf
00000310: 5e29 60ac 3d9b d03f 3841 17c9 08d7 c5bf
00000320: df49 b2bb e5c5 d0bf d0b9 f040 d1fc c2bf
00000330: 1336 61a4 3a7e b7bf 6c2f 4136 b822 b6bf
00000340: 7403 4b2d 4b11 a2bf 60f4 13a6 3040 bcbf
00000350: d8f4 c475 8d38 ce3f e269 17a1 0b45 ae3f
00000360: df2f 26f5 b460 c3bf 97c9 1fcc 6c21 b1bf
00000370: 3b85 816b 748f c6bf 81de b85c f45e cc3f
00000380: a470 fa12 9fc8 b13f d7ff 4cc4 0cca b8bf
00000390: 08ed 249e 7048 be3f 4a18 c117 8a07 c03f
000003a0: 2fd4 4ee9 9730 ad3f 9eae b415 926b cb3f
000003b0: 182d 9655 e9ea b33f c228 5caf 2c04 c2bf
000003c0: 72cd 3bd0 24e7 85bf 5d4f b079 8f4b c8bf
000003d0: c125 eba2 9154 c3bf 28d3 8d60 6223 b5bf
000003e0: e8c0 f38b 5f5f b2bf 0111 f6a3 8e82 cdbf
000003f0: efe6 866c 7066 bebf a1fe 4fcd 89e2 b43f
00000400: 7202 e3b1 2734 cc3f 7283 687c 2ea4 cbbf
00000410: 446e dce8 3068 823f b48b c18c 7b3b b43f
00000420: 8b7b 36f1 4412 c3bf e5fa e83b 845d c5bf
00000430: 8248 8d06 b521 c3bf c239 5da7 0a08 b2bf
00000440: 2565 12db b5dc a53f 2430 51bb 2e53 adbf
00000450: febb 0428 ad48 d23f 27d2 06e3 ccc1 cd3f
00000460: 5fbc dc2f 4733 b23f e4ed 96b7 cfde cbbf
00000470: a660 cad5 0580 c8bf 3eff 63d4 7ea9 9ebf
00000480: 3cb1 2750 3063 7b3f 3d3d e910 2b71 bc3f
00000490: 4040 766f f66f cebf 927e d33b 4aa6 a83f
000004a0: bd72 43fd 249e b8bf 2be5 02cc dc1b c6bf
000004b0: d996 ef54 1077 cb3f 4f20 705c 8741 bf3f
000004c0: 3c8a 54fd bd83 cabf 1391 f9ef 45b9 9a3f
000004d0: 77d4 133a 5e32 ca3f 1a32 0f16 d913 c5bf
000004e0: d6c0 b669 11b7 c0bf 5853 1f35 efb3 bc3f
000004f0: e83f 1a72 7ea8 893f 7474 e116 ff3d cbbf
00000500: f7ac d288 a28b a3bf d445 141c f1be a03f
00000510: bc02 282c 2a6c a43f 7122 dd6d 2e5f b3bf
00000520: 5fa7 ec83 3311 b13f 97cb 3afe abce c3bf
00000530: c3cf 4040 0491 b73f c170 723c 94f9 c23f
00000540: 83c2 18bd 6916 bb3f 532d 0a7c c789 83bf
00000550: f91f 1975 3d4c c3bf d528 acc2 1e73 9dbf
00000560: b9f8 b449 fdb5 8abf 655b 0f1e c0fe c13f
00000570: 312e d0cc b1b0 7ebf 94e4 b539 723c af3f
00000580: 341f 4088 7755 bcbf 00c4 6b00 97af ccbf
00000590: 3eab 91eb 69ee b3bf a128 5ddf 53e3 c5bf
000005a0: 0b89 5460 5778 c3bf 3608 685e fc7e cc3f
000005b0: 8d24 bfc1 fbb3 96bf 5d77 9f96 c145 bf3f
000005c0: aa62 b4d6 7a05 b9bf f8fa 7362 a30b bd3f
000005d0: 5b08 e81e 38e1 ccbf 2e40 6b4c 7f0d c53f
000005e0: ebe0 45d9 5932 bb3f 184c 5769 82b4 cfbf
000005f0: 149a e300 2b3b aa3f 6cbb e2f1 9eea c83f
00000600: cd9b 216f 58e2 d23f a016 6b7d 454e 923f
00000610: 1869 7df6 a406 b83f 6075 6903 e4dc c0bf
00000620: 67c7 a411 2d35 9b3f 7b93 7bb1 6c60 bb3f
00000630: 8eeb 7f70 83f0 c4bf 7a3b 52e4 a723 c8bf
00000640: 7a06 283b 237d b63f 3af5 6939 ec3b cfbf
00000650: 1e9e b1a3 a06f c3bf 5096 f516 aa13 aabf
00000660: 0277 2682 63a1 c7bf da24 ff15 f212 a53f
00000670: 2a08 bfc6 bd6a c53f aafa 5dcd 4514 c63f
00000680: 16f0 bf43 37d1 cb3f 0625 0d44 5a78 cbbf
00000690: 0993 7bdb 9f93 c8bf b2ef f1df dc59 9dbf
000006a0: dcec cf2a 82f2 b9bf ff44 2e3e f9fa c3bf
000006b0: 4f61 2da4 fe19 c6bf be8c 142a 16d8 9b3f
000006c0: 50ae ec1f e6d4 6dbf ca2f 9d95 5241 763f
000006d0: 9578 5463 17cd b13f 80d4 3b21 345f b4bf
000006e0: 0a77 92ba 966d ba3f 34ca cb56 84b6 b8bf
000006f0: 7153 b898 fbcf c53f 1d41 c08a b9f2 aabf
00000700: d1ba 0167 051b 9f3f 45ef d473 f8af 90bf
00000710: f5d8 2b23 99b7 bd3f 9b2b 9d4c 3c94 c43f
00000720: e29f c274 441c c7bf 35ce a891 65b3 bcbf
00000730: c546 5121 aa30 d0bf a21c 7dd8 968f a13f
00000740: 4107 6e30 e08c d1bf 6ced e8b7 6f19 a43f
00000750: d1c9 3d6f 39c1 c33f b71f c251 e8b9 d03f
00000760: 88f9 f37f c0fe bfbf c6cb 34cd 3229 d03f
00000770: 810d 9d44 aba9 d23f c6e8 af37 96e8 803f
00000780: d67b adc5 6b45 aebf d80c 5853 38b4 9abf
00000790: f81d 6b60 9972 463f cde0 fb24 a624 b33f
000007a0: 337c 7626 df7a af3f fe3e 59e5 32ef c5bf
000007b0: 7af9 8148 a11c c63f 5324 e97c 1094 ce3f
000007c0: 4644 5311 fd34 b03f 38e4 a38c 983a b9bf
000007d0: eaa5 cc40 4233 c03f 57bf 7ece 6da4 be3f
000007e0: 78be 9582 3d86 ab3f b7af 355d 9393 c0bf
000007f0: 9340 d6e9 c61a ba3f 025c 1162 d0e3 c13f

fc1.bias f8 [64]
0.07501826399259358 0.033343050224576606 -0.2837741958273038 0.2379726318662088 -0.02650848333824359 0.29652781847327236 0.05230403368848835 0.24280588099452674
0.0979119190337588 -0.30145554090768883 0.15261555349004274 -0.1414503825715781 0.29354766339699523 -0.3086401582419879 0.31043621817865413 0.18661074665424798
-0.11159411445326402 -0.2093238326110058 -0.17048549164694013 -0.18997905366733003 0.06025932487419266 -0.15080878765320616 0.2043850414915472 0.19132284745159164
0.19559748973847083 -0.013171458838921202 -0.15384368225227407 -0.227914925272318 0.15972584827866998 0.15327315040750633 -0.3152917554344246 0.2733178907954353
0.22006945721714333 -0.23415582813632982 0.06500442990791833 -0.26624636217763986 -0.07783746869179686 0.017155026042673747 0.32377640345551834 -0.07646587826706001
0.2547457319163454 -0.04300634111942065 -0.19033996857506727 0.04864063342040421 0.07081324919728219 0.020403534756610716 0.11401799650330181 0.14430912694521644
-0.2309600911836263 -0.06107442265549727 -0.15605452783449833 -0.10541852111647824 0.02445430144001582 0.10495537508402955 -0.21548579855033512 0.24632776973974985
-0.08908700053985708 0.22125938429454864 0.07771052149042054 -0.06331125635271469 -0.06101796802156313 -0.11866513407003221 -0.311898364164456 -0.21056555418688244
00000000: 1f6d 739e 6534 b33f dee1 861c 5712 a13f
00000010: deb9 a13e 5b29 d2bf 51ad 9a1f e375 ce3f
00000020: b56b 0434 0a25 9bbf 7e9a acd0 4ffa d23f
00000030: 4029 4824 98c7 aa3f 5df0 125b 4314 cf3f
00000040: e57a 236a c110 b93f 7b60 592e 0c4b d3bf
00000050: d4e2 8c0d e888 c33f 2a68 93cf 0b1b c2bf
00000060: 2ede 8623 7cc9 d23f 2f6c 78a6 c2c0 d3bf
00000070: 338f 24df 2fde d33f 4a27 fb66 dce2 c73f
00000080: c5ba 0090 6e91 bcbf 0e38 ab93 1fcb cabf
00000090: 9b75 88f5 77d2 c5bf 188e 36cf 3b51 c8bf
000000a0: 7736 3a6b 4fda ae3f 3cc0 75cd b34d c3bf
000000b0: dbb7 7ffe 4929 ca3f 931e 645e 447d c83f
000000c0: 6d9f cdaa 5609 c93f ad55 a147 a3f9 8abf
000000d0: 3420 fc57 26b1 c3bf 4e4e 28f7 502c cdbf
000000e0: 3464 5787 e571 c43f dc74 2d60 749e c33f
000000f0: a183 9278 bd2d d4bf b132 9852 0a7e d13f
00000100: 104d cc68 3c2b cc3f e7b4 0174 d1f8 cdbf
00000110: c8b4 8c5c 21a4 b03f 04d8 8e2e 2e0a d1bf
00000120: f047 6f06 28ed b3bf 29e1 424f 1691 913f
00000130: 7fb5 03aa c0b8 d43f 93bc 6a8e 4493 b3bf
00000140: 1615 d80a c14d d03f e9ce 4159 ed04 a6bf
00000150: 0767 1362 0f5d c8bf a93f 98d3 6ce7 a83f
00000160: e202 6d2d d120 b23f 3f80 020a aae4 943f
00000170: 891a 238e 4830 bd3f f33b 5fb2 b878 c23f
00000180: 194d 28ab 1990 cdbf b6d9 da8f 2545 afbf
00000190: eb8f b842 98f9 c3bf 8384 964c b5fc babf
000001a0: 42bf b963 8c0a 993f 627b 86ff 5ade ba3f
000001b0: 5858 c3e4 0995 cbbf f67d 9019 ab87 cf3f
000001c0: 7842 d1d9 67ce b6bf 1535 bd3d 3a52 cc3f
000001d0: 0e41 5b34 d6e4 b33f bdea 809f 2a35 b0bf
000001e0: 12f2 3d42 bf3d afbf 3099 0196 d660 bebf
000001f0: 7dc8 708e 24f6 d3bf 8ec9 72e4 cff3 cabf

fc2.weight f8 [32, 64]
-0.02311903572149732 -0.05971850445727284 -0.014229115472258195 -0.10291987483730569 -0.13239187749105158 -0.05892276455631355 0.017278823504003466 -0.04989123064918755
-0.02056109484137523 -0.06418757750253973 -0.04352850633704244 0.09889170610581813 -0.03384051862925794 -0.07279445897379046 -0.09594221423266922 0.08161574780533463
-0.08931344468433491 0.026761312688153724 0.017813213140211885 -0.014044204143599373 -0.014168371617955885 -0.09869553224138934 0.08748860203066955 -0.007338628581819351
-0.032539466680732994 0.04934164001014933 -0.06306126582438706 0.09599991805241015 -0.011941260367214905 0.08633305238832431 0.06600082781444705 -0.07659343214664167
-0.0543053083879562 0.012486983176326585 0.03929860259238379 -0.02063386567856412 -0.015472068315865362 -0.09363285957362825 0.06736907211488907 -0.027105013773787098
-0.08132335924119743 -0.10485105461227395 -0.12291637574895077 0.0032832571261882776 0.0806608661710783 -0.04236380504092418 0.045652595236850495 -0.11612661611116656
0.0244095285848057 0.043461501905978736 -0.05503333640228447 0.06088053416341035 -0.04615890559743986 0.02114945762417222 0.010935311817929321 -0.025745215549435766
0.011974651270488355 0.09640751158562542 -0.10484732287088397 0.07415915664533403 -0.12188826068777615 0.05605596830332239 0.041567707487219774 0.013196794647768509
-0.0055291968885636655 -0.019180664047765087 0.06666165626435379 0.00696390812231586 0.05597577653790498 -0.02085518860279657 0.00851963221729083 0.010015460473312995
0.0027651540721487003 -0.08270174854802845 -0.01594857736523343 0.018333871283879963 -0.04168844979875458 -0.0883887012629325 -0.04945114442910613 0.05476163292375803
0.0217116877399742 0.059934941163905575 -0.13834196984540348 0.038928377153962516 -0.04624299823907784 -0.069086350085236 -0.004771068595785015 0.03775721189002562
0.07309538895027518 0.07025776570471513 0.00023084797385485782 -0.07435065059327058 0.10239224284938864 -0.10245156696906414 0.06978069023271911 0.044644212375359135
0.027238764732977396 0.07521879026350224 0.066517951231585 0.08356359425903959 -0.06472998870832454 -0.08644554555837514 0.03300603894487108 0.0763609934200424
-0.02612322880217671 -0.009894653459992572 -0.04592319973000986 -0.0700093320404967 0.0006201761750168924 0.030558280664603428 -0.08706568552105065 0.06159651323844761
0.09237475075001268 -0.04519546371940821 0.050818229550663896 0.0277323421547695 -0.11490791859994934 -0.05002628195358018 -0.03083953812766322 0.03283895564056217
-0.05577660204198124 0.07873572835449447 0.1573606469552449 0.1029930422666053 0.03366995144931173 0.0709034714853435 0.0758810526326308 0.03522034601601301
0.047171406335501126 -0.110924276789831 -0.04465267727560759 0.09147008573010262 0.057087786246774935 0.05545055076710428 0.08136669951866886 0.006205535280111102
-0.005186032258684819 0.01397686664326448 0.026276906045231644 -0.062352522379476555 0.110004569462959 0.06650513398874587 0.16721385732874125 0.03589896427288202
-0.007053551493272267 -0.02355888699445322 0.023768677985113736 0.014441788918055316 -0.0030363815267526353 0.06114221851378177 -0.03380076948901654 -0.01391246278866488
0.02440345598296443 0.009525626070704578 -0.03204700580407401 0.004169730196639975 0.12701271240176049 0.059579606298982624 0.017574761132246212 0.001867673845554633
0.0716983299556305 -0.05498212186957447 0.06093034934601205 0.011893936198213911 0.09548786041130333 -0.04304480567742359 -0.02923701917741292 -0.06555626285188357
0.0021787929978951807 -0.06682187951800775 -0.02868703984631269 -0.01685073591530218 -0.04170483818734558 0.048400895128006154 -0.0952868518516679 0.020342180370797776
-0.03680595555862199 0.057649223066989545 0.029193922711405595 0.07117411319267637 -0.02436279439942234 0.0002633937246887764 -0.049271486878249504 0.12891841442761798
0.007277814382620669 0.08218687071017429 0.1384054002167312 -0.05967999249995789 -0.03058548428382209 0.01780898410756031 0.03105014293316947 0.008383324302222144
0.008633484569840639 -0.041958232887148506 0.07717657092334611 -0.01831934232368918 -0.04407166508596685 0.08433076664391767 0.05908658757511266 0.10861238700696708
0.006476784254560012 -0.03137122650262782 0.0169360307590889 -0.018551798914358358 -0.042792379095506414 0.04054007579719509 0.0738818030222915 -0.045598997406084356
0.09349151242988449 0.012218621113966469 -0.007943370012132063 0.03527944841948753 -0.006485520351827239 -0.09650183321933113 -0.03278900614305684 0.02098638227174755
0.07495392912332133 -0.020728826304466586 0.07895129305915903 -0.06697770469383431 0.10426703702623742 -0.025765116316130078 -0.046630373638730654 -0.06967378615047815
-0.09115722301137127 -0.013861437909032673 0.021297340781645035 -0.020019892642344845 0.06300112779106735 0.04020022899971165 0.06824829826395708 0.020638755478528406
0.04873890854368152 -0.03770982923560659 -0.07042050602284637 0.05953133272151915 -0.06443771395450322 0.06308752222857832 -0.03947651520853659 -0.008145943648356692
-0.0013213998548949244 0.043795029696983526 -0.06702229662647209 0.08794235447422621 -0.0015161900983588117 0.10443944335397552 -0.026345212173416923 0.07921760318559844
0.0460694802820833 0.03628513146668076 0.049869715238653786 -0.043952353974204855 -0.03942670873231227 0.03315662011543409 0.10535897776963861 0.03452728380725165
00000000: 2105 5b39 84ac 97bf 2954 387f 6c93 aebf
00000010: e2b8 d58c 2724 8dbf 40de 88f8 f458 babf
00000020: e240 0a90 37f2 c0bf a6bf 84e5 1f2b aebf
00000030: a5c3 7337 8ab1 913f 11ac fde7 578b a9bf
00000040: ba96 a7b7 f70d 95bf ccd0 2eda 986e b0bf
00000050: 5399 524e 5e49 a6bf 32f4 9183 f750 b93f
00000060: ccad 9561 8b53 a1bf 7958 9f5c a8a2 b2bf
00000070: 5665 6f40 ab8f b8bf 5799 a907 c5e4 b43f
00000080: a227 03f4 3edd b6bf 9cb2 2c4b 5167 9b3f
00000090: 5edc 7e7f a03d 923f a8fa f52b 35c3 8cbf
000000a0: 6bc0 e4a5 4e04 8dbf ddf2 3c43 1c44 b9bf
000000b0: 9096 7e2c a765 b63f 1a3c 1a1c 1c0f 7ebf
000000c0: f930 7252 03a9 a0bf b664 59b4 4e43 a93f
000000d0: d62f 5c7a c824 b0bf 082b 745c 7393 b83f
000000e0: 8f6d 00d6 a874 88bf 6e5b 9244 ec19 b63f
000000f0: 80d3 f824 6ee5 b03f 2d81 288e a09b b3bf
00000100: ed09 0dc7 e7cd abbf 08b7 f182 c692 893f
00000110: 1b59 d349 f21e a43f 8f32 1e49 0b21 95bf
00000120: 0d4f 58db d1af 8fbf 231f b3b5 52f8 b7bf
00000130: e8cc 7e79 193f b13f ef3a ddae 6ac1 9bbf
00000140: 5c80 5790 9bd1 b4bf 88c5 82ca 84d7 babf
00000150: 290e fc95 7277 bfbf 1b1e 673f 7de5 6a3f
00000160: 9b95 45c6 30a6 b43f cfa9 5e6a b5b0 a5bf
00000170: ff22 0ae7 c65f a73f e681 6452 79ba bdbf
00000180: 1b19 eebb cffe 983f fe76 a402 9640 a63f
00000190: 703d 1358 542d acbf 73c4 63be bb2b af3f
000001a0: 8299 ebdb 23a2 a7bf 87bb 4b13 34a8 953f
000001b0: 565b 09b5 4065 863f 01d1 402b f45c 9abf
000001c0: 7fb7 b37c 2a86 883f 3758 59a5 29ae b83f
000001d0: b2b8 cd2e 46d7 babf 499b 7d30 18fc b23f
000001e0: 299a 6bad 1134 bfbf e27d 372d 5eb3 ac3f
000001f0: 1861 74d0 5c48 a53f 9bbf 64cb eb06 8b3f
00000200: 6ed1 f37c c8a5 76bf 61ee 3393 18a4 93bf
00000210: bd76 8d01 bd10 b13f 1400 34da 2f86 7c3f
00000220: 616f 3263 dba8 ac3f 03f2 0004 105b 95bf
00000230: 544a faad bd72 813f 2b82 7f59 fc82 843f
00000240: cb6d ddc9 f2a6 663f d6f6 5519 f12b b5bf
00000250: b33c cee8 d254 90bf 1c19 4b46 1dc6 923f
00000260: 985f 0341 3058 a5bf 0e9d 4255 a4a0 b6bf
00000270: de43 2510 a951 a9bf 9258 f77c b709 ac3f
00000280: 18f9 22b3 963b 963f b891 5fe8 caaf ae3f
00000290: 9c3a 138e 30b5 c1bf 7776 8695 6bee a33f
000002a0: af2e 368a 29ad a7bf 0852 379e a4af b1bf
000002b0: 78b8 5ff9 d38a 73bf 88f8 82cc e954 a33f
000002c0: 0ca3 0721 61b6 b23f 6be5 fdb5 69fc b13f
000002d0: 18ff 00ff f841 2e3f f502 bcec a408 b3bf
000002e0: 80f7 66c6 6036 ba3f 8b5b 8e11 443a babf
000002f0: 1d1c 71b6 25dd b13f 9637 3730 9bdb a63f
00000300: 67a7 d88e 7ae4 9b3f 03f7 39e4 8941 b33f
00000310: f1f6 2209 5207 b13f e091 7a78 6c64 b53f
00000320: ad9c 9200 2592 b0bf 98df 0e97 4b21 b6bf
00000330: 2f6d ade3 2ae6 a03f fedc 6de1 648c b33f
00000340: 4f2f 7c35 0cc0 9abf 5e9b 20e8 a543 84bf
00000350: a9a6 efe1 3e83 a7bf 645b 87af 21ec b1bf
00000360: 17b1 d931 6a52 443f c24b 4e80 ab4a 9f3f
00000370: 08af eacf ef49 b6bf 4f43 d003 9489 af3f
00000380: 798c 7225 dfa5 b73f 736f 341d dc23 a7bf
00000390: c8e3 ebd3 d804 aa3f c186 62fa dd65 9c3f
000003a0: b22e 70f8 9a6a bdbf 62b9 dc79 0b9d a9bf
000003b0: 926d ba5e 6694 9fbf 01a3 0581 44d0 a03f
000003c0: 65fc 4d33 c08e acbf de2d 4f52 0628 b43f
000003d0: a9d2 2cc8 6424 c43f 5628 4084 c05d ba3f
000003e0: e057 aa18 303d a13f b9d1 33db ba26 b23f
000003f0: d175 71cf f06c b33f 04cd 95b4 6608 a23f
00000400: 24dc 08bf d926 a83f 0a10 258d 8865 bcbf
00000410: 2bb8 2739 b7dc a6bf 58ea c562 956a b73f
00000420: c4a3 dc3d 9c3a ad3f 7307 2ebc 0364 ac3f
00000430: 4388 6ab1 72d4 b43f d3e6 50b1 f96a 793f
00000440: 5320 27ef f23d 75bf 8426 1149 e79f 8c3f
00000450: b1d6 6a50 55e8 9a3f a4cb e278 abec afbf
00000460: 2004 416c 4229 bc3f 4d6d 7fff 7a06 b13f
00000470: 331d 5580 4367 c53f 474c 065b 5961 a23f
00000480: 9683 bf4f 2fe4 7cbf c972 af24 d21f 98bf
00000490: e2fb 75fa d056 983f a44e ca18 a893 8d3f
000004a0: a7eb 60eb c0df 68bf 21d9 d769 084e af3f
000004b0: 5de6 119f 554e a1bf 861a 7925 237e 8cbf
000004c0: bac1 6c35 38fd 983f e9af 94e3 2b82 833f
000004d0: fbf7 b913 7768 a0bf 4c4f 3e6d 4714 713f
000004e0: 648d f8da f341 c03f 6018 20d9 3781 ae3f
000004f0: 6129 3141 1eff 913f de25 8585 9799 5e3f
00000500: 0656 565e d25a b23f d9c9 96de 9d26 acbf
00000510: c0c9 8c43 4332 af3f 50b2 ef17 d95b 883f
00000520: faad a175 e471 b83f 095f 4b01 f809 a6bf
00000530: 384d cc24 4ff0 9dbf 922f ff94 4bc8 b0bf
00000540: 5d7c 7695 42d9 613f 7ee5 2f1b 3d1b b1bf
00000550: 1afa d5a7 2260 9dbf 62d4 adbe 5141 91bf
00000560: 8c01 3328 565a a5bf df04 588b 00c8 a83f
00000570: f313 7118 b864 b8bf 1209 b09d 94d4 943f
00000580: 2139 d8ee 3ad8 a2bf 97d0 6cef 3284 ad3f
00000590: 5356 26fd 02e5 9d3f 2dfe 7b78 7738 b23f
000005a0: 9d1f bd74 8ff2 98bf 9b81 fa6e 0343 313f
000005b0: 58e5 88c1 1c3a a9bf 3cce e80a 6680 c03f
000005c0: 15ca 276c 57cf 7d3f 015c dce1 320a b53f
000005d0: b8a4 c2a5 44b7 c13f 8b93 0640 608e aebf
000005e0: d5e3 ec1a cd51 9fbf ed8f 44b1 843c 923f
000005f0: ab81 bcd1 9bcb 9f3f d6ae adbd 462b 813f
00000600: 9d1d 06af 6eae 813f d0b4 18ac 8c7b a5bf
00000610: 2319 2200 d8c1 b33f c96b a840 4ec2 92bf
00000620: b3f0 72b0 8f90 a6bf 7e40 c87c b396 b53f
00000630: f2e1 88e2 9840 ae3f d1aa 227a 05ce bb3f
00000640: 91c3 e788 6687 7a3f c377 baaf e30f a0bf
00000650: 02f6 efc8 ad57 913f 2bff 7926 3eff 92bf
00000660: 766a 77f9 e1e8 a5bf 6fdf 7337 abc1 a43f
00000670: c610 c0f7 eae9 b23f b7d5 2d75 c058 a7bf
00000680: be05 574c 0fef b73f 5590 b190 1306 893f
00000690: f787 6013 9d44 80bf 1680 5dda 2510 a23f
000006a0: ec30 f09c 8f90 7abf d75a ae19 58b4 b8bf
000006b0: f604 1b7a b8c9 a0bf 43f4 1246 747d 953f
000006c0: 0897 4a42 2e30 b33f dda3 3ffc ef39 95bf
000006d0: f77e aae5 2636 b43f 359e 386b 7325 b1bf
000006e0: 4919 149a 3eb1 ba3f 3a58 d2af 2b62 9abf
000006f0: cca5 8eb3 efdf a7bf 10a1 e728 24d6 b1bf
00000700: cec5 a06b 1456 b7bf 6869 f5b3 6263 8cbf
00000710: c381 9858 f8ce 953f 6557 ac40 1880 94bf
00000720: bf47 7987 d720 b03f c0e1 b0d9 1f95 a43f
00000730: 3925 0d71 b878 b13f d4de 3d6f 5322 953f
00000740: 19c7 7964 4ef4 a83f 5cfe 9be6 b34e a3bf
00000750: 4bfd 550a 1407 b2bf d59f 400e e47a ae3f
00000760: b547 1072 fd7e b0bf 13e6 c1fc 8026 b03f
00000770: 63b9 8f0b 4436 a4bf 219c 840c d2ae 80bf
00000780: d680 594a 5aa6 55bf da41 8d58 4d6c a63f
00000790: e90e 1d8c 5f28 b1bf 1469 66e0 6383 b63f
000007a0: 521e c4b8 5cd7 58bf 2326 9e19 8bbc ba3f
000007b0: 4797 c342 3dfa 9abf 4f1c f3d6 9a47 b43f
000007c0: d87e 4f3e 6b96 a73f 1efe f5f9 f693 a23f
000007d0: 3e8e 05f8 8588 a93f a487 cd45 ec80 a6bf
000007e0: d43a 30d1 bc2f a4bf c257 158e e7f9 a03f
000007f0: 8d4f dc53 cef8 ba3f bd30 8b65 8fad a13f

fc2.bias f8 [32]
-0.04287997617661591 -0.1109985510582571 -0.13897684272080227 0.16981370075119992 0.04161551688482216 0.02818019119092361 0.05920109255183885 -0.062206981068862466
0.06651940309498298 0.09485570649901263 -0.18348219677514016 0.08461046724143546 0.0730071033905268 -0.022412378013345478 -0.1408532691918064 0.009965473510222202
0.04314867382146659 -0.04206040638667345 -0.013651853273858658 0.032719186757094426 0.05612147642628037 -0.004975276507174994 -0.11811973658154494 -0.037642856846496334
0.049966889252777306 0.01040379846576885 0.15351516258041395 -0.11209579250817742 0.05666490434396534 0.02425992199468358 0.12018238935395581 -0.033659278201496806
00000000: e5e4 a93e 5df4 a5bf 7ad7 b2aa 666a bcbf
00000010: 298f 3141 fec9 c1bf 27cf 9191 74bc c53f
00000020: 758a 0d08 a14e a53f 3a7c 3d9e 44db 9c3f
00000030: 7694 cb08 9b4f ae3f 901c 8cea 97d9 afbf
00000040: 13a7 d764 6a07 b13f 6792 40ad 7648 b83f
00000050: 4a13 4639 587c c7bf c584 b315 08a9 b53f
00000060: fc20 70f1 97b0 b23f 5923 5f3a 45f3 96bf
00000070: bc53 5bdc 7a07 c2bf a143 8636 c768 843f
00000080: 00a2 db3d 9517 a63f 4643 c60b f188 a5bf
00000090: 4565 baba 80f5 8bbf 8499 25ba 91c0 a03f
000000a0: cb4d b543 f4bb ac3f 7ca2 309e f460 74bf
000000b0: 2f3f a155 183d bebf 3adc 2aae ec45 a3bf
000000c0: d772 7296 4295 a93f 2a35 5131 964e 853f
000000d0: 4b8b 5c85 62a6 c33f c481 d752 4fb2 bcbf
000000e0: 6302 faad 2e03 ad3f 915f 48ce 97d7 983f
000000f0: b493 d4e7 45c4 be3f 9c2f 2af6 c93b a1bf

fc31.weight f8 [2, 32]
0.034238235777297746 0.00041137032954351995 0.09614524908529046 -0.13417975590899023 -0.00014610907068726285 -0.020212653054434124 0.0008464676532315707 -0.10302205706065291
-0.10409393759289669 0.046146623470719024 0.04182420504076258 0.09981189699623948 0.005117076697468829 -1.3124059596225688e-06 0.10844789498626681 -0.11016010048686227
-0.08319054854647095 0.0531806543430778 0.024594736097621927 0.07553644321625459 -0.012941124519470205 0.0006645779447429078 0.13164575518013938 0.004826522501433286
0.10179873131758588 -0.003913338736606712 -0.14863994666742175 0.1678772013005622 0.09164305451524646 -0.009393955350590991 -0.09386872804026404 0.06793086887209636
0.07895022096381438 0.002151164807176774 -0.04524859495283989 0.00800094676007741 -0.016814731159204753 0.053638664839742216 0.0008305147429508097 -0.011343295778961602
0.09863822817901458 0.02401741191037391 -0.09111933331078716 -0.045113056535633765 -0.02966620450229303 0.004768507533646252 0.06334870474752781 0.052360339216544746
-0.16965698891426811 -0.09462169019793178 0.04529496313044632 -0.10995058719365922 0.09563148748007974 0.011836159707884084 -0.08964560391955832 0.13726509500812542
0.04429530224062738 0.09982432087946912 0.06925906670031258 0.001754102602974393 -0.011990214768318458 -0.08874195971110876 0.034471563361486844 0.029989361263557272
00000000: aa59 df8d ac87 a13f 98b7 a71c a6f5 3a3f
00000010: 5ab2 7c9c f99c b83f 440a b55f cd2c c1bf
00000020: 68d3 495c 9b26 23bf a935 562f a0b2 94bf
00000030: 0ad7 a171 afbc 4b3f 2797 d74d a75f babf
00000040: 1361 ac79 e6a5 babf 1950 41bd 87a0 a73f
00000050: b29c a971 fb69 a53f e7be 59c1 458d b93f
00000060: de6a 11d1 a4f5 743f b870 eb9c bd04 b6be
00000070: 1e3b 49c2 3dc3 bb3f 1547 eacc 7333 bcbf
00000080: 9ce8 57cd f94b b5bf 8be6 5da6 7e3a ab3f
00000090: 73ab c5cc 5c2f 993f 0d1d 4539 5b56 b33f
000000a0: 9a3c ad54 e080 8abf 7a76 e744 e2c6 453f
000000b0: 3af5 93a2 c4d9 c03f 43c6 c0c4 f9c4 733f
000000c0: d087 c84d 7b0f ba3f 8434 45de 6e07 70bf
000000d0: d86a e83e a206 c3bf ed3a aa08 007d c53f
000000e0: 606c 0c52 eb75 b73f 5544 1658 233d 83bf
000000f0: 39d0 0ced c707 b8bf f3cb 31dc ea63 b13f
00000100: cc32 0de9 1436 b43f b01b d8cf 519f 613f
00000110: 0859 06e7 d22a a7bf e75f 5fe5 cc62 803f
00000120: 66e4 ad81 e137 91bf 3f5a 93ee 8676 ab3f
00000130: c2f7 74d4 dc36 4b3f 652a 3263 273b 87bf
00000140: 800c 2adc 5a40 b93f ea2a c23a 0598 983f
00000150: 5168 9abc 9853 b7bf 0be4 e2fc 0e19 a7bf
00000160: f501 8948 d160 9ebf aa1a 867e 2488 733f
00000170: 9d74 22e7 9e37 b03f f6c5 1571 f9ce aa3f
00000180: d259 76f9 51b7 c5bf c171 e488 2039 b8bf
00000190: cd38 a3c2 e630 a73f 2e3a 2cc0 b825 bcbf
000001a0: d6dc 311f 4e7b b83f 3842 d876 8e3d 883f
000001b0: 5f8e 10a9 03f3 b6bf 0b9b f812 e791 c13f
000001c0: 1fd8 fab4 dfad a63f 9fd1 8531 168e b93f
000001d0: 41e8 6d52 f6ba b13f 6014 1254 3dbd 5c3f
000001e0: 9d61 6a62 538e 88bf 50fe bd06 cbb7 b6bf
000001f0: d324 8fba 41a6 a13f ee6c 6bf7 87b5 9e3f

fc31.bias f8 [2]
0.07021536410804992 -0.037009988610365155
00000000: 9553 8554 a2f9 b13f 5ae8 6925 f9f2 a2bf

fc32.weight f8 [2, 32]
0.038508772067907295 0.0015478377941351923 -0.005015648198941995 0.13202411414475834 -0.03552049407295794 -0.055943482879948124 0.00031280594718691493 -0.1413182438569369
-0.07214405056759379 -0.09574845795129161 0.12210454336304816 -0.11211903509917968 0.04752919350529905 0.04579296664640839 0.014777307726982292 0.10029884368545436
-0.1388919717137389 0.18168437189289632 -0.05855292631198085 -0.13703134267809614 0.019319171395658252 0.02767492315152764 -0.15109058221650315 -0.0025035928407496828
-0.015911643106172782 0.009797116135045006 0.0645659379509878 0.06552619365314179 -0.14256880392216212 -0.08718369439039426 0.010653535913970188 -0.10404828747729147
-0.07056869518966986 -0.008101213682331361 -0.11663034371401214 0.05019469863346496 0.1043364776202512 0.029762280196864596 -0.01118780505308577 0.034033877092835924
0.15909859558778702 0.018185492213518693 -0.12225264349116705 0.08049274714468972 -0.03506451339159017 -0.0979434601503356 0.04838505732609375 -0.047990210090029684
0.052096367280034236 0.07073142019693306 0.08992187704299008 -0.13234566369355508 -0.08069579313320614 -0.07902853273932242 -0.07300902082711345 -0.10290521570758847
-0.14107965176616225 0.004922655467985799 0.07224182092069423 0.13323354335932874 0.0821912032020158 -0.03836624738408816 0.12451522102276802 -0.034317607929230366
00000000: 5514 48f9 6bb7 a33f e404 242d 1a5c 593f
00000010: ab20 b9cf 498b 74bf 6c7e 448a 2ae6 c03f
00000020: a921 c300 be2f a2bf c394 c9ca 9fa4 acbf
00000030: 3e64 2b50 0380 343f 0fcb d859 b716 c2bf
00000040: daed c951 0878 b2bf 0811 8b8f f882 b8bf
00000050: 44f3 6f4c 3e42 bf3f d392 0245 d5b3 bcbf
00000060: a0c8 6b17 bf55 a83f 4c2b 44fc 2c72 a73f
00000070: 4d54 48ab 9043 8e3f fea4 745d 2fad b93f
00000080: e0fe 174e 36c7 c1bf 94b5 bcf9 6e41 c73f
00000090: 22ab 302f a6fa adbf 8429 aa37 3e8a c1bf
000000a0: 5018 52a5 67c8 933f c0a5 6ba7 d056 9c3f
000000b0: d73e adaa ef56 c3bf 6ddf f32b 6a82 64bf
000000c0: 0409 114b 244b 90bf 153b 29ab 8210 843f
000000d0: f45f efaf 6487 b03f 0588 c51a 53c6 b03f
000000e0: 5544 23cf b13f c2bf 2db5 26ac ab51 b6bf
000000f0: 2bb7 b262 85d1 853f 4276 eb97 e8a2 babf
00000100: b505 f63d ca10 b2bf 2492 967e 5e97 80bf
00000110: 5f11 f977 7cdb bdbf e469 209a 1eb3 a93f
00000120: 16a8 289f cbb5 ba3f ec51 66d0 007a 9e3f
00000130: 6a45 89c6 a1e9 86bf a4be 236a e36c a13f
00000140: 37cd 71c0 575d c43f f65f 46b9 379f 923f
00000150: 60e4 a401 f34b bfbf 4338 8d34 2c9b b43f
00000160: a8b8 88d4 f9f3 a1bf c7e8 3396 d212 b9bf
00000170: fd4b a91d edc5 a83f 30cd ba3d 2c92 a8bf
00000180: d692 6a03 60ac aa3f 5ba3 8b50 741b b23f
00000190: 1b36 18c1 1e05 b73f dd65 aae4 b3f0 c0bf
000001a0: 1d91 6ec0 7aa8 b4bf 18f6 90c3 363b b4bf
000001b0: 8ff3 c31c b8b0 b2bf 7f4a 0d08 ff57 babf
000001c0: fdbd 3be5 e50e c2bf 2e5e e943 c729 743f
000001d0: ca03 42a2 707e b23f 9eb0 baf7 cb0d c13f
000001e0: 3184 c591 7b0a b53f f7de 91a3 bda4 a3bf
000001f0: d0a1 25c2 3ae0 bf3f 154b 77d7 1392 a1bf

fc32.bias f8 [2]
0.01614477748449342 -0.11373375902562659
00000000: 093a 30ad 4188 903f 9b59 77d7 a71d bdbf

fc4.weight f8 [32, 2]
0.6982009479444706 -0.4491418277689938 0.10314056138346221 0.7450121177586815 -0.7522906213696643 -0.4401655756739829 -0.6644329805032346 0.4075196155281806
0.1470602542831765 0.5946511942591682 -0.5221703626028953 -0.19869581745297676 0.36662319184812264 0.16017696271472134 0.506958120329372 0.2517360938657994
0.730172770801444 -0.6571348201705044 -0.7002080114477959 0.49468137353380814 0.7640675578183581 0.18374758855212467 0.254157293518986 -0.7412015855685151
0.45349020132801554 0.6673095114802575 -0.7144012149096838 -0.6838191915069729 -0.05917270303561979 -0.7442740000679616 -0.13167879960178297 0.5676266578656923
-0.05392228013074971 0.7867912389753655 0.10372754821080156 0.4809664586852402 -0.3177854212127206 -0.7107044148089259 0.7771495366579343 0.21885874142605885
-0.6448557193735039 0.39762053970808137 0.7047387844445051 -0.32007489997251287 -0.4710774198961291 0.5053149477109908 -0.5209694395625251 -0.3402236380155097
0.029965844597053103 -0.5792485565336983 0.2168325011743263 0.1377786862878337 0.5742253468762114 0.7695619435582277 -0.7418963473369554 0.5029980652905353
-0.368495718401321 0.2916618646585619 0.5382744564081828 -0.32213412952598824 -0.1950021365166661 -0.45240098815060176 0.2466810546490949 0.2353705356582863
00000000: 7aa5 ae83 a957 e63f c024 625d bdbe dcbf
00000010: 0376 087a 6b67 ba3f 2cb6 1ca7 23d7 e73f
00000020: e6d8 fbc7 c312 e8bf b510 163c ac2b dcbf
00000030: 77a5 34f4 0843 e5bf 8802 4b27 cd14 da3f
00000040: 2106 58d3 ded2 c23f e5da fbf0 6107 e33f
00000050: 983c ca9e 9eb5 e0bf b200 e852 dd6e c9bf
00000060: 2c57 bc1e c176 d73f e756 37c0 ad80 c43f
00000070: 7e33 683c 0039 e03f da16 98b4 711c d03f
00000080: 74b3 6049 935d e73f bb3e 369a 3f07 e5bf
00000090: 6318 b2a1 1a68 e6bf fe27 5110 dca8 df3f
000000a0: 4576 98ce 3d73 e83f 3f6e c67d 0a85 c73f
000000b0: fd0c edf3 1c44 d03f e352 3863 ecb7 e7bf
000000c0: 78a8 f0c3 fb05 dd3f 17c2 037a 995a e53f
000000d0: f34f c8ef 5fdc e6bf 9ac9 fcc8 d8e1 e5bf
000000e0: 4a33 b570 e24b aebf 89c2 31b5 17d1 e7bf
000000f0: 80df eed4 d9da c0bf a8de 7b61 ff29 e23f
00000100: 7de8 5f7b b39b abbf 66b6 05d2 642d e93f
00000110: d178 427b e38d ba3f abaa a18a 27c8 de3f
00000120: 2245 d0a9 9856 d4bf da44 572f 17be e6bf
00000130: 2584 81b4 68de e83f b32f 6f30 9003 cc3f
00000140: cb20 2b76 a8a2 e4bf abe6 906b 9d72 d93f
00000150: a32e ed59 388d e63f 27c1 e96e 1b7c d4bf
00000160: b7a0 15e8 2126 debf 3028 d340 8a2b e03f
00000170: 285e 241a c8ab e0bf 9093 a65d 39c6 d5bf
00000180: a35a 2aca 5daf 9e3f 7b28 d244 3489 e2bf
00000190: 6476 a0da 2ac1 cb3f 6396 d863 bba2 c13f
000001a0: 3fc3 abd5 0d60 e23f 6a85 7a5e 40a0 e83f
000001b0: c9b0 9a68 9dbd e7bf cef8 0b66 8f18 e03f
000001c0: 12fb cf10 6f95 d7bf ceba 8c86 96aa d23f
000001d0: 4973 515a 8b39 e13f bf54 cf77 d89d d4bf
000001e0: 609e 7e7b d4f5 c8bf 193c 3246 23f4 dcbf
000001f0: 065d 21ab 3e93 cf3f 6213 8c28 9f20 ce3f

fc4.bias f8 [32]
-0.4892346950001616 -0.43238365092328085 0.5411903859264771 -0.12590599537366723 -0.05007464074121744 -0.21698941583579276 0.4503228390462091 -0.03243341752447354
-0.2831697709963322 -0.018127743169922463 0.1819751045029259 0.600821631367522 -0.17312713213669217 0.2950821663790026 -0.5674963144502772 0.5390654321686738
0.19459097652636329 0.7427881791439995 0.4426912965586282 0.2618816231197119 -0.04033986846779533 0.7482901769259701 0.30583938571500213 0.5327453128131595
0.6078136805978069 -0.6023060480315814 -0.4081870692808591 -0.12953977819983511 0.23986909847036003 0.7339189344732332 0.26454796974721084 0.09230415041633763
00000000: d807 c609 9f4f dfbf b998 027a 2cac dbbf
00000010: c2d7 0e80 6e51 e13f 7907 400a b01d c0bf
00000020: 4a59 af20 62a3 a9bf 4fe3 4b26 4fc6 cbbf
00000030: 0d1a 96e2 16d2 dc3f 5858 21e7 1c9b a0bf
00000040: 9a48 691a 741f d2bf b7aa 4240 1490 92bf
00000050: 215c 43d1 f54a c73f f37d 2e49 ee39 e33f
00000060: 0ce7 49a5 0729 c6bf ebc2 8e4f a0e2 d23f
00000070: 5c43 e507 ee28 e2bf a531 3226 0640 e13f
00000080: f582 236c 5be8 c83f 7bec 28b7 ebc4 e73f
00000090: 7f5c 3ce0 0d55 dc3f 6d3e ae23 abc2 d03f
000000a0: 3c97 965f 6da7 a4bf 4315 ba3d fef1 e73f
000000b0: e460 de5b df92 d33f 6727 f4e5 3f0c e13f
000000c0: ba53 07ad 3573 e33f 1451 4f55 1746 e3bf
000000d0: 3087 4da8 bc1f dabf 111f 736b c294 c0bf
000000e0: 5227 a0d6 07b4 ce3f 5949 af8f 437c e73f
000000f0: e065 929b 5aee d03f 86bf 52ab 3ea1 b73f

fc5.weight f8 [64, 32]
0.12298407149064945 -0.013699247131678577 0.02250614271881449 -0.011562978185038203 0.0985534220425365 -0.150987169804535 -0.00911648999523244 0.15259456432399054
-0.10228179382373613 -0.10523775149211095 0.11743271952801962 -0.06572821841393442 -0.15495532511817067 0.09181680351647328 0.04166705463679356 0.020273317595103514
-0.08418739316221054 -0.12549688803572442 0.029091831078102447 0.12255499679395161 -0.021325621201947614 -0.15989406748974308 -0.009011917944556538 0.0778831984479115
0.07710979319110674 0.11133796464744747 -0.10008239428570223 -0.1573251943583664 -0.1124449175140766 -0.16085692414251543 0.07973994082332882 -0.025179630617791965
-0.044153498299349704 -0.08971948501559372 0.10197685333377506 -0.06599831233166599 0.009269012158912392 -0.1681315555282208 -0.0603374752038168 0.030685002980962
0.12395257012404677 0.04729191642474482 -0.07475255386482471 0.01973196663796121 -0.013441181460447323 0.039824580872798915 -0.1685485068390863 0.06683581934795735
0.0654400160752772 -0.0768949065644849 0.09994290711345907 -0.12402074730348485 0.06398679051990577 -0.030476204053258803 0.11203460258375286 0.02732381285780948
0.10391800604433217 -0.023885374035006908 -0.1438168877265871 -0.15436933570567252 -0.16525072361008492 -0.036691976596616056 -0.13477285089762228 -0.0742759755682798
0.05779576863308403 0.18877283716350626 4.495510059926845e-05 0.1452686255480353 0.1263068166115193 0.23747988684999086 0.18177124089025076 0.16419944394110214
0.1639935219835193 0.12129588109944635 0.14274140941482186 -0.005365465494145983 0.047412067511324485 0.10669465021269495 0.0954911103112273 0.20410613922512208
0.04701960099047192 0.1849295877591787 0.22089229270886399 0.17014554193890155 0.1891600138476762 -0.02391765382176283 0.02949573899809217 0.07363607224538576
0.06477581390781999 -0.0740560076539434 0.17588759115171126 0.19011624774198857 -0.00385203973509409 -0.060330838727694236 0.025309390375164078 0.3101738232302431
-0.030355581258426058 0.09080541104225177 0.19825952918689166 0.26071509412028643 0.22411685666130404 0.0584372471368699 0.2528005502049549 0.08725410299781301
0.25103752180849925 -0.03640400263161538 -0.06180906928672202 -0.018261193311369567 0.19057979691518875 0.050879290480806943 0.1645904045316498 0.1857388977963127
0.050080354324568206 -0.030267267022170533 0.1391310768862311 0.045358489889325906 0.03238047862573342 0.15728505561223638 0.18778234581747208 -0.05993348714991624
0.24612898865848765 0.09197323996486281 0.01333649621918283 -0.0018011903028613235 -0.0351837984607495 0.012371287251066086 0.17091152764439224 0.09066003387398737
-0.05929995520242952 0.141516531225269 0.1274256727637961 -0.04153530336736135 -0.13346967998069043 -0.004513472459202343 0.15466492949106647 -0.1825088792215851
-0.07806600989475684 -0.03134837631650513 0.09971055103601592 0.04527082200381439 -0.04804200203085305 0.12605975880479384 0.006079717256964827 -0.06270900310655109
-0.05277141658121799 0.051969694905609785 -0.07947554099687408 -0.1937356171848148 0.018179700337118 0.1446968043968817 -0.13337770945639063 -0.13223356520166235
-0.050738630195763905 0.04638796487239992 0.09995251783056423 -0.019567167326901877 -0.1398767333698397 0.04631393325412542 -0.00683634408075059 0.12566975906351938
-0.13974571141213063 0.18262477189519305 0.1714842852818933 -0.11347178524342688 0.1653052350783935 -0.13686741718654957 -0.09701250206657218 -0.014094671145635226
-0.013340922315642776 0.15753140380695815 0.09798940199727156 -0.010695496808168689 -0.09636843787491102 0.1942605226667877 0.03886641883774793 0.11753629836363103
-0.07489419157450569 0.22487238127276218 0.08493388860562096 0.10763181798551913 -0.0599636388641494 0.12591279337226197 0.14574880125145717 0.10117298529870157
0.027793128912819553 0.08623173690431173 0.03940874665412988 -0.0982295667825615 0.13033772606696487 0.044773136993509585 0.17487511469777267 0.1441735811479727
0.04611122938935735 -0.04649474952584661 -0.04724429667528962 0.08202324749545582 -0.10488338608789943 -0.12627923168563515 -0.18693228693563804 0.06347954174820916
-0.09212727554721988 0.0323317467749131 -0.07133355095348425 0.013332813364120552 0.0484878135632011 0.08989072045217959 -0.16714272763673527 0.11963158628467259
-0.1892446932357614 0.1164793727179262 -0.09317512192304878 -0.04346136532269407 0.07497324118622628 0.03272204690162061 -0.20408116550336244 -0.07623278241676841
-0.03297517014225588 0.13969662625185963 0.09509269743387276 0.13158409679161392 -0.13462619925094632 0.06779535838503645 0.05874871233043981 -0.22274937002366116
0.13306125018086218 0.24319052842481664 0.0430702701118604 -0.07519330321599188 0.07723631613048432 0.09008990274871145 -0.03632685512654899 -0.04386373662061941
-0.029066150675687005 0.07931740340582541 0.15437602207797138 0.0010351052476089341 0.18747478209189672 0.19371734696653525 0.00820391713910862 0.0987975388408937
0.079729969380382 0.18844921993432537 0.2140814507560634 -0.07665340122411765 -0.04153254249909165 0.17037996177201334 0.020731822436797553 0.2370618518175967
0.016239790679697483 0.013417714704812596 0.21801588253170212 0.07176358838182315 0.06513563384576124 0.12972560737782884 0.17274912049689548 0.24823285974189985
00000000: 3534 fb54 e27b bf3f fd75 48d3 590e 8cbf
00000010: 09e4 beab d90b 973f 9d5b 31a9 54ae 87bf
00000020: 6ae2 940c cc3a b93f ad89 362e 8c53 c3bf
00000030: d617 1293 aaab 82bf f8d1 a8fb 3788 c33f
00000040: 3ffc 72bf 232f babf bc93 f67c dcf0 babf
00000050: 526a da19 1210 be3f 1a1f 8384 90d3 b0bf
00000060: 9c9e dc7a 93d5 c3bf 3296 5358 4e81 b73f
00000070: 32aa f859 6255 a53f faa5 3550 87c2 943f
00000080: 0d00 5e14 4e8d b5bf ab7d ee32 4810 c0bf
00000090: e6ac 3ebc 3fca 9d3f 0d00 31a7 c35f bf3f
000000a0: e859 8436 62d6 95bf bfaf 58a7 6877 c4bf
000000b0: 28d3 c426 d774 82bf 4add 3d3e 27f0 b33f
000000c0: 4506 f5a7 77bd b33f 1ec8 f614 a580 bc3f
000000d0: baca 5cf2 ff9e b9bf 4e92 4d62 3b23 c4bf
000000e0: 590a 53ab 30c9 bcbf 257d 43ae f596 c4bf
000000f0: 916b 0536 d669 b43f a877 1d68 b0c8 99bf
00000100: e53e 668e 499b a6bf 4bb8 f42d dbf7 b6bf
00000110: 517e 04b2 271b ba3f 4942 0ef1 43e5 b0bf
00000120: 39c5 b5c0 a1fb 823f 28ac 35b6 5585 c5bf
00000130: 3c7c 72b5 8de4 aebf c1a2 1fb1 e36b 9f3f
00000140: 051c f00a 5bbb bf3f ada2 d164 a536 a83f
00000150: 9853 24be fb22 b3bf 4b4e 95dd 9d34 943f
00000160: e478 56d6 0c87 8bbf 6ce5 d930 e363 a43f
00000170: d4ed 545a ff92 c5bf e803 4dfa 261c b13f
00000180: 9b9d e448 adc0 b03f 7566 ec74 62af b3bf
00000190: 26fc 84bd db95 b93f 8da6 b1dd d2bf bfbf
000001a0: 1ab4 a834 7061 b03f e320 dc6e 2735 9fbf
000001b0: 7019 1eba 4cae bc3f fc58 810a c6fa 9b3f
000001c0: 350a 6dd5 5e9a ba3f 8213 5551 6875 98bf
000001d0: 11f8 b27e 9768 c2bf ce38 2ed8 5fc2 c3bf
000001e0: dad7 c58a ef26 c5bf e120 046f 4ac9 a2bf
000001f0: 793a 7f9d 3c40 c1bf d0ba f115 c003 b3bf
00000200: 94a7 4030 6897 ad3f 31c5 fe54 b529 c83f
00000210: 60a2 b17e c591 073f 1f8d ee8d 2998 c23f
00000220: 3fde 4d5f d22a c03f 333f bdad bd65 ce3f
00000230: 300d 7daf 4744 c73f 32cc dfc4 7c04 c53f
00000240: c668 d65e bdfd c43f 292d 7632 3f0d bf3f
00000250: 995d 9cba 5945 c23f 1ae9 332d 19fa 75bf
00000260: 3834 cbfe 6446 a83f e659 5231 5750 bb3f
00000270: 636f d8fb 1a72 b83f 933e 7164 2620 ca3f
00000280: d8d2 0c01 f412 a83f 0585 bed1 c5ab c73f
00000290: 73bf 8fda 3246 cc3f 2109 1841 54c7 c53f
000002a0: 03e5 9734 6536 c83f e698 d893 de7d 98bf
000002b0: 53fe 7889 2134 9e3f 248e 194a d0d9 b23f
000002c0: 6b4d 4ed2 2595 b03f e22d f2a2 55f5 b2bf
000002d0: a868 e20d 7c83 c63f c5ba 3ead ba55 c83f
000002e0: 2d84 ec15 508e 6fbf 2828 8d06 afe3 aebf
000002f0: d7a8 c56f b4ea 993f f458 b64e e3d9 d33f
00000300: 9a27 0693 8815 9fbf 5def b9fe 053f b73f
00000310: fa30 fd78 9160 c93f 077e b45c 8eaf d03f
00000320: feda eb74 dcaf cc3f 9c6a a4a2 7ceb ad3f
00000330: 2da1 e25b e22d d03f 9942 d1ee 4856 b63f
00000340: 0821 8fae ff10 d03f 3319 7ea1 8ba3 a2bf
00000350: cf86 5d36 70a5 afbf 25aa 3bf0 0fb3 92bf
00000360: 27b8 8335 eb64 c83f ac47 51b1 d90c aa3f
00000370: ca73 5962 4c11 c53f 04ac d0cd 4ac6 c73f
00000380: 7902 fed7 21a4 a93f a182 ffe7 61fe 9ebf
00000390: 32b4 8a10 0ccf c13f 1259 575d 3a39 a73f
000003a0: 6be4 7391 2c94 a03f 3c86 00ad ea21 c43f
000003b0: a7ae 067d 4009 c83f 26fe 7c1e 9aaf aebf
000003c0: 9060 719a 2781 cf3f 5699 c1e9 8e8b b73f
000003d0: e941 d638 2a50 8b3f 6e56 755c bd82 5dbf
000003e0: c3d7 795f 9c03 a2bf 4cd5 3811 1e56 893f
000003f0: f9fb dece 6de0 c53f e103 8bf8 7e35 b73f
00000400: 9655 7f50 905c aebf b55a bab4 361d c23f
00000410: 977c 9804 7c4f c03f 233c 2f83 1d44 a5bf
00000420: c627 43d3 8815 c1bf aba2 a809 b87c 72bf
00000430: 984a 0077 0fcc c33f cc3f be71 735c c7bf
00000440: 865c 6d4f 22fc b3bf 53ca 1ff6 e40c a0bf
00000450: 420d c473 a186 b93f d157 f0b7 bc2d a73f
00000460: 4d1f 1d17 f698 a8bf 2141 b4e6 b922 c03f
00000470: c5f8 99ac 0be7 783f ece4 817d b20d b0bf
00000480: 5285 c2e8 da04 abbf d360 0198 c59b aa3f
00000490: ebd9 6951 8258 b4bf 2888 f025 54cc c8bf
000004a0: fa93 9809 b39d 923f 5033 5cc5 6c85 c23f
000004b0: 19b7 1052 8512 c1bf 76c0 fc8a 07ed c0bf
000004c0: 7756 abea 69fa a9bf fe22 1cd0 29c0 a73f
000004d0: 7f31 3cfb 7c96 b93f dc44 fa5e 6a09 94bf
000004e0: 22bb a515 7be7 c1bf a8e7 59b9 75b6 a73f
000004f0: da34 0424 6d00 7cbf ef12 a358 f215 c03f
00000500: c3bb 22fe 2fe3 c1bf 2a5a 5d9f 3f60 c73f
00000510: 3426 8872 32f3 c53f 24a6 a3a6 7c0c bdbf
00000520: 2a78 42d1 b828 c53f d723 5a1c df84 c1bf
00000530: dfd6 adb3 cfd5 b8bf 3e70 f2bc aadd 8cbf
00000540: c571 5a48 7c52 8bbf 3fd0 b831 fd29 c43f
00000550: 1fd1 ee5c d515 b93f 6b61 0b48 85e7 85bf
00000560: e112 0a19 9aab b8bf f7fc e05f 87dd c83f
00000570: 673b a49b 4ce6 a33f c28f 90dd db16 be3f
00000580: 660d 7907 442c b3bf 3f8a ab41 9ec8 cc3f
00000590: 9c1c e231 3abe b53f 90bf 4142 c28d bb3f
000005a0: 47c9 bdd7 8db3 aebf 8a47 d710 e91d c03f
000005b0: f831 678f e5a7 c23f 91bb 1807 79e6 b93f
000005c0: 93b0 ef4e cd75 9c3f 8f9c e179 4813 b63f
000005d0: b396 1c1c 622d a43f 54d3 d4a8 9225 b9bf
000005e0: 6641 7217 e8ae c03f 3ebe 402e 81ec a63f
000005f0: 6e6e 41c9 4e62 c63f bf26 fda7 4774 c23f
00000600: 274a 691c e49b a73f eb66 4ce9 28ce a7bf
00000610: f028 498a 6730 a8bf cd33 81bd 79ff b43f
00000620: 3c2a 2439 a3d9 babf d87c 20f9 ea29 c0bf
00000630: 313f 7aad 65ed c7bf 4a0c c6fb 3140 b03f
00000640: e77d 8b33 a795 b7bf fca6 0a66 c98d a03f
00000650: 5fe8 7364 ea42 b2bf d88a e6ea 3b4e 8b3f
00000660: 5259 040b 65d3 a83f 5755 8e08 1403 b73f
00000670: ca64 7bd2 ee64 c5bf 0d49 a9f6 2ca0 be3f
00000680: 97cf 318c 2b39 c8bf 196a 7b98 97d1 bd3f
00000690: b0d6 7525 53da b7bf 40a5 666d 9140 a6bf
000006a0: 704f f842 7231 b33f 4fed 99b2 f1c0 a03f
000006b0: 3d83 c8e5 541f cabf 65f4 5cdb fd83 b3bf
000006c0: c99a ae1a 1fe2 a0bf b47f 8e3c 94e1 c13f
000006d0: cb20 91b9 fe57 b83f 1e64 3268 bfd7 c03f
000006e0: 20da 7b69 6e3b c1bf b696 155f 095b b13f
000006f0: 265f 48ac 4f14 ae3f a965 ba25 0d83 ccbf
00000700: 7a22 f2aa 2608 c13f b209 2403 de20 cf3f
00000710: 23e3 1e73 4e0d a63f 9cde 304a de3f b3bf
00000720: f00c d85b c2c5 b33f d26a 01c2 2110 b73f
00000730: 8159 78fd 6e99 a2bf 6526 88c4 4e75 a6bf
00000740: ac6d 4a5a 84c3 9dbf 6ab4 a135 254e b43f
00000750: 5b44 0eef 97c2 c33f 5df3 edcb 8bf5 503f
00000760: f867 f474 2cff c73f cacf f1e2 bacb c83f
00000770: 0116 7e1e 37cd 803f b036 3fa6 cb4a b93f
00000780: 57f4 ffea 2e69 b43f c38d 49a2 1a1f c83f
00000790: 33b9 d65e 0567 cb3f 167f 62ab 8e9f b3bf
000007a0: 4eb4 81df c043 a5bf f52d dab5 02cf c53f
000007b0: 30fc 680d b93a 953f 82c7 57f2 0a58 ce3f
000007c0: 1ce7 73e7 29a1 903f d1fa c02e bf7a 8b3f
000007d0: fcb9 bdc6 f1e7 cb3f c6be 2439 195f b23f
000007e0: 76f9 2b99 baac b03f 0a1d 9244 d99a c03f
000007f0: fb34 79a7 a41c c63f 6627 3127 18c6 cf3f
