JupyterLab/best_model_M3_104.pt (torch, 126413 bytes, 12 tensors)

block.0.weight f8 [60, 9]
0.5308185222323851 0.009058736390672721 0.002366649192690378 -0.3082701022001396 0.16866012574532596 0.163076638504819 0.09896282547454456 -0.31031195155568164
-0.20616224616071316 0.2950482082065874 0.15103721559891722 -0.25756257139585437 0.25083992787523374 -0.06423281612087166 0.26944907639541626 -0.2639769812209746
-0.18276639838135975 0.08589494854914549 -0.1154953094757045 0.17565957516270675 -0.31870196691441743 -0.07537171359500493 -0.29115975905891633 -0.39248405029593886
0.03200596731322423 0.15058805052592866 0.3046756335244589 -0.012301710595787206 0.06748315836552772 0.0647185823913838 -0.20875621207145073 -0.04612431697880036
-0.26546003567834414 0.3038854529326431 0.13658252005290533 -0.14642131276914216 -0.03568822127260779 -0.03763980843995998 -0.008330758700025713 -0.2719577598407682
0.358319770586017 -0.10477591491245672 -0.24911985817599647 -0.41115986533984944 -0.24176881272914924 -0.25833208849093164 0.23910848473021248 0.29402979038544674
-0.02275475939104392 -0.37205421200693717 -0.16156778130686866 -0.02872089584673746 -0.3800267344338884 -0.2670117470898567 -0.2580806266964336 -0.1208201691034905
0.3001631327599424 0.07370437374405385 0.031240078627199224 0.40317386085894763 0.045878519849607446 0.24163376000509953 -0.1963480825932134 0.12497055768260092
0.12770149981261203 -0.07686049420032634 0.16095224397904903 0.4333033390281757 0.3347279840792935 -0.3418614107053596 0.015890627020485888 -0.20045174888344575
0.38390548213181264 0.07450642746598324 0.06148921465399519 0.052418176801055184 0.5045555912808067 -0.3624650040429407 0.26315655916100233 -0.033792872003564
0.1939207066427565 -0.0739548371049848 0.01909204452178806 0.029923465322778304 0.019741015061763525 0.03864757789699773 0.20294103153502663 0.1822164407179387
-0.2516886636143827 0.3120029521257171 0.1937837218665217 -0.029369286533872243 0.235906787510243 -0.08827650245393827 -0.29042436000608446 0.008395715344713605
0.31118345094738026 -0.10590761291224615 0.3007611929128291 -0.011652457210555724 0.030205557681042657 -0.17765099374770066 -0.032652521003234375 -0.36582494169139784
0.4779493919276229 -0.26203435713585593 0.13154630240004178 -0.17756844549891568 -0.0844584931111537 -0.13826276293377118 -0.07853372120629372 -0.16005807519566223
-0.47027289142116996 0.24769433146989148 -0.27484952794347917 -0.14827316588600284 0.017165346691110386 0.07066578985574488 0.3042421722698325 -0.21637417737370312
-0.15754264941496224 0.26955962001994827 -0.33657502908179465 -0.2153152781431387 -0.41852457285290107 -0.21118704084897963 0.34145762151454334 0.15129630941051395
0.3237313674577886 -0.05695950000925996 0.37280130204938644 -0.242361115355552 0.1588707280211885 0.27038109126649423 0.2950424837549012 0.5119170634116122
-0.08316366299885498 -0.09905990124699826 0.271317989339691 -0.009275398750567565 -0.40823378738412 -0.29157929692954265 0.08349294644234781 -0.11520889522863213
-0.3404910451364577 0.30920874178244045 0.21014571392263903 -0.256956172454885 0.15213084147642025 0.10003807002165196 0.3093356160983661 -0.26766510632965895
-0.06865583335770813 0.18252923718720343 -0.25935453525098556 0.29376787179960956 0.10456275230200779 -0.3034729108771363 0.32812395805644595 -0.21160326323313766
-0.2464403424432582 0.16408382972161728 -0.16469324295894117 -0.1517535268305858 -0.14532058849071472 -0.14950730885519517 0.10964699115363982 0.2604212313909387
-0.2864258723971671 0.20437489700548664 -0.24832331874322278 -0.20736128468647663 -0.1808823653915603 0.11296046658594287 0.3552344622684513 0.24481973567332346
0.09547677437530627 0.018303542239680913 -0.024640876941552793 0.19702473237518048 0.2278517305771903 0.1606881980921242 -0.1677484754669101 -0.03386558027089636
-0.2646664455778198 0.2700705095265355 0.17249931224934795 -0.07766484579204842 -0.012993618307454416 0.02786748106455909 -0.18606600605323995 0.10025737474296068
0.0769980772216344 0.21196561226347743 -0.49456985498837847 0.2365734497253228 0.3347369949864733 -0.09168546800722306 0.14627500622527645 -0.3315550367141151
-0.14706318937077964 -0.2289682654444625 0.10297379190002368 0.12361308165167748 0.18215910183462738 0.12137230068606004 0.07739930967744493 0.13266023364222548
0.18390419184271356 -0.26788091534996716 -0.10541196631039629 0.2016916964660695 -0.2512614542422984 -0.28630906030086434 0.3895254717269927 -0.10736649428800828
-0.06729851387982062 0.15401746964655377 0.06167348992273623 0.03497606611149708 -0.1769175834449382 -0.11319702638557178 0.3928827598944673 -0.26677267203795674
0.25874177644244656 -0.1168064878939144 -0.04117377718952117 -0.024281759454451938 0.43095784148044325 -0.0520579530266734 0.23304671093539808 -0.06428718506222426
0.12251629695749276 0.09579355027799469 -0.2806625571459002 -0.1326903539039635 -0.04715786254669709 -0.2561945967781433 -0.35566679956187275 -0.2656224316533577
-0.06412196542433403 0.2855098373047687 -0.3032753375132843 0.14611978070438222 -0.1766438558305888 -0.26181411018249007 -0.021901700871232974 0.3541186389906675
0.20979516104503157 -0.13133552581113847 -0.16187905788263288 -0.24146842093993215 -0.09572563572283502 -0.15378599345583144 -0.10374198865577149 0.0008632690313988042
00000000: 2e2c 2320 77fc e03f 9c04 5404 638d 823f
00000010: 255a 471c 3963 633f f62f d285 b2ba d3bf
00000020: f892 1bae a796 c53f ff55 8ffe b1df c43f
00000030: 25d4 eeb2 a055 b93f 6d55 dfa8 26dc d3bf
00000040: a20f 7744 8663 cabf 7e67 3fe1 11e2 d23f
00000050: c7f5 bcfe 2f55 c33f 3268 34b9 e77b d0bf
00000060: 0354 b0e9 c20d d03f 33b2 91d4 8f71 b0bf
00000070: e490 c356 a73e d13f c76a 4fb5 ffe4 d0bf
00000080: db85 edab e364 c7bf b901 e91a 36fd b53f
00000090: ee1f 0ac1 1991 bdbf 4ecb 4651 037c c63f
000000a0: fa5e 44ef 9c65 d4bf 3f1c ef84 8f4b b3bf
000000b0: 2c6f c48a 5ca2 d2bf 5540 0e6c 751e d9bf
000000c0: 9d37 c60d 1663 a03f 6eb0 1620 7846 c33f
000000d0: 5c0a 783a ce7f d33f 79d3 8ca5 a331 89bf
000000e0: 6df2 3586 9346 b13f 6d81 d0a2 6591 b03f
000000f0: 2e84 d707 86b8 cabf 7ed5 f241 9b9d a7bf
00000100: f58a e816 4cfd d0bf b7da 84f8 db72 d33f
00000110: 1e8f 6a38 897b c13f fcf2 e3fe eebd c2bf
00000120: 08c0 6ffe b945 a2bf 94fe 8d64 8645 a3bf
00000130: a9fe 5681 b70f 81bf 9a35 1a85 c167 d1bf
00000140: af56 0b0c b6ee d63f 6e1d f527 98d2 babf
00000150: 4435 d3d5 28e3 cfbf a5fe c377 7150 dabf
00000160: 1ea6 eecb 47f2 cebf 07dc e44f 8388 d0bf
00000170: 6762 0e59 1b9b ce3f ac55 7053 62d1 d23f
00000180: acca a60d 064d 97bf 872a 3a78 bccf d7bf
00000190: 9c6f 66c8 40ae c4bf 6a86 7eb1 0269 9dbf
000001a0: 59f3 ffa6 5b52 d8bf 3f85 5970 b816 d1bf
000001b0: 8a1c d99a 6484 d0bf 8226 ff12 12ee bebf
000001c0: 95ce aa6d df35 d33f 0b89 cd32 4ade b23f
000001d0: dbf7 1c30 66fd 9f3f 6370 bfbc 99cd d93f
000001e0: 4097 afac 637d a73f d16b 6ae4 daed ce3f
000001f0: 5a61 af18 ef21 c9bf c9ab 350a 12fe bf3f
00000200: 6833 acd2 8558 c03f 5ede f11c 21ad b3bf
00000210: 53cd 0d48 159a c43f 4fe9 97ed 3dbb db3f
00000220: fe4c 2bec 2e6c d53f c69c afae 0ee1 d5bf
00000230: f2b3 76ed a145 903f 14b1 f024 67a8 c9bf
00000240: 48b8 a04c e891 d83f d0e5 4e6d da12 b33f
00000250: a6c3 fdab 837b af3f 1d28 2726 8ed6 aa3f
00000260: 8b14 72c4 5125 e03f a4c5 936a a032 d7bf
00000270: e0c2 d49b 8ed7 d03f b6ba 2fa0 4c4d a1bf
00000280: ec1f 86ca 64d2 c83f f435 bf46 b4ee b2bf
00000290: 68e4 566b dd8c 933f 95fc c6c3 41a4 9e3f
000002a0: 640a 5218 fd36 943f 6641 4686 9dc9 a33f
000002b0: 10cf bac2 f8f9 c93f 36aa d64a de52 c73f
000002c0: a0da bfc4 aa1b d0bf 89aa e83a dbf7 d33f
000002d0: b8f9 f4ad e7cd c83f 17e9 ad74 fb12 9ebf
000002e0: a965 a190 3132 ce3f 7180 0bf3 4999 b6bf
000002f0: f305 0c0e 5096 d2bf 7914 a8d6 c531 813f
00000300: db06 38fe 6dea d33f a803 dbe5 c21c bbbf
00000310: ecdb dddf ab3f d33f b458 1955 3edd 87bf
00000320: 6f0f 97a9 34ee 9e3f 78c7 1f8c 44bd c6bf
00000330: 3483 aecb d4b7 a0bf d30a 2804 ad69 d7bf
00000340: f738 de0b b996 de3f b1eb 94c0 2bc5 d0bf
00000350: 56e4 5b5d 82d6 c03f 5715 1c15 90ba c6bf
00000360: 1727 c861 129f b5bf 190f 871e 98b2 c1bf
00000370: add6 3634 c91a b4bf ba89 3673 c87c c4bf
00000380: ab5a 3678 f318 debf 9bac 88a6 72b4 cf3f
00000390: 66a6 7579 2297 d1bf f168 2d77 9dfa c2bf
000003a0: 87ba a6ea ca93 913f e75d 6038 2717 b23f
000003b0: a0a0 fd28 b478 d33f 386d c227 26b2 cbbf
000003c0: c531 7b87 5b2a c4bf 0eb4 13fe 7640 d13f
000003d0: a19e a3fd 718a d5bf 311a fa76 738f cbbf
000003e0: e56f 3e4a 1bc9 dabf 7387 e44c 2d08 cbbf
000003f0: 85fe 5711 71da d53f 4f3a 766e ad5d c33f
00000400: 77ea fac4 03b8 d43f 1dfa 78ab cb29 adbf
00000410: 5255 0dfe f9db d73f 4e18 2364 b005 cfbf
00000420: 8044 9242 e055 c43f 8e91 1c7e ec4d d13f
00000430: 3b1b aade f9e1 d23f 5fc0 b3e4 9f61 e03f
00000440: 8daf cbbc 364a b5bf b86a 335c fd5b b9bf
00000450: e2f2 c120 465d d13f 6d10 54f2 fafe 82bf
00000460: 04f8 7b9b 8020 dabf 1e32 2036 3ca9 d2bf
00000470: e6a3 6a32 cb5f b53f a31b 3785 547e bdbf
00000480: d748 dcf3 9aca d5bf ebf1 6576 13ca d33f
00000490: 809d 5804 0ee6 ca3f 84bd 4c4d f871 d0bf
000004a0: f255 6dfe 0579 c33f 7613 194f 189c b93f
000004b0: 015a a89c 27cc d33f 01d7 7dd3 6c21 d1bf
000004c0: 9373 f3be 6d93 b1bf f234 2438 1e5d c73f
000004d0: 8b39 bec3 4399 d0bf 85ab 7fc2 17cd d23f
000004e0: bc51 84e1 9fc4 ba3f 3b1c dca4 196c d3bf
000004f0: 99bc 38a1 fbff d43f 1e17 a8d3 d015 cbbf
00000500: 18bb 9a6d 5b8b cfbf bc77 3aed b200 c53f
00000510: 30bf 300e ab14 c5bf 861f 65d9 a86c c3bf
00000520: 6065 8073 dd99 c2bf 75e4 0535 0e23 c3bf
00000530: 4614 1c41 d311 bc3f 3585 00d0 bdaa d03f
00000540: 7c24 ab2e cd54 d2bf 0987 61e5 f428 ca3f
00000550: b80c 6bfa 0ec9 cfbf dcac 1788 d08a cabf
00000560: e7d2 e341 2727 c7bf 1b3f ba25 faea bc3f
00000570: afba 7653 29bc d63f d7ee 10cb 4056 cf3f
00000580: e431 7877 2a71 b83f c612 48ed 29be 923f
00000590: da56 6f42 753b 99bf 94fb 063f 1b38 c93f
000005a0: a740 95d9 3e2a cd3f f854 d44d 6e91 c43f
000005b0: 49c8 0a34 c878 c5bf cf76 724f d456 a1bf
000005c0: 3cbd 0688 4bf0 d0bf 25f4 81d1 d548 d13f
000005d0: b2c2 581c 7514 c63f 85c9 b9e4 d7e1 b3bf
000005e0: 156f 7fed 659c 8abf ab3d 2dff 4a89 9c3f
000005f0: 3fb0 72c9 02d1 c7bf 5e2e b4a1 77aa b93f
00000600: d694 855f 25b6 b33f 202d 466e b021 cb3f
00000610: 96cd 3052 08a7 dfbf 6409 d6ee 0948 ce3f
00000620: 239b 8eb7 546c d53f b506 9ce6 b278 b7bf
00000630: 60d9 faaf 23b9 c23f 90b7 e09d 3238 d5bf
00000640: 7f7f 6572 f7d2 c2bf b1f1 f305 d54e cdbf
00000650: 1a43 8e8c 7d5c ba3f 563e 0d5f 1ba5 bf3f
00000660: e133 864c fd50 c73f 7d3f 164e 4112 bf3f
00000670: aa2f ccef 70d0 b33f cd8d 7cb2 02fb c03f
00000680: e8e7 c72c 2c8a c73f 4ea4 a9fe f524 d1bf
00000690: 4003 e953 47fc babf ce27 1994 08d1 c93f
000006a0: 20d4 2dec aa14 d0bf e69a a23c e352 d2bf
000006b0: a4b0 813e fced d83f e935 a7dd 5e7c bbbf
000006c0: 45e8 2eb4 793a b1bf f282 922d d8b6 c33f
000006d0: 1e26 7fec aa93 af3f 03e8 2e08 62e8 a13f
000006e0: c2de 7d41 3ca5 c6bf 549a 54f6 7afa bcbf
000006f0: 5c2c 3abb fd24 d93f d6a6 77af cd12 d1bf
00000700: da78 fbaa 398f d03f 1409 77ad 07e7 bdbf
00000710: 6cac f6b4 ba14 a5bf 711e fc4a 51dd 98bf
00000720: 963f c732 d094 db3f a316 7e0b 57a7 aabf
00000730: 1436 f480 79d4 cd3f 35e7 64fd 1f75 b0bf
00000740: 17d2 a860 3a5d bf3f 9c99 9c15 ed85 b83f
00000750: dbd0 0916 60f6 d1bf 6a8f 415d fffb c0bf
00000760: c34f c64a 1325 a8bf f3bc a405 7e65 d0bf
00000770: ec09 19ae 3ec3 d6bf 2b40 423a f5ff d0bf
00000780: e9e7 7310 4c6a b0bf bd41 7a0d cb45 d23f
00000790: 0263 13f6 dc68 d3bf 1346 b68f 0db4 c23f
000007a0: bb75 ea0f 449c c6bf 615e 37f8 8fc1 d0bf
000007b0: 39f8 df43 666d 96bf d59c 5739 e1a9 d63f
000007c0: 4b13 c65d 91da ca3f fbb5 143e 9acf c0bf
000007d0: 83b0 c1f5 73b8 c4bf 2415 7aed 6fe8 cebf
000007e0: ba81 d1aa 7981 b8bf a0e2 3c6a 42af c3bf
000007f0: 6ba0 7fc0 d58e babf 2601 f620 a049 4c3f

block.0.bias f8 [60]
-0.30450806291939864 0.18719677541937116 -0.13203682574665893 0.3516001037815306 -0.31826861034792353 0.2778997568918574 0.24676741310327946 -0.10887471509228973
-0.2929441804079202 0.15443346962279764 0.3910151395151498 0.0766646462451951 -0.12343361601321741 -0.06642866311264756 0.24410464802156534 0.05423349532212551
-0.3664522648424268 -0.22670827330324392 -0.19128972524787985 -0.14859821002859383 0.23581346768202183 -0.06187130898437938 0.018976198003588525 -0.3613702907579683
-0.17723498071315683 -0.2751294177649651 -0.025519456964712046 -0.01052941282673612 0.23568681108569306 -0.06895758756305369 0.06667232118219052 0.1292821908234639
-0.023088160263234542 -0.0893323231754148 -0.001239897686673116 0.2945367930866617 -0.07887329129191978 -0.21914697489195012 -0.164756431236865 0.14349555397149413
0.1142362473326423 0.17270714172095677 -0.06931271218705341 0.2099312118500806 0.16288789477974863 0.0898059518951677 -0.2435235688685173 0.2844639120939355
0.29053806663648 0.1412395321246577 0.17526700843716334 -0.12284282047564338 0.20783494045390832 -0.2290846771430972 0.1982201034511019 0.07844436825975509
0.3174955461431411 -0.02292989146308936 0.3198468746258845 -0.20863251956978981
00000000: 2ddb e662 0f7d d3bf b3e2 2b5e 10f6 c73f
00000010: e28a 392c 95e6 c0bf a4c2 c0b8 9d80 d63f
00000020: a869 324e 835e d4bf 22ae da0f 1cc9 d13f
00000030: 35a1 7f18 1396 cf3f 8fc5 ae9c 36df bbbf
00000040: 63f4 99f2 98bf d2bf 6207 b8d6 79c4 c33f
00000050: 2d57 1d5d 6406 d93f f9ec 6154 4ba0 b33f
00000060: 6df8 0070 5899 bfbf 7cf8 9507 7801 b1bf
00000070: 7ef0 0634 d23e cf3f 8039 8321 7ec4 ab3f
00000080: 4fc6 4233 f473 d7bf cff7 c8d5 c604 cdbf
00000090: 620f 0085 2e7c c8bf cf91 2822 4405 c3bf
000000a0: 1048 d3bd 222f ce3f fa17 4ca1 98ad afbf
000000b0: 82b3 4f17 7f6e 933f 874b 23db b020 d7bf
000000c0: b162 efc6 a2af c6bf 79f4 dd6a b89b d1bf
000000d0: a5eb 4cc4 c521 9abf 7533 e5dd 7190 85bf
000000e0: 1e15 db44 fc2a ce3f 8ff5 6457 34a7 b1bf
000000f0: 74a2 06ef 6f11 b13f 8b60 c59e 518c c03f
00000100: 5887 0535 6ca4 97bf ad9c 83ae 7bde b6bf
00000110: 57fa ef00 8250 54bf daa8 71d9 b0d9 d23f
00000120: e86d a03e 0a31 b4bf 30d1 1611 020d ccbf
00000130: b0e7 fb1d bd16 c5bf 7fe8 b6f3 0f5e c23f
00000140: 3bbc 4f32 963e bd3f 2313 bd82 441b c63f
00000150: 435b 0a58 7abe b1bf 9d22 a7a4 06df ca3f
00000160: c424 7fb2 82d9 c43f 9f3a 60da 85fd b63f
00000170: df38 0cc2 c72b cfbf a67b d51f a834 d23f
00000180: 8f97 9cf9 2c98 d23f fd59 b011 2314 c23f
00000190: 7316 a73a 266f c63f 04c5 7d88 a072 bfbf
000001a0: 369a 1bd8 559a ca3f b712 2c8e a552 cdbf
000001b0: 5db9 ddbe 465f c93f b024 3b1c ee14 b43f
000001c0: 6ade d3d6 d851 d43f ca3b bdf7 ee7a 97bf
000001d0: 3dbe 8f06 5f78 d43f 0998 376c 78b4 cabf

block.2.weight f8 [60, 60]
-0.0345314239172392 0.12445904818216182 0.09575525105730932 0.10663763661787451 -0.024058081820546272 0.06028021452076699 0.13366049592345733 0.021275849645646674
0.06681752084196226 0.011757136440348134 -0.06887747320487905 0.016169160531725027 0.1337332552918658 -0.11062262488093422 -0.07047875650804118 -0.09222971536299569
-0.1526906735107174 0.03508987780192073 0.09721788034473922 -0.006190960379202347 0.05920375296005117 0.09512304240895489 0.044162667686639165 0.10691094703290449
-0.10099160219968363 -0.10473986824112531 -0.09288119066788367 0.005395202348077813 -0.008403119519953019 -0.11048494981337652 -0.1028552738817857 0.1351312397684924
0.03216844404681852 -0.0398289787247127 0.09967509444366952 -0.06010721698415294 -0.06563617976576078 0.007135207022270929 -0.08237672942842275 0.1434354794828474
0.05244493652982418 0.10584068479561536 -0.2075244368270834 0.09927345024704742 0.07858517486415668 -0.06669875044588193 0.09521358628129158 -0.058360694907336794
-0.031745742154887666 -0.09012623471038725 -0.16473841389387275 0.005832776946704433 -0.21799553375225786 -0.00538907793811772 0.08405354627419444 -0.047162959467597944
0.045424367314467806 0.08860921153524196 0.054110375882389185 -0.043914761738949634 -0.055629588537948076 0.06681025397113938 -0.06372816733051823 0.07954489631331006
0.0587723444788002 0.004947319214343825 0.10383678416912308 0.14455334081990986 0.10906498085249729 -0.13999416802589773 -0.13480906278309546 -0.0920501004432742
0.03801475962847214 0.10083576917122554 0.03239323850574759 -0.013619849623031737 0.06189118264322302 0.18678114937721454 0.08577220818931756 -0.20863382030552532
-0.06083587448549172 -0.02479776205897438 0.10558869844464425 0.23601901071259512 0.01401514448435356 -0.20289164405647314 0.1004134430301763 -0.10857860627675622
-0.0461025736135443 0.010762424719251566 -0.05154061851846597 -0.006990287570516157 0.12659511481811683 0.04943383257866133 0.03297960849235557 -0.04526784549871203
0.026465062658142354 0.10643237848852001 0.17370463384660204 -0.02774735265246585 0.050789160058010735 -0.0903283748264644 -0.052270235051745204 0.05306200242547605
0.05711843448865488 0.03634709881910809 -0.18790972523375205 -0.03099597936220742 0.0025833388566045127 -0.148651275079935 -0.11493494025932256 -0.08967006933244757
0.04474159253346033 0.07240174363058417 0.13701903826627865 -0.0416761970903061 -0.032836998626266024 -0.03964936544865474 0.06723051329978222 0.09444933330719837
0.14634909401778776 -0.018969137478336548 0.0711311078614979 -0.08516810972409428 -0.0506430956516395 0.08759258097255826 0.11275455528981085 0.1573003771556052
0.07048265666988952 -0.10832398067231977 0.01817930861312558 -0.0354860629506092 0.14828596796159765 -0.025886424745629938 -0.06016556730165614 0.01253072610731328
0.21864051745981308 0.01866844271482038 0.06139716035781891 0.06171243836973284 -0.12195687984385466 0.03663960052588149 -0.0024650256932555858 0.047926765447648186
-0.03906922006437106 0.14316305948308278 0.03303555732878647 -0.016771203100115102 -0.03359976645447138 0.1572904195920797 0.14724387891985224 0.03170672304450629
0.04393122689850424 -0.09722528792822331 0.012016941741345178 -0.09802097583460492 0.034289673411198804 0.11536917921512649 -0.019776837778159733 0.010680266331408896
0.18925372990442135 -0.009814534850233612 0.05962477676056887 0.11392775269231915 0.1550843107402154 0.05279741017579002 0.13787821192272262 -0.07350176716510498
-0.11788164017123089 -0.06605197297559107 0.1545626040337695 0.1253781208871834 0.0644273880844164 0.06643858747086176 -0.021964687313443844 -0.10341709208606298
-0.09042015789304558 0.0427280558278014 0.03160589641082524 0.03400933456896938 -0.04887855113206408 0.031042456236171394 0.0023336468284965973 0.08036561933170122
-0.08498336254882786 0.027181663444001615 0.029600789117625897 -0.029362530401071972 0.03252680773232232 0.043589764102951796 -0.0004260391525923912 0.023166501875148085
0.10982842370596717 0.008187765963655445 -0.03816576951574389 0.05420984641379276 0.06953699518306637 -0.04831053242256707 -0.023121528419542545 0.08831270124254581
-0.02159093383279388 -0.06880876442203529 -0.1262659581778286 0.043487615042040656 -0.08836936617963648 0.052172170312150906 -0.1517167329848763 0.07265187613868826
-0.03824775410088143 0.20641393713127698 -0.16646862011810218 -0.041878867501274716 0.14097512066977533 0.06459691111297615 -0.16269497298974786 -0.019674270491478234
-0.027935383981739104 0.15324445156477334 0.1708486907889966 0.1477317294769332 -0.11736412080690418 0.030063130629433818 -0.07551857822919594 0.02995146379523077
0.0477037601954238 0.023475849545215588 0.05534523223302403 -0.07245611634483579 0.0902254819187076 0.05964002597669472 0.011198230275754888 0.05216145397813987
-0.06008753223285007 -0.07385904396664011 0.08909797367014806 -0.028254384975179698 0.021307091532939013 -0.0027746914052169235 0.10977943969198602 -0.05789500705431782
0.19178692468063221 0.06662156760762232 -0.0013118724582545584 0.008711511061142567 -0.08021948808151877 0.10242314191513845 -0.033616625483019566 -0.020309880261456324
0.1306022414462353 -0.1341402335319218 0.0344438687077838 -0.12747367595721995 0.12193167922704841 0.17437945851768366 -0.1523160092717616 -0.09889718463789215
00000000: 6355 d150 1aae a1bf 6938 a255 8cdc bf3f
00000010: 291f b687 6a83 b83f a0e7 cba9 9a4c bb3f
00000020: 46b5 7e8a aea2 98bf 79d4 ec5b 0cdd ae3f
00000030: f112 6181 c91b c13f 44cf b019 56c9 953f
00000040: 19e7 d0fa f31a b13f f817 0c24 2014 883f
00000050: 2a98 d83e f4a1 b1bf a408 c0fe a58e 903f
00000060: 12df eeda 2b1e c13f 98b0 0fac c351 bcbf
00000070: e3c8 4352 e50a b2bf a515 34db 5d9c b7bf
00000080: c8fd 9034 5e8b c3bf cee6 28eb 4cf7 a13f
00000090: d0c6 aa60 45e3 b83f 3289 c045 b15b 79bf
000000a0: ab1b 874d f44f ae3f 5213 3ed4 fb59 b83f
000000b0: 6622 d63a 7d9c a63f f838 170d 845e bb3f
000000c0: c947 9eec 95da b9bf edd7 ae64 3bd0 babf
000000d0: 8e04 55cc 0fc7 b7bf aaa7 3e9a 4719 763f
000000e0: 143d 2e9c a735 81bf 270e 26de bd48 bcbf
000000f0: c61b 8b25 b954 babf 3c9f bcff fa4b c13f
00000100: 91e0 49de 6178 a03f 7187 1cc2 7664 a4bf
00000110: 517c dc96 4e84 b93f 97a9 6686 5fc6 aebf
00000120: f23f 875d 88cd b0bf b436 f98c ce39 7d3f
00000130: 4eb5 d82e a416 b5bf 2082 bb02 185c c23f
00000140: 3008 790e 10da aa3f b78d c807 6018 bb3f
00000150: a785 a526 2990 cabf 2412 2c1e fc69 b93f
00000160: 55f3 fd73 281e b43f 7960 d957 2b13 b1bf
00000170: 9588 36e7 ea5f b83f a668 fff7 73e1 adbf
00000180: fe5a af58 fa40 a0bf 5ebd 974e 8312 b7bf
00000190: 1fd8 08fa 2516 c5bf 4e01 b223 1ce4 773f
000001a0: e7eb 1114 47e7 cbbf 8639 ff97 db12 76bf
000001b0: ed48 5c80 8884 b53f 7de7 fd50 be25 a8bf
000001c0: 3840 1dd8 dc41 a73f d20f abe1 17af b63f
000001d0: ad08 94ed 5ab4 ab3f b6f9 f5e2 fe7b a6bf
000001e0: 9fbc eb3e 7b7b acbf 78ef d70f 7a1a b13f
000001f0: 68c2 843a 7d50 b0bf 7fb8 3ae8 0d5d b43f
00000200: e031 e4a2 6817 ae3f bfd9 a7e3 a343 743f
00000210: 55d1 2028 0c95 ba3f d3ad ac4f b980 c23f
00000220: d17c e6bd aeeb bb3f 9da6 a632 54eb c1bf
00000230: 94cc ed61 6c41 c1bf 2754 ff6a 9890 b7bf
00000240: c33a bdaa ab76 a33f cb7f db7a 5fd0 b93f
00000250: 0ec8 fcb7 d895 a03f f6ab a845 b9e4 8bbf
00000260: 5010 ba7a 33b0 af3f 83ce 0ad8 71e8 c73f
00000270: b32d 14dd 2af5 b53f 77a0 8655 83b4 cabf
00000280: 5970 ad36 e125 afbf cfa8 3aa4 9564 99bf
00000290: b89e a566 dc07 bb3f e457 1ff6 de35 ce3f
000002a0: 2d0f acd9 f8b3 8c3f 3e57 ed77 5af8 c9bf
000002b0: a8b3 e405 b2b4 b93f 7201 01bb cecb bbbf
000002c0: 5ffb dcab c19a a7bf 2f0c 8f31 9c0a 863f
000002d0: 07a4 e72d 8863 aabf 2d7d 1408 d9a1 7cbf
000002e0: 2114 fdca 4434 c03f 558a 7b2c 644f a93f
000002f0: acb0 d107 b4e2 a03f 1667 f4d7 582d a7bf
00000300: afca 694a a819 9b3f e5fb d700 273f bb3f
00000310: ab74 c414 f43b c63f bd8c c550 cd69 9cbf
00000320: b484 e16a 0901 aa3f 79ce c7a7 c21f b7bf
00000330: fef4 330c 2ac3 aabf 49c7 275a f12a ab3f
00000340: 8746 41a0 a03e ad3f b910 7741 169c a23f
00000350: 105a 3d06 6d0d c8bf 3b35 acf6 68bd 9fbf
00000360: 9d4f ea7c a729 653f 030f 7d46 0107 c3bf
00000370: 75dd 9451 606c bdbf 9781 361f 9ef4 b6bf
00000380: d082 67b9 5ee8 a63f 9115 11b1 eb88 b23f
00000390: a23a 2400 d789 c13f 3d8d 0c1f 9556 a5bf
000003a0: 25b0 65d6 02d0 a0bf c378 d1ef eb4c a4bf
000003b0: a675 ead7 0436 b13f a6f4 aedd d42d b83f
000003c0: 3585 4d2e 91bb c23f 0c40 6944 a56c 93bf
000003d0: 484e fef5 a535 b23f 0858 edc5 93cd b5bf
000003e0: 8119 2f4f e4ed a9bf 163d a6a6 776c b63f
000003f0: e2db 7187 7bdd bc3f b011 c433 6b22 c43f
00000400: 5116 55c1 260b b23f c232 5cd2 1ebb bbbf
00000410: 673d d4bf 989d 923f 325f acaf 3a2b a2bf
00000420: e4e5 6cdb 08fb c23f 5879 c58e f881 9abf
00000430: 23d2 cf6f 05ce aebf ebbc 9b96 b5a9 893f
00000440: 5503 0998 69fc cb3f 21a9 b5fb d11d 933f
00000450: fbb2 9bd7 726f af3f b1dc 1bd1 c598 af3f
00000460: 4399 73ea 9038 bfbf 778c fefb 6cc2 a23f
00000470: 1c09 9097 8831 64bf b1c3 6664 db89 a83f
00000480: add4 e97c e100 a4bf 7ed1 3cc9 2a53 c23f
00000490: 6d1f aa5c 09ea a03f 527a 5163 782c 91bf
000004a0: a07f 2614 fd33 a1bf f9a0 0fac 1722 c43f
000004b0: 089c 3f2e e3d8 c23f 4137 1415 dd3b a03f
000004c0: 0dbe 9a5d 277e a63f 7bf3 fea7 c1e3 b8bf
000004d0: 8d53 379e 569c 883f 3219 8815 e717 b9bf
000004e0: 5e82 c883 6a8e a13f 3a01 b2a3 d588 bd3f
000004f0: bbe7 e61d 6140 94bf 6107 d914 89df 853f
00000500: e4f1 4a5a 7739 c83f 6c5b a891 a419 84bf
00000510: 5f96 6f84 2387 ae3f e997 eb83 5e2a bd3f
00000520: 223f 607d cdd9 c33f e57a 091c 4308 ab3f
00000530: 9fff 8445 fea5 c13f fc1d 2c06 03d1 b2bf
00000540: 2593 55bd 7d2d bebf 6035 c437 c8e8 b0bf
00000550: cf3b c118 b5c8 c33f e114 6ce8 630c c03f
00000560: 810d ca34 507e b03f b239 6188 1e02 b13f
00000570: ca61 b636 e97d 96bf 5868 5be4 8a79 babf
00000580: d8be 0c85 c625 b7bf 04dc cda4 73e0 a53f
00000590: e2f8 e3e6 a52e a03f 2103 77e7 ab69 a13f
000005a0: b118 2d05 9c06 a9bf 9b97 49f9 97c9 9f3f
000005b0: 3bbf e119 031e 633f 0ca0 c05a d792 b43f
000005c0: 8ff0 d93a 78c1 b5bf fae4 2b8e 82d5 9b3f
000005d0: 28b3 c854 ab4f 9e3f a69e 330f 3611 9ebf
000005e0: d23e e88e 5aa7 a03f b16a 86c6 6551 a63f
000005f0: 5cc5 293a c0eb 3bbf b47a aa9f f5b8 973f
00000600: 2b05 fd2f b71d bc3f bf61 5458 bfc4 803f
00000610: 8d28 cbb7 768a a3bf 1dd5 ef9a 64c1 ab3f
00000620: 9b62 2c30 2dcd b13f ea52 9d79 28bc a8bf
00000630: 09f6 9481 2bad 97bf b47c a843 a99b b63f
00000640: e3cb ce0a ef1b 96bf 66ed de80 739d b1bf
00000650: 7c66 7ca0 7b29 c0bf bcf0 c538 0244 a63f
00000660: 9cb4 b5f1 5f9f b6bf 1c0a 818a 4fb6 aa3f
00000670: 7087 3633 746b c3bf be3a 0238 5099 b23f
00000680: ff78 04aa 3595 a3bf 806e b59a c56b ca3f
00000690: edd6 9bff d74e c5bf e67b 9f9c 2571 a5bf
000006a0: 77c5 6906 790b c23f 4721 a754 6c89 b03f
000006b0: 0b77 1b5a 30d3 c4bf ee8f 55f1 7d25 94bf
000006c0: fd3c 69e2 179b 9cbf eacf e1a1 839d c33f
000006d0: 7167 c0b1 5ede c53f 5aac 5791 dfe8 c23f
000006e0: f9e5 9634 930b bebf 2ca5 798b dec8 9e3f
000006f0: c81c bc7f 2f55 b3bf 8d12 dfb5 98ab 9e3f
00000700: 4403 df93 a06c a83f b089 2b98 0d0a 983f
00000710: 9358 dcd4 3556 ac3f 3ca3 18ea 7b8c b2bf
00000720: f04f 1b66 0419 b73f 217a 3432 2389 ae3f
00000730: 5ca5 7506 19ef 863f c055 e5f5 e7b4 aa3f
00000740: 88c4 ac03 cbc3 aebf 58bd 5922 6de8 b2bf
00000750: 919b 0df3 1fcf b63f 757a bfad b7ee 9cbf
00000760: 4c37 3ab5 86d1 953f 1cd6 f01a f3ba 66bf
00000770: a112 405f 811a bc3f bfca cc13 6aa4 adbf
00000780: a5e0 a654 798c c83f e33e 156e 1c0e b13f
00000790: 62a3 8053 647e 55bf cfcd d938 57d7 813f
000007a0: 3ede cfad 4389 b4bf cf0b e12c 6738 ba3f
000007b0: 8e57 1ac6 3236 a1bf 86d6 08fe 1ccc 94bf
000007c0: 47df e501 93b7 c03f d377 0cd6 812b c1bf
000007d0: ad98 4b73 a0a2 a13f 1928 abb2 0e51 c0bf
000007e0: a164 a01e ea36 bf3f e8bc b6eb 1052 c63f
000007f0: 945e 3d4b 177f c3bf 24ac af6d 5351 b9bf

block.2.bias f8 [60]
0.11737087596348317 -0.1693774801692323 -0.12328904382947024 -0.08295583244448568 -0.04047200091600384 -0.1274703674414289 0.08156599042733542 -0.03016421824576715
0.052323718582459634 0.06594744424662159 0.017060055815577096 0.06665150472939711 -0.05313555102650244 -0.12738248639191416 0.09485313481492028 -0.020213678971846595
-0.00430630587396473 0.13727131441805768 0.008824171666198382 0.0664846187914505 0.01888873868303447 0.023556397317416117 0.11004923067360305 0.10726528750355661
0.13069329933968188 0.06071064255503482 -0.14274855309469256 0.085093407653399 0.1355909312595762 0.032181950642201786 -0.05200664752219355 0.04525509160075874
0.13988503155538012 0.0981854170276256 0.044183582578962134 0.10510052749614687 0.05064917139584181 -0.0730702643709589 0.1380223501070239 -0.1441858467972214
0.10509918369201497 0.039173500523152736 0.07406261328102147 0.006282709843084128 -0.00990500969027876 -0.0621906274119545 -0.025479602611240305 0.13103883028454988
-0.004656098553314262 0.06881213464883426 -0.032518488254474134 0.061314035074733444 0.05346463482645892 0.0504834191982045 0.08840509522969292 -0.04389716973514045
0.05660366718786639 0.010874847750533882 -0.059055122855058824 -0.12317700565964437
00000000: b81a c489 040c be3f 21bc 0049 29ae c5bf
00000010: 2fe3 33eb de8f bfbf b08c 5ceb 973c b5bf
00000020: a903 ad00 bfb8 a4bf 7b5d aff1 f250 c0bf
00000030: d4eb 593d 82e1 b43f d0f9 7f6b 5ee3 9ebf
00000040: 7dc9 3ba8 2cca aa3f 1945 4b84 eee1 b03f
00000050: 38f0 2ef7 3078 913f 3bbd 0ab1 1210 b13f
00000060: 4cd9 d33b 9534 abbf bf76 91be 114e c0bf
00000070: 6602 f487 4b48 b83f cab4 7608 e5b2 94bf
00000080: f0f2 522e 7da3 71bf f65f 0d3f 1b92 c13f
00000090: 29d0 c345 6812 823f 5f74 65cf 2205 b13f
000000a0: 2e13 a0cb 9157 933f a50a 5c10 2b1f 983f
000000b0: 076e b1b6 2f2c bc3f 6be5 d2e5 bc75 bb3f
000000c0: e031 3cdb 8eba c03f c606 9620 7715 af3f
000000d0: 37e8 8ba7 9545 c2bf d7fe f97a aec8 b53f
000000e0: af70 b22b 0b5b c13f 753a 0f13 277a a03f
000000f0: 7399 9084 9da0 aabf 5734 cee4 ac2b a73f
00000100: 007a ddb1 c0e7 c13f f6e8 13f3 ad22 b93f
00000110: 6dbd 6404 3b9f a63f 9a67 6340 dee7 ba3f
00000120: 32e5 6d2d b0ee a93f 2289 c89b bbb4 b2bf
00000130: 48d2 e963 b7aa c13f 0e23 458c ae74 c2bf
00000140: df22 cbb4 c7e7 ba3f 93ca 3b8f 8c0e a43f
00000150: d7f5 e575 c4f5 b23f a09e e614 e6bb 793f
00000160: 4a90 7de5 1349 84bf f441 b42d 73d7 afbf
00000170: 8aae b82f 5317 9abf a403 4a61 e1c5 c03f
00000180: 6a0a 37f0 4512 73bf 267b e20b ac9d b13f
00000190: b2fb 2267 43a6 a0bf e211 dd9e 8d64 af3f
000001a0: 81fa 2474 b75f ab3f cba1 e474 f6d8 a93f
000001b0: 24b1 cf60 b7a1 b63f be7c cc98 b079 a6bf
000001c0: d5a4 cfe6 27fb ac3f a20b 805b 8d45 863f
000001d0: 39c1 a51a 793c aebf be68 ed3a 8788 bfbf

block.4.weight f8 [60, 60]
0.07730785130835359 -0.03890827246811823 -0.10292332141993679 -0.05620735519489529 -0.025466696936924424 -0.03285178779457346 0.01426242973070608 -0.04570081558194571
-0.20707771877343523 -0.15843254612519264 0.01617671591789506 -0.049203720906811056 0.08568248950056377 -0.03054605724576976 -0.09595555426163856 -0.10698947839892858
-0.10970521221111675 -0.020821849636206414 0.08247390180215254 0.12504359474469937 0.09779450718124219 0.08702095460139511 0.0825591767927386 0.09501167899580928
0.1310763845808802 0.07366381784712481 0.015804224432768292 0.14053884338659908 -0.1122842323201378 -0.04556875258606922 -0.0851324746572059 -0.09648854503194529
-0.05607797611280457 0.07338779079592918 -0.01448529405160658 -0.14668004853117705 -0.051672695740488925 -0.06898924228737575 -0.09463501552888852 -0.003553757351866353
-0.07771687631016436 0.06904776787696926 -0.06242697317970045 0.083850213856764 0.1901422436866236 -0.039597732897268416 -0.09183742927761854 0.006261868271602749
-0.1234394440397423 0.11228744398026615 -0.025642961560840533 -0.0941032013629555 0.10334838489698825 0.00868529071073842 0.1749392555872452 0.11244350338899758
-0.032281201360689016 -0.06087041634381517 0.009740629136968245 0.1233693008700612 -0.12887423658602357 0.1252585347604851 0.10719705219135443 0.05102566183808101
0.042145586662170345 -0.09142467449777841 -0.167052791741545 -0.003134045828424946 -0.1662228726480432 0.06419303291607559 0.0035168950204736435 0.07905604117303865
0.041555123837463105 0.11549585543820919 -0.04553753320724077 0.06935081364500521 -0.27116370243954757 0.046074789688762635 -0.02480494653576343 -0.16638886096341118
0.09723121553703643 0.1563084751291135 0.043000772223313194 0.1729688920354665 0.12200885946781863 0.0255524427623566 -0.05416060597894908 0.02900539328754752
-0.1651444251925472 -0.08972129949690077 -0.14854805370834753 0.16610466264303062 -0.05160386055732952 0.1069719397658934 -0.038093576584876936 -0.2957792899048474
0.13526222772037608 0.1917419027465679 -0.1684374118619021 -0.08513253036533108 -0.029936004277392354 -0.00376569634146129 -0.1855527259571435 -0.089979813783993
0.0852673865350688 -0.1574376956628589 -0.10107560106220467 -0.036716996093143175 0.04345162420629538 -0.07635762264344764 0.1513269906014715 -0.012511670807436627
0.10843303348602344 -0.035089852010492896 0.05109110408919727 -0.16882041105598453 0.1948958476454844 0.12249370279211894 0.09651728650056556 0.18231907025585178
0.08706029044759124 0.0654213432667682 -0.12444276313651569 0.13395651454999344 0.06757700180780124 0.15123372380874858 -0.009680261104692382 -0.12200167231688917
0.08742966908959168 -0.058397332239104115 -0.04206006659038913 0.10041318213481233 -0.0938804852070189 -0.05888665275740985 0.10527926817187294 0.008095247789191535
-0.04318683724092781 -0.051895619272944185 0.09994431660556703 -0.017421087776636254 -0.044332892878598346 0.08554993066811993 0.10763743504854476 -0.16339136427220027
-0.15027143645542662 0.08738985794380662 -0.04569852866207687 0.048680928854179184 0.03280687877616103 -0.0223131160137926 0.08501967615790622 0.14596497104394407
-0.01584007262614871 -0.12365213321296227 0.003975156610821399 0.05785914042056099 0.12785509981196497 0.07216564460445767 -0.0030844896827972017 0.1275478241128084
-0.06066363730128672 0.09869539539772132 0.13378872416000923 0.11068315467217403 -0.04729240610379757 0.1041861021922737 -0.03608029608675347 -0.07124342837804037
-0.0746468521518407 -0.016507281034281715 0.04381037595617335 0.1172597988276207 -0.09932145658154494 -0.12006178151028768 -0.23633396016984423 -0.06709775816445551
-0.11921442510618925 -0.054914559705586 -0.0593568347743375 -0.13500302871918327 -0.03796980927264515 0.12801597540463378 0.08153341476602448 0.08166313312732579
-0.07573857125312365 -0.14804987318211166 -0.005820334252584868 0.007795629679115569 0.027808294666504713 -0.1688674776423653 0.012179409183274495 -0.08290627381022489
0.009436967607131107 -0.008074443643390055 -0.10406828267536941 -0.13792325356711077 0.014215306482098247 -0.05304527704980134 0.10056938230991364 -0.11322320662093315
0.06830178576704052 -0.05121447070752571 -0.12731249671587364 -0.022920539204941408 -0.12359564066759533 -0.01074636023329226 -0.08559498117810792 -0.06253169992926873
-0.13925457751224066 -0.012254666311611614 0.08866142095485775 -0.010415718492012426 0.09008569222790147 -0.09254004542703913 0.0275293521600578 -0.08533434891043487
-0.003212539253687382 -0.15333799474852688 -0.1655291493621332 0.021403716081985456 -0.19732432398282007 -0.012816016618506211 -0.04955152678625973 0.06077749536842104
0.003802066496846633 0.03235629143342367 0.12273326443512883 -0.057880575934362126 -0.10221287039449455 0.058107994738655626 0.15363261423389302 -0.10892397710180024
-0.08381150542387322 0.04873542309843773 -0.09187598475793134 -0.016963154373042515 0.09677968135311901 0.060307202337661715 0.17999312288557615 -0.22201204560949386
0.036404189219830796 0.028242969900964122 0.03265851128254454 0.08082402061615039 -0.09521891181077588 -0.06884078253325428 0.06736709126989039 0.043684197667083
0.04043079788626933 -0.012524863340641876 -0.07109348857213615 -0.08756000359906482 -0.07876872119468677 0.07182299901803829 -0.10019023408517622 0.005547534317605242
00000000: afe9 1785 72ca b33f e0be 96fb c8eb a3bf
00000010: 128c 7ecb 2e59 babf 71a5 b6e0 35c7 acbf
00000020: 8cc8 ec19 f113 9abf f5b9 6214 f3d1 a0bf
00000030: e5fe 09ea 9e35 8d3f 4f64 a6e8 1866 a7bf
00000040: 3a5c eece 8581 cabf 4467 1d86 8447 c4bf
00000050: a4d1 4b07 a190 903f 85c4 45e8 3a31 a9bf
00000060: 37aa 3ea2 49ef b53f a2bd 9133 7747 9fbf
00000070: cd5c 6c0f 8b90 b8bf a84f bd96 a963 bbbf
00000080: a9c1 a50a a415 bcbf ed3f ebac 5252 95bf
00000090: d185 0377 021d b53f 7b5a 00b3 6d01 c03f
000000a0: 3a66 1292 0f09 b93f be66 145a 0147 b63f
000000b0: 073b 4f24 9922 b53f be69 0676 af52 b83f
000000c0: 1fc2 8668 1cc7 c03f 7649 8dc8 a1db b23f
000000d0: be3d 4f8c fb2e 903f c1e0 1444 2dfd c13f
000000e0: ade4 abd1 a8be bcbf f542 279c c954 a7bf
000000f0: 8bf1 7aea 3dcb b5bf e2cf 5929 79b3 b8bf
00000100: c858 dca2 40b6 acbf a9ea 64d1 8ac9 b23f
00000110: baf7 cb41 77aa 8dbf 7a63 b56d 69c6 c2bf
00000120: de65 9af4 d774 aabf e56c 666b 47a9 b1bf
00000130: 77c6 c018 003a b8bf f07c 55f3 c41c 6dbf
00000140: 7274 19d2 40e5 b3bf b4b4 e450 1dad b13f
00000150: dde1 63a0 6df6 afbf 2c04 4726 3577 b53f
00000160: 216e 1cbf 9456 c83f cf3a 946f 2746 a4bf
00000170: 32cc 4b63 a882 b7bf 46a9 0377 0ba6 793f
00000180: cae6 2f37 ba99 bfbf 818c a5b3 debe bc3f
00000190: 5807 1b05 2642 9abf 1284 4dbc 2517 b8bf
000001a0: ae1b 3a2d 0a75 ba3f fd92 78fc 97c9 813f
000001b0: ac53 c4d6 6864 c63f aa12 b4f1 18c9 bc3f
000001c0: e04f 3d60 2987 a0bf 9e2e fb3e 682a afbf
000001d0: 319a af1c e5f2 833f 643a 9168 2195 bf3f
000001e0: 478b b773 f37e c0bf 38ab 2bbf 7808 c03f
000001f0: 77b4 6319 4471 bb3f 52df b319 0920 aa3f
00000200: aafe c438 1b94 a53f 7cf1 0383 9b67 b7bf
00000210: b922 9e62 fc61 c5bf 4ac1 ca0a 92ac 69bf
00000220: 266d ef84 ca46 c5bf c06e 0161 f46e b03f
00000230: 82b4 15a3 76cf 6c3f b7b1 6347 043d b43f
00000240: b5ec b993 b646 a53f 393f eee9 2291 bd3f
00000250: a431 bb0f b250 a7bf e368 8e94 f9c0 b13f
00000260: bac4 7500 bf5a d1bf ac41 c465 1d97 a73f
00000270: 51bc 99c8 7766 99bf 5fd6 20ee 3a4c c5bf
00000280: 1ac4 e11a 25e4 b83f b032 6286 ea01 c43f
00000290: 9cc2 cd7c 3204 a63f 7443 423b d823 c63f
000002a0: f38d 3cfd f83b bf3f c72a fd67 6b2a 9a3f
000002b0: 6b7f d25e f0ba abbf 6d7f 4ffe 96b3 9d3f
000002c0: 73cb a8d8 7323 c5bf f003 189f f9f7 b6bf
000002d0: 33e9 4764 9f03 c3bf 35e9 e1e6 ea42 c53f
000002e0: 88d4 e13a d26b aabf 8b5a e256 8362 bb3f
000002f0: a74b 3d53 0081 a3bf 536d 3e42 0cee d2bf
00000300: 27b8 38ce 4550 c13f 89df c8a8 ff8a c83f
00000310: 0854 af6b 5b8f c5bf c8ac bed9 3ecb b5bf
00000320: 7294 603d 8ba7 9ebf 0387 43d4 3cd9 6ebf
00000330: dab4 d514 31c0 c7bf 989e 80c5 ea08 b7bf
00000340: fe60 955c 15d4 b53f 47c9 031d eb26 c4bf
00000350: 9e57 fc30 17e0 b9bf 72d5 daf2 91cc a2bf
00000360: 5626 d991 4a3f a63f 7ccd 0d54 2c8c b3bf
00000370: 6d55 d1cd ae5e c33f f474 7d07 b89f 89bf
00000380: 3be8 a06c 44c2 bb3f b5f3 9c0d 4cf7 a1bf
00000390: 02f9 5bfa 9c28 aa3f 4ffd 3040 e89b c5bf
000003a0: 24bc e1dd 58f2 c83f b245 754f bf5b bf3f
000003b0: 67c2 045d 5bb5 b83f 2bcf 1736 3b56 c73f
000003c0: b1ae 404c 9549 b63f 6989 ca01 74bf b03f
000003d0: 6f2c e51d 7bdb bfbf 0708 8ab0 7c25 c13f
000003e0: d0ea b9f4 b94c b13f a5ca e76c a05b c33f
000003f0: dc22 e4a6 3ed3 83bf 7789 a868 803b bfbf
00000400: 2e9d 7071 ca61 b63f 8bfc 4750 41e6 adbf
00000410: d754 f2a4 e588 a5bf 2937 5ba5 adb4 b93f
00000420: bb5e b22d 8d08 b8bf d928 872f 6426 aebf
00000430: d8b8 be05 95f3 ba3f 6a8d 0fc4 3d94 803f
00000440: 188a 22cb 951c a6bf 127a 2a07 1092 aabf
00000450: 69f2 3d63 f395 b93f efab 0b69 d5d6 91bf
00000460: f4ee 190a cdb2 a6bf 4b07 65aa 99e6 b53f
00000470: e2db 5b7f 208e bb3f f1bb ff1a 02ea c4bf
00000480: 04ac 8c2c 183c c3bf 81e8 de85 2e5f b63f
00000490: aa6a 282c cc65 a7bf 6036 bcea b4ec a83f
000004a0: 7bda da2e 10cc a03f c051 34de 3fd9 96bf
000004b0: 2b5e 9d78 d9c3 b53f de66 7fec faae c23f
000004c0: 3b11 9547 6138 90bf 7df5 3a8c aaa7 bfbf
000004d0: 9e42 3dfa 4048 703f f60f c397 b69f ad3f
000004e0: b8db 2850 8e5d c03f 338d 789b 7279 b23f
000004f0: 3cb3 ffc9 a444 69bf ccc7 9eb2 7c53 c03f
00000500: b9e6 87e4 4d0f afbf 98be 7ff7 1944 b93f
00000510: 7d9f 6b29 fd1f c13f 1ffc 8831 bb55 bc3f
00000520: 9d42 21d3 b536 a8bf 4410 9dbd f0ab ba3f
00000530: 03f9 71d7 1d79 a2bf 3448 f062 023d b2bf
00000540: 25d3 bd5c 0e1c b3bf cca2 c0e0 48e7 90bf
00000550: f419 ea47 506e a63f bfa4 19f9 bc04 be3f
00000560: cb0e cf87 216d b9bf 1810 1671 5ebc bebf
00000570: 018c eef2 3040 cebf 5885 f394 512d b1bf
00000580: dde2 0a29 d684 bebf 7ffb 04dc c21d acbf
00000590: cfb9 4ce0 0464 aebf 11dc 9a7c c747 c1bf
000005a0: b06b 1f62 c770 a3bf 9a3d ddd5 d362 c03f
000005b0: ff86 f3b5 5fdf b43f 3a1d 1206 e0e7 b43f
000005c0: 57f3 935e 9a63 b3bf 3a3f bf59 4cf3 c2bf
000005d0: f228 4414 10d7 77bf 415f 6068 4fee 7f3f
000005e0: e5c5 9910 c779 9c3f ff7d ea12 739d c5bf
000005f0: e89d 03a1 84f1 883f 52ec a576 5839 b5bf
00000600: 8ce3 f759 b053 833f c3d5 0d7b 5589 80bf
00000610: 923f a40e 38a4 babf 34de b61b 78a7 c1bf
00000620: 88bb 8b23 ea1c 8d3f 41b6 4524 c028 abbf
00000630: 0000 0040 eabe b93f f3cc 9531 32fc bcbf
00000640: f2b9 20d0 397c b13f bfa2 8a79 c838 aabf
00000650: 0026 e2a0 c64b c0bf 3eea 2a59 7b78 97bf
00000660: 0172 98c2 f6a3 bfbf 1232 060e 3002 86bf
00000670: f798 dc7c 8de9 b5bf a5d4 28d6 1302 b0bf
00000680: 17df 1d10 18d3 c1bf eb0d 4178 f918 89bf
00000690: 4102 6bcf 83b2 b63f 93df 4c12 d654 85bf
000006a0: e4d3 f41d db0f b73f e3f2 ad54 b4b0 b7bf
000006b0: de7e d48c a730 9c3f a6b7 cbcd 78d8 b5bf
000006c0: 2bb7 03e1 2e51 6abf 26ee 5654 94a0 c3bf
000006d0: 92c4 8525 0f30 c5bf 6609 5712 dbea 953f
000006e0: 1c13 1b67 ec41 c9bf 548b eea1 483f 8abf
000006f0: cf17 0756 d15e a9bf a15c e155 3a1e af3f
00000700: b088 5be8 8225 6f3f 4084 0dfb 0091 a03f
00000710: ac54 e17c 726b bf3f df67 6cd9 85a2 adbf
00000720: a71b 9367 9f2a babf 07cc 13c2 54c0 ad3f
00000730: 1ee5 ddc6 3baa c33f 4009 6717 71e2 bbbf
00000740: bcf5 d2ba ab74 b5bf 74a1 ba70 d9f3 a83f
00000750: 4fb7 d23d 2f85 b7bf 9ead 1305 ca5e 91bf
00000760: e235 549e 8dc6 b83f 4dcc 81eb 95e0 ae3f
00000770: e533 26c0 030a c73f b1fc 9a05 e46a ccbf
00000780: 60ec 45e4 91a3 a23f 8a26 44a0 b9eb 9c3f
00000790: d705 cacb 9db8 a03f 8310 470d e2b0 b43f
000007a0: 2620 3040 4460 b8bf 1583 9cad 8c9f b1bf
000007b0: 09b1 d43d f83e b13f c30b aa70 c65d a63f
000007c0: cd6d 5875 58b3 a43f 92ba 7ab3 a2a6 89bf
000007d0: 5039 60d0 2e33 b2bf ba47 e517 556a b6bf
000007e0: 9d9a 7ad9 2f2a b4bf cc13 e2f7 fd62 b23f
000007f0: 2640 c632 11a6 b9bf 0218 7be7 02b9 763f

block.4.bias f8 [60]
0.04195098019238111 -0.030305886853784318 0.03353107437796668 -0.0784805685274734 0.0721688249503869 0.009886486070549202 0.12328403989162885 0.11769675904204656
0.05045071928509167 0.1258845224051002 0.03410419158629432 -0.02335604858047374 -0.0020245618771912283 0.08908059329660825 0.04446137406377284 -0.022749836504187985
0.012072842094513491 0.1034540086597593 -0.175461235344039 -0.188978739497575 0.020691675297128703 -0.005947110600755888 -0.03436861883553073 0.08535067035864974
0.12009422647792538 0.009716350169064603 -0.023998220168524268 0.10583449655181351 -0.08424700458915979 -0.07085614090911979 -0.004579256178255835 -0.0016089336685382821
0.11248731625501886 0.03657137718325809 0.1286527296191964 0.10387561747468083 0.04641499890329005 -0.024008378911293322 -0.0338140131023746 0.005300401435978439
-0.04445439123632024 -0.07896907844500538 0.11032117424455162 0.01920973220145647 0.0905608014422732 0.023412749792140038 0.13725234329944386 -0.0039195798239071425
0.14296701632204936 -0.009881079758707209 0.03237810074042471 0.09656447789724928 0.018816956420763985 -0.04518913679723424 0.12187091207528233 -0.10042694477654769
-0.06567244951000502 0.03620154615473175 -0.03853852192308797 0.026101668044204628
00000000: 543f ec4f 997a a53f de32 a7a3 8108 9fbf
00000010: e4ca b427 fc2a a13f 9e6d 3273 4d17 b4bf
00000020: 90e1 f3f6 a779 b23f 7e50 c3b2 5d3f 843f
00000030: d10b 74f7 8a8f bf3f bf47 eef2 5f21 be3f
00000040: 0b3e c73a add4 a93f d1b7 66e9 fb1c c03f
00000050: e30f 0ac7 1a76 a13f 2f87 44e3 a5ea 97bf
00000060: dbf5 a361 d095 60bf 3ace ea5a fccd b63f
00000070: 7308 1427 a4c3 a63f 2e6e 19af bb4b 97bf
00000080: e6c4 b96f a5b9 883f c171 d53f f67b ba3f
00000090: 285b c285 8375 c6bf 8604 e490 7430 c8bf
000000a0: 086f cdd2 3230 953f 5837 9358 ff5b 78bf
000000b0: da88 d07b c398 a1bf d0cf e1a1 8ad9 b53f
000000c0: 4b3e 29c7 7ebe be3f 4d70 b371 2ae6 833f
000000d0: 41e2 244b fd92 98bf b689 7a35 f817 bb3f
000000e0: 4814 7f31 3691 b5bf 74e9 ecc7 a023 b2bf
000000f0: 05eb 68b8 b2c1 72bf 6933 385f 5b5c 5abf
00000100: a1b5 8700 f8cb bc3f 608c f1c9 7bb9 a23f
00000110: d1b6 2051 b177 c03f ccd2 e7ab 9797 ba3f
00000120: 62c1 aaec b4c3 a73f 9213 0409 a795 98bf
00000130: 6aa9 d700 1250 a1bf 8ad2 2bad dfb5 753f
00000140: 4213 0cd9 b9c2 a6bf db09 5149 5137 b4bf
00000150: 64c9 6f2b 023e bc3f 98db 474e b7ab 933f
00000160: 317e 7e20 fe2e b73f 22ac aa0a 83f9 973f
00000170: f69e e21a 7c91 c13f 1f1d 8632 fa0d 70bf
00000180: 6944 c141 be4c c23f f871 4d13 883c 84bf
00000190: a3cc 92c7 dc93 a03f e624 861a 73b8 b83f
000001a0: e3ef bf91 c044 933f 5070 5bd1 0723 a7bf
000001b0: 8070 b29d ee32 bf3f 19d5 738b 94b5 b9bf
000001c0: 65c8 e4de e8cf b0bf b731 9951 0289 a23f
000001d0: 9678 9736 52bb a3bf 16cf 7b4a 65ba 9a3f
