JupyterLab/traced_model_M4_503.pt (torch, 149490 bytes, 12 tensors)

weight f8 [60, 12]
000000 51 ab 04 c2 b5 58 cd bf e9 4f 7f 6e fc f1 c0 3f
       -0.22926971410319166 0.13238482852341285
000010 96 71 84 95 c7 8b c9 3f 88 49 e0 f7 cc 8c c6 3f
       0.1995782356324411 0.17617189505888242
000020 4d 42 e2 55 29 3c ac bf 39 80 f6 ab ff da c0 bf
       -0.055146495565285926 -0.13168331047654805
000030 ce a6 5e 28 dc 03 c4 bf d2 56 0d 57 80 4e b9 bf
       -0.1563677975766979 -0.09885408520980413
000040 91 80 70 1c c7 cf b8 bf ba c0 0a f7 b1 6a d1 3f
       -0.09692043728182599 0.2721371567267955
000050 7d b4 2c 8d 02 8e bf bf 37 ac a9 41 91 5c d5 3f
       -0.1232606501259443 0.3337748662222028
000060 af c1 c1 d7 46 7b b0 3f d0 a5 37 3f 7b 4e c4 bf
       0.06438105361463074 -0.15864506327424843
000070 ae 71 bf a6 56 29 cd 3f 14 16 90 d6 fb 4e a2 bf
       0.22782405035003478 -0.03575884813475852
000080 b2 1a a4 d7 2f c7 d3 3f e5 6d 3b cb 67 49 a3 3f
       0.3090324025983292 0.03766941409932282
000090 c0 69 5c 03 42 d3 94 bf 49 ac 04 62 b3 35 cb bf
       -0.020337134795320955 -0.21257631574676086
0000a0 38 94 a8 08 6a 0d d3 3f 1e 17 40 82 06 89 ce 3f
       0.2976937374645021 0.23855668411140923
0000b0 a0 e4 5a 84 c0 b8 c6 bf 97 65 03 75 41 df c5 3f
       -0.1775131841912172 0.17087572301424522
0000c0 d1 b8 23 1a 81 d5 c9 3f fc e7 37 7c c5 8f d1 3f
       0.20182813431114835 0.2744001114912178
0000d0 d8 81 f4 84 c2 2a c2 bf 97 8e e1 9c 86 93 d3 bf
       -0.14192992679546879 -0.3058792621652428
0000e0 01 73 c6 25 1e 2e cf 3f 27 ef a6 24 24 39 b5 bf
       0.2435949024628812 -0.08290315527750335
0000f0 8d 33 84 01 14 be d2 3f 7a 2d bf 87 cd f3 ae 3f
       0.2928514494713504 0.0604538181501892
000100 d2 ac 88 ba 33 ad b9 bf d9 e6 85 2c a8 df c4 3f
       -0.10029910377550103 0.16307546781518203
000110 3e 8e 04 39 5c 47 a8 3f 42 58 3d 4a 0b 0d b5 bf
       0.047419435463123424 -0.08223028719416539
000120 bd 84 5b 77 28 99 d4 3f 34 cc f1 d5 31 16 cf bf
       0.32184802680974284 -0.24286482759961958
000130 07 d9 01 25 95 15 af bf 23 f6 2f 5c 7f 6b c7 3f
       -0.06071153713939919 0.1829680633672278
000140 c8 3f 28 25 dd 57 9e 3f 9c cf 1c ee 8b 71 a6 3f
       0.029632048981568265 0.04383504182479145
000150 e0 4d e3 98 93 34 ba bf 86 1f de d3 46 91 d1 bf
       -0.10236475451102178 -0.2744919842739296
000160 77 e0 51 d6 1f bd cd bf 99 6e d7 7e c2 c5 d2 3f
       -0.23233411755404962 0.29332029711597724
000170 9e 4c 41 be 95 ea cb bf 82 1c 43 a7 0f b0 bd 3f
       -0.21809646405981636 0.11596772988842655
000180 fd 42 4f 74 32 23 c8 3f a1 be ac b0 85 e0 bc bf
       0.188574129859738 -0.11280093730305875
000190 6f ca 68 48 97 d4 ca bf d9 11 01 a1 0a 83 d0 3f
       -0.20961276088344813 0.25799813960136714
0001a0 ac ac c2 98 bf ee cb bf c0 44 83 34 61 26 be 3f
       -0.21822352370268072 0.11777312786149974
0001b0 aa cf 67 39 16 7b c1 3f e2 07 78 27 68 f0 cc bf
       0.13656881144526994 -0.22608663489523823
0001c0 d0 ad bb fe 7e eb c4 3f 30 da 29 1a 66 36 cc bf
       0.1634367698492114 -0.22041012074960653
0001d0 c9 e3 d9 fa cd 39 c6 bf c0 cc cb b9 aa 2f d2 bf
       -0.17363905666914395 -0.28415935653829294
0001e0 e8 40 99 69 8f d1 d0 bf a0 b1 3d a1 19 82 d8 bf
       -0.262790539859465 -0.38294068094435296
0001f0 7e e4 a4 8d 4a aa d4 bf d1 8d d9 e4 70 6b cd bf
       -0.32289375145371213 -0.22984133886630656
000200 01 50 fc a6 bb 88 cd bf dc 5a fe 82 b8 b7 c4 bf
       -0.23073526052087348 -0.1618567123047886
000210 af d4 35 6a ba f6 c5 bf 31 9f 35 1c 7e 06 b4 bf
       -0.17159204660462055 -0.0782240694876435
000220 0e 78 9a 63 c7 72 cc bf 34 e6 e3 ad 77 32 c5 bf
       -0.22225277293631546 -0.16560264578565553
000230 3c 98 73 de 68 5b 66 3f b0 d5 b5 c7 da 87 d0 3f
       0.0027291343900399927 0.25829190733869734
000240 99 84 3e 23 43 e7 a1 bf 60 32 3a d4 af 6b b1 3f
       -0.034967515995284866 0.06804942065554931
000250 73 3d c4 a0 0e ab ce bf 12 bd fa 58 fc 24 c5 3f
       -0.23959524965219323 0.16519121498775086
000260 67 ee 22 6f 22 33 d1 3f 32 29 54 75 91 8e c8 bf
       0.2687460027043244 -0.1918508360761933
000270 52 cd 52 b1 4b 35 d1 3f e8 c1 0a 65 a7 85 c5 bf
       0.26887790982001036 -0.16814129289333768
000280 c5 e1 98 44 cb a6 a4 3f e4 40 9b d2 8b e7 cc 3f
       0.04033503734939673 0.22581622870939733
000290 5d 0f 9f 19 7f a7 c2 3f dc a3 26 8c 41 65 9b 3f
       0.1457365870575086 0.02675344865716399
0002a0 d6 cc e3 8a 3d 39 be bf 9a 62 18 cc 7b 40 c8 bf
       -0.11806091919770564 -0.1894678827818737
0002b0 c7 a0 a4 90 f2 b3 c5 3f 4e 94 01 69 bf dd b8 3f
       0.16955406248712832 0.09713360131861856
0002c0 d7 8a 11 c5 30 ee c7 bf 93 4b 83 a6 49 f0 c9 3f
       -0.18695649740683137 0.2026454985667355
0002d0 b4 c9 af 5e 11 e1 c4 bf 22 8c af 50 07 85 a4 3f
       -0.1631185257279647 0.04007742748196842
0002e0 04 68 c5 fa 90 b3 57 bf a7 95 eb 81 19 bf ce bf
       -0.0014466205421599385 -0.24020689815294569
0002f0 2a aa 65 11 35 b3 c3 3f 2c 58 8c e6 0b 66 d4 bf
       0.1539064726778901 -0.3187284232566323
000300 49 a9 c4 09 de 3b b5 3f 4b cc ff 68 f0 9e b3 3f
       0.08294475306016581 0.07664396823365498
000310 50 6d 61 7c 61 d9 b6 3f 42 b3 11 55 5a c8 cf 3f
       0.08925446783671487 0.24830178407446551
000320 90 c0 93 87 29 46 d2 3f 35 41 9e 10 7e 90 c9 3f
       0.2855323623653101 0.19972205935892764
000330 e9 8e 12 9d b1 5c cc bf 77 b8 92 ba 4d d7 cc 3f
       -0.22157879037432984 0.225320545292053
000340 33 03 0e a1 67 df cd bf 10 d6 eb e3 3a c1 b5 bf
       -0.23338027347565457 -0.08497970642550734
000350 f7 4a 00 87 f1 c6 cb bf 40 16 5b 71 8e b5 c1 3f
       -0.21700877277233818 0.1383531621451528
000360 55 7b f6 b9 4a c1 dd 3f a6 8d ec 84 e5 b0 c4 3f
       0.46492260132247526 0.16164845457488503
000370 fd e5 21 ac fd 61 8c bf 24 6c e8 c5 6e 18 cd bf
       -0.013858777823986474 -0.2273081270548981
000380 52 9c 13 f5 03 84 b5 bf 0b 90 0b 9d 9c cc c3 bf
       -0.08404564603152778 -0.1546817557165244
000390 d0 37 9e ac 6a fc d2 3f 71 a6 2e a1 05 5a c3 bf
       0.2966562925074614 -0.15118475313402116
0003a0 c5 ed c7 ab bf d2 c2 bf 00 1b 7c 98 c7 aa c9 3f
       -0.14705654037230267 0.2005242819361328
0003b0 f3 b4 8b c6 50 f7 b5 bf ca 40 b3 6a d0 4f ce bf
       -0.0858049854975496 -0.23681073389025747
0003c0 e0 f8 5c 58 50 75 b9 bf 0b 04 b5 dc 7b 47 c2 bf
       -0.09944631726554887 -0.14280651356423876
0003d0 96 7d 03 9e 6f 3f af 3f 40 e4 67 31 51 cf c7 3f
       0.06103085330846196 0.1860143176307094
0003e0 b5 4e 18 e5 8e 77 cc bf 2b d6 55 af ba 41 d3 bf
       -0.222398626196641 -0.30088679430568516
0003f0 71 a1 39 ae c7 fe a0 3f a2 78 2f 11 9b 0b 15 3f
       0.033193817155566026 8.028158144621431e-05
000400 e0 3c 3c bc ee 06 bc 3f 87 f2 5f 43 59 2c bc 3f
       0.1094807824667785 0.11005170721905176
000410 75 b0 c9 3d ca c9 c0 bf 67 1a 07 56 91 ef c2 3f
       -0.13115814225182346 0.1479360265786511
000420 2d ee 32 0f 07 fc b8 3f ad 8f bc 09 ba b6 8e 3f
       0.09759563561504399 0.014996961042534307
000430 f0 be 38 06 aa 8d c3 3f 3f 91 b2 6d cf 7d b0 3f
       0.15276074699203646 0.06441971233522724
000440 3c 81 fa 0b 3b d7 b8 bf 93 cb 8c da 5c 9d b9 bf
       -0.09703415911144914 -0.10005741439526465
000450 d3 55 ac c7 e4 f5 c7 3f a5 b3 5b af 66 a7 bd bf
       0.18719157933871475 -0.11583558827596947
000460 e0 d1 7d 71 43 70 c9 bf cc 32 5c 92 cd 3b 9a 3f
       -0.1987385086209903 0.025618755395998602
000470 4d b6 11 e5 40 ce d4 bf fc c8 48 71 21 88 94 bf
       -0.3250887143138684 -0.020050547160459495
000480 e1 2d a0 eb 25 3d d9 3f 75 88 08 c9 a4 2c ca bf
       0.3943571854622104 -0.20448741737442658
000490 32 0e 5f 1c cf 0c d3 bf 3c 0f 9b 26 1d aa c1 bf
       -0.2976568009437158 -0.1380039633278275
0004a0 a5 c8 b2 63 52 32 b7 3f dd 92 49 36 d3 d5 c3 3f
       0.0906116002468332 0.15496292258025948
0004b0 a7 7e fb d0 05 e3 c7 bf ec 9e 7f 2b 98 45 aa 3f
       -0.18661568359583677 0.051312213239553234
0004c0 ad 76 bb 6a 80 2f b3 3f c7 fc 7a 4f db e3 c0 3f
       0.07494356733101411 0.13195363407974112
0004d0 12 c5 f7 4a 4e 45 c5 3f 97 93 03 5d 69 e0 85 3f
       0.16617754612483587 0.010681937361775513
0004e0 9c 92 61 94 70 ba c4 bf ac f2 3c 09 61 bc d2 bf
       -0.1619396900670339 -0.2927477445808033
0004f0 c5 71 ed d1 aa c5 d2 3f c2 10 ad 14 59 23 ba 3f
       0.2933146524499331 0.1021018672445875
000500 7c 04 6c e3 91 4a d3 3f e7 7a cb 81 62 8a c2 3f
       0.3014263840596596 0.14484816873206016
000510 7b 5f dd ba 98 0e d0 bf 3f 9e b2 ff 09 43 d1 bf
       -0.2508909058428725 -0.2697167393730275
000520 15 58 f3 39 a9 ff c5 bf 88 c2 2a d8 7d 5d a4 3f
       -0.17186465577714274 0.03977578414685917
000530 e2 4d 2c 67 a4 a6 a0 bf aa 6b 29 7b 55 d3 c9 bf
       -0.03252137908398446 -0.20176189912566872
000540 eb ea ad c3 85 af cf bf 26 de 74 14 1f 40 d3 bf
       -0.24754402212769064 -0.3007886600275661
000550 ed f4 d4 85 ed 93 d8 3f 19 99 6f 34 29 02 d2 bf
       0.3840287978126316 -0.28138189430900834
000560 d2 64 00 54 a6 75 c9 bf fa 44 d1 84 c6 68 ae 3f
       -0.19890288449895493 0.05939312335306997
000570 73 b9 9a 45 60 3a c2 3f 26 b8 aa ed b3 52 ac bf
       0.14240649603511776 -0.05531847263533533
000580 a4 6e 11 60 2a 34 d1 3f 73 bf 9c 23 93 2f bc bf
       0.26880893117570737 -0.11010093326035335
000590 2f cd 30 33 56 f1 b8 3f 26 8f e7 0e a0 9e c6 bf
       0.09743250608226071 -0.17671585777053983
0005a0 69 4f 92 a6 a8 06 c8 3f 63 c4 c3 70 2b 2a bd bf
       0.18770321019530492 -0.1139247083954316
0005b0 a8 10 cd 47 e0 88 80 3f cb ad 0b 80 64 bf a3 3f
       0.008073570433801372 0.03856958449417965
0005c0 04 c5 77 82 70 bc c8 3f 4c 26 23 32 71 37 75 3f
       0.19325071688175666 0.005179826899799855
0005d0 bd 26 76 2a 87 53 cb 3f 6f c1 e2 e3 81 83 cc 3f
       0.21348657201115442 0.2227632868503053
0005e0 2c 6b c6 ec 17 7b c1 bf 7c b3 5c f4 1d 79 a0 3f
       -0.13656901418001988 0.032174049453124604
0005f0 ae 6a e3 6c b3 b9 c0 3f 4a ae e1 2d 9a 09 c7 bf
       0.13066714112104222 -0.17998053779898476
000600 f5 d6 01 d4 64 c7 cf bf 38 ee 18 1c 21 25 b9 bf
       -0.24827251769936934 -0.0982227986905223
000610 60 f2 16 1a 10 07 cb bf fd f7 62 89 05 0c d1 3f
       -0.21115304254444123 0.2663587419191343
000620 f5 c7 f0 2a 7b 50 c9 3f 30 3a bc 09 81 57 a4 bf
       0.19776858898836705 -0.03973010295714052
000630 c5 93 c9 b1 4d a4 d4 bf ff ff e8 37 1b 31 c0 bf
       -0.3225282894330202 -0.12649860601413818
000640 a0 37 76 3c d0 74 d1 bf c9 49 4a f1 a6 49 a7 bf
       -0.2727547254988796 -0.04548379607617254
000650 bb c8 ba b0 2f 10 a6 3f 5d c1 2b 5f 44 80 a6 3f
       0.04309224159568844 0.043947350137275555
000660 ad 80 bd f9 98 a8 d4 3f b2 20 6f 70 51 18 bb 3f
       0.3227903784627511 0.10583981509182896
000670 36 e1 39 94 d9 b9 dc 3f d7 c3 c7 45 f0 4c c1 bf
       0.4488433787842213 -0.13516047866099143
000680 9a a3 34 06 11 c8 c7 bf e1 04 12 ec 49 c3 a5 bf
       -0.18579304507264 -0.04250555998533812
000690 57 e8 b6 3d 22 3a c7 bf d0 90 70 89 63 44 bc bf
       -0.1814616013851402 -0.11041853051625883
0006a0 4e dc f2 77 50 a6 d4 bf f9 8f 9c 80 4b 74 d0 3f
       -0.3226510211347361 0.25709807929729284
0006b0 5b 47 05 d6 f3 60 80 bf 96 28 0d d4 64 01 c4 bf
       -0.007997422188654893 -0.15629253725120823
0006c0 b3 38 9d fd 42 d5 c4 3f 0b b6 b4 17 1a 92 83 bf
       0.16275823005202525 -0.00955601105541872
0006d0 ac 8f d3 e0 0c 7e ba bf de 9b 02 0b b7 30 c9 3f
       -0.10348587502409029 0.19679916417700744
0006e0 23 97 1d 4d f3 93 c2 3f dd ff 56 bc 56 db cd 3f
       0.14514008775147955 0.2332561893108495
0006f0 8e aa 25 dd c4 87 c0 3f f0 78 02 1c c2 0b bc bf
       0.12914334104728592 -0.1095544165022806
000700 f4 65 dc b0 05 de c6 3f 2f f2 3d da d7 18 d6 bf
       0.1786505807474864 -0.34526630699818645
000710 86 1d 92 fa 00 92 91 3f 3a da a0 a1 98 73 c2 bf
       0.017158522885919257 -0.14415271656044287
000720 09 e8 49 e5 56 70 ad 3f 38 7f 1d 30 3c d5 b7 bf
       0.057497706879942774 -0.09309745955169724
000730 25 88 a2 3c 41 45 ba 3f 24 0a c4 48 2a 4d cf bf
       0.10261924486488334 -0.2445423941899928
000740 57 44 8e 40 a7 fa c4 3f e3 5f eb be d3 45 d4 3f
       0.16389933254370945 0.31676190990901726
000750 7a d2 c4 10 ca 13 c9 bf 8f f8 8c 13 9d 76 d1 3f
       -0.1959164220694623 0.2728645983623971
000760 ad 65 7f c5 e9 d9 bf 3f b3 5f 55 54 05 78 c0 3f
       0.12441884109229902 0.12866274469228997
000770 ed 0f 38 f0 5b 5c 9b 3f c1 9b ca ff 79 d8 cb 3f
       0.02671950963669183 0.21754384031120647
000780 dc 32 a9 f3 5b f6 c3 bf 3c 46 28 3b 8c ea bc bf
       -0.15595578572756252 -0.11295391506453084
000790 73 bf 3b 29 0e 08 c5 3f aa 3f e2 50 25 7b bd bf
       0.1643083287558472 -0.11516030525876766
0007a0 e1 61 d8 41 71 43 85 3f 8a e7 49 1f 01 b0 d0 3f
       0.010382542440354693 0.26074245505844174
0007b0 95 70 1d 9c 65 71 a7 bf 55 a5 01 d4 70 5c b0 bf
       -0.04578702479077027 -0.06391053367555817
0007c0 8e 53 4d 84 40 f1 ca bf 04 99 ce e5 2a 2a b0 bf
       -0.21048742733060205 -0.06314342604182249
0007d0 a9 1f 41 47 82 f7 d3 3f a5 ba 1c a8 1c 14 ce bf
       0.31198174436985454 -0.23498876770596158
0007e0 f8 03 64 b3 7f 0c a9 bf 55 5b ec e4 cb a0 c3 3f
       -0.04892348351314263 0.15334461858648277
0007f0 2e 2f 98 4f fb 0e bd 3f 86 5d 07 25 45 b7 7e 3f
       0.11350985234474528 0.007498998733772471

bias f8 [60]
000000 df b5 5a b4 4b 85 ae bf 39 77 91 a1 3b 6d af 3f
       -0.059610715642843586 0.061380256149944086
000010 e0 1c 46 e8 c9 9e bb 3f a1 4c 36 21 c1 f4 d0 3f
       0.1078916732859514 0.2649386238419514
000020 f2 58 c5 cf 91 7f 6c bf 49 ec 21 3a 58 1b b7 3f
       -0.003478798664370613 0.09026099604845784
000030 20 2b 0d 86 8f 61 ad bf ba b9 d5 19 f3 4f c4 bf
       -0.057384953607274136 -0.15868986855953243
000040 88 a4 d4 f0 e4 63 d3 bf 1b 1f 89 55 9b f1 8d 3f
       -0.3029720641957927 0.014620984599914835
000050 60 74 bf c6 54 26 a4 bf cb 44 aa 33 ce 0e d8 bf
       -0.039354943524565256 -0.37590365453168023
000060 91 f0 64 e6 da ef b8 3f 08 98 ca 6a 38 9f 94 3f
       0.09740989804135071 0.0201386275463378
000070 c2 39 c5 9e f7 26 be bf ea d1 b3 8d cd d8 b3 bf
       -0.11778209329825187 -0.07752690038234503
000080 06 81 0f 9c 15 24 d0 bf 87 90 06 6b 63 31 d0 3f
       -0.252202417757886 0.25301442577097827
000090 85 66 15 27 e7 17 d1 bf a8 29 2d 50 73 59 b1 bf
       -0.2670839196849573 -0.06777115542823842
0000a0 fc 01 ad a8 6b c8 c5 bf e8 6e 84 68 4c 64 c3 3f
       -0.17017884956477747 0.15149836638817438
0000b0 f5 70 93 d8 d9 d1 b6 3f 39 52 fb 6e 9b fa c7 3f
       0.08913957154749481 0.18733542365102254
0000c0 51 13 ae a1 33 90 ba bf 6f 05 e4 a0 80 62 c7 bf
       -0.10376284310593788 -0.18269355636588666
0000d0 ae a2 be 3b 02 0b d1 bf 17 61 a7 ef 58 7d cd bf
       -0.2662969191974679 -0.23038779928061423
0000e0 93 8d ca 1e 03 b9 b7 bf 35 77 99 8b 34 46 c7 3f
       -0.09266681195963704 0.18182999435787797
0000f0 13 12 9e 17 bb 7a c2 3f 98 8b 62 08 47 c2 cd 3f
       0.14437044766613435 0.23249137792035124
000100 60 01 32 ce e1 fa a1 3f 8e 07 d5 9a 23 7e c9 3f
       0.03511720315964584 0.19916195926822094
000110 19 0f 2f 81 1d b0 c8 bf 7b ea 81 7a 5c f4 a1 3f
       -0.1928746109753028 0.03506745334103286
000120 4b 2d 1c 03 8b 1b c1 bf e3 81 53 04 60 57 ab bf
       -0.13365304614885995 -0.05340099385080401
000130 65 ea 2b 2b 76 4d d5 3f c4 45 01 8b 27 23 d2 bf
       0.33285288063021873 -0.28339565825180224
000140 37 e5 b2 3b 1a 92 b1 bf bb 42 7c 38 17 de c6 3f
       -0.06863559682360153 0.1786526704604706
000150 6b 12 6a 76 cb c6 bf 3f 72 c7 9b 86 a7 81 d2 3f
       0.12412711754775223 0.28916347642290596
000160 7f d0 89 33 c0 75 c6 3f a2 82 b8 8e a1 8f a6 3f
       0.1754684688236274 0.04406456820675443
000170 f3 37 5a aa 26 3a c2 3f d9 c9 76 00 97 02 b8 bf
       0.14239962881077836 -0.09378951798752357
000180 d5 0d 2f 44 9e 15 c6 bf 7c 29 1a e2 7e a3 cc 3f
       -0.17253473595893234 0.22373949089189782
000190 9c 56 52 0a 9c 0b c5 3f ce 5b a6 d5 0a 2f c8 bf
       0.16441679481493032 -0.18893561775322926
0001a0 42 79 7b ac 35 64 c1 bf 81 b8 71 96 36 50 bf bf
       -0.1358706562231849 -0.12231770680384281
0001b0 17 3c ed 81 bb c5 a6 3f 1c 33 f5 a5 d6 a0 b6 bf
       0.04447732888240113 -0.08839170028404592
0001c0 54 8b bd e7 f7 f5 cb 3f ed 91 58 ca d7 55 92 3f
       0.2184438592476804 0.0179055897953208
0001d0 2c 94 66 ed 7b a6 d0 3f 8c 78 7b a9 8a 9d c5 bf
       0.26016138251935916 -0.1688702895689328

weight f8 [60, 60]
000000 85 59 6a d8 49 e0 a6 bf a7 d8 6e 24 35 b9 91 3f
       -0.044679935138606054 0.017308073376363222
000010 e7 00 64 c8 e8 68 69 3f 81 17 5c 8b 1c 5a b3 3f
       0.0031017824686615405 0.0755937423928952
000020 3e 78 4c 58 69 a7 9d bf 7e aa 5e ec 0a b3 c1 3f
       -0.028958936704946085 0.13827644864553074
000030 a3 41 4c 95 3f ca c3 bf 7d 33 ad 7f e8 cd a5 bf
       -0.15460963048873308 -0.04258657988120882
000040 73 ac 8e c3 f7 c2 b2 bf 15 d3 12 b4 71 e9 a8 3f
       -0.07328747295712094 0.0486560375515294
000050 de c8 34 d8 f8 81 b7 bf 80 52 f4 a7 ad 7d a7 bf
       -0.09182696608039317 -0.04588072467064297
000060 af 2f b7 d3 33 86 c1 3f 92 42 bc 4d 34 2e b6 bf
       0.13690803373026258 -0.08664252183758439
000070 41 88 b8 55 98 68 bb bf f2 b0 b0 32 81 aa 97 bf
       -0.10706474392694167 -0.023111361235508228
000080 2f d5 f4 b2 35 b2 d0 bf aa 3a 79 3b d6 4c b2 3f
       -0.260877060663307 0.07148493720999718
000090 7b f4 42 c4 90 90 ce bf 29 93 3f 87 89 ca c1 bf
       -0.23878678877909806 -0.1389934454338342
0000a0 30 82 5c ca 2b 32 9a 3f bc 23 9b 69 a0 e5 9d 3f
       0.025582012392194098 0.029196268506698195
0000b0 d7 0c 23 9e ac 05 b8 3f 55 7a e4 8e 03 11 a9 3f
       0.0938365827633335 0.048957930748873814
0000c0 f2 5f 2e af cd cf af 3f 3d 45 7e 29 96 41 83 bf
       0.06213228953782836 -0.00940244020583469
0000d0 68 10 7c 32 1f 9b b9 bf 3b 74 85 33 80 12 c3 bf
       -0.10002322180304335 -0.1490020991867896
0000e0 4b c1 59 58 e7 35 b9 3f 6e 43 de f0 e3 7a 9e bf
       0.098478755063984 -0.029765664650372718
0000f0 a9 c4 45 74 37 13 a0 3f c8 c9 0b 64 ef 76 a5 3f
       0.03139661115972931 0.041923027956631
000100 2f cc ca ce dd 1b a0 bf e5 47 66 e3 b6 a4 b4 3f
       -0.031462604039369395 0.08063834239717911
000110 46 c2 db 83 e8 bc 7a 3f d7 18 b7 d6 d9 46 c4 bf
       0.006527813207626359 -0.15841219886914956
000120 16 38 b4 ed ac 9c ad bf 87 9d 21 fd bc 43 bb bf
       -0.05783596421871111 -0.10650235347713109
000130 a6 87 d6 dc 97 3b a7 3f 5d da 75 bf 4f 72 ab bf
       0.04537653513695199 -0.05360650264895093
000140 b8 da f6 3b df fe b8 3f 8c 34 12 ac 0c 3e 95 bf
       0.09763903821918063 -0.02074451256026015
000150 3d 39 30 82 55 fe 83 bf 1a 57 22 c6 af 15 90 3f
       -0.00976244739106546 0.015707727878711976
000160 bc 5e 97 03 d6 da b8 3f 19 46 0b d1 4c 32 be bf
       0.09708917224576913 -0.11795501807798593
000170 ef ff af 88 8c 05 71 3f 60 ff 97 31 dc 5a 89 bf
       0.004155682526288714 -0.012380333198052262
000180 6c 78 f4 9a 34 a5 c4 bf a4 8c db 23 3f 56 93 3f
       -0.16129167143020895 0.018883692325186843
000190 a1 44 e2 ff b6 78 a4 3f c2 2f cb e3 35 1d c2 bf
       0.03998348115522644 -0.1415164339326776
0001a0 c9 10 bf ab 86 1b a3 bf dc ad 73 cd a3 f9 c8 bf
       -0.037319382157450294 -0.1951184037383048
0001b0 aa ed b3 c2 70 6b b4 bf 57 a3 02 46 dd 3f b9 3f
       -0.07976441148269112 0.0986307426379772
0001c0 b0 89 db 1e 27 ee a9 3f fc 37 50 b7 8e ed 80 3f
       0.05064508678130453 0.008265604943542108
0001d0 6c 1e 90 b3 09 c6 85 bf b1 79 3b e1 5a d6 b5 bf
       -0.010631633560492314 -0.08530204771839213
0001e0 d7 92 6a a4 5e c5 b8 bf fc 99 ef f4 a3 32 b7 bf
       -0.09676162256307506 -0.09061646203881674
0001f0 24 1d e6 b5 16 f2 bd bf b8 64 e4 bd 24 37 ac 3f
       -0.11697523060694387 0.05510821168918184
000200 a3 43 52 3f 30 9f c3 3f 3c 2b 3f 21 60 c4 64 bf
       0.15329554645407226 -0.0025350453888441076
000210 f8 e5 48 f5 cd 16 cd 3f af c5 80 a2 f7 c4 9f 3f
       0.22725843884272456 0.031024808209797857
000220 e2 a7 da 90 a5 d3 83 bf ac ca 41 4f 13 4b b6 bf
       -0.009681027873131801 -0.08708306012139627
000230 a0 68 83 a7 15 1f 98 bf 99 cc 42 1c 42 91 82 3f
       -0.023556078290177696 0.009066120612578653
000240 09 00 84 c8 7d 9b 9a bf fd f9 07 13 ba 38 af 3f
       -0.025983777392866645 0.060979666541232526
000250 90 d1 c7 34 8a 85 b4 3f 51 64 ce 0e 9a 79 c2 3f
       0.08016265667521894 0.14433599207839845
000260 64 a5 0a a6 06 2a c9 bf cf 4a 94 dc ae 9a c2 3f
       -0.19659503085612606 0.14534555216285702
000270 1b 88 bb ed 9d 2b c1 bf 26 fb 96 cd c1 ab d0 bf
       -0.13414358242067767 -0.26048321797491025
000280 7f ba a2 c7 d6 d3 c4 bf ac 3b 48 75 26 9f b2 bf
       -0.16271481273493646 -0.07274093974431989
000290 0d 3b 23 f8 43 43 92 3f 80 5f de fe 1e 16 c4 bf
       0.017834722538107296 -0.15692508167989772
0002a0 c1 13 64 55 36 2d b7 bf 4f 83 d2 fa 30 99 b1 3f
       -0.09053363404025473 0.06874376414863302
0002b0 f9 1e 02 5f 80 03 ba bf 31 1b db b9 1d d8 c3 3f
       -0.10161592788255892 0.155032840490287
0002c0 c7 0f 98 49 eb c9 95 bf d8 ae ab 45 dd 49 c0 bf
       -0.021278072707005238 -0.12725416089903407
0002d0 fd a2 bf bf 6e 78 b4 bf a8 74 86 55 b8 21 93 bf
       -0.07996265584337077 -0.018683319301648155
0002e0 63 39 ce f0 e9 5a b7 bf d8 82 ff 85 81 ae a5 bf
       -0.09123098496477193 -0.042346999747456315
0002f0 54 91 9e 09 a9 a3 a8 bf b0 ac c1 18 fb bc b4 3f
       -0.0481236290209234 0.08100861887367006
000300 4d 32 f5 5a a3 a0 b3 bf b6 97 4f b5 ec ab b3 bf
       -0.07666989298486122 -0.07684211184059006
000310 db 85 54 15 34 a2 8c bf 39 d1 42 2c c8 d8 cc bf
       -0.013981253529496243 -0.22536565934354671
000320 ef 0c d5 71 01 fa c3 bf e8 7b 75 59 fb 9d b9 bf
       -0.15606706674780166 -0.10006686147742949
000330 64 67 0a 3f 75 a7 62 bf 41 4e 00 48 c0 cd c1 3f
       -0.0022771158185834074 0.13909152522738746
000340 69 76 f7 b1 13 50 bb 3f 39 95 97 78 63 8b c0 3f
       0.10669062704934053 0.1292538012341227
000350 6b 16 81 8a 34 96 54 3f 12 7d 4b 34 a2 4a c0 bf
       0.0012565148445146345 -0.12727763703785705
000360 10 03 32 ff 68 0e ba 3f 81 e1 62 17 ab d1 a3 bf
       0.10178238134723139 -0.038709017376677764
000370 ee 54 50 82 1a f8 91 3f 3e d4 0a d5 ea 67 b9 bf
       0.017548002437327286 -0.09924190236309102
000380 f5 fb f4 66 76 a0 b1 3f 23 c6 23 17 c1 5f 8a bf
       0.06885471356962099 -0.012877949255627524
000390 83 9d 32 d8 4b ad b2 bf a9 85 09 c4 c8 23 82 3f
       -0.07295679119362401 0.00885731552370113
0003a0 62 72 b4 54 ab 19 aa bf 18 ab 71 3a eb b3 bb 3f
       -0.05097709092135429 0.1082140939412678
0003b0 58 2f 0f 78 c1 87 b6 3f e7 bb 4b 1e 0b 3c c5 bf
       0.08800896817336701 -0.165894880097283
0003c0 a4 e4 12 38 79 e3 c6 bf 26 9f 3c 18 df b4 bd bf
       -0.17881694066980913 -0.11604112951010545
0003d0 5e f8 6c 93 2e d4 b1 bf c3 f0 78 2c 8e 43 bc bf
       -0.06964388942012209 -0.11040581308128865
0003e0 4e fc f7 1e a0 90 70 3f 55 9e 7e 03 40 4a a3 3f
       0.004044175598664058 0.0376758579507707
0003f0 3c 93 d6 4d 4f d1 cc bf d0 a6 b9 26 7b 01 b7 3f
       -0.22513762760822853 0.08986634917678349
000400 f1 7a 5f e0 c3 52 af bf ba bc 89 82 49 81 67 3f
       -0.061178322924879576 0.002869266103793314
000410 31 e6 1b 21 77 e3 ba 3f 86 83 07 a7 6b 27 b4 bf
       0.10503334577870117 -0.07872650935997969
000420 69 ba ab 3f be 2e b7 3f 43 02 b8 d7 e7 50 b0 3f
       0.09055699400389873 0.06373452202388656
000430 de 32 fd 95 b8 51 89 bf a0 d5 9b 39 91 bf d3 bf
       -0.012362901761343744 -0.308567339190029
000440 db 2c b4 0b b3 18 c9 3f 1a 0e cb 8d e1 e5 c2 3f
       0.19606626578784056 0.14764041350837048
000450 26 53 6d 47 c9 f0 c3 3f 0f d3 eb 82 7d a2 b6 bf
       0.15578571307801176 -0.08841690489118668
000460 82 62 f4 4c bc e0 84 3f c3 fd ed b8 3a 6d 90 bf
       0.010194274042576671 -0.016041677033624923
000470 0d ff 75 49 82 07 c4 bf 94 ea 63 2e 98 a8 94 3f
       -0.15647915446242458 0.020174386817397208
000480 bd c9 65 01 98 18 a8 3f a1 8c 98 51 fd 62 ba bf
       0.04706263558445609 -0.10307296030127812
000490 6a c0 aa 1a 9d 2a c3 bf 9d 83 b4 84 2b 74 92 bf
       -0.14973796655749833 -0.018021278357199234
0004a0 67 28 7f 9e d8 7a c0 bf 70 8f ae 95 51 fc b9 bf
       -0.1287489675435751 -0.10150632767050438
0004b0 9f 86 e0 cc 81 b7 bf bf 1d 7d 3b 1a bd 30 b5 bf
       -0.12389384509926991 -0.08277494326056396
0004c0 68 15 52 d7 99 86 a5 bf fa 55 66 e4 f2 d3 aa 3f
       -0.04204254868913432 0.052398290997341904
0004d0 f1 0d 32 e1 ac 57 b8 bf 3d 18 32 57 c5 d9 bf bf
       -0.09508781907975795 -0.1244166696434101
0004e0 a0 13 dd cd 9e aa c5 bf bf 22 0e 82 4c c7 bf 3f
       -0.16926941921169902 0.12413480925728047
0004f0 61 55 19 0d 96 4a c2 bf 72 a9 d3 99 de f8 9d bf
       -0.14290118827436074 -0.029269674433558497
000500 ab 35 d6 70 4d f4 a7 3f 30 6a 10 47 60 57 b1 3f
       0.046785755180376164 0.0677395032402408
000510 d6 8a f9 4f 14 cb bd 3f 6e 00 f2 60 76 16 ac 3f
       0.11637999489316128 0.054858874639649766
000520 b8 3e 18 0b b3 2c be 3f 68 e0 a5 fe 46 ba a5 3f
       0.11786955853335257 0.04243680819030332
000530 79 aa 00 c6 b0 ef bb 3f b9 a9 d5 2a 28 0c bc bf
       0.10912613710449105 -0.1095604996277534
000540 e9 ff 98 6a 26 60 c2 3f 43 9f 91 72 67 6b 9f 3f
       0.14355926709140412 0.03068315159580882
000550 9c 43 b8 f8 14 88 8d bf f0 3f d6 b2 57 a8 a8 bf
       -0.014419711914372794 -0.048159351902654524
000560 b5 c5 5c e6 e8 f7 c5 3f a0 9f e1 5b 5c 06 b4 3f
       0.17162810562289868 0.07822205775448632
000570 9a 34 46 3e 7d d7 da bf eb 70 d5 e0 ac 29 c3 3f
       -0.41940241891354335 0.14970932939730316
000580 59 1c 8e 2c 53 50 c5 bf 1a 94 ad b4 ac a7 c1 bf
       -0.16651382136862727 -0.13792952367944694
000590 e7 8d 2c 88 0d 78 b9 3f 51 93 fe ac d3 86 cd 3f
       0.09948811125337152 0.2306770891856567
0005a0 36 97 21 c2 fd e9 c7 3f 1e cb 86 42 3e a5 94 bf
       0.18682834605277215 -0.02016160279317624
0005b0 9e b5 d2 a7 a2 cd c0 3f c6 9e 3b 72 34 3b 9d 3f
       0.13127549356924545 0.028546161148283365
0005c0 09 d9 40 3b 4c 1b a7 bf 77 7f d8 55 cd 8c 95 bf
       -0.045130140526838565 -0.021044929852109342
0005d0 d2 19 56 3c 17 79 a8 bf 97 ea 1e 94 fe a6 a0 3f
       -0.047798849215769615 0.03252406652560074
0005e0 53 f1 9e 64 8e 42 7f 3f dd d2 7e ba 73 5c bb bf
       0.007631832335331562 -0.10687945654974436
0005f0 a2 c4 16 03 0b e0 9d bf f7 8a 19 06 64 ba b1 3f
       -0.02917496878007298 0.06925034665031747
000600 06 7e c1 ad 85 35 b4 3f 25 79 6d 2b 3f e1 bc bf
       0.07894168369374918 -0.11281199274296634
000610 62 52 37 4c 6a 99 a7 bf 4c 08 eb 8b 7e a6 94 bf
       -0.04609234028217625 -0.020166375436709225
000620 b1 e5 01 1f 95 33 9d 3f a0 99 81 17 75 71 b6 bf
       0.028517084138433627 -0.08766872238047663
000630 0e fb 99 84 d3 92 af 3f 5c fe b6 17 0e 50 b5 3f
       0.06166707032843109 0.08325279311156336
000640 b2 8f 76 f0 18 b6 b1 bf 1e 89 e5 18 6d 23 b5 3f
       -0.06918483610803497 0.08257181032016489
000650 7a 02 7b 78 43 51 c1 3f 0f f1 e1 b2 ba 95 9c bf
       0.13529246695363267 -0.027914921920897003
000660 89 51 44 42 ff f1 ba bf 50 a1 2c 8b c9 19 33 3f
       -0.10525508277743802 0.0002914540338445808
000670 c6 2e 17 9d 72 a2 bd bf 34 13 18 82 11 f4 a1 bf
       -0.115760005333125 -0.035065219050045476
000680 75 bb 13 bf 7a ce 56 bf 41 58 44 53 88 1c bb 3f
       -0.0013920019812833893 0.10590412171254206
000690 03 ee 32 91 83 06 b7 bf c5 6c 52 01 c1 f4 b1 bf
       -0.08994314474960423 -0.07014089853548729
0006a0 13 9a 16 c0 8b 34 b5 3f c9 da d6 42 79 e1 b5 bf
       0.08283303680091363 -0.08547170526331195
0006b0 16 4d 0d 94 b9 f4 c2 bf e1 44 8d b5 b2 9d c6 3f
       -0.148093411723132 0.17668756356082496
0006c0 8c 9d b8 02 98 13 ad bf 41 07 b0 01 26 6f a9 3f
       -0.056790113765880695 0.049676120477683224
0006d0 de dd 05 4b c6 f9 c1 bf 21 d6 80 73 a8 95 98 bf
       -0.140435015327724 -0.02400840001083371
0006e0 8c b0 94 c0 a4 3f c0 3f 3a 85 a3 17 46 76 b8 bf
       0.12694224742279336 -0.09555471493833503
0006f0 9b c8 98 fa 97 7a bb bf 0f 3b fe 2d cf 42 bc bf
       -0.10733938091360289 -0.11039442894819394
000700 59 15 1d 0f 58 78 a2 bf c6 11 18 17 60 b6 bf 3f
       -0.03607440170757554 0.12387657703226926
000710 8e be c5 44 e9 83 b7 3f 04 24 cf 5d 71 e1 9e 3f
       0.09185655526175138 0.030156871176391334
000720 30 4b 77 a3 24 94 a4 3f 7a e0 a7 cf cb 0c 88 3f
       0.04019274230417691 0.01174315669503322
000730 db a1 c2 94 56 86 af 3f 4b 23 9c b3 16 61 b0 bf
       0.06157179418488897 -0.06398145565993933
000740 0a 3b 7a 28 19 11 b7 3f 47 2f 00 7f 84 38 b1 bf
       0.09010464895457573 -0.06726863957027006
000750 59 0c a1 d3 23 6c 9e bf cd 4e 58 4c 81 37 bf 3f
       -0.029709396163763866 0.12194069017305793
000760 34 88 16 6f b4 28 b8 bf c1 85 5a 58 d3 0c b6 bf
       -0.09437110626325379 -0.08613320262022396
000770 6a ea fe 13 7e 2c 8f 3f b3 13 1a 50 96 9f 81 bf
       0.015221581444952299 -0.008605169600977769
000780 5b bc 89 f8 f1 9e 9e bf 08 22 8a 09 88 66 c2 bf
       -0.02990320281463386 -0.14375400987434284
000790 f7 2a 8d b0 61 75 b5 bf 88 00 18 16 b0 dd 6f 3f
       -0.08382235107744039 0.003889888685762403
0007a0 db 16 7f 7c 17 df a1 3f 5a 8a dc 67 a4 2b bb bf
       0.03490517992717709 -0.10613467727356732
0007b0 42 04 ad b0 b7 9c 9d bf ed b9 8f f5 48 4b c3 bf
       -0.028918142469823722 -0.1507350157766746
0007c0 6d c2 9d 81 4e b8 a4 3f 8a 43 4a b7 7a 40 bc 3f
       0.04046864826421346 0.11035887694221294
0007d0 fb 9b 5f 18 3e 8a b9 3f 18 86 15 e0 83 e5 c1 bf
       0.09976566405349267 -0.13981674615483608
0007e0 d3 83 94 dd bc 14 b9 3f fb 3e c8 0b a2 a2 93 bf
       0.09797268304511357 -0.019175083130959596
0007f0 a5 30 53 0b ef 3c 82 bf 48 48 19 eb 41 98 b4 bf
       -0.00890528443633116 -0.08044826497760582

bias f8 [60]
000000 91 f0 06 32 12 89 bc 3f dc a7 9e 4f 04 e6 99 3f
       0.11146653863301227 0.025291507110217867
000010 df d8 27 c0 84 a7 99 bf 0b ce 4d 62 c4 3a b7 bf
       -0.025053095081568052 -0.09074046516416716
000020 1a 00 c5 5a f5 d8 c4 3f 95 2d 85 66 60 18 c0 bf
       0.16287104541879743 -0.12574391370649765
000030 bc 5a 6d 41 4d 8a b7 bf ec 37 48 d7 00 80 aa bf
       -0.09195406768172182 -0.05175783756213534
000040 77 20 76 ed c3 e6 a4 bf e5 64 b8 da 5d 3f b6 bf
       -0.04082309983920223 -0.0869043978676874
000050 ed 17 71 5d da a7 a2 3f 4d e6 b5 2e 50 b2 b7 3f
       0.03643686667105315 0.09256459370035337
000060 93 ef 92 1f 3f 39 b0 3f 01 fd 9e af d7 a7 a9 3f
       0.06337351342057067 0.05010866183101293
000070 71 ee 2e 9b 75 20 b9 3f cb a8 45 b5 80 82 bf 3f
       0.09815154112487236 0.12308506417835756
000080 35 f1 7e d3 be 62 b6 bf a7 5a 09 3f 4d 04 8a 3f
       -0.08744423545335141 0.012703517423841971
000090 78 a2 1d 4a fd f0 a4 bf de 54 76 f8 dc 35 9a 3f
       -0.04090110330327418 0.02559609667294615
0000a0 8a 21 23 af 8d 66 b6 bf c2 f9 45 3f 18 1d c1 3f
       -0.08750234151660244 0.13370040025252022
0000b0 36 b1 d6 ce 30 e7 be 3f 73 86 f3 49 15 53 74 3f
       0.12071518945476076 0.004962046775490603
0000c0 20 9d 56 33 93 5f a7 bf 05 5c 1a c7 37 a4 82 3f
       -0.04565105439842854 0.009102283252373064
0000d0 d7 57 ee c1 58 a9 a8 3f 73 e3 be b2 e3 7a b6 3f
       0.048167012856694384 0.08781264413745564
0000e0 d2 3d 6b ac 38 46 9e bf 82 22 cd e5 b5 da 9f 3f
       -0.029564748309722173 0.031107751990278938
0000f0 e6 db 96 7c 83 7b c0 bf 25 8f e2 14 d6 d1 bb 3f
       -0.12876933654271666 0.10867059717071166
000100 90 50 f5 12 9b 0e c3 bf 25 47 db f6 57 5a ac bf
       -0.14888323236175838 -0.05537676704774545
000110 1b f5 24 96 de 59 b6 bf 1d bc be 24 08 22 78 bf
       -0.08730879941591178 -0.0058918302637911675
000120 83 6b 28 cd 9d d8 b4 bf 49 f2 4a f7 f8 fb b8 3f
       -0.08143030413377343 0.09759479558392416
000130 78 2a 90 e1 57 32 b6 bf b2 d7 ad 7f bc 41 8c bf
       -0.0867056775752334 -0.013797257086235113
000140 6c 0b d1 1f 2b 03 aa bf d1 4d 38 94 24 91 b4 bf
       -0.05080542338739388 -0.08033970469141784
000150 03 fb ad 00 b9 66 c1 bf 92 5a a4 b5 2c 43 b2 bf
       -0.1359473470037856 -0.07133750376338302
000160 ee ce d9 f4 f0 8c ba 3f 48 3b 66 af 35 84 c0 bf
       0.10371309259226866 -0.1290347200815296
000170 bb 81 d6 f5 02 a9 8e 3f de b8 e4 e8 e4 d0 a4 3f
       0.014970801474931563 0.040656236104369844
000180 89 45 91 89 55 86 aa bf 95 61 c5 15 ba 42 b0 bf
       -0.05180613807955143 -0.06351817161101388
000190 d6 d7 01 f9 b7 0a b8 3f df 79 26 40 36 4a a9 bf
       0.09391355351712546 -0.04939431698879892
0001a0 66 1d f0 a6 1d 34 be 3f 87 7b 54 51 ee da b1 bf
       0.1179827244342185 -0.06974687085720009
0001b0 77 e8 06 6d 63 0e c4 3f a8 d1 d0 73 f9 b1 bd bf
       0.15668909858306154 -0.11599692418605534
0001c0 f1 56 2e fa bc e3 bf bf 9f 10 f4 02 99 ac bb 3f
       -0.12456875904021182 0.10810238191703768
0001d0 60 41 24 a6 10 37 92 3f 76 4f 4f a3 7e 8b 88 bf
       0.017788181438903705 -0.011984814986057062

weight f8 [60, 60]
000000 fb ef 13 5d 6f 0f c4 bf 4f e5 0d 91 9d 33 c2 3f
       -0.15672103924578082 0.14220017988899733
000010 a8 23 5b be 8c a2 a4 bf f8 60 3c 8a 16 dd bd 3f
       -0.04030265639955327 0.11665478587054057
000020 29 93 74 75 c6 92 84 3f 71 d8 1b eb ff 1e c2 3f
       0.010045576533750005 0.1415710351936386
000030 b7 af a5 64 63 4f ba bf 19 a8 c3 71 6c 94 c4 3f
       -0.10277386862952552 0.1607795291413943
000040 17 d4 33 2d 80 96 c0 3f 5d 3b d2 46 3f 0f a1 3f
       0.12959291655684588 0.0333194517089541
000050 95 2d 8f 68 7d e3 65 bf 14 16 68 14 76 03 ac bf
       -0.00267195218882472 -0.05471390723327488
000060 fe d7 39 f9 f6 93 9d bf 96 98 f5 78 52 f9 b8 bf
       -0.028884753190560268 -0.09755435422047962
000070 f2 d5 62 09 bb d0 ac bf 3a fc 33 70 1e 2a b7 3f
       -0.05627998818946968 0.09048643340428067
000080 24 c9 96 3e fd 6b b5 3f 6d e1 7e 45 ad a6 b5 bf
       0.08367903497745438 -0.08457453676863276
000090 2b 7d 84 2f d8 25 71 bf c8 a1 e9 f9 27 59 5f bf
       -0.004186481928882639 -0.0019133463280472818
0000a0 13 1f 64 ae 81 4a c9 3f 75 45 65 a6 b3 4d b5 bf
       0.19758625998678578 -0.08321688473121987
0000b0 b9 85 4e 4b e8 c2 bf 3f 04 02 68 96 e3 2c a2 bf
       0.12406780088942683 -0.035498725996152586
0000c0 ff ad 86 c6 17 e0 b6 3f b2 2e ab c3 f2 74 a6 3f
       0.08935688587978773 0.04386099470647532
0000d0 b0 f8 9e 03 36 de b9 bf bf 3b 08 a7 87 c7 ae 3f
       -0.10104692066576848 0.06011604227034394
0000e0 56 89 dc 27 9a b9 b9 bf 00 8a 50 10 44 7c a4 bf
       -0.10048831437282976 -0.04001057337906744
0000f0 15 9a d2 53 38 68 b2 3f 38 98 ee f1 86 ee ae 3f
       0.07190277143909214 0.060413567574230276
000100 69 af 93 0f 30 65 c4 bf 00 21 d8 c3 bd 6c b9 bf
       -0.15933800469008055 -0.09931551009515616
000110 e5 b1 02 24 fd db 84 bf 28 48 4c e8 36 ec af 3f
       -0.01018522039552123 0.06234904847782757
000120 af 8e 88 3b 71 76 c8 3f b7 af 4b 49 92 2b ac 3f
       0.19111457259088158 0.05501992363664903
000130 f9 8b 9c b6 d0 44 bf bf e6 ca 84 53 35 98 b5 3f
       -0.12214378793991888 0.08435376442939066
000140 54 cd ef da 61 92 9a bf 17 f2 26 e3 20 84 c3 3f
       -0.02594902895721181 0.1524697407857196
000150 5c 19 fa ed 12 ac b3 3f 21 6f e6 aa c0 61 97 3f
       0.07684439001068227 0.022833834105411847
000160 c6 2e ff 57 bf ee c3 bf 06 bf 87 02 74 ae ab 3f
       -0.15572349354476084 0.054065347012395334
000170 f7 97 71 d4 60 ff c3 3f 99 8e 16 36 0f 8c c3 3f
       0.15623102544049036 0.15271177426358376
000180 81 20 0c e1 54 ca c2 3f 78 58 3c 18 e0 3c b7 3f
       0.14679966915742074 0.09077263442699912
000190 1c 58 c3 0a 74 31 b9 3f 6c ed 67 b4 11 c9 9c 3f
       0.09841084730882738 0.028110767971140246
0001a0 41 a2 ef 33 aa c7 a4 bf a8 2b ee 2d 34 4b 8e bf
       -0.04058582195267891 -0.014791877414401203
0001b0 24 08 a7 36 6d 66 31 3f e2 ef 64 e0 4a ef b5 3f
       0.00026550451607587817 0.08568256357551676
0001c0 51 19 ce 33 18 d6 ba 3f 50 ed 7c 9d 3c b5 ba 3f
       0.10482932343265829 0.10432795376703052
0001d0 ef 94 35 e1 1a de b8 3f 91 da 74 a5 da ae b7 bf
       0.09713905332826632 -0.09251181163277013
0001e0 f3 8b d3 42 65 55 cf 3f 9f 55 b3 2d d7 32 b8 3f
       0.24479356539731575 0.09452576509223441
0001f0 eb f7 5f ba 2b a3 b8 bf c8 6a a6 cd 9a ed 98 bf
       -0.09623978901069534 -0.024343890001186336
000200 7a 1d f4 e3 12 95 c1 3f 2d f0 e8 1f fe 01 ae bf
       0.137361871056992 -0.058608952899220725
000210 c4 7c 2b aa b4 01 b8 bf b4 0a 49 e9 d3 77 9b bf
       -0.09377602724588302 -0.026824294198614054
000220 17 78 12 64 50 e7 cb bf d5 38 fb a3 d4 16 b1 bf
       -0.2179966438897629 -0.06675461772394738
000230 af 97 8c 86 0c 07 75 bf d6 a2 e7 0c b5 0e bd 3f
       -0.005133675506646825 0.11350566449221886
000240 d7 84 44 6d 19 2b c1 3f 6d f0 40 1a 66 55 bf 3f
       0.13412778697332925 0.12239683285673815
000250 78 ad 91 6b d3 9a cc 3f c1 b1 0c 7f ed f3 c0 3f
       0.223474910282089 0.1324440832480729
000260 bd 52 5d dd 89 ac a1 3f 12 24 2d 64 51 0b cb 3f
       0.034519489547766714 0.21128289596006816
000270 d0 73 cc cc 9e f1 b9 3f 7c b9 bd dd be c0 75 bf
       0.10134308338133668 -0.005310769625664565
000280 6a 05 3f d3 8d 11 be bf 37 a5 01 2b a3 16 c2 3f
       -0.11745535285355904 0.14131583785937504
000290 ac 6e 67 09 36 ee 9e bf ff a3 2a 4d ca 75 c7 3f
       -0.03020557815930995 0.1832821728505962
0002a0 c5 8b f4 f4 57 a4 8f 3f 5b 24 bf 78 21 d7 99 3f
       0.015450179255429472 0.025234721178808744
0002b0 f5 36 9d f7 e5 ac 99 3f c7 00 ff f4 5d 0e 79 3f
       0.025073617208639615 0.006117217082590005
0002c0 64 f8 93 5b 61 15 bf 3f 84 cf d3 be d5 80 a9 bf
       0.12141998754302247 -0.04981105760990004
0002d0 fe 3a 34 52 75 a0 c6 3f 18 a9 9a 0d bc 2d c3 3f
       0.17677179826610961 0.14983320869698313
0002e0 92 7a 54 92 78 06 c5 3f 33 09 7a ed f5 38 c5 bf
       0.16425997872371007 -0.1658008012346471
0002f0 d3 0e 22 a4 ad 65 90 3f c9 f5 66 4c 05 33 b1 bf
       0.016012871878514922 -0.06718476405418196
000300 ac 79 1a 52 ac da ac bf 0c 46 cc a0 ca 5c 69 3f
       -0.05635584356535914 0.003096004255333856
000310 4a ad 93 e3 4c a8 d1 bf d8 3f da 4e f7 ce b2 3f
       -0.2758972380094816 0.07347055125342139
000320 84 9a ed 41 ae 20 b5 3f 69 fd 64 1b 83 67 be 3f
       0.08252991780828195 0.11876696986018022
000330 09 25 92 f1 d3 12 c0 bf c8 72 aa 1b fd 89 70 3f
       -0.12557458205655106 0.004037846282383746
000340 d5 ce 00 1b 2a e9 ba bf 50 a0 73 4a f7 af 74 3f
       -0.10512030753380526 0.0050506267354891304
000350 82 a3 1e 84 f1 11 71 3f 47 83 3f 9c 9f 08 8c bf
       0.004167502805935254 -0.013688322978795532
000360 25 b3 56 6c 34 9a b3 3f d9 46 fa 6b 71 b5 b8 3f
       0.07657172818171583 0.09651860128567637
000370 3e 77 a0 a3 45 39 a8 3f a0 c7 65 4d f0 1b c3 3f
       0.04731195089719485 0.14929012087992266
000380 15 ad 05 0e 6a 5b bf bf e2 62 54 91 64 96 ba bf
       -0.12248862116182509 -0.10385731266104473
000390 0b cf ce 00 a1 e7 c0 3f 4f 0d a5 be 7d cb af bf
       0.13206875361867562 -0.06209938957411031
0003a0 b1 4b a9 9a 56 05 90 3f 3c 15 01 c1 f1 2d c7 3f
       0.015645363988663955 0.18108961032900506
0003b0 10 85 76 56 9a 77 9e 3f 73 70 4b 5d 7c c2 c6 3f
       0.029753123786240343 0.17781023555187722
0003c0 a2 27 90 9e eb b6 78 3f 70 38 6f 56 f0 f8 ac bf
       0.006033821476202935 -0.05658675246341793
0003d0 a1 e4 88 7c bb 72 c6 bf 8f d3 4b 74 b5 1c c2 bf
       -0.1753763540344027 -0.14150112322354544
0003e0 95 ab cd 28 31 c1 a9 bf 36 db e4 69 bc a2 97 3f
       -0.05030206320846912 0.023081726039175986
0003f0 1a 46 82 72 3a c3 67 bf 7f ca fd 1b 2d 12 b4 bf
       -0.002900709299930038 -0.07840234692938884
000400 1f cb 9a 76 0c 61 c1 3f dc 22 60 35 2e 19 a3 3f
       0.13577419081919914 0.03730148698384081
000410 4d cb 81 2d d3 92 c5 bf da a5 fb 65 19 dc b5 3f
       -0.16854324075719732 0.08538969745463679
000420 7f c9 0e a5 94 1d a9 bf 63 87 0d 0e 01 48 c0 bf
       -0.04905380740037212 -0.12719739137815642
000430 2b d7 64 9a bc 1c a9 3f 46 c0 1e d3 b4 38 b2 3f
       0.0490473688573004 0.07117777017879331
000440 bb 5c 4b 6c 56 6e a0 3f e2 d6 bc 00 d1 27 90 bf
       0.03209180900528837 -0.015776887578985994
000450 ce dd 0c 60 01 97 c0 bf 8a 94 a4 56 c8 04 b6 3f
       -0.12960831823305202 0.08601047625832528
000460 0f c8 e2 4d 8a 8b ba 3f f4 bc 36 13 30 bc b2 3f
       0.10369171525488262 0.07318401784026546
000470 a3 9d e6 af 26 41 b5 bf 61 8d 3c 0b 16 78 8c 3f
       -0.08302537722067042 0.013900921075736762
000480 35 3d de 14 64 ad c8 bf 17 f6 3a f9 b0 f4 92 bf
       -0.19279147166205637 -0.01851154824429643
000490 3d 3b 6b 76 df a8 bb bf c9 6c 3b 1f 96 47 c4 bf
       -0.10804554596982725 -0.15843464398390086
0004a0 95 9a bb 2b 59 0f a0 3f eb a6 e6 13 65 d1 b2 bf
       0.03136709841583244 -0.07350761161674384
0004b0 a4 ad 17 92 5c d8 b8 3f 0b 64 8a f5 ac 1f be 3f
       0.09705141607962858 0.11767083162921226
0004c0 83 c6 c8 6c bc 93 8c 3f 93 2e ba cf 92 b5 b5 bf
       0.013953659124214873 -0.08480184146372442
0004d0 07 65 d9 97 d8 8b c1 3f ed 31 be 68 7c da a7 3f
       0.1370802632762109 0.04658879068947273
0004e0 1e b3 20 3c d1 53 aa 3f 51 da 54 9c 54 27 c4 bf
       0.05142072543126218 -0.15745027192470443
0004f0 e2 00 53 06 e3 52 9d bf 14 66 8a fc 94 26 cb 3f
       -0.028636500607491018 0.21211492854199376
000500 f3 d8 0b 3a 44 50 b4 3f 96 08 02 12 ac 95 92 bf
       0.07934976975579726 -0.018149078940503736
000510 ad c7 af 8d 9a 8a b5 bf 96 fc 25 52 08 b2 bb bf
       -0.08414617499491213 -0.10818531041694465
000520 45 fd cd 7a 26 47 ab 3f 27 9d 2c b0 62 31 b4 bf
       0.05327720879631185 -0.07887856293801986
000530 d2 31 36 44 45 c7 ac bf 1a fb 9b 79 be 6c c7 bf
       -0.05620781381285024 -0.18300610483125795
000540 8d 6e 0d d2 b9 1e bb bf 9a 4e 01 1c be f3 bf bf
       -0.1059375894378098 -0.12481296714514159
000550 ca 1e d1 49 59 46 9c 3f e4 12 9f 98 6f d7 c0 bf
       0.027612109308647693 -0.13157458259788435
000560 a7 16 da cd 3d 95 cf 3f 93 e8 2a 98 7b 22 b7 3f
       0.24674198676455214 0.09036991562871526
000570 4e a1 bc 0e 33 cb 97 3f 32 e2 bf 32 51 f5 b2 3f
       0.023236081861939532 0.07405574311258858
000580 9e e6 cd f0 42 b4 71 3f 6e bd ce 4f 7d 1a be 3f
       0.0043223013752765865 0.11759169767787167
000590 99 f5 91 6e 13 a4 a4 3f f2 7e 3e a4 20 d1 b5 bf
       0.0403142998193104 -0.08522228250376054
0005a0 fe f3 b3 c0 1f 31 7c 3f a1 9c 6c 96 20 ca b9 3f
       0.0068827858297000315 0.10074046776263625
0005b0 88 91 d6 7f 4c bd b3 bf df 4d 08 60 60 86 c4 bf
       -0.07710722085045607 -0.16035084427913568
0005c0 04 9c be 83 02 1e b9 3f 11 eb dc 12 c2 ac c0 bf
       0.09811416355533714 -0.13027215882342394
0005d0 db d3 72 d1 51 98 a0 bf 0e 48 fa 02 cd a3 a3 3f
       -0.032412106339883194 0.038359076131328704
0005e0 b2 0b 8c 18 ae 17 c1 3f ec dc 33 dd 4f d3 9c bf
       0.13353515814386935 -0.028149841190466526
0005f0 7c ca 50 6d b6 91 82 3f 22 68 89 12 e6 41 73 bf
       0.00906698723892884 -0.004701517792080197
000600 6d 22 a6 e4 ae 3d af bf 50 8a 48 84 2c 0e b3 3f
       -0.0610174802887443 0.07443502645086508
000610 cc 62 9f 5f f5 7c a5 bf af 0f dd b1 4f 86 b5 3f
       -0.041968982622795886 0.08408067791339023
000620 df 3e fc 3d 9d 0d 91 bf 2c 69 5f 91 fe 21 c3 3f
       -0.016653496654781882 0.14947492693210884
000630 02 fd 56 95 f6 46 b7 3f 3f ac eb 0c e6 68 c3 3f
       0.09092656274787106 0.15163875227821852
000640 9b 6c d6 eb df be a0 bf 8c 63 ba cf a4 57 bc bf
       -0.03270625833393944 -0.11071233817564358
000650 aa 79 b9 bc 91 a5 b5 3f b6 e2 eb ce 4c 55 71 3f
       0.0845576368096547 0.004231739075060295
000660 ac 3c bd 87 c0 a5 9c 3f 57 d4 10 0b a7 1b 92 3f
       0.02797604397283908 0.017683610964202092
000670 96 68 db 44 b6 09 8e 3f 27 c6 e8 e1 c9 96 b9 3f
       0.014666961647368287 0.09995710149157642
000680 83 11 d5 ea 8d 40 ae bf cd 5d e4 94 3f cc ad 3f
       -0.059086260715534265 0.058198916364002075
000690 14 01 e5 e3 38 fe c2 3f 3f a7 39 40 be c6 9e bf
       0.1483832466856333 -0.030055020017619723
0006a0 6d 1a d9 20 c0 82 b6 bf 82 41 7c 77 c6 01 a3 bf
       -0.0879325943179567 -0.03712291916429235
0006b0 b8 08 81 2e da 0a b1 3f 1b 92 37 b9 9e a3 be 3f
       0.06657184253075143 0.11968414327527237
0006c0 4d b1 61 20 47 0e b0 3f 02 e8 5e 03 e5 ce c5 3f
       0.06271786251608553 0.1703764215906745
0006d0 21 c2 55 69 88 2a ce bf 3b 3c 95 4e f0 f9 b8 3f
       -0.23567299979505754 0.09756376188782749
0006e0 ac 7b 24 f0 ba 78 b4 bf ff 4e f7 c2 8d bb c1 3f
       -0.07996719706396388 0.13853618640734308
0006f0 0c 98 53 bf 03 8b bf 3f b9 6b cc 7a 36 2e 7f 3f
       0.123214945040303 0.007612431346184439
000700 b2 30 23 47 65 27 c1 bf fd c3 b1 26 c5 24 be 3f
       -0.13401475881108166 0.11774856753051206
000710 ec 67 6c f5 0d a9 a4 bf 5f f9 89 fb ee 80 70 3f
       -0.040352283677023454 0.004029210591964676
000720 27 cc c0 1f 30 81 b7 3f 51 af e9 d5 15 0b b3 bf
       0.09181500220510995 -0.07438789818269
000730 05 6a db ca 5b e3 98 3f ac 04 1a 07 56 6a b3 3f
       0.02430480409280202 0.07584130929355365
000740 7e de c3 d1 bb 34 b1 3f fc 12 11 24 d5 a7 68 bf
       0.06721090193956944 -0.003009716311256459
000750 f4 14 ce e1 50 ac c2 3f 02 44 59 75 8d f1 c7 3f
       0.1458836653293144 0.18705909948269556
000760 dc 84 4c 7c 4c 8f b1 3f a9 28 2d ff 41 d9 b9 3f
       0.06859281572953385 0.10097134094135875
000770 81 04 4e 8e c0 cd b0 3f ce 89 3b b0 36 16 b5 bf
       0.06563952898251736 -0.08237020304253592
000780 4a 09 83 11 91 cf c4 bf 7e 02 c0 1f 1d f2 a9 3f
       -0.16258443217345536 0.05067530644010264
000790 a6 7d b4 67 0a 9b b0 bf 6d 06 e5 e1 12 27 93 bf
       -0.06486573249684699 -0.01870374206305885
0007a0 f1 29 08 d8 9f 01 a4 3f e6 15 60 3b df 42 9a 3f
       0.03907489311321289 0.025645721434576794
0007b0 24 73 1a 2d db 6a a7 3f 40 29 54 3f fa c2 b0 bf
       0.04573712277963285 -0.0654751209841935
0007c0 76 ae 1f ce b1 37 bc bf f8 ce 43 37 e2 86 8b 3f
       -0.11022483141248948 0.013440863906431386
0007d0 93 a4 24 7d 76 d5 a7 bf 8a 0f 9a c7 1a 51 ba bf
       -0.046550467277776474 -0.10280005810824214
0007e0 5e c1 67 00 16 7a a9 bf 8e 69 0d 69 f9 31 a3 3f
       -0.049759566831087496 0.037490648340013796
0007f0 80 89 29 bb 48 b9 b9 3f 3b e5 2b ac 47 18 ba 3f
       0.10048346108809447 0.10193298295407242

bias f8 [60]
000000 81 b3 4e 54 c2 46 a2 bf c5 c7 dd 3d 71 da b3 bf
       -0.0356960990824069 -0.07755191574486194
000010 de df ac c0 19 9d 84 3f dd a6 43 0a 90 f9 b3 3f
       0.010065270607455486 0.07802677393524556
000020 18 c5 8f 76 3c 6a a5 3f ab 2f ea 4d c3 28 c0 3f
       0.04182614276204272 0.12624398521836375
000030 ea 8a da 26 2f 76 b0 bf d7 78 89 77 2f bb 85 3f
       -0.06430334757400727 0.010610934100608578
000040 e3 f5 1f da 00 ae b3 3f f1 63 57 53 50 47 9e 3f
       0.07687383008302322 0.029568915449861014
000050 3f 1e 7a d2 25 75 83 bf de 36 f0 80 8f 14 bc 3f
       -0.00950078533720877 0.10968872926624892
000060 7e d8 d9 b6 77 96 b8 3f e9 db 7a 3d 5f b3 be 3f
       0.0960459538854099 0.11992449999785006
000070 64 5c 42 ee 3e 78 b0 3f 58 90 06 ad f0 dd c0 3f
       0.06433480564952415 0.13177307556645945
000080 8b 46 06 fa 67 1d a5 3f 46 b6 99 9f e6 57 b3 3f
       0.04123997618729643 0.07556001087660844
000090 37 6b 78 0f 68 e5 b5 bf 51 52 f2 f5 ec bf 95 bf
       -0.08553171518034906 -0.021239950667750588
0000a0 cf 86 28 95 d0 56 b9 bf fb bd dc 78 46 06 bc 3f
       -0.09898093835411291 0.1094707531999503
0000b0 fa 2a 9e 00 d2 01 94 3f 0f 61 d0 a8 54 7f 9a 3f
       0.019538193977079545 0.02587635307654162
0000c0 90 09 e4 39 df f5 91 bf d9 9a 10 9b 45 0a b2 bf
       -0.017539489658710716 -0.07046923671496631
0000d0 ec 95 85 f9 4a 6b 62 bf 0e 6f aa 02 98 30 b5 3f
       -0.0022484268521789554 0.08277273240167579
0000e0 29 44 85 a3 d4 24 b5 bf 8d 79 ed 6f b6 ac a9 3f
       -0.08259324066354225 0.05014581791214132
0000f0 b4 b3 26 a5 f8 03 b5 bf 26 74 40 63 ad 7a a2 bf
       -0.08209184677134723 -0.036092203489012584
000100 fd 2d 75 d5 9e c4 c0 3f 95 ac 21 0f 38 21 c2 3f
       0.13100037977925175 0.14163876284451207
000110 60 40 5c 6c 12 bf b1 bf b9 ce 39 73 40 01 ca 3f
       -0.06932177682415519 0.20316320062885554
000120 2b 60 cf be 90 95 99 bf 16 9a b1 9b 65 39 af 3f
       -0.024984609266397378 0.06098477864798128
000130 2b 44 5b 0f de 9e 95 3f 7d 8e c4 fb c9 bd b9 bf
       0.021113843619620248 -0.10055220028567109
000140 b2 0c b1 ee a4 48 c0 3f 5f 9b 31 38 70 c8 a3 3f
       0.12721692709792404 0.03863859830817406
000150 68 d4 44 2b 2d ba 96 3f d3 c4 63 7e 34 e5 a3 3f
       0.022194581762239457 0.03885807078212058
000160 64 df 92 16 1f 6e bf 3f ec 72 3e 2e 9f 81 9e 3f
       0.12277406979671707 0.029791342923647088
000170 72 3c 76 95 f3 32 9a 3f 38 3f 2a 14 dd e3 66 3f
       0.02558498954527661 0.002794200701209972
000180 79 7b 4f ce b9 bc bf bf ee 4a a8 1b e3 17 bf bf
       -0.12397347723843478 -0.1214582388422902
000190 8b 86 cc 6e 0c d2 bd 3f 9d 5c 39 af 4e a7 ae 3f
       0.11648633675624802 0.05987020386663142
0001a0 ac 6d cd 05 72 b3 c1 3f db 96 82 04 bc 20 b9 bf
       0.13828873904536232 -0.0981557379733106
0001b0 ef bf 34 b8 8b 2a b5 3f 1d d9 0a 5c d1 38 c0 3f
       0.08268044707506282 0.12673394197708712
0001c0 41 ec 91 01 f8 c0 c9 bf d5 99 42 18 0d f1 9d bf
       -0.20120143963490203 -0.0292398496682383
0001d0 1f ea 20 04 ba fc be 3f d7 7f d1 fe 24 4b a8 bf
       0.12104380226893639 -0.04744830713821074
