JupyterLab/traced_model_M1_104.pt (torch, 148444 bytes, 12 tensors)

weight f8 [60, 9]
000000 43 8b 5e 12 6c df c1 3f 79 14 ef 93 98 80 c8 bf
       0.13963080307902417 -0.1914244386991049
000010 e1 61 59 5c 23 da a0 bf f5 88 00 0a cf 3a 7f bf
       -0.03291426183995206 -0.007624443765992907
000020 74 62 7d 46 20 c6 cd bf 4d 57 93 d8 ad 22 d1 bf
       -0.23260882799037896 -0.2677416434283842
000030 9f b3 9d ec 19 62 d2 bf d2 76 d2 1c 84 13 d9 bf
       -0.2872376261428204 -0.3918161660638876
000040 b1 77 02 c4 23 95 d4 3f 76 77 66 45 53 ae d5 3f
       0.32160276547972005 0.33876497056359456
000050 57 7e 00 01 a4 4f c8 bf dc ee 07 f7 eb 7b c8 3f
       -0.18993043946192031 0.19128179132518752
000060 97 ac bf 6b 7b 42 d9 bf f3 40 bd c8 0a f9 d1 3f
       -0.3946827461465516 0.2808253250450569
000070 80 08 5c 93 85 de cb bf 3e b5 49 23 82 b8 d5 3f
       -0.2177283257988769 0.3393864960297214
000080 35 b3 cc c0 44 1f b6 bf 7b a9 d2 cf c8 82 bd bf
       -0.0864146204664394 -0.11527686189461932
000090 71 30 dd 9d 78 1b d0 3f d5 a7 a5 21 35 3a c5 bf
       0.2516767064705681 -0.16583885329174444
0000a0 a8 d0 ee 1f ef 22 c2 bf 8d a6 3a 7e 64 be d0 3f
       -0.1416911035463546 0.26162063910542416
0000b0 75 c9 74 62 9c 25 9e 3f af 69 0f 67 c3 4e cd 3f
       0.02944034911087941 0.22896616489636076
0000c0 51 87 41 65 70 fc b4 3f e4 60 9c bc 28 18 c3 3f
       0.08197691413945775 0.14917477807535484
0000d0 f8 f1 e9 84 57 71 cd 3f 0b c4 23 81 63 42 da bf
       0.23002141942914966 -0.4103020440225584
0000e0 e2 74 41 71 13 ae d3 3f 32 fd ac 86 8b ab d5 bf
       0.3074997526180835 -0.3385952773278006
0000f0 8c fa f6 f7 7b 9d c9 3f 98 1d b2 74 ae e6 d2 3f
       0.20011853797582935 0.2953296794516631
000100 d3 9b 28 5e 3d 3e d0 bf 7d a1 f2 d2 b8 4a b9 3f
       -0.25379881091288076 0.09879641676037028
000110 1d 32 ce b0 ef bb c0 3f ee 73 ca 20 54 bd bf 3f
       0.1307353604610321 0.12398267555768402
000120 ab 48 35 9d cd 8e d1 bf 18 d8 a0 a4 5e c4 ca 3f
       -0.2743410144077056 0.20911772764674263
000130 bf 91 4d 76 ce 34 cd 3f ae 48 a6 42 e6 7c d7 bf
       0.22817402626527714 -0.3669982577204206
000140 c2 1c 10 9b 24 15 d9 3f c2 d2 b7 85 45 58 b4 bf
       0.39191546576371306 -0.0794719172916514
000150 b3 71 15 bf f6 66 d3 bf 66 d7 9c 7f 65 6e c6 3f
       -0.30315941486858405 0.17524403315627096
000160 9e 0d 07 3f df 33 d2 bf c1 2c c3 00 71 57 a3 bf
       -0.2844160190108712 -0.03777650007540379
000170 da 86 1c 79 69 00 cc bf 5b bf ba 85 86 b9 c5 3f
       -0.21876257337230848 0.1697242882705677
000180 00 fa 2a 58 2a 45 8a bf 99 8f 0e 83 9d 53 b5 3f
       -0.012827235046072083 0.08330711793547464
000190 73 e2 58 9a f4 97 de 3f d8 4e 60 18 69 b6 d6 3f
       0.47802462647408744 0.35488345509041386
0001a0 7e ef 7a 58 7a 35 cb bf 29 45 32 ba f6 f2 c6 bf
       -0.21256951637576188 -0.17928966609591981
0001b0 3e 3c 4e df 25 e7 bb bf 3b 71 a2 3d 7c c7 d2 bf
       -0.10899578763768233 -0.2934256173991973
0001c0 b6 3a 1f fb 5c 05 b7 3f 12 d5 b2 3e ed 5d d9 3f
       0.08992558604152631 0.39635783312708484
0001d0 c6 7a 7d b4 5e 88 db bf 78 93 c2 4d 0f 32 a7 bf
       -0.43019836069099104 -0.04530380081386104
0001e0 cb 11 6f 2a 5f 1a 85 3f c6 62 18 e5 af 9d cb bf
       0.010304206354597853 -0.21574972807208875
0001f0 b9 e3 d7 66 93 6a b2 3f 0f 48 b4 88 1e ee d0 3f
       0.07193871746848303 0.2645336470606034
000200 71 4a 74 66 43 68 b9 bf d4 45 dd db 12 4a d2 bf
       -0.09924718142819146 -0.2857710978615533
000210 6a 14 86 c3 f4 fc cf 3f 3e 2b 23 3b de b3 dc bf
       0.24990710780199105 -0.4484782769692862
000220 08 0a 1f f5 b3 76 d2 bf a5 aa 2c 75 2c 16 9a 3f
       -0.28849505365010986 0.02547521081138861
000230 04 9d 90 3d c7 7e d0 3f 0a e3 12 02 d8 fb d1 bf
       0.25773793232151854 -0.2809963245631911
000240 82 7b bd f0 02 68 d0 3f 31 4a 60 9c 5a 40 a1 bf
       0.25634835729390926 -0.033694106663592634
000250 dd e8 e2 f6 b4 a5 cc bf c2 24 c2 4c 6d da c2 bf
       -0.22380697302816702 -0.147290861587214
000260 4e 3c 2b 25 9e 63 df 3f 72 8d 87 3d a3 79 ce bf
       0.4904551852204734 -0.2380870867192289
000270 a5 c9 ed db db 96 a9 3f 24 6b 1f 76 c8 2c b1 3f
       0.0499790864913792 0.067089585150296
000280 dc 74 16 8b f5 da 78 bf 2a 7f eb 8d 44 1e cb bf
       -0.006068190721092406 -0.21186119966204703
000290 9c 6f 0f 9f 39 42 ba bf 52 59 08 e3 b7 23 4b bf
       -0.10257301457698847 -0.0008282325634947718
0002a0 34 94 1e 8e c8 a8 d4 bf ee 90 72 2a d1 c5 d7 bf
       -0.32280172232487137 -0.3714487947966195
0002b0 e7 1a d4 9c 93 98 e0 bf e0 b4 b7 e5 c4 82 bb bf
       -0.5186250746781668 -0.1074641285737985
0002c0 cd d8 c4 af 4e 33 d4 3f 6a 43 10 ad d9 76 d3 3f
       0.31563155331549525 0.3041290464471361
0002d0 1b 46 f7 7b 9e 2b dd bf 59 69 cf 6d 81 62 8c 3f
       -0.45578729730650175 0.013859759486810107
0002e0 18 70 da 05 86 5b b5 bf e9 d5 2e 9a 13 8f d7 3f
       -0.0834277881899087 0.3681077008908163
0002f0 3a 5b dd a4 fd 40 cf 3f 8c 06 d2 ae 08 a4 d9 bf
       0.24417086172135233 -0.4006368357878294
000300 dd 9a 81 fc 67 09 d3 3f bd 05 02 6a 24 32 bc 3f
       0.29744910868468627 0.11014010990222452
000310 67 bb 54 83 f7 ac ca bf 94 3b a2 56 3f d2 95 bf
       -0.20840352928777436 -0.021309842741682752
000320 04 19 a4 08 2a 9d bc bf 65 84 07 a3 5c 6f d5 3f
       -0.11177313528978422 0.3349219886859543
000330 96 96 2f 7b 3d 65 cc 3f b6 9d ed 5f f0 6f d1 3f
       0.22183960452018842 0.27245721214282115
000340 bf a5 97 08 7f d9 c1 3f 30 ec 54 60 e5 6d d2 3f
       0.13944995803403334 0.28795751960177807
000350 a9 b0 7d e9 e6 7a a1 3f a3 1f 8d 42 b5 01 d1 3f
       0.034140792848888886 0.2657292508997619
000360 e8 58 74 c4 87 f7 e0 bf 58 3b 3f f1 52 fe ac bf
       -0.5302161061288446 -0.05662783808622035
000370 3e 95 96 de c4 83 c2 bf c8 bb 19 5f a3 d8 d3 3f
       -0.14464627140584158 0.31009754454765615
000380 81 fb 8e a2 e1 a7 dd bf 7b 91 8e c2 2d b4 d3 3f
       -0.463371666668472 0.30787223815629944
000390 a9 f7 3f 1d 7d 45 80 3f fa a0 7e a7 dc 9c d1 bf
       0.007945039229522015 -0.27519909245394525
0003a0 21 ac 27 bc 03 df c9 3f 3f 62 e3 73 88 dc c0 3f
       0.2021183651662293 0.13173013361553562
0003b0 1b 70 e7 95 20 b1 ce 3f a3 25 5e f3 f4 f2 b7 3f
       0.23978049582990554 0.09355097714992282
0003c0 a1 84 84 a9 ab 93 b6 bf 02 f9 5f 95 b3 29 d6 3f
       -0.08819077385534736 0.3462952574481194
0003d0 92 8f 3b 66 13 d5 b2 3f 83 e0 b8 51 0a 03 ce 3f
       0.07356377836145914 0.23446778288212408
0003e0 6e 21 4a 7f a7 df cb bf 0a 4b ae 02 8e 72 c4 3f
       -0.21776288714705622 0.15974593287372613
0003f0 60 90 e5 ee 40 15 ca bf f0 50 4b 54 41 2f d4 bf
       -0.20377360978011705 -0.31538422805648647
000400 cd 5c a6 0c 4b d7 d1 bf f7 06 67 11 6b a5 c6 bf
       -0.2787654517682768 -0.17692316388825421
000410 f5 6f 56 70 f1 76 d7 3f cc 13 ec b8 2a 81 d5 bf
       0.366634711937649 -0.3360087209587703
000420 cf 62 88 6a a8 82 ce bf a2 e5 a6 59 63 59 c8 3f
       -0.23836236192507562 0.19022790792022898
000430 88 b7 df a8 28 11 cb bf 94 31 bf 3d 4e 53 d8 3f
       -0.211461145837742 0.3800845721241555
000440 e4 f3 c5 cb 1f e3 a5 bf 73 e4 7c 5b 54 48 ad bf
       -0.042748445152916564 -0.05719245545191933
000450 32 d1 e6 25 2a e6 c0 bf 48 25 d1 34 52 8a cf 3f
       -0.13202406740823275 0.2464087255378138
000460 4f 05 90 ba fc 9a c7 bf 34 da f3 8f bc 1a c0 bf
       -0.18441733464718843 -0.12581593541081448
000470 11 b9 b8 81 83 d3 c1 3f 46 50 21 d1 c8 6d d6 bf
       0.13926738580762124 -0.35045071051468246
000480 63 85 3a 9c 97 f8 d3 bf 72 f0 b3 cb 9a 4c c3 3f
       -0.3120478654546643 0.1507752890246397
000490 99 92 52 a0 70 5a cc bf f5 db 53 46 63 41 db bf
       -0.22151000812768443 -0.4258659540932393
0004a0 a9 2b db 4c 53 f1 c5 3f e2 d1 8c 52 bc 58 df 3f
       0.17142716648808445 0.48979099332362186
0004b0 c7 64 e3 de cd 09 c8 bf e8 90 24 97 c6 ee c5 bf
       -0.18779919989791535 -0.17134935741444868
0004c0 e4 22 f2 60 4a 8c d5 3f ed c4 0c 23 1a 86 cb 3f
       0.3366876551377074 0.2150299712316505
0004d0 0e 16 9d de 63 36 c4 3f bf 91 18 48 f4 ae cb bf
       0.15790985460095935 -0.2162766792327044
0004e0 59 14 50 dd bb 6a d3 3f b0 3b 13 ab a1 c6 d6 bf
       0.30338951695040844 -0.3558735056548654
0004f0 06 85 4e 3c a6 d5 d9 3f 0c 94 0a 15 0e 1d d2 bf
       0.40366512193038806 -0.28302337698761515
000500 f7 66 f7 36 8a 48 cd bf c2 65 4e c6 13 9b c1 bf
       -0.22877624210268951 -0.13754508192941556
000510 bd 19 45 91 b4 32 d9 bf 20 de 9f 5c fe 4e cb bf
       -0.3937198084498979 -0.21334819338493194
000520 6f 98 af ed b0 b3 b2 bf 3e 05 63 0c 3d 92 db bf
       -0.07305436900023364 -0.4308006878819305
000530 16 3d 30 21 78 54 c6 bf 47 a6 4d 70 f5 5d b0 3f
       -0.1744527971318141 0.06393369666843639
000540 a1 06 80 7c f0 52 d2 bf f4 fc 16 5c 79 4b c8 bf
       -0.2863122192212391 -0.18980328556606418
000550 c6 bf d9 38 35 1b d3 bf e2 5f 74 d8 62 31 c1 3f
       -0.2985356383496732 0.1343196446330231
000560 dc c5 4a 87 ac 1d c6 bf 04 ab 14 a4 83 e7 c5 bf
       -0.1727805767637126 -0.1711277533698522
000570 3f d1 69 12 d4 c1 d2 3f ea ae 7a 7f 6a ff ac bf
       0.2930803470437872 -0.056636169492177604
000580 18 74 b0 38 84 f0 c3 3f ab a7 d0 46 50 ed ce 3f
       0.15577748077421982 0.24161723573462032
000590 37 07 4e 98 09 d3 d1 bf 56 31 41 b3 56 a1 c9 bf
       -0.27850570558085813 -0.20023616554898166
0005a0 c7 fc 27 cb 5c 62 d9 3f bf e3 a4 d6 39 50 d3 bf
       0.39662856902573335 -0.30177160226190475
0005b0 b8 34 0a ef a4 2c ac 3f 33 1d d2 f8 2b 1b c8 bf
       0.05502810876814962 -0.18832921647502018
0005c0 2c c8 a0 34 03 34 84 3f bc 5e 2c 39 8a 30 da 3f
       0.009864831012326013 0.4092126425107201
0005d0 2f d2 bc e6 a8 1a ae bf c2 36 e3 23 5c 3c c6 bf
       -0.058797147909363516 -0.1737170386535834
0005e0 52 15 3e 54 15 fb 6a 3f 5e ca 3b 6c e5 8e ce 3f
       0.003293553980202071 0.23873584542123444
0005f0 aa c8 60 81 1b eb d1 bf 44 77 4f 41 b6 cd c8 3f
       -0.27997481951309544 0.1937778300188545
000600 0e dd f5 2d 32 fb c5 3f e2 41 15 45 df 59 d0 bf
       0.17172839397583356 -0.2554853605879811
000610 be 34 ee db 14 7c c1 bf c8 35 90 14 78 41 a7 3f
       -0.13659916628640717 0.04542136431710336
000620 3a d9 fd f6 0d 5a d8 3f 65 6c 0e f3 e0 a7 8a 3f
       0.3804964935328773 0.013015515725603952
000630 20 46 a1 18 47 6f cb 3f 1b 1a b9 7c f6 28 95 3f
       0.21433342650065956 0.020664073336115956
000640 5b 17 8c 96 07 4c b9 3f 75 8d a4 d0 07 49 d5 3f
       0.09881637025327221 0.332582429650038
000650 ad 25 a5 f8 17 f5 ad bf 2e 60 4d 39 b8 a9 b7 bf
       -0.05851054105967122 -0.09243346594792065
000660 63 d1 94 0e 84 d6 d0 3f 9a a8 09 8a f8 60 ba 3f
       0.2630930082698539 0.10304215784131757
000670 60 9c 87 c8 2d 9c b9 bf f5 e6 80 f5 d3 f1 d8 3f
       -0.10003934999223096 0.3897600076194146
000680 54 75 96 24 f2 60 d3 bf 23 9b cf c8 50 16 c7 3f
       -0.3027921063711194 0.18036851697180464
000690 b2 ba 17 11 e2 90 d2 3f f1 bd 2a 15 30 6d c0 bf
       0.29009296101768733 -0.12833214791815764
0006a0 36 f0 67 38 55 91 c3 3f ac 9a 82 3b 19 fa 9e 3f
       0.15287270788383162 0.030250925309384044
0006b0 f8 c6 36 1f 00 47 bf 3f a1 3f e8 e6 b6 3e c5 3f
       0.12217713129100705 0.16597639345900198
0006c0 b0 4d 14 9f f8 cf d0 bf 3f ba b6 42 6a ca d1 bf
       -0.26269355330552013 -0.27797943606393355
0006d0 7a a7 d2 4e f3 a7 d6 3f 50 f4 fb c8 bc 38 a3 3f
       0.35400088021798803 0.03754224732799882
0006e0 09 b3 3e 94 f9 0a cd 3f 8c e7 5b 68 b7 2d c7 3f
       0.22689742792626813 0.18108265491155995
0006f0 8e b0 6a 7e 75 d8 d3 3f 50 92 1a 7e 47 42 a5 3f
       0.31008660645853403 0.04152129568436591
000700 d7 de 55 b1 fa d5 cd 3f d2 30 a2 eb 2d 31 c1 bf
       0.23309262904125802 -0.13431333547158048
000710 c3 b6 98 d1 6e 66 56 3f 8e d1 b3 3e 99 fb c8 bf
       0.001367195340559333 -0.19517818032876416
000720 c9 2b e7 54 a8 e3 d5 bf ea dd b4 41 f7 b1 cb bf
       -0.34202011386213066 -0.2163685866196226
000730 99 a4 9b 79 3f d2 d5 bf 59 a0 7e 49 19 3b d2 3f
       -0.3409575164392407 0.2848571031304395
000740 0a 9b 62 7e 42 68 b4 bf 9b ce da 14 6e 78 c6 bf
       -0.07971587739539757 -0.17555023210808404
000750 77 bc df fa 0b d7 da 3f 28 46 7a 5e 30 ae b7 bf
       0.4193754148427113 -0.09250166231711232
000760 c3 e2 06 7d 46 47 d5 3f 69 81 cf 61 32 35 d7 bf
       0.3324753018346593 -0.36262187530339546
000770 8f 25 74 e7 92 fc d0 3f 39 b5 b4 c0 bb b5 b4 3f
       0.26541588404560285 0.08089803175672196
000780 36 78 5f bf ea 3f a7 bf 89 58 d3 cc f7 e0 c3 3f
       -0.045409522877648476 0.1553029775738575
000790 37 bf 66 ef c2 7d ae 3f c6 fe ad d5 b4 a7 d4 bf
       0.059553233836935275 -0.32273598544268756
0007a0 63 af 6e 1e d0 1f d1 3f 71 5a d1 ed 0e 72 c7 bf
       0.2675667092505504 -0.1831682835788402
0007b0 04 de 72 0e cb 38 ac bf 37 ac f7 22 3d 10 b3 bf
       -0.055120797647244785 -0.0744665346498302
0007c0 bf f4 92 46 3f 7d d5 bf fe d5 41 56 12 e6 5c bf
       -0.3357694806289366 -0.0017638377258014644
0007d0 0c 5e f6 e7 c2 3f b0 bf 68 91 47 79 af 8c 98 3f
       -0.06347292101997243 0.02397417237979607
0007e0 cf 70 3e 08 2d b0 9f 3f 22 df e4 95 48 c1 9b bf
       0.030945495250862372 -0.027104505680852438
0007f0 33 ca ad 8f b0 8c d1 bf 03 4d 6f 4b 87 f1 c6 3f
       -0.2742120173562938 0.17924586470926593

bias f8 [60]
000000 e3 ed 75 76 6c 65 b1 bf 9d 4d a1 7f 90 b7 c8 bf
       -0.06795385257822022 -0.19310194236696257
000010 9b 3e e7 41 6f 73 d6 3f be c5 58 fc 09 c0 bf bf
       0.3507955688082604 -0.12402403269586323
000020 f2 55 31 c6 41 42 cf 3f bb d7 bf 2c 04 83 ca 3f
       0.24420950105074685 0.20712330040958968
000030 81 6c f6 68 36 90 a2 3f 3d 14 4f 54 f6 98 b9 3f
       0.036256504357162996 0.0999902683098108
000040 de 91 ad 8f 9c 86 b2 3f c3 9a 3d 74 02 6a c0 3f
       0.07236650951160281 0.12823515582859643
000050 81 26 ee 24 2b c3 c0 3f e1 2a 57 a7 b5 09 cb 3f
       0.1309560709308251 0.21123381300852542
000060 83 e9 2a 7b c7 99 c6 bf 8e 2d 17 65 70 61 8c bf
       -0.1765679694561407 -0.013857725224531572
000070 6e a8 b6 7c bb 21 ca 3f 17 12 a2 6a b5 fa c4 3f
       0.20415443028952346 0.16390102106755997
000080 3f 54 22 d1 8e 78 ca 3f 6a 6b f1 55 83 29 b8 3f
       0.2068041344797695 0.09438343857020262
000090 c6 ed c6 fc a8 cc d2 3f 61 f6 4e ab 8b 2a ae 3f
       0.29374146161327663 0.05891834703605237
0000a0 4b 80 c7 6b 2b 17 c6 3f 61 e8 ba 66 5a b9 a9 3f
       0.1725820804849739 0.050242257156654764
0000b0 93 90 5b 46 8a 66 ca 3f 8e 2a 48 f0 e2 39 ce bf
       0.20625427661355342 -0.23614155514254204
0000c0 13 c6 4f 22 4d 6a 87 bf 9a b6 ba 83 ee 57 ca bf
       -0.011433222398383546 -0.20580846244904621
0000d0 4e a5 09 1e c8 d0 c4 bf 35 16 be 32 d6 17 d1 3f
       -0.16262151209529424 0.267079877427338
0000e0 79 a2 6e 46 89 85 a4 3f 79 a3 b6 ff 4c 65 d1 3f
       0.04008130059020671 0.2718079087449535
0000f0 5a a9 e9 16 fc e2 b6 3f 4c ea be e5 3a cb a2 bf
       0.08940101203339648 -0.036706772370469126
000100 44 ba c9 85 17 70 c8 3f db 43 93 48 bb e5 b5 bf
       0.19092077286355125 -0.08553667566162863
000110 f4 82 70 d0 54 8b ca bf 44 68 9e 11 21 43 d7 3f
       -0.20737705400190232 0.3634722396906265
000120 8b f5 a2 86 0c a6 c5 bf 44 f2 8d 28 3d 8e ce 3f
       -0.16912991117525808 0.238715786745063
000130 14 17 57 e5 5a 94 59 3f 4b 45 fd db e7 f9 b4 bf
       0.001561249509323519 -0.08193825836976491
000140 58 17 77 13 fd f1 cb bf b3 3a 8a 61 76 fc cd bf
       -0.2183224053425714 -0.23426704180424948
000150 81 f3 95 43 8a 98 b0 3f 73 52 70 40 4e 5c d1 3f
       0.06482757711451194 0.27125889103744
000160 7f d3 18 ae e8 9c b7 bf 9b 90 81 ff 89 7c bc bf
       -0.09223798990644914 -0.11127531516973692
000170 da e9 88 a9 ea 7e d6 3f fd fb 87 04 20 89 d2 3f
       0.3514963775266132 0.28961945002077966
000180 23 ca 38 ba f6 bd 90 3f 5d 1a fe ec 7e 7e d1 3f
       0.0163496543083942 0.27334569114501567
000190 18 8f 14 91 fa ba a5 3f a6 99 56 b3 5b c8 d2 3f
       0.04244215985298022 0.29347889436248875
0001a0 a3 c3 e6 f4 1f 28 c9 3f c0 05 f4 63 f1 8a c1 bf
       0.19653701265408782 -0.13705270176437345
0001b0 9b d4 33 0d 35 96 a9 bf ec bd 6a a2 d5 24 c5 3f
       -0.04997411523974301 0.1651866000224652
0001c0 2b 6e 92 9d bc d5 ab bf b7 66 8c 7f d5 c1 b3 3f
       -0.054365057215559474 0.07717642177558558
0001d0 49 d1 12 6a e6 84 c3 bf 20 54 83 0d 1e 89 95 bf
       -0.152493287843422 -0.021030873846786702

weight f8 [60, 60]
000000 5f 5d 2e 8c 25 27 bf 3f 35 d5 21 6a 49 dc c4 3f
       0.12169108078375278 0.16297261888727524
000010 cb 0a 4d a8 76 da b7 3f 86 0b 7f dd 67 c7 b5 bf
       0.09317723854932607 -0.08507393987296838
000020 b8 29 ab 80 f6 50 c0 bf 94 66 50 a7 7c 5f b6 bf
       -0.12747079165121789 -0.08739451489273115
000030 0e 2c 3d 75 d5 e6 7c 3f e2 a7 e9 7f b6 d7 c3 bf
       0.007056077785658322 -0.15502053495157414
000040 d2 9b 0b 0a 0e e3 7d bf bd 77 32 2d 27 25 ad bf
       -0.007296614495067426 -0.05692408014986892
000050 19 17 13 16 4c 93 9b bf 4a fc ae 3a 0a 67 c2 3f
       -0.026929081771206762 0.14376952996642195
000060 87 7e e5 0b 5c 21 ba bf a7 bb 0d df 71 8e a6 3f
       -0.10207152643624272 0.04405551765272913
000070 0d 4e 51 6d 5c 5c 89 3f f4 ad d4 9d 71 11 98 3f
       0.012383195959194482 0.023504042871691014
000080 5b af 01 7f 38 a1 bf 3f b2 e0 cd 84 d0 d9 c3 bf
       0.12355378247019415 -0.15508467182713087
000090 a1 2a da bf f8 2e b0 bf 59 88 3b d7 4b 49 ba bf
       -0.06321673091785353 -0.10268091206265363
0000a0 c7 0c 38 f4 8d d7 b7 3f 78 8a 83 1f e7 89 c1 3f
       0.09313285076500498 0.13702096022378263
0000b0 55 a2 f0 ce da 3d b2 bf cf 44 b1 67 e3 94 90 3f
       -0.07125632812734158 0.016192963794598832
0000c0 c9 ac 50 77 42 ca b6 bf 2c 8b 80 06 ae a9 c8 bf
       -0.0890237370774002 -0.19267821614729408
0000d0 d2 24 ef 83 c0 5d ad 3f 19 8f 43 79 68 52 b9 3f
       0.05735589609646187 0.09891369782013405
0000e0 4d 80 75 99 55 6a c1 3f c5 3b 98 f7 bd 2a bd 3f
       0.13605756753077217 0.11393344206611207
0000f0 96 a9 e4 81 2d 2c 8a bf 33 68 1c f9 fa 62 c1 bf
       -0.01277957489636065 -0.13583314097997032
000100 60 b7 84 cc c7 35 bc bf 96 af 3d 36 b4 0c b2 3f
       -0.11019562476277889 0.07050634693376731
000110 99 66 af af cd 53 46 bf dc bd 8a 3e c2 c4 b2 bf
       -0.000681376869916056 -0.07331480051902112
000120 c6 90 a2 c9 dc 2a 8a 3f 65 7b f4 59 b5 84 b2 3f
       0.01277706613866093 0.07233746954123672
000130 f7 70 eb 56 bd bd ba 3f 9e 00 e3 85 fc bc 96 3f
       0.10445769664824299 0.022205300971791624
000140 45 f7 25 5c 52 10 6c 3f 1c 5d 12 46 7c 29 c0 3f
       0.003425751551900643 0.1262660352847228
000150 43 94 fd de e9 3b be 3f 5e ed 9a 63 86 d0 b3 bf
       0.11810170835595195 -0.0774005883385391
000160 f2 4f a0 24 9c d3 ad bf b4 91 cf 7a 3e c2 c0 bf
       -0.058255080672239404 -0.1309278583204453
000170 a2 b7 dc 10 72 21 a7 bf db 69 2c fc 7a 78 b1 bf
       -0.04517704444729921 -0.06824463516787864
000180 14 eb 4c 22 db 6f 86 bf 60 61 50 19 7c 5e 90 bf
       -0.010955535873667745 -0.01598543076042469
000190 2b d7 bf 59 d6 29 bf 3f fe f0 bd 92 6a d3 ae bf
       0.12173213664194964 -0.06020672837527917
0001a0 22 71 90 7d f6 c5 bc 3f 81 ff 3d 62 6e d5 b9 bf
       0.11239567342312687 -0.10091295145502778
0001b0 b0 76 4c 5b c7 23 b2 bf ad fd 4d 5a 0f d9 90 bf
       -0.07085844019862964 -0.016453018080481097
0001c0 4a 38 7c 47 e6 c6 be 3f 86 e9 b4 f6 1a 61 ac bf
       0.12022246594662636 -0.055428354850351844
0001d0 66 1a 2e 3d aa 63 ae bf a7 92 db 57 a3 66 bb bf
       -0.05935413357569956 -0.10703488249743974
0001e0 29 5f 89 0b 60 ad b6 3f 13 46 00 f9 b0 b2 a8 bf
       0.08858299523978687 -0.048238306422842346
0001f0 15 3e 50 e6 3f ce 6f 3f f2 9f 43 94 94 c0 c0 bf
       0.003882527164485126 -0.1308770870157328
000200 e4 d3 2b fa 22 cd b4 3f 3b be a8 db 28 e3 c5 bf
       0.08125513656325684 -0.17099486089272084
000210 5b ed 6d 3d 9f 25 c1 bf a8 98 f1 5e 99 2f a7 bf
       -0.13396063327295846 -0.0452850273511996
000220 25 64 68 a7 bf ae b8 3f 9e bd 89 14 af 08 c1 bf
       0.09641645276168782 -0.133077511814446
000230 a0 d7 7c 06 1a b2 8f bf 07 e8 86 5d 77 38 ae bf
       -0.015476420710552052 -0.059024553458087374
000240 4b 19 22 ee 7c 58 be 3f 0e 10 5c c5 65 94 9f 3f
       0.11853771985815802 0.030839529200434916
000250 21 f8 8b 7d 3f 6e b8 bf df cd 54 83 e3 88 be 3f
       -0.0954322511206276 0.11927625614480729
000260 f0 8c f7 91 49 6a b5 3f 2f fb 8f c8 ad 77 9f 3f
       0.08365306676528284 0.030729976049765625
000270 df 6a 58 9b 0b 88 aa bf e7 d1 3c 38 35 f9 b9 3f
       -0.051819193566378756 0.10145886061656705
000280 f6 d7 a7 76 00 10 82 3f f7 d1 6d e0 5d 1d b2 bf
       0.008819583531458602 -0.07076060036872166
000290 cf 94 a9 4e 82 d6 a3 bf b5 c2 2b c9 c7 78 a6 bf
       -0.03874594888910964 -0.043890231425284844
0002a0 c4 dc ca 99 a1 de 71 bf 58 32 ca d7 c3 22 b9 3f
       -0.00436270833295466 0.09818672197634137
0002b0 ef ff 9e a4 1f 26 c7 3f 70 39 5b f6 6f 97 9d 3f
       0.18085094011439604 0.028898000155828496
0002c0 bc 99 c2 50 28 24 a5 3f 80 80 7e 3e 84 36 b6 bf
       0.04129148469774033 -0.08676935697303811
0002d0 35 c8 cb 16 65 f0 b5 bf 39 7a 86 04 81 47 3b bf
       -0.08569938475173518 -0.0004162492737353227
0002e0 33 75 6a f5 92 b0 b1 bf ae 07 a1 ee 37 51 81 3f
       -0.06910055629346772 0.008455693216209283
0002f0 48 0b 73 00 38 17 ba 3f ad 3d c8 01 81 98 bd 3f
       0.10191679011317689 0.11560827535162473
000300 13 57 6a 00 63 c1 b2 3f e1 60 d3 9b 0e 99 b2 3f
       0.07326334724561105 0.07264796547258669
000310 c9 d4 14 92 3b 24 b5 3f 49 82 82 3f be 81 97 3f
       0.08258411709251158 0.022955868364649388
000320 94 35 63 be 9e 12 83 bf 2c ae 58 37 27 3d 4f 3f
       -0.009312858758131516 0.0009533349500023317
000330 d7 68 2d dc 3f c4 bc bf 37 de 7e 5b 6f 10 8f 3f
       -0.11236952901291218 0.015168066005443055
000340 49 69 13 e5 24 f5 b1 bf 8d d3 9c 26 83 7b 90 bf
       -0.07014685242339626 -0.016096162063337572
000350 cc 79 c4 8a c0 6f c4 bf 9c 04 26 f2 99 5e b7 bf
       -0.15966040397411374 -0.09128725206211857
000360 c4 9b ac 24 da 0f c2 bf c6 6e 1a 1e 18 98 bc bf
       -0.14110876837477637 -0.11169577345793433
000370 4f 58 ba 59 95 53 b9 3f f6 be dc b0 0a 81 ad 3f
       0.09893163147566607 0.0576251355072354
000380 ba 45 7f 2f e2 53 a6 3f 82 6f 58 07 bd 03 b2 3f
       0.04360873060035027 0.07036954335529624
000390 67 98 fa 0a 27 38 b8 3f ee 10 0f 5d 9a 5d b0 3f
       0.0946068193248678 0.06392826816506034
0003a0 db d4 2e cb af d9 b7 3f b0 1c 39 7b 1e c4 89 3f
       0.09316538534661183 0.012581098685713193
0003b0 29 48 65 63 2e e0 b1 3f 3f 46 2c 17 b4 0b b3 bf
       0.06982698370600872 -0.0743973309111192
0003c0 18 34 b5 d4 44 71 b1 3f 25 38 c3 8a aa f1 22 3f
       0.0681345958048073 0.00014453131496455874
0003d0 08 1f ba 66 42 34 37 3f a6 26 12 eb 28 1b c4 bf
       0.00035406705021799644 -0.15707885244437597
0003e0 77 e7 a0 10 62 7a c8 bf 6f a4 2e 06 b0 df ab 3f
       -0.19123483478488953 0.054440975908911386
0003f0 14 4a 66 7a 12 f7 b9 bf 73 16 c7 ff 12 ff b2 bf
       -0.10142627228041362 -0.07420462364742679
000400 42 46 e5 75 38 9b b7 3f 0a 1e 97 92 65 e6 bd bf
       0.09221222761450412 -0.11679682568421171
000410 15 5f 39 ca 67 96 b9 bf 47 25 54 f0 25 3d be bf
       -0.09995125472175588 -0.11812054746055366
000420 00 20 68 92 ad 32 9d bf 04 94 62 55 0a b8 a1 bf
       -0.028513633786161563 -0.0346072415571044
000430 b2 7d 7b 7b 48 53 b6 bf 42 05 93 f9 49 11 b0 3f
       -0.0872082997770949 0.06276380866167577
000440 29 00 06 50 f4 d6 b8 3f ea 27 d3 5b 4d cc ae bf
       0.09702994302460922 -0.06015245195301573
000450 44 b0 d4 ae f9 40 ad 3f 1c e7 c6 08 63 5a b0 3f
       0.05713634738126008 0.06387919391900393
000460 7b 9b 32 de b6 e6 90 3f 72 ea 7c 3c 31 32 b1 3f
       0.01650510531603853 0.06717212416416787
000470 fa 31 c4 ae 36 84 82 3f a6 a3 b5 ce 60 84 ba bf
       0.009041239937254798 -0.10358243033046097
000480 d7 d3 fe c0 7c e1 93 bf 29 64 5c 1e ee f3 98 bf
       -0.019414853362565623 -0.024368019679148176
000490 88 60 d1 6f d7 99 b3 3f a6 9f d5 2d 3f 23 97 3f
       0.076566185759818 0.022595393345369218
0004a0 4a 4b ec f5 5d 93 80 3f 7c 35 32 d0 39 bd bb 3f
       0.008093580310320942 0.10835610707200333
0004b0 7f 5d 28 47 0a 6c bb bf eb cd 74 74 d2 26 b0 3f
       -0.1071173118328854 0.06309237807436545
0004c0 c6 ad 59 aa db 8e 0e 3f 7c a0 0c 39 22 8d bb bf
       5.828483453459601e-05 -0.10762227909856564
0004d0 8e 01 98 98 e7 d4 c2 bf da 86 eb d1 87 b3 83 3f
       -0.14712233496539934 0.00961977109313088
0004e0 d0 b0 e1 33 71 49 ae bf 13 c4 2b a1 a9 1b c1 3f
       -0.05915406950302471 0.13365669603038607
0004f0 80 e2 71 d7 1d 1a aa 3f c1 51 2a ab 2c 4e c0 3f
       0.05098050360624473 0.12738569600754882
000500 f9 f5 4d 0e 10 34 9e 3f 26 90 84 a7 ab 07 c0 3f
       0.029495478509025095 0.125234085841954
000510 15 1e b8 6b b3 74 9f bf 31 2e 1d 4c b7 e4 ae bf
       -0.03071861596074939 -0.06033871463895613
000520 4f 50 79 7f e1 61 b1 bf 6e 43 01 6e 5e e8 b5 3f
       -0.06789979326396288 0.08557691751162874
000530 e7 64 1f 27 57 61 b6 bf 7f b0 dd b9 8f a1 b4 3f
       -0.08742279725210587 0.08059023177855983
000540 81 42 7d 5a a6 88 bf bf e2 1d d4 fb 03 b8 a9 3f
       -0.12317886075221375 0.05023205231742246
000550 86 18 c0 d8 f0 5c b4 bf fb 53 a7 f2 61 09 a7 3f
       -0.07954316417462523 0.044993458624652725
000560 1c 48 18 30 87 0e b9 3f a2 d8 a3 2d 3c 30 b3 3f
       0.09787793087187463 0.07495475878008276
000570 b4 3f 35 70 76 a0 b9 3f 86 46 e8 ed 8f 24 98 3f
       0.10010471572354512 0.023576973815642187
000580 27 ca 3e ee 8a 66 bd 3f a0 86 cf 8d fb 46 94 3f
       0.11484592739615405 0.019802027254519516
000590 34 d0 a9 d5 89 13 a9 bf b0 f9 d7 f5 7f 8d a8 3f
       -0.04897719128794656 0.04795455814381755
0005a0 10 f9 8a f2 f1 db b0 3f 3e d1 09 c5 1c 98 b2 3f
       0.06585609599548925 0.07263355074411934
0005b0 41 95 32 22 92 89 b1 bf 2a e0 74 2a bd df bc bf
       -0.06850541434194658 -0.11278898512398486
0005c0 8c c8 38 8a 3f fb a5 3f 12 d0 41 b5 14 df a7 bf
       0.04293249666479068 -0.04662384712801794
0005d0 c4 1d b8 7e e3 ab b3 3f 7c d6 1e 62 e6 34 99 3f
       0.07684156268816539 0.024615859736249565
0005e0 9d f4 68 7a 48 f4 a4 bf ee 7a 9e a9 93 aa b4 bf
       -0.04092623228323442 -0.08072779551592266
0005f0 0e a7 71 3c 9f f5 b2 3f 0a cc 36 5f ed 85 ab 3f
       0.0740603945320368 0.05375615870743651
000600 0e 9b 3e 89 6a 15 b4 3f 2c 62 a5 23 cb f3 bd 3f
       0.07845178461739641 0.11700124378456483
000610 17 30 2f d5 e1 ce c1 bf 92 e1 11 9e d0 0a a0 bf
       -0.13912604245558732 -0.03133251123012139
000620 a9 b7 11 35 bb 21 b4 bf 4d 82 9d 2c cf fa a6 3f
       -0.07863969846377351 0.04488227290744771
000630 98 d5 93 c9 74 4b b6 bf 2e 19 a7 97 e1 90 ab 3f
       -0.08708887025189538 0.05383973098973836
000640 64 ca e1 8c e6 27 73 bf 3b 28 15 b4 bd 3a bb bf
       -0.004676724040211331 -0.10636506697224572
000650 40 1d ba a9 58 8e b0 bf 66 02 0b e9 1e a8 c0 bf
       -0.06467203277326394 -0.1301306379227924
000660 37 48 54 fe 94 18 a8 bf 79 a4 25 43 32 d4 56 3f
       -0.04706254582028218 0.0013933649866777738
000670 b9 80 7d 54 f8 6e c0 bf 91 52 4e 15 1b 8f b8 3f
       -0.12838653684139503 0.09593362112202387
000680 5e 27 d1 9f b5 fd 99 bf f9 73 93 8d 57 4b b0 bf
       -0.02538188732095336 -0.06364962774701145
000690 ba 58 94 08 b6 40 a6 3f c2 c4 f6 9e 83 b7 b5 bf
       0.04346245627145735 -0.0848314536185795
0006a0 3b 3c 3e 58 ef 81 bb 3f 75 d7 81 c0 3e a4 c0 bf
       0.10745139984486311 -0.13001236343159986
0006b0 0a 26 ba 79 22 ea a4 bf ca 1f 88 12 c4 c1 c2 bf
       -0.0408488057701782 -0.14653826622838856
0006c0 c8 5b e1 40 c6 b8 5c 3f e3 86 a9 21 a1 cc b4 3f
       0.0017530380314576422 0.0812473971541539
0006d0 65 0e 72 2f 8f ac b6 bf 65 80 17 01 07 41 7b 3f
       -0.08857054622972667 0.006653811798486319
0006e0 9b 8c 99 ae 82 64 c1 3f 8d e7 dd 60 06 24 b6 bf
       0.13587983632451003 -0.0864871965876814
0006f0 b8 db 99 32 7d da 99 bf 61 64 fe 70 df 5a a2 3f
       -0.02524753209442185 0.03584955457990514
000700 dc d7 f5 8f da b1 ad 3f 06 ba 41 c8 5a a8 c5 bf
       0.05799754149749933 -0.16920027521287312
000710 40 f3 19 d9 a9 c9 a0 bf 55 1a 47 80 a0 f6 a6 bf
       -0.03278857016719039 -0.04485036435976456
000720 dd 71 f5 82 b0 95 b9 3f 1e 01 3b 28 55 3a b6 bf
       0.09994033047900737 -0.08682758552732081
000730 2a cc 42 91 8a d0 b8 3f af 55 3b 65 30 36 b4 bf
       0.09693208738717432 -0.07895185920218382
000740 f2 4b cb 19 dc 78 b2 3f 04 90 84 d4 a0 e6 cb bf
       0.07215667371501391 -0.21797571541640093
000750 6a 2f 36 b0 4b c7 7e bf 5f 3c fa 3c 17 55 a9 3f
       -0.007514281899954381 0.049477316087284555
000760 a6 5e 43 79 02 08 be 3f c9 3a 42 32 3b b4 8f bf
       0.11730971775556984 -0.015480482550882428
000770 3d 27 ef 2f 9a ee a1 bf d9 f0 04 2b 75 83 c2 3f
       -0.03502351603635965 0.14463677025367508
000780 a5 93 53 e5 19 17 bb 3f 96 ab 76 6c db da bd bf
       0.10582124565878688 -0.1166207446864703
000790 d7 e9 89 da cd 21 b5 bf 66 f7 1d 13 fc 3e b7 3f
       -0.08254705987375331 0.09080481974339491
0007a0 d9 43 59 61 87 bd a6 bf b9 d1 09 0a b4 43 b2 bf
       -0.04441474021280784 -0.07134557004048404
0007b0 18 6e 2b ff de ad 76 bf 27 eb fb 0b c5 93 90 bf
       -0.005536910134391636 -0.016188696724365983
0007c0 c6 73 c9 d3 f9 e3 9c 3f ed 42 26 ae 5d d0 73 3f
       0.028213408996055532 0.004837385119018417
0007d0 56 64 0f 10 47 ed a0 3f eb be 64 1a ea 1d b9 bf
       0.03306028433844037 -0.09811270851491442
0007e0 79 4f 3c bc 84 3a bc 3f 12 d5 a5 ec 2a 8c a8 bf
       0.11026792140574838 -0.047944394481343036
0007f0 a7 cd 76 16 7d 71 c3 bf 5f 85 3e 42 2c 7d a9 bf
       -0.15190089794996917 -0.0497831183304338

bias f8 [60]
000000 e9 3f b4 4c ec ea 90 bf aa 02 00 48 34 cb 98 3f
       -0.016521160298964253 0.024212662596257907
000010 88 2c a4 6f e6 ef a2 bf 56 da de 56 0d 24 c0 3f
       -0.03698654282387631 0.1261002229855019
000020 a5 b7 ce 8b 8c f2 9e 3f 03 4e 03 f5 84 14 b7 bf
       0.030222126038715342 -0.09015685064087368
000030 27 97 84 ef 92 c1 b9 bf 4b 2d b4 20 90 6e bb 3f
       -0.10060995433431384 0.10715580748017321
000040 f8 f0 76 13 84 e1 9a bf 68 45 dc db 76 27 aa 3f
       -0.026250899971032887 0.051082338655883686
000050 d0 69 e7 8e 27 39 bd 3f a6 dc 7e 3d f6 26 a7 bf
       0.11415335883012934 -0.04521913052251962
000060 12 89 97 ad 2e 43 8a 3f 40 14 05 4e 70 64 bd bf
       0.012823452637296149 -0.11481382279187446
000070 9b b7 53 b1 0e 07 ba 3f 67 a6 52 42 c4 65 b1 3f
       0.10167018727562864 0.0679590856476807
000080 3a 1e 5b fb 66 f5 bc 3f 3b 5f e8 0e cf d3 c3 3f
       0.11311954151744255 0.15490139224925223
000090 61 61 b0 22 5c 39 bf 3f 2e 6c 06 0b 6d 73 b6 3f
       0.12196899268054075 0.0876987602154464
0000a0 46 24 88 77 84 48 a8 3f 52 00 2d 12 29 14 bf 3f
       0.04742826422813855 0.12140137380356578
0000b0 f8 35 d1 b5 24 97 ba 3f 9f 3b dc 51 ae 44 c1 3f
       0.10386876524827204 0.1349084758480474
0000c0 7d e1 82 7f 14 50 a6 3f 21 6a e8 4b 4b 61 b6 3f
       0.04357971245321133 0.08742209056109874
0000d0 06 46 a0 63 40 a6 bf 3f 68 6b 78 8c 92 91 b3 3f
       0.12363054687764227 0.07644000939801077
0000e0 a6 3d ee d4 5b 0b 94 bf 15 2c 6d 91 42 d8 8a bf
       -0.01957458006978432 -0.013107795775473755
0000f0 f1 aa 1f 94 7d e9 c2 3f e8 4c a4 e1 91 6e b3 bf
       0.14775056583979265 -0.07590591200669261
000100 49 f8 a6 ad ce 2b b8 bf 94 22 19 dc 74 50 be 3f
       -0.09441844691807079 0.11841516850939576
000110 2c ee c3 90 30 be 96 bf ff 40 75 84 53 cf be 3f
       -0.022209891162658632 0.12035104736174061
000120 e0 a1 74 85 a4 24 c5 3f 53 b0 da a7 ca 4d 62 3f
       0.1651807452810905 0.0022343595618022154
000130 b3 3f 74 7c 46 9d bf bf 00 53 a4 45 e3 bd bc bf
       -0.12349358118467428 -0.11227245760194293
000140 a2 5f c7 87 bc 36 c5 3f fd 86 92 f6 1c 99 a9 bf
       0.16573292379211774 -0.049996285533110175
000150 0b 19 58 80 08 c8 98 3f 7b f1 46 f8 76 98 a8 bf
       0.024200566133026274 -0.04803821354605283
000160 7a 50 80 66 a5 23 b0 bf 43 ba f4 e1 08 32 9c 3f
       -0.06304391624900232 0.027534617224939117
000170 53 93 f9 ba 65 d3 b1 bf 49 47 0d 2d ef f9 71 3f
       -0.06963191809479712 0.004388746529757467
000180 01 bd 01 2f 88 09 a6 bf dd fc 56 1f 51 f5 ac 3f
       -0.04304147313893659 0.05655911929670208
000190 7e de 08 fe 99 f4 ab 3f b4 ca 33 47 f2 20 aa bf
       0.054600536594475266 -0.05103261107605786
0001a0 70 31 87 64 c9 de b8 3f d6 5a 74 82 25 54 9a bf
       0.09714945511149664 -0.025711618506728616
0001b0 31 5c ba 53 8b 96 86 bf 85 c1 9f fe a3 ba 93 3f
       -0.011029327862429468 0.019266664901751013
0001c0 4f 31 76 ee 39 6a aa bf e5 6d 60 15 28 2b ab bf
       -0.05159169231328297 -0.053063633546311974
0001d0 e8 49 73 03 43 83 c5 bf 56 32 03 4f a4 14 b4 3f
       -0.16806829136346768 0.07843996933952133

weight f8 [60, 60]
000000 cf ee 90 5f 41 e1 88 bf ee 19 2b 87 6f f2 c4 bf
       -0.012148390511462463 -0.1636485490800647
000010 12 db 4a a1 c0 03 a7 3f de a6 91 2c 06 0d b6 3f
       0.04495050400639945 0.08613623226269904
000020 8d 68 6e bc 79 a3 b9 3f 87 44 85 e7 74 47 ab 3f
       0.10015068865178219 0.05327954603365819
000030 09 ca b6 0a 2c 4e ba bf 32 38 ce d2 d4 4c ac bf
       -0.10275531064579736 -0.05527367661771655
000040 ad 78 4d 4f 59 d8 bc bf 35 7e 55 5b 38 1e c2 bf
       -0.11267622171496568 -0.14154724559465284
000050 70 ec 63 62 fa 1c b9 3f a0 4f 34 a5 69 14 b8 3f
       0.0980984201632269 0.09406147273358423
000060 4d be 07 f2 a9 7b 9e 3f 00 51 33 d4 90 66 b6 bf
       0.029768615147928213 -0.08750252895999111
000070 27 23 30 78 13 05 85 bf 92 4a 0f 51 a7 64 79 bf
       -0.010263588052127638 -0.006199506359694811
000080 2d f7 25 a4 fd a8 b5 3f 2b 55 93 bd 75 96 93 3f
       0.08460984475638318 0.019128646560450917
000090 88 ef 2a 60 5c 8c 94 3f 0e 3e 53 80 1b 73 bc 3f
       0.020066684121715223 0.11113139994562735
0000a0 9a ed 49 21 1a a8 b5 3f 74 82 f4 3f 9a 6c 56 bf
       0.08459628403391264 -0.0013686663003868145
0000b0 a2 1d 2d 53 43 a3 93 bf 97 ad 36 3a c4 92 a6 bf
       -0.019177486373590853 -0.04408848963370387
0000c0 60 36 60 f5 4d ba b4 bf 7b c8 6d f3 63 e4 b8 bf
       -0.08096778145428507 -0.09723496144377634
0000d0 a2 07 f8 0c c7 d2 b2 3f da ae 52 93 2e 6f bc bf
       0.07352871004698483 -0.11107150170090155
0000e0 ff 9f cc 20 f4 13 a4 3f 90 c8 fd 9d 72 cc 86 bf
       0.039214734081099316 -0.011132140585435019
0000f0 e4 51 3f bc 6c b8 a7 bf 3c 41 9f bd 2f fc c3 bf
       -0.046328924159442925 -0.15613362082377502
000100 71 65 19 83 60 f4 b3 3f eb 6d 0f 27 9b 04 af 3f
       0.07794764710106052 0.06058201648530911
000110 c8 c8 4f ba 86 23 b9 bf c1 e9 fa 56 32 6a a6 bf
       -0.09819833801865052 -0.04377896606225163
000120 37 ef 6f 24 46 ef ba 3f c2 3b 99 9e ec 83 5e 3f
       0.10521353139477872 0.0018625078904681435
000130 09 22 95 fd f4 51 b5 3f 7c 84 ca 8e e7 eb c1 3f
       0.08328181448917617 0.14001173469754125
000140 36 2a 00 32 4c fa b4 bf 78 42 84 54 bf 14 ac 3f
       -0.08194423886031008 0.054845789973232806
000150 76 de ff c6 2c e8 b7 3f c5 9e c6 b0 11 98 c2 3f
       0.09338645800004905 0.14526578075059696
000160 32 fb 0f 25 66 42 b4 3f d3 86 28 17 05 d2 b5 bf
       0.07913816838116075 -0.08523589911831246
000170 e9 bb 83 cc 53 34 b4 3f 7f 6e 20 c6 f2 a9 b9 3f
       0.07892345183402906 0.10024945580556198
000180 22 50 85 08 30 20 bb bf 33 b2 ab 9f d8 d8 c1 3f
       -0.10595989425684185 0.13943012043400102
000190 4a 20 8c d9 0b 0c 94 bf 84 88 da e9 4c fa c4 bf
       -0.019577202942884044 -0.1638885633338455
0001a0 a7 92 b0 72 59 ea bc 3f 2d 08 e5 f1 54 d3 67 3f
       0.11295088815729547 0.002908388050088659
0001b0 67 91 c7 df bc 92 a3 bf 2b a5 bc b5 28 71 c7 3f
       -0.03822889548954116 0.18314083932754363
0001c0 98 d9 ca e1 6c 2e c4 3f 81 56 ff 0d 8f 87 9f 3f
       0.15766678833979308 0.030790553311666805
0001d0 6d 9c c5 d9 c4 f3 b3 bf 33 48 9a 2a 69 a7 b5 3f
       -0.07793836895653934 0.08458573618034464
0001e0 34 71 3c 5c 93 f9 c2 3f c3 67 c8 b4 e6 63 a4 bf
       0.14824144366947112 -0.03982468563863464
0001f0 e3 71 44 ce fc 19 c2 3f f6 bf b9 5c 43 91 b4 3f
       0.14141807624481748 0.08034153951462017
000200 c9 9a 63 14 c9 55 a8 3f 44 ec d6 25 bd 16 b0 3f
       0.047529491175557555 0.06284696744744261
000210 ba ba 1c 75 87 26 a3 3f be 02 e9 9b 95 40 b5 3f
       0.03740332893936711 0.08301672989274331
000220 95 69 25 86 c3 2f 97 3f 08 52 74 c3 9a f6 a0 3f
       0.02264314180625034 0.03313144336621937
000230 d9 63 bc 3d 42 f2 be 3f 48 f2 91 27 d8 09 46 bf
       0.12088407523368917 -0.0006725602571716139
000240 b1 f7 d9 cc 59 6f d3 3f 0b 27 97 88 91 fb bd 3f
       0.30367131238005657 0.11711988053061988
000250 54 92 90 ec 3c ed a7 bf 30 c7 b2 4f 67 85 ba 3f
       -0.04673185718300901 0.10359807677994293
000260 2c 79 fd b6 53 7f a8 bf 2a c8 2d 50 5e 7d 90 3f
       -0.047846428001081825 0.016103242534377817
000270 1b 68 f4 68 32 0d 9d 3f 5a 76 18 1c 18 8b b0 3f
       0.028370654731681193 0.06462240873266847
000280 58 71 75 6b c0 2c b1 bf af 99 02 f0 03 d0 ac bf
       -0.0670891058302393 -0.05627453141032689
000290 19 71 df f9 9e 95 c3 3f e0 ce ee a3 fd 4a 84 bf
       0.1530035705644728 -0.00990865856679285
0002a0 e2 b3 66 1e 07 2b 92 bf 70 8f de b7 f9 cd c0 bf
       -0.017742263060131942 -0.13128587224957355
0002b0 70 4c 50 f2 32 a5 b9 bf 62 70 c6 50 b4 42 c0 3f
       -0.10017698684559817 0.12703565544223056
0002c0 e4 d7 a1 ce 30 17 cc 3f a2 05 df 34 d3 ef 7b 3f
       0.2194577225633899 0.006820511842250994
0002d0 56 a7 71 af 55 76 be 3f 47 fe 3f a1 49 65 c3 3f
       0.11899314435291095 0.15152855275663255
0002e0 e3 cf 74 41 89 ba c3 3f 02 e5 c5 34 b2 08 ae bf
       0.15413013168438203 -0.05866009611322377
0002f0 a6 ec 34 87 79 29 b6 bf 6d e4 42 fd 95 b3 ac bf
       -0.08657035399385168 -0.05605763165062503
000300 3b 04 3b 38 84 56 c1 3f b3 a9 8a c8 16 be c4 3f
       0.13545277352935323 0.1620510558326039
000310 38 13 cd 3d a9 6a af 3f a9 c3 4e ba 4f 76 ab bf
       0.061360634607388 -0.05363701962722384
000320 26 32 dd 41 0b df c2 3f b9 95 b8 04 67 57 9e bf
       0.14743176189439672 -0.02963028875651272
000330 f9 83 5c 8a ac b6 9c bf 91 c3 fb 05 e6 bb b8 3f
       -0.02804059595576189 0.09661710401611702
000340 f4 73 35 85 b9 82 c6 bf 2b de b7 5a b1 02 49 bf
       -0.17586440090499844 -0.000763260458767461
000350 46 cf 70 d6 55 fc ad bf 64 5a 17 4c 07 7e 98 bf
       -0.05856579058345672 -0.023918260592689214
000360 7a 13 47 cf 7e 3a c7 3f 26 0e 26 ef e3 9f af 3f
       0.1814726364229065 0.061766741698218205
000370 6d 6b 54 18 36 cb c0 3f 04 a8 b7 48 29 20 ba bf
       0.13120151699044005 -0.10205324197127658
000380 47 ba 95 ae 75 7b c1 bf 39 4d 21 07 33 fd 96 bf
       -0.13658019089366943 -0.022450253782449556
000390 b8 f8 80 a2 b7 f5 94 3f 1f c6 71 85 ad 5c af 3f
       0.020468587201542404 0.06125395063362426
0003a0 76 c3 61 db 98 69 b1 bf f8 9a 02 9a f3 a1 b8 3f
       -0.06801753383639472 0.09622118482603159
0003b0 59 32 77 0e c0 e1 91 3f 4e 8e 6d c0 16 fd c1 3f
       0.01746273124972428 0.14053615947624326
0003c0 c6 46 bd 9e 32 00 ba bf f6 73 d8 71 20 91 b7 3f
       -0.1015655171916264 0.09205820826942088
0003d0 f1 03 da 2c d1 ad bf 3f 94 9b 5e a9 be 53 c1 bf
       0.12374598832140273 -0.13536818761823766
0003e0 7b 37 43 7e 02 6c a2 3f 0f 96 78 2c f3 0e c3 3f
       0.03598029891291695 0.14889373465955244
0003f0 25 8c 04 2f 79 1e c4 3f e2 17 98 a0 46 7f b9 bf
       0.1571799735621379 -0.0995983259273028
000400 9c f4 d1 6e 49 6b a7 3f 4f c5 d3 d1 25 24 8f bf
       0.04574040868554016 -0.015205665079039447
000410 86 1a 4b 29 08 d5 a9 3f d3 be 43 fe ae d5 ad 3f
       0.05045342926091671 0.0582709012395505
000420 71 3b eb 7d 0d 29 b1 3f 54 42 2d 6b b6 ca b8 bf
       0.06703266452971747 -0.0968431483900159
000430 5d 5b 77 12 3b 8b bc bf 9c d6 cb 7d f3 9a 95 bf
       -0.11149949265323529 -0.021098904183381437
000440 4e 5a bc 57 dc 8d a7 bf 75 ca 8a 70 4d b1 8b 3f
       -0.04600418635361746 0.01352177142812148
000450 c7 ea a3 1e e3 90 be bf 88 bb f3 22 03 b4 93 3f
       -0.11939830301336506 0.019241379745774917
000460 2a 71 77 5d 0f 09 b4 3f 2c 7b d3 ff 60 48 b4 bf
       0.0782632449331159 -0.07922941442255355
000470 5c 08 46 a9 97 cb c1 3f 40 de f8 ce a1 e3 80 3f
       0.13902564778624338 0.008246673706806651
000480 14 b9 73 42 64 dd c5 bf 18 ec c7 3a 38 ec 91 3f
       -0.17081883663872388 0.017502668941215743
000490 be 49 80 a7 7f dd b4 3f 8d 00 84 aa b0 4e bd bf
       0.08150480117209377 -0.11448196566562015
0004a0 e6 d1 b1 3a a9 5e d5 3f 70 32 9d f5 30 98 c1 bf
       0.3339026520909826 -0.13745700829385354
0004b0 d3 d1 da 98 91 de b4 3f 76 e9 86 ad 8d b9 7a 3f
       0.08152112943464056 0.006524613789617431
0004c0 56 22 bf a2 c5 0f ab bf a9 0d dd 03 67 67 b6 3f
       -0.052854705921679 0.08751529545138816
0004d0 db 03 fd 02 fa 4f a4 3f d7 df 78 0c 1e 33 a1 bf
       0.039672673096454246 -0.033593119642716544
0004e0 02 9f c2 40 ca d9 9f 3f da 93 c4 13 32 7f ae bf
       0.0311042406107438 -0.05956417552287237
0004f0 e3 2a 7e a4 e8 05 bd bf a3 30 82 0a 4d 8b c0 3f
       -0.11337141052187465 0.1292511273680975
000500 3f 01 bf 0c 0d 96 b2 3f 9f 05 a9 25 43 3f c4 3f
       0.07260209618744272 0.15818061198119168
000510 5f 3c c1 24 94 90 84 bf 26 6b 19 14 06 30 cd 3f
       -0.010041386958759611 0.22802806836519912
000520 f6 a2 e7 2f 6b d0 b8 bf 3c f4 30 7d d7 cb 88 3f
       -0.09693021697570345 0.012107547290833513
000530 80 5b 1a 13 f7 d3 a8 3f 07 12 ba ed a4 25 c9 3f
       0.04849216564360059 0.19646131141429654
000540 d2 69 f0 9c 9b 43 c8 3f 32 48 6a 9f 36 c9 b2 3f
       0.18956322825472555 0.07338277236911564
000550 36 ad 96 95 38 b4 b8 bf b9 8b 95 99 11 e4 a9 bf
       -0.0964999547201629 -0.05056815147215538
000560 a1 a9 17 e7 1c 89 7f 3f 55 37 64 85 69 24 a7 3f
       0.007699120427313495 0.045199677975786536
000570 bb 87 72 fd bf 44 b2 3f 19 e7 16 d7 bd db a7 bf
       0.07136154115371955 -0.04659837008098417
000580 85 8a 15 be 48 a8 96 bf 6c a4 94 52 5b 7a b0 bf
       -0.022126328088584408 -0.0643670155156017
000590 08 7c fb 95 62 ec c5 3f 97 9b 64 14 a8 e2 aa 3f
       0.17127640078885542 0.05251050232828119
0005a0 23 12 66 c8 45 22 bc 3f ff 9c 4f 4e ee 37 bd bf
       0.10989795820757613 -0.11413468753709209
0005b0 a5 b2 48 6d e9 fc a8 3f cb 76 1c 9e a1 4b a7 3f
       0.04880456408532056 0.04549889617031296
0005c0 47 13 02 93 d6 8c b6 3f 60 91 8f a4 3f d8 c2 bf
       0.08808652009072403 -0.14722438368984125
0005d0 d5 8b f9 4b a8 14 bc bf 9a e1 9a d2 6e 73 af 3f
       -0.1096902070508315 0.06142755814420582
0005e0 33 79 cd 8b 6a 49 b8 3f f4 d5 8a 18 95 dc bc 3f
       0.09487024224424516 0.11274082040002736
0005f0 c7 2f cb dd 3c 3b c1 bf ec 98 eb bf fe a9 b1 bf
       -0.13462029294748687 -0.06900016961626293
000600 b3 84 ff 16 31 c7 d0 bf 87 e2 b7 d7 4a f2 ae 3f
       -0.262157700022793 0.06044229396133454
000610 3b 0e e9 2d 4b ff b0 3f 88 3d 21 bb 5e df b4 bf
       0.06639547224863744 -0.08153335636710868
000620 2f 5e 43 88 5f f4 99 bf 06 15 6b b9 05 13 64 bf
       -0.025346272174685488 -0.002450476818327221
000630 da 8b 02 89 13 c5 9e 3f fb d7 39 e9 48 c8 ac bf
       0.030048661458419314 -0.05621555182453616
000640 c6 40 9e 51 ff 8e c8 bf 9c 05 94 b7 8a c2 c8 bf
       -0.1918639324690103 -0.19343694652347387
000650 84 3b 81 5a 7e 7f cb bf ad 31 78 e8 c6 d5 c6 3f
       -0.21482829493694677 0.1783989558320064
000660 e1 8e e1 ca 4c ac a0 3f 7d 6d 30 4e 88 40 a5 bf
       0.03256454445434343 -0.04150796846826219
000670 5b f3 de e2 f2 a3 94 bf ba 99 17 8a f6 e0 b1 3f
       -0.02015666494093025 0.0698389136447081
000680 d3 e0 62 50 6b 24 d5 bf ee ef 28 19 f5 d4 b9 3f
       -0.3303478512784867 0.10090572227721825
000690 60 36 0f 73 81 02 a4 bf e4 d4 5f 62 4b a4 a8 bf
       -0.03908161668333032 -0.048128467329584784
0006a0 47 16 da e6 a4 9c a1 3f 3e dd 91 90 92 8a ad 3f
       0.0343982250024451 0.05769784941451882
0006b0 74 7c 0a ce af 3b b5 3f dc 68 c6 97 cc 1f a4 bf
       0.08294199734017288 -0.03930510857317568
0006c0 72 72 9b 5b 39 e9 a5 bf 70 81 50 20 95 cd a9 3f
       -0.04279498332264077 0.05039659518684203
0006d0 a6 b0 bb 37 9f a2 be 3f 1c a6 39 5e bb 7c a6 bf
       0.11966891394303278 -0.04392037892541742
0006e0 c9 f9 0f 03 ef d8 b0 bf 30 09 0c 1c 06 87 b6 bf
       -0.06581014466062308 -0.08799780068151075
0006f0 17 e2 5c 62 ec 60 8e 3f 78 3b aa e6 3f b3 bb bf
       0.014833304168505852 -0.10820388204068176
000700 d7 8d d7 8b 92 e5 a3 bf 1d 00 8d 16 2e 3e b8 bf
       -0.038860873766477226 -0.09469879198604798
000710 9e bd 21 e9 e5 60 c0 bf d8 be fa f7 25 89 bb bf
       -0.12795709498776103 -0.10756146721063986
000720 9f 82 b5 ce 21 96 c2 bf 98 29 1d 85 a2 41 b2 3f
       -0.14520666688169556 0.07131400823451484
000730 71 fa 7b 08 6b 88 b2 3f d9 af 79 3f 91 6d b1 3f
       0.07239407498489371 0.06807811546030908
000740 a1 0b b4 a9 a7 7c b4 3f f6 3c 4b 2c d0 7f a1 3f
       0.08002708333155663 0.03417826214501389
000750 62 c8 fc df 4b dc a8 3f e5 18 d8 d3 46 a6 c0 3f
       0.04855572804662313 0.13007436126662877
000760 a3 64 81 b8 f6 d8 97 3f f7 53 35 02 ce 8e b0 bf
       0.023288588534658882 -0.06467902711786154
000770 9f d8 03 b3 60 ce b7 bf a7 28 4d c6 1b 82 b4 3f
       -0.09299282427295673 0.0801102980741769
000780 b8 0e 30 3d fa 33 bd bf 53 95 71 4d 98 61 bf 3f
       -0.11407436364975865 0.12258293047633133
000790 0c b6 99 db 3f ff 97 bf 78 09 96 c4 58 ee b4 3f
       -0.02343463685831719 0.08176188277687924
0007a0 74 bc 45 99 c1 3d ac 3f 0a 5f 63 9a 6c c4 a4 bf
       0.05515866275788364 -0.04056109795209124
0007b0 64 72 83 51 83 3b b3 bf e1 5a 44 29 42 2a a8 bf
       -0.07512684574198542 -0.047197406327702536
0007c0 bf 2b cf 47 77 c2 a6 bf 94 51 af 0f 87 50 ae bf
       -0.044452407375124896 -0.059208126701977865
0007d0 7e 49 19 6b 73 e5 af bf 93 c1 cb ab cb 9b b9 bf
       -0.0622974460826695 -0.10003350204693211
0007e0 00 0c f9 13 f7 9e b6 3f d6 ef 8c 43 24 db 68 3f
       0.08836311566942356 0.0030341823843666833
0007f0 d6 a6 6c b7 a1 e2 b5 bf d7 ca 7c 17 f1 0e b2 bf
       -0.08548937538275977 -0.07054049323486865

bias f8 [60]
000000 8e 2c b7 5e b3 a6 aa bf 56 9f ff f2 b3 a1 bf bf
       -0.05205307513423306 -0.12356114084798028
000010 3d e9 70 73 b9 08 b2 3f 66 b7 92 cb 8f cd c0 3f
       0.0704456240499995 0.13127324524014766
000020 00 64 d8 54 a8 03 99 bf f6 cd 8d 97 03 37 bc 3f
       -0.02442801492552249 0.11021444749876949
000030 ee 71 fd 44 22 62 8d 3f 20 5d c1 0d e2 e7 ac 3f
       0.014347331743629756 0.056456627062909215
000040 8f 1c f2 1a 9f e2 b8 bf 02 e0 b7 2f d2 e1 bd 3f
       -0.0972079697404402 0.11672700562473895
000050 ae bb 87 9a a8 9c f9 3e f0 42 db 95 a8 f2 4f bf
       2.4425456702499987e-05 -0.0009749720736299244
000060 c0 ce 2b b6 8e a9 b2 3f 77 88 8a f6 a0 cf c3 bf
       0.07289974162614055 -0.15477382696286998
000070 dd bb 06 52 d8 8d ac 3f c7 b9 7d 6f 9f 8a b5 bf
       0.05576969147966058 -0.08414646598769258
000080 93 0f d1 46 7b a6 9b 3f 34 67 58 d2 82 b9 b2 3f
       0.027002264210991788 0.07314317355522065
000090 33 f3 77 f5 a3 54 b1 3f 34 81 e6 71 df e6 80 bf
       0.06769776099094997 -0.008252854979958181
0000a0 7a ff 31 36 9a 62 b4 bf bc a8 f2 93 bf a9 c0 3f
       -0.07962955306174804 0.1301803085710328
0000b0 91 93 df 5e 10 ac ad 3f d0 46 c1 37 b6 08 c1 3f
       0.057953368741244245 0.13307836267863715
0000c0 28 68 81 e8 45 25 b3 3f b7 1c 5b d9 92 9d a8 3f
       0.07478749205020618 0.04807719138403271
0000d0 0a 3f fa bc a8 97 b2 3f 4e 3d f0 93 49 c7 be 3f
       0.07262663472851841 0.12022838460710725
0000e0 41 05 7a 2e b1 72 af 3f 48 f6 21 b4 9a 5c 9d bf
       0.061421906398218436 -0.02867356991236239
0000f0 b2 75 45 47 92 44 93 3f 23 d8 ec ac 21 69 ad bf
       0.018816266632134045 -0.05744271503355971
000100 e3 ae e3 bb 7d dd b7 3f fd 7d b2 c6 c3 74 7d bf
       0.0932234367098164 -0.007191433668736644
000110 ca fa 64 fa 83 29 94 3f ce fd cb 6b 2b 97 b1 3f
       0.01968961921488236 0.06871291524657083
000120 03 75 f4 89 9a 90 b6 bf 75 21 28 79 3b e8 9f bf
       -0.08814397686042601 -0.03115933348638707
000130 32 d0 97 8d 84 6a b6 bf dd 7d 79 58 d4 12 b7 3f
       -0.08756283242092947 0.09013106498741004
000140 6d 0f 7f a4 26 9d b3 3f 49 90 43 09 19 cd b5 3f
       0.07661668315910015 0.08516079403085643
000150 a2 fe 2b 0f b7 5f a6 bf 96 80 7e 59 5b d5 c0 bf
       -0.04369899807170198 -0.13151113385993501
000160 dc 3b 69 04 c8 97 bb 3f b1 b9 0c 9c 59 cd a6 bf
       0.10778474910442476 -0.04453544645217578
000170 94 db b9 f5 5c 96 a2 3f e4 c0 00 d1 4a 64 c6 3f
       0.036303429599619325 0.17493567662450638
000180 3b 3a 4c 72 de 25 b9 3f cb 3d 64 49 73 d4 72 3f
       0.09823408403847449 0.0045971396814503225
000190 cb 41 8a cb 58 7b c0 3f 30 e2 e7 99 31 77 b9 3f
       0.12876424730758482 0.09947500236001683
0001a0 80 29 b1 c3 c1 69 af bf 64 c7 9c bc 2d ca ad 3f
       -0.06135373605555383 0.058183125757195225
0001b0 e1 ff d5 5f 8d 4f b1 bf 8d a7 f1 f7 75 76 c0 3f
       -0.06762012090439341 0.12861513716353237
0001c0 5d c7 fa 95 ce 44 bb 3f d7 85 0e d5 61 a3 c0 bf
       0.10651866113292159 -0.12998602774773246
0001d0 ac 98 de 84 23 e1 b9 bf 90 35 29 13 24 c6 88 3f
       -0.10109159463772482 0.01209667380785609
