JupyterLab/traced_model_M1_503.pt (torch, 148018 bytes, 12 tensors)

weight f8 [60, 9]
-0.1830408882710182 -0.13066215604814715 0.12825197143776185 0.5878887250399525 -0.40912481832763536 -0.35496952978028334 -0.11841450431354035 0.4776675833243938
-0.2446089291157511 0.24271651091233293 -0.3631898906077853 -0.08607717428511902 -0.03688476266091725 0.06973083844401658 0.10910110097358579 -0.08622372401201608
0.020680581824512722 0.3493365739433757 -0.35822984626170157 -0.17675734542315 -0.04113795525610943 0.02660950424852777 0.22340288373050018 0.1834852409702406
0.2984096210137642 -0.24881313908849256 0.07029253702221548 -0.12810753457844185 0.023129832744019852 -0.3073035049820157 -0.058288329016392026 0.36424353618767485
0.2956069930310602 0.30488867879541204 -0.24238101208646637 0.06400168194910548 -0.2864442785115586 -0.025751258993665083 0.04464530068276047 0.2561970777507674
-0.2690791982540478 0.39410230129368834 0.2625780482938137 0.07030293196707706 0.20206089552201562 0.3134488356019427 -0.2400165112118363 -0.26151481841301527
-0.2842537428819424 0.20080336258271755 0.3027452590655369 0.21703923052335153 -0.305770026381728 -0.05350537715763054 0.01692115101188471 0.06256561187470708
0.23343117672526092 -0.38589997863259634 0.2645246891664991 -0.36996699329369254 -0.019565425358186967 -0.11024618480990675 0.25081437258809325 0.10265794953061867
0.05818739372338631 -0.3114615140867234 -0.4170081050088751 -0.4063416125133644 -0.006501169844554503 0.048765443295636444 -0.0033463639648049826 0.013267331609618502
-0.15541781550685518 0.055088040169083065 -0.29023352248781054 -0.027854085909063422 -0.10981198873524542 0.1923263815198014 -0.2657392549638134 0.04869927866937441
-0.05686204906891582 0.0769643705236324 0.1657097890989613 -0.1109282120670731 0.15327696108258632 -0.2592402087524436 -0.3689468597914135 0.1316707045736223
0.28742104821652625 0.3500138653499938 0.18015841020208603 0.08129586358042903 0.08346131049844781 -0.011526567364423965 0.050662640746288776 -0.17203860263734325
0.011018928359490787 -0.25221826090759397 -0.41757449681305786 -0.07057925573765879 -0.2659068471968172 -0.13903969214387846 -0.49591194836324415 0.2727200779674842
0.19441494557175795 0.16799044613926317 0.25620859434888066 -0.15721262018965856 0.3602781615334091 0.030339948046319527 -0.037869294324133544 -0.08034526418454449
0.039384669374010084 -0.15864985136284993 -0.24489930784720496 0.333196601853701 0.250248654679626 -0.5102621699572404 0.1033370423839068 -0.09442179976648003
0.4148738486983993 -0.18202529655885988 0.11722173244542528 -0.12561203720265166 -0.11932358550697182 -0.20925461549882937 0.028365419278593897 -0.32390916308246215
0.05567600865214938 -0.0710345936896517 0.031721100272794206 0.10310518370635545 0.32332186637918836 -0.2603320691315388 0.010557522401222721 0.35820882933050735
-0.050177476722763646 -0.09634145296359364 0.11485656366510087 -0.3350658203964566 -0.19921187197803233 -0.10776365177074662 -0.0827090986665703 -0.04838429470358816
-0.3321837620603102 -0.19256203339537345 0.046003555337225895 -0.4311464852318419 0.13939112272889323 0.10181666312829772 0.022974586762243468 -0.12804546802399758
-0.16564180514520063 0.0561476812395301 -0.3495475644387362 0.1314111490315998 -0.12311557177513047 0.20528399690538018 0.12474816913803219 -0.08201999062254318
-0.027400792825942398 -0.18141142954716213 0.092045926697559 -0.08238928785176662 0.10763357434848857 0.49387434025771815 0.14141913477866486 -0.260897494900931
0.05998755147375687 -0.297949015282648 -0.2304800994866451 0.22550849826604774 -0.19753243819129107 -0.24441375091821685 0.1588654561708312 0.23222434694148708
-0.45874602120527475 -0.02869204953244864 -0.15526397633128797 -0.26755208402184993 0.2023886547355029 -0.13321592728238815 0.0079554155543932 -0.06520857395244159
-0.3828383530720073 -0.20963535602674718 0.08677012255605432 0.08626351559901546 -0.14257854230874648 -0.2158585840051299 0.035947393513171395 0.11457824456450982
-0.16502997759196017 -0.22886350051806612 0.10792583275773039 0.2971761154722359 -0.11651934120983352 0.2685323156018338 -0.2310881433267543 0.018485099126106727
0.004764920362222011 0.11033841274631283 -0.07746578190548062 -0.047804490416908256 0.24953737600537018 -0.27497583816208565 -0.11864544893033312 -0.1678162652759272
0.2621271759703466 0.23265214445602983 0.011140142018299139 -0.2960255820299111 -0.15761344091959142 0.28829679380883927 0.18086758841396114 0.27519065284923516
0.508272989639819 0.023763892825302422 -0.25020583549763625 -0.34074726084972884 0.1125680100107516 0.1721127458708027 0.18797150293391265 -0.01957847245014369
-0.24863546665040076 -0.4749021174016027 -0.11387300139012942 -0.09825327519199564 -0.36966789970098546 0.2785102979246354 -0.1706487656031973 0.07163584194825334
0.001487837226290848 0.017046358699179986 -0.029587692651829096 -0.1861685742533809 -0.07119975997670482 0.3932514860062602 -0.1980431241125868 -0.29435828798301644
-0.1658618277825737 -0.05386439583315406 -0.09190417848287188 0.04903541774118448 -0.004411724907152895 0.17598129116814687 -0.33916949530338764 0.2052752654290325
-0.35056536141710143 -0.0033487167649695693 0.2707531677662721 -0.0307330002680867 0.07689346069543966 0.25787591704942975 0.1477591629330813 -0.1930852138010686
00000000: 5137 7a42 e26d c7bf 299c 869b 89b9 c0bf
00000010: de81 7c83 8f6a c03f bc7a f703 fccf e23f
00000020: a2be acdc 192f dabf 71e6 5e1e d2b7 d6bf
00000030: a511 66b7 6950 bebf 4535 2f0e 1b92 de3f
00000040: 464d 6e6b 584f cfbf 4caa 48aa 5511 cf3f
00000050: 047d 99cf 803e d7bf f496 7c58 2709 b6bf
00000060: 84df b242 8fe2 a2bf 15c4 a356 e1d9 b13f
00000070: fd9e a3bc 0cee bb3f 425c c50a c212 b6bf
00000080: 23e6 645a 4a2d 953f 028b 18ca 875b d63f
00000090: 9549 89e0 3ced d6bf 43c9 f514 fc9f c6bf
000000a0: d20a e6b8 0810 a5bf d371 0a9a 853f 9b3f
000000b0: f72f ba37 7798 cc3f ca07 a2c2 717c c73f
000000c0: 3e37 c4aa 2419 d33f 549f 99e3 1bd9 cfbf
000000d0: 07cd a913 b1fe b13f 3d5b b1e3 d365 c0bf
000000e0: 6d41 cacc 58af 973f f502 f651 dcaa d3bf
000000f0: 0050 bac5 f7d7 adbf 3126 ed1e c44f d73f
00000100: 2e63 e297 39eb d23f 5234 16ce 4b83 d33f
00000110: ad97 0a4c 5706 cfbf 4743 dc0a 6a62 b03f
00000120: 6857 1562 1a55 d2bf cd9f d5bc 895e 9abf
00000130: 7a80 b4b4 bfdb a63f d84c 916d 8865 d03f
00000140: 063e 22f5 9738 d1bf 376c d5db f838 d93f
00000150: ae71 8428 14ce d03f d98b 9c79 5fff b13f
00000160: d2a4 08a5 21dd c93f c44b 78b4 8b0f d43f
00000170: 43d2 136d dcb8 cebf ba35 20a6 a8bc d0bf
00000180: e262 5c9c 3631 d2bf eb1b 9cb1 ecb3 c93f
00000190: 6127 ada6 2d60 d33f 89fd 8506 f1c7 cb3f
000001a0: 6405 da71 bc91 d3bf d8b5 1a8a 0e65 abbf
000001b0: f8ae d338 c753 913f 1e29 dbc8 4c04 b03f
000001c0: ec6d f3a2 12e1 cd3f 2d43 f0d2 95b2 d8bf
000001d0: 7719 3df6 f8ed d03f 62ef 320a 8aad d7bf
000001e0: 05d7 2e78 f508 94bf 2e6f 440e 1839 bcbf
000001f0: d67c e8b9 570d d03f 978e e897 ca47 ba3f
00000200: deaf 29f2 bcca ad3f 88c4 3d46 fcee d3bf
00000210: fa85 4bc3 42b0 dabf 6aec 2f40 8001 dabf
00000220: f7bf e37d f8a0 7abf 2b68 42c0 c8f7 a83f
00000230: 8d5b 4279 d569 6bbf 58af f21a e72b 8b3f
00000240: 8caa 6821 bbe4 c3bf ad98 dae5 7f34 ac3f
00000250: 086f d29f 2f93 d2bf f458 2810 c885 9cbf
00000260: 069c 5374 a31c bcbf 6b8d 649f 269e c83f
00000270: 9d4f 5538 df01 d1bf d18f 72a2 1cef a83f
00000280: 85e2 44c2 051d adbf bb31 5bde efb3 b33f
00000290: ed4e 6776 fa35 c53f 1c26 0893 ca65 bcbf
000002a0: 8e3c 8a57 949e c33f ea98 993e 6497 d0bf
000002b0: 7206 314a d39c d7bf 0014 feec 95da c03f
000002c0: c468 9140 1b65 d23f 0cc9 348e a066 d63f
000002d0: 7d6a f547 6e0f c73f eec5 6043 cecf b43f
000002e0: 6d77 126f b85d b53f 5838 ecae 3d9b 87bf
000002f0: eec3 4422 74f0 a93f ff0b fd65 5c05 c6bf
00000300: 7320 8787 1791 863f cb55 830f 5824 d0bf
00000310: d72a dd61 8ab9 dabf f154 2b6b 7b11 b2bf
00000320: 058a 1f27 9e04 d1bf 7c4b 4d79 0dcc c1bf
00000330: 0c9c fa77 05bd dfbf 7a4e f5e9 3e74 d13f
00000340: 03cb 8ac4 96e2 c83f e8b2 1a00 b680 c53f
00000350: 46af 6bbb b865 d03f add4 1d0b 8b1f c4bf
00000360: 92ef 4f22 cc0e d73f 3531 7c72 6f11 9f3f
00000370: ef1c 4aa9 9a63 a3bf 2aa4 0fda 8191 b4bf
00000380: c0ac d935 3a2a a43f 9c31 8f69 a34e c4bf
00000390: e525 024b dc58 cfbf 0d66 06d7 1753 d53f
000003a0: 2ee3 edee 1204 d03f 6146 8b54 1154 e0bf
000003b0: 3d16 81e1 4b74 ba3f 31c8 06ee 062c b8bf
000003c0: 8a04 080b 4b8d da3f abeb e1db 9a4c c7bf
000003d0: d4ca 3b53 3e02 be3f 3779 e223 0e14 c0bf
000003e0: ddd6 6491 fd8b bebf 2361 0df1 dac8 cabf
000003f0: d738 8e10 d30b 9d3f 0717 947f edba d4bf
00000400: 0f64 aad8 9081 ac3f a01d c8b8 522f b2bf
00000410: 4492 8780 bf3d a03f 4f1e 11f0 1965 ba3f
00000420: f889 8b32 4eb1 d43f 3147 c1d6 47a9 d0bf
00000430: 2833 85ab 2e9f 853f fa3a c7b9 e4ec d63f
00000440: c346 0abb dcb0 a9bf 484e ba5d d5a9 b8bf
00000450: 3f2c ac60 3d67 bd3f 5e0d 27e9 b771 d5bf
00000460: 6b6f 8f4d c67f c9bf 268a 0d10 6696 bbbf
00000470: 39c4 da69 6c2c b5bf fdab c886 d3c5 a8bf
00000480: faeb 93ae 7f42 d5bf a733 f169 dfa5 c8bf
00000490: 11a2 582b c78d a73f 79ca 766d e797 dbbf
000004a0: b595 bc7c 91d7 c13f 4fea 5226 a810 ba3f
000004b0: b4bd 216b a686 973f e233 c83c cb63 c0bf
000004c0: 2f7a f92b c033 c5bf 250c 578d 63bf ac3f
000004d0: f34a 6abf fc5e d6bf 0dd3 b59d 14d2 c03f
000004e0: f20b 678a 8084 bfbf 22e6 8cfa be46 ca3f
000004f0: 9608 affa 7eef bf3f 9190 5719 43ff b4bf
00000500: 969e 4914 f40e 9cbf 2349 835e 7d38 c7bf
00000510: 2b62 e564 5290 b73f 8b33 dde0 7617 b5bf
00000520: 7b41 c7b9 df8d bb3f f463 ef1e a39b df3f
00000530: e894 73af 051a c23f 034d 0d68 8bb2 d0bf
00000540: fc69 7e37 b0b6 ae3f 8feb 20bf 9811 d3bf
00000550: 8e44 d634 5f80 cdbf 66e9 8264 76dd cc3f
00000560: 6022 f730 be48 c9bf 9576 7125 f348 cfbf
00000570: 3ae2 5b09 b455 c43f 306d b903 87b9 cd3f
00000580: 34cb 8f45 185c ddbf e19b 96d9 7261 9dbf
00000590: 907e 4ba2 b0df c3bf 6c6e b6c6 921f d1bf
000005a0: 57d0 9516 dfe7 c93f 53f9 7d31 380d c1bf
000005b0: 55c3 0ecd ed4a 803f 9666 8b54 82b1 b0bf
000005c0: 4a52 866f 6c80 d8bf 5f2f 1cd3 54d5 cabf
000005d0: 28ee a516 9136 b63f 30f4 55a2 5d15 b63f
000005e0: d9e8 2980 0340 c2bf 8f73 6e0b 41a1 cbbf
000005f0: 69f1 075f b267 a23f 40d7 3cf5 ff54 bd3f
00000600: 89fc 4eca b31f c5bf ef90 fc30 664b cdbf
00000610: 5188 1602 07a1 bb3f b4c1 46f8 ee04 d33f
00000620: df02 d927 36d4 bdbf 2d75 5b2a a22f d13f
00000630: 7377 0ad9 4b94 cdbf 3cfc d600 c2ed 923f
00000640: 2309 fb91 6184 733f 27eb 3c62 233f bc3f
00000650: ead5 d727 ccd4 b3bf 0f98 e285 d479 a8bf
00000660: e44e 893a d7f0 cf3f 8b2a 0642 3499 d1bf
00000670: d79a f952 8c5f bebf 7069 8cdd 007b c5bf
00000680: d6de 0b10 b1c6 d03f 9636 e4a3 8bc7 cd3f
00000690: 3491 218d a4d0 863f e742 6648 15f2 d2bf
000006a0: 2d70 145f ad2c c4bf f5d6 3c65 7473 d23f
000006b0: 1d7a 924c ab26 c73f 2cc0 8941 b99c d13f
000006c0: 722e 7eb7 c543 e03f 1992 0ada 8f55 983f
000006d0: d9c3 2e56 5f03 d0bf 5046 6399 cdce d5bf
000006e0: 336d 92d1 41d1 bc3f 9fb3 5e5b ca07 c63f
000006f0: 092f d740 730f c83f a919 840b 610c 94bf
00000700: 52d0 f176 49d3 cfbf 56a0 c2d9 cb64 debf
00000710: 2d33 def0 c726 bdbf a6ac ac6b 2027 b9bf
00000720: 0031 e68c a3a8 d7bf a7df 4bdb 1cd3 d13f
00000730: 142b af99 d1d7 c5bf d8a0 63fe b956 b23f
00000740: a9dd a20e 7160 583f b3f4 83c4 9974 913f
00000750: 92fe 3671 3c4c 9ebf 3609 fb30 5fd4 c7bf
00000760: 493f 95c0 253a b2bf bd04 e047 082b d93f
00000770: f66f a122 7a59 c9bf 0864 0c25 c4d6 d2bf
00000780: 628f fdda f53a c5bf 315d 0b35 1d94 abbf
00000790: 561e f340 0887 b7bf 6192 1697 2b1b a93f
000007a0: ea6a 1f63 0712 72bf a834 2311 8e86 c63f
000007b0: 7f3f 88f8 f3b4 d5bf 5303 d9bb 7546 ca3f
000007c0: 5566 99b2 a96f d6bf 92cc a69f c46e 6bbf
000007d0: f20c 3618 0554 d13f 27d1 3cbc 7878 9fbf
000007e0: 9f92 f632 4aaf b33f d3cf 89fd 0981 d03f
000007f0: 8baf 3db2 c5e9 c23f e9f1 4e2b 04b7 c8bf

bias f8 [60]
0.05672675612175606 0.18396586559403566 -0.2159146887958526 0.2694150913133702 0.3269169019440635 0.2054050724939443 0.17166234274440553 0.24946002132680903
0.16433670354539254 -0.019225039756621792 -0.2505029822404117 -0.11912039070076812 0.12880682783047395 0.2796453988852182 0.2198480654493938 0.34239345162349183
-0.1644787421782678 -0.10050633633227245 0.17712592841584204 0.049041704966941706 -0.37166608373002546 -0.19942249277756 -0.1782473514111953 0.09510178733074746
0.1613203076899789 0.22157569313681347 0.04382046520209976 -0.053843138078419416 0.06622502392193613 0.10163634507334825 -0.1679572461179848 -0.03459217699896622
-0.08129522308199105 0.012983886079271093 0.3223767079116003 0.18821347004965597 0.11686498026690886 -0.052022734924999085 0.26386066674278014 -0.13258400058571262
0.2038967692385893 0.07765104865453558 -0.05425500546665026 0.07957506933480427 0.062151084449216666 0.14869354961307557 0.059542666806661274 -0.07108939605836058
0.1416492595455353 -0.02950222695658946 0.07648448938717241 0.24210084661198952 -0.018636305654751713 -0.20160761065144495 -0.08615404206592901 -0.17436007046479712
-0.2647204120538256 0.016587710592017406 -0.19743121897922516 0.016290858272975828
00000000: b3c4 b314 4a0b ad3f 6e42 2788 318c c73f
00000010: 9356 8daf 17a3 cbbf 8958 8fcb 183e d13f
00000020: 4500 97de 34ec d43f caa1 65a2 b64a ca3f
00000030: 195f 051a 08f9 c53f a909 a154 4eee cf3f
00000040: ac44 a12f fc08 c53f 3872 1394 baaf 93bf
00000050: 7079 11a9 3d08 d0bf f3b6 5886 ac7e bebf
00000060: 1146 84fc bd7c c03f ba16 acd0 b5e5 d13f
00000070: 73d5 983d fb23 cc3f df98 4539 c6e9 d53f
00000080: f67c 45b1 a30d c5bf bf7f 9683 c8ba b9bf
00000090: 3beb e8fa 0fac c63f 8f39 f28d fe1b a93f
000000a0: 69c8 a98a 60c9 d7bf 5580 481e ad86 c9bf
000000b0: 2871 7428 cfd0 c6bf e76f 603a 9758 b83f
000000c0: 56c4 dad2 24a6 c43f 043a cea1 975c cc3f
000000d0: 4986 e0d1 a26f a63f 7b57 52ea 5391 abbf
000000e0: 9ce9 eb87 1ff4 b03f e5cc 2cea d604 ba3f
000000f0: d8fa 997f 9f7f c5bf d0e5 d0d9 10b6 a1bf
00000100: 044b 7584 c3cf b4bf 2205 afb0 4b97 8a3f
00000110: e93c 5eea d1a1 d43f 55d5 4305 6117 c83f
00000120: 7247 4b04 ddea bd3f 7f7d 4d52 b9a2 aabf
00000130: 8d1a 97d9 17e3 d03f 8886 3e35 83f8 c0bf
00000140: f6e4 d111 4a19 ca3f 6ba9 786a f0e0 b33f
00000150: cb43 3fe4 4fc7 abbf deb2 5e20 085f b43f
00000160: 8d9a 3d56 44d2 af3f 9c6e 5be6 6308 c33f
00000170: aa6e 4d5d 607c ae3f a5bd 2927 ea32 b2bf
00000180: 9c16 a01c 9021 c23f 063a c0ef d435 9ebf
00000190: c5b4 91cc 7c94 b33f ed25 4419 29fd ce3f
000001a0: 9fbf 384d 6515 93bf 3cb3 2f37 47ce c9bf
000001b0: 3f64 17f9 300e b6bf 8ef1 2f48 6e51 c6bf
000001c0: 75b5 16e2 2df1 d0bf ce6c 086a 5efc 903f
000001d0: ead2 5c1a 6d45 c9bf e059 06fe 8cae 903f

weight f8 [60, 60]
-0.04260540721637816 0.07343033023239239 0.0746264022906031 -0.17093446463205805 -0.0963286605916165 0.13341207052377307 0.05099728305208205 -0.10111187088250047
-0.20084669611703757 0.05905399247163442 -0.026180304926472393 0.09160062611912555 -0.11202767386415789 -0.2518066325746657 -0.0455462366417526 0.15862662930344623
-0.037365893613334894 -0.01097244366323547 -0.06466723582935997 -0.02661276424555935 0.1332919565238562 0.15228154407997951 -0.17137725214713417 -0.03424452242419561
-0.04293368799769655 -0.027779134023665705 -0.058869268502880504 -0.08745785819352213 -3.697024554930043e-05 0.08226441418579312 -0.024514673120912503 0.08524278334204416
-0.011025795333919865 -0.16175442214647007 -0.2127110891288422 -0.06613995080457376 -0.06640626919680989 0.06471902307763303 -0.027306191999485047 0.04568200643962273
-0.06766474337446343 0.0816063520992739 -0.044925904882563567 0.0695041926569513 0.007822322625968653 -0.10632488692790092 0.10493698258625671 0.13859808896195472
-0.1558726022910867 -0.124176939226841 0.17856097757518763 0.16435136094281882 0.048152813427871075 -0.01540063796607192 0.08037560099006458 0.08613547949094402
0.12380622351286343 0.01861099888081473 -0.02451577224927048 -0.2483115377857586 0.041070845331119765 0.0800246618238853 -0.13982734878695932 0.030898688053226476
-0.11055186187854402 -0.07033949776503094 0.00812613635081314 0.08437596983502585 -0.0040573191232589605 0.10792634266801364 0.15313896194662188 -0.09344608955108266
-0.10249355647193432 -0.026276222818463722 0.010070509697827761 0.038098567651961464 -0.12164253283768432 0.04473828801090295 -0.05214248122835307 0.14129647911368695
-0.005784104584861002 -0.07401009057317653 0.14756686314327688 0.10676377568776863 0.08153915721077998 0.006893825405584034 0.10872463317439134 0.026944534997462743
-0.22112227023691636 -0.1411861061529424 0.08863600230275226 0.10005806362980962 -0.02334950119136322 0.015151562479064459 -0.11292608011886503 -0.031585821434295794
0.04919026604511919 0.08743904061570153 -0.06360012050012338 -0.063643829236362 -0.04103334223522668 -0.11734879712562848 0.10846543492052096 0.07151892446233354
-0.07669428130925367 0.007053305455331609 -0.07842797942654936 0.12727811188061458 -0.07270676492817758 -0.030873377115994555 0.1392806135482894 -0.02183588778200881
0.08173381761562337 -0.03665319152115902 0.1527299267705752 0.005029384930016981 0.09879687011733725 -0.012597571146892037 0.09185499733958598 0.04619946408454712
0.13079875033503885 -0.03211718216532463 -0.09512026487817359 -0.05920267334642338 0.05047029958194813 0.03766831720286018 0.03093332775259797 -0.0683830255177961
0.03865398838236871 0.03879975694559598 0.038452334201921026 -0.12744810131965337 -0.09911170216874733 0.07957697843257493 -0.012182200467209418 -0.025731002291335667
0.03372844564484858 0.03385541267028929 -0.06257787771135027 -0.03499324510486343 0.034486037192770484 -0.006889731656915701 -0.04071097536570883 0.022263700611415343
0.07456111749758768 0.12091001147578066 -0.008794448839601784 0.11735769612340252 0.09896213712547715 -0.06921234850262643 0.036865191400665416 0.00847174269683051
0.12699255837348752 -0.014749116877817084 -0.04051775886028492 0.08570664991848369 0.1815559493488646 0.044116050936209544 0.034334443722101045 0.08959083310995891
-0.049306760596080385 -0.047502174802185416 -0.04664372418982539 0.03822064650629149 0.0464089894423586 4.506395464404135e-05 0.15924562913415435 0.13979502333848715
-0.030970805508409343 0.12235119508271892 0.015467567810616124 0.004570274317589053 0.08837418812094978 0.20478297735603454 0.08454833137316942 0.0627005887526743
0.008575099581563472 -0.05034021747491873 -0.041295295697484906 -0.024940273546322573 0.07302474431768194 -0.17481127226065651 -0.073613983296744 0.017827612967269646
0.06463376504277474 -0.05915333080046595 0.1204144229059951 -0.06801076979842482 0.04424418191390485 0.08684091867250354 0.06835055898901837 -0.10083396308438503
0.11799147561567558 -0.09584550728376061 -0.11370774419580038 0.002293311975379275 -0.07229945243685341 0.031313982748591096 -0.06353606919722195 0.120371565350973
-0.12840322380131838 0.01188913232696 -0.08233139827679746 -0.015213145742933266 0.03889903564050354 -0.05803137112006625 0.004135348891037939 -0.0379474239173243
0.08814523646966449 -0.00399309977468125 0.08951261955816629 -0.008499073523394086 0.1447505749507275 -0.02041162173292782 -0.0878036024119881 0.09618959397889296
-0.05434799831679545 -0.0399313789007552 -0.017434243211648173 -0.0034272183049007133 -0.23996697262115632 -0.01973920722293874 -0.3859268728591098 0.04325113337553305
0.04227135512468791 -0.14868656554051807 -0.26251502922708153 -0.16182336891742036 0.07652985089538199 0.18551371519850499 0.01341348304910359 -0.17365242720933477
0.04860301941469542 0.038996597357433965 0.03817220620315427 -0.25803086736140457 -0.07394497831314177 0.07395238557911035 -0.09165907353856947 -0.04798371824919622
0.15512531618137837 -0.03290775363792709 0.05585315469134257 -0.047073644342154095 0.0509349660053936 0.0338909530068206 0.11172494593679971 0.03906749360454717
-0.03753012165989036 0.07415887485888698 -0.07643197887110838 -0.18428348283685425 0.10214373003990238 0.15682841187607516 -0.024237813142321995 -0.011795980051928563
00000000: 1e14 413d 60d0 a5bf 6df2 e182 54cc b23f
00000010: 8e9b 4145 b71a b33f 7f4e ad37 2ee1 c5bf
00000020: f191 e8be fea8 b8bf b647 e58f a513 c13f
00000030: 0e7f c9dd 501c aa3f ad7e adb2 77e2 b9bf
00000040: ad89 aa33 58b5 c9bf 1b51 ba2c 533c ae3f
00000050: c282 d585 02cf 9abf 5f8a 797d 2373 b73f
00000060: cf56 7e7b d8ad bcbf afbd f490 991d d0bf
00000070: ae16 aa19 d651 a7bf b206 919c e04d c43f
00000080: 9434 1c56 9f21 a3bf 83c1 8675 b878 86bf
00000090: 9983 022f 088e b0bf fd03 5d60 6040 9bbf
000000a0: 197f 0bf9 b50f c13f 7ccf cd2d f67d c33f
000000b0: 6809 a096 b0ef c5bf fe13 c27f 7f88 a1bf
000000c0: 6a8c b183 67fb a5bf fc45 9220 2272 9cbf
000000d0: 4a2b ebdd 1c24 aebf 7f29 b860 a363 b6bf
000000e0: 05d0 e7f6 0f62 03bf e175 8dd8 470f b53f
000000f0: c448 4edd 5f1a 99bf 6091 ac96 78d2 b53f
00000100: 6efc f832 b194 86bf a41d 8d70 5eb4 c4bf
00000110: 9107 a7f1 1d3a cbbf 5529 aa3d 8cee b0bf
00000120: 9e1d 7352 0000 b1bf 2a29 8c07 6d91 b03f
00000130: 05df 7686 27f6 9bbf b101 59c7 a163 a73f
00000140: 9cb3 e203 7a52 b1bf b788 6965 27e4 b43f
00000150: 7479 6d38 8700 a7bf 5180 65da 06cb b13f
00000160: 1dbe db5e 2605 803f 0b32 1b98 1b38 bbbf
00000170: 1f51 596c 26dd ba3f d199 b009 95bd c13f
00000180: 7d60 9728 a2f3 c3bf 9e8b e554 0fca bfbf
00000190: f47b 830b 16db c63f 46b8 2624 7709 c53f
000001a0: 2625 c44d 7ca7 a83f b5ea 36a3 5e8a 8fbf
000001b0: 680f a6d1 7e93 b43f a85a 708b f90c b63f
000001c0: 816d 07c1 c3b1 bf3f 7ced 27fe c20e 933f
000001d0: 9fec 2fa0 a91a 99bf ca30 0127 acc8 cfbf
000001e0: c84f 08e3 3c07 a53f 3d34 6809 7f7c b43f
000001f0: 132d 10d1 dce5 c1bf fd2e b6da e7a3 9f3f
00000200: d6be 4777 204d bcbf 5393 84f2 c401 b2bf
00000210: f3e5 f48e 6fa4 803f ea7c 02df a999 b53f
00000220: 3ef0 194f 689e 70bf 6bd1 2290 0fa1 bb3f
00000230: b7ed a6b8 0e9a c33f de9c 8f3a 15ec b7bf
00000240: 0502 1989 043d babf 56bc ab76 27e8 9abf
00000250: 0924 73ee d89f 843f 69e2 2dcc a781 a33f
00000260: 6728 570c f723 bfbf 0f8f c5d7 efe7 a63f
00000270: ff54 3757 6bb2 aabf 5da7 6ac6 0016 c23f
00000280: fc3b 75c0 12b1 77bf 68f6 9546 53f2 b2bf
00000290: 363b 9691 78e3 c23f 60f8 f9ec de54 bb3f
000002a0: d04e 900d c0df b43f 84c1 942a b33c 7c3f
000002b0: 6bec c0a7 60d5 bb3f 20e9 7a22 5997 9b3f
000002c0: b5db 8a0b bc4d ccbf d5c9 49e6 6212 c2bf
000002d0: d874 235b d9b0 b63f 00ba fdbe 679d b93f
000002e0: 96b1 fa7f eee8 97bf bea5 a54a c807 8f3f
000002f0: 35db f93c b9e8 bcbf b2ba 274c 042c a0bf
00000300: cb01 e46f 772f a93f b18a d6ab 6762 b63f
00000310: 25d7 91f5 1848 b0bf f691 2945 f64a b0bf
00000320: 9d49 e47d 5202 a5bf c627 e11d 920a bebf
00000330: d0e4 ba07 64c4 bb3f 805e 9c71 104f b23f
00000340: ad72 0386 3ca2 b3bf b949 2644 ede3 7c3f
00000350: ca77 ba26 db13 b4bf 210e 0330 a64a c03f
00000360: ed81 9019 e99c b2bf 78ff 1e44 459d 9fbf
00000370: 520f 1478 f2d3 c13f b685 9c9f 255c 96bf
00000380: 98e6 a2e9 81ec b43f e63a c105 35c4 a2bf
00000390: edcf 4c7c a78c c33f 44d7 b13c b199 743f
000003a0: 35e3 196e c04a b93f 25f2 ad60 c1cc 89bf
000003b0: 5535 8c21 cf83 b73f 61f5 abc6 74a7 a73f
000003c0: fcf8 8571 03be c03f 4b59 14ce a971 a0bf
000003d0: 57af d63a cd59 b8bf 31a2 b713 d04f aebf
000003e0: 5d61 3f3c 3ed7 a93f 5899 f6fc 4249 a33f
000003f0: 6926 377c fcac 9f3f da51 33ca 8c81 b1bf
00000400: 67aa ec9f 74ca a33f 7c21 59ce 8fdd a33f
00000410: 2a48 b43b 06b0 a33f 6177 8d29 3850 c0bf
00000420: a135 776f 625f b9bf 67e5 e127 285f b43f
00000430: 82c2 cc44 fbf2 88bf 2c9e 5655 3a59 9abf
00000440: c3a4 fad5 da44 a13f a746 6c24 7f55 a13f
00000450: 992c 3992 1a05 b0bf 6cd3 9c76 a2ea a1bf
00000460: c7bb d263 27a8 a13f 4390 5042 6838 7cbf
00000470: f765 91a7 11d8 a4bf 9b4c 0ea8 4bcc 963f
00000480: fa91 34f9 6f16 b33f 8326 0c61 f5f3 be3f
00000490: be2f 38f1 d202 82bf f8ae c86a 270b be3f
000004a0: 6d06 7f26 9555 b93f 9552 4c85 e6b7 b1bf
000004b0: 5970 da8e fedf a23f 4e88 950e a259 813f
000004c0: 0356 86ca 4a41 c03f 75b2 14f5 c834 8ebf
000004d0: 599d 6c62 bebe a4bf 8b19 73fa def0 b53f
000004e0: 5a7e 6cb0 393d c73f 64d7 ff07 6196 a63f
000004f0: 7157 d3c1 4894 a13f f489 3ac2 6cef b63f
00000500: 3cb7 7658 bc3e a9bf 4d4d 877e 3452 a8bf
00000510: bafa eaab afe1 a7bf 3a91 8d15 a891 a33f
00000520: ef69 ca47 ebc2 a73f 6e5f ffb0 61a0 073f
00000530: eec0 9428 2962 c43f 24f1 b0a6 cde4 c13f
00000540: 1b57 2893 cfb6 9fbf 3dbd 816d 6852 bf3f
00000550: 547d 29cf 75ad 8f3f 020b a5ab 47b8 723f
00000560: 793f cad7 b09f b63f 4fc6 421f 5436 ca3f
00000570: b0db 2d9e f5a4 b53f 6bf7 2152 250d b03f
00000580: 1321 1a62 d28f 813f 37e4 7467 31c6 a9bf
00000590: 6faa ff30 a824 a5bf 2562 f06c f189 99bf
000005a0: 22a9 a4e8 bfb1 b23f 3874 aa3c 3760 c6bf
000005b0: a3ad c9b2 5dd8 b2bf 4003 a4da 6641 923f
000005c0: 0879 13a3 d68b b03f c495 796a 5849 aebf
000005d0: 0e14 59c8 7ad3 be3f 6a5d 0f60 2769 b1bf
000005e0: ca8c b764 2ca7 a63f e82a a7d9 343b b63f
000005f0: 446a 8517 6c7f b13f 6c04 c62d 41d0 b9bf
00000600: 38e2 f978 b034 be3f 8795 40c7 5489 b8bf
00000610: 2476 9f62 f31b bdbf cc84 e17d 6cc9 623f
00000620: 7f28 bc87 3782 b2bf 201b a0e7 6208 a03f
00000630: ad86 515b e643 b0bf 55fe 8cc0 abd0 be3f
00000640: 9fbc 764f 846f c0bf c947 2d54 5459 883f
00000650: 4f65 08a7 ab13 b5bf a73f 7bdb 1128 8fbf
00000660: 6c03 d80b 93ea a33f 2a98 34b2 49b6 adbf
00000670: 75b5 e943 3af0 703f 7f7c 6241 d86d a3bf
00000680: 1476 efab af90 b63f b01b 128f 115b 70bf
00000690: abe4 948d 4cea b63f 075c a256 f667 81bf
000006a0: 0bcb bed4 2f87 c23f 507a 34bf c8e6 94bf
000006b0: 0d9a d400 4c7a b6bf 5ad8 5a98 e19f b83f
000006c0: 8b55 bf36 80d3 abbf e704 edbc e271 a4bf
000006d0: 54ba b241 48da 91bf 6448 25d1 6513 6cbf
000006e0: 4d95 c3dd 3cb7 cebf facd e2c5 8336 94bf
000006f0: 8ff4 64a0 06b3 d8bf 49c7 b936 0325 a63f
00000700: cce2 a24f 97a4 a53f 60f0 2c50 2908 c3bf
00000710: 7d48 4fd6 0bcd d0bf 654b 9dce a0b6 c4bf
00000720: 9f6f c3d6 7597 b33f 3b57 ded5 e9be c73f
00000730: b2b9 2b38 8778 8b3f 3218 de23 3e3a c6bf
00000740: e9f5 beb5 7ee2 a83f 1c65 9cac 5cf7 a33f
00000750: 6a76 84b2 4e8b a33f 6e3f 2be6 9383 d0bf
00000760: 8bf1 8edf 0eee b2bf 8a01 8625 8bee b23f
00000770: 26d5 3a13 f876 b7bf 5fd6 3d69 5291 a8bf
00000780: 50ed e377 25db c33f 11c7 51fb 48d9 a0bf
00000790: a234 8ee1 c898 ac3f 0efb e765 091a a8bf
000007a0: 709c 6eda 2514 aa3f 88d1 96ad 275a a13f
000007b0: 0028 f28c 019a bc3f 3c87 bc8e a700 a43f
000007c0: 73cb 49ea 2537 a3bf aa21 3a76 13fc b23f
000007d0: 95b6 9ed1 0b91 b3bf 1017 fde5 9996 c7bf
000007e0: 0e49 036c 1726 ba3f b6b1 0b12 f412 c43f
000007f0: 4361 171b ccd1 98bf a4df 60a4 7d28 88bf

bias f8 [60]
-0.053756716835211514 0.11525912767501716 0.12480460562752073 -0.10315876104601647 -0.04602793757624727 0.08877038243615457 -0.09766400043784132 0.016101801706031538
-0.0668264214598486 -0.13566464001481882 0.03931802218207775 0.11670177257490291 0.061090321344460775 -0.09707546660119624 0.09648123593560007 0.01806999738732675
-0.028392467851721115 0.0241784869014923 0.040885492942730584 -0.08238754068820382 -0.08492904817731624 0.08589118457404331 0.09298387880373994 -0.04273262804046048
0.13695280168192212 0.11308721327395663 0.06989521142933851 0.04528832928131601 0.14856635922392564 0.062219400845585346 0.06759332470119701 -0.008088480001619302
-0.03248069352198762 0.005544396265003947 -0.0800319926154636 0.0035708958159542553 -0.0588795774859654 0.11805721102695925 -0.019327454853143106 -0.1102192403018501
0.10707666430271452 -0.06905882544464724 0.02872629340994595 0.0297948524158183 0.060606119941715844 0.08146142676233921 -0.0551594434488518 -0.09197319488337383
0.12325060049016623 0.11090754496921788 -0.12170640429265894 0.10696206188201123 0.010609722570869033 -0.07839220650210374 0.1431393727184861 0.0002635115213226303
0.06917324212426094 0.12442500458694351 0.1289509356735385 -0.04939338320340157
00000000: fbc0 7e19 0086 abbf fbff ed47 9f81 bd3f
00000010: 0175 8fd3 31f3 bf3f 9d0f fdd0 9c68 babf
00000020: 7543 2f4d f990 a7bf a2ac 6ae1 a7b9 b63f
00000030: e286 e007 8200 b9bf 50b3 ef9e fd7c 903f
00000040: 5ec3 ad4e 891b b1bf 542b 0b7c 755d c1bf
00000050: c8b2 d4e6 7d21 a43f 122d 98d8 2ae0 bd3f
00000060: 2d9d 8d08 3b47 af3f c7cb 4b12 f0d9 b8bf
00000070: 5664 0589 feb2 b83f a6fd 44ff f080 923f
00000080: 00e5 8043 ea12 9dbf c9e1 08ca 3ec2 983f
00000090: 90c5 237e f1ee a43f 658c da90 5917 b5bf
000000a0: 45e8 66fc e8bd b5bf 7f9d c2f4 f6fc b53f
000000b0: 296d 849e cacd b73f 7ad3 cf0f 0de1 a5bf
000000c0: 0fe3 285e ab87 c13f ee7f 9b9a 48f3 bc3f
000000d0: 6f6b 3c0f a7e4 b13f e3b5 4e2a 0830 a73f
000000e0: b686 13f3 3804 c33f 36f4 9da7 38db af3f
000000f0: 3d01 05cf cb4d b13f 3383 a668 b190 80bf
00000100: d74e db38 4fa1 a0bf 25ea 258a b8b5 763f
00000110: 03c9 ea06 fa7c b4bf e5fc e617 b640 6d3f
00000120: c1b6 68c7 7625 aebf 5bf2 6a54 ff38 be3f
00000130: d862 098a 93ca 93bf 7485 7c00 5437 bcbf
00000140: 4d4d 5853 6069 bb3f 57f1 c8d4 d6ad b1bf
00000150: 0790 ecea 6c6a 9d3f 8e3f dcb2 8a82 9e3f
00000160: 629b 2cee c307 af3f 3d6a d4f3 a7da b43f
00000170: 9d54 5bcb db3d acbf 46fa 2128 8e8b b7bf
00000180: e84f 51f2 598d bf3f a3be 85d6 6f64 bc3f
00000190: dc95 26a2 2628 bfbf db2a b29d dd61 bb3f
000001a0: 0f2f b1db 8cba 853f 9614 30fb 8211 b4bf
000001b0: e444 4c16 6452 c23f e346 bf5d fd44 313f
000001c0: eb96 ae6c 56b5 b13f 316d 812d 51da bf3f
000001d0: 46d3 c0d9 7681 c03f eeab feea 164a a9bf

weight f8 [60, 60]
-0.08441390023276231 -0.0774210162192339 -0.011750610666918123 0.06862467069437753 0.10391425168043616 0.17133610240944086 -0.13640285131058655 -0.09338012632124795
-0.12667776247814347 0.15649974878725093 -0.1118683577275316 -0.09719272686088551 -0.11960445400363799 0.15473425179085656 -0.041195403949249386 0.013713558554607555
0.12848031101290974 0.231409202491803 0.06512705024664277 -0.19989112949071194 0.030404850789276707 0.07116140247574369 -0.11709553976705257 0.030794436697208088
0.044433418776308985 -0.16960602695808719 -0.0666230045159493 0.06729106664588486 -0.048036227888415245 0.07342502773138633 0.1693032039174243 0.16274153456341614
0.12371959024901705 0.054323828903621856 -0.07066245079738673 0.03179162290629654 -0.061898625743948964 0.13802322992511834 -0.08039971271610594 0.04412423378028127
-0.013445842377837492 -0.15685174277395228 -0.11427603751034475 0.05798013452130583 0.12090742683541547 -0.03526823342759845 0.1646785894509807 -0.07121750216407031
0.1295280662432352 -0.10273529517431101 -0.12593668072819378 0.011187326928047315 -0.03452765133999532 0.07411659511802003 0.0832236105859936 0.06592475360804882
-0.15090102966203778 0.030514475676025984 0.09979561301216136 -0.17610927226625753 0.03713773422917372 0.10502772083173278 -0.015007800883236489 -0.09297887402750273
0.06508924429844203 -0.08687099021982891 0.07214262339299868 -0.08734231091291751 -0.05780325918158921 0.08205850896519648 0.08823234945204789 0.026962962132934507
0.1035788917676276 -0.17809436407969967 0.15796168951925504 -0.11025996798768863 0.051991016672130956 -0.016985459335623312 -0.1850016723476829 0.18615895586366296
0.015993792499017535 0.12533444402317606 0.14541889062369684 -0.021450317911447667 -0.1293213918689074 -0.08126971129385474 0.15245126894673644 -0.04562272746241329
0.06880074535312118 -0.10618057613374475 -0.04243714439963594 -0.04276760965372744 -0.06625591063889591 -0.011365437124891664 0.10664288714364303 0.054597088108111626
-0.03997113115487913 0.0921138196682504 0.14524440492228344 -0.032357562109379005 0.09243544301949065 -0.0761966142761434 0.07217178329144039 -0.07235291712865115
0.10822076380865175 -0.10553216765432227 -0.1555350811767873 -0.07057473536503729 0.04018242506521348 -0.11047279384182791 0.09769947138425662 -0.005433350715494184
0.033580403607756715 -0.04140919902750034 0.006598963003320645 -0.10294905651438896 -0.030616563022683247 0.10463458071122113 0.051857020408924676 0.001266226885274139
-0.09762980399763607 0.08467211011410553 0.010303389361484366 -0.23043768378474142 -0.04303823495014605 0.02913019713185236 -0.0007651997881575059 0.058488181883515795
0.08768429155977983 -0.07666277197949052 0.11191761706969286 0.09189686074699124 -0.058027941786388725 -0.021184101191157545 -0.04478948875700517 -0.21886137074119458
-0.006444107306368414 0.09227566833352654 0.10211441855382758 0.0020873847898025726 -0.10304586974791849 0.029344620091818555 -0.05224444959080934 0.08234066315293345
-0.02233047997868806 -0.017882661826288945 -0.05349878565840294 0.12335885910241601 0.008000336159222271 0.1227896357632737 -0.1117010392980863 0.15567552861411818
-0.2296195550165419 0.126300319594717 0.12342546067666745 -0.008674102605790641 0.1261915871781118 -0.18661031977472353 0.18698238522826058 -0.05799607592866151
0.02315565312828337 -0.033988017317839715 -0.10245128716416504 -0.030375728805358805 -0.054182597475365205 -0.10349401542765274 0.014616891132916785 -0.11405866593056808
-0.1493426649886013 0.010589013345312728 0.03439182903210889 -0.046654128924001316 -0.06800868299438868 -0.12063587880851427 0.1656296070906076 -0.05521561863496781
0.1061683570418227 0.10281707580920477 -0.23654276974150987 0.024506580920822675 0.11910806285248954 0.09847968645165617 -0.07922292719874312 0.09045261560601865
0.23187658637199138 -0.014807414048616394 -0.07698706299060984 -0.24138977193832767 -0.06158585397035496 0.14073749270993455 -0.10729557964557797 -0.09643007775397953
-0.06598222648261146 0.048033095585547386 0.08044536642976668 0.049493657527447145 0.14944430299099987 -0.012978323462372949 0.051426582184196955 0.03688753389804803
0.08146570869382065 0.00038153601493235237 0.10170245861404559 0.06385730304083163 -0.015988876606454604 -0.023256793196830643 -0.15837295873594615 -0.15749575766023857
-0.00040801194437181746 -0.08170133484234271 0.13556469952093275 0.07248018682826562 0.13397259079516632 -0.013749435010319186 -0.03822248472255139 0.10958939380944634
0.15916323693547796 -0.061559546124781976 -0.1343860314011239 0.05051435666928506 0.0549618646372274 -0.031841869794646656 0.04380452184717034 0.03285557428818992
0.13496456616020183 0.005104640105435049 -0.048770811091624754 0.1214107082814309 0.09026238558685233 0.14919142230573942 0.013879392073471506 0.12288921089757567
0.08770569258069971 0.09700766788449484 0.00807697441101951 0.12317488669246775 -0.1265725271259409 0.1434873247595869 0.03354682394019225 -0.011874404767564526
0.0650014032020386 -0.1533780249744637 -0.09493202535104349 -0.21600144417782993 0.06295863709872741 0.021390551410733007 -0.05977932795279638 0.09154349321955153
0.13338131149861832 0.053639155865914896 -0.04025659875656305 0.03496615458467024 -0.005938557769028932 -0.06436960669762579 -0.11141523451476383 0.03594813995885227
00000000: 69d8 d33c 269c b5bf 2f48 af1c ddd1 b3bf
00000010: 1ef6 2d44 b410 88bf 5ac4 54ec 6291 b13f
00000020: 0448 8ed8 1f9a ba3f f87f 3c66 57ee c53f
00000030: 36e5 ba0c a675 c1bf 6267 a58c c2e7 b7bf
00000040: b9ae 7c17 fa36 c0bf 7ccd 6f0b 2f08 c43f
00000050: 4ba0 e599 67a3 bcbf e6cc 465f 9fe1 b8bf
00000060: bbcc 66c2 659e bebf 11a2 81fb 54ce c33f
00000070: 1342 6a61 9017 a5bf 08d3 07ac da15 8c3f
00000080: 4e7c fdf6 0a72 c03f dd0d 5916 d19e cd3f
00000090: 7fef e496 2aac b03f 6f28 f653 0896 c9bf
000000a0: 876a 1eff 7222 9f3f 93ed 5e38 a237 b23f
000000b0: d194 ce29 f9f9 bdbf ab91 0daa 9388 9f3f
000000c0: cbc8 fc20 fabf a63f 3ea7 7e79 a6b5 c5bf
000000d0: c2a8 8e89 340e b1bf a499 8ec2 fc39 b13f
000000e0: e49e 9b57 3498 a8bf 3d6f d08c fbcb b23f
000000f0: 3978 f735 baab c53f fd4a 53f0 b6d4 c43f
00000100: fa79 fe49 16ac bf3f 3fb1 1139 55d0 ab3f
00000110: 4ee0 3a33 ef16 b2bf 8eaf 56d9 fd46 a03f
00000120: 4ba7 793a 2db1 afbf 1aef 4ec5 beaa c13f
00000130: 5a35 b958 1395 b4bf 6c40 189a 7397 a63f
00000140: ad67 3d6a 7e89 8bbf 0372 c4c8 b713 c4bf
00000150: 57ca d2c3 3141 bdbf 8562 2c7b 92af ad3f
00000160: ea03 1a04 caf3 be3f 8286 518a ad0e a2bf
00000170: 3d8d 0522 3014 c53f c98e b26a 4f3b b2bf
00000180: 78e3 362c 6094 c03f 9027 eb3c dc4c babf
00000190: d514 8c72 b11e c0bf e7f4 489a 61e9 863f
000001a0: ab3d a0ba 9bad a1bf cf6d 1f20 4ef9 b23f
000001b0: 41cd b87d 244e b53f 4751 bed4 71e0 b03f
000001c0: 0c64 aa95 b950 c3bf 2c1d 55cc 2f3f 9f3f
000001d0: c2e7 2b8e 348c b93f b5f5 73a6 bf8a c6bf
000001e0: 6976 ec93 b703 a33f 444d 25c2 18e3 ba3f
000001f0: 3ab9 d3ef 68bc 8ebf 59c2 2aa7 76cd b7bf
00000200: 2b4a 954f b0a9 b03f f81d f75d 2d3d b6bf
00000210: eedd 1e60 f077 b23f 5594 edd0 105c b6bf
00000220: ac03 9387 6398 adbf d631 5d54 c901 b53f
00000230: a485 582f 6596 b63f 29c8 41c2 2d9c 9b3f
00000240: 8aa8 b270 2584 ba3f 4780 a9ce cbcb c6bf
00000250: 18c8 40b1 1638 c43f 55ac 904c ff39 bcbf
00000260: c7ce 9508 919e aa3f 7789 6ae1 a264 91bf
00000270: 3a24 3882 22ae c7bf 495e a581 0ed4 c73f
00000280: 1aa0 e33e ad60 903f 4029 1285 f50a c03f
00000290: 4085 b911 169d c23f 9983 ac77 12f7 95bf
000002a0: 2a05 6076 9a8d c0bf 8097 2980 17ce b4bf
000002b0: 4c12 2eef 8583 c33f c68e cfb4 dc5b a7bf
000002c0: 8f69 3bf7 ec9c b13f d701 f775 a62e bbbf
000002d0: 8b04 aa46 52ba a5bf b7ea 94d9 a2e5 a5bf
000002e0: 885a 5cb9 25f6 b0bf 739a 0c26 c346 87bf
000002f0: 0a0a a2c0 f24c bb3f b528 c347 26f4 ab3f
00000300: 5c4c 309a 1877 a4bf 591a fc72 c594 b73f
00000310: 69ba 8860 5e97 c23f 1f7e 139e 2b91 a0bf
00000320: 4d8e c264 d9a9 b73f 4dc8 610e 9f81 b3bf
00000330: b244 ee98 d979 b23f 1b77 d684 b885 b2bf
00000340: a869 4e21 5bb4 bb3f 6855 c0f8 2704 bbbf
00000350: 197b 84d3 92e8 c3bf 9512 5194 2f11 b2bf
00000360: 4ae1 0e73 ca92 a43f 9dfd a5ec f147 bcbf
00000370: 098f 6e22 d502 b93f d388 17fa 4741 76bf
00000380: 8047 905e 7331 a13f 2841 2727 9633 a5bf
00000390: 8ca2 96a4 8307 7b3f a423 e28e de5a babf
000003a0: 65e8 97c3 f259 9fbf 3974 2ff6 54c9 ba3f
000003b0: 2cdc 72dd 008d aa3f 77bc f0c3 f0be 543f
000003c0: 86e4 484f 44fe b8bf f4c9 d247 12ad b53f
000003d0: 10a5 c382 f119 853f cd8b cf65 fb7e cdbf
000003e0: 3348 2d87 1b09 a6bf d883 0770 4ed4 9d3f
000003f0: 0251 5308 f612 49bf 71ce c8b8 29f2 ad3f
00000400: 6647 9f4c 7a72 b63f 6dfd 78e2 2ba0 b3bf
00000410: ea1b 2909 a2a6 bc3f c26d 837b 8d86 b73f
00000420: 2316 74a0 d6b5 adbf 00a5 3ef7 48b1 95bf
00000430: 70f0 d4da a5ee a6bf ff77 d83e a603 ccbf
00000440: 48d0 1fe2 2265 7abf 9a83 b5d1 609f b73f
00000450: cc84 23a8 2b24 ba3f 6afb 002d 9019 613f
00000460: a620 8ed0 3661 babf b47e 6e1e 840c 9e3f
00000470: 33b4 c7d4 c8bf aabf ea6f 5f17 4714 b53f
00000480: f88b d924 cddd 96bf df5c d61e d54f 92bf
00000490: b19e 8e5d 3164 abbf a449 8439 7294 bf3f
000004a0: 1074 49f1 7a62 803f 6619 e43d 246f bf3f
000004b0: e9e8 b676 7098 bcbf fdb2 17fc 2ced c33f
000004c0: 2ab8 a86f 2c64 cdbf b01b 11df 9b2a c03f
000004d0: f59a 199d cf98 bf3f 17b6 1c58 bac3 81bf
000004e0: deeb fac1 0b27 c03f 30a7 43d2 d8e2 c7bf
000004f0: c7e1 bdee 09ef c73f dfe2 d162 a9b1 adbf
00000500: 5c2e 9d93 1db6 973f 9d08 ac9d e066 a1bf
00000510: 169e cd5f 3f3a babf 4aa6 3ea7 d01a 9fbf
00000520: 8a8a 5648 d2bd abbf d4ee 9773 957e babf
00000530: 929f 14eb 75ef 8d3f 2547 ffdf f232 bdbf
00000540: ed02 0313 a91d c3bf cec5 1e50 b1af 853f
00000550: 6d93 e249 ce9b a13f 6d66 e7cb 0ce3 a7bf
00000560: f10f 4e5d 0469 b1bf 13f0 3432 fee1 bebf
00000570: f00b dad8 5933 c53f 0efc 87b8 3845 acbf
00000580: a85b 5d75 d92d bb3f aa25 124a 3852 ba3f
00000590: c790 1292 0847 cebf 7ae9 5dce 4018 993f
000005a0: d82f a4b2 dd7d be3f a054 a1f8 f635 b93f
000005b0: 3778 6929 f447 b4bf 0592 dd11 e727 b73f
000005c0: 5881 96c9 21ae cd3f b8fa 9d78 5953 8ebf
000005d0: b67f c295 6cb5 b3bf ac31 082c dce5 cebf
000005e0: 0cd7 6559 2e88 afbf 794e 41a8 af03 c23f
000005f0: 6547 951d b977 bbbf 23d8 4d3e a4af b8bf
00000600: 4a2e dc10 36e4 b0bf 54c5 543d cb97 a83f
00000610: c43a ee49 1198 b43f bd2e e190 3b57 a93f
00000620: f4bd f5ac fd20 c33f 4a56 9f16 6194 8abf
00000630: f39a 40c1 9554 aa3f 35c5 713f ece2 a23f
00000640: 41de 95ca efda b43f 425c d5b4 1c01 393f
00000650: f08c ab1d 2c09 ba3f 63cf 2bc4 f358 b03f
00000660: 737d 7f58 635f 90bf cbc9 c2f8 a0d0 97bf
00000670: 10bb 2bab 9045 c4bf 6369 342c d228 c4bf
00000680: 0fba 1bf5 4dbd 3abf ecf9 2ff1 60ea b4bf
00000690: d09c 771f 2f5a c13f 100e 09c0 0f8e b23f
000006a0: d847 038c 0326 c13f 2b92 a9ed a928 8cbf
000006b0: 1ddf b5c3 e591 a3bf d168 66ee 0c0e bc3f
000006c0: 2483 ae00 765f c43f 1f9f b99a bb84 afbf
000006d0: 6b1a f4bc 8f33 c1bf 9101 bf8b 04dd a93f
000006e0: 9fc3 4926 f623 ac3f d1af d2da 934d a0bf
000006f0: 6343 80d9 8b6d a63f f93e 1e22 72d2 a03f
00000700: 4d71 e3d6 8446 c13f c799 f864 9ae8 743f
00000710: c39d 46dd 7cf8 a8bf 03f4 73ad c514 bf3f
00000720: 838b 278a 6f1b b73f d3cc d25b b418 c33f
00000730: a5f3 5978 cc6c 8c3f 011a d6d5 aa75 bf3f
00000740: 68a0 4e59 e173 b63f 3d6f 0699 7ed5 b83f
00000750: 4052 9127 a98a 803f 0d5c 08ae 6388 bf3f
00000760: 8bfb 4950 8733 c0bf 87d1 9deb ca5d c23f
00000770: 2e64 6a9f 0c2d a13f 05d9 16a1 9b51 88bf
00000780: c665 f294 eea3 b03f cb5e 9820 e4a1 c3bf
00000790: 5fcc 3918 774d b8bf 5ff7 5071 efa5 cbbf
000007a0: f1fa 56a7 0e1e b03f a790 029b 67e7 953f
000007b0: 0e78 1165 659b aebf 5d21 8af5 646f b73f
000007c0: 2c5f 6489 a312 c13f 4953 7568 9776 ab3f
000007d0: 9e1b 374e 839c a4bf 82ea d074 15e7 a13f
000007e0: dd44 7476 0753 78bf 4e68 9fcb 867a b0bf
000007f0: 6d5f 8474 b585 bcbf b15a f36a cb67 a23f

bias f8 [60]
0.0697157239203447 -0.07287851926242245 -0.001050744281748618 0.0556734544159928 0.0323646685885026 -0.05870863574753875 0.050274477840083154 -0.03584534820852873
0.04964086600019076 -0.024214116964793368 -0.011986906997133175 0.1488585096836639 -0.029890766673426085 -0.028511558965806934 -0.010301911123766007 -0.07382560419883218
-0.008328240450905515 -0.0187818156235675 0.05279029244731385 -0.12656148402021472 0.17882588434689037 -0.04707898195312936 -0.04187588238766775 -0.1127887600408889
-0.0667139286641319 -0.06941494814126202 0.07352021115023101 -0.06845397252179689 -0.03118569917546205 0.024065777607570848 0.16861213883215104 0.00505326214818701
0.08290658832561008 -0.011715779556615322 -0.06939343983261372 -0.014539701505276465 0.07519175433500873 0.11220112699670858 -0.04346504984548796 -0.034860275911767435
0.09427255422766252 -0.11898149024004163 0.1478121653610339 -0.016902656788884793 -0.11643015661229661 0.06813234477877532 0.11009595184615734 0.07815758960872403
0.08171284917629854 -0.0203233614734981 -0.030492441616327637 -0.03700757205373093 0.050557254913403744 0.05281347509025283 -0.07132044173634443 -0.05328202754640711
-0.054128741367891864 -0.07227826040345418 -0.06705167962124062 -0.08349610404156683
00000000: 8c3d 41c2 e3d8 b13f 7421 d0a8 2aa8 b2bf
00000010: 0683 e614 2437 51bf afae f123 3b81 ac3f
00000020: bd59 4412 1a92 a03f b691 0eed 0e0f aebf
00000030: 9813 4b8c 93bd a93f f5e9 894c 525a a2bf
00000040: fb28 0810 876a a93f 4179 dce1 95cb 98bf
00000050: e156 436c 978c 88bf 214c 69af cb0d c33f
00000060: 0a49 4265 af9b 9ebf 02b4 4355 2232 9dbf
00000070: 472a e71a 2b19 85bf 6534 a41b 3ce6 b2bf
00000080: fc7a f582 650e 81bf fd6d 734f 8a3b 93bf
00000090: c508 3747 5407 ab3f 0068 66ad 2a33 c0bf
000000a0: b75d 793e c4e3 c63f f6a4 a27f bc1a a8bf
000000b0: e63d b172 c170 a5bf f964 bb63 b9df bcbf
000000c0: e4d4 ccfd 2914 b1bf 1fc9 1e94 2dc5 b1bf
000000d0: c939 7c76 38d2 b23f aa2c 4315 3386 b1bf
000000e0: d1fa 3ed8 24ef 9fbf 53fb 1bff b2a4 983f
000000f0: ce10 ff22 1595 c53f 731c a2ba bab2 743f
00000100: 0b3f 7bbd 5d39 b53f d2ab 5750 71fe 87bf
00000110: 4155 a3ba c4c3 b1bf aa8c abb3 fdc6 8dbf
00000120: f337 cc4d c43f b33f e773 068b 36b9 bc3f
00000130: 74f4 350f 0d41 a6bf 90ef f0c1 34d9 a1bf
00000140: 5d75 5101 3f22 b83f dd0a 6929 9275 bebf
00000150: 539a 1650 82eb c23f 3cbe 7e18 ee4e 91bf
00000160: 3800 ebe2 5dce bdbf 2be8 9f10 1f71 b13f
00000170: a4ea 9990 3f2f bc3f 9bbc 4dc3 2202 b43f
00000180: fa0b e01e 22eb b43f 7c6c 7eb3 a5cf 94bf
00000190: 70bb 111e 6939 9fbf adab 590f a8f2 a2bf
000001a0: 0972 dbf8 a3e2 a93f 74fb 9928 5e0a ab3f
000001b0: 3f3b cb74 0e42 b2bf f282 8d2b c847 abbf
000001c0: f8c0 e52b c3b6 abbf ff04 a5fc d380 b2bf
000001d0: 1277 1d83 4c2a b1bf 89b2 332c 0060 b5bf
