JupyterLab/traced_model_M2_103.pt (torch, 149082 bytes, 12 tensors)

weight f8 [60, 12]
0	0xbfd2958438c40201	-0.2903757624008279
1	0x3fdadfd5e16398a9	0.41991183291100725
2	0xbfce9f84cbc10f4e	-0.23924312542851073
3	0xbfe200209c80ce63	-0.5625155502988942
4	0xbfdf66bcd9198953	-0.49064561082027075
5	0x3fc08c487da8a344	0.12928110252075886
6	0xbfe30d3230620048	-0.5953608460404292
7	0x3faba5b21dd3f1d0	0.05399853338346683
8	0x3fd64e2f88e7b336	0.34852207536350777
9	0xbfc65fe28a33126c	-0.17480117557547048
10	0x3fbdaebb03adcb49	0.11594742622200473
11	0x3fca5c5bc9b2910a	0.20594355915557855
12	0x3fdffca96ec4dd9a	0.49979625527654437
13	0xbfa43e74d9e15f42	-0.039539004894946675
14	0xbfdccc8a9dc45bf6	-0.4499842205709109
15	0x3fce68d772fcb58a	0.2375745116673154
16	0x3fb25e1125a4a962	0.0717478482153289
17	0x3fb8bb819a5808d6	0.09661111848984957
18	0x3fe2d64e17626eef	0.588660283730375
19	0x3fbd1b7871a97713	0.11370041632605092
20	0x3fd62eb61ea4bf2a	0.34660103790791885
21	0x3fc7bdcbeed254be	0.1854796329613801
22	0xbfe10919853d830f	-0.5323608019208182
23	0xbf89c49429f83f09	-0.012581975489438972
24	0x3fc07f05721930a7	0.12887638159952994
25	0x3feb279971597f23	0.8485839094027806
26	0x3f91a37aebf7083f	0.01722518983093146
27	0xbfcb8959c9e626fc	-0.21512911184645833
28	0x3fd4c55f613b799e	0.3245466661009234
29	0xbfb25440684a6c1f	-0.0715980772605893
30	0x3fa435bba864c336	0.039472450548038315
31	0xbfdc03997ec191c9	-0.4377197015621986
32	0xbfc1c7e49714b9e1	-0.1389127481174475
33	0x3fd460d9c13b799e	0.318411291793291
34	0xbfd52ad8a3ddeb9d	-0.3307401275885072
35	0xbfd6601c78290899	-0.3496161626282031
36	0x3fc839ecc45fe225	0.18926772678948214
37	0x3fe1f8b1f4fb9295	0.5616082939928498
38	0xbfbe76a311b654f3	-0.11899775679042417
39	0x3fcaccb636cbf887	0.2093723075449285
40	0xbfa17174ea0dd185	-0.03406873089889743
41	0x3fcb92b6deb5a376	0.21541486620415257
42	0x3fc45ad5ec5fe20c	0.15902208368039827
43	0x3fdfbdfb76525456	0.49597059779018104
44	0xbfd5b55e761490e2	-0.33919488459856784
45	0xbfb4ffa9c306e91e	-0.08202610980416522
46	0xbfe1408f9e7fdb17	-0.5391309829418302
47	0x3fceba8b39a82189	0.24006786647101944
48	0x3fdb75eb7f3aa3f4	0.42907226013863853
49	0xbfdb60e1ffd6ac86	-0.42778825744853355
50	0x3fe46e7fe0e8e667	0.6384887116211758
51	0x3fd335d477926dac	0.30016051938010935
52	0xbf6799811849a539	-0.00288081373064544
53	0xbfe130f398b9bf06	-0.5372255309029874
54	0x3fd91f76ff3aa3f8	0.3925454609366734
55	0xbf9a512d8eae77ff	-0.025700294335926795
56	0x3fb92a7f8e2816f3	0.0983047220289242
57	0x3f9789771cf6cb41	0.02298532594950165
58	0x3fdf39140209ab69	0.4878587741756549
59	0x3fc13fb8a25b175f	0.13475711753397498
60	0xbfdc96d1c6f8ec80	-0.4467052882279816
61	0x3fb5d742d5109748	0.08531587316300915
62	0xbfca1d17f464600e	-0.20401286538322022
63	0x3fd7bc4fd0873c93	0.3708686386498325
64	0xbfc741e171d2164a	-0.18169801767014554
65	0xbfd77849509f32c2	-0.3667166983912403
66	0xbfd726f786f8ec81	-0.36175335102934275
67	0x3fbb8c5b9ff5f0b3	0.10761044173517824
68	0x3fcb7e636ca52f22	0.2147945671553027
69	0x3fcecbc78e2de993	0.24059385721541257
70	0xbfc06558dcc24e69	-0.12809286860702976
71	0xbfde63637ff66f0b	-0.47481620308256883
72	0xbfc4b59a5ad3ef11	-0.1617920821662371
73	0x3fd456b13cef143a	0.3177912802751198
74	0xbfc0f9aa31d5f10a	-0.13261916573890914
75	0x3fcc83e8c89274ea	0.22277555268821142
76	0x3fcc3252d44d0363	0.22028575292827232
77	0xbfd14cbaadb29cdf	-0.2703081794993078
78	0x3fba41275a58221e	0.10255666690512341
79	0x3f974ecb9cbf64b6	0.022761517946354025
80	0xbfc9606c1e2e767b	-0.19825507615762547
81	0x3fd6c4cb0a26814a	0.35576129904986387
82	0x3fed518c88e6edb6	0.9162047075146151
83	0xbfd130a9bb75546b	-0.2685951548240328
84	0xbfd4eb8b1943ccf1	-0.32687642543096646
85	0xbfc0c0f8fda8dfeb	-0.13088905702329554
86	0xbfc4104906c28635	-0.15674698667594247
87	0x3fca205d6a2172b5	0.20411269838486637
88	0x3fd81c6a529bea85	0.3767343336800553
89	0x3fcaee46d5fe625f	0.21039662789259503
90	0x3fb30eb4daf0cd0f	0.07444315285902213
91	0xbfd3ff5960d8f5c6	-0.3124602742935533
92	0x3febec7738e4e8af	0.8726154433454861
93	0x3fc8ca8c6537d59a	0.19368128721513928
94	0xbfd9793c5f927d37	-0.398024648029565
95	0x3fa60b8c57b614af	0.043056855875911786
96	0x3fb494bf78b97cbd	0.08039471337677902
97	0x3fc6e27e12dc19d5	0.1787870018089978
98	0xbfe66c8cfb163e94	-0.7007508186379305
99	0x3fe1ad8b6c9deb77	0.552434646742184
100	0xbfdfa42e84b7e692	-0.49439585648324524
101	0xbfa1f9d33fad7a8b	-0.0351091399413593
102	0x3fe026b997172f9e	0.5047271681773855
103	0x3fe281dc3de96b42	0.5783520898070054
104	0xbfdb1d8248ff0e6c	-0.4236760819296481
105	0xbfdab69f14b7e699	-0.41739632628705575
106	0x3fce44ad28fd9f26	0.23647083760737891
107	0xbfdeaca29fb1e652	-0.4792868194122991
108	0xbfc9f7ef00033aa5	-0.2028788328229513
109	0x3fdda11abacf359b	0.4629580330191289
110	0x3fdeaeaf23958eb0	0.47941187357921944
111	0xbfe3a07a7a8a7487	-0.613339652383403
112	0xbfae8f1199b6925c	-0.059685277952017585
113	0x3fd8d51b0e87b8bc	0.38800693911515416
114	0x3fa1e12237f316f8	0.03492075856187954
115	0xbfd8f389e8109f40	-0.38986442244139496
116	0xbfed440b7c5d456f	-0.9145562581053762
117	0xbfc426e2866da447	-0.15743667186623808
118	0xbf9af960d4ac4aac	-0.026341927509813942
119	0xbf93123f29da87ac	-0.018624293260138522
120	0xbfe3bc682a1bfa0d	-0.6167488882491071
121	0xbfccc79944f4accb	-0.224841269178205
122	0x3fe3f8e9642f606d	0.6241347271670868
123	0x3fc077ff4dfc2dca	0.12866202648034025
124	0xbfbb4d2e19fed4ff	-0.10664642462400663
125	0xbfc0571a167530eb	-0.12765813919612098
126	0xbfe2fe2a821bf9fc	-0.5935261288830698
127	0x3f75e35aaac79f14	0.005343774956123832
128	0x3f3f135e4020071f	0.00047417689359018246
129	0x3fd8e8fe59804a1f	0.38922079792351555
130	0x3fbe81ceb44284e8	0.11916820431590092
131	0x3fca64d8f254c730	0.20620261986328492
132	0xbfe7e09b575f7d45	-0.7461678225044258
133	0x3fc7036d73b39406	0.17979210042463495
134	0xbfdbd8ef7e78a6c2	-0.4351156935759769
135	0x3fcdf053f6c2ea32	0.2338967280282574
136	0x3fc6fd8886e7e322	0.17961222254941683
137	0xbfb1f72051f246e2	-0.07017709732670199
138	0xbfe8c42a675f7d46	-0.7739460009578714
139	0x3fe21bec9c52980b	0.5659087231804291
140	0xbfbd0e8361c9bbe7	-0.11350270402338901
141	0x3fc3b0f946e7e31e	0.15383830988118857
142	0xbf9bae3b146e9e67	-0.0270318251820342
143	0xbfc0e0ec4fa04a7b	-0.1318641079711432
144	0xbfc97cb03ee94f60	-0.19911768981784927
145	0x3fc8507862076c4f	0.18995575701305475
146	0xbfbf3b30e9ef73e6	-0.12199693404495768
147	0x3fd8d1daa2130735	0.38780847384997524
148	0xbfc175015d28e950	-0.13638321923083163
149	0x3fc36ba8d928777e	0.1517230091421275
150	0xbfccbf9f9ee94f6e	-0.22459788569778588
151	0x3f9426cb6628c88a	0.019679239378270576
152	0x3fa7cd33894900ab	0.046487436779444856
153	0xbfd0d6318e9474c2	-0.26307333873576166
154	0x3fbd74e27542ef65	0.1150647674830317
155	0xbfd5aacfe1713bcb	-0.3385505391678946
156	0xbfd02dc2cd39e0dc	-0.25279302636728374
157	0x3fde1e2b103b657e	0.4705913218036456
158	0x3fc106a7fe124bb5	0.1330156317313517
159	0xbfdc29d74543ab6b	-0.44005376590819506
160	0xbfc5c2be578a50c5	-0.17000560068539108
161	0x3fc3136a147db926	0.14902997971098236
162	0xbfc051ebba73c2e5	-0.12750002483473746
163	0xbfd44d918bb6f31e	-0.31723440784462464
164	0x3fd63ca77bbe30f5	0.34745204052229833
165	0x3fc1f2812875af37	0.14021315074512028
166	0xbf82ce80b40fa693	-0.00918293523314454
167	0xbfdcf4e3262429e6	-0.45244673466427654
168	0xbfc10571487b7261	-0.13297859229250533
169	0xbfcb224c175bd221	-0.21198416843948656
170	0x3fe011d550f57708	0.5021769124248019
171	0xbfa31316a74c44bd	-0.03725500862322793
172	0x3fced75cceeb3876	0.24094734290560255
173	0x3fcd0fd994634672	0.22704620118615854
174	0x3fbd240647091b18	0.11383094057337606
175	0xbfbb51d453af4f93	-0.10671736758314258
176	0xbfd8922c66b98ce0	-0.3839217188999111
177	0x3fcaa446eeeb3856	0.20813833871801773
178	0xbfe1a749dbc11483	-0.5516709606241793
179	0xbfe2a4fad2b8331e	-0.5826391330352612
180	0xbfd79bbc54556027	-0.36888035045331197
181	0xbfe1309dbd62ae80	-0.5371845911917745
182	0xbfc634722f2ddcb2	-0.17347552589101195
183	0xbf99c2d1fbbf180b	-0.02515724276579338
184	0xbfcbcaf8b25ce9fc	-0.21713169774177732
185	0xbfc0e4bae249a64c	-0.1319802861137752
186	0xbfe15272562aafb6	-0.5413142855591022
187	0xbfb888b701792c78	-0.09583610330553138
188	0xbfd5a64d574d40a6	-0.3382752754741979
189	0xbfbfd5eec4b9d2ba	-0.12435810377958037
190	0xbfc902c15e712a96	-0.1953965865271427
191	0xbfe0b11ed73e67ab	-0.521621151350009
192	0x3fc16cdfcafbd707	0.13613507663074406
193	0xbfd994c906cde575	-0.3997061315963813
194	0x3f87673b69316794	0.011427368304953757
195	0xbfcd3a3d37806849	-0.22833981714285503
196	0xbfceeb39083d1341	-0.24155342962526485
197	0xbfde9f754703e0b3	-0.4784825509555148
198	0x3fc0c4ac2afbd6e5	0.13100196932617006
199	0xbfcd98cbac31b3f1	-0.23122545154492927
200	0xbfddaebcebea9dc7	-0.4637901595947053
201	0xbfd21aeb641e89ed	-0.28289303567194574
202	0x3fed16ba86de1cdc	0.9090244897969586
203	0xbfb1aa8e93e9982e	-0.06900874243874064
204	0x3feb36ab36b07715	0.8504234378958438
205	0x3fd870f7b04f2883	0.38189499108978725
206	0x3f8b4a5b57b52942	0.013325418104291335
207	0x3fc315e2c9fbbbb0	0.14910540449588217
208	0xbfcbee921ac1ae32	-0.21821810060952057
209	0xbfd60ee783233356	-0.3446596890105885
210	0x3fe7cd31deb076eb	0.7437981938744235
211	0x3fadfed484d7b093	0.05858482476819051
212	0x3fde68374f427027	0.47511084308803436
213	0xbfccea88dac1ae32	-0.22590742761109223
214	0x3fc9a8fed8d1a795	0.20046983324874348
215	0xbfd75e2cce253871	-0.36512298709283814
216	0xbfa7173e54c9eda8	-0.0450992086889202
217	0xbfb476c2825171e9	-0.07993713075251886
218	0x3fbb1b6e72616b1b	0.10588732044690767
219	0x3fd985bd50747d52	0.3987878118222926
220	0xbfdc08ecee194bbd	-0.4380447697814665
221	0xbf9f92eed1ac0b58	-0.030833941981664864
222	0xbfc39f19ed327b4b	-0.15329288560766438
223	0xbf9b7935399a00ff	-0.026829558983537
224	0x3fe5b79eee160608	0.6786646509282841
225	0xbfca0fa86832962e	-0.20360283935330997
226	0x3fd0ef10b8a0b4c1	0.26459138898901463
227	0x3fcd6e608c9dfe76	0.2299309431655165
228	0xbf87136fd7f7428a	-0.011267541673903442
229	0x3fe39a3c2c3cb832	0.6125775207526714
230	0xbfbcf18e818a7ce6	-0.11306086218472763
231	0xbfab45c5bc384ccc	-0.0532666961918494
232	0x3fc519f763811376	0.1648549304828994
233	0xbfee909b88ab6351	-0.9551522893262733
234	0xbfd2e7d67ebfb9dc	-0.2954002607138173
235	0xbfc0b486bad291b5	-0.13050922510332233
236	0xbfbf16148b46dd01	-0.12143066788017977
237	0xbfcab1ac9c7eec8b	-0.20854718819996196
238	0x3fe239227505037e	0.5694744382418404
239	0x3fc104e41afcb6b7	0.13296176259739464
240	0x3fc4e86e2f9c2b4b	0.16334321331700105
241	0xbfc7e0deb191deff	-0.18654998464966607
242	0xbfe24ed232c67efa	-0.5721217147547286
243	0xbfe17f8137bb043c	-0.5468145454871158
244	0xbfca4643be0cb7f5	-0.20526930598992946
245	0xbfc0b1065ac9133b	-0.13040236885913167
246	0x3f9b8f789ce15acf	0.02691448647996247
247	0xbfd5d758ead27b68	-0.34126875812392266
248	0xbfdab4634a1e1905	-0.4172600005916965
249	0x3fc0360681f347ff	0.12664872498731936
250	0x3fb2296c6dde6b44	0.07094457323402731
251	0xbfe98a36e6c1d8da	-0.7981218821503504
252	0xbfd0e8684a07db3a	-0.26418502072867833
253	0x3fc160a96fb183be	0.13576238588123418
254	0x3f92003b59516d16	0.017579009367506414
255	0xbfe8c43c61d41afa	-0.7739545736993414

bias f8 [60]
0	0xbfd67895d02ce3e8	-0.35110993699669146
1	0x3fd2c519c04b3295	0.2932800653332291
2	0xbfa29cf30b5bb143	-0.03635367883348064
3	0x3f81a9a7be516fc2	0.00862437295489105
4	0xbfa44f9db0206da2	-0.03966992163642692
5	0x3fab1f4df3ce915d	0.05297320939215198
6	0xbfc4a137f5d0ad1d	-0.16117000105564552
7	0xbfb390d0d928a6c7	-0.07642846395233525
8	0x3fcbd6d6d5368e42	0.2174938717918043
9	0xbfc1a67b1a0ff1f8	-0.13789309284756235
10	0xbfdcbb32b325d3f9	-0.44892566199206346
11	0xbfdc702efa8f6f95	-0.44434713810709897
12	0x3fd4862e687207c2	0.32068977546452626
13	0x3fd139f460e154e6	0.26916226826626966
14	0x3fa4909d0a9c97b7	0.04016581301247817
15	0xbf8833831e71f485	-0.01181700169240175
16	0x3f8d48481ba7c7df	0.014298022598243363
17	0x3fde1e2760471dc1	0.47059044267777145
18	0xbfa8595a01459c12	-0.04755669847036627
19	0xbfc269a4eb780542	-0.14384900567532993
20	0x3f7dbf132406bb78	0.0072623012242009
21	0x3f96fd250b35d7b0	0.02245004540369394
22	0xbf82fb9ed20597b9	-0.00926899031101046
23	0xbfc7c2f2cde05fd7	-0.1856368546730198
24	0xbf692ca5dd34a92b	-0.0030730475933939037
25	0xbf44a358169face8	-0.0006298236960423894
26	0xbf9891ee465cff06	-0.02399418167556091
27	0x3fc9372162775e0d	0.19699494655536434
28	0xbfde8760ade914f6	-0.4770127962440961
29	0x3fd0687567ed5dce	0.2563756480135141
30	0xbf73364d1d095367	-0.0046904575579745705
31	0x3fc71ca259811554	0.18056134577106298
32	0x3fd56a6598d085bf	0.33461894915862084
33	0xbfaab406b916cce1	-0.052154741376762244
34	0x3f7cab281215bd0e	0.006999165082887572
35	0xbfc9eb2c14950870	-0.20248938565243035
36	0xbfc34e551a3203f9	-0.15082801608153298
37	0xbf825af2811c32bd	-0.008962530675057473
38	0x3fad152f368dd800	0.05680224934523892
39	0xbfce23a24df0c34a	-0.23546246343314642
40	0xbfb2a4182e467ec1	-0.07281638269204917
41	0xbfdbd7ad5a818043	-0.43503888929808826
42	0xbf9c1d3722dac933	-0.02745519781337542
43	0x3f8d6c594948d1d1	0.014366815136875129
44	0xbfc8aaf2eb8cc3ba	-0.19271694661577304
45	0x3f5f149e125c1cb8	0.0018970054310914319
46	0x3f8a3432231ed597	0.01279486818007562
47	0x3f8f488faa28bc60	0.015275118236870167
48	0x3fd3d31baae40607	0.30976001442476825
49	0x3fa3961eca9ba557	0.03825470183603368
50	0xbfcc9c96093bccce	-0.2235286278806598
51	0x3fc21a97f826daac	0.14143657318864677
52	0x3fa757200a7a31d0	0.045586587218256036
53	0xbfb5db2240c1734b	-0.08537496643971314
54	0x3fa4a8ef634981bf	0.04035137259484455
55	0x3fc5de78e0cd9a06	0.17085181214061168
56	0x3fd39f80e7bb7b91	0.30661032323944776
57	0x3fb73b107318e921	0.09074499902718404
58	0xbfa17eae7ebb2fcd	-0.034169629068486175
59	0x3fcbd04b3dbdd8c2	0.217294125697384

weight f8 [60, 60]
0	0xbfd0df874e850132	-0.2636430994789577
1	0xbf8f8570d55d07a7	-0.01539123679288308
2	0xbfd2a65f2e5f7917	-0.29140452889068186
3	0xbfbeb46d7a7c2358	-0.11994060745577195
4	0xbf98c08e588e97f2	-0.024172042994585703
5	0x3f8bcaecf51dff18	0.013570643644697664
6	0xbfc5c342df7911ad	-0.17002139961017573
7	0x3fe7124f36469f3f	0.7209850368571792
8	0x3fd35b4cb37969c2	0.3024474861792009
9	0xbfea83aa4a8bc564	-0.8285724121071039
10	0xbfe0a82a796cbfe1	-0.5205280658319645
11	0xbfcae997ea573611	-0.21025370542922464
12	0x3fbf9aa877fb49d5	0.12345364503133933
13	0xbfd2e893a65f6a8c	-0.2954453587277974
14	0x3f7c608c2b2d6095	0.006928012403328539
15	0xbfa43efa5d880d27	-0.03954298393002836
16	0x3fa42d5717129d5f	0.03940841824197138
17	0x3fc5f89b381c770d	0.17164936294369007
18	0x3fb166c699b747b5	0.06797448399382129
19	0xbfce195e6dd64058	-0.235149196273144
20	0xbfa2a8a296897955	-0.036442833782291
21	0xbfe93f85807ca3d7	-0.7890040883549955
22	0xbfb3c7c5feef824a	-0.07726705049527385
23	0xbfdf6ed8fc159ceb	-0.49114060037250223
24	0xbfd25716f5bdf006	-0.28656553266750995
25	0x3fa8f860380cb924	0.048769957391743085
26	0x3fb650a266fe9ada	0.08716788305774106
27	0xbfc2db6be81f9cda	-0.14732121309427876
28	0x3fc1807db92fe1bc	0.13673373739562844
29	0x3fd3708d8372c138	0.303744676940386
30	0x3fc3508a9d4115e1	0.15089543035916989
31	0x3f7b13bb717e7959	0.006610614967853167
32	0xbfd8cc911bd4f610	-0.3874857684894275
33	0xbfb0058d730955a8	-0.06258472498423961
34	0x3fe0efe3d3b17b58	0.5292834410318887
35	0x3fb603e5a0a28b49	0.08599696323157703
36	0xbfc6a00ef644d213	-0.17675959610791434
37	0x3fd1b2d581b28def	0.276540161760038
38	0x3fc77bf503517760	0.18347036993048516
39	0xbfa1831f186ce8ec	-0.03420350239908196
40	0xbfa0624ad8edb7f4	-0.03199991128973059
41	0xbfc42f6e05bd1426	-0.15769744186596418
42	0xbfcc273ade9cd9fd	-0.21994720334778597
43	0x3fd761ca28b13d31	0.36534360860692333
44	0x3f8f2ce8e56c954d	0.015222377301663892
45	0xbfac6b96c42f8e07	-0.0555083384022304
46	0xbfca0593a675a45e	-0.20329518916995232
47	0xbfbbf5e7c513af07	-0.10922096787879464
48	0x3fd914ebe970b978	0.39190194889933805
49	0x3fcca67ad2100954	0.22383055932011564
50	0xbfd6bec9a672319b	-0.3553947568368813
51	0xbf98563efa6f17b3	-0.023766502414012524
52	0xbfc6c25d7a30dfc6	-0.17780655351975677
53	0x3fd386547755d69b	0.30507384923780884
54	0xbfd3c487efd381b7	-0.30887030048873093
55	0x3fc073876c6923b3	0.12852566522113093
56	0xbfd200be900bc90a	-0.28129543368335475
57	0xbfd06f158046ac6d	-0.2567800286003095
58	0x3fc3569f9c73b945	0.1510810388494496
59	0x3fb8e44d5cc4f983	0.09723361506346433
60	0x3fcadfa185c9ffc6	0.20994967491787814
61	0x3fa19d14b75c5f6e	0.03440155733386417
62	0x3fd3a3af4eb4f17d	0.30686552702152153
63	0x3f9e4fd98217f00f	0.029601477208402168
64	0xbf6caec8a26cbd1a	-0.0035013121263528625
65	0xbfcc92e04f970eac	-0.22323230634912272
66	0xbfe3ff6d40f8fb21	-0.6249300259586087
67	0xbfd89b81ffdca8a3	-0.38449144350546244
68	0x3fc94de454fde178	0.19768957281099708
69	0xbfc97e49138a2acd	-0.19916642622077632
70	0x3fd1c9bd809f3d40	0.2779382473062988
71	0xbfc6ec2f51bfa81c	-0.17908278934129462
72	0xbfd6f3dd3f48395b	-0.3586342924108032
73	0xbfc5da5a6c4f2711	-0.17072611130270635
74	0x3fc802b14a6c4f3e	0.18758216985644965
75	0x3fb5c4ff88024245	0.08503720350768969
76	0x3f9fde591699d919	0.031121627811864536
77	0xbfce47fdc78e08e7	-0.23657200092208727
78	0xbfc8229eacc8030e	-0.18855651318156003
79	0x3fe01b97623822cf	0.5033680837960562
80	0xbfd297d16bf17958	-0.290516238606775
81	0x3f7de24bd9987f63	0.007295891083714287
82	0xbf836ff7e5c7c28c	-0.00949090642913688
83	0x3fd48a114cb3e39f	0.3209269761132933
84	0x3fc1af9d362be015	0.13817181725585273
85	0x3f94b5468ebd143d	0.020222761594841144
86	0x3fb8420c13abff6d	0.09475779991407558
87	0x3fc7340e2f95c120	0.18127610515103587
88	0x3fbdffa82d1a7d87	0.11718226529273156
89	0x3fc1b9956e8bd414	0.1384760656143561
90	0x3fc30c6d9e818cf4	0.1488167785601956
91	0xbfc9a55cb806da11	-0.20035895333940393
92	0x3fcd15154815ea57	0.22720590610318211
93	0xbfd173cc5c63b243	-0.27269276640325674
94	0x3fc1b97980212446	0.1384727359420898
95	0x3fd85970e77fe92f	0.38045904738796116
96	0x3fb839efa22f4aaf	0.09463403424823967
97	0xbfca91f73b6fb3f0	-0.20757952119984635
98	0x3fbd11f886892c7e	0.11355546269003189
99	0xbfca95772afbd015	-0.20768632506190046
100	0xbfe1ee67207566ce	-0.5603519090611486
101	0xbfdbd1e9961f51e1	-0.43468703899750777
102	0x3fd16b3416dbf763	0.27216818077419286
103	0x3fb69a6d111a3a42	0.0882938544038803
104	0x3f9f9e9e073938bb	0.03087851447190169
105	0x3f5cd4bcf1296e11	0.0017597050797552064
106	0xbf98f9f0d1d35912	-0.024390948111283235
107	0x3fc59f3e1112a3b0	0.1689221938479739
108	0x3faaab2e17d37ff2	0.052087250145404954
109	0x3f833f5a296c0b88	0.009398178471661259
110	0xbfa9ab4e7d997263	-0.050135090667684755
111	0x3fa11ca1900c3c9d	0.0334215629901504
112	0x3f9454cc737e7f94	0.019854731129839445
113	0xbfc538fb7742f767	-0.16580146144218164
114	0xbfc4a8c372cd07c1	-0.16140025239479708
115	0xbfd3668c7b9c4b04	-0.3031340796598416
116	0x3fd7cd2a478d84b5	0.37189728725031596
117	0xbfd71ad2907ca71c	-0.3610121165280462
118	0xbfcd9f7b58b00365	-0.23142949896284928
119	0x3fc225b43fc88921	0.14177563776417748
120	0x3fc946f10d77b674	0.19747746617888462
121	0xbfcbcf645852d90d	-0.21726660072972273
122	0xbfb52bb7f9b31816	-0.08269834371739679
123	0x3f92cf84a60e8f55	0.01836974395304421
124	0x3fd1d926678cf270	0.2788787852512433
125	0x3fd8335304a8af7c	0.37813258604977995
126	0xbfc1027e15a78554	-0.13288856561033902
127	0xbfcf79b6f52ed68c	-0.2459019372160366
128	0x3fe082c96549c9a1	0.5159651735578344
129	0xbfbec2b1b8dfd42e	-0.12015829814465981
130	0x3fd7e4c8bb4e5f77	0.37333887378326075
131	0xbfa53e6b381c65ff	-0.04149184284160511
132	0x3fe0b3f4c23c8ed0	0.521967295997877
133	0x3fc2da05ed165d88	0.1472785384801052
134	0xbfc4f78eb160e4a2	-0.16380485211428658
135	0x3fc3a9dea0f4dd17	0.1536215101166156
136	0xbfcd51310ef7dc7c	-0.22904027205342803
137	0x3fb58d73e601cc32	0.08418964734464465
138	0xbfe07250b0eecd7c	-0.5139544921607206
139	0x3fd5c375bca36cca	0.34005492612568544
140	0xbfd1419d4a106c25	-0.26962978585078395
141	0xbfc607c33c92fad3	-0.1721118970653693
142	0x3fc8b2efd6023f56	0.19296071958205613
143	0x3fcd25e25a7fe480	0.22771863383221458
144	0x3fba7ba77962f176	0.1034493132928612
145	0xbf7af5844c06ce1c	-0.006581799302171312
146	0xbf997bff7ffff916	-0.024887077510350762
147	0xbfd0c2af22b1c08b	-0.26188257587546876
148	0x3fd5267046b7b60f	0.33047110467927693
149	0x3fa85479b66b42d9	0.047519496457999195
150	0x3fb18e819b7bd70f	0.06858072324743268
151	0x3fa794cdc7e74255	0.04605715813852799
152	0x3fd32ab9afa2bc96	0.2994827475731169
153	0xbfa27691d8675820	-0.03606086508413875
154	0xbfdf5025c2b43191	-0.4892668153195468
155	0x3fd9a6c80255e745	0.4008045218284802
156	0xbfcb9e354a17e698	-0.21576562993850668
157	0xbfd12ca1f403f6f2	-0.2683491595233668
158	0x3fdf4e734a2ef1e9	0.489163229412752
159	0x3fdd2d86d19569d3	0.4559037253108304
160	0x3fc7bd538bcbf8d9	0.18546528173459967
161	0xbfc14f1696787225	-0.135226081344528
162	0xbfc457c4cf94a835	-0.15892849097991904
163	0xbfc7024876bf329a	-0.17975717352091608
164	0x3fe376a0730a280d	0.6082308050984025
165	0x3fab643ab1518ae7	0.053499063630416725
166	0xbfab209d24e7fca7	-0.05298319888606189
167	0x3fb64ccf1b0f674d	0.0871095124306553
168	0xbfd13895e12a54fe	-0.26907870281986834
169	0xbfc755e0d48ac70c	-0.18230829599411214
170	0xbf7a8c701b9f814b	-0.006481588288778826
171	0x3fd2866e03512c7c	0.28945494007047734
172	0x3f989d6c75c92f18	0.024038023652152324
173	0xbfc84b84335a7bb9	-0.1898045778989095
174	0x3fb290faee234996	0.07252472223198078
175	0xbfbff881f40f0157	-0.12488567551100026
176	0xbfd692132d4d8c43	-0.3526657049571364
177	0x3fcd3f73e54e9a49	0.22849892326958557
178	0x3fd277b8a02c3050	0.28855720178467426
179	0xbfcc067dbd162495	-0.21894809468020485
180	0xbfe106479b13b726	-0.5320165661666791
181	0x3fd0622f7d60e4a0	0.2559927677535345
182	0x3fe2043c0dae65f7	0.5630169169627938
183	0x3f977784762e6d4d	0.02291686030694722
184	0x3fe4e055d6add3ae	0.6523846810292662
185	0x3fd3e07640d51fe1	0.31057506877232127
186	0xbfcaae84fac939d7	-0.20845091100132038
187	0xbfc6cbfeee906835	-0.1781004586089822
188	0x3fd3a88e3daa271c	0.30716281911792165
189	0xbfe6e1974c92006a	-0.7150379653467216
190	0xbfb9a9075b9e8e13	-0.10023542391586941
191	0xbfdda7efdecfe287	-0.4633750606440476
192	0x3fd08c8f8843439e	0.25857914263638715
193	0x3fc0577b12399b8f	0.12766970052618062
194	0x3f9941cd3c9a63db	0.024665076087874254
195	0x3fad0bc78110caf5	0.0567304940272119
196	0xbfdc498b100bbc40	-0.44198872153259927
197	0x3fb88e794900f815	0.09592397720641117
198	0xbfbc930033e1e19d	-0.11161805407198817
199	0xbfce95a048d7cdb1	-0.23894122654711006
200	0xbfd9348ea9aeda8b	-0.3938328415928615
201	0xbfd349ed36d0b532	-0.30138712266019063
202	0x3fcdb705dc56b575	0.23214791544652838
203	0x3fa6b164dd2accbc	0.04432215881151921
204	0x3fcd5bf9a2355e50	0.22936935825667826
205	0xbfb45935e1c6dd0f	-0.07948624384049573
206	0x3fbd688e1bf0fe43	0.11487663442766753
207	0x3fd9a0d756c8d2d5	0.4004419658188401
208	0x3fb0c97203d86f08	0.06557381242640414
209	0x3fbe316428de82de	0.11794115064413854
210	0xbfd48dc34687b89a	-0.3211525143405055
211	0x3fd7c90c22264574	0.37164595923339694
212	0xbfc12851da73124d	-0.13404296080092806
213	0x3fc083e74d729d8d	0.1290253761446646
214	0xbfbe281ff5a3e68e	-0.11779975649906246
215	0x3fbdf9d2c0b29679	0.11709325031787356
216	0xbfd146fee15099c5	-0.2699582290973946
217	0xbfe416ffcad9f868	-0.6278075181906049
218	0xbfa25e9dc8e783e4	-0.035878115438897656
219	0xbfe5d8ed61dc846d	-0.6827303801875481
220	0xbfe4d509e31e3ba4	-0.6510056911373465
221	0x3fb4268337753645	0.07871265510512966
222	0xbfde3bb13638ebea	-0.47239332480574936
223	0xbfafb2225a34af51	-0.06190593100686093
224	0xbfce60e3ab87540b	-0.2373318278829689
225	0x3fc286e60d9ef174	0.14474177994805937
226	0x3fd4e091d2890d05	0.3262066417702985
227	0xbfe3c5a1ab28a1b8	-0.6178749411529258
228	0xbfcf0e585106bdb1	-0.24262527424205652
229	0x3fc28fb88b43ec02	0.1450110130316205
230	0x3fb69c67e1ca50fb	0.08832406294306232
231	0xbfe44f3fcddeecb8	-0.6346739788927129
232	0xbfc8a5d9a3de2e30	-0.19256134511339118
233	0xbfeba988702f6566	-0.8644449416271243
234	0xbfe67de8b5bfa182	-0.7028697538162734
235	0x3fd54cc89ebf3fa0	0.3328115034355452
236	0x3f8c91aa77634e65	0.013949710625104925
237	0x3fcf0fd629326290	0.24267079364360145
238	0x3fb1c81b5259dca5	0.06945963631175063
239	0xbfcd8e01054a0d86	-0.2308961177660473
240	0xbfe0b74d44c97477	-0.5223757117743294
241	0xbfb75d21cde19aca	-0.09126483227155827
242	0x3fd47fcac3bcf139	0.32029980769199856
243	0xbfd071f2845838b1	-0.2569547932079202
244	0x3fe8dcd029ea9e7a	0.7769547289544356
245	0xbfb8e9eb48706337	-0.09731932180910695
246	0x3fc7f93c6b9b1e9d	0.18729357961841667
247	0xbfbeb51a2821c39a	-0.11995089988501065
248	0x3fb7a1e0227e1f95	0.0923137745104426
249	0xbfa91f49ac41c4dc	-0.049066831853346676
250	0xbfaa596d30c44677	-0.05146352024361261
251	0x3fd60e8cfbf63579	0.3446381054462431
252	0xbfb3ceadf39019c9	-0.0773724288593264
253	0xbfcd15abdb622f20	-0.2272238560875559
254	0x3fb07e511211dbf1	0.06442743960529619
255	0x3fcb190f46bf7112	0.21170226053698876

bias f8 [60]
0	0xbfad80222e8ae93b	-0.05761820619723542
1	0x3fd089806fe25f37	0.2583924381847171
2	0xbfe8bea0e5a83639	-0.7732700810899537
3	0x3fd71830fe6c3046	0.36085152479131855
4	0xbf8a58ebd29b6266	-0.01286491619559733
5	0x3fcb2d2c2052b947	0.21231605127600003
6	0xbfcfc32500505298	-0.2481428386241944
7	0x3fbc217149180ca6	0.10988529238243191
8	0xbfd2a77d60d12120	-0.29147276358391316
9	0x3fb64586dfd3401c	0.08699839558107708
10	0xbfbd015c006cc9ea	-0.1133019925153246
11	0x3fdb59f2f9b6d769	0.42736505876688696
12	0x3fe0064e631db3a2	0.5007697997913179
13	0xbfc50ac20fd2a0e1	-0.16439080975147305
14	0x3fcee1094c479976	0.24124256348222745
15	0x3faf3f33772f0b40	0.06102906064872693
16	0xbfa08ba6efe2ba15	-0.03231546095172547
17	0x3fc5a81209e53bdb	0.16919160350013737
18	0x3fd2a99b7bfadabc	0.2916020117512905
19	0xbfc1c6f54c467e8f	-0.1388842222631763
20	0xbfb6edc6120bdea1	-0.08956563892922499
21	0x3fb0dd58732c3665	0.06587746440728777
22	0xbfd076a311aa15db	-0.2572410271171443
23	0x3fc7c465227ef920	0.1856810015141912
24	0xbfa9d726bc325e88	-0.050469599221455275
25	0x3fbede6b552b492f	0.12058134869883895
26	0x3fa976fc011b5caa	0.049735903868787304
27	0x3fd2006d4f5b67ab	0.28127606153213475
28	0x3fcc5406bf31bb77	0.22131428085000568
29	0x3f861c21ebf8d04f	0.01079584599856545
30	0x3fa993f4c831de5a	0.04995694106849831
31	0x3fb82118e50203a9	0.0942550238705865
32	0xbfc64cbe68ae650f	-0.17421703444851075
33	0xbfd016ff25cb2b7b	-0.25140360537323375
34	0xbfc1657f8e0814a5	-0.13590998110899935
35	0x3fc65bfb8226cfdc	0.17468208174761812
36	0xbfd0187e331dad40	-0.2514949320963815
37	0x3fd5efe8a76e8354	0.3427678713870155
38	0x3fae267a3d60a158	0.05888731002079578
39	0x3fcf2f5d7d501789	0.24363297098915052
40	0xbfcc12823a974850	-0.21931484089742748
41	0x3fbd95b4ed2df95c	0.11556559362904778
42	0x3fbd5881ac71c6ce	0.11463175258702593
43	0xbfe2dd23e355c48a	-0.5894946518075284
44	0xbfb0c95a28d393d8	-0.06557239052524666
45	0x3fb62f7baa030781	0.08666203404120944
46	0x3fcfdeb725ead269	0.248984235300344
47	0x3fb892d149b3a18e	0.09599025773389355
48	0x3fddd9c1b82a73e1	0.4664158152098122
49	0x3f7c3470f69ca952	0.006885949385642869
50	0x3fb15a4a335ecfde	0.0677839637199322
51	0xbf9d7d424e9b8d4b	-0.028798137710407883
52	0x3fdbef9d89b14c99	0.43649996229687243
53	0x3fa72a53e4978e4e	0.04524480977468369
54	0x3fcf311f56e22a1e	0.24368659727436265
55	0xbfc644c964b00178	-0.173974203265981
56	0x3fa0669d055e2c52	0.03203287783170396
57	0x3fb76a25f0b7939f	0.09146344305879815
58	0xbfdf13ac69407f0f	-0.48557577398786206
59	0xbf93281bad302d69	-0.01870768780285684

weight f8 [60, 60]
0	0xbfc4dd0056cca541	-0.16299442518474375
1	0x3fbfd988b8b3b1e1	0.12441305646252189
2	0xbfcd23529688c4e3	-0.22764046049409278
3	0x3fb7ed7439a7026d	0.09346701056984737
4	0xbfb120d431e313a7	-0.06690717904991904
5	0xbfc200807eafc221	-0.14064031778208722
6	0x3f939b69a6e861f1	0.019147539913406623
7	0x3fbc718eb2a5e2b4	0.11110774861834721
8	0xbfccc0a9746ba8e7	-0.2246295755824754
9	0xbfa733023f1eda29	-0.04531104107393375
10	0xbfc4ce2b9e00e450	-0.16254182066930634
11	0xbfd051d3828322fb	-0.25499427552544746
12	0x3fca4a8aba0622be	0.20539983828736824
13	0xbfbfb9ce34c6ffd4	-0.12392891682156854
14	0xbf9d57c3cd6e5c50	-0.028655108846205757
15	0x3f90f07b6cc05cc4	0.01654236651674236
16	0x3fd5850f841e20df	0.33624637510412286
17	0x3fcf668996d923d0	0.24531669488558672
18	0x3fd3429c484be8d1	0.30094058094222215
19	0x3fd20871b928efad	0.28176539499303993
20	0x3fe044f5a3b24ff5	0.5084179112623121
21	0xbfb19230e0c3a9f7	-0.0686369465580937
22	0xbfb7d885e752ef2a	-0.09314762971456206
23	0xbfda365264a58edf	-0.4095655424955406
24	0x3fbb84df34921575	0.10749621423209084
25	0x3fbca9c6da7cd879	0.11196558794185475
26	0x3fcf2fdd2d2e70c1	0.24364819246409833
27	0x3fce531475ca4e8a	0.23691039802053054
28	0x3fcd078c642e1687	0.22679285899737442
29	0xbfabcaa1e6ad24d6	-0.054280337723477665
30	0x3fa7a96e450156cf	0.04621452896451005
31	0xbfb65da9cde08a3c	-0.08736668850227941
32	0xbfe9b3220def0569	-0.8031168243543735
33	0xbfba1109844e4e84	-0.10182246666072997
34	0x3f9021734f6bc483	0.01575260326621165
35	0x3fa84dd0904f85ca	0.04746867906193193
36	0xbfb4643ac452ff5a	-0.07965438168593889
37	0xbfd5a020898835cc	-0.3378983824812536
38	0xbfcf6cf1d2d111e0	-0.24551222604544787
39	0x3fcba2f5c8e135bd	0.21591064747410185
40	0xbfe537bc457248e1	-0.663053641927288
41	0xbfe359349a420645	-0.6046393406724709
42	0xbfb7ab6527d97cdb	-0.09245903227700884
43	0xbfd589eaedcf78f9	-0.3365428278319907
44	0xbfcef5c63c3fa6ab	-0.24187543813541387
45	0xbfdcca4f06e59bb9	-0.44984794305349457
46	0x3faf7b521dbba8d2	0.061487737779161514
47	0x3fbb3467ee531b04	0.1062684017989391
48	0xbfa4cbfa8738d717	-0.04061873341235705
49	0xbfdf8a694d08fd9d	-0.4928229572578518
50	0xbfa6df55b4957180	-0.044672659200588605
51	0x3fc82b4ed9522041	0.18882165538184562
52	0x3fb9930cc160b938	0.09990005227220855
53	0x3f7634326aec0fa5	0.005420872634889583
54	0xbfc2b0c60dfc02c2	-0.14601970370133271
55	0x3fdcc4976b5f2a29	0.44949899182816694
56	0xbfc55d118d08761c	-0.16690272699718
57	0x3fb894fc2ffb7402	0.09602333232346896
58	0xbfd6dd7cc184a72e	-0.35726851366290446
59	0x3fcb4cb790578835	0.21327871845193305
60	0xbfe6fef86b94f507	-0.7186243153770712
61	0x3fc06d71212cee69	0.12833990211389626
62	0x3fc3faecb7c700d9	0.15609511350158448
63	0xbfb0b6cacfc9d4e4	-0.06528918812712764
64	0xbfd66f95308d10b5	-0.35056047192871215
65	0xbf92275a985325dd	-0.017728248164336925
66	0x3fc979ddaa4f229d	0.19903155151248067
67	0x3fb698cfc465dcdc	0.08826921982641828
68	0xbfd81530d41b0ae8	-0.3762933799118131
69	0x3f8fad2ff14e9cde	0.015467047263724994
70	0x3fc60ed1c4fc5927	0.17232725256389722
71	0x3fc5a7a7be502142	0.16917893211963003
72	0xbfcb6af1fe75931b	-0.21420121121186572
73	0xbf7c193cc1e28a44	-0.006860005696725017
74	0x3fc28286b09fc084	0.1446083414480236
75	0xbfce2c9bf2cc6c63	-0.23573636393925587
76	0xbfcaf66574f5fef0	-0.2106444188211678
77	0xbfb5f9455edfce3f	-0.08583482328668256
78	0x3fd5def7867b96f5	0.3417338193233797
79	0xbfbd3f8e648adf32	-0.11425104097986319
80	0xbfc03b0f0927cc8b	-0.1268023295120638
81	0x3fe8d154ccef31b2	0.7755531313537658
82	0xbff05356bed7cc7b	-1.0203463988116528
83	0xbfb006d621b80ded	-0.06260431597916467
84	0x3fc9e797583bdb85	0.2023801022366706
85	0xbfe341c41ef31798	-0.6017780880435906
86	0x3fc3ee00d4c53b41	0.15570078267270485
87	0x3fc643d70054b818	0.1739453078857316
88	0x3fd681eaa77c6b96	0.351679481087268
89	0x3fc54335e49b343c	0.1661136022798092
90	0x3fce60e999223d3f	0.2373325345729231
91	0x3f92f5334d7f7146	0.018513490300265965
92	0x3fdc819e795e0839	0.44541131832386643
93	0x3fab4772703e3809	0.053279472543280866
94	0x3fb34a6f7380150d	0.0753545433982092
95	0x3f82b4f4870e715c	0.009134207126230968
96	0xbfe2f0ffd1ef082d	-0.5919188595073642
97	0x3faeac742e9a67a5	0.05990946835409198
98	0xbfdae4dc09cb034e	-0.4202184768328622
99	0xbfc5fa41f505b40b	-0.17169975723246042
100	0xbfc86edada09a2f5	-0.1908830227505615
101	0xbfc1542f872e0de7	-0.13538164234715497
102	0xbfcc31a7f97aca63	-0.22026538545249527
103	0xbfa2ef38b8a9f3ee	-0.036981365720727286
104	0xbfd9a0f5329c73d9	-0.4004490846871796
105	0x3fdeef4365796d7e	0.48335347089388125
106	0xbfb132de7f1b5f52	-0.06718245127865188
107	0xbfd757d94f1894ba	-0.36473686908932346
108	0x3fd843077804046e	0.37909113617212753
109	0x3fc07f7676322547	0.12888985415728824
110	0x3fca491ff3a18bbc	0.20535659214064406
111	0xbfe50019b941784a	-0.6562622659946638
112	0x3fd098c0f1c9895a	0.2593233452991136
113	0xbfdce1b6cd6d3928	-0.4512764936561262
114	0x3fc7250f78afe683	0.18081849472928377
115	0x3fad7535463f02b8	0.05753485186096924
116	0xbfd0bda71eae373d	-0.2615754890074305
117	0x3fd46917d32a4698	0.3189143716964309
118	0x3fc2524423a92237	0.14313556424373683
119	0x3facbd119a59dcd9	0.05612998017471122
120	0x3fdb5cff2768872b	0.42755106781452196
121	0x3fc77f0be88e56ff	0.18356465201639335
122	0x3fd31766d98257f0	0.29830332986000396
123	0x3fd4996bac0228b0	0.32186404988955086
124	0x3fa9d605e6e32147	0.05046099132011022
125	0xbfdaf9c112e3105b	-0.42149378628187656
126	0xbfcf5f3fad6ed838	-0.24509426086814456
127	0xbfb3e2bb53b06a47	-0.07767840188209006
128	0x3fc69ca8a529480a	0.17665584625734737
129	0x3fd2afb1c8e4b958	0.29197353952885896
130	0x3fc8b82c3dc5f917	0.19312050834918956
131	0xbfb1a34b9afcfa37	-0.06889793905154638
132	0x3fdac34cd83728b1	0.41817017664710493
133	0xbfb8883b720684a8	-0.09582873853516338
134	0xbfc36b4eba9b1913	-0.15171226607908092
135	0xbfbb502757637e5e	-0.10669179805290116
136	0x3fc1ff51de89b318	0.14060424200160848
137	0x3fc43f42af639def	0.15818055690691277
138	0x3fcbfe9a26b0c812	0.21870734109103346
139	0xbf9bf48aca9bb30c	-0.0273000417864067
140	0xbfc198554b3c600f	-0.13746133969903027
141	0xbfb25b3e67fd9c1a	-0.07170476950487661
142	0xbfe11d5d941c5b7a	-0.5348346607960217
143	0x3fd4aa783ed4ac3c	0.3229046453076909
144	0x3fd064f5b9dff7a7	0.2561621012863448
145	0x3fd6bb6b0453bb58	0.3551890890366187
146	0xbfd24031aec04f98	-0.285168095260127
147	0x3fd9bf7813aedf51	0.40231134340455293
148	0xbfd2b458d454de7b	-0.2922575067090986
149	0xbfc2818221ffde83	-0.14457728061801242
150	0xbfc20b0abde0052c	-0.14096197386974418
151	0x3fb054c1079fd2d5	0.06379324375286484
152	0x3fbc87864f9d629c	0.11144294208259925
153	0xbfc7762ac7a48181	-0.18329367397474175
154	0x3fe12cc26f834d5f	0.5367138078676524
155	0xbfae1a6f229a8e84	-0.05879542634400273
156	0x3fba113aaba0abec	0.10182539644362948
157	0xbfe5683589c75897	-0.6689708415022037
158	0xbf90cb2fc4914761	-0.016400095341232105
159	0xbfd2b798da0e1473	-0.292455876297317
160	0x3fbea7277fe55f1e	0.1197380721326877
161	0x3fca41d8df33f429	0.20513449572163836
162	0xbfa8abb8edd58c43	-0.0481851377797047
163	0x3fc4d83afd11971f	0.16284882885809623
164	0x3fd59ad144016a77	0.33757430688061824
165	0x3faece558ac4db7a	0.060167954625675216
166	0x3fdb16361bdb6f59	0.4232306739847807
167	0xbfb46f629b641bfa	-0.07982460302092412
168	0xbfdca0b3e0d26326	-0.4473085113073004
169	0x3fd0d40830bcb69c	0.26294140586365145
170	0x3fc6787fdbe27bee	0.17555235134656705
171	0x3fc7b057d8c421fc	0.18506906589779237
172	0xbf9f48e724331ca0	-0.030551539978458053
173	0xbfc0605c304ff7e9	-0.12794067725184213
174	0x3fb063cd8c446182	0.06402287172784862
175	0xbfa69c65fd3ffdc2	-0.04416197506361243
176	0xbfb5ab4e7e297c1c	-0.08464518146637129
177	0x3fcd40ff27923f41	0.22854604179564755
178	0x3f94e74923475edc	0.02041353490662244
179	0x3fca2085d86f2fa0	0.20411751812059453
180	0xbfb80ae3e2807258	-0.09391617088153603
181	0xbfce06fa2b03fdfb	-0.23458792782183466
182	0x3fc8232753b6fcd3	0.18857280337940682
183	0x3fd4ec6b47029e7a	0.3269298737963947
184	0x3fdf22b2202540d0	0.4864926637574287
185	0x3facb3492781a6b3	0.05605534178978413
186	0xbfd496499546dfa0	-0.32167281701867445
187	0xbfc6588ad13a1099	-0.17457709518578637
188	0x3fe15418242b4ebe	0.5415154177121264
189	0xbfd5c1bbac785ade	-0.3399495300558736
190	0x3fc7a213e59d568a	0.1846337195553825
191	0x3fd4e0d91af97d28	0.3262236369536873
192	0xbfe0e0ef196f2873	-0.5274577614557202
193	0x3fe11f1e21094dca	0.5350485463372305
194	0x3f9f26c03d4aeef1	0.03042126058674816
195	0x3fdd260db20b5abe	0.4554476011957539
196	0xbfabea95b442d342	-0.05452411485149479
197	0xbf8d3649e7aa9037	-0.014263703710931093
198	0xbfa96e8aa62faa5f	-0.04967149046554619
199	0x3fb7b0aa899fa2fa	0.09253946170759866
200	0xbfb87d7c1236001a	-0.09566474384882931
201	0xbfd2489d877457fe	-0.2856820891187225
202	0x3fe473d19d7c32d1	0.6391380382425159
203	0x3fc372121b73fd7e	0.15191866245730162
204	0xbf920aba552542d2	-0.017619048544761658
205	0xbfdc105c89eeabb7	-0.43849862546874924
206	0xbfbfbaa94d8b3c6a	-0.123941976005186
207	0xbfc91ae95d86da56	-0.196133776347511
208	0xbfb61e3353c58c96	-0.08639832301337189
209	0xbfb1b54bd92a0adc	-0.06917261173115768
210	0xbfd98fd2c68d52a3	-0.39940328016136045
211	0xbfadb99345e33106	-0.05805645206564418
212	0xbfd1aa09ea19a5c5	-0.27600334035249957
213	0xbfbbbf4f78ca4650	-0.10838791560151972
214	0x3fcffd1b862bcd3b	0.24991172839473016
215	0xbfd14f94e2c5c882	-0.2704822744918901
216	0xbfc4e017f7e6a402	-0.16308879475153054
217	0xbfdc31649c6ed84d	-0.4405147102037333
218	0xbf9bd39c27d77e9d	-0.027174415523289686
219	0xbfaf10d988e0d87f	-0.06067542835118988
220	0xbfc4fd715a4d196f	-0.163984459965103
221	0xbfcf0aeb99b08eb1	-0.2425207615316274
222	0x3fc52ed33aa7d673	0.16549148906749486
223	0x3f8c1bca75ac61bf	0.013724881855112224
224	0x3fd0bff0b5e44e13	0.26171510470268905
225	0xbfd0f474fdb45ef8	-0.26492047096097293
226	0xbfb6f009ea6e6a13	-0.08960020039959486
227	0x3fd6b0b6537e05f2	0.35453565743964
228	0x3f99ac1d29163d82	0.02507062495493307
229	0x3fc565790fe1f927	0.1671592071106229
230	0xbfe7fa653c247118	-0.7493158507018363
231	0x3fad3596ac31a2e8	0.05704947330452176
232	0xbfc7dea7b36b9642	-0.18648239384417492
233	0x3fbf806143b75b13	0.12305267241695743
234	0xbfaaec0c698017f8	-0.05258215701910268
235	0x3fe2ddab52d6151e	0.5895592325111101
236	0x3fba9a369e57634d	0.1039156090331634
237	0x3fdc9846c3475dcc	0.4467942149180686
238	0x3f932f3c18a8bfd8	0.018734873776509037
239	0xbfd4b13129634135	-0.3233149437119381
240	0x3fb3487df916c41f	0.07532489138863284
241	0x3fd0531c02d54f33	0.25507259632762497
242	0xbfe12cb45bf68969	-0.5367070957329761
243	0x3fc5b6917ba1c001	0.16963404213629477
244	0x3fd06ff75902d7d1	0.2568338746308401
245	0xbfe001ae84f33f5c	-0.5002052876170455
246	0xbfa62beef38edfba	-0.04330393527146677
247	0x3fd76baa45180632	0.36594635722585445
248	0x3fcf54d94843dda0	0.24477687862939224
249	0x3f7c0850cd60a30a	0.006843867906390919
250	0xbfb6cbcc65121229	-0.08904721705955211
251	0x3fe310bf5265c419	0.5957943543745642
252	0x3fadcc770e7cec03	0.058200569647361554
253	0xbfa60c3cc03234f9	-0.04306211324829152
254	0x3fc97533b143221b	0.19888921885855457
255	0x3f9dd12d7ed0605b	0.02911826216231393

bias f8 [60]
0	0x3fde6a62eba67a37	0.47524331104969825
1	0x3fc31e1550b6789c	0.1493555683236466
2	0xbfe3c4bfefcf0d73	-0.6177673038259129
3	0xbfc05fa69939cf6b	-0.12791903001527358
4	0xbfb431a453fc0324	-0.07888247537995291
5	0x3fc1bd20254410ed	0.1385841543161698
6	0xbfbb0bdf9e6884ff	-0.10564992539777406
7	0xbfca2cb08160c87a	-0.20448881451881445
8	0x3fe616e19d8e33f2	0.6902931287055465
9	0x3fd5e7e88b604407	0.3422795640081521
10	0xbfb9f21dad6e77c9	-0.10135064586799482
11	0x3fc53682c442b127	0.16572603781731596
12	0xbfb224f384e7d728	-0.07087633127943305
13	0xbfca61b862bb8912	-0.20610718556333346
14	0xbfdacc7a753d03fa	-0.41873036812836484
15	0xbfd032bdaccc8b5e	-0.25309697985556123
16	0xbfc1b04b574575f0	-0.13819257508559657
17	0xbf8279e1389c31ec	-0.009021529712776442
18	0xbfe1d25421ff5518	-0.5569248832713667
19	0x3fb5d1cc7814086b	0.08523252421949372
20	0xbfc8487e20885045	-0.1897123011445975
21	0xbfd5fd6d85646911	-0.34359300638756546
22	0xbfc87398462ba941	-0.191027673972096
23	0x3fba0b9cbb22e39b	0.10173968857533426
24	0x3fc5f634625f39dd	0.17157606890982793
25	0x3fdce68f3d16c0c0	0.45157223668776325
26	0x3fc238d6d8224e98	0.142359595808206
27	0xbfc800bcfb19ef24	-0.1875225282745926
28	0x3fc8db913d52cb69	0.19420066351230084
29	0x3fc409b6632900ef	0.15654640046887588
30	0xbfa2ed05a59a7f20	-0.0369645847943032
31	0xbfca130bb62ddb26	-0.20370623012032602
32	0x3fb454c95cb4fc32	0.0794187403998741
33	0xbfcf68d52dcc7113	-0.24538674103030952
34	0x3fcf007f5e5865ac	0.24220268351272745
35	0xbfc34e8f0a583096	-0.15083492283918493
36	0xbfc4694c1fd53592	-0.15946342043245615
37	0x3fd4bd47d89a9c6f	0.3240527739785141
38	0xbfbbfccfeb471ea9	-0.10932635778510282
39	0x3fd88c261d0df5f2	0.38355400884014934
40	0x3fd8e55de0c02b1f	0.3889994330244679
41	0xbf8208ae8b649965	-0.008805621746955603
42	0xbfcf5303bf12bec3	-0.24472090558764678
43	0x3fc43b7e28d8b594	0.1580655765005018
44	0x3fd7c40e646a31a6	0.3713413220036962
45	0xbfc0030bdbd4b36f	-0.12509296640328268
46	0xbfccd5ecd2b17a39	-0.2252784756446589
47	0x3fb3bbd890888107	0.07708505180972135
48	0x3fa35d3ff149e1d4	0.03782081432740694
49	0xbf7713a1775eb3a8	-0.005633955695810856
50	0x3fb3a3be4c3c784d	0.07671727524982082
51	0x3fc6ff9d35db0c39	0.17967572335882823
52	0xbf832a7f1b066382	-0.009358399402843668
53	0xbfd01f4f97e79173	-0.25191106638364785
54	0x3f738f09f2911982	0.004775084359670225
55	0x3fdbe701a427594f	0.43597451239238166
56	0xbfcbb2fa5fe4e585	-0.2163994758828204
57	0x3fd5182f5e6197d8	0.32960113732258156
58	0x3f406b835af490b9	0.0005010978110573584
59	0xbf87a7ca30382eb9	-0.01155050239233134
