JupyterLab/traced_model_M2_503.pt (torch, 149916 bytes, 12 tensors)

weight f8 [60, 12]
0	0x3fc910a13e0ac5a2	0.19582000283621165
1	0x3fba88e669e555bc	0.1036514290365948
2	0xbfc62aa1440251b0	-0.17317596264605362
3	0x3f92b780eda68bbb	0.01827813578132596
4	0x3fb92f8d0c33e65b	0.09838182018202117
5	0x3fcfb0090a4c58df	0.2475596714290935
6	0x3fc4e149fe0ac5a2	0.16312527565382334
7	0x3f833d3e87229320	0.009394157885546373
8	0x3fc94fd1f31eab1d	0.19774841662486944
9	0x3fb38d10ec33e65b	0.07637124792736343
10	0x3fc51dbe63ebf608	0.16497020606031776
11	0x3fc7f6892d6bf0e1	0.1872111770425198
12	0xbfd0f63c2a425770	-0.2650289929091434
13	0x3fd1ffb5c67b66f5	0.28123230345737166
14	0xbfc52dee2271b415	-0.16546417886584722
15	0x3fc0ffc65e087366	0.13280562964873893
16	0xbfc6bb4456a35c99	-0.17758993368508838
17	0x3f9ec60ee593ba9c	0.030052407037994486
18	0xbfa901a1db12bca1	-0.048840578071911674
19	0x3fc2559b11996a27	0.1432374797758069
20	0xbfc00e651dfdb6ac	-0.12543930019767424
21	0x3fc50317c95ca367	0.16415688831446149
22	0x3fb1b1f958c26332	0.0691219178865026
23	0xbfc6218b6166daa3	-0.17289869552560785
24	0x3fd7c43f06858670	0.3713529170691805
25	0xbfc52bb06da01272	-0.16539578774258562
26	0xbfd72a46aae37d0c	-0.361955325015473
27	0x3fcf668ad6f4ce9f	0.24531684394752504
28	0x3fc5ca12da8fb1c7	0.17022929832400122
29	0x3fba81587c92a4b7	0.10353615800217396
30	0x3fd8de2466858670	0.3885584832370119
31	0x3fcf7ef48eaa6bc4	0.2460618683442971
32	0x3fc8cbe847782d39	0.19372275819510223
33	0x3fa73d1b0a3ec706	0.04538807392181181
34	0xbfcae9a0a6cc1234	-0.21025474686043
35	0x3fd2a645c6098ce5	0.2913984712560718
36	0xbfc03c5e388ccdd8	-0.126842286693871
37	0x3fc97814bdb621c5	0.19897708190207034
38	0x3fd600db91724173	0.34380234912625623
39	0x3fb10bd0954c6aa6	0.06658652920706717
40	0x3f995d62f83ee400	0.0247703041092997
41	0xbfcb250a7cc62c88	-0.21206790058599645
42	0x3fce9835e773321f	0.23902009774464347
43	0xbfc6dcb4dcca1b24	-0.17861042767273105
44	0x3fc39bb9c725a1e7	0.15318987106299106
45	0x3fcb51027b07dc52	0.21340971953734084
46	0xbfbc38497a9d4d5b	-0.11023387187497262
47	0xbfafbd7bf7fa7f4f	-0.06199252512055741
48	0xbfd60892e0968ddb	-0.34427329952651825
49	0x3fd8fb69aab21667	0.39034501714227193
50	0xbfd7d37a93ba2548	-0.3722826426170127
51	0xbfc087b21d6d9ee2	-0.12914110600399115
52	0x3fc748ee9e17678d	0.181913211052969
53	0x3fc080daaf26ab7e	0.12893231918618747
54	0x3fb97a3b7da5c822	0.09952136819427485
55	0xbfd01a70687fa264	-0.25161371426523815
56	0xbfa2d53039ec54e2	-0.03678274828977536
57	0xbfb8205f43d130fd	-0.09424395948116522
58	0x3fbfab2e47fb49cc	0.12370576150286822
59	0x3fb7bf12eb032216	0.0927593063125943
60	0xbfc27108b9075ab1	-0.14407452616315689
61	0x3fce48c82da0ca9a	0.23659612873014596
62	0x3fd6bb4dda4ec6fe	0.3551821357642523
63	0x3fbe299abb683bc0	0.117822333100988
64	0x3fc9cecc1b88f502	0.20162345261079656
65	0xbf7f669e3d80604c	-0.007666223646104763
66	0x3fb52313adf14adc	0.08256648060459376
67	0x3fd4f2c3b117da36	0.327317164366295
68	0x3fd0bc42e7c74824	0.2614905608617184
69	0x3fb2ae1e1711e9c8	0.07296932280761503
70	0x3f612e9d8446ceb5	0.002097423219504647
71	0xbfc587bc47e20e13	-0.16820481786645355
72	0x3fb7b4299b02e0f5	0.09259281191305375
73	0x3f99e6c91998ca25	0.025294439494425575
74	0xbfc386f396890309	-0.15255589342452705
75	0xbf67ee97ec324a36	-0.002921387409125199
76	0x3f88749a67d4d300	0.011941152852708026
77	0x3fca8947c9423977	0.20731446578106347
78	0x3fd80dfaf6c0b845	0.3758532914824893
79	0xbfc3832e2cb05e6b	-0.152440807171604
80	0x3fd77db8cbe78f2d	0.3670484534506951
81	0xbfcae28d9702b2d4	-0.21003885148583967
82	0x3fcbbf7e6425dacc	0.21678142442734438
83	0xbfce77f2a73ab6da	-0.2380355183171819
84	0xbfc671b043e4bf9a	-0.17534449877848318
85	0xbfd5c2c473fea9fc	-0.3400126583825622
86	0xbfbd50185e8aa4cb	-0.11450340564865084
87	0xbfb910a5999fc9a5	-0.09791026115980246
88	0x3fa665007647e306	0.04373933261735456
89	0xbfb95bf990a3be3a	-0.09905967503777272
90	0xbfc64d75b3e4bf9b	-0.1742388847719639
91	0xbfc55191cde27b5f	-0.16655180504764197
92	0x3fb14a4fcca43abe	0.06754015680437939
93	0xbfae5cca69b81d08	-0.05930168667333119
94	0xbf947a916c908b22	-0.01999881005407212
95	0xbfc0d7a1824bb3b4	-0.1315805326661611
96	0x3fc190163d1f1aee	0.13720968231628866
97	0x3fbefe377a02edd5	0.12106653908534011
98	0x3fade3b8ecb0880f	0.05837800874020626
99	0xbfb1b8a2f9fa9913	-0.06922358134270139
100	0xbfc0ee88f274594a	-0.13227950895879764
101	0x3fd01ce0fb179177	0.25176262398442567
102	0xbfad75c5eb839440	-0.0575391626351025
103	0x3fd02441e4c11dc0	0.2522129758767413
104	0x3fd4a7de53f86975	0.3227458782218016
105	0x3f83432558ba6e9b	0.009405414362212474
106	0x3fcea802fce91380	0.2395023093141866
107	0x3fac4020482d5c78	0.055176743326847466
108	0x3fc92e4bffc7aac0	0.19672536839728672
109	0x3fa742707e922918	0.04542876763396658
110	0x3fc71ff822d49f36	0.18066312504492438
111	0x3fd4f6c0126e857f	0.3275604419705686
112	0x3fcb6ef01675134b	0.21432305428074935
113	0xbfbd1b4a167a56ec	-0.1136976532819422
114	0xbfc678af80385540	-0.1755580307077853
115	0xbfb48a99129f16b9	-0.0802398367369176
116	0xbfae9816cd1ea797	-0.059754097498923624
117	0x3fcf0af85675134c	0.24252227994488817
118	0x3fd51cc67c738f1c	0.32988130715806263
119	0xbfcb2b08dfbfff2c	-0.21225081372539856
120	0x3fca29d730bd99b9	0.20440187339700147
121	0x3fbb9a6061af6d2c	0.1078243483056453
122	0xbfc35782b072555e	-0.15110810866887453
123	0xbfc16001d6297fc5	-0.13574240643629146
124	0xbfc2fbba81a4dca0	-0.1483071454074194
125	0xbfc4655c86d7caaf	-0.15934330543639905
126	0xbfb84306fe84ccdc	-0.09477275575482075
127	0x3f8651ab746b5cd8	0.010897960176789942
128	0x3fe086459a1c8651	0.5163906106938133
129	0x3fc08859be5b2363	0.12916108889319408
130	0x3fcf9da9952fccd2	0.24699897560603873
131	0xbfbbcb5433421a62	-0.10857130290433184
132	0xbfbaaa571fa126ff	-0.1041616871090376
133	0x3fbd5a6a274f9efb	0.11466086826078119
134	0xbfa8dc398f1e2081	-0.04855518219034228
135	0xbfd70c175921f54b	-0.3601129885135676
136	0xbfc4c6b1cc297cfd	-0.16231367558336976
137	0xbf90255c62b28b36	-0.015767520450604887
138	0x3fb8999a205ed8f1	0.09609378137870174
139	0xbfb518216adf803b	-0.0823994527740987
140	0xbfbe3958f392931c	-0.118062552896458
141	0x3fb2da7207ad0679	0.07364571273230948
142	0xbfd3e2dc4efe9f0e	-0.3107214709693701
143	0x3fc99c81a3842d3e	0.20008869632906995
144	0x3fdbb37c6e2862e8	0.4328299594649665
145	0x3fa6a99ccfb9036b	0.04426279102017968
146	0xbfc48fb6082f4861	-0.16063571357387033
147	0x3fb34462f184e86f	0.07526224514450218
148	0xbfae12d9c65949a8	-0.058737569296357706
149	0x3fd3008a9846b2f0	0.29690804358214873
150	0x3fc0bf460850c58b	0.13083720594435663
151	0xbf9ad9f414da1d19	-0.026222051403718447
152	0xbfd7745ecda0b5c9	-0.3664776809772233
153	0xbfd00be248cb2963	-0.25072533711195016
154	0xbfd0d915ff50585b	-0.26324987347596157
155	0x3fa55c96637ca814	0.04172201122703725
156	0xbfa04d7d1ccf9405	-0.03184119202322936
157	0x3fcdb4debcd10d70	0.23208221644936655
158	0x3fa69d0c1971c34d	0.04416692553139132
159	0x3fba941ac3b0bfd5	0.10382239606474226
160	0x3fc913daa9d8e559	0.19591840070078595
161	0x3fab2538ccc3aa68	0.05301835536541405
162	0x3fd62b1de4660d88	0.3463816385703571
163	0xbfcdc5c29928fe56	-0.23259766081354155
164	0xbfdcf7326355caf5	-0.45258769703575236
165	0xbfd204191b138d47	-0.2815001263063163
166	0x3fcb96de8dd58ce7	0.2155416672277177
167	0x3fa0431cb72c7502	0.03176202522284123
168	0x3fd5884e670b78d2	0.33644447386712983
169	0xbfcbc3e8bc3ad3a9	-0.21691617194087812
170	0xbf9e7378a9c606f0	-0.02973736320701098
171	0xbfd4edd6ee4a82c6	-0.3270165755330193
172	0xbfcd946425fb0df6	-0.23109104017758825
173	0x3fd25051efc408fd	0.28615234770417414
174	0xbfc9483ff1e90e43	-0.1975173884585378
175	0xbfad4deb80e22eec	-0.057235106928684804
176	0x3fc92e9803899603	0.19673443005301303
177	0x3f92c32520278ebb	0.01832254418140054
178	0x3fc9ae4cef2eaaff	0.20063172987769204
179	0x3fbdcbe414916b69	0.11639237882756749
180	0xbfa74d0b1b2488dd	-0.04550966936428023
181	0x3fc21021b6ee911a	0.14111730034085995
182	0xbfd6834b352b9580	-0.3517635363808367
183	0x3faa0330ed9f1a43	0.05080559635785111
184	0xbfbd03189979ce27	-0.11332849261253185
185	0x3fd13da58b87937a	0.26938761354386254
186	0xbfb96cd51d92446a	-0.0993169018932051
187	0x3fd30167cc89eaa8	0.29696078276144044
188	0xbfaac405a8a63298	-0.05227677997308894
189	0xbfc18d34ccbce70a	-0.1371217727371959
190	0xbfd047425711e2eb	-0.25434931281010503
191	0x3fd2935ed602be82	0.29024477862819975
192	0x3fd3c08f9bbaddb2	0.3086279888916251
193	0xbf94c83bc80c81f9	-0.020295080266011543
194	0xbfb12b2125f2854a	-0.06706435371827016
195	0xbfce69f198580c21	-0.23760814608257966
196	0xbfccbe686b0ad1e1	-0.2245607874553022
197	0xbfc87001a676e454	-0.19091816547532636
198	0xbfbb377a1114897b	-0.10631525914189936
199	0xbfd5ba83497a57af	-0.3395088403279897
200	0x3fb816fdf7a6636f	0.09410083099500154
201	0x3fd134d5fa7a96ea	0.2688498445589703
202	0xbfa7b200e7d7a7ac	-0.04627993421657037
203	0xbfc8cb6ddfc2bd61	-0.19370816636863267
204	0x3fc80228c62a157d	0.18756589580531716
205	0xbfbd3f7dd5cee71a	-0.11425005407263847
206	0xbfdb604742225393	-0.4277513643112851
207	0x3f96e79cad1ee576	0.022367904726455966
208	0x3fae391ca6b5a75a	0.059029479360858075
209	0x3fc5fc7b3e765385	0.17176762151634875
210	0xbfc11e50b9d5ea84	-0.1337376506233633
211	0xbfcb99dceaeba234	-0.21563302489018243
212	0xbfdae74855f591a4	-0.42036636728723864
213	0x3fb0a8ddcb5ad3b2	0.06507669653622264
214	0x3fb082041f1943dc	0.06448388823743251
215	0xbfb8939d63a8e44e	-0.09600242312525717
216	0x3fc5b09dae586d9a	0.1694523907943733
217	0xbfad8b25a740d6fb	-0.05770223299661655
218	0x3fa36fb530f0e3be	0.037961637710800286
219	0x3fc9d7c55c8a9ef1	0.20189730661990482
220	0xbfc8604c602cd8e3	-0.19043879219106605
221	0xbfd8ce9b864c4648	-0.3876103221419709
222	0xbfd23491a8d3c939	-0.28445855605163534
223	0xbfbb154e1fa5f4f2	-0.10579384110129178
224	0x3fcecb8bdf0c64c7	0.24058674231563357
225	0xbfc936fdc02cd8e3	-0.19699069865755012
226	0x3fc1a5db62bebbc3	0.1378740532067849
227	0x3fc12f28f2691813	0.1342517074246535
228	0x3f7081967f0becca	0.004029834629132265
229	0xbfc4e740afbcc563	-0.16330727177550405
230	0x3fc120b0e9777228	0.13381015205131175
231	0xbfc93072b9193ff3	-0.19679101980227606
232	0xbfc23871c894e592	-0.14234754842781833
233	0xbfcc8e54c7923e42	-0.22309360260668326
234	0x3f9760af5fc2fb37	0.022829761714770327
235	0xbfc705b7aa9e8ed2	-0.17986198264144676
236	0xbfd27603b6531798	-0.2884530334962334
237	0xbfb087627129cb3b	-0.06456580412649952
238	0x3fb9020e67ec82db	0.0976876262398138
239	0x3fc466e3e557f761	0.15938996027392263
240	0x3fd8dc8ea92a593c	0.38846174736081074
241	0xbfb34eb4e7504d45	-0.07541971823984735
242	0x3fd5aeeb09e791db	0.3388011547779379
243	0x3fd718517a5648de	0.360859269590163
244	0x3fa26d6b30c135d8	0.035991048528199066
245	0xbfc937faba4d17bc	-0.19702085587249296
246	0x3fd74748192a593d	0.36372568566857294
247	0xbfa70e5675ae9c89	-0.0450312632231596
248	0x3f9cb4fd40761a91	0.02803416925373853
249	0xbfb91611879f652e	-0.0979929882154422
250	0xbfc19808ffe881b1	-0.13745224471587172
251	0x3fbcafd83544486d	0.11205817509133605
252	0xbfc90a175b205120	-0.1956204600288709
253	0xbf959d2b257287ef	-0.021107362900359247
254	0xbfbe9715634c8a5e	-0.11949285196582468
255	0x3fb636294d21566d	0.08676393635809072

bias f8 [60]
0	0x3fd2b4543896544e	0.2922564079866036
1	0xbfc0ea9913ffc1b2	-0.13215936161533431
2	0x3fab7089b4949135	0.05359297112798559
3	0xbfba91c40f167238	-0.1037867104373128
4	0xbfb5bc35a3b58d0b	-0.08490309950643764
5	0xbfafca6a242097c0	-0.06209117594725866
6	0x3f67922311100b61	0.0028773007293251694
7	0x3fbe2183418443e8	0.11769886350181447
8	0xbfb841fd3ea2d4c6	-0.09475691584778465
9	0x3fb770e2ecc59c3f	0.0915662601524767
10	0x3f7aaff3b82978da	0.006515457180823437
11	0xbf62b9daa9442157	-0.002285887787483325
12	0xbfb1209798456326	-0.0669035670047263
13	0x3f79bfaf1783f461	0.006286319687430626
14	0x3fa8f036043411ff	0.04870766450224905
15	0xbfbafcee42dfaf99	-0.10542191631947019
16	0x3fc4b8a1f9cee3ca	0.16188454339660857
17	0x3f8b429252f82dde	0.013310568959261578
18	0x3fac726c2fdbb079	0.055560475198803645
19	0x3fc292b023aa8294	0.145101563849512
20	0x3fa2c88a6df41b61	0.03668625442701657
21	0xbfba2986a7169229	-0.10219613627720804
22	0x3fd0e230f407d696	0.2638056166755204
23	0x3f6d57d20217c563	0.0035819150659725392
24	0x3f761fd80e6a45a6	0.005401462526280742
25	0x3f8e5d745957ad7a	0.01482668779040951
26	0x3fa3340d97603d1f	0.037506508568293954
27	0x3fc6fbbbe864497d	0.17955731246236076
28	0x3fcb8a3053e5556a	0.21515468689419076
29	0x3f9f15dfa8ced912	0.03035687892744316
30	0xbf96d16a91837c14	-0.02228323472160916
31	0x3fc1e633c096cd61	0.13983771232379197
32	0x3fb013f086e19fd5	0.06280425351144399
33	0x3fc57eff5b0a18cb	0.16793815560612865
34	0xbf2e06785124f8c9	-0.00022907465661065597
35	0x3fbdd9a98a3518c1	0.11660251259044953
36	0xbfcedee88e09c92e	-0.24117762504062895
37	0x3fb9deeb94f1504e	0.101057742941806
38	0x3fbfb1ab49beab58	0.12380476522836881
39	0xbfa3dc7d1df576f7	-0.03879157057484222
40	0xbfb5a11d793d8016	-0.0844896718022031
41	0xbfb71ae0327bad6e	-0.09025384171007086
42	0x3fd0bea235564eff	0.2616353531713997
43	0xbfb0fc7a38160966	-0.06635249966897092
44	0xbfc816a55b1efcdb	-0.18819109868306935
45	0x3f897d9cf0c91012	0.012446619127452183
46	0xbfb2b3537032c766	-0.07304879655091909
47	0xbfc8d8d48d9b3399	-0.19411713518493626
48	0x3fcaf16f7ea19b09	0.21049302752654622
49	0x3fa5919eedba2670	0.042126623649051065
50	0x3fc6411aa1c21aba	0.17386181734419442
51	0x3fb62a44602d9445	0.08658244464966554
52	0xbfcf10b0b83b92ed	-0.24269684787500215
53	0x3fccd8187ca02574	0.22534471593125327
54	0x3fac5bc8718d24a7	0.05538774858593714
55	0xbf7c6c6cd1f94f9f	-0.006939339713046082
56	0xbfd2f74a62655a60	-0.296343418206936
57	0x3fa20b96169798f1	0.03524464631827751
58	0x3f9e1c0fe3901ec3	0.029403923286763566
59	0xbfada3e10c6391cb	-0.05789092327339381

weight f8 [60, 60]
0	0x3fa07a3c006ad906	0.03218257432074449
1	0x3f70b614561ed1f3	0.004079894484608537
2	0x3fbd75775416df60	0.11507364085161731
3	0x3fc332f2cd50f5d4	0.14999232316215105
4	0xbfc1c5f76a4e4b91	-0.1388539570876586
5	0xbfb35eeb8854719c	-0.07566711500516593
6	0x3fc3085cb3e9d817	0.14869269165836904
7	0x3fb4c4b72666ba15	0.08112663924723791
8	0x3fb4297f6d676cca	0.07875820561405358
9	0x3fba412edcb36647	0.10255711448862669
10	0x3faa3783d8d8f696	0.051204796047824505
11	0xbfa964669bbc658f	-0.049594122420056334
12	0x3fc5f2bf2862c5f8	0.1714705416866733
13	0x3fa49c80647eee72	0.04025651194339454
14	0x3fb40514042367b2	0.0782024870017313
15	0x3fb4ffd50d873940	0.0820286901500582
16	0x3fbabcba28b12331	0.10444224828200956
17	0xbfb82db9ce09aedf	-0.09444772033901526
18	0x3f8a53797d3118de	0.01285452760033617
19	0xbfaa0e3d834ca0bf	-0.05088989475035665
20	0xbfa2161a2b916388	-0.03532487661204359
21	0x3fb33e8702eb3aa5	0.07517284222852057
22	0x3f845f49c4ed56c0	0.009947372743833838
23	0x3f7a2af5b73c386c	0.006388625933835806
24	0x3fb31493b2d8284f	0.07453272930448061
25	0xbfab95fa35536f62	-0.053878611573707116
26	0xbfc0021bf7393db6	-0.12506436892952671
27	0xbfb70b60be0d0c1a	-0.09001736297527466
28	0x3fa15d89f6ea4f52	0.033916770354294315
29	0xbf9a40262422e387	-0.02563533397253395
30	0xbfa43954931173c1	-0.03949989600435045
31	0x3f3132ada6e2b238	0.0002624200777841287
32	0xbfac4f63398a023a	-0.055293179296317566
33	0x3fba4994acf372b8	0.10268525335727474
34	0xbfb471d68b6201fd	-0.07986203101064145
35	0xbf52fb892511097a	-0.001158603601894541
36	0xbfbd3e34d5b4cbd9	-0.11423044412076368
37	0x3fa0ad8f36c7a591	0.0325741533632239
38	0x3f6520418440b37d	0.0025788573857625217
39	0xbf40f09d0e8b5929	-0.0005169646147702756
40	0xbfb89cb886789ab8	-0.09614136965738396
41	0xbfb1bd85d7653750	-0.06929813870121149
42	0x3fa26fce38b2447c	0.03600925867170532
43	0xbfb15336703ce32e	-0.06767597427541425
44	0x3fbc1f29bc6fae64	0.10985051012510777
45	0x3f9ee2720f36050f	0.030160696199804934
46	0xbfad947255e1de71	-0.05777318285339284
47	0x3fbed5d04c23c807	0.12045003756409765
48	0xbf907bf8f3810023	-0.016097917425440877
49	0x3f6449de94a8ea37	0.0024766299514145346
50	0x3fa9237b25ffb124	0.049098823917889584
51	0xbf9e590a87da06cf	-0.029636539975860295
52	0xbfcd32e6468f7c04	-0.22811582990013346
53	0xbfa81f6ae2f52c53	-0.047114696697996415
54	0xbf9a4c0d4dbb25a8	-0.025680740231825233
55	0xbfbbcecef41f6712	-0.1086243959429363
56	0x3fc3740a82b84225	0.1519787920265269
57	0x3f9ca0b4680d9473	0.027956789828199335
58	0xbfbfb705f0da2284	-0.12388646249940832
59	0x3fca291db09f80c5	0.20437976001904282
60	0xbf70a5556333f7a2	-0.004063924355476008
61	0xbfa5576e5bfd7abb	-0.041682671288744776
62	0xbfcbcc1010233464	-0.2171650008007503
63	0xbfad7d56821f44e2	-0.05759687746434296
64	0x3fb17b998d8984cc	0.06829223351953145
65	0xbfc08e3c438ba247	-0.12934068010442187
66	0xbfbc5a96ca261676	-0.11075727877877192
67	0xbfc0863659b72236	-0.12909583454735846
68	0x3f8e1ddc1df33da5	0.014705390609747246
69	0xbfc0d634f54c8ff2	-0.13153707482808802
70	0x3f96769e26ffa967	0.02193686593083424
71	0xbfb66af14e3aa913	-0.08756931457415744
72	0xbf8eb2b1cb05474f	-0.014989270218083965
73	0x3fb437af977518b9	0.0789746994751991
74	0x3fbf664224ca7e31	0.1226540889569996
75	0x3fa999e5a4b11f14	0.0500022662677663
76	0xbfc28dd3dfc173dc	-0.14495323587007547
77	0xbfacc8dc7e42bf34	-0.05621995011585881
78	0x3fab10caacff704e	0.052862485521217736
79	0x3fbec7c654a733af	0.12023582045294633
80	0x3fb2bcbbee97dfb9	0.07319235396414471
81	0x3f92005e60f85f11	0.017579531353560777
82	0x3f9129d74aa8b693	0.016761173183275146
83	0xbf7913647c4abef3	-0.0061220097747278655
84	0xbf7d0a66e30bfdd7	-0.007089998151740904
85	0x3f92533b723b7f06	0.017895630690758522
86	0x3fb99bcaf8cc37e9	0.10003346037066731
87	0x3fb9566b6ee9dc45	0.09897490938043159
88	0xbfa2257ec2d9fd1b	-0.035442315373979315
89	0xbfcfa43f363cb4cb	-0.2471999182538752
90	0xbfabf0a970c194fe	-0.05457047940653047
91	0xbfc454fd3240375a	-0.15884365991262933
92	0xbf905c84fc208373	-0.015977933777438346
93	0x3f980da480f6f4e1	0.023489542361620933
94	0xbfbf309a110b4cf9	-0.12183535495869426
95	0xbfb7de5e707f7196	-0.09323683020142534
96	0xbfb6196b7ec543b8	-0.08632537693962561
97	0xbfb3f5dafc048f50	-0.07797020581034286
98	0xbf8078c03c953bd2	-0.008042814110607841
99	0xbf9f1f0c6487fcac	-0.030391877780854656
100	0x3fa6750b794b39d3	0.043861731106165223
101	0xbf90768058fb6ef6	-0.01607704680542007
102	0xbf91cc1268cea796	-0.017380035063673548
103	0xbfbf602aa2d37eb3	-0.12256113505599835
104	0x3fbbb0dc8f2bfea8	0.10816744323164562
105	0xbf79f4c7f98bb782	-0.006336957122341393
106	0xbfb393704ec462bf	-0.07646848605180433
107	0xbfa7b7f4af168533	-0.04632534634880372
108	0xbf7ae25c0090a221	-0.006563529380436723
109	0xbfb2b3c9dbcfaada	-0.0730558549545707
110	0x3fb37897f3ac0f13	0.07605886172319413
111	0x3fbe629a639e9a1a	0.11869206363790177
112	0xbfab04ff74fee74e	-0.0527725057904279
113	0xbfbb9deddc1a6c43	-0.10787855743039736
114	0xbfafcd3cbf0bafe5	-0.06211271125889065
115	0xbfc26591f349595e	-0.1437246740267239
116	0x3f980cfa7f69935b	0.023487009073864012
117	0x3fc6423355a09c8c	0.17389527970337715
118	0xbf8eda622d45efc3	-0.015064970976474861
119	0x3f98f2140a9e9e75	0.024360955379647515
120	0xbfbd7ea2696a62d0	-0.11521353791830369
121	0x3fc0d8a4c8aa3fa7	0.13161144064042427
122	0xbfb5e529596d7698	-0.08552797730723183
123	0xbfb4fecedfdcb9f8	-0.0820130631006818
124	0x3f7d8c76bd466fc4	0.007214034867867928
125	0x3fc36a2db26b5f90	0.1516778107822998
126	0x3faaa0574057e0ae	0.05200455341759046
127	0x3fb2bd2486ab8743	0.0731985882553348
128	0x3f9d2710def720eb	0.028469337090229734
129	0xbfa15c59afb5f5c0	-0.033907702158994635
130	0xbf9793caaac974bd	-0.02302471797371618
131	0x3faf58272026c296	0.06121942775223947
132	0x3f93da4f514cd32a	0.01938747342792905
133	0xbfd1568a02fee09b	-0.2709069279912996
134	0x3fac68c0c735690b	0.055486702268085684
135	0xbfa470673254a69c	-0.03992006768596676
136	0xbf93a2b1e889fc57	-0.01917531949811421
137	0xbfb3e965ffdb4872	-0.07778012749193566
138	0xbfb278ce33b49280	-0.07215584528291608
139	0xbfb71ef7dd4c0807	-0.09031628754385689
140	0x3fc697481e1e0b5d	0.1764917513902117
141	0xbfb2f37733da3b69	-0.07402749076775951
142	0x3fb9a54e0e487ecf	0.10017860268316812
143	0xbfcacc43dfdab01f	-0.20935867720015808
144	0xbfc00b98f4dcf3cd	-0.1253539271946508
145	0xbf86d26aca2de6b1	-0.011143526358626006
146	0xbf95caa4b9a60103	-0.02128083594425424
147	0xbfc3373e75428f31	-0.1501234123762685
148	0x3fc05da35e0dca61	0.12785760967706764
149	0x3f7b6df0c16c2649	0.006696644259827141
150	0x3fb1b081ecef63e0	0.06909954103993199
151	0xbfc26069e756cf12	-0.1435673122010646
152	0xbf9a9d41928299cc	-0.025990509574194395
153	0xbfa769c497cf0aa5	-0.045728820353834444
154	0x3fbfeffa370aaf6e	0.12475551456253495
155	0x3fbd75c83a3b9fc2	0.11507846280767267
156	0x3fbc65ad9c257dcf	0.11092648565453732
157	0xbfa7d81cd35671d1	-0.04657068328672021
158	0x3fb16b8e0229e19e	0.06804740479299773
159	0x3fa7f8149c017843	0.046814579051656334
160	0xbfb015b1ca47687a	-0.06283103168917306
161	0xbf8def77789e39db	-0.01461690270278109
162	0xbf96c7d4aa2b0701	-0.022246668707118115
163	0x3fbf692a3e984c0e	0.12269844082065637
164	0x3fa28baa6689b3b3	0.03622181417163208
165	0xbfa66124be0becfc	-0.043709896277471544
166	0xbfcc00303b2f35c7	-0.218755749605789
167	0x3f9cdf281d02c10f	0.028195025225330513
168	0xbfcabb6a8909408a	-0.20884448710649323
169	0x3fc444170b495d15	0.15832794238188144
170	0x3f9acc6861064fe2	0.02617037861052996
171	0xbfb07058c0effac2	-0.06421427450548392
172	0xbfa78f7a29f04b47	-0.04601651918360133
173	0xbfb183b4b68348fb	-0.0684159226978273
174	0xbfa777d9b17d2237	-0.04583626071559304
175	0xbf9eeba5a3910102	-0.030195797069837667
176	0xbfc95d989df764ae	-0.19816882813646458
177	0x3fbaad851566fcf7	0.10421020290867831
178	0x3fa8d3c6667ca860	0.048490715036977106
179	0xbfa9142407b9ad9a	-0.04898178667357485
180	0x3fa54ca501d82c0f	0.04160037658228798
181	0x3fc331b2a7eb8808	0.1499541587755291
182	0xbfc1e76375a3d274	-0.13987391704690177
183	0xbfae6b77b4866c92	-0.05941366270709482
184	0x3fbbb17feca8a91e	0.10817718055537681
185	0xbfaf4fa909776688	-0.061154634862487234
186	0x3fc47fea01756922	0.16015362807485994
187	0x3fc123da324013dd	0.1339066262591179
188	0x3fbd979177af9e22	0.1155939976884999
189	0xbf7455ca17a60d3f	-0.0049646276696678196
190	0xbfb0d100b8092746	-0.06568912976322591
191	0x3f83380bca204d63	0.009384243112470164
192	0xbf89b0e6f008f6f3	-0.012544445228850764
193	0x3f95e4f95daf6d2f	0.0213812793188996
194	0x3fc0b8cead324db1	0.13063987213955167
195	0x3faa9bc2532cc5ac	0.051969597485718694
196	0x3fa5173721dcc611	0.04119274414405195
197	0xbf97d3e12687e3b2	-0.023269193627104286
198	0x3fb3b49fd195f598	0.07697485796776105
199	0x3fbe35912921586f	0.11800486807018883
200	0xbf875f76657ad6f1	-0.011412548992079748
201	0x3fc03add68b773a5	0.12679641354671137
202	0x3fb626e407cf150b	0.08653092566153846
203	0x3fa0d8cb31537dcc	0.03290400483251296
204	0xbfc4d2597f9201cf	-0.1626693604375888
205	0xbf42de036ee64dd8	-0.0005757824672393786
206	0xbfc3d244dd7eb25d	-0.15485440077954396
207	0xbf9cb75a7aa64889	-0.028043187843259907
208	0xbfad734c8d1e8445	-0.05752028677603297
209	0x3fbc098e7eaa4ff4	0.10952082245267986
210	0x3f54fb283c9240de	0.0012805836616145909
211	0x3fb64f774b34bd59	0.08715005479893047
212	0x3fa544aba11b8eb2	0.041539538780651766
213	0xbf85410d23af0872	-0.010377981807213586
214	0xbfbbd8fea17a2283	-0.10877982561408754
215	0x3f8546a757f415f0	0.010388667461039142
216	0xbf923163fbb36a88	-0.017766535031891212
217	0xbfb6df3256e6e49f	-0.08934321042660763
218	0x3fb901f6eb2679c3	0.09768622628187189
219	0x3fc2ee32c16e824d	0.14789423413187067
220	0x3fbd0fd773fc9cf4	0.1135229738398385
221	0xbfa4704d63599289	-0.039919298532173526
222	0xbfa284035f8abba6	-0.0361634306076362
223	0xbf97d8fda245f4f5	-0.02328869154870446
224	0x3f68de29991a3b3a	0.003035622831539267
225	0x3fb332d4203c2b5c	0.0749943331431217
226	0x3fba1f974c8bf023	0.1020445405847004
227	0x3fb3f0dbe7b3c42f	0.07789396673958103
228	0xbf889ce7736fb4bf	-0.012018020830476648
229	0x3f8ed7eefea9df5e	0.015060298105921962
230	0xbfb4e11109781beb	-0.08155924302273802
231	0xbfb055117f696008	-0.06379804001460354
232	0xbfaff1305c5a3ba3	-0.062387000344748665
233	0x3fc0447c6169bd14	0.12709002262588653
234	0x3f9a57309d8f2565	0.02572322808899709
235	0x3fbc7b9931359978	0.11126096202278812
236	0xbf9e8b7b8ff4fd0f	-0.029828959142148167
237	0xbfa4fbd25fe8d39e	-0.04098374768037803
238	0x3fb6e66c62f701d2	0.08945348182806548
239	0x3f98ec95204d236d	0.02433999070788977
240	0x3fb44ca49be507f0	0.07929447942754542
241	0x3fb8372f0546d658	0.09459203604532129
242	0x3fa2cf9f121eca00	0.03674027534670543
243	0x3f37a2746f78d405	0.00036063521062895703
244	0x3fa336d6c419c2d8	0.03752776283079634
245	0x3fabea2199efcb5d	0.054520654717541396
246	0xbfb2a1298d254c09	-0.07277164169254048
247	0xbf94db9bef05d362	-0.020368992294112494
248	0xbfb346a9d8192dff	-0.07529698873366185
249	0xbfc4c9de5e353f4d	-0.1624105415344225
250	0x3facc58c8eccdc7d	0.05619467967192635
251	0x3fc11b0319523b13	0.1336368440283527
252	0x3fb67edbdbe6f1ec	0.08787321203903503
253	0x3fb1ab1b86e85e7a	0.0690171436657411
254	0xbfc55a3eda9391ec	-0.16681657478979106
255	0xbfa49f5e084a4974	-0.04027837611387755

bias f8 [60]
0	0xbfaa3d8a55d8dae4	-0.05125076578081236
1	0xbfbeaed0cf02710e	-0.11985497526115216
2	0xbfbbd9f987453eea	-0.10879478027822712
3	0xbfb03d69cadc5168	-0.06343709185268198
4	0x3fbb0e811118e310	0.10569006602680653
5	0xbfb1065fd57dae69	-0.06650351488286223
6	0xbf8f86f43eae4323	-0.015394123232711337
7	0xbfb9d915f861ec1d	-0.10096871675516224
8	0x3fb6116a4ecd7cdf	0.08620323585408894
9	0xbfb7865e5c255318	-0.09189405202534962
10	0x3fb5e7c86c9700b1	0.08556797648543825
11	0xbfb6f6d0f3086e7d	-0.08970361646100318
12	0xbfbada35c153b820	-0.10489212007425452
13	0xbf57eae26389f9b5	-0.0014598093822822792
14	0xbfaef7cf7fca4386	-0.060484394406677786
15	0x3fae7652b5d1d34b	0.05949648351171407
16	0xbfb42a0e7762dcd6	-0.0787667314024135
17	0xbfa0b5a0e5c01de7	-0.03263571552821159
18	0x3fbbb0f60cf191bb	0.10816896263128843
19	0x3fb5724ec3a6c6fe	0.08377544666907608
20	0x3f92df88bcec88b8	0.018430840044978608
21	0x3fb041d1739adafa	0.06350430557618472
22	0xbfb1ed4421375f79	-0.07002664385742986
23	0xbfb45034758369a5	-0.07934882992723276
24	0xbfb6a9e226ac8dad	-0.08852971500578262
25	0x3f7d46f36d298d18	0.007147742161211633
26	0x3fc02917732e87bf	0.12625401615247075
27	0x3fb630b26f508075	0.08668055741918741
28	0x3fb3522dee6f0ca5	0.07547270842683192
29	0x3fc0b018cd32f3be	0.13037405032619448
30	0x3fb79fb6e3995071	0.0922807984982812
31	0xbfb4c9f2b06f3f1d	-0.08120648200496956
32	0xbfa04e3485549c48	-0.03184665801591585
33	0x3fbe7650c639a39d	0.11899285163384694
34	0x3fb4ea1c96d028bb	0.08169726068459486
35	0xbfa1a7688084253a	-0.03448034828950104
36	0x3fb05931a3f135bd	0.06386099102493055
37	0xbf934592d7a074d1	-0.018820089731993065
38	0xbfa756561382fb91	-0.045580568200867984
39	0x3f97198d2caecc0a	0.02255840859625028
40	0xbfa640c89dfea65a	-0.04346301010748439
41	0xbfbe2770e8a32415	-0.1177893226587375
42	0x3f9a3da83a4e011a	0.02562582832206415
43	0xbfc66a4974b61248	-0.1751186199072825
44	0xbfc2b0ad08cc6aca	-0.1460167210542152
45	0xbf9c820cc681286d	-0.027839851012949546
46	0xbfa0793004d1f916	-0.03217458781090181
47	0x3faf31237db3e6c4	0.060921773047039746
48	0xbf8c6eabd1f183bb	-0.013882963509049042
49	0xbf9a6020922ccf08	-0.02575732128316502
50	0xbfb6318652cf1f9d	-0.0866931869669529
51	0x3fbc9c8d6fae7bf1	0.11176380135155718
52	0x3f9d54a8cb946ef1	0.02864326231529807
53	0x3fb8657e85f0f0fa	0.09529867906616465
54	0xbfc9cac8f154824a	-0.20150100501725127
55	0xbfa24c56f293bb29	-0.03573867522378855
56	0xbf92d51848debf04	-0.018391017387044975
57	0x3fb733b82c34f664	0.09063292578954357
58	0xbfa5b4c40c1f24c9	-0.04239475868195936
59	0xbf9cc39c86ba3aca	-0.028089948390113396

weight f8 [60, 60]
0	0xbfc0d3c40eb7934c	-0.13146258085830664
1	0x3fc898e0f5bd525c	0.19216548918724896
2	0xbfab191b1e332eb7	-0.05292591804172047
3	0x3fa4fa7bea0ff8a4	0.04097354156691438
4	0xbfc3a4d6b12c5c08	-0.15346797610320118
5	0xbfa4822399331847	-0.04005538220512555
6	0xbfb82d039d30f9dd	-0.09443686092070132
7	0x3fc84f108416987f	0.18991285752889905
8	0x3fbd87963eda385d	0.1153501418541238
9	0x3fbb4b732d830bf2	0.10662002431040188
10	0xbf871e58a395deba	-0.011288349621039518
11	0xbfc06453b2f25ec4	-0.12806173551211064
12	0xbfb45a4b547ea223	-0.07950278103692958
13	0xbfbe5ed98406f6f4	-0.11863479111977054
14	0xbfba5c2991dd0a91	-0.10296878634566499
15	0x3f9eed66264bd6b8	0.030202480399529746
16	0xbfd0699aae970d7c	-0.25644557046708605
17	0x3fc2aeec338e9819	0.14596321599418685
18	0x3fbac4a77b2c8402	0.10456320531058341
19	0xbfa2626a0449aac4	-0.03590709020939678
20	0xbfbe2432e52324c3	-0.11773984998866908
21	0xbfc813e4524dde55	-0.18810705202826009
22	0xbfbb6e127fb8467b	-0.10714831941757012
23	0x3f90d21d1697290b	0.01642651987439429
24	0x3fbd15c1f4b3f2b0	0.11361324524109295
25	0x3f95e057c5abfed8	0.02136361259454031
26	0xbfc9f0878e495ca2	-0.20265287826143658
27	0x3fd0a0e6f6a546c0	0.25982069097981864
28	0x3f751d55283dcace	0.00515492691544024
29	0xbf9ca826c1e1abdb	-0.027985196670140638
30	0xbfa4fa89ab280127	-0.04097395147619159
31	0x3fa0f7cffc729e96	0.03314065891873701
32	0xbf90d9549489ce33	-0.01645404965024806
33	0x3fb64c44c46273fe	0.08710126680894345
34	0xbfacfeba14763a44	-0.056630911824971736
35	0x3fb4f0763bc55525	0.08179415663956442
36	0xbfc49edc99511839	-0.16109807478113838
37	0x3fc142613082139a	0.13483824604568612
38	0xbfb486daf6236744	-0.08018272885547356
39	0x3fb5c2e7bfbe2024	0.08500526839463923
40	0xbf9d0a71d115851e	-0.028360155474165365
41	0x3fb19e89d494e4e0	0.06882535400372403
42	0xbfa7b4824bcb6984	-0.04629904914118568
43	0xbfb2d6da23bab3ce	-0.07359088299081337
44	0xbfb1be45aa740553	-0.06930957232909422
45	0xbfa7cf0fba9246e1	-0.046501628422573445
46	0xbfc475fe9a3aa19e	-0.1598509076186589
47	0x3fa05f8f02278595	0.03197905446337327
48	0x3fb6054c96ce88c2	0.08601835901075375
49	0x3fa3e7edfb5bc38d	0.03887885754909979
50	0x3fac730727d6e021	0.05556509362526208
51	0x3f919671686eb15f	0.01717545699982403
52	0x3fc62bed3cf289a6	0.17321553684184926
53	0xbfb109d2b7ee31a9	-0.06655613890160929
54	0xbfb6dd61abdcb745	-0.08931551404813572
55	0xbfc32b6215b0fc45	-0.14976144847057263
56	0x3f911338c344d9a5	0.016674887579222326
57	0x3faeb2fdfc021826	0.05995935155174008
58	0x3fb0a59e73759c14	0.06502714461167641
59	0xbfa90a48a2bd37ee	-0.04890658365785315
60	0xbfc6052366b3d50a	-0.17203180804032342
61	0x3fb86e96f1964164	0.09543746374243295
62	0x3fb2ba22c4abf39f	0.07315270711474263
63	0xbfc0d7760ef214d3	-0.13157535295264342
64	0x3fa655473fb7d6aa	0.04361937191781114
65	0x3fbea04e65712da4	0.11963357903112254
66	0xbf884e8d658f7797	-0.011868576681020744
67	0xbf9e37818ebe9ff5	-0.0295086139082343
68	0xbf97e116a94fde4b	-0.02331958206556654
69	0xbfb0828e288ccfb5	-0.06449211587897603
70	0x3f945d20c604168f	0.01988650520890772
71	0xbfb7d4c49879fbf0	-0.09309033129282773
72	0xbfcacfb08aac8c86	-0.20946318408195824
73	0x3fcb5baddf3bea0d	0.21373532676791776
74	0xbfab2a78b9211421	-0.05305840740087598
75	0x3f7834824fc2815d	0.005909451512849576
76	0x3fb37d652c6dec96	0.07613212904645858
77	0x3fb00133193706b1	0.06251830449675812
78	0xbfbaa7cc552d73c2	-0.1041228969529149
79	0x3fa1fde9c5154392	0.035140328701010706
80	0xbf738ec4924dcde7	-0.004774825913830472
81	0xbf9581d990758bbb	-0.021003150407874687
82	0xbfa6fd385d9d33ac	-0.04490066664457201
83	0xbfcebf6add9202f6	-0.24021659678330537
84	0x3fb23a4b1ee30ae4	0.07120198730539645
85	0xbfcc8ad9f4cc2409	-0.2229874081897665
86	0x3fc580a4ea7194c8	0.16798840949483052
87	0xbfc3f7d711346e91	-0.15600097980574337
88	0xbfafff95c364f2cf	-0.06249683389839832
89	0x3fb903e6c7dcc372	0.09771578196956712
90	0x3fbd61b7b5d48fa5	0.1147723025247261
91	0xbfb90e4499203847	-0.09787396181511197
92	0x3fc3c7b5d28641bc	0.15453217296136568
93	0xbfbc09d6636044b2	-0.1095251076333337
94	0x3fbb8837f9300f52	0.10754728158650309
95	0x3fb27b324f3b9987	0.07219232973475274
96	0x3fa2e56ae1193a76	0.03690656659874929
97	0xbfb75a95ab20e795	-0.09122596195166317
98	0xbfae83a56b72ed57	-0.05959813057548995
99	0xbfb51cbc7c8d41fc	-0.08246973076644076
100	0xbfba0bdbbbe0a31d	-0.10174344384052998
101	0xbf831caf7adebef8	-0.009332056939313813
102	0xbfb2d3b3b74645a7	-0.07354281639552217
103	0x3f9991bc68871270	0.024970001106128625
104	0xbf90f1f9cbb7fb54	-0.016548064288140665
105	0xbfc21e1358690199	-0.14154283348945
106	0x3fc0224bd3a1c108	0.1260466369017268
107	0x3fbaf3108a98c920	0.10527137168609046
108	0xbf8d6c32dfbadac3	-0.01436652894277069
109	0x3fb30538a9285b26	0.07429842119050231
110	0x3f96ec4e299f4e3b	0.022385808267996615
111	0x3fa01312d6a8ada6	0.031395519927481616
112	0xbf899675d68b6d96	-0.01249401150692257
113	0x3f8bef24a85bd68d	0.013639723194027975
114	0x3fa1ececd9893526	0.03501072078197813
115	0x3fc6adca78ee16ee	0.17717867760455114
116	0xbf5a9c19bb3048e3	-0.0016241313248924131
117	0xbfc463359895567c	-0.1592776293788808
118	0xbf6b319e0c0d0998	-0.0033195578438675703
119	0x3fb4b54861e45974	0.08089115514699136
120	0x3f93087dceb1ca30	0.018587079754477098
121	0xbfba10bf6e792682	-0.10181805083370857
122	0x3fb6843548e5d759	0.0879548361752688
123	0x3fb944645dd61c74	0.09869982996871035
124	0xbfcab42c5a0ec9fe	-0.20862345120765718
125	0x3fbd02cc82d1f4ef	0.11332395738459743
126	0x3f7d863526521fcd	0.007208068481425256
127	0x3fc621de40d17d8e	0.17290857472378857
128	0x3fa285ade3a61897	0.03617614177623912
129	0x3fb58fbfd13f5d31	0.08422469004232337
130	0x3f9a51908b05187a	0.025701769337751014
131	0xbfc31adb940a8b0e	-0.14925713280271008
132	0xbf7b7900ded3e122	-0.006707194709854288
133	0xbf701e47ea1cb3f7	-0.003935128131883118
134	0xbfb69052a27c09fb	-0.08813969103724865
135	0xbf90bfb95aa9061c	-0.016356369169676296
136	0xbf9529a1a7d838c9	-0.020666623944685356
137	0x3fa33d6010d9d8d2	0.03757763105106594
138	0x3f9ed5a498c5d168	0.03011185820055698
139	0x3f952b7d17d10322	0.020673708513871188
140	0x3fc2721cac7dfa0b	0.14410742208924918
141	0xbf99f12aeb5f84d3	-0.025334044090304552
142	0x3fc03bf9d5088835	0.12683031942384707
143	0x3fb3aaf80f91c7de	0.07682752971757575
144	0xbf623274e5e17dfa	-0.0022213252223506315
145	0xbfa12617fdffb212	-0.03349375701495573
146	0x3fa5ad46c991f07c	0.04233761988231863
147	0x3fcf2c6dc9c349f7	0.24354336120320827
148	0x3fbe871c917bb28e	0.11924913932643674
149	0xbfb3feff706c50c7	-0.07810970778183722
150	0x3fb6de177895f69f	0.08932635015477296
151	0x3fbbcb70995ea979	0.10857299560908541
152	0x3fbd6a8ee1797fad	0.11490719799758038
153	0xbf910df401b50771	-0.01665478954715333
154	0xbfb34a2610d5dc4e	-0.07535016928692181
155	0x3fa221eaf00a2023	0.03541502170725177
156	0xbfcdf52d2681f0a1	-0.2340446889901431
157	0x3fbdbb924bf8ced7	0.11614336352141251
158	0x3f905e1f67a97475	0.01598404951288442
159	0xbfa49758ad8fc3c2	-0.04021718138381615
160	0x3f8474fc34ac50fa	0.009988756520705955
161	0x3fb4bd5d1e235c0b	0.08101446138185524
162	0x3fbc66b37d260783	0.11094209485420774
163	0xbfc201eaef5bcefd	-0.14068352401192633
164	0x3f91698d8d791408	0.017004215011429152
165	0xbfb61f1eb635016b	-0.08641235302366616
166	0xbfb482ecfba5b352	-0.08012276786548725
167	0xbfa7e2a0abb2bf29	-0.04665090652394916
168	0x3f933460e66faafe	0.01875449568243947
169	0xbfbad44266a885e8	-0.10480132108980167
170	0xbf890db52d2defe2	-0.012233176652209413
171	0x3fa5c9816c74f060	0.042552990426401704
172	0xbfa8a397ba3c9ee4	-0.04812311314009124
173	0xbfb775fb068b8fbf	-0.09164399061006544
174	0xbfc777245a6d31fc	-0.1833234254394397
175	0xbf9976493ab71144	-0.02486528797977995
176	0xbf835a1c0f414cbb	-0.009449214187191015
177	0x3fb5bd746c2d58ce	0.08492210045855872
178	0x3fba376069fa1c2f	0.10240748011902732
179	0x3fc2d48b35f3a373	0.1471113217769716
180	0xbfc3a0d6c8ceaea5	-0.15334591679617407
181	0xbfa5d6348528fb46	-0.04264988065232571
182	0x3fc093cad253dac6	0.1295102622022652
183	0x3fb465ceb178460a	0.07967845757254835
184	0x3f95a34100e6f2db	0.02113057678228612
185	0x3fbe7dab0cdef89e	0.1191050440238279
186	0x3fc23c5ba2731c94	0.1424669783793645
187	0xbf9714fa25120b14	-0.02254095889339698
188	0x3fb82f36256bd87a	0.0944703904495742
189	0xbfba2a4a7cc36246	-0.1022078089330388
190	0xbfc70dc8fa33ba99	-0.1801081868829513
191	0x3fb7206ae003d716	0.09033840149990299
192	0x3fa1b390eaa40310	0.03457310547128689
193	0x3fba5fd3442e3147	0.1030246774154807
194	0x3fb166be06da90c2	0.06797397296265031
195	0xbfc45cded01faeec	-0.1590841785649596
196	0xbf9628a411f3e653	-0.0216394077260474
197	0x3fbd9c7bdeaed4b7	0.11566900431246806
198	0xbfbb5219a2af7e60	-0.1067214986974192
199	0x3fbe5da369f61f3d	0.11861630761097515
200	0xbfbbe069d4df4982	-0.10889302680087634
201	0xbf9bc7bc2c190ba9	-0.027129116240995597
202	0xbfb784d6c0f039b1	-0.0918707104721992
203	0xbfbd9a136037aecd	-0.11563225840626075
204	0x3f8dddde2fdf0803	0.014583335719979834
205	0x3fb757cefd8c8621	0.09118360223921985
206	0x3fa5b58f5b16fd48	0.042400817746506336
207	0xbfc3a45e6bbc941d	-0.15345363865449793
208	0xbfa5e88286e5bf39	-0.04278953453729035
209	0x3fc2d69dc3b3f089	0.1471745687084687
210	0xbfb8b3feca07a32c	-0.09649650986069663
211	0x3fa441f189cf0a49	0.03956560904727675
212	0xbfa635c84ad79a29	-0.04337907708741213
213	0xbfaf9aa85379e18c	-0.061726818265870426
214	0x3fc165657c31b923	0.1359068733613152
215	0xbf84538e9142f35f	-0.009924997146635027
216	0x3fbff4f4f1a9b84b	0.12483149433111966
217	0xbfb6f3c26144d1d7	-0.0896569716904375
218	0x3fba20e76a7b9a88	0.1020645747154082
219	0xbfb4ebe593992e79	-0.08172449925876347
220	0xbf9ec9294eddb22a	-0.030064244688604948
221	0x3fc3bff4f675cbc5	0.1542955592554717
222	0xbf956e44e0f1a2d4	-0.020928455571637652
223	0x3fc7e2bcb04d0803	0.18660696609919122
224	0xbfbf501b3e060906	-0.12231607689139787
225	0x3fa4ff6f38632dda	0.04101131022761324
226	0x3fbf731891448ffe	0.12284997507646264
227	0x3fc19d3c9a2a4c0e	0.13761098411177425
228	0xbf930d7bf101484a	-0.018606125435617828
229	0x3fc400ed2e3991fb	0.1562782741267624
230	0x3fc964a9c83a9223	0.1983844974212313
231	0x3fa5c60dc3648a8d	0.04252665529408715
232	0x3fb5fc6dd4eadcc5	0.08588301132373306
233	0x3faa40b7bb4e41f3	0.05127500688024957
234	0x3fb2f3a36b593895	0.07403012629331081
235	0x3fc1480ccef2819d	0.1350112925038162
236	0x3fc3b14863d87592	0.1538477408911772
237	0xbf90b1cd76646181	-0.01630326304538832
238	0xbfbbe155b97074d5	-0.10890708710981596
239	0x3fc05089f6fcd3cd	0.1274578529352354
240	0xbfc0ee6da9ebd823	-0.13227625653206684
241	0x3fc8a477619829a5	0.1925191141638837
242	0x3fb3e52970fe8bc0	0.07771548279428853
243	0xbf752d79bb2afc2b	-0.005170321953015959
244	0x3fc941d9c59550b9	0.1973221030008341
245	0x3fa86eab60eca913	0.0477193408790574
246	0x3fba195d10dc2dd3	0.10194951688406854
247	0x3f8723b28d36c54d	0.011298556265361493
248	0x3fc02d10ec888540	0.12637530850865097
249	0xbfc863432b7c4689	-0.19052924750626613
250	0xbfabc0db6afff389	-0.0542057579150202
251	0x3fb14ca970133b38	0.06757601724823992
252	0xbf9b3839b0971fa4	-0.026581670191972898
253	0xbfa74625bc8fc22d	-0.045457057254570145
254	0x3f6823ac396acbd6	0.0029466975932676926
255	0xbfcd4a9a099d6594	-0.2288391634890955

bias f8 [60]
0	0x3fb0ba988f3a5914	0.06534722801948006
1	0x3f9088627f209fdb	0.01614526654171287
2	0x3faceddbac005577	0.056502213236096326
3	0x3f9cd51874535572	0.02815664491648335
4	0x3fb838f1c111d143	0.09461890185940995
5	0xbfaab9f8d49acbeb	-0.05220010371467495
6	0xbfa75d795629da1a	-0.045635024803164906
7	0xbfac81fe0682dbee	-0.055679262442417485
8	0x3fb004f8c974371a	0.06257586401281082
9	0x3f6d5f1cfb3cd771	0.003585392574588058
10	0x3fc331821463cba6	0.1499483680305193
11	0x3fa8ddd04dce42cd	0.04856730413223929
12	0xbf8346f0250f07f0	-0.009412647372190691
13	0x3faf2cad546876a0	0.06088773398753955
14	0x3fa71b41fdf03647	0.04512983536561115
15	0xbfaf0d05d12903cf	-0.06064623048997186
16	0x3faa2c8a607b697a	0.051121067311856686
17	0x3fc2419efa048c75	0.14262759406946982
18	0xbfbdffb8ab1e44d8	-0.11718324830714566
19	0xbfac54b9b261156e	-0.05533390333634257
20	0x3fa1f32aef4f9273	0.03505834742808114
21	0xbfc36e7c602f554f	-0.15180926033523653
22	0xbf9b66f5bd3bde85	-0.02675994842044684
23	0xbfbbd36776ae36fb	-0.10869452140306272
24	0x3faaf29d99fa196a	0.05263226036645359
25	0x3fcc333df877bc16	0.22031378395283302
26	0x3fac0b0f26ec6104	0.054771874905954504
27	0x3fb748d3efe0e1f2	0.09095501524360097
28	0xbfc2b4ef9f4fdde6	-0.14614672926812416
29	0x3fbb4a3ee8508820	0.10660164996855359
30	0x3fa9501c38afc855	0.049439317626721525
31	0x3fb75ed089af492a	0.09129050599520797
32	0x3fc3efda2482e0c3	0.15575720579886906
33	0x3f88f737a468d262	0.012190279679182573
34	0xbfbd16b8940d4c76	-0.11362794508504401
35	0xbfa9f4f588579a8e	-0.05069701470693132
36	0x3fb987d24072dd99	0.0997287185044712
37	0x3fc082eeed81776e	0.1289957675643864
38	0x3fa473b9ad4ea7d1	0.039945413976354545
39	0xbfb698e109b20d27	-0.08827024923998704
40	0xbfbc3d94b00e9d66	-0.11031464861172466
41	0x3fc2599865c00626	0.1433592316462164
42	0xbfadb5e793e8bd42	-0.05802844696551769
43	0xbfa1a817715f8bea	-0.03448556193304582
44	0xbfaa8f1334569a02	-0.051872825755072696
45	0x3fbc9674302929a0	0.111670743711477
46	0xbfc22e76104b2990	-0.1420428828772171
47	0x3fbb7bdd51cfee4e	0.10735877272957703
48	0xbfa335fc02df7305	-0.03752124342984157
49	0x3fbe37d663ab1af8	0.11803951199827256
50	0x3fb86f14cd3bbc7e	0.0954449654634448
51	0x3fa13fd436670259	0.03369010128108547
52	0xbfb9ebc750dd6045	-0.10125394558178964
53	0xbf81820e1bbe5a59	-0.008548841687838026
54	0xbfb01458bbb45710	-0.06281046469333895
55	0x3fb7e42cf55d49f7	0.0933254336389736
56	0x3f906f96551c8c70	0.016050671524805826
57	0x3fa3039544956a9f	0.03713671171381815
58	0xbf9f16fccf97fe37	-0.030361128016009622
59	0x3f9485e7af3295e1	0.020042057102406367
