JupyterLab/traced_model_M3_503.pt (torch, 148018 bytes, 12 tensors)

weight f8 [60, 9]
-0.17283418803507272 0.013952389673819805 0.27942096060750793 -0.17043968330285622 0.13882804191882628 -0.05674818341709536 0.2052839662625812 -0.14016106424525085
-0.0054122702808891525 0.35844351848094186 0.04316873167945427 0.14427419948062425 0.18269328263007006 0.0446364737030745 0.38357519801922646 -0.020761687088238
0.42803461994781244 0.14944584930971347 0.2347234497522772 0.1087342689861041 0.10488588168642192 -0.36879648484061484 0.38012034247353754 -0.4001314689779917
-0.334360820548112 0.10924513958740248 0.010519559886470844 -0.03483063395051858 0.33637241347963404 -0.29269866110992016 -0.3196510271761466 -0.26668673685866434
-0.046141530464159426 0.025556455973899987 0.23331090855606545 0.19194237302133044 -0.15847158571640504 -0.2887198065740569 -0.19260066928011185 -0.1313148623611768
0.17896007669000427 0.14897935282086364 -0.22153014213081895 0.4190574665809297 -0.23343264622176596 0.21229873620178932 -0.29193445233069715 0.2502392864283436
-0.04731392221976003 0.1827334221324282 0.1954113797045632 -0.22868681096910032 -0.22566325240291346 -0.28042268894724454 0.4031543156904753 0.24386924942553045
0.28040462253506176 -0.21699633314440217 -0.1480660898460281 -0.1400338989262594 -0.13119727477382867 0.01655199349012008 0.040961229507853456 -0.36656956906835286
0.14906014330590522 0.0918414211223547 0.2469752519349141 -0.10709356987863833 -0.1268122766426067 0.09069045591466997 0.08108709227608653 0.3151732965585641
-0.5582692739515186 0.17941196803402065 -0.015773384387352048 0.08991377838339883 -0.4194273295917224 -0.009580755400644379 -0.08297690517375993 0.05609156525119983
0.35170797887429 -0.014851177416826929 -0.2989682268696499 -0.30334213776507246 -0.2013338708327145 -0.14696738892443814 0.2854039510846753 -0.3345193270559901
-0.21369856796732908 -0.04551055923771344 0.38202286671096114 -0.05565851058297416 0.054419201320193025 0.08481909723811011 0.013445829559631358 -0.3843717114953121
-0.21257126634897694 0.3118992812426988 -0.047828272333012595 0.19866255324922694 0.025948314637227257 0.06255195716697164 0.25759421140986677 0.19639780640603277
-0.05079186332458498 0.20287552046775448 -0.3651797101359101 0.3384566462175955 -0.49284304916881355 0.09610691733377755 0.05623144348387987 -0.23389926397639782
-0.1793221403847992 -0.3993076904613638 -0.16478801410014454 -0.3744905025222053 -0.26209196876739843 -0.42366162640291116 0.08608822405643654 0.208624897607148
-0.2832704858428219 0.3000230670433801 0.3343291992053258 0.05564958885704096 0.07456269461803602 -0.3992861184675258 0.27609057170412526 0.2186685906311674
0.20810785309234356 -0.2937753956443811 -0.37984877310721654 -0.33373779378614754 0.121787822644544 -0.16023575730144088 -0.32985049645800574 -0.29744136087473605
0.031350221601786965 -0.18498728491706168 0.16552484329933856 -0.07434880624634921 0.3843987488604787 0.04613692104082745 -0.2519338967054292 0.15632405423549858
-0.2751133193220903 0.3228304704191466 0.3266865284041285 0.21311910255551778 0.3026342623776404 -0.24788905232583522 0.3930766100277951 0.07550682581042846
0.1693100909792427 0.30741805800664423 0.011961337757255663 -0.21571002027124012 -0.0486950936331709 -0.2619140085882925 -0.5220639063657678 -0.10846953992179591
0.07799811559547032 0.24224692670613374 -0.0329065804748857 -0.02776994359217499 0.01365138272280461 -0.1415234908501916 -0.07411150654233667 0.37330584482476153
-0.3225132760798665 -0.3288687465965999 -0.02254644067295415 0.12184919720696841 -0.07176515880853646 -0.10361756720294606 0.004231146085801247 -0.1271682307231695
-0.20814390907099967 0.15125126617440357 -0.27129160032723537 0.38202609044031755 0.050747332029596325 0.23851393571398713 0.3385014795168919 0.17430146254794096
0.20175562484404058 -0.044655574561363015 0.22175112553354645 -0.24485040356505247 0.065744090589124 -0.386782714637704 -0.08070322351151524 -0.022320990505635734
0.25099917460490695 -0.11347962447034961 -0.1856350673398717 0.4164079824222305 -0.08273387805828443 0.06696873147055855 -0.10714981057293206 0.20808272705728662
-0.04936000837665459 -0.3124343079121602 -0.09673736074283988 -0.26309742013624676 -0.16188713726841364 -0.44666434441955244 -0.361828893378155 0.07259326569525597
-0.03882857178016634 0.29139956254276234 0.30665698300447414 0.2992621047040315 -0.15078414638415413 0.22007706728386284 0.07083783183795274 -0.2789529624537816
-0.3754774860038081 0.23887021264767366 -0.20480361333360086 0.04592492138954192 0.03704864040826337 0.3643127779482495 0.27619166031240716 0.32858534476964313
-0.2366744882957488 0.29148834476794466 0.3935253655031151 0.19238217263831078 -0.06404007938477795 -0.07602455670782814 -0.004189546175740692 -0.12560251060116936
-0.055788543848490045 0.20505577092293428 0.09057016826958489 0.0010944318434941488 -0.0008358959514771726 -0.20602176913915352 0.04479573821065291 0.004850399849943379
-0.15401456273298728 -0.37087487542587644 -0.01609283485307699 0.29143602530423474 0.2876601055668409 -0.018036311524480056 0.23948859775741424 -0.4166349330826036
0.25412160207018536 0.18099864515154662 -0.17357564508605275 -0.20489072731822025 -0.18012883188835785 -0.02626307202840128 0.008757216602963554 0.04032414437572819
00000000: 9ee4 9e40 6e1f c6bf 6a03 cd0a 1293 8c3f
00000010: db12 e873 08e2 d13f 85f9 dcb0 f7d0 c5bf
00000020: cd8f e705 1ec5 c13f e785 c40f 190e adbf
00000030: 91d7 beb8 be46 ca3f 5f8e 8d39 ccf0 c1bf
00000040: cc10 a83d 2d2b 76bf 2daf 5515 bdf0 d63f
00000050: e6cd 8b45 361a a63f a082 36b4 9377 c23f
00000060: 222a 0c55 7e62 c73f 68e5 8685 97da a63f
00000070: c227 c3fc 7e8c d83f e00e 373c 8d42 95bf
00000080: 40d3 8e51 eb64 db3f e771 a7a5 0a21 c33f
00000090: 8829 2502 6b0b ce3f dbf1 3f51 02d6 bb3f
000000a0: 3bc2 a717 cdd9 ba3f f74a 5192 5c9a d7bf
000000b0: 64f6 dd45 e453 d83f 3219 5705 c19b d9bf
000000c0: ea57 54ed 2a66 d5bf 7a5c c64d 7df7 bb3f
000000d0: db15 726d 478b 853f 34cf 6e23 52d5 a1bf
000000e0: c9fb ca28 2087 d53f be34 432a 93bb d2bf
000000f0: c8ad f694 2975 d4bf 596f 453f 6511 d1bf
00000100: 9972 a9d8 dc9f a7bf 9e31 70ba 782b 9a3f
00000110: 4230 06c1 21dd cd3f 84ef 6b53 9191 c83f
00000120: eba4 ff02 cc48 c4bf 715a bca3 627a d2bf
00000130: 1f76 df83 23a7 c8bf 9ef5 a8e7 ecce c0bf
00000140: 152c 56ee 29e8 c63f 998a 1264 c111 c33f
00000150: 4ada c385 195b ccbf 6c05 8768 d6d1 da3f
00000160: 30ad abf6 1ee1 cdbf 2d02 7ce0 9a2c cb3f
00000170: 4681 55d7 0daf d2bf 4c95 d8a3 eb03 d03f
00000180: 7da1 28c9 8739 a8bf daf3 f80b cf63 c73f
00000190: 8b75 8c76 3d03 c93f dac4 1103 9c45 cdbf
000001a0: 7a60 7d90 88e2 ccbf 4c6d 8501 72f2 d1bf
000001b0: 3f70 48c2 47cd d93f 2c30 6489 1b37 cf3f
000001c0: 33dc db3a 26f2 d13f 2d83 1a2d 89c6 cbbf
000001d0: 5484 c462 d4f3 c2bf 9c1d 1c7c a1ec c1bf
000001e0: 7b2c 3d82 12cb c0bf eb09 e57a 01f3 903f
000001f0: c6c5 47ca def8 a43f 75df b635 e075 d7bf
00000200: 5c66 511c 6714 c33f 5780 235c eb82 b73f
00000210: 2cac fd92 e29c cf3f bc9a 3df4 7b6a bbbf
00000220: 7ea5 747a 623b c0bf 817c 365e 7d37 b73f
00000230: 451a 74a9 1fc2 b43f a0a8 529e cc2b d43f
00000240: 5178 3f86 57dd e1bf 76ca 9bab f8f6 c63f
00000250: 9218 5de8 e526 90bf 45d2 9de1 9604 b73f
00000260: ad48 e9b9 e5d7 dabf f216 ef38 139f 83bf
00000270: 636a 0b76 f93d b5bf 6db3 ab9c 08b8 ac3f
00000280: 2b78 c02e 6282 d63f 71b9 7f4a 4b6a 8ebf
00000290: 35b0 3ca1 4b22 d3bf 18c8 4c24 f569 d3bf
000002a0: 45dc 66eb 4ec5 c9bf 1326 81d0 d3cf c2bf
000002b0: 0cb4 03ef 0e44 d23f 4877 65c0 c368 d5bf
000002c0: 3f94 4f84 795a cbbf a4e8 18f7 284d a7bf
000002d0: 7541 b609 1073 d83f e858 65b5 457f acbf
000002e0: aaab e363 d5dc ab3f e9c3 b650 b4b6 b53f
000002f0: 7e45 cfb1 7c89 8b3f 7d50 98ce 8b99 d8bf
00000300: 78e2 8406 8935 cbbf bf54 2567 28f6 d33f
00000310: 442b fd82 f27c a8bf ce98 9248 c66d c93f
00000320: 4449 03eb 3192 9a3f 4b3b 55b2 6703 b03f
00000330: 033c 696e 6c7c d03f 0091 c235 9023 c93f
00000340: c294 c31f 6401 aabf b4b3 c836 d3f7 c93f
00000350: 5a93 0cb8 1a5f d7bf 1c94 a710 46a9 d53f
00000360: 1f6c 8f92 bd8a dfbf fa31 de82 769a b83f
00000370: 504f 8a25 5eca ac3f 1426 ab3c 69f0 cdbf
00000380: 2c62 3324 07f4 c6bf 8da9 e4d7 418e d9bf
00000390: b89c aa0d c617 c5bf e6b5 3f03 a7f7 d7bf
000003a0: 5d9d 9964 1dc6 d0bf 841f 7ea7 451d dbbf
000003b0: 36a3 e4ba e009 b63f 7d51 2d7c 38b4 ca3f
000003c0: 207c 2788 1a21 d2bf c0cd 3ff3 9333 d33f
000003d0: d6d2 2b4c a665 d53f 5f8a 5a58 1a7e ac3f
000003e0: 72d7 e26e 8a16 b33f c425 245d e78d d9bf
000003f0: 9700 0dca 77ab d13f e82d b616 55fd cb3f
00000400: 0344 8933 47a3 ca3f 7b5f 2a51 37cd d2bf
00000410: 42f5 7a3a 714f d8bf 660b 70c3 f55b d5bf
00000420: 8732 4f9b 7c2d bf3f b336 a1f4 9a82 c4bf
00000430: dfd0 b641 451c d5bf 8ad2 5b7d 4709 d3bf
00000440: c809 01e1 220d a03f b682 72d1 a9ad c7bf
00000450: 27b6 5206 eb2f c53f 3820 53fb 8508 b3bf
00000460: 23a9 be35 fd99 d83f 9058 042e 429f a73f
00000470: 60a2 c659 af1f d0bf 2582 4236 6d02 c43f
00000480: 29ac 4be5 749b d1bf da8f 2622 41a9 d43f
00000490: 4887 e29c 6ee8 d43f 237d d09b 7c47 cb3f
000004a0: 39e8 e318 5c5e d33f 8750 6316 d4ba cfbf
000004b0: 4f15 39cc 2a28 d93f e905 7b53 6a54 b33f
000004c0: b2be d1fb f3ab c53f d2a7 55ca bcac d33f
000004d0: a0de de93 2f7f 883f 3903 3ecd 629c cbbf
000004e0: fc9f 4235 90ee a8bf 0c10 50f9 32c3 d0bf
000004f0: 536a 885d bfb4 e0bf 1387 93e6 a8c4 bbbf
00000500: 10d6 a13b aff7 b33f 7e32 e181 f201 cf3f
00000510: 8ff7 ec9d 21d9 a0bf bf1e 295e b96f 9cbf
00000520: 6f8d b792 41f5 8b3f 369e 6816 711d c2bf
00000530: d84b dbc0 f8f8 b2bf 6164 bb32 3ee4 d73f
00000540: 737c 52b9 0ea4 d4bf 26c5 d37f 2f0c d5bf
00000550: d47f 5305 6a16 97bf 903b 0c4d 8231 bf3f
00000560: 542d 1392 335f b2bf 1380 6d4e ae86 babf
00000570: a184 02a1 ad54 713f bbe9 0570 0c47 c0bf
00000580: 4428 29a9 75a4 cabf bd4c d994 335c c33f
00000590: 4b70 c571 d75c d1bf d63b 2a8f 1d73 d83f
000005a0: 1b4d dae6 8dfb a93f b712 c4e8 9f87 ce3f
000005b0: f00c 0b1c 02aa d53f 7be9 a4a4 824f c63f
000005c0: 169e 3ed9 20d3 c93f 3c79 a670 18dd a6bf
000005d0: 5f46 0244 5762 cc3f efb5 dc0d 4257 cfbf
000005e0: f04c fcce 9ad4 b03f 02bb 8149 0cc1 d8bf
000005f0: 9eea a969 f7a8 b4bf 5eb2 f150 50db 96bf
00000600: 8411 90d7 5e10 d03f a5cd dc2b 000d bdbf
00000610: b995 9bcf e3c2 c7bf 25ff 92aa 6da6 da3f
00000620: dd15 8824 0c2e b5bf a549 85df dc24 b13f
00000630: 41ef 2e84 2b6e bbbf c569 c96d 74a2 ca3f
00000640: 4681 6a0b b745 a9bf 4e64 a877 ecfe d3bf
00000650: 2f1d b198 c7c3 b8bf ef6a c98f 96d6 d0bf
00000660: c0fe 1abc b7b8 c4bf 7d8f e40b 2696 dcbf
00000670: a7a6 f35f 3428 d7bf a32a 12e6 7895 b23f
00000680: b674 e4ab 56e1 a3bf d826 cc59 4aa6 d23f
00000690: 1908 469c 44a0 d33f 4ab3 283e 1c27 d33f
000006a0: f7d3 bc18 e54c c3bf 62b9 4a3f 7c2b cc3f
000006b0: 1d45 109b 6d22 b23f ab1f b786 5dda d1bf
000006c0: 6352 b1b8 d207 d8bf b2b8 a793 4c93 ce3f
000006d0: c06a af3a 0137 cabf 0a00 e1a6 7883 a73f
000006e0: cd5a d415 0af8 a23f 7b5e b38a e650 d73f
000006f0: 0e10 1ec9 1fad d13f 8bc0 6ed3 8a07 d53f
00000700: 298e 8381 594b cebf 3962 fcba bea7 d23f
00000710: 6ede be03 852f d93f f750 e8a1 fa9f c83f
00000720: ef42 973e ee64 b0bf dfc5 c068 5876 b3bf
00000730: 444d f5bc 0e29 71bf 09ec a939 be13 c0bf
00000740: 4b36 a4e6 5090 acbf 452b fc7a 443f ca3f
00000750: 9a09 b646 9b2f b73f 9dba 6e3e 61ee 513f
00000760: ce48 21e3 0064 4bbf b1bd 5bdc eb5e cabf
00000770: 58d8 3a8d 77ef a63f e902 a64b 03de 733f
00000780: bbe0 05cb bfb6 c3bf 812e 37f9 69bc d7bf
00000790: 1e59 93dd a37a 90bf e8b4 6349 e3a6 d23f
000007a0: d980 71ee 0569 d23f a46c 8d60 1c78 92bf
000007b0: eb05 91f7 8fa7 ce3f e47f fd90 25aa dabf
000007c0: 014f 8640 8743 d03f f0e9 c5ae f62a c73f
000007d0: e56a 830b ba37 c6bf b5ee 8afe db39 cabf
000007e0: 997a 0329 760e c7bf 2062 d1ed b4e4 9abf
000007f0: b14a 4fb7 4def 813f 7276 aac2 5da5 a43f

bias f8 [60]
0.25642815394622637 0.29276423286160297 0.07094173645327413 -0.14591296436327572 0.2991095873088716 -0.3206564171645812 0.08346606957902789 0.028948291404574236
0.2711761674836586 0.025927087770760443 -0.019264496376888002 0.3714300584949518 0.03440217339884555 -0.2807844921234558 -0.32524012497672744 0.33768340816560327
0.0057865299081586285 -0.21169399855975776 -0.11233671299425331 -0.1167440349200319 0.04974701762309309 -0.06778731791387455 -0.24169996890024703 -0.14119232309332266
0.07990516616281716 -0.143891367850438 -0.23543493453336137 -0.2580965078857164 -0.0866457105372501 -0.13015228909635165 0.038387166610962496 0.10096824096585501
0.21141941237870837 0.09596900903284343 -0.2256620241736191 0.04085339375409053 -0.1820536168259791 -0.0710168223989371 -0.19593099362982283 -0.14335578654390638
0.3362744146197894 -0.14694887704483348 0.08918485903885295 0.06948802464169045 0.12121421951283576 -0.27791371133624154 0.017271727501395766 -0.1781747615241457
0.1852239838926799 0.14826725176449795 0.06324039385434498 -0.11213330618252966 0.04923751597615734 0.04662160182213966 0.03665529641563225 0.25669228271461825
0.0476513528255609 0.24082073142427557 0.07055170551423942 0.18856673679403946
00000000: a540 bea1 5169 d03f 3110 6531 a6bc d23f
00000010: d5fe fcd5 3c29 b23f e857 00a9 46ad c2bf
00000020: a458 da89 9c24 d33f b95c 3e7e a285 d4bf
00000030: dee6 2a47 085e b53f 444f 6ef3 9ea4 9d3f
00000040: f000 b348 f35a d13f b847 3968 a18c 9a3f
00000050: 458c a677 12ba 93bf 0a2e 7f94 82c5 d73f
00000060: 0098 5163 299d a13f c63a b984 5ff8 d1bf
00000070: cdce 07f5 bbd0 d4bf 0847 9ede 9a9c d53f
00000080: 6ee7 67cb 9db3 773f bb6c 49f8 c918 cbbf
00000090: 1951 734c 19c2 bcbf fd0f fce3 efe2 bdbf
000000a0: 7189 87eb 7078 a93f ac0d 8679 825a b1bf
000000b0: a875 ef4a 06f0 cebf 35e8 100d 9712 c2bf
000000c0: 0f64 733b aa74 b43f 3c13 8c47 086b c2bf
000000d0: 5b0e 1460 bb22 cebf 6b2e 2537 a784 d0bf
000000e0: b79e 18cd 692e b6bf 138d 9588 d4a8 c0bf
000000f0: 7b41 5c92 7ba7 a33f f10b e2fc 0dd9 b93f
00000100: c2fa f392 ca0f cb3f 57c0 39cb 6c91 b83f
00000110: 772e e342 7ee2 ccbf c877 356c bcea a43f
00000120: 946b 316d 884d c7bf 9d55 ab91 282e b2bf
00000130: 09d9 f44c 4414 c9bf e9ff 727f 7b59 c2bf
00000140: ad81 511f 8585 d53f c7b5 8b86 38cf c2bf
00000150: 46c8 dea4 d1d4 b63f 4fb9 4c99 f7c9 b13f
00000160: ca27 9e24 e507 bf3f 2425 5397 56c9 d1bf
00000170: ae40 0e03 aeaf 913f cc01 dc3a 6ece c6bf
00000180: 807f a064 6bb5 c73f 84ba b2da 6bfa c23f
00000190: 77fc 63bf 8530 b03f 65a8 d8b2 c4b4 bcbf
000001a0: e12e b5e1 a835 a93f 7af8 395e c9de a73f
000001b0: 8f20 a9a6 7bc4 a23f 9345 d977 a56d d03f
000001c0: 03ec fd13 c265 a83f 8e41 d5b6 36d3 ce3f
000001d0: 9a55 dc33 ad0f b23f 5469 d26f f422 c83f

weight f8 [60, 60]
-0.008024456486099858 0.10866194542333747 0.003846966699251158 0.09624864408287596 0.009818006129575113 0.1681678285004125 -0.014310070348743697 0.05118090188070848
-0.23816602740148973 -0.06232071736149522 0.09252050796453692 0.09217375276657734 0.07736985679255728 -0.011778472398999706 0.0709425687808934 -0.055572264673763146
-0.004709251117405838 0.10688970575650801 0.092973460302904 0.08241610974839503 -0.08546319375031339 -0.09669342114752663 0.1502574647633306 0.07832646405103363
-0.07652303185955181 -0.010655199719590211 0.05412826543699705 0.12818043084534367 -0.0887974014094386 0.06035121921786792 0.061873756536646486 -0.0012860633938907074
0.12683602539457342 -0.15639437794163594 -0.013314344491620302 -0.027588160385793408 0.017599009906555937 0.1272387252719351 0.22878003393149274 0.05631188240262741
-0.1939655590446354 -0.04148166730627012 -0.022064189853202597 -0.007933661316713178 -0.09883496717020299 0.09696943202440855 0.008481428355142229 0.1926156905147525
-0.02404182278358287 0.10077065101576087 -0.018057491153546254 0.0706188162170482 0.028241406868773095 0.08499015228202511 -0.041540063398618515 0.01993832843564592
-0.05312305960516738 0.1598528193370563 0.06692525890880419 0.02024801703017525 0.07641468686387724 0.030981778061653906 0.006312864563804498 0.010497360514360793
0.050672147237960555 -0.04302484206959213 0.023862515478421255 -0.2686544019748513 0.029506577523629562 -0.1933770421889667 0.018585723260554878 0.08812071165379684
-0.10756076306697165 0.10646095898263833 -0.16263817284268617 -0.1055151006072312 0.09746727038993272 -0.022252731379914594 -0.011600691129995452 -0.018252742011392355
0.05499372097253316 -0.16618167402537531 -0.0172074477710337 -0.08095892360133952 -0.014718872350315979 0.09542166998770905 0.14010477339814792 0.01902703460875442
-0.16606630049033752 -0.0881023566320427 -0.06218710424900597 -0.03307650431792256 0.075365216505669 -0.01694540264515117 -0.09605959290563779 0.03491295894298576
-0.03643006572968922 -0.10684668948031983 0.23775242979188146 -0.0011825771863541012 -0.02386019956636205 0.024915059198165893 0.057411066301974636 -0.22900258936904178
0.054919518221027336 -0.11244336892690836 0.04701194386005676 0.0728004603160748 -0.06434605756686665 -0.1049046046702947 0.13761028026846667 0.12587744855108693
-0.05896066586224851 0.11619573691709262 -0.06494940847041866 -0.03834162819376958 0.04125844472706538 -0.12197056897186613 0.006505210175900329 -0.058174944467253804
0.07088696814850244 -0.13391091325781812 0.14811682436054982 0.05253833750138043 0.008545277801858374 0.1904698838046456 -0.09955352280661092 0.0009766808656523716
-0.1252132026632368 0.13194979519249772 -0.08078063283654316 -0.09370493133174768 0.11327016297044581 0.09122214089507154 0.02190443676083246 -0.016109352432025582
0.07975103675842707 -0.03791245887489584 0.13706746904584532 0.08584751999235464 0.14505758417700612 -0.01857697925343961 0.1373005073024312 0.08390958679238765
0.0599894781188485 0.21261106268087573 -0.10981589667436462 0.12930749310866316 -0.01903774045549155 0.10108556508544676 0.021514077639933824 0.0038484979452034743
0.12654981981790425 0.03155119624590333 0.1269599378274569 -0.018174248160514495 0.03741770645713393 -0.0377402783429477 0.07105608807702865 -0.10354138122279709
-0.12208975461092164 0.03255628056031529 0.03130835498776019 0.1456390008212555 0.024874811149519473 -0.10846632377948805 0.13118156614227497 -0.045358719263688535
-0.00660071545647767 0.11507591110865141 0.042399941263597155 0.002904083490004124 0.08263367947545984 0.1282457985668299 0.12433695273943753 0.031606770833008814
0.08407331178778632 0.15057116195123804 0.1559853974944562 0.15351494756247297 0.07881243502922715 -0.06492195680860373 -0.030749474867388053 0.04944306053815019
0.11804826799656211 -0.09009122120134039 0.07713293030155398 0.0978064804527911 -0.04875442219358986 -0.0629637304181451 -0.045296731750544675 0.1438755860108116
0.061012730413032706 -0.13928970403215576 -0.06317511564121754 0.029804561339803356 0.002986055071336162 0.15052625343486506 -0.031000027033408307 0.09122374915041095
0.07937364010137937 -8.465121426201022e-05 -0.1556862798651585 0.04349669702656467 0.0931097035750658 0.16349191235661836 -0.018829617294904476 -0.005186122299277788
0.1616338876015205 0.10310709268971445 -0.08916916544502014 0.09531909441804529 0.01611910040192275 0.04359771183286763 -0.15493997303984972 0.06525416560569679
-0.074536365944411 -0.1488075287030157 0.10680915103365118 -0.17055958870068327 0.01671808496882575 0.022307824292166923 0.1680495730319356 -0.059023016681832886
-0.020802451539596065 -0.1657548773431409 0.08644535185337762 -0.17915447722865793 0.06347477113377525 -0.07248881958600896 -0.0915691090082206 0.07281449462812249
0.10799211747587101 0.11649895157601572 0.044627553854867615 0.15618044008066223 0.161697364967184 0.017609092222042644 -0.07938165467170291 0.1028267490252151
0.03535554414876708 0.007567839562534829 -0.05865715365268973 -0.08085453736545498 0.0196188349579168 -0.1480079404326202 0.15141099628391397 -0.16687853269610528
-0.1423840821399316 0.08210017774397402 -0.07323965265006403 0.019514741579358313 0.09424527621059679 -0.09645378096951636 -0.044254222689870094 0.09451639719856478
00000000: 0a65 6851 206f 80bf 7db8 e9ed 44d1 bb3f
00000010: 72cc 2f85 ac83 6f3f bbcb 9e4a c0a3 b83f
00000020: dd59 e879 761b 843f 9a05 d3fd 8586 c53f
00000030: d9e3 3521 994e 8dbf 94cd 8317 6234 aa3f
00000040: e493 5a71 397c cebf 7c9c dc45 80e8 afbf
00000050: 18c0 ea8b 6caf b73f 1f9a aef5 b298 b73f
00000060: dac7 9ecc 82ce b33f 601c 01ce 4f1f 88bf
00000070: 15e4 cecc 4a29 b23f c94b adc6 f773 acbf
00000080: 0647 9bf8 014a 73bf f7d5 80ae 1f5d bb3f
00000090: 019d 65d3 1bcd b73f 5c6c 08e0 3819 b53f
000000a0: be57 2b76 eae0 b5bf b625 9169 e6c0 b8bf
000000b0: 59b6 91f8 a23b c33f bab0 8201 340d b43f
000000c0: 2240 3a6f 0397 b3bf 58b8 9fb2 64d2 85bf
000000d0: e7a5 ae33 b3b6 ab3f 7be5 3b63 3768 c03f
000000e0: 81f8 052f 6dbb b6bf 2302 a1e1 5ae6 ae3f
000000f0: bd72 9cc1 eaad af3f 1af4 e80d 2412 55bf
00000100: dd1c 83b2 293c c03f c1cf 4421 bb04 c4bf
00000110: ce03 4611 8d44 8bbf 2b84 741a 1240 9cbf
00000120: bf69 f68f 7905 923f bff1 e9c9 5b49 c03f
00000130: 0155 db05 aa48 cd3f 8049 973a e9d4 ac3f
00000140: 0fd3 520a ddd3 c8bf 208f edc8 153d a5bf
00000150: c636 54b7 fe97 96bf 9880 24ff 853f 80bf
00000160: 567f b297 3f4d b9bf f0ab 411b fdd2 b83f
00000170: 0d06 450b b65e 813f 7189 ba85 a1a7 c83f
00000180: d4ea 5d6a 6b9e 98bf ef62 82fa 1acc b93f
00000190: 3c25 cfb7 a97d 92bf bd6b 2222 1314 b23f
000001a0: 45e0 93bb 50eb 9c3f 208a 8824 eac1 b53f
000001b0: a4aa 8a3b bd44 a5bf 62a3 4592 b66a 943f
000001c0: 8fd6 5517 f232 abbf 50ef 9ca3 0e76 c43f
000001d0: 4826 4a86 0322 b13f 2e56 d06b e5bb 943f
000001e0: ebb1 03b5 e98f b33f fcda 2fee afb9 9f3f
000001f0: 59a6 87ad 84db 793f 83f8 d3e0 a37f 853f
00000200: c207 691e b3f1 a93f 327c 3523 5a07 a6bf
00000210: 2a09 524e 6a6f 983f 9f23 9a3b a231 d1bf
00000220: 306b ece5 f836 9e3f 79d9 ff33 94c0 c8bf
00000230: 876d 4ec6 2208 933f e63e a736 148f b63f
00000240: 3c98 b427 1a89 bbbf 3a98 2181 0641 bb3f
00000250: 5e63 b8e0 53d1 c4bf ed9a 57a2 0903 bbbf
00000260: 8651 c172 9df3 b83f c7f7 1786 6bc9 96bf
00000270: de57 1d68 1ac2 87bf 1a49 01c8 d8b0 92bf
00000280: 2cf0 1f12 2328 ac3f 2c17 91eb 7045 c5bf
00000290: 2966 b245 d49e 91bf d2e6 2f59 b9b9 b4bf
000002a0: 7862 079b ed24 8ebf 4f4a edf7 8d6d b83f
000002b0: b617 e105 f4ee c13f fcaf 89ad d27b 933f
000002c0: 476f c918 a941 c5bf 2166 6f44 e08d b6bf
000002d0: 2f00 f7f5 fcd6 afbf 557a 9f50 67ef a0bf
000002e0: bbd6 2584 224b b33f 75c2 b6b8 225a 91bf
000002f0: 7e2d ff89 5c97 b8bf 03c2 bb81 1ce0 a13f
00000300: e2df cc29 f6a6 a2bf b8fb 00fd 4d5a bbbf
00000310: db15 40ef ab6e ce3f b8e4 c895 1660 53bf
00000320: 7315 41e3 ce6e 98bf 7171 bc51 5583 993f
00000330: 7a14 64b8 fb64 ad3f 7a09 05f4 f44f cdbf
00000340: 3cc0 573d 691e ac3f 3b71 31b0 16c9 bcbf
00000350: 4af8 cc12 f311 a83f 31f8 300c 0da3 b23f
00000360: 5250 e0b4 fb78 b0bf c63b 4236 07db babf
00000370: c058 acb2 369d c13f ff58 6a92 c01c c03f
00000380: 57ea 41a7 1730 aebf 2858 fef9 00bf bd3f
00000390: fa65 4641 86a0 b0bf d9d3 558e 83a1 a3bf
000003a0: 3bb9 92ad d31f a53f 7b05 cf94 7639 bfbf
000003b0: 7b77 580f 35a5 7a3f f1ef dd37 1bc9 adbf
000003c0: bd10 e9f9 a525 b23f 8489 8228 fe23 c1bf
000003d0: 0bd7 4efa 7df5 c23f 4893 b512 4ee6 aa3f
000003e0: 5fc1 8dc5 2f80 813f fd2c e830 5161 c83f
000003f0: 92ee a7f4 567c b9bf a84f 1a18 7f00 503f
00000400: 9da6 3b79 fc06 c0bf 1068 881b bbe3 c03f
00000410: 0ae2 2e20 0aae b4bf 4c35 8bdf 0bfd b7bf
00000420: 7216 92fd 45ff bc3f 71c0 d08f 555a b73f
00000430: 6aad 19de 1d6e 963f 9ad0 6b57 f87e 90bf
00000440: ee14 b35e 906a b43f 050e f505 4369 a3bf
00000450: f0dd 7244 6d8b c13f 9953 cf62 1afa b53f
00000460: 69db 0936 3f91 c23f 0471 68f9 d705 93bf
00000470: 8a48 4b22 1093 c13f 151c 1843 197b b53f
00000480: 94c6 3fdd f0b6 ae3f a9b7 7ddc d636 cb3f
00000490: 961c cc04 e51c bcbf 23c5 03df 258d c03f
000004a0: fe93 9522 a17e 93bf a1c1 235c bee0 b93f
000004b0: 79ee 774f c907 963f f924 079a e286 6f3f
000004c0: 285f b7d4 c832 c03f f439 0d78 7a27 a03f
000004d0: e280 6f26 3940 c03f 004a ea25 459c 92bf
000004e0: dfa7 0ce3 6928 a33f c225 739a b152 a3bf
000004f0: f6f7 7856 bb30 b23f f773 221e b081 babf
00000500: e006 3b2f 4641 bfbf a868 9280 37ab a03f
00000510: 8029 8711 a607 a03f 0d53 c67c 4ca4 c23f
00000520: d783 8651 c878 993f dfa9 59f1 72c4 bbbf
00000530: 1da6 35bc 8eca c03f d4e7 a60f 4239 a7bf
00000540: 829b 4010 5a09 7bbf 2de1 c46a 9d75 bd3f
00000550: 62b0 28f2 71b5 a53f c456 a9f3 4dca 673f
00000560: df2e e516 7b27 b53f f7d2 58bb 5b6a c03f
00000570: 1d3f b3e9 8bd4 bf3f 65b0 1e3e c32e a03f
00000580: e04e 981c d485 b53f 9290 2674 ea45 c33f
00000590: 3d35 725a 54f7 c33f 542e 9db7 60a6 c33f
000005a0: cdf9 f73e 0d2d b43f f307 49b1 b99e b0bf
000005b0: d1cb b253 ca7c 9fbf c20e 0dd0 9950 a93f
000005c0: 9909 654a 6938 be3f d869 b7e0 3710 b7bf
000005d0: 8ffe 16d5 fbbe b33f 9bb0 e172 d809 b93f
000005e0: 64b4 b6f1 56f6 a8bf 6ae7 fa1a 641e b0bf
000005f0: caf2 f71a 2231 a7bf 97fc 4de4 836a c23f
00000600: d4fb 8683 0f3d af3f 9b6a beb9 3ed4 c1bf
00000610: b59c 998f 3e2c b0bf df81 e740 1685 9e3f
00000620: a3a2 031c 3676 683f 7998 d8bb 7144 c33f
00000630: 3d69 2299 78be 9fbf a632 388b 705a b73f
00000640: c05f 66b4 d451 b43f 5ab6 8bc9 d830 16bf
00000650: 1577 3a2c 87ed c3bf 801d 6df6 3245 a63f
00000660: bb8f cb9b 09d6 b73f e2b7 5d90 4ded c43f
00000670: 3647 e939 1248 93bf 44fd b11a 0b3e 75bf
00000680: 6341 9652 6bb0 c43f d384 16f7 3965 ba3f
00000690: ade1 6559 cad3 b6bf 1eb8 3509 d566 b83f
000006a0: bacf 4484 8681 903f 9e54 0175 7052 a63f
000006b0: af4e 86b2 12d5 c3bf cb48 343b 7fb4 b03f
000006c0: 050c 18b6 d014 b3bf cfc9 9606 200c c3bf
000006d0: e861 9a32 d857 bb3f f28b be87 e5d4 c5bf
000006e0: fc7b c5b0 8b1e 913f 5d7c 1ebf dcd7 963f
000006f0: e1b3 23fe a582 c53f 252f b8cc 4338 aebf
00000700: 6921 28e4 3c4d 95bf 1daf abb0 7437 c5bf
00000710: eef9 1957 4821 b63f 1f85 50ae 88ee c6bf
00000720: 9c01 24f2 e13f b03f d192 7295 a08e b2bf
00000730: 6aa0 83b8 1271 b7bf f740 1a81 f8a3 b23f
00000740: 38df c814 5fa5 bb3f de8a 0913 e0d2 bd3f
00000750: d140 9d38 6cd9 a63f 34ee 357d b8fd c33f
00000760: 4814 31cf 7fb2 c43f fddc d22c 1e08 923f
00000770: eaa2 b72a 5b52 b4bf e4a0 3794 da52 ba3f
00000780: 91d5 b333 1f1a a23f 8e67 c276 74ff 7e3f
00000790: 6dc0 3a79 4f08 aebf 4ec4 b709 e2b2 b4bf
000007a0: 5797 1eba f516 943f f76b da97 ecf1 c2bf
000007b0: f4a7 a57e 6f61 c33f 57c8 2a98 465c c5bf
000007c0: b088 2140 a439 c2bf cef9 676a 8404 b53f
000007d0: 4f05 e778 d5bf b2bf 6831 7e23 acfb 933f
000007e0: 1383 205b 7520 b83f 55f1 d6ea 31b1 b8bf
000007f0: bd66 534e 7da8 a6bf 2251 e702 3a32 b83f

bias f8 [60]
-0.06344667718525847 -0.11338964294609766 -0.09353575315754054 0.13616292525663015 -0.03261959216876451 0.01887179290722078 0.013896883902941092 0.003010969556174351
-0.02458261691154697 0.10555208806547402 0.09074434024756467 -0.0960892054882211 -0.014086500119148398 0.0691232051796406 0.10820465340928656 0.14979708214920914
0.12524122154136746 0.14146121029551753 0.13048544556568611 0.029768744521344814 -0.007999272074964143 0.055161174994069875 0.002504571645627939 0.13870705383773035
0.04612463748523007 0.00344540009467728 0.10665900270404689 -0.05317824724503722 0.08789882574445383 -0.019732264749379346 0.06615918985630255 -0.12387319908964244
0.09875534740204661 0.16467834219693125 0.15039777480838404 0.13069236835516224 0.030992221807592705 -0.01371473650862282 -0.055361530704073826 -0.022739492284846452
0.12976867566663033 -0.0548490870954469 -0.07366730697964005 0.0040348925465486666 0.051877394596686686 -0.01518890098615355 -0.07343411068930501 -0.0003035166117257298
0.10589099483123092 0.09180774380527996 -0.04384634823634254 -0.14227986323995595 -0.03064487878369211 -0.013963736805747869 -0.12077149167779334 0.0900635254648346
0.13406128811187473 -0.12917896813249585 0.06512301947045446 -0.03447556605289188
00000000: 23f1 8c9b 0a3e b0bf 709a 2888 1a07 bdbf
00000010: 6480 d188 f5f1 b7bf 62d4 7367 c96d c13f
00000020: 2dbc 25e3 83b3 a0bf 2be1 6995 2053 933f
00000030: 4618 092f f875 8c3f 6e95 bcf8 75aa 683f
00000040: a6a2 bd7e 2f2c 99bf 6906 442e 7605 bb3f
00000050: 1c0f a965 053b b73f 790e 125b 4d99 b8bf
00000060: 965f 9d0a 62d9 8cbf 3c29 a4f1 0eb2 b13f
00000070: 8afb aad7 4cb3 bb3f 6ffc 6e00 8d2c c33f
00000080: 42cd 5083 e707 c03f 0198 efa3 661b c23f
00000090: 8980 a740 bfb3 c03f 000c a6a0 b27b 9e3f
000000a0: dd55 a11f ec61 80bf 7a88 37e5 153e ac3f
000000b0: 64e9 dea9 7784 643f 6e91 fa19 27c1 c13f
000000c0: 2bed 1303 a69d a73f bd05 4e17 8739 6c3f
000000d0: 6517 7020 014e bb3f b754 8de1 2d3a abbf
000000e0: 27e2 ed95 8980 b63f 3330 19df b134 94bf
000000f0: a13e c304 cfef b03f 8fdf f06a 27b6 bfbf
00000100: d09b 65cb 0748 b93f 5533 0c0f 2e14 c53f
00000110: 31ba 18fa 3b40 c33f e20a f60b 87ba c03f
00000120: 913e 60cc 6cbc 9f3f 22eb 38c6 7816 8cbf
00000130: e536 a9b7 5858 acbf 30a5 c37e 0549 97bf
00000140: b946 048d 429c c03f 51af 94f6 2d15 acbf
00000150: ee0e 4352 dcdb b2bf 911c 7c38 e486 703f
00000160: cb8f 6382 ac8f aa3f 3e50 fbc7 5b1b 8fbf
00000170: dd47 d2ef 93cc b2bf 09cc d0eb 29e4 33bf
00000180: ebb4 bd17 ac1b bb3f 0dc9 2959 b680 b73f
00000190: a9bf 724f 0773 a6bf f65a bfff 3936 c2bf
000001a0: 74d2 a900 5f61 9fbf e4fc 4807 0599 8cbf
000001b0: 1196 0b67 e1ea bebf e515 6f38 670e b73f
000001c0: 3ed1 0c98 eb28 c13f 6ce4 bab9 ef88 c0bf
000001d0: c4a5 d7f6 e6ab b03f d9a0 6a09 c8a6 a1bf

weight f8 [60, 60]
0.03290870658364729 0.0029625159549267065 -0.05754937648228794 0.1448996621173535 -0.2509536764692394 -0.0534434809905514 0.031282680339939764 0.029690239183407383
0.16230100232247596 0.08426481323766276 0.1514574270785508 -0.10129719429370773 -0.09173977316434853 0.04525848688445575 -0.022671539009790527 -0.09324272792966697
-0.02003750650958511 0.27900222462592966 -0.028932750047907296 -0.08596231807426073 0.13492005982338198 -0.04216132795760126 0.044919865358946175 -0.09412171543661237
0.1074704260869203 0.0062886235242926415 -0.006420939599069202 0.03903516268797179 0.11983009735013651 -0.005201799406697166 -0.11567555073931611 -0.1220959102590717
-0.1591351689909841 0.05462566575105352 -0.05423401276453111 0.10077696515769692 -0.1770791736026639 0.09457571326814544 0.053310171175349266 0.007437498221034006
0.011443212212855502 0.09693183975762477 -0.06584849615817401 0.09795831677239643 -0.05736511415486432 -0.023315734393166105 -0.09772594089919605 -0.0016824043832363242
-0.0692673773540491 0.08450163519352753 0.042639913335742165 -0.03483759445487199 0.07886803874933586 -0.1572997809490652 -0.15356686599610428 -0.022009532119452658
0.04323071319888264 -0.050406217771014256 -0.012598385940600192 0.15790706426793835 0.008238675886638057 0.257087522605222 0.11939161950037033 0.07060624812946349
0.06985875127630384 -0.10388666453447405 -0.007088263664239438 -0.09686340491805638 -0.1420838363170124 0.18092119179339006 -0.33870027519957574 0.03545658975919992
-0.09215480056208472 0.03267146645641856 0.012681354619523152 -0.057876716255512044 0.10563894901872925 -0.31135797008191485 0.16543445973108734 -0.04899589833540607
-0.07219652521974744 -0.10307288381646883 0.05196776992846302 0.15854771323831465 -0.05602658637475687 -0.004604010972316053 -0.07902922133246101 0.06387580457086821
-0.19801006199417476 0.05909869162976843 -0.2483551323582913 0.02596002168871966 0.11392534226709143 0.09702480771812504 0.0554453439617699 0.14461855497636236
0.023094508299874816 0.10358193598892032 0.12154131872193057 0.1270102991945563 0.04257977376723227 0.005139160237056996 0.1003306685551377 0.13126530518551072
0.03529335638728089 0.08502129730298284 -0.05591015944653396 0.036130001624679324 0.08360298885447977 0.03586621776375956 0.10188143560476065 0.06366051176242866
0.07959501276155033 0.0009361941620766268 0.27923000910578266 -0.10106577976262278 0.03093680606241275 -0.1224988925098518 -0.03455226909492952 -0.20383397274251933
0.1021604424940207 0.0859876379818173 -0.021763173347814038 -0.14805857341575007 -0.122934368093944 -0.10768352025316602 -0.18919578793615366 0.02413618915055074
0.05547833464154664 0.08252025919802154 -0.14715921765861628 0.12397033306011544 -0.1605472827593654 0.09403795625217512 -0.04192108663342688 -0.07680069771325441
0.05500948908932947 -0.10439901521193069 0.15998615341173208 0.12646746453755364 -0.07323346123099737 -0.05014487456964428 0.18752605257465801 -0.09990369200003724
-0.049021379875175665 0.015359566256240161 0.04492447201331227 -0.072463567857648 0.06819403283910097 -0.040457972461091625 0.08173501575928302 0.05141206093120996
0.11818412651341406 0.20923354319190896 -0.0694524492322812 -0.029845914270707586 0.05505446571258669 -0.003807687260736175 0.10080473815472353 0.16580981312083712
0.049138164047813605 -0.1657229471505269 0.10373039703376036 -0.07140178699339896 0.022430783375456703 0.13020488754122567 0.010471657450719856 -0.06670885776119474
0.07881375117729214 -0.10500194019831255 0.10254592659959907 0.03697934516507905 0.1270152315541253 -0.16489576798322575 0.11759320033454387 0.06265018199794098
0.23118819492802975 0.032386621595713566 0.0953051315552445 -0.05658605795826568 0.06395125745656002 0.12113765971831358 -0.10535600293532442 -0.10275615662715018
-0.032111663147026986 -0.045359990613235805 0.00423676917428371 -0.1404018876510912 -0.032867235793703486 0.13393181077544383 -0.13632344362162555 0.11359373745904672
0.10517620033516512 0.016657884928178997 -0.1343791037830987 0.14130779666977747 0.06285853671416322 -0.23044120261762835 0.08495000267288287 0.15133105631550411
-0.10894508953001268 0.046035249289100945 0.15361116956624535 0.12496738855414329 -0.046269881373168655 0.08293811243527116 -0.05125010937232696 0.13205156648086505
-0.1925169105839851 -0.14787963996993514 -0.13951938929951171 -0.02706455803040428 0.1138224841474454 0.19214097857795728 0.033245594111504274 0.022090773898554267
0.1423235193345011 -0.1779708719647635 -0.052978363218573084 0.15603252127688783 0.17843268985632194 -0.18284966265420416 0.17784717203064432 -0.03512346961942785
-0.005750540384589962 0.03479964225431065 0.027741798900952522 0.15468901683451797 -0.11008544888673756 0.04018367488768857 -0.03294340197446518 0.0530870141286135
0.2375037826108059 0.0812345365945401 0.11855056486435839 0.05603148971150082 0.02957097566767761 -0.0902807719654146 -0.0695171354425992 -0.187157504313748
0.01913745318954973 0.2019076360812381 -0.11509780836175046 -0.06040079655566838 0.07587321597290356 0.015989402065202104 0.03313645971158819 -0.06892078964916577
-0.11351217814183119 0.1508335401479429 -0.22891087496099166 0.007937522765564977 -0.009403399527340732 0.12184876761622147 -0.0641854159845394 0.06595553215182737
00000000: de93 0ff5 68d9 a03f 213e 7da4 d844 683f
00000010: 8b11 cba3 1c77 adbf 006c ff76 128c c23f
00000020: 2ac4 4f02 a00f d0bf afdf 13a6 f15c abbf
00000030: e286 fb91 4804 a03f 996d 3639 1e67 9e3f
00000040: 86a1 8a7c 47c6 c43f e72e 0ff9 6092 b53f
00000050: 7cf3 04fc f462 c33f 2e04 abe8 9cee b9bf
00000060: debb 7bfd 417c b7bf 6d03 12d2 1e2c a73f
00000070: 125e 633a 3537 97bf 0b39 0c63 c1de b7bf
00000080: 59b4 9b4c b684 94bf 31e5 9125 2cdb d13f
00000090: c0d7 f4fc 8ba0 9dbf 8b3a d160 a001 b6bf
000000a0: 6105 427e 0f45 c13f 4ab8 7769 2b96 a5bf
000000b0: 5b96 5091 bcff a63f 75c7 a459 5c18 b8bf
000000c0: 2b9c 548d 2e83 bb3f ada5 fa85 19c2 793f
000000d0: 85c8 66d9 d74c 7abf 0e1b 47b6 6afc a33f
000000e0: 5101 326d 2fad be3f 6d59 5065 7b4e 75bf
000000f0: 4f45 5fb3 e99c bdbf 8dbe 8975 ad41 bfbf
00000100: c7d7 3a8d 8a5e c4bf bd93 d82f e5f7 ab3f
00000110: a11b 4f7e 8fc4 abbf 55dd 8ae9 84cc b93f
00000120: 048c b6c5 87aa c6bf eb88 7b2b 1d36 b83f
00000130: 0a0d 7c83 784b ab3f 7a71 f939 c876 7e3f
00000140: c624 b9f1 896f 873f 793a b369 86d0 b83f
00000150: c079 7d71 72db b0bf 599d e8d6 cb13 b93f
00000160: 1df1 73d2 f55e adbf 15b1 cd72 14e0 97bf
00000170: 2704 2238 9104 b9bf 6556 7ff3 8390 5bbf
00000180: 3153 6ac0 81bb b1bf 835e 9d2f e6a1 b53f
00000190: d504 9012 e6d4 a53f bec0 b5b1 3bd6 a1bf
000001a0: 6dc8 201f b230 b43f b50e 6c33 6622 c4bf
000001b0: f1ea 993d 14a8 c3bf 7dfd 9cb2 aa89 96bf
000001c0: 1571 be06 5622 a63f fce0 ae01 d8ce a9bf
000001d0: 5c32 c7bc 2ecd 89bf 0149 6b76 4c36 c43f
000001e0: b9b0 f65b 70df 803f 4724 7339 1f74 d03f
000001f0: 3eaa 2bfd 7290 be3f 89fb 9b46 4013 b23f
00000200: 2235 125c 43e2 b13f d184 aa02 5198 babf
00000210: 8f2c f949 9508 7dbf c360 4d44 0acc b8bf
00000220: ddc9 229b cd2f c2bf 4cf6 f3f4 6c28 c73f
00000230: 5737 48eb 43ad d5bf 2a0c e3ba 5d27 a23f
00000240: f263 95fe 7497 b7bf c9a6 e27f 50ba a03f
00000250: cbee e09a aef8 893f ffda 0857 04a2 adbf
00000260: fe20 3877 270b bb3f 0773 b6fa 49ed d3bf
00000270: e295 16d5 f42c c53f 2f38 fa89 fd15 a9bf
00000280: b322 b4b2 787b b2bf b79c 1809 fc62 babf
00000290: b7dd 9300 859b aa3f 3169 9b9d 4a4b c43f
000002a0: 7e48 5f48 84af acbf 4084 e7c8 a7db 72bf
000002b0: be1f 0d51 423b b4bf 8b37 a32b 2a5a b03f
000002c0: f29e 45ca 6458 c9bf 9e8e 9207 2f42 ae3f
000002d0: f7e4 a2d9 19ca cfbf f741 a090 4395 9a3f
000002e0: 1307 3913 362a bd3f 1fcf 0c28 9ed6 b83f
000002f0: fd02 1006 5563 ac3f 2956 025e dc82 c23f
00000300: 43ed 7537 16a6 973f 025e 8783 5884 ba3f
00000310: d3fd 05f5 541d bf3f 98dc a59c df41 c03f
00000320: 6949 9a1f 04cd a53f 285f 5ad2 cc0c 753f
00000330: eee9 3a4c 45af b93f 6484 6f30 4dcd c03f
00000340: 8b1d e686 f811 a23f db3a 61ab f4c3 b53f
00000350: 6b8c aca4 41a0 acbf 27cd c3ae a17f a23f
00000360: ed53 fa66 0167 b53f 1433 a790 0e5d a23f
00000370: 34f2 fdd9 e614 ba3f 0df6 1028 0e4c b03f
00000380: bf4d bcb8 5660 b43f d795 87a7 5dad 4e3f
00000390: 9cf3 4a8b e7de d13f 8940 d36a 72df b9bf
000003a0: d77e 1fe9 e5ad 9f3f b043 2061 165c bfbf
000003b0: 36d7 87c3 d5b0 a1bf 8f16 5f4b 3b17 cabf
000003c0: caea 74cf 2f27 ba3f 5800 fe2c 4903 b63f
000003d0: b4e7 24d7 1549 96bf 9a45 5b55 95f3 c2bf
000003e0: 1996 8472 a078 bfbf 5c35 cead 2591 bbbf
000003f0: 8805 dd4c 9137 c8bf 08ed 343c 28b7 983f
00000400: a40e d801 a867 ac3f 6950 8336 0c20 b53f
00000410: b008 93fd 1cd6 c2bf 43dc 2a0e 85bc bf3f
00000420: bde1 7438 d08c c4bf ae8e af1a df12 b83f
00000430: 72ea 3440 ae76 a5bf 6b08 fde4 35a9 b3bf
00000440: 3278 3729 342a ac3f 9de1 11d4 e4b9 babf
00000450: 5dad 5b20 6d7a c43f d031 19fc 1530 c03f
00000460: b7c3 f598 6dbf b2bf c862 adc8 96ac a9bf
00000470: 8f62 7a8b da00 c83f 08cb e3d1 4993 b9bf
00000480: 95c2 bc8e 5419 a9bf d1a7 0216 d674 8f3f
00000490: 2dab 2c24 5700 a73f 839e 19ee f88c b2bf
000004a0: a887 d304 2a75 b13f 416c 2a49 e8b6 a4bf
000004b0: 4ac9 9f03 96ec b43f 4d96 a380 ae52 aa3f
000004c0: 720c 489e 5041 be3f 4e23 9e2c 2ac8 ca3f
000004d0: 5e6a 14be a2c7 b1bf 9dfe d866 ed8f 9ebf
000004e0: e5f7 7753 1930 ac3f a5a5 4388 4c31 6fbf
000004f0: 9508 a8dd 56ce b93f eddc 5a86 4139 c53f
00000500: 7545 242f a328 a93f eba7 1ad7 6836 c5bf
00000510: cc70 dc46 138e ba3f 313a 0334 6347 b2bf
00000520: c8c1 1564 18f8 963f 0a6c e2c2 8daa c03f
00000530: b63a 4912 2a72 853f c116 70ea d413 b1bf
00000540: be13 c853 232d b43f b815 2b3b 68e1 babf
00000550: ca52 1529 7340 ba3f df17 39ec f4ee a23f
00000560: 0036 cffc 0842 c03f 1a4e 5ef5 4d1b c5bf
00000570: 3e39 ab85 961a be3f cc04 c5a2 d709 b03f
00000580: e3f4 3724 9397 cd3f 9cbc 29b1 fa94 a03f
00000590: 74b6 2bc7 ea65 b83f 533d ae08 d9f8 acbf
000005a0: 6662 500f 1c5f b03f b0db cdae e002 bf3f
000005b0: 3f64 0b6b 9cf8 babf 9e1f 2d3c 3a4e babf
000005c0: b4c3 129e f070 a0bf 3f20 76b8 6c39 a7bf
000005d0: ec3e b510 935a 713f 8509 e165 b0f8 c1bf
000005e0: a810 b06d f9d3 a0bf 0559 9675 ad24 c13f
000005f0: bd38 04ee 0b73 c1bf 8cc1 6aab 7a14 bd3f
00000600: e4cf c1d4 d3ec ba3f e2bf f2bb c30e 913f
00000610: 44d1 01a0 5533 c1bf dde9 aeb6 5f16 c23f
00000620: 0235 763f 7f17 b03f 4062 72ea 187f cdbf
00000630: df6f 468b 48bf b53f bf42 dfe8 d05e c33f
00000640: a758 974c d3e3 bbbf dddd 51a4 ee91 a73f
00000650: c52d cbe2 87a9 c33f fb14 e8de dcfd bf3f
00000660: ed3a 9396 afb0 a7bf b85f 80a0 6e3b b53f
00000670: 9c54 574f 743d aabf 91df b5d3 10e7 c03f
00000680: 534d 71e5 64a4 c8bf d822 b554 b8ed c2bf
00000690: 8182 1977 c5db c1bf f830 7cbe cfb6 9bbf
000006a0: 3577 f666 7823 bd3f 975c 9b59 1398 c83f
000006b0: 2dd7 e306 9105 a13f b81f c0bd f69e 963f
000006c0: a624 7f36 a837 c23f 7958 5de1 bfc7 c6bf
000006d0: 11b9 d6e2 fa1f abbf 7892 ffa7 dff8 c33f
000006e0: f62f bce3 e1d6 c63f b69b 9724 9e67 c7bf
000006f0: d262 c735 b2c3 c63f c6cb ac12 b4fb a1bf
00000700: 57a2 2dee e08d 77bf 801e ca3a 42d1 a13f
00000710: 4115 0c9c 5868 9c3f 1c65 2d86 d9cc c33f
00000720: 91e8 bb5a 8f2e bcbf 6d91 f362 f492 a43f
00000730: bbd8 3224 f5dd a0bf 80a3 0c9b 382e ab3f
00000740: a6ae 7e21 8666 ce3f 1bb1 fa5d c9cb b43f
00000750: 64c6 036f 5459 be3f 1cd0 b6cf 28b0 ac3f
00000760: b92b 9d95 da47 9e3f 1f91 0c03 a41c b7bf
00000770: 21d1 3cff dfcb b1bf 5c40 1df0 c6f4 c7bf
00000780: 1eb7 4fbe c498 933f 0d0b e402 1cd8 c93f
00000790: 4247 c1ca 0c77 bdbf a8c7 b76b daec aebf
000007a0: 9af7 3e55 6d6c b33f 4f80 cf9b 865f 903f
000007b0: c171 8815 43f7 a03f f5c2 8ef9 caa4 b1bf
000007c0: c51f d154 220f bdbf 03a4 0971 834e c33f
000007d0: 82fe d398 f34c cdbf a1cd 8345 8c41 803f
000007e0: cf79 87eb 1642 83bf 1336 f817 7b31 bf3f
000007f0: ffa3 8896 746e b0bf 8816 9535 76e2 b03f

bias f8 [60]
0.1403743169938596 -0.10272089167454007 0.1146360410665184 0.11113794446447291 -0.04623437709363661 -0.03519543420596852 0.04782591326202921 0.12067182485348751
0.08746809569819251 0.11403028175188906 -0.11006856473008216 -0.1448074628330952 0.02222988083801714 0.019560857704136122 -0.03710825726917579 -0.07232014951952917
0.08539669504938384 -0.06809403314587084 -0.04989800114686585 0.08854070138638062 -0.12661516743070114 0.011276569040505438 0.012941666344649487 0.07200046353511684
-0.011542210232116231 -0.05875313772909313 0.03274826617122661 0.08281167350977975 0.14999662752733126 0.0326956782879753 -0.14113671434172206 0.10819013102827928
0.034083438167242505 0.17271462642280339 -0.08681643109555648 0.02385003197111308 0.12723600596822032 0.15524613651884578 -0.035301928031405416 0.015434296005328266
0.17307637696168027 0.04028980922692973 0.007231974171149767 -0.1351487416363922 0.023619775428830626 0.16177704227599526 -0.026123448626058043 0.031010745195033
0.06903499684892608 0.021147088267422686 -0.09644193653685693 -0.00764483906001855 0.12029537773401093 0.10756401078512381 -0.14762807167879943 0.0932477211061092
-0.004517520444807169 0.05347415002226989 0.0416202756353765 -0.049866841318867206
00000000: 70ee 571e c9f7 c13f fcac 5b96 ea4b babf
00000010: 12d8 529f c958 bd3f b1cf d14c 8973 bc3f
00000020: 1bde 2243 08ac a7bf d42c c4cd 2205 a2bf
00000030: 0d37 b95a a37c a83f c25b 4b45 59e4 be3f
00000040: 2b96 7722 4f64 b63f 84c6 e0aa 1631 bd3f
00000050: 3557 d515 742d bcbf 54dd 8a0a 0d89 c2bf
00000060: 21e6 c50c 6ec3 963f afe0 7bf0 c207 943f
00000070: 93ec c37e daff a2bf a238 07c5 9283 b2bf
00000080: 4f70 6ccc 8edc b53f a20c 6a4d 9c6e b1bf
00000090: b484 1f16 3b8c a9bf a2c4 d178 9aaa b63f
000000a0: 356e a501 ed34 c0bf fba2 eb79 2b18 873f
000000b0: 5cea a50d 2981 8a3f 731f 2e54 9f6e b23f
000000c0: 4b93 c33b 71a3 87bf e8ec 2a2a e414 aebf
000000d0: bf88 6978 61c4 a03f b497 7355 2533 b53f
000000e0: 41be dee8 1633 c33f e64d efe9 7cbd a03f
000000f0: 5d69 2e92 c410 c2bf bb33 8432 59b2 bb3f
00000100: 56ef 8668 6273 a13f 1e6e 034c 831b c63f
00000110: 0894 4f04 9a39 b6bf d245 4c8d 246c 983f
00000120: daea 40fa 4449 c03f b8e2 96fb 1adf c33f
00000130: 30e2 c224 1813 a2bf 2829 a324 049c 8f3f
00000140: d65a 61e1 5d27 c63f a3c5 fba9 dda0 a43f
00000150: 2447 cf48 469f 7d3f fb40 b6d0 8d4c c1bf
00000160: 1ad4 054c c82f 983f 4ad5 e830 1cb5 c43f
00000170: d3d6 07f6 1ac0 9abf 01c0 bfe1 47c1 9f3f
00000180: aedf be0d 47ac b13f f38b 0e12 95a7 953f
00000190: 5e82 6333 6bb0 b8bf f476 efdb 3150 7fbf
000001a0: 4b40 3a89 adcb be3f 7a77 8ca4 5089 bb3f
000001b0: 907e ea05 7ae5 c2bf d5c7 9328 15df b73f
000001c0: 2a80 1ca9 f680 72bf 16d9 0dbb f660 ab3f
000001d0: 5ead 68b5 404f a53f 401c 3d89 2588 a9bf
