JupyterLab/traced_model_M4_104.pt (torch, 149916 bytes, 12 tensors)

weight f8 [60, 12]
000000 48 86 97 50 87 1c b5 3f 32 a5 40 5c f7 26 c8 bf
       0.08246656148505693 -0.18868915562169658
000010 9d 9f 7a 35 78 fb c4 3f c6 69 cf ab ca 33 c0 3f
       0.16392424212722015 0.12658055676622676
000020 69 ad 93 af 0f 04 ca bf 14 7c 41 c3 35 dd c5 3f
       -0.20324894021119214 0.17081329378103816
000030 05 0e 32 fa 6b c1 b2 3f dc b9 63 6a fd be ce 3f
       0.07326388223923892 0.24020354933550336
000040 15 39 77 dc 7d 66 aa 3f 9b 16 24 64 52 96 b5 bf
       0.0515631991980731 -0.08432497925613307
000050 c3 87 23 8e 2c 06 d1 bf bf b7 ac c9 ad 32 bf bf
       -0.2660018337320446 -0.1218670480127164
000060 93 ec 75 10 4f 7e a9 3f 78 a6 a9 d4 71 d0 d3 bf
       0.04979178501067696 -0.3095974518570084
000070 17 dc 30 83 50 0f 98 3f 5e c8 76 27 26 45 bc bf
       0.023495920188192878 -0.11043013061024129
000080 96 6b 6a 2f 89 8d ca 3f 3a 99 a4 b2 fb b8 cc bf
       0.20744433226795128 -0.2243952390937894
000090 dd d4 31 72 92 03 ba bf 20 2e f9 15 dd 9c d2 bf
       -0.10161700523333957 -0.2908241953452677
0000a0 9f 6b 63 94 f6 2f cb 3f 54 2b db 5f 33 30 c8 bf
       0.21240122075581966 -0.18897096806025593
0000b0 9d 9e f4 2d f0 cb ba bf ce 14 0c 11 ac 24 c7 bf
       -0.10467434999429277 -0.18080664474852032
0000c0 83 ec de 9f 5b b3 d4 3f c9 5f 60 92 d1 61 bb 3f
       0.32344713795072993 0.10696134399074632
0000d0 e7 7d 8c fd 59 87 c5 bf 6d 8d e0 ec 1e c1 bc 3f
       -0.16819310074150381 0.11232178958066692
0000e0 cd b2 c7 be ed 75 cc bf d5 be fc 04 30 7f cb bf
       -0.22234889808114247 -0.21481895679015986
0000f0 0d ac f4 0a 30 ea 6c 3f fe fb 6a 0e b8 cb cf 3f
       0.003529638131700269 0.24840450958251376
000100 88 19 6e 21 e8 6b ca bf e3 b3 4e 04 72 86 d0 3f
       -0.2064180529816435 0.25820589466712657
000110 f2 8f e3 d4 2a 11 c8 bf d3 f7 73 63 5a 35 92 3f
       -0.18802390475241243 0.017781650848512087
000120 2c 90 2c 75 07 21 d3 bf 3a 0c 77 11 71 dd c0 bf
       -0.2988909382131648 -0.13175786354813274
000130 80 67 5c 24 32 cf cf bf 01 47 9e 50 4f ca ba bf
       -0.24851061606824132 -0.10464950292796617
000140 b4 0a 34 75 a7 64 b8 bf 62 c4 82 9b fc 51 a8 3f
       -0.09528586017044455 0.047500509246113834
000150 c1 4a ec 9a 27 78 9d bf 40 c7 bb 1c 09 ee c0 3f
       -0.028778666334867923 0.13226426985743878
000160 56 39 1e 14 6c 7b d3 bf a0 26 2e 99 cf 6e c7 3f
       -0.3044080921616986 0.18306918124681193
000170 57 39 df 6b d9 6d c4 bf 54 a9 3c ce 73 6f d1 3f
       -0.15960233466325732 0.2724275125534821
000180 9c 3d d5 7a 8c 39 ab bf 46 99 aa ea bc 02 a2 bf
       -0.053173437113055416 -0.03517713894443601
000190 05 f9 f9 ca b8 99 d5 bf dc 12 f2 34 dd 7e 89 3f
       -0.33750743696136026 0.012449005296966069
0001a0 d6 b9 68 02 72 17 cb bf 24 08 5a 92 00 6e 8f 3f
       -0.2116529952777017 0.015346531359004052
0001b0 88 d7 a3 2a 24 e8 c8 bf c2 77 40 84 4e 7a c0 3f
       -0.1945843895152246 0.12873250444039114
0001c0 80 b5 18 f2 02 7b cd bf 40 87 8a fe ea f9 ce bf
       -0.230316513262931 -0.2420018904568284
0001d0 e9 3d 79 ce 41 4b d1 3f d9 4c dd f1 87 2b ca bf
       0.2702183262199172 -0.2044534617403773
0001e0 79 f9 e8 6d 9d 97 a8 bf 27 62 00 8a 89 b3 b0 bf
       -0.048031730334048235 -0.06523952120949926
0001f0 0c 48 74 94 92 7d c3 3f 78 c2 a8 e2 ba dd c4 bf
       0.15226967095128463 -0.16301666323990438
000200 fc b7 77 e6 6d a0 a1 bf 02 dc 28 b2 4d f2 c0 bf
       -0.034427103408106036 -0.13239451598357738
000210 32 05 f3 3e 47 28 cc 3f 5a 05 9a ae d8 2a b0 3f
       0.21997919629760926 0.06315378439650968
000220 5b 19 9b a9 e6 01 91 3f 8c 2f 3f e8 88 f0 d3 bf
       0.016608814336700344 -0.31155607872346347
000230 06 2d 95 1f 2c b2 d4 3f fb f5 4f f2 bb 70 cd bf
       0.32337477764367895 -0.23000287372262548
000240 ae 96 bd d8 50 89 c9 3f 01 72 3b b1 a3 55 95 3f
       0.19950304587398676 0.020834500973125007
000250 d8 99 88 7e 95 bd a1 bf 25 00 ec e6 4e ae c3 3f
       -0.03464953584289149 0.15375696444971357
000260 06 07 29 28 cf e9 d3 3f 1e 6a 6a fc d1 92 99 3f
       0.31114558145428395 0.024974137335997175
000270 45 0c 1d 06 17 84 d2 bf 87 21 89 7f e1 f4 94 3f
       -0.28931212994593053 0.020465396317634024
000280 f1 5f e3 99 b0 b9 c2 3f 79 71 d4 ca 20 d7 ac bf
       0.1462918044478552 -0.05632879711103817
000290 e4 dd d2 62 c1 33 cb 3f 45 3b f4 6d 6c df d0 bf
       0.21251694989562886 -0.2636366914529627
0002a0 b8 54 9e 34 12 de d1 bf d1 c2 ae 56 92 68 ce bf
       -0.2791791452267023 -0.23756627304603353
0002b0 82 99 42 b8 53 fd a7 bf 15 ec c6 d5 e2 03 d1 bf
       -0.046854606859869655 -0.2658621871630101
0002c0 1c be 67 36 75 c5 d1 bf d8 fa e6 53 66 2b c0 3f
       -0.27767687142383735 0.12632445427694594
0002d0 e9 7b 07 c2 f7 f8 ce bf de 9b 75 9e 3e b7 dc bf
       -0.24197289442142214 -0.4486843631224796
0002e0 e2 02 e2 5e ff 5a 72 bf dd d6 67 f0 b5 b7 be bf
       -0.0044813132682299545 -0.11999070281293762
0002f0 c2 a1 5d 28 89 13 cc bf ec 7f c6 2c 17 e8 ae bf
       -0.21934618445381032 -0.06036446019720629
000300 6d 2d 64 d0 aa 34 ba bf 73 c3 99 22 f2 e5 a3 bf
       -0.10236613834074655 -0.03886372253771855
000310 b9 7f 0d d8 f9 8c d0 bf 67 4c cf c3 bd 47 d2 3f
       -0.2586044893159812 0.2856287395672496
000320 81 62 65 8a 83 51 d5 3f 7c 5c 6d 49 bb 0e d0 3f
       0.3331002093814633 0.2508991448461939
000330 aa 47 8f 1d ea 80 a6 bf 2a 92 00 92 63 fc aa 3f
       -0.043952289684639226 0.05270682484868801
000340 c4 e4 2a 2b b1 99 c3 bf 06 4a fb dc c5 5d c0 bf
       -0.15312780959883387 -0.12786172189824202
000350 a6 8d 1e bf 69 9f d2 3f d5 a0 3c 7e 22 4d cd bf
       0.2909798017883197 -0.22891646541507407
000360 7b ed fb 1c 1c 48 d5 3f af f0 f9 6f eb eb a1 bf
       0.3325262339637544 -0.03500304929636521
000370 09 2a 93 b7 ef 87 79 3f b0 f6 3a c7 1b 63 c4 3f
       0.006233154673461979 0.15927455165904325
000380 b3 33 6d 7f 97 91 b8 bf a9 01 dd f9 23 78 9e bf
       -0.09597155438423392 -0.02975517475647541
000390 2a 39 a1 e2 5e 78 b4 bf be 4f 26 32 fe 30 c6 bf
       -0.07996171029046609 -0.17337014626229846
0003a0 e1 fe 90 6f 4f 74 bd bf 29 16 ff 29 5f b2 bb bf
       -0.11505600427426145 -0.10819048667243493
0003b0 97 e4 0d 26 1b 38 a4 bf 24 a9 64 f6 38 55 c0 bf
       -0.03949055518655447 -0.12760078459661728
0003c0 0b 2c 71 f0 e2 6c d4 bf 17 b2 07 8a a9 bb be bf
       -0.31914590340301235 -0.12005099887728253
0003d0 6c 00 a9 24 13 8d d6 3f 07 8d e2 25 e5 f3 96 3f
       0.35236052112669003 0.022414761006655428
0003e0 d5 c6 9b 92 8c 0d b6 bf cf e9 cb 69 eb 23 d0 3f
       -0.0861442430430331 0.2521923573655415
0003f0 ee d7 09 02 8a 42 c9 3f 2f 6d 43 90 dd c6 c2 3f
       0.19734311198743576 0.14669389289961418
000400 7c b9 b7 ed 6b 09 bf bf fa 9d f7 2c 8b 17 91 3f
       -0.12123751214651252 0.01669137441595401
000410 30 c3 d1 04 d9 a0 d0 bf 7c 33 4b b5 02 c1 99 3f
       -0.2598173663200667 0.02515033942727339
000420 4d 2d 79 3b 12 7d cf bf 6f 17 3d 77 85 49 91 bf
       -0.24600437072727246 -0.016882024195431663
000430 39 a9 77 b5 8a 7d ce bf a8 83 1d 7b 71 d2 c9 bf
       -0.23820623264993815 -0.20173471938599374
000440 d9 86 e8 5a e4 89 cd 3f 0d bf 4d c8 56 45 ba bf
       0.23077063025362213 -0.10262052908160176
000450 a9 f6 e9 e8 9e 37 d3 bf 6a 7d a3 9f 94 a8 a9 bf
       -0.30026982064723967 -0.05011429260934615
000460 64 4b 5f 33 4e ce c8 3f 41 fa 25 78 e0 69 cd bf
       0.1937959433404003 -0.22979360453241962
000470 1d 7f 61 86 6f e6 d1 3f 89 ed 78 79 9f 20 cb 3f
       0.2796896755516956 0.21193307334202086
000480 4b 79 3b 8f ff 4d d9 3f d8 b8 47 f4 9f 57 b3 bf
       0.3953856371644135 -0.07555579866286466
000490 11 df b3 3e d5 52 9b bf 09 4d 7d 4b b7 43 c8 3f
       -0.026683170272888527 0.18956652818688038
0004a0 de 77 ca 31 5e 50 c5 bf 76 52 88 e2 f1 a3 b5 bf
       -0.16651513510890842 -0.08453285008028807
0004b0 49 1f 53 25 1f 1e ce bf e9 81 bf 90 5e f5 b0 3f
       -0.23529424021239212 0.0662440398587091
0004c0 27 f5 74 ef f2 30 98 3f 4d 38 76 c2 79 db 82 bf
       0.023624225487982955 -0.009207679030421323
0004d0 43 cd ca a8 ad 66 c3 bf b8 b6 b7 07 45 8b c9 3f
       -0.15157099477583288 0.19956267239415637
0004e0 da f0 be 83 f9 2e cb bf 90 9c b0 be 13 fa c2 bf
       -0.21237105305579612 -0.14825674830465063
0004f0 d2 0d e2 f0 34 7d be 3f c7 09 9d 71 1a 62 ca bf
       0.1190980041592902 -0.2061188750031546
000500 19 a4 41 45 b3 46 d3 bf 86 7c 0d ad d0 cd a2 3f
       -0.3011902023632174 0.03672649490794648
000510 b3 06 c6 4a b9 c9 ab bf 23 4b 8c f7 7c 9d ba 3f
       -0.054273405435208665 0.10396557849552983
000520 86 1e c4 ca 5f 19 c9 bf 2f 96 d1 69 fd 98 c5 bf
       -0.19608685875595117 -0.16873138110092742
000530 36 72 7d 2e 7f 4c d3 3f 33 0a a3 f9 63 ae bc 3f
       0.3015439943317547 0.1120359882798219
000540 28 82 c8 78 11 e9 c7 3f 95 48 c3 43 75 d5 d7 3f
       0.18680017850512454 0.3724034463640547
000550 7c ec 7c 85 c2 a2 ce 3f 47 56 ba 64 13 f2 d1 bf
       0.23934203641860907 -0.2804001315756505
000560 ca 75 98 a1 d5 5a b9 3f 70 9c 78 c6 f6 c4 c9 bf
       0.09904227442935745 -0.20132336321805466
000570 e4 08 02 c4 1f f0 c8 bf a1 cf ef a8 da 62 cb bf
       -0.19482800551128954 -0.2139542889486821
000580 3c d8 fa 9f fe 46 d2 bf 43 86 a9 16 af 52 c4 3f
       -0.28558316824944874 0.1587733135848329
000590 03 c0 0a 3b d9 ac c1 bf c6 9d df 85 2c 19 c2 bf
       -0.1380874193469027 -0.14139324700157213
0005a0 e1 86 38 d5 96 12 b2 3f 90 4f e0 a4 c6 d1 9a 3f
       0.0705961485441793 0.026190856755490766
0005b0 f2 8e 0f dd d2 27 c2 bf 24 43 eb d1 15 f3 95 bf
       -0.1418403224371257 -0.021435109078825523
0005c0 1e 0e 90 89 f2 77 86 3f 50 c8 28 c9 87 e3 b8 bf
       0.01097096903141109 -0.097221838580283
0005d0 b7 d4 3b 6d a4 7c d3 bf 62 fc 84 5a 09 1f 81 bf
       -0.3044825617537969 -0.008359978747306044
0005e0 45 3a 5b 2a c3 df ce bf d3 b2 1c f6 e4 9b c7 bf
       -0.24120368545705353 -0.18444501893227158
0005f0 d9 5e 0e 1e ec 05 d2 bf 24 25 5b f2 fe ff c8 3f
       -0.2816114705578748 0.19531237443724436
000600 75 26 c2 9d 50 64 ce bf 4f a0 a7 cc ef aa cb 3f
       -0.23743636801764337 0.21615407460126554
000610 47 4a e7 ac ff 45 c7 3f f7 3d bb 1c 0c 30 cd 3f
       0.1818236917739162 0.22802878764058196
000620 b4 3b 48 31 c2 a6 d2 3f 62 c8 a9 f1 62 79 d0 bf
       0.29142813503943477 -0.25740884399340846
000630 57 00 4f 96 15 b3 a5 3f 3b 95 70 aa d6 f6 a6 3f
       0.04238192996808781 0.04485197859347997
000640 9c 45 50 56 87 18 c8 3f 62 a1 d7 7d 3c 84 c0 3f
       0.18824855532197382 0.12903553146976338
000650 6c 01 d4 c6 82 ea ac 3f aa 74 84 e5 bf bc ad bf
       0.056476675768865586 -0.058080670134793635
000660 62 e0 f9 8f ce 55 cd bf 17 fc d7 07 52 b1 d0 bf
       -0.22918111829835924 -0.2608227802847422
000670 ac 7e b4 2e 89 71 d6 bf 5a 18 f1 9d 2a 9f c3 bf
       -0.35067967949906165 -0.15329487525940771
000680 9a a6 47 33 83 2f b4 bf 3b f4 36 0f 57 ae b4 bf
       -0.07884998323393191 -0.08078521844341051
000690 2d 35 3d 1d 42 ed 9a 3f 38 e4 12 52 a2 7d c3 bf
       0.02629569343053111 -0.1522715473891212
0006a0 b1 e5 95 5b 7c 97 c6 bf 97 2b 48 46 9f cd c4 bf
       -0.17649797889661792 -0.16252509052023065
0006b0 4b 78 34 25 ed 22 d5 bf f7 0a 6a b2 bc da ad bf
       -0.3302567351655667 -0.05830945661457137
0006c0 2f 5d 3f d9 fd cd ca 3f 8e 1b 28 66 9f 71 bf bf
       0.20941136462963914 -0.12282749408778512
0006d0 59 ce 6a 58 14 f1 d7 3f e5 1f 6e 93 ba 55 d3 3f
       0.3740893233727767 0.3021074714420123
0006e0 dd 5c a7 0e a6 b6 a9 bf bb 45 9f 0e 14 9b c0 bf
       -0.05022162369612613 -0.12973261560413882
0006f0 c5 5e c3 82 10 21 d5 3f 01 2e b9 36 97 0d a5 3f
       0.33014309663620295 0.04111931365022415
000700 bd 31 76 a4 24 13 d2 3f c5 65 16 c2 d5 27 c5 bf
       0.2824184042044882 -0.16527816750457994
000710 79 41 0f f8 16 ea b9 3f 24 00 67 9a a5 f2 98 bf
       0.10122817569868471 -0.02436312441727763
000720 28 7e de a5 a3 66 d3 bf b0 bf f0 7b 65 a6 c9 3f
       -0.30313960264354245 0.20039051582125245
000730 e2 52 08 92 84 37 d7 3f d3 6c d0 93 e6 16 c7 3f
       0.36276354084956897 0.18038637368667895
000740 23 e9 82 b6 d5 9a ca 3f 61 1a bf aa 69 2d a0 bf
       0.20785018359840376 -0.03159647187526527
000750 b2 25 1f ae a3 13 98 3f bf 05 21 44 d9 80 af bf
       0.023512418272536535 -0.061529912535216884
000760 aa 47 43 33 71 aa a8 bf fb 03 81 ad 5a 1f c9 bf
       -0.048175370700519096 -0.1962693545520152
000770 c4 23 0b cf f5 45 c5 bf fe cf 82 78 ea fd cb 3f
       -0.16619751557871443 0.21868639835668086
000780 03 0a bc 47 cf 6e c0 bf a8 e1 59 9f 06 34 be 3f
       -0.12838164332067956 0.11798135176093771
000790 de d2 d1 72 c8 fa cd 3f 28 44 c9 df e9 c8 86 3f
       0.234215789856214 0.011125399724877097
0007a0 05 63 07 0d 2b 50 ba 3f cd 4a d8 7e e1 b2 d0 bf
       0.10278576915824196 -0.26091802012630866
0007b0 7b 83 84 e2 ae 75 cd bf 45 01 5e 2f 3a 76 c9 bf
       -0.2301539045374986 -0.19892051041461847
0007c0 e7 3d d3 47 03 23 a4 bf 68 ed dd d0 11 b6 d2 bf
       -0.039329626577110414 -0.2923626460758073
0007d0 3c e0 02 42 3c ea d5 bf 0d 8e 6f 89 51 70 a5 bf
       -0.34242159315499854 -0.04187254717524178
0007e0 1c 15 c9 22 a1 82 d0 bf 0c a6 73 f4 cc 77 b3 bf
       -0.2579729881002366 -0.07604676216183054
0007f0 75 78 4a b1 7d ee b0 3f 81 09 25 7c 93 15 aa 3f
       0.06613908365622641 0.05094586267888968

bias f8 [60]
000000 ab 7a 64 31 d4 26 b7 bf dd 1a ad fc e4 79 ba bf
       -0.0904362316691542 -0.10342246216633151
000010 dc fc 6f cd ac 25 a2 3f d3 17 6f 24 2a cf d1 3f
       0.03544368751317403 0.27826932485583916
000020 e7 af 3c 3a c6 5b b6 3f a2 4c 2d 06 2a 81 9e 3f
       0.08733786508372497 0.02978959715558161
000030 74 8b f3 02 89 83 7d bf 87 56 c9 73 64 b0 d4 bf
       -0.007205519868167854 -0.3232661371924696
000040 e4 f9 2f 7b 52 9b c8 bf 14 fe c7 b0 f6 d6 cf 3f
       -0.19224005713472458 0.24874766952415028
000050 b7 cc 08 b2 4b 68 ad bf 5e 05 7d 13 35 ad b4 3f
       -0.05743633793135799 0.08076793409147373
000060 b5 dd a7 e1 27 9d d3 3f 31 8a bd 81 e4 ab bc bf
       0.30646702801410736 -0.11199787299623477
000070 02 23 bd 96 75 4f bd 3f 07 d2 28 bf 7e 8c cb bf
       0.11449370317599164 -0.21522507032354118
000080 bb 2a 08 d5 36 69 84 3f f5 3c 49 9d 38 56 c8 3f
       0.009966305137841905 0.1901312606810063
000090 2d 1a f2 32 94 b5 bb bf 3e 0b ea 18 b0 c1 c3 bf
       -0.10823942416946215 -0.15434838501468023
0000a0 1c 22 11 89 38 28 d1 bf e5 07 c2 16 6d f3 c3 3f
       -0.2680798853439528 0.1558662758944244
0000b0 fa dc 1f 07 82 1e b7 3f cd 55 02 78 31 57 cd 3f
       0.09030926393448971 0.2292234264356651
0000c0 cd 3e f5 fa 3b 0b c2 bf eb 84 01 c6 ba 75 b2 3f
       -0.14096784356887895 0.07210891088608988
0000d0 72 fb 20 87 db 05 b8 3f 4e b8 33 ee d2 07 98 3f
       0.09383937882465235 0.023467345989893133
0000e0 0f 3d 4e d9 f3 a1 ba bf 64 14 7b ec ff 25 d2 3f
       -0.1040336995631501 0.28356931775880967
0000f0 be e5 54 94 39 30 c5 bf 8c e6 55 98 2e 69 bc 3f
       -0.16553420775180244 0.11097995013360612
000100 74 7d f8 97 b5 f5 cf 3f 96 69 98 be 4e 4d c5 3f
       0.24968595428888885 0.16642174059309117
000110 a5 fd 40 4f a7 fc c9 3f 24 55 5c c9 ba 05 c5 bf
       0.20302287454431425 -0.16423735458435218
000120 cf 2e ec f8 b2 71 cc bf 1e b5 c0 70 1e b0 ad 3f
       -0.22221982149527839 0.057984305633320896
000130 d2 1c ae 8d 6f 77 c9 bf dc 60 d3 a9 3b 1f b0 3f
       -0.19895739000296558 0.06297657867560552
000140 8c 84 be 55 14 71 d0 bf 3a 0a 6b 62 d0 10 c6 bf
       -0.25690182088335045 -0.17238812261173725
000150 3a be 35 06 c6 8e ae bf c8 50 5d ea 91 31 c1 bf
       -0.059683025606201714 -0.1343252558095911
000160 e6 57 da 6d 77 e2 aa bf bf e2 34 e1 e5 a0 82 bf
       -0.052509052428987776 -0.00909595101858096
000170 48 65 af d1 e5 fb 86 3f 56 b3 0d 46 21 3c c8 3f
       0.011222644292433373 0.1893350212152664
000180 a9 52 8e 90 73 e1 cc 3f 7e a7 15 0c 25 ad cc bf
       0.22563023146053254 -0.2240339573866627
000190 a6 e9 b9 2b 4e 5f b7 3f a1 20 02 15 35 a4 c3 bf
       0.09129799430403426 -0.15344871068760305
0001a0 e3 35 b3 35 b9 b6 c4 bf 24 e7 78 03 6e b8 c1 3f
       -0.1618262779433471 0.13844084901375553
0001b0 96 8a c9 a5 d2 0f 79 3f a4 f6 49 98 24 42 a9 3f
       0.006118605463231083 0.04933275565143205
0001c0 18 da 83 c0 43 04 c2 bf 07 d1 44 69 8b a3 d0 3f
       -0.14075514698170433 0.25998196869046847
0001d0 cf 36 95 b6 4b 80 c3 bf 2f 86 f1 92 94 f2 cf bf
       -0.15235277571848946 -0.24959046530698134

weight f8 [60, 60]
000000 fc 40 fc 15 e7 76 ad bf d6 a0 c7 f9 e5 2a bf 3f
       -0.057547780450592584 0.12174832676066968
000010 06 99 f3 e3 eb 4b a0 bf a8 f2 5c 9e 30 e5 b4 bf
       -0.031829234672658344 -0.08162216059003902
000020 da 24 2c 1c fe 83 b2 bf 9b 47 ab 8e 18 56 be 3f
       -0.07232654750636716 0.118501219588579
000030 0f 94 2b 44 3a 0e b5 3f aa 90 5f d3 a3 1f b1 bf
       0.08224834598839002 -0.06688903723221765
000040 25 9d 13 92 05 8a b4 3f 63 b4 da 52 e3 5b 9b bf
       0.08023104492496154 -0.02671771233751875
000050 a2 45 ae 45 b8 e3 b3 3f d0 11 9e ec 49 38 bd 3f
       0.07769347859564005 0.11414014841836395
000060 c5 77 29 e7 4b 28 bc bf b3 48 2b 80 c3 30 c5 bf
       -0.10998987573245163 -0.16555064924484028
000070 2d a8 e9 e0 e1 77 ab bf b3 87 8a f0 00 2b a8 3f
       -0.053649004655042944 0.04720309196751717
000080 66 40 0f ba 33 2e c1 bf ec 2f b1 00 d6 7e 51 3f
       -0.13422247490825895 0.001067837702765746
000090 1e 4c ea 27 d2 c1 be bf 7e cc 08 b8 a9 56 b2 3f
       -0.12014497255795262 0.07163487189318293
0000a0 97 8e 8c 9b 8f 92 a2 3f 63 a8 b8 5b 85 4d c1 3f
       0.03627442144195674 0.1351782510622029
0000b0 b8 c1 03 0a df a5 c2 bf 0a b2 d4 44 d7 95 c3 bf
       -0.14568698872564112 -0.15301028118973675
0000c0 09 e2 96 0e 34 6e b8 bf ed 16 ac 22 a8 4b a4 3f
       -0.09543156963525957 0.039639715416383094
0000d0 f8 98 48 c2 f2 0d b5 bf af 04 62 5e c3 ef c5 bf
       -0.08224408381702009 -0.17137949093379265
0000e0 5e c1 06 97 e7 e1 85 bf a7 04 57 c9 1e a0 8a 3f
       -0.010684785171947094 0.01300071765843065
0000f0 13 38 8a fb 96 0a 69 bf e3 cc 93 e7 4c 8e b4 3f
       -0.0030568074110481984 0.08029633191818024
000100 5c 0b e0 dd 74 96 96 3f 47 f7 d1 06 5d 9d 9b bf
       0.02205832103937709 -0.026967481175680843
000110 36 a5 db 0d af 9a 9a bf da c7 78 2f eb 66 a7 bf
       -0.025980696888756337 -0.045707082314393424
000120 68 bc 88 54 4f f6 ae 3f c2 f2 8a 54 ec 7a b4 bf
       0.06047294527922348 -0.08000065864593878
000130 9e ae 23 69 aa 17 93 3f 6e e3 31 70 39 65 b6 3f
       0.018644964854429895 0.08748206128247002
000140 bb b4 be 0e f3 86 c0 3f d1 2e 2b 4d 30 0c c2 bf
       0.12911833019226102 -0.14099696891786676
000150 01 ff d4 cc c1 34 c5 bf 72 ba 18 29 0d 9e be 3f
       -0.16567251683772358 0.11959917310080373
000160 ec 7b 13 ea e8 af b4 bf e9 67 0e e0 2d 4c c2 bf
       -0.08080917086361666 -0.14294980468986232
000170 7b 40 b0 61 ee 78 c8 bf 6f f7 13 41 28 99 b6 bf
       -0.19119052667565825 -0.08827449406450481
000180 fb b9 7a ee e9 08 98 3f 87 18 69 a8 f5 71 90 bf
       0.023471503430011236 -0.01605972137829117
000190 70 9c f9 77 e3 53 b5 3f 79 d7 eb 20 08 06 c9 bf
       0.08331128768041807 -0.19549657447322114
0001a0 7e 82 82 3a 02 7f a2 3f 0d 45 cf 3f c8 ee 95 3f
       0.03612524952155115 0.021418694395667837
0001b0 c8 4d 20 fb 5b 88 b3 3f 1f d3 02 ba 23 e5 a5 3f
       0.07629942780504628 0.0427638210834742
0001c0 79 4e 13 14 6d e1 a2 bf df 27 79 8d 1e af b7 3f
       -0.03687611455975754 0.09251585916459203
0001d0 3e e0 f3 7f 6b c5 b1 3f 00 a9 f1 14 37 31 ab 3f
       0.06941863893359909 0.053109856897963326
0001e0 7e 2d 9d ab ec 9d bd 3f ce b3 4a 91 8a d0 b3 3f
       0.11569098653597185 0.07740083739436374
0001f0 32 19 3a 96 98 ac 74 bf 52 70 d0 0c db 85 c2 bf
       -0.005047412912637038 -0.14470995069211995
000200 88 5b 16 3c 86 bd bd bf bb b4 9f 00 94 2d 5f 3f
       -0.11617316214538509 0.0019029565178201719
000210 c0 79 33 98 29 d1 8e bf 12 88 59 99 18 5e b9 3f
       -0.015047383267696612 0.09909204238786654
000220 b3 f9 81 ce fe db bb bf 9c 1c b1 a7 e0 4f 9d 3f
       -0.10882561246578497 0.02862502120504172
000230 4a 11 92 1d c4 03 b9 3f 86 01 c3 7d be 03 9f bf
       0.09771371576249979 -0.03028772013272054
000240 8e 30 b9 3b c3 8d b5 bf 1b 1e 93 ff 07 7a 84 3f
       -0.0841943760689807 0.009998381125469405
000250 02 6a ae bb fd 64 a8 3f 89 c4 b9 5a 6f 6f be 3f
       0.047645501289668615 0.11888786282522025
000260 49 75 27 3d 82 51 be 3f e3 6e d2 97 e3 20 b3 3f
       0.11843122475643954 0.07472059685317904
000270 08 9f 92 a2 d1 a4 aa bf 68 81 dc 7b 24 a2 b2 3f
       -0.052038718314461774 0.07278659843405466
000280 19 93 9d 39 04 ee ac bf f1 be 62 b5 f2 34 c6 3f
       -0.05650342181505703 0.17349084717488197
000290 50 b0 f2 56 53 bd b3 bf 7f 5d 43 74 ee b0 c3 3f
       -0.07710762856248832 0.15383701970015903
0002a0 7a f4 7a da cc ca bf bf df 8e e5 fc c1 a1 b4 3f
       -0.1241882356070664 0.08059322761760822
0002b0 6c 5d c2 00 09 5a bd 3f c4 43 86 8e 30 6d 7e 3f
       0.11465507763420185 0.007428350138426635
0002c0 a3 67 ba 51 7f 85 6f bf 04 11 2e d7 5b 19 bc bf
       -0.0038478361801254786 -0.10976194384972265
0002d0 92 1a 6b 6f 70 a3 c2 3f 74 41 4a fb f7 97 a5 bf
       0.14561276855802824 -0.04217505400186186
0002e0 36 f6 9e 76 f9 48 b1 bf 8d 8a 36 10 59 4d ab bf
       -0.0675197519876399 -0.05332449267304638
0002f0 64 83 9c f5 99 2f 89 bf ff 69 b5 52 04 81 90 bf
       -0.012297823722805475 -0.016117160366187374
000300 30 d5 e7 09 2b f3 96 3f 86 21 81 dd 60 3b b1 bf
       0.022411987762059826 -0.0673122921736021
000310 42 b7 2c b1 74 9e 85 3f a3 48 f6 ed af 69 c0 3f
       0.010556136757795213 0.128225318138509
000320 d7 68 e9 38 c2 e8 a5 3f f1 3a d6 cb ba 6b a9 bf
       0.0427914328071936 -0.049650037176538826
000330 3a 49 d7 b2 24 8e ba 3f 2b 8f 8f ad 71 d4 b0 3f
       0.103731435453743 0.06574163901637735
000340 d1 de 59 36 5d 30 b0 bf e6 00 a3 81 5d a7 a5 3f
       -0.0632379777615555 0.042292520594402735
000350 b9 23 02 10 0b 20 37 bf 24 7a 66 0a 60 78 ab bf
       -0.0003528620727669091 -0.05365276457745363
000360 65 4d a4 ec cb 94 b2 3f 7a 19 ce 4d ca aa cb 3f
       0.0725829556216034 0.21614960478855122
000370 5e e1 5d e1 76 09 b5 bf 2c 2a 45 f1 24 cd a8 bf
       -0.08217566492192449 -0.04844012685005725
000380 4c aa d0 83 d1 0e a8 bf 13 eb af 90 54 14 c3 bf
       -0.046988055554113645 -0.1490579325180411
000390 8c 9e 3b 0e 63 b4 80 bf 0b c6 18 21 6c 0e 9d bf
       -0.008156560775616904 -0.02837532951361336
0003a0 22 be 26 78 72 72 a1 bf 77 62 f8 3b a9 a4 91 3f
       -0.03407628742877146 0.01722969463853238
0003b0 d2 a0 5f ef 58 3c 88 3f ad 89 9a 8a b4 29 95 3f
       0.011833853535748427 0.02066690536470055
0003c0 b4 8a dc 27 6f e0 b8 bf b0 68 85 66 79 c9 b6 3f
       -0.09717459414654678 0.0890117526336407
0003d0 bc 7c 7d 78 38 21 ba bf ec 0a 78 fb 91 27 c1 3f
       -0.10206940595297714 0.1340200879931993
0003e0 f7 51 8e 54 76 2d 7b 3f f4 c3 a1 18 9d 48 c2 bf
       0.006635153033944344 -0.14284099295358
0003f0 ef 89 21 45 e7 d7 b0 bf f7 ad a3 ce d2 b3 ad 3f
       -0.06579442441719839 0.058012569164784304
000400 e9 e4 67 40 78 51 8f bf 1e a9 56 51 d1 7c be 3f
       -0.015292109933385993 0.11909206615260756
000410 56 a3 b8 1f 53 56 bc 3f 2b ce 19 04 8e 57 c3 bf
       0.11069221043056862 -0.151109458925576
000420 35 01 c8 b0 e3 71 b2 bf b5 6a ff 68 1f 8d a9 3f
       -0.07205031457852303 0.04990480572424386
000430 5c 50 7b fa 0b 60 b3 3f bc 62 92 8a 78 8b ba bf
       0.07568430772090678 -0.10369065650082637
000440 4b 01 02 53 51 41 9e 3f 02 8a a4 1e c0 8a 82 3f
       0.029546042148014078 0.009053708014623577
000450 9f 36 e5 cd 8e f4 ca 3f 0d af f5 f3 59 98 b2 3f
       0.2105883126591168 0.07263719755217952
000460 b7 af 41 2b 81 ad aa 3f a8 a2 35 79 66 15 91 3f
       0.05210498478922381 0.01668319811634214
000470 95 3e f0 b6 f5 d2 b7 3f cb b3 f3 26 08 29 83 3f
       0.09306274143477318 0.009355605782241391
000480 63 e4 87 dc c4 dd b6 bf 43 63 d3 fc 1d 49 c5 3f
       -0.08932142623952326 0.16629385800367844
000490 0a 8e c1 b0 7c 3f ad bf 52 b4 31 8e 43 d1 c7 3f
       -0.05712499292056002 0.18607372706483943
0004a0 12 79 67 c8 9b 9c b6 bf bf 22 c5 32 08 50 9c bf
       -0.088327156473927 -0.02764904794574607
0004b0 8c 52 81 db 64 35 ac 3f 8e e4 9c 9a 49 e3 c6 3f
       0.05509486369615954 0.17881126450973678
0004c0 6b 49 a2 f2 73 5e 96 bf dc 4d c4 8e 66 2b c1 3f
       -0.021844684299659727 0.13413698168788712
0004d0 1d 54 c8 d9 0e 93 c2 3f d8 be 5f 12 cb d6 a5 3f
       0.1451128543273236 0.042654367440148
0004e0 09 80 4e d9 1f dc ac 3f 17 72 66 6a f8 f7 86 bf
       0.056366915966691584 -0.011215153452945477
0004f0 a2 ca e0 75 45 30 b3 3f 51 9c 70 90 f0 e1 c0 bf
       0.07495531204112152 -0.13189513256768007
000500 9b 0d e6 38 53 e9 a8 3f fa 6c a6 79 f8 ad 90 bf
       0.04865512914241351 -0.01628864519589699
000510 a7 85 b2 e7 d8 d4 8f 3f 90 41 d3 b7 ae 53 ae 3f
       0.015542692728845632 0.05923219675026126
000520 64 25 01 57 77 71 a2 bf 93 c1 6e 97 26 8f b8 bf
       -0.03602192818704955 -0.09593430707059829
000530 b5 cc be be 0c cc ad 3f 6a 36 3b 6e 3b 5e aa 3f
       0.05819740131792043 0.05150018425557053
000540 40 e4 2e b6 86 09 b5 3f 42 b3 e4 1a d1 63 a0 3f
       0.08217660854178721 0.03201154187477197
000550 b7 ce 10 25 54 f9 b6 bf 1e 0d 48 74 9c e7 ac bf
       -0.08974195389674376 -0.05645455283595367
000560 97 4a b2 d0 42 fc 8b 3f f4 65 89 09 5c 52 d1 3f
       0.013664743417654264 0.27065182620353245
000570 26 f4 c9 32 8b 35 be bf 15 b3 2a e4 e7 09 86 bf
       -0.11800451269114429 -0.010761081362340922
000580 7c 21 cd d3 ea 95 c7 bf a9 95 81 bf 0c 5c c1 3f
       -0.18426261274204225 0.13562163687599352
000590 94 7f 73 38 26 3d a6 bf ec 6c cf e4 3f a8 c0 bf
       -0.043435282126437574 -0.13013456985831995
0005a0 2b da 30 ae 5a 22 6f 3f 35 04 22 25 06 19 7b bf
       0.0038005610563474255 -0.006615661625006421
0005b0 93 82 40 c3 13 51 88 3f 56 e0 41 8d 70 3c 7c bf
       0.011873392482870037 -0.006893577247062485
0005c0 6a 27 f8 29 f2 5c ab bf 1b e9 16 76 b1 e0 bd 3f
       -0.053443496344768374 0.11670979626697824
0005d0 73 52 8d 84 08 aa a4 3f 28 b5 19 c4 a5 57 5f bf
       0.04035975091997992 -0.0019129866417658212
0005e0 8f 55 6c a1 65 1a a6 bf e9 2b 87 d4 61 da bf 3f
       -0.04317014308450517 0.12442599714920245
0005f0 a0 63 e9 57 c2 e3 b7 bf 8d c2 af 15 f0 f3 ac bf
       -0.09331907888680613 -0.05654859795311493
000600 99 d0 e2 a3 16 41 c3 bf eb e4 ef f3 dc f4 c1 3f
       -0.15042384149785873 0.14028512869825902
000610 1c 84 52 96 d2 a3 ac 3f 33 f0 75 a7 6e b3 a6 3f
       0.055937367296117396 0.04433770937154726
000620 1c 35 8d b8 02 b8 b5 bf 20 2f 7e 13 5b b8 85 3f
       -0.08483902936605542 0.010605536968590068
000630 3a b4 d2 41 58 e0 c2 3f 2f 8a 8b 98 03 cf b2 bf
       0.1474714585687325 -0.07347128366704035
000640 29 6b af a6 a1 1e aa 3f 73 45 35 b1 8b 69 c1 3f
       0.05101494941455648 0.13603349831332032
000650 54 7e 64 99 7e 21 a2 bf 45 e9 d4 f6 4a d1 aa bf
       -0.03541179296939548 -0.05237802756387792
000660 b6 21 3e 72 d1 b8 b3 3f 13 2c 72 e8 bb 75 ab bf
       0.07703885115745987 -0.0536326142547169
000670 c9 75 19 7c 83 a7 b1 bf 18 ea 2f ed 93 e1 9b bf
       -0.06896230487605871 -0.027227698661571237
000680 b1 99 26 c2 c8 6a b0 3f 1a 49 91 8f 5f 83 c1 3f
       0.06412939777383177 0.1368216944707193
000690 aa e1 c4 ab 93 29 8d 3f 35 63 21 82 fd 19 bd bf
       0.014239457778430904 -0.11367783000004013
0006a0 12 8e eb d8 cd a2 1c 3f 1a ca 0b 7a b3 24 b0 bf
       0.00010923749344331931 -0.06306001405372577
0006b0 d9 d1 25 f0 0c ae a7 3f 76 bf 79 aa 1c 00 c1 3f
       0.04624977523318181 0.1328159172439844
0006c0 86 d6 78 6b 92 d2 c8 3f 98 b5 3e 56 6f e0 72 3f
       0.19392614600808517 0.004608569059127453
0006d0 47 72 e0 ba 5d a8 72 3f 94 7d 7a f0 a1 23 a6 3f
       0.00455509770656854 0.043240604977877656
0006e0 b0 b9 b2 f9 f6 bd bc bf 2f 00 86 bd b7 63 92 bf
       -0.11227363201280727 -0.017958517973511497
0006f0 4a 57 d0 b0 8f 04 c0 bf 9c 63 d7 af a1 51 be bf
       -0.12513919957626235 -0.11843309920312922
000700 40 24 f0 dc 05 37 bc 3f 8b 2e 3a 9c 60 80 a7 bf
       0.1102145828628105 -0.04590131671019745
000710 36 f0 38 6a f6 fd b6 3f 95 67 0c 2d 90 d6 b2 bf
       0.08981266110726058 -0.07358647441688355
000720 07 06 90 0b f2 ca be bf 30 36 ea 49 46 8a ad 3f
       -0.12028420240678638 0.05769557621270527
000730 36 29 bb 7f a7 e4 b2 3f 3a 7d 8e a0 e8 68 81 3f
       0.07380148762164115 0.008500878715323002
000740 80 1c cb c0 52 d5 b8 3f a7 a6 2a b9 2e fc a8 bf
       0.09700505453939634 -0.048798999884934795
000750 53 d7 3e 19 a8 63 a6 3f 07 27 9c 87 17 f0 a2 bf
       0.04372906978771476 -0.03698800592799328
000760 8a 42 0c 7a 8e 0f 82 bf cb a5 8a d2 41 1c b5 3f
       -0.008818734263998058 0.08246241941619485
000770 96 9f 5d 68 89 50 b3 3f 25 0a 7d 8b 41 20 bf 3f
       0.07544764326087114 0.12158593802909275
000780 8f c3 a3 83 cc 77 bf 3f 2c cc 35 d0 b4 14 bc 3f
       0.1229217358957284 0.10969095309501203
000790 b8 9b 9b 89 80 da b2 bf 16 bb 33 c8 39 28 9b 3f
       -0.07364657744947933 0.026520636410107455
0007a0 42 cb 06 ed 2b 50 90 3f 10 1a 81 79 cb 60 b0 bf
       0.015930830327941743 -0.0639769717828147
0007b0 4f 4e 96 73 96 5f bc bf 3f 2d ef b4 45 d4 b8 bf
       -0.11083355256988024 -0.09698901812878534
0007c0 ac 89 d6 11 b4 23 c0 bf 78 a4 7a 26 91 f1 b8 3f
       -0.12608958121297797 0.09743601979666205
0007d0 37 e2 c5 8a 6c 68 bc bf cb 4b c0 cd 1d 6c aa 3f
       -0.1109683836747387 0.051606112829311344
0007e0 90 24 8d 1b c3 01 bd 3f b6 61 e7 1f 3b 19 a5 3f
       0.11330813810958973 0.04120812191439731
0007f0 c9 d4 cc af 6c 83 b9 bf 9c 96 3b 28 47 b1 c4 bf
       -0.09966162960047877 -0.16166009392252512

bias f8 [60]
000000 a2 c3 37 40 6d 2a 83 3f 8e 60 2d 19 92 5b b7 bf
       0.009358266374847993 -0.09124100794486109
000010 a0 3f 46 6d 1d 5f a1 3f 11 ed 86 d2 e7 d9 a7 bf
       0.03392879446903341 -0.04658436245832765
000020 3f 0c 0d 2b 4c d5 c3 3f 92 a8 db a0 23 21 b7 3f
       0.1549468240938001 0.09034941365431085
000030 10 45 06 e4 52 8c a1 3f 83 f7 5f 42 14 9a a9 3f
       0.03427371057035533 0.05000365553131216
000040 fc 11 59 21 12 96 bc bf 07 b9 a8 8e 97 19 c9 3f
       -0.11166489900740112 0.19609350648665488
000050 9c 60 54 d5 78 64 a9 bf 2c 95 24 9a 41 46 ad 3f
       -0.04959466556664546 0.05717663771273815
000060 91 09 aa 8d 02 6a b9 3f ae 84 b8 5e 07 b3 b1 3f
       0.09927383383368339 0.06913801252859983
000070 5d b4 09 6c 65 c4 ba bf 52 af 6d 13 5f b0 c5 bf
       -0.10455926787990806 -0.16944492767958735
000080 47 a9 04 de f4 13 b3 3f df b7 91 c2 2b d6 b1 3f
       0.07452326221815496 0.06967423916077518
000090 1f 35 3f 3a 7f 50 c2 3f 1e 5a 7c 6e 28 f9 b5 3f
       0.1430815729531014 0.08583309838682182
0000a0 79 12 20 ac d0 f1 8a 3f e6 15 35 60 33 f8 b6 bf
       0.013156538250776994 -0.08972474192440635
0000b0 29 d2 78 c1 f4 05 ba bf 27 27 82 12 02 9d a3 bf
       -0.10165338252483792 -0.03830725170071352
0000c0 f3 95 46 32 54 8a b6 3f 7e 97 0d c9 e4 98 c4 3f
       0.08804823138651567 0.1609159452156596
0000d0 88 7b 20 eb 6f 07 ae bf 0d 54 58 bb 76 81 a8 bf
       -0.058650491191875764 -0.04786273037840525
0000e0 a9 db 1e 24 e4 c5 c2 3f 45 b0 99 68 ed 07 8a 3f
       0.14666415942857938 0.012710432772301892
0000f0 69 4a 3d 51 c4 4d 96 3f a1 52 f5 1d aa 8f 98 3f
       0.021781032045803537 0.023985536650189435
000100 db 0a e9 37 0e de a0 3f 84 31 e1 06 b2 39 a4 bf
       0.032944149327269044 -0.0395026811025643
000110 29 40 83 7c 30 b5 bc 3f 25 71 8d 65 ee 9c b7 3f
       0.11213973083363328 0.09223833064374228
000120 9a b2 c2 3f a3 ed bf bf a8 f6 b0 56 93 75 b6 bf
       -0.12471981341031793 -0.0877315603874772
000130 36 5a c1 e5 dc 96 b7 3f 9f dc 92 d0 8d 4b 81 3f
       0.09214573487529595 0.008444888999618093
000140 95 5f 11 84 25 ab c2 bf b2 4e 7a 57 6a 89 ab bf
       -0.14584797810198027 -0.05378277128070631
000150 38 9a b4 43 ab 29 bf bf df 57 a5 7f 8a 37 94 bf
       -0.12172956850972916 -0.019743122139821764
000160 91 b1 8e f5 3b d9 95 bf b7 3a 70 09 83 51 94 3f
       -0.02133649526847276 0.019842193080018968
000170 8a 88 ab 7d 3e eb a3 bf 82 a1 25 fe eb 8e b0 bf
       -0.038904145088751355 -0.0646808143116058
000180 4e f8 0c 3c a2 6b 93 bf 6e 62 fb 4b e4 45 a7 bf
       -0.018965277590943956 -0.04545510699762621
000190 c1 2f 53 dc 55 69 a6 bf 87 87 9f ac 9d bb ae bf
       -0.043772395272383864 -0.060025145837939546
0001a0 6d be 92 85 86 8a b9 bf 05 7b 76 50 25 48 6d 3f
       -0.09976998101296326 0.0035744408412051753
0001b0 a1 8e 28 5c 7a 5a 6d 3f 2e 98 53 fb a0 e2 ba bf
       0.0035831823199872913 -0.10502058158780933
0001c0 c8 24 12 57 5a 96 bc bf bf 3d f1 01 7f 1b a5 3f
       -0.11166920305017236 0.041225403773406104
0001d0 b9 9e 48 b8 1b 51 85 3f f2 01 62 49 92 bb 8e 3f
       0.010408608018294673 0.015006201614824886

weight f8 [60, 60]
000000 3c 59 15 ab af b4 be bf 9d eb 62 e9 f4 e1 8c 3f
       -0.11994455267754217 0.014102853176486902
000010 30 24 16 e4 d1 fb b3 3f 42 67 41 02 c6 4b 9d bf
       0.07806121653096976 -0.02860936535612458
000020 24 63 53 4c 78 97 b2 bf d8 f5 c5 62 56 df 80 3f
       -0.07262374747677974 0.008238482369729391
000030 98 34 5f 76 7a 6f c5 3f 3a 83 e3 f8 d0 83 b4 3f
       0.1674645498264098 0.08013635708222192
000040 73 7f 96 40 13 a0 c5 3f 28 f9 60 d7 f4 5e b2 bf
       0.16894760755257784 -0.07176141985198525
000050 ea 2e 5c 97 1f 98 b8 bf 7c 7c 25 a3 12 5c b2 3f
       -0.09607121892275541 0.07171741946284443
000060 ce 8e 01 72 61 a9 c4 bf b5 13 fd 5d 1d 5b f1 3e
       -0.16141908709243186 1.655189214424024e-05
000070 2f 51 3b b4 4e 79 c9 3f 07 73 66 63 1a 5d be 3f
       0.1990145092046389 0.1186081402469875
000080 fb d7 fa 1d b3 5d a9 3f bc ed bb a5 03 62 9b 3f
       0.04954299679722848 0.02674108218250891
000090 37 af 58 ee ba 0a be 3f 61 06 f8 44 8d ea bf bf
       0.11735122984890443 -0.12467272695359945
0000a0 a5 cf 4e 28 14 e8 b2 3f db 99 43 fd f9 09 c1 bf
       0.07385374054029954 -0.13311695925149433
0000b0 aa 6b e5 0f dd ef c3 bf 89 7d 98 09 b9 0c c5 bf
       -0.1557575538270986 -0.16445076912439685
0000c0 7f 73 8d 17 e2 11 be 3f 9f 70 e9 c6 69 b4 c6 bf
       0.11746037554753562 -0.17738077366346247
0000d0 e9 fb 65 05 db d8 c9 3f 36 61 02 64 ae 3f b7 3f
       0.20193040622322592 0.09081544820435714
0000e0 2b 89 d7 bc ba 09 ba 3f 1f cc ad d0 8c d4 ab 3f
       0.10171095953368041 0.0543560032591801
0000f0 50 3c 9b a0 a7 67 be 3f a8 b1 1c 70 05 0b b9 3f
       0.11876914664320393 0.09782442080604048
000100 af b2 be 8b c0 1f 91 bf d5 12 ac 23 40 b8 a6 3f
       -0.016722687272408162 0.04437447009516907
000110 85 14 41 e6 76 c1 81 3f 63 79 8e d9 ef 4a c0 3f
       0.008669785405923012 0.12728689310911098
000120 15 3b f9 cd fd 50 99 3f f1 76 a9 ee e1 5c b4 3f
       0.02472302026427105 0.07954227520664482
000130 b4 2c a0 d7 54 ee ae 3f c5 b1 9f 93 72 e4 c4 3f
       0.060412074395651244 0.16322166641420047
000140 7a 41 18 0c e7 7a a7 3f ee 08 6c 23 21 c2 bb 3f
       0.045859546877298166 0.10843093027873227
000150 c4 ca cd 2e 7c 9f aa bf a8 3a 94 ae 9f a0 c0 3f
       -0.05199802466713302 0.12990184807172978
000160 95 73 81 c8 ff 51 ac 3f 02 fd 20 f4 6f 1f b5 bf
       0.0553131038911722 -0.08251094541718731
000170 60 66 77 c3 1b 3e ad bf 32 10 1d 81 49 3c b1 bf
       -0.05711447487892651 -0.06732615854440452
000180 41 d5 da 72 a9 56 be bf e4 e5 fb fb 18 12 a6 bf
       -0.11850985578606289 -0.043106823692095536
000190 72 fe c1 7c 2c a5 9c 3f 51 8c bc 59 4b e1 a2 bf
       0.02797383796177972 -0.036875109390415724
0001a0 16 b2 27 b6 94 17 90 3f 74 3a 1a b8 5f de a2 bf
       0.015714954011786096 -0.03685282823891081
0001b0 1b 09 64 71 f6 4c c3 3f 15 7e 83 79 c0 a9 58 3f
       0.1507862142244186 0.0015053157458665468
0001c0 b4 ee d7 03 d3 1b b7 bf 80 cc 22 75 aa 96 57 bf
       -0.09026831477961644 -0.0014397301315909605
0001d0 f7 77 17 f8 c0 9a c2 bf 93 34 ed 47 9c bf ba 3f
       -0.14534771074153216 0.10448624378223519
0001e0 23 00 d1 ec 80 84 c3 3f d9 bb c0 5e cd 24 98 bf
       0.15248118937779606 -0.023577889354949953
0001f0 3e 5a 3c c1 70 87 be bf 56 a7 a8 92 3f 7a b4 bf
       -0.11925415723485686 -0.07999036150490943
000200 fe 44 f3 26 93 44 99 bf 79 90 e1 df 8b 0d c1 3f
       -0.02467565465196219 0.13322590285963878
000210 63 c0 d0 4f 17 6d b2 bf 9f a3 bc 17 64 c6 ab 3f
       -0.07197709749812158 0.05424797811276182
000220 d1 7d f0 a3 cf 1b cd 3f 69 ed 62 63 41 81 c2 bf
       0.22741122727255328 -0.1445695624623611
000230 77 a7 79 54 60 61 c0 3f f8 de 16 eb a2 11 be 3f
       0.12797168850675764 0.1174566101025184
000240 c0 42 5c 69 72 96 b0 3f fe fd 48 d8 71 46 c2 bf
       0.06479563782000763 -0.14277480183407926
000250 4e ba 55 1a d7 c7 ac 3f 5e 65 d5 45 5b 2e bc 3f
       0.05621216007681494 0.11008234457894647
000260 c7 bf 34 5f 12 4b b9 3f ad 92 c3 00 f7 00 bd 3f
       0.09880175423017966 0.11329597252513209
000270 1e 89 a6 d7 e6 cf a0 bf 6a 9f 87 4e 8c 06 b0 3f
       -0.03283616430714374 0.0625999156687819
000280 a7 ce a1 0b cf 73 bc bf 67 6f a2 74 df 7e b9 3f
       -0.11114210161195591 0.0995921764137485
000290 94 02 ea b2 05 05 89 3f 9c db cc 48 00 36 c4 3f
       0.012216610453152733 0.15789798311899694
0002a0 a7 57 c8 5e ad 78 be 3f 5d 64 08 10 d4 8b 99 bf
       0.11902888835933699 -0.024947465399325675
0002b0 c2 f4 c0 8d b9 f6 b8 bf 82 f7 6f 93 3e 94 b6 3f
       -0.09751472197327174 0.08819953059716393
0002c0 c4 e8 66 1e 13 d3 b5 3f 5a af 5f 49 67 6e ae bf
       0.08525199405895295 -0.05943606157947441
0002d0 c5 7a 94 86 f2 2f 77 bf 6a 8b 0d 08 0f e9 a3 3f
       -0.0056609605465200484 0.038887471898099005
0002e0 94 b4 a5 f6 54 53 d0 3f 9f 17 d6 32 19 18 c6 3f
       0.25508617483758056 0.1726104257797347
0002f0 00 54 18 f6 2f 36 a6 3f 9c bd e0 56 99 80 bb 3f
       0.04338216666307204 0.10743101473848643
000300 78 1e f7 d2 3e 5f bc 3f a5 47 80 da c8 1e c6 3f
       0.11082832956810218 0.1728144709491605
000310 35 44 d2 5a b9 dd b3 3f 26 a7 91 9d 51 b1 b4 3f
       0.07760199038809008 0.08083067032717092
000320 61 fa bb 59 78 4c ca 3f d4 2f 11 83 3d 43 ca 3f
       0.20545868283803073 0.2051770105339289
000330 40 67 16 12 b1 ca 94 3f a6 cc ce 17 6a c8 c3 3f
       0.020304457406019383 0.15455366289606792
000340 7d 8c 2c dd c8 f9 ab bf eb 7f b2 a7 34 67 8f 3f
       -0.054640080450803354 0.015333567970003478
000350 8a 77 27 0e 51 17 ba bf 25 86 e2 33 cc 17 b6 3f
       -0.1019182834201883 0.08630062357635689
000360 12 1c a2 67 d0 d2 c1 3f 44 06 e1 fd bc a6 96 bf
       0.1392460351964649 -0.022120430942101046
000370 63 d5 8f bc 11 b6 c4 3f 8f 07 5e 13 3b c5 b3 3f
       0.16180631358262607 0.07722825262865583
000380 1b fe f6 7c 5c a7 b6 3f 4d 47 88 b6 fe a6 b4 3f
       0.08849123049639511 0.08067314106326968
000390 2c c8 5f 9d 69 72 78 3f f1 20 a0 6c 01 07 c8 3f
       0.005968487317646914 0.18771379283885595
0003a0 c4 b8 00 91 0f e6 a1 bf be ba 06 24 7f f4 b6 bf
       -0.03495834965757319 -0.08966822270916006
0003b0 37 7d 77 04 72 91 97 3f f3 6c 57 e1 ef 2d b6 bf
       0.023015767595891048 -0.08663844348432174
0003c0 dd 39 0b b7 a6 de b6 3f cc 23 98 94 bb 24 c0 bf
       0.08933488816112552 -0.12612099414425726
0003d0 ef 66 d5 66 ad da 7e 3f 40 5f 52 7c 5d df 87 bf
       0.007532765722624054 -0.011656504017352298
0003e0 a0 80 78 d2 88 e7 af bf 70 d5 c2 ee 99 bd 60 3f
       -0.062313342754579226 0.002043533944823643
0003f0 4b 17 9b 3f 38 a7 92 3f d5 8e 1d 97 12 a5 a3 bf
       0.018216017610732476 -0.03836877913161422
000400 43 e5 94 6a 11 12 b2 bf 5d 55 54 0c 3c 76 c1 3f
       -0.07058819629755413 0.13642073251746015
000410 ea 38 d1 85 7c 9e 98 bf 09 03 03 38 7d 3a bf bf
       -0.024042077701147337 -0.12198622338747724
000420 a1 a6 21 74 cc 80 cb 3f b7 7c c6 21 ed 50 a6 bf
       0.2148681227729883 -0.04358616864487302
000430 c8 cd 88 91 45 05 b4 bf 5b bb f7 bf 09 be bb bf
       -0.0782054405506677 -0.10836850105964173
000440 49 12 d0 8f 64 89 b7 3f be 7d 09 e7 3d c6 85 3f
       0.09194019805006194 0.010632022488777145
000450 11 c6 ff be a2 24 a5 3f 21 ca 17 83 16 1c a6 3f
       0.041295133414575365 0.04318304395919293
000460 99 4d 4f 53 76 d2 b7 3f e4 33 93 25 ac 4f ba bf
       0.09305514844827768 -0.10277820508345276
000470 87 70 9c b2 7b 54 61 3f 80 a7 b4 dd 40 a1 9c bf
       0.002115480038709153 -0.027958882839051125
000480 59 73 a4 74 4e a2 7c 3f 63 b4 b6 d9 95 c5 c7 3f
       0.006990725009271192 0.1857173264556052
000490 54 0f 78 24 11 b3 ab 3f a4 6d 3b aa 1e f0 bb bf
       0.05410054750612284 -0.10913268714960239
0004a0 b7 cc 24 a2 41 f3 af 3f 60 1e 03 02 03 1f b5 bf
       0.06240277389806564 -0.08250445174336951
0004b0 23 70 59 c0 7c 2d 81 bf c8 7b 74 90 2d 9b c1 bf
       -0.008387541408573956 -0.13754815629451245
0004c0 05 25 8a 29 01 e1 b8 bf 5c 11 2f 97 25 fa be 3f
       -0.09718329681540545 0.1210044378377168
0004d0 3d f9 16 82 68 3a a3 3f 66 19 52 10 eb 38 b0 3f
       0.037554994468779836 0.06336850307898131
0004e0 dc 53 5d 33 25 17 68 bf f0 fa c7 5a 0c 6b 82 bf
       -0.002940724046235561 -0.008993240852757961
0004f0 db 95 c1 1e 81 6f a7 3f 88 74 ef 42 20 ba b1 bf
       0.04577258587304885 -0.06924630769886353
000500 42 b9 a4 48 6f 7f ca bf 6d c9 f8 fe 5e 1d c4 bf
       -0.20701399848025842 -0.15714633416935034
000510 73 a2 9b 97 2c d7 bb bf 69 74 e6 9a b0 4f 91 3f
       -0.10875204755178362 0.01690555520473361
000520 fa 4e fd 77 6c 3b b6 3f 32 31 00 52 36 b0 8a 3f
       0.08684423379355258 0.013031410577263178
000530 9c fe b8 0e 28 8c 83 bf 11 53 8a 77 00 8f ad 3f
       -0.0095446710103027 0.05773164233429474
000540 60 0b e2 1b d4 99 c5 3f 3c 2d e1 9d 01 cb b9 bf
       0.16875697480653695 -0.10075388054354034
000550 95 e5 bf da 49 ee ac bf a6 b5 90 70 b4 bc be bf
       -0.056505496933776524 -0.12006690738845424
000560 6f a1 c5 5b 9d 2b a2 bf bf bc da 4b 3e 9a b4 bf
       -0.035489003613124896 -0.08047856666483975
000570 1c a5 e2 22 41 b4 a4 3f 63 96 e6 2b ce fe bb bf
       0.04043773222776734 -0.10935677120013447
000580 53 60 b2 f5 75 be cb bf dd 29 d2 22 45 6f a9 bf
       -0.21674990174210737 -0.04967704820690575
000590 92 ac f0 ec 5d 81 b9 3f c1 11 e8 95 73 48 95 bf
       0.09963023218795033 -0.02078419306237023
0005a0 de 15 7c 83 79 ef cc 3f 45 d3 06 0b b5 f2 b3 3f
       0.22605818672324934 0.07792216796117397
0005b0 83 ae 28 b4 df e4 c2 bf bf 99 aa e4 63 27 ac bf
       -0.1476096753771011 -0.054988023436908666
0005c0 7f 54 8c d5 67 a4 bf 3f 74 dd 47 b5 22 01 b6 bf
       0.12360238040521841 -0.08595482755469225
0005d0 5d 1e 52 10 f5 b7 b2 bf fa 4c 0d d5 64 0b b3 bf
       -0.0731194653363842 -0.07439260674918904
0005e0 24 47 b2 18 3a 83 94 3f 87 8d b4 ac 94 34 c1 3f
       0.02003184104666568 0.13441713745951864
0005f0 22 86 ba 6b 9f 85 b6 3f 23 02 ef 76 5c 5e b5 3f
       0.08797642116635321 0.08347108749058711
000600 46 ba 7b 88 2a f9 c0 3f 6f e6 34 b6 b6 a7 8d 3f
       0.13260394729828046 0.01448004478025952
000610 c1 29 ab 95 d7 ac c2 3f c3 b2 57 74 85 0c ba bf
       0.1458997231296291 -0.10175355997462092
000620 8f fa bf 0c 13 3b 8b 3f ba db c2 e7 a3 e9 a1 3f
       0.013296269251438701 0.034985658684881085
000630 65 92 49 8a 72 4c c1 bf e3 23 85 33 48 f3 9b 3f
       -0.13514549019159286 0.02729523481801611
000640 e3 b2 96 53 7a d4 cc bf 86 aa 82 8f d4 04 a8 bf
       -0.22523430901983152 -0.04691185237728228
000650 62 ab b1 c4 1d 2f 7b bf b9 9a b5 1a 4b be c1 3f
       -0.006636730463564474 0.13861979297799623
000660 66 37 a0 84 36 43 a0 bf af d3 15 20 8c 5f 95 bf
       -0.03176279419868315 -0.020872296770409523
000670 69 b6 e2 94 34 09 bf 3f 80 81 1f f0 c2 cc c4 bf
       0.12123421320821993 -0.16249882435569063
000680 1c 4a 1b e4 54 d1 91 bf c4 5a 1b 7f 65 3a c0 3f
       -0.017400099203607508 0.12678211885823576
000690 d7 bd bb dd 6c 72 90 3f 4f 60 a8 89 67 1b 95 3f
       0.016061497720270736 0.020612352158508703
0006a0 23 5c b3 d7 7d c3 bd 3f 59 d8 62 f4 c0 0a bd 3f
       0.1162642146694997 0.11344533888299803
0006b0 d9 24 3e 7d 87 12 8b 3f b8 88 d9 42 f5 90 b9 3f
       0.013218935498814964 0.09986813432763852
0006c0 5b e7 bc c8 26 29 a4 3f 9c f1 53 11 17 7a d2 3f
       0.03937646103299982 0.2887017888276888
0006d0 18 91 a7 5c e9 b8 b0 bf 1d ac 68 6d 7d bb a0 bf
       -0.06532152664255297 -0.03268043480451175
0006e0 21 17 c9 d6 c1 af ca 3f 83 d9 e2 b0 3e 1d 47 bf
       0.208488683582055 -0.0007053905590257845
0006f0 91 db 2b bc 6f d5 be bf 7b 08 6b 0a 06 f4 b2 3f
       -0.1204442819979319 0.07403600458477115
000700 fb 22 ff 6f ff f1 ac bf fd 0e 1c b6 47 38 c5 3f
       -0.05653379671236355 0.1657800330359506
000710 79 66 0a b2 6c ab b2 bf cc 56 3c 16 70 1f 90 3f
       -0.07292823168463682 0.015744925839576138
000720 2e a5 21 c9 72 9a b1 3f 9a a9 fa ec f9 dd 44 3f
       0.06876294527468893 0.0006368131962138257
000730 35 56 36 b5 06 93 c0 bf 07 69 16 66 ef e2 b2 3f
       -0.12948688362364327 0.07377525560733399
000740 4d 2f 62 59 f5 01 c4 3f 73 34 6c c3 8d c3 c2 bf
       0.15630976547651657 -0.14659282724497621
000750 f7 84 b0 59 39 53 c6 bf 6d 66 8e 9a 9b f0 92 3f
       -0.17441479567882087 0.01849597102009286
000760 e1 c0 b4 25 b2 cd 97 3f 23 2b aa ab b8 bb cf bf
       0.023245605040927656 -0.24791630155626718
000770 84 c5 ac 6b ef b6 cf bf db ed 53 a0 86 15 8b bf
       -0.24777024037898 -0.01322465111524356
000780 66 ea c2 9a d5 fd ab bf c3 ef fc a9 c8 0f c1 3f
       -0.05467097772767175 0.13329418468663165
000790 32 2b 0e ac 97 03 c6 bf a5 69 9f 9e a8 a4 b7 3f
       -0.17198463345661136 0.09235624191879895
0007a0 bf aa 81 3d 65 06 b6 bf 21 93 04 63 b6 1b ac 3f
       -0.086035087124098 0.054898929202215514
0007b0 6b c3 65 d1 4c 00 80 3f 2d b6 58 81 15 bc c3 bf
       0.007813072338395085 -0.15417736831425213
0007c0 55 e2 03 c0 d3 07 b6 3f 5d ff 6c 35 40 ff 7a 3f
       0.08605693281050127 0.006591082396709994
0007d0 a8 00 05 c3 b6 ca aa bf 43 20 df 64 75 f4 79 3f
       -0.05232783442124972 0.006336649485042814
0007e0 e0 6a ff fa e7 fa 9e 3f 3f 98 56 a1 98 92 c2 3f
       0.03025400609463247 0.14509876134724384
0007f0 96 e6 12 74 bf a8 b7 bf 7e 80 e9 42 a7 93 b0 bf
       -0.09241863807519687 -0.06475301154705623

bias f8 [60]
000000 2f a5 3e da 49 5b 8b 3f f3 ff 39 0e d1 f8 b9 bf
       0.013357712719726493 -0.10145289037063758
000010 ee d8 40 cd ed c9 bb 3f 55 6a e5 c7 f1 8a c0 3f
       0.10854994069163457 0.12924024830393202
000020 a1 6b d5 dd ad a2 be 3f ae 73 d2 6e db 9a b3 3f
       0.11966978708134814 0.07658168273560648
000030 bf 44 57 ad 5c dd a6 bf 10 64 32 87 84 3b be 3f
       -0.04465760818460173 0.11809566784576497
000040 5f 94 3d 28 eb 63 b9 3f 17 71 1e db 67 dd b9 3f
       0.09918088657794176 0.10103463267882194
000050 26 7c 6b f0 1f ee b0 3f d2 e0 87 1e a7 2c a3 3f
       0.06613349551797451 0.03745004890146365
000060 03 0f 42 bf b9 52 ae bf d0 7e 42 7d 9f a5 b1 bf
       -0.059224896046570684 -0.06893345649813942
000070 26 b0 78 fd 38 ea c0 3f 30 9e 43 bd 52 27 bd 3f
       0.13214790703330087 0.11388127442079887
000080 48 c2 07 19 32 3c a8 bf 16 7f d6 1c a2 85 c0 3f
       -0.047334256701905775 0.129078163224215
000090 6f 71 cb f4 a3 cc bd 3f f7 c9 ad 34 ce a6 ae 3f
       0.11640381552155586 0.059866374903226154
0000a0 5c 27 51 da 81 7f 42 3f 70 be bb 44 1d 3c b4 bf
       0.000564516453445334 -0.07904227188168433
0000b0 77 5f 47 5e a0 5b a0 bf 2e eb d6 db c5 b1 93 bf
       -0.031949054249422675 -0.0192328372411154
0000c0 64 3c 26 11 35 6b a7 3f 04 fd 33 0a 53 1f bc bf
       0.045739801734378444 -0.10985297202204342
0000d0 96 ff 27 47 60 e5 c0 3f 62 b8 f5 7f ce b1 7c 3f
       0.1320000026171299 0.007005507125866202
0000e0 92 d1 bf ba 6b b8 b1 bf 59 8a 33 0d 5d e6 c3 bf
       -0.06922028836544872 -0.15546763558002644
0000f0 91 67 5d 1f f9 21 ae bf 73 93 93 d7 6f 03 b0 bf
       -0.05885294444915624 -0.06255244267556552
000100 39 7e cf 58 ee 0a a5 3f 6d 65 0d b4 8b 46 b2 3f
       0.04109902223694601 0.0713889422016984
000110 e5 59 88 c4 74 b5 8e 3f df 29 53 79 72 24 95 3f
       0.014994537589740406 0.020646847395974773
000120 8b 42 82 e5 77 e6 b6 3f e6 02 1d 9c a4 cc a2 bf
       0.08945416787379139 -0.03671755223922961
000130 9f 8e 90 4f a3 0e c2 3f 5c d2 ce a2 2a 48 b3 bf
       0.14107171425813633 -0.0753199241142481
000140 26 0f a9 2a 22 6c ba 3f a1 2a 8e 53 95 03 c0 3f
       0.10321248570931782 0.1251093538270043
000150 77 1f 5e 57 ea de bb bf db ad 82 88 f5 17 ad 3f
       -0.10887016900062273 0.05682341853511349
000160 47 21 2f 06 f9 57 95 bf 10 70 99 49 f3 7a 6b bf
       -0.020843401911208728 -0.003354525729077913
000170 ba 84 5e 0e ce 15 9e 3f 66 ad 76 06 c5 5e 73 3f
       0.02938005411818232 0.0047290512369885015
000180 68 61 62 85 0b f0 96 bf ee 6f d2 fd eb f4 a9 3f
       -0.022400074020511168 0.0506967303601583
000190 7f 56 31 1b ca c8 c0 3f 7b e5 52 2f b5 6e ac bf
       0.1311276085640891 -0.05553213312800672
0001a0 c9 64 26 d2 dc 7f ab bf bf a9 63 da 5e 03 b4 3f
       -0.053709889081071056 0.07817643005151974
0001b0 25 52 fc c2 98 13 bb 3f c5 73 35 b3 3c 38 b3 bf
       0.10576777229682273 -0.07507686019148625
0001c0 cb 54 18 64 64 a9 ab bf 5b 1a 71 80 36 46 b2 bf
       -0.05402673456061676 -0.0713838637903818
0001d0 b9 83 4a 4b f2 23 b1 bf 25 3f 13 82 7e b5 51 bf
       -0.066954749471292 -0.0010808692389225407
