JupyterLab/traced_model_M3_104.pt (torch, 148018 bytes, 12 tensors)

weight f8 [60, 9]
0	0x3fe0fc7720232ad4	0.5308185222323467
1	0x3f828d630454072f	0.009058736390673864
2	0x3f6363391c474294	0.0023666491926877618
3	0xbfd3bab285d22f88	-0.3082701022001335
4	0x3fc596a7ae1b85a9	0.1686601257452314
5	0x3fc4dfb1fe8f4b82	0.16307663850474446
6	0x3fb955a0b2eed677	0.0989628254745528
7	0xbfd3dc26a8df5972	-0.31031195155573876
8	0xbfca638644770e72	-0.20616224616070472
9	0x3fd2e211e13f673a	0.2950482082065836
10	0x3fc3552ffebcf8d3	0.15103721559893887
11	0xbfd07be7b93468e3	-0.2575625713958642
12	0x3fd00dc2e9b05514	0.2508399278752489
13	0xbfb0718fd491ba82	-0.06423281612090118
14	0x3fd13ea756c38cf8	0.26944907639536053
15	0xbfd0e4ffb54f696d	-0.2639769812209554
16	0xbfc764e3abed819d	-0.1827663983813296
17	0x3fb5fd361ae906ed	0.08589494854916398
18	0xbfbd9119c10a1f5a	-0.11549530947570244
19	0x3fc67c035146c5fe	0.175659575162669
20	0xbfd4659cef445fe4	-0.3187019669144304
21	0xbfb34b8f84ef2105	-0.07537171359502189
22	0xbfd2a25c8ac47423	-0.2911597590589869
23	0xbfd91e756c0e467a	-0.3924840502960262
24	0x3fa063160dc63a2a	0.03200596731322876
25	0x3fc346782016aea7	0.15058805052591603
26	0x3fd37fce3a780a48	0.3046756335244578
27	0xbf8931a3a58cb113	-0.01230171059577193
28	0x3fb146938635ef5a	0.0674831583655168
29	0x3fb09165a2d08148	0.06471858239138328
30	0xbfcab88607d784f7	-0.2087562120714563
31	0xbfa79d9b41f2b267	-0.04612431697873803
32	0xbfd0fd4c16e88ff4	-0.26546003567841514
33	0x3fd372dbf884da30	0.3038854529326356
34	0x3fc17b89386a8f3b	0.13658252005290614
35	0xbfc2bdeefee3f400	-0.14642131276914938
36	0xbfa245b9fe6fc50d	-0.035688221272616706
37	0xbfa34586648dfdc9	-0.03763980843995857
38	0xbf810fb781571938	-0.008330758700037508
39	0xbfd167c1851a34f7	-0.27195775984075915
40	0x3fd6eeb60c0b5724	0.3583197705860235
41	0xbfbad29827f51d54	-0.10477591491245636
42	0xbfcfe328d5d33444	-0.24911985817598936
43	0xbfda507177c3fa89	-0.41115986533979104
44	0xbfcef247cbeea526	-0.24176881272914236
45	0xbfd088834fe4df2e	-0.25833208849097644
46	0x3fce9b1b590e6457	0.23910848473022625
47	0x3fd2d16253705848	0.2940297903854838
48	0xbf974d060da6b5b6	-0.022754759391025302
49	0xbfd7cfbc783a2a7a	-0.37205421200693645
50	0xbfc4ae40c8666628	-0.1615677813068015
51	0xbf9d6902b17e81d9	-0.028720895846733405
52	0xbfd8525ba6fff0ab	-0.3800267344338503
53	0xbfd116b870598554	-0.26701174708985786
54	0xbfd084649ad91d52	-0.2580806266964447
55	0xbfbeee1212ff2b23	-0.12082016910350694
56	0x3fd335df6daacf2a	0.30016313275995066
57	0x3fb2de4a32cd8701	0.0737043737440466
58	0x3f9ffd66301ce78b	0.031240078627184736
59	0x3fd9cd99bcbf7b2c	0.4031738608591009
60	0x3fa77d63acaf971d	0.045878519849607204
61	0x3fceeddae46a6849	0.24163376000507444
62	0xbfc921ef18af60f0	-0.19634808259321046
63	0x3fbffe120a35a4b1	0.12497055768257571
64	0x3fc05885d2ac329d	0.1277014998126064
65	0xbfb3ad211cf1e339	-0.07686049420034359
66	0x3fc49a15480dcd8a	0.16095224397905056
67	0x3fdbbb3ded97ed3a	0.43330333902823137
68	0x3fd56c2eec2b4f29	0.3347279840793243
69	0xbfd5e10eaeaf9c6e	-0.3418614107053547
70	0x3f9045a1ed769d91	0.015890627020466012
71	0xbfc9a86724f0b11b	-0.20045174888344594
72	0x3fd891e84ca0b8aa	0.3839054821318181
73	0x3fb312da6d4ee7ec	0.07450642746599073
74	0x3faf7b83abfdb589	0.06148921465397012
75	0x3faad68e26270031	0.05241817680098427
76	0x3fe02551c47216ee	0.5045555912808746
77	0xbfd732a06a93c1d3	-0.36246500404288645
78	0x3fd0d78e9bd4c388	0.26315655916101166
79	0xbfa14d4ca02fb2f8	-0.033792872003550245
80	0x3fc8d264ca8625cd	0.19392070664279829
81	0xbfb2eeb446bf1806	-0.07395483710487846
82	0x3f938cdd6b56fc41	0.01909204452180924
83	0x3f9ea441c3c6f6e9	0.029923465322773266
84	0x3f9436fd1851e1dd	0.01974101506172753
85	0x3fa3c99d86465017	0.038647577897023826
86	0x3fc9f9f8c2baca54	0.202941031534993
87	0x3fc752de4ad6a087	0.18221644071786988
88	0xbfd01baac4bfdc1c	-0.2516886636144038
89	0x3fd3f7db3ae8a98f	0.3120029521257032
90	0x3fc8cde7adf4f3ef	0.1937837218664806
91	0xbf9e12fb74adee68	-0.029369286533876965
92	0x3fce323190a162ad	0.2359067875102218
93	0xbfb69949f30b79f7	-0.08827650245391526
94	0xbfd296500e0c064e	-0.2904243600060895
95	0x3f8131c5d6a860e3	0.00839571534474754
96	0x3fd3ea6dfe380771	0.3111834509473886
97	0xbfbb1cc2e5daf4d3	-0.10590761291219346
98	0x3fd33fabdfdddc8d	0.30076119291283804
99	0xbf87dd3e55193b3a	-0.011652457210542633
100	0x3f9eee34a9971bec	0.03020555768105375
101	0xbfc6bd448c1fc9fa	-0.17765099374771848
102	0xbfa0b7d4cbae8076	-0.032652521003229504
103	0xbfd769ad04280d71	-0.36582494169143503
104	0x3fde96b90bde3c88	0.4779493919276736
105	0xbfd0c52bc094eb1a	-0.26203435713584755
106	0x3fc0d6825d5be264	0.13154630240002796
107	0xbfc6ba90151c13cb	-0.1775684454989047
108	0xbfb59f1261c831f3	-0.08445849311119229
109	0xbfc1b2981e870e4a	-0.13826276293376544
110	0xbfb41ac93436d638	-0.0785337212062921
111	0xbfc47cc873368976	-0.16005807519566034
112	0xbfde18f378365ed6	-0.4702728914212292
113	0x3fcfb472a688a9d8	0.24769433146987185
114	0xbfd197227975a576	-0.27484952794346584
115	0xbfc2fa9d772d6a35	-0.14827316588601183
116	0x3f9193caeaa6c22c	0.017165346691117175
117	0x3fb2172738606609	0.07066578985577378
118	0x3fd378b428fda018	0.304242172269825
119	0xbfcbb22627c26cf0	-0.21637417737370113
120	0xbfc42a5b877b3341	-0.15754264941497279
121	0x3fd14076fe13b972	0.26955962002002487
122	0xbfd58a71fda3a14c	-0.33657502908183257
123	0xbfcb8f7376fa1b6c	-0.21531527814314744
124	0xbfdac91b4a3e6ffd	-0.4185245728529024
125	0xbfcb082d4ce489f9	-0.21118704084899756
126	0x3fd5da711157ffec	0.34145762151456327
127	0x3fc35dad6e76305e	0.1512963094104433
128	0x3fd4b803c4faec03	0.32373136745781056
129	0xbfad29cbab79004c	-0.05695950000927094
130	0x3fd7dbf9fe0d605d	0.37280130204954337
131	0xbfcf05b064231759	-0.2423611153555452
132	0x3fc455e042924344	0.15887072802117974
133	0x3fd14dec7e1c8f96	0.27038109126646626
134	0x3fd2e1f9deaa1ac6	0.2950424837548947
135	0x3fe0619fe4b3c26d	0.5119170634116706
136	0xbfb54a36bccbae50	-0.08316366299885058
137	0xbfb95bfd5c33677d	-0.09905990124698678
138	0x3fd15d4620c1f386	0.2713179893397001
139	0xbf82fefaf2543aea	-0.009275398750586434
140	0xbfda20809b7bfe8f	-0.40823378738421295
141	0xbfd2a93c36203119	-0.29157929692952816
142	0x3fb55fcb326aa5a6	0.08349294644235403
143	0xbfbd7e5485371828	-0.11520889522861977
144	0xbfd5ca9af3dc4a36	-0.3404910451364772
145	0x3fd3ca137665f390	0.3092087417824638
146	0x3fcae60e0458a0b6	0.21014571392266185
147	0xbfd071f84d4cbe06	-0.2569561724548922
148	0x3fc37905fe6d5c3e	0.152130841476465
149	0x3fb99c184f192aaa	0.1000380700217344
150	0x3fd3cc279ca85973	0.3093356160983582
151	0xbfd1216cd37dd6d6	-0.26766510632965657
152	0xbfb1936dbef37691	-0.06865583335771876
153	0x3fc75d1e38243e93	0.18252923718727185
154	0xbfd09943c3be3a8b	-0.2593545352509998
155	0x3fd2cd17c27fab7e	0.29376787179960917
156	0x3fbac49fe1844aff	0.10456275230198385
157	0xbfd36c19a4dc1ae1	-0.3034729108771171
158	0x3fd4fffba138beaf	0.3281239580564756
159	0xbfcb15d0d3a81a98	-0.21160326323316236
160	0xbfcf8b5b6d9abaed	-0.246440342443257
161	0x3fc500b2ed3a73b3	0.1640838297215886
162	0xbfc514ab0e30c19c	-0.16469324295895837
163	0xbfc36ca8d9651dc9	-0.15175352683057344
164	0xbfc299dd7380652d	-0.1453205884907133
165	0xbfc3230e3505e5a4	-0.14950730885520358
166	0x3fbc11d3411c0ace	0.10964699115360618
167	0x3fd0aabdd000877c	0.26042123139097106
168	0xbfd254cd2eab24f6	-0.2864258723971739
169	0x3fca28f4e561821d	0.20437489700545167
170	0xbfcfc90efa6b0d36	-0.24832331874322627
171	0xbfca8ad08817b312	-0.20736128468652076
172	0xbfc7272741e3cfc6	-0.18088236539153807
173	0x3fbceafa25ba4af5	0.11296046658598498
174	0x3fd6bc295376b914	0.3552344622684285
175	0x3fcf5640cb10f47e	0.24481973567336363
176	0x3fb8712a7778289d	0.09547677437527331
177	0x3f92be29ed47f8f2	0.018303542239657973
178	0xbf993b75426f54c0	-0.024640876941550927
179	0x3fc9381b3f06f888	0.19702473237515883
180	0x3fcd2a3ed9953b02	0.2278517305771502
181	0x3fc4916e4dd45430	0.16068819809211865
182	0xbfc578c8340ac9a3	-0.1677484754669197
183	0xbfa156d44f726d4b	-0.03386558027087946
184	0xbfd0f04b8806c46b	-0.2646664455779219
185	0x3fd148d5d181f7bb	0.27007050952658646
186	0x3fc614751c58c50d	0.17249931224936468
187	0xbfb3e1d7e4b9cb8c	-0.07766484579205563
188	0xbf8a9c65ed7f467f	-0.012993618307436392
189	0x3f9c894aff2d753d	0.027867481064608447
190	0xbfc7d102c972b0a0	-0.18606600605324264
191	0x3fb9aa77a1b42ab0	0.1002573747429476
192	0x3fb3b6255f85936e	0.07699807722162941
193	0x3fcb21b06e464596	0.21196561226365124
194	0xbfdfa7085230d251	-0.4945698549884457
195	0x3fce4809eed6092d	0.23657344972532127
196	0x3fd56c54b78e9e83	0.33473699498652126
197	0xbfb778b2e69c091d	-0.09168546800723161
198	0x3fc2b923affae7a1	0.14627500622537773
199	0xbfd538329de0b7e2	-0.3315550367141197
200	0xbfc2d2f772658123	-0.1470631893707913
201	0xbfcd4ed505f3f4dc	-0.228968265444485
202	0x3fba5c7d8c8e4e0f	0.1029737919000626
203	0x3fbfa51b5f0d3158	0.12361308165163132
204	0x3fc750fd4c862f52	0.182159101834595
205	0x3fbf12414e163e63	0.12137230068605613
206	0x3fb3d070efcc27c3	0.07739930967741686
207	0x3fc0fb02b27c866f	0.13266023364217314
208	0x3fc78a2c2cc7e9f9	0.18390419184272824
209	0xbfd124f5fea9a4cc	-0.26788091534997416
210	0xbfbafc4753e902d3	-0.10541196631039478
211	0x3fc9d1089419240e	0.20169169646604285
212	0xbfd014aaec2dd426	-0.25126145424229873
213	0xbfd252e33ca29a9a	-0.2863090603008601
214	0x3fd8edfc3e81b14b	0.38952547172700197
215	0xbfbb7c5edda73489	-0.10736649428800339
216	0xbfb13a79b42ee215	-0.06729851387979864
217	0x3fc3b6d82d9287e9	0.15401746964658905
218	0x3faf93aaec7f1181	0.061673489922699616
219	0x3fa1e862082f17ef	0.03497606611158221
220	0xbfc6a53c417de1da	-0.17691758344496017
221	0xbfbcfa7af654a9b7	-0.11319702638562644
222	0x3fd924fdbb3a3116	0.3928827598945345
223	0xbfd112cdaf77a530	-0.2667726720379333
224	0x3fd08f39aafb7e22	0.2587417764425216
225	0xbfbde707ad770c92	-0.11680648789392681
226	0xbfa514bab4f6b040	-0.04117377718952797
227	0xbf98dd514afc2c80	-0.024281759454464424
228	0x3fdb94d032c748c4	0.4309578414805737
229	0xbfaaa7570b7e309c	-0.05205795302671953
230	0x3fcdd47980f439bc	0.23304671093542406
231	0xbfb0751ffd64d3ff	-0.06428718506215601
232	0x3fbf5d3a60a8d59d	0.12251629695750528
233	0x3fb885ed159ca888	0.0957935502780477
234	0xbfd1f6601609d3b3	-0.2806625571459406
235	0xbfc0fbff5d418cfd	-0.13269035390394626
236	0xbfa825134ac641fb	-0.04715786254667261
237	0xbfd0657e05a4bc7f	-0.2561945967781369
238	0xbfd6c33eae190c20	-0.35566679956190406
239	0xbfd0fff53a4239ec	-0.26562243165326893
240	0xbfb06a4c1073e51a	-0.06412196542432405
241	0x3fd245cb0d7a40ea	0.285509837304757
242	0xbfd368dcf6136280	-0.30327533751327707
243	0x3fc2b40d8fb63f1e	0.1461197807043328
244	0xbfc69c440fea76f9	-0.17664385583059763
245	0xbfd0c18ff8375d78	-0.26181411018247713
246	0xbf966d6643dff91d	-0.021901700871233765
247	0x3fd6a9e139579ad2	0.3541186389906389
248	0x3fcada915dc619f8	0.209795161045079
249	0xbfc0cf9a3e14b4ee	-0.131335525811131
250	0xbfc4b873f5c1a55a	-0.16187905788255358
251	0xbfcee86fed7a12e3	-0.24146842093991613
252	0xbfb88179aad181cb	-0.09572563572283525
253	0xbfc3af426a3ce19a	-0.15378599345582417
254	0xbfba8ed5c07f9e79	-0.10374198865576457
255	0x3f4c49a020f5b3f9	0.0008632690313966621

bias f8 [60]
0	0xbfd37d0f62e6db8a	-0.3045080629194038
1	0x3fc7f6105e2be0f0	0.18719677541935864
2	0xbfc0e6952c3987b3	-0.1320368257466363
3	0x3fd6809db8c0c447	0.3516001037815539
4	0xbfd45e834e326b48	-0.3182686103479466
5	0x3fd1c91c0fdaacb2	0.277899756891837
6	0x3fcf9613187fa1ac	0.24676741310328276
7	0xbfbbdf369caecad0	-0.1088747150923084
8	0xbfd2bf98f299f1b0	-0.29294418040788184
9	0x3fc3c479d6b80e6f	0.15443346962284774
10	0x3fd906645d1d577e	0.3910151395151543
11	0x3fb3a04b5461e743	0.07666464624517481
12	0xbfbf99587000fbb6	-0.12343361601322908
13	0xbfb101780795f850	-0.06642866311264695
14	0x3fcf3ed23406f1b4	0.24410464802157394
15	0x3fabc47e218335f8	0.05423349532211924
16	0xbfd773f43342c61e	-0.3664522648424241
17	0xbfcd04c6d5c8f283	-0.22670827330320628
18	0xbfc87c2e85001113	-0.19128972524789187
19	0xbfc3054422288e2a	-0.14859821002856793
20	0x3fce2f22bdd348ca	0.235813467682027
21	0xbfafad98a14c195b	-0.06187130898438183
22	0x3f936e7f174fd9ad	0.018976198003622425
23	0xbfd720b0db234d8c	-0.361370290757997
24	0xbfc6afa2c6ef6cd6	-0.1772349807132289
25	0xbfd19bb86addf54d	-0.27512941776497685
26	0xbf9a21c5c44d0339	-0.025519456964732987
27	0xbf859071dde53859	-0.010529412826738293
28	0x3fce2afc44db17a2	0.23568681108571093
29	0xbfb1a7345764f810	-0.06895758756306258
30	0x3fb1116fef06a14c	0.06667232118218641
31	0x3fc08c519ec560c3	0.12928219082346545
32	0xbf97a46c35058583	-0.023088160263232915
33	0xbfb6de7bae83a397	-0.08933232317543936
34	0xbf54508200f0f703	-0.001239897686687142
35	0x3fd2d9b0d971aa13	0.29453679308667907
36	0xbfb4310a3ea07456	-0.07887329129194262
37	0xbfcc0d021116d5f7	-0.21914697489198406
38	0xbfc516bd1dfbebb9	-0.16475643123689368
39	0x3fc25e0ff3b6e786	0.14349555397148722
40	0x3fbd3e96324fbd98	0.11423624733264715
41	0x3fc61b4482bd14b6	0.17270714172096796
42	0xbfb1be7a580a5c4a	-0.06931271218705706
43	0x3fcadf06a4a7277b	0.20993121185011518
44	0x3fc4d982b27f21d6	0.16288789477972782
45	0x3fb6fd85da603aa7	0.08980595189516781
46	0xbfcf2bc7c20c39a6	-0.24352356886852283
47	0x3fd234a81fd57b6f	0.28446391209393246
48	0x3fd2982cf99c9993	0.29053806663650866
49	0x3fc2142311b05bf0	0.14123953212467155
50	0x3fc66f263aa7194d	0.1752670084371836
51	0xbfbf72a0887dc93f	-0.1228428204756584
52	0x3fca9a55d81b9ed1	0.20783494045394105
53	0xbfcd52a58e2c1592	-0.22908467714311748
54	0x3fc95f46beddb6e5	0.19822010345108435
55	0x3fb414ee1c3b2d02	0.07844436825978465
56	0x3fd451d8d6d3e133	0.3174955461431807
57	0xbf977aeef7bd28e0	-0.02292989146307256
58	0x3fd4785f068fbe84	0.31984687462588846
59	0xbfcab4786c378b3b	-0.20863251956969883

weight f8 [60, 60]
0	0xbfa1ae1a50d13c42	-0.03453142391719456
1	0x3fbfdc8c55a241f9	0.12445904818219579
2	0x3fb8836a87b62ab4	0.09575525105735033
3	0x3fbb4c9aa9cbf319	0.10663763661791527
4	0xbf98a2ae8a7ee130	-0.024058081820585275
5	0x3faedd0c5becda95	0.06028021452077784
6	0x3fc11bc98161155e	0.13366049592347456
7	0x3f95c95619b0e9a0	0.021275849645670086
8	0x3fb11af3fad0fa75	0.06681752084203103
9	0x3f881420240ca7e5	0.01175713644041205
10	0xbfb1a1f43ed88892	-0.06887747320482365
11	0x3f908ea5fec009af	0.016169160531725953
12	0x3fc11e2bdaeee187	0.13373325529188326
13	0xbfbc51c3ac0fa576	-0.11062262488089467
14	0xbfb20ae55243b5bf	-0.07047875650797318
15	0xbfb79c5ddb341648	-0.09222971536299795
16	0xbfc38b5e34910146	-0.15269067351074223
17	0x3fa1f74ceb290593	0.03508987780197539
18	0x3fb8e34560aac1a6	0.09721788034472087
19	0xbf795bb145bff0b1	-0.0061909603791684845
20	0x3fae4ff44d874497	0.05920375296012386
21	0x3fb859fbd43e142c	0.09512304240895791
22	0x3fa69c7d3ad62127	0.04416266768663695
23	0x3fbb5e840d173c7d	0.106910947032917
24	0xbfb9da95ec9e38e8	-0.10099160219963077
25	0xbfbad03b64aef262	-0.10473986824121931
26	0xbfb7c70fcc5505d5	-0.0928811906678882
27	0x3f7619479a3eaa50	0.005395202348078401
28	0xbf8135a79c2e405a	-0.008403119519954472
29	0xbfbc48bdde261cc9	-0.1104849498134285
30	0xbfba54b9258b1604	-0.10285527388176524
31	0x3fc14bfaffbca161	0.13513123976850763
32	0x3fa07861de49d7eb	0.032168444046803156
33	0xbfa46476c21c6196	-0.039828978724645456
34	0x3fb9844e96dc7dba	0.09967509444367453
35	0xbfaec65f86669b85	-0.060107216984127944
36	0xbfb0cd885d87336f	-0.06563617976571633
37	0x3f7d39ce8cf86c94	0.0071352070222260484
38	0xbfb516a42ed8a70f	-0.08237672942837214
39	0x3fc25c1802bb87b1	0.14343547948288696
40	0x3faada100e791277	0.05244493652984244
41	0x3fbb186007c89383	0.10584068479563595
42	0xbfca902926a58ca9	-0.2075244368271332
43	0x3fb969fc1e2c13a9	0.09927345024705282
44	0x3fb41e2873fdf8fb	0.07858517486417675
45	0xbfb1132b57d96058	-0.06669875044588147
46	0x3fb85feae7369b46	0.09521358628135798
47	0xbfade173f7ff5e84	-0.058360694907318794
48	0xbfa040fa58af52df	-0.03174574215487324
49	0xbfb712834e97bbaa	-0.0901262347103812
50	0xbfc51625fa08dfce	-0.16473841389392735
51	0x3f77e41c23b1fefc	0.005832776946703918
52	0xbfcbe7471411f589	-0.2179955337523263
53	0xbf7612db97feda8d	-0.0053890779380966316
54	0x3fb58488805c4bdd	0.08405354627420487
55	0xbfa825be50fdd16d	-0.04716295946755875
56	0x3fa741dcd81d2db5	0.04542436731443492
57	0x3fb6af17e1ab109c	0.08860921153524476
58	0x3fabb45aed941754	0.05411037588241521
59	0xbfa67bfee2f5c5a7	-0.04391476173885716
60	0xbfac7b7b3eebb797	-0.05562958853793914
61	0x3fb11a7a0fd7f02f	0.06681025397114192
62	0xbfb0507d3a84b4ef	-0.06372816733047036
63	0x3fb45d0de83ab580	0.07954489631329942
64	0x3fae1768a2e42d7d	0.058772344478792406
65	0x3f7443a3e3a7d2e2	0.004947319214342301
66	0x3fba950c2820d4bc	0.10383678416913517
67	0x3fc280b94facb248	0.14455334081994153
68	0x3fbbebaebde684bb	0.1090649808525254
69	0xbfc1eb5432a6a5e0	-0.13999416802589248
70	0xbfc1416c61edc974	-0.13480906278307325
71	0xbfb790986aff56ab	-0.09205010044328314
72	0x3fa376abaabd3ad8	0.03801475962847228
73	0x3fb9d05f7adb818a	0.10083576917123174
74	0x3fa095d8b7fcd39b	0.032393238505768106
75	0xbf8be4b945a883cc	-0.0136198496230139
76	0x3fafb0337aba2a45	0.06189118264326913
77	0x3fc7e871d80ad0d2	0.18678114937723095
78	0x3fb5f52add142bab	0.08577220818931035
79	0xbfcab48355869b45	-0.2086338203054884
80	0xbfaf25e136ad6c52	-0.06083587448548457
81	0xbf996495a43aa711	-0.02479776205897283
82	0x3fbb07dc66a5a60e	0.10558869844467031
83	0x3fce35def61f5ecc	0.2360190107126442
84	0x3f8cb3f8d9abd6ab	0.014015144484328465
85	0xbfc9f85a77ed66ad	-0.2028916440565828
86	0x3fb9b4b205e4b17a	0.10041344303016855
87	0xbfbbcbcebb010473	-0.1085786062767669
88	0xbfa79ac1abdd13f7	-0.04610257361358799
89	0x3f860a9c318f4614	0.010762424719277276
90	0xbfaa63882de7a3e7	-0.051540618518465746
91	0xbf7ca1d908142a16	-0.006990287570497708
92	0x3fc03444cafd1591	0.12659511481812705
93	0x3fa94f642c7b93c6	0.0494338325786781
94	0x3fa0e2b407d1b125	0.032979608492356406
95	0xbfa72d58d7f46af3	-0.045267845498718894
96	0x3f9b19a84a69d7f5	0.026465062658154143
97	0x3fbb3f2700d7fc62	0.10643237848852174
98	0x3fc63bf414c477ae	0.17370463384662344
99	0xbf9c69cd50c55f02	-0.027747352652425235
100	0x3faa01096ae19322	0.05078916005803637
101	0xbfb71fc2a7c7cc4a	-0.09032837482645664
102	0xbfaac32a0c33f998	-0.05227023505175338
103	0x3fab2af15a27c518	0.053062002425472155
104	0x3fad3ea0a0414321	0.057118434488648846
105	0x3fa29c1641771144	0.03634709881910905
106	0xbfc80d6d063d5dfb	-0.18790972523377988
107	0xbf9fbd68f6ac32e9	-0.03099597936220536
108	0x3f6529a77cea3152	0.0025833388566011495
109	0xbfc30701467d0eb1	-0.14865127507993273
110	0xbfbd6c605194dde0	-0.11493494025932405
111	0xbfb6f49e1f367f09	-0.0896700693324385
112	0x3fa6e85eb9677737	0.04474159253343973
113	0x3fb288ebb1111e5c	0.07240174363061541
114	0x3fc189d700243b44	0.13701903826628314
115	0xbfa556951f0c8f01	-0.04167619709030924
116	0xbfa0d002d665ae55	-0.032836998626262805
117	0xbfa44cebefd18737	-0.03964936544868041
118	0x3fb13604d7ea7b8d	0.06723051329980319
119	0x3fb82dd4ddaefead	0.094449333307234
120	0x3fc2bb912e4d8636	0.1463490940177949
121	0xbf936ca544695447	-0.018969137478354516
122	0x3fb235a5f5fe56d4	0.07113110786152826
123	0xbfb5cd93c5ed5c81	-0.08516810972411017
124	0xbfa9ede44f2f0c7c	-0.05064309565161637
125	0x3fb66c77a6a63be0	0.08759258097255396
126	0x3fbcdd7b8771dc26	0.11275455528981179
127	0x3fc4226b33c4150f	0.15730037715562914
128	0x3fb20b26c1551a2f	0.07048265666990326
129	0xbfbbbb1ed25c3ee8	-0.10832398067236293
130	0x3f929d98bfd422e6	0.01817930861310204
131	0xbfa22b3aafac561c	-0.03548606295059306
132	0x3fc2fb08db6ce837	0.14828596796161417
133	0xbf9a81f88ec56557	-0.02588642474561217
134	0xbfaece056fcfdb43	-0.06016556730167235
135	0x3f89a9b5969b9d4b	0.012530726107299236
136	0x3fcbfc6998090d07	0.21864051745988197
137	0x3f931dd1fbb5a04a	0.01866844271481253
138	0x3faf6f72d79bcb1e	0.06139716035786179
139	0x3faf98c5d11bd800	0.06171243836972451
140	0xbfbf3890ea73a441	-0.12195687984389371
141	0x3fa2c26cfbfe8c5e	0.03663960052588132
142	0xbf643188978f3e09	-0.00246502569323304
143	0x3fa889db6466d3f8	0.0479267654476771
144	0xbfa400e17ce9daee	-0.03906922006438217
145	0x3fc2532ac93cd7fb	0.14316305948312888
146	0x3fa0ea095caa2dd9	0.03303555732881209
147	0xbf912c78635162bd	-0.016771203100094157
148	0xbfa133fd14267dce	-0.03359976645446815
149	0x3fc42217ac0fa389	0.1572904195920979
150	0x3fc2d8e32e3f9bb8	0.14724387891985002
151	0x3fa03bdd15143819	0.031706723044507786
152	0x3fa67e275d9ad4d4	0.0439312268985447
153	0xbfb8e3c1a7fef98a	-0.09722528792824484
154	0x3f889c569e3796d5	0.012016941741375057
155	0xbfb917e715881e0b	-0.09802097583462215
156	0x3fa18e6a83c87c98	0.03428967341118855
157	0x3fbd88d5a3b201af	0.11536917921512811
158	0xbf9440611de6f000	-0.019776837778167078
159	0x3f85df8914d8ef1a	0.010680266331398115
160	0x3fc839775a4af38f	0.1892537299044332
161	0xbf8419a491a88fbe	-0.009814534850256847
162	0x3fae8723846fa687	0.05962477676059757
163	0x3fbd2a5e83eb99cc	0.11392775269232586
164	0x3fc3d9cd7d60407a	0.15508431074022494
165	0x3fab08431c09883a	0.0527974101758137
166	0x3fc1a5fe4584fdbf	0.1378782119227093
167	0xbfb2d103062c1bf9	-0.07350176716509783
168	0xbfbe2d7dbd5595d2	-0.11788164017124039
169	0xbfb0e8c837c42aaf	-0.06605197297555308
170	0x3fc3c8b518c14094	0.1545626040338034
171	0x3fc00c63e86c141e	0.12537812088717798
172	0x3fb07e5034ca085f	0.06442738808439817
173	0x3fb1021e88613e34	0.06643858747087777
174	0xbf967de936b65142	-0.02196468731342916
175	0xbfba798ae45b6a98	-0.10341709208607097
176	0xbfb725c6850cbf0d	-0.09042015789304632
177	0x3fa5e073a4cddd85	0.04272805582780407
178	0x3fa02ea5e6e3e8ba	0.031605896410796544
179	0x3fa169abe777170b	0.034009334569004755
180	0xbfa9069c052d29ca	-0.04887855113209445
181	0x3f9fc997f949a0b6	0.031042456236179482
182	0x3f631e0319e2629b	0.0023336468285147355
183	0x3fb492d75ac0a74c	0.08036561933172698
184	0xbfb5c1783ad9f132	-0.08498336254883013
185	0x3f9bd5828e2be4b5	0.027181663444001376
186	0x3f9e4fab54c8c4c8	0.02960078911764155
187	0xbf9e11360f339d00	-0.029362530401070508
188	0x3fa0a75a8ee8263f	0.032526807732278666
189	0x3fa65165c6865b42	0.04358976410292438
190	0xbf3bebc03a290dc7	-0.0004260391525898435
191	0x3f97b8f59faa737d	0.023166501875141677
192	0x3fbc1db72ffcf973	0.10982842370592553
193	0x3f80c4bf5854522a	0.008187765963648525
194	0xbfa38a76b7cb257a	-0.038165769515738426
195	0x3fabc1649aefef05	0.05420984641383878
196	0x3fb1cd2d302c61c7	0.06953699518306343
197	0xbfa8bc28799d60d0	-0.048310532422591757
198	0xbf97ad2b8194f994	-0.023121528419545692
199	0x3fb69ba943a87d37	0.08831270124254763
200	0xbf961bef0aced0ef	-0.02159093383279836
201	0xbfb19d7380def892	-0.06880876442207498
202	0xbfc0297ba07c6675	-0.1262659581778284
203	0x3fa6440238c5ff1f	0.04348761504206621
204	0xbfb69f5ff1b5c1b5	-0.08836936617968301
205	0x3faab64f8a811319	0.05217217031216687
206	0xbfc36b7433368504	-0.1517167329848591
207	0x3fb2995038023987	0.07265187613868394
208	0xbfa39535aa048cc4	-0.03824775410091655
209	0x3fca6bc59ab5776e	0.20641393713134043
210	0xbfc54ed7ff9bd6da	-0.16646862011810165
211	0xbfa571259c9f7482	-0.04187886750126159
212	0x3fc20b790669c379	0.14097512066976117
213	0x3fb0896c54a7228b	0.06459691111298065
214	0xbfc4d3305a1b7539	-0.16269497298973493
215	0xbf94257df1557c37	-0.019674270491460723
216	0xbf9c9b17e2692aa1	-0.027935383981722798
217	0x3fc39d83a1e1ce0b	0.15324445156476005
218	0x3fc5de5eb1c062fe	0.17084869078896497
219	0x3fc2e8df9157ac5d	0.14773172947693328
220	0xbfbe0b933496e4b7	-0.11736412080689972
221	0x3f9ec8de8b79bb4a	0.030063130629453462
222	0xbfb3552f7fbc1bf5	-0.07551857822919301
223	0x3f9eab98b5df1c00	0.029951463795239164
224	0x3fa86ca093df0b4f	0.04770376019543809
225	0x3f980a0d982b7a0d	0.0234758495452017
226	0x3fac5635d4dc26d9	0.0553452322329357
227	0xbfb28c7bea18a7cb	-0.07245611634485198
228	0x3fb71904661b5560	0.09022548191872692
229	0x3fae892332346ac7	0.05964002597666745
230	0x3f86ef190675bfe5	0.011198230275766672
231	0x3faab4e7f5e56129	0.05216145397816014
232	0xbfaec3cb03acbc6a	-0.06008753223283565
233	0xbfb2e86d2259b623	-0.07385904396661451
234	0x3fb6cf1ff30d9f56	0.08909797367016145
235	0xbf9ceeb7adbf803f	-0.02825438497518484
236	0x3f95d186b53a56ea	0.021307091532967094
237	0xbf66baf31af43508	-0.002774691405312727
238	0x3fbc1a815f400d84	0.10977943969196785
239	0xbfada46a13cccf63	-0.05789500705432606
240	0x3fc88c7954a6d8a7	0.19178692468057543
241	0x3fb10e1c6e1535f7	0.06662156760759062
242	0xbf557e645383e8e4	-0.0013118724583010494
243	0x3f81d75738d9f3a6	0.008711511061159371
244	0xbfb48943adcfe069	-0.08021948808152647
245	0x3fba38672ce10ea3	0.1024231419151485
246	0xbfa13632c61a535e	-0.03361662548301213
247	0xbf94cc1cfe08ed3b	-0.020309880261476492
248	0x3fc0b79301e5d9e4	0.13060224144619703
249	0xbfc12b81d60c74c5	-0.1341402335319001
250	0x3fa1a2a0734b9440	0.03444386870777594
251	0xbfc0510eb2ab2b8b	-0.12747367595724443
252	0x3fbf36ea1ea06105	0.12193167922703559
253	0x3fc65210ebb6ba59	0.17437945851766548
254	0xbfc37f174b3d5dc5	-0.15231600927175584
255	0xbfb951536dafb004	-0.09889718463790592

bias f8 [60]
0	0x3fbe0c0489c42436	0.11737087596351689
1	0xbfc5ae294900bded	-0.16937748016924506
2	0xbfbf8fdeeb33e73a	-0.12328904382948461
3	0xbfb53c97eb5c8990	-0.08295583244447458
4	0xbfa4b8bf00acfed6	-0.040472000915995274
5	0xbfc050f2f1af5dc5	-0.12747036744143095
6	0x3fb4e1823d59ef5c	0.08156599042734797
7	0xbf9ee35e6b7ff889	-0.030164218245766015
8	0x3faaca2ca83bd63f	0.0523237185824823
9	0x3fb0e1ee844b53b6	0.06594744424667351
10	0x3f917830f72f01ea	0.017060055815592813
11	0x3fb11012b10ab9ed	0.06665150472938537
12	0xbfab34953bd3de12	-0.05313555102651092
13	0xbfc04e11be9178f0	-0.12738248639192973
14	0x3fb8484b87f406d8	0.09485313481493607
15	0xbf94b2e50876ca19	-0.02021367897186552
16	0xbf71a37d2e52c13f	-0.004306305873953697
17	0x3fc1921b3f0d6299	0.1372713144180764
18	0x3f82126845c3d029	0.008824171666198382
19	0x3fb10522cf657a6f	0.06648461879147204
20	0x3f935791cba01454	0.01888873868303549
21	0x3f981f2b105bfec2	0.02355639731740556
22	0x3fbc2c2fb6b16d93	0.11004923067360144
23	0x3fbb75bce5d2e3be	0.10726528750355066
24	0x3fc0ba8edb3c35b4	0.13069329933970908
25	0x3faf157720960b0e	0.060710642555042424
26	0xbfc24595a78bea0c	-0.14274855309470558
27	0x3fb5c8ae7af9fdf4	0.08509340765339585
28	0x3fc15b0b2bb27371	0.1355909312595958
29	0x3fa07a27130f4389	0.03218195064221791
30	0xbfaaa09d84908a7f	-0.052006647522166986
31	0x3fa72bace4ce2d7f	0.04525509160074658
32	0x3fc1e7c0b1dd7d47	0.1398850315554034
33	0x3fb922adf313e658	0.0981854170276163
34	0x3fa69f3b0464ba09	0.04418358257895611
35	0x3fbae7de40636cbd	0.10510052749616512
36	0x3fa9eeb02d6de1e8	0.05064917139583597
37	0xbfb2b4bb9bc88ef5	-0.07307026437097959
38	0x3fc1aab763e9d4e9	0.13802235010704259
39	0xbfc274ae8c451d12	-0.14418584679717888
40	0x3fbae7c7b4cb255f	0.10509918369202385
41	0x3fa40e8c8f3be8e1	0.03917350052320657
42	0x3fb2f5c475e5f8f4	0.07406261328103253
43	0x3f79bbe614e6cb55	0.006282709843094055
44	0xbf844913e57d9f8e	-0.00990500969028554
45	0xbfafd7732db44348	-0.062190627411956856
46	0xbf9a17532fb8a26d	-0.025479602611229547
47	0x3fc0c5e1614a04f3	0.13103883028455918
48	0xbf731245f036bb06	-0.004656098553296633
49	0x3fb19dac0be27fa1	0.06881213464885018
50	0xbfa0a6436723029a	-0.0325184882544864
51	0x3faf648d9edd208c	0.06131403507475949
52	0x3fab5fb77424f1ed	0.05346463482644368
53	0x3fa9d8f674e4aa9e	0.05048341919822018
54	0x3fb6a1b760cfb39c	0.08840509522970169
55	0xbfa679b098cc75a7	-0.043897169735127854
56	0x3facfb27e6cf9d7c	0.05660366718785334
57	0x3f86458d5b7ff2e2	0.01087484775052289
58	0xbfae3c791aa5c56e	-0.0590551228550663
59	0xbfbf88873aed6f1f	-0.12317700565966704

weight f8 [60, 60]
0	0x3fb3ca728517ed08	0.07730785130836548
1	0xbfa3ebc8fb96c6bd	-0.0389082724681322
2	0xbfba592ecb7e808e	-0.10292332141989588
3	0xbfacc735e0b6a623	-0.05620735519489652
4	0xbf9a13f119ecacd1	-0.025466696936899794
5	0xbfa0d1f3146289f0	-0.03285178779448816
6	0x3f8d359eea09fbea	0.014262429730704757
7	0xbfa76618e8a65d38	-0.04570081558193312
8	0xbfca8185ceee5bc3	-0.20707771877343192
9	0xbfc44784861d6896	-0.15843254612520202
10	0x3f9090a1074be601	0.016176715917913146
11	0xbfa9313ae845b4e6	-0.04920372090678331
12	0x3fb5ef49a23ea70d	0.08568248950055253
13	0xbf9f47773391beda	-0.030546057245770843
14	0xbfb8908b0f6c5a00	-0.0959555542616286
15	0xbfbb63a996bd5018	-0.10698947839893014
16	0xbfbc15a40aa5c278	-0.10970521221111962
17	0xbf955252aceb693b	-0.0208218496362431
18	0x3fb51d02770385d1	0.08247390180215254
19	0x3fc0016db3005b68	0.12504359474470594
20	0x3fb9090f92126c8d	0.09779450718126466
21	0x3fb647015a146768	0.08702095460139747
22	0x3fb52299244f3dda	0.08255917679274863
23	0x3fb852af76068387	0.09501167899590089
24	0x3fc0c71c6886d3e6	0.1310763845810065
25	0x3fb2dba1c88d422d	0.07366381784709893
26	0x3f902efb8c4f40f5	0.015804224432771147
27	0x3fc1fd2d4414e34b	0.14053884338661712
28	0xbfbcbea8d1abdcd1	-0.11228423232010988
29	0xbfa754c99c275283	-0.04556875258609685
30	0xbfb5cb3dea7ae9d4	-0.08513247465717849
31	0xbfb8b3792959d033	-0.09648854503194641
32	0xbfacb640a2dc5e3e	-0.05607797611281427
33	0x3fb2c98ad164f11f	0.07338779079595213
34	0xbf8daa7741cbcb24	-0.01448529405158678
35	0xbfc2c6696db56223	-0.14668004853116753
36	0xbfaa74d7f49a6ba5	-0.05167269574049919
37	0xbfb1a9476b667027	-0.06898924228738733
38	0xbfb83a0018c0d17b	-0.09463501552892765
39	0xbf6d1cc4f3565b88	-0.003553757351891066
40	0xbfb3e540d219775a	-0.07771687631017468
41	0x3fb1ad1d50e4c4e0	0.06904776787702671
42	0xbfaff66da063db27	-0.06242697317968853
43	0x3fb577352646f278	0.0838502138567011
44	0x3fc85694bf1c6d43	0.19014224368661745
45	0xbfa446276f9446ae	-0.0395977328972895
46	0xbfb782a8634bdc39	-0.09183742927767548
47	0x3f79a60b77043d71	0.006261868271635649
48	0xbfbf99ba372fea3b	-0.12343944403975453
49	0x3fbcbedeb3a5964d	0.11228744398030095
50	0xbf9a4226051afd4f	-0.02564296156083162
51	0xbfb81725bc4d7f33	-0.09410320136293819
52	0x3fba750a2d3a24df	0.1033483848970209
53	0x3f81c997fc78a8b5	0.008685290710748065
54	0x3fc66468d6c457af	0.17493925558727372
55	0x3fbcc918f1b418f7	0.11244350338901997
56	0xbfa08729603d4f76	-0.03228120136068828
57	0xbfaf2a683efb3264	-0.06087041634382187
58	0x3f83f2e51caf9faf	0.009740629136970684
59	0x3fbf95216891408c	0.12336930087008308
60	0xbfc07ef373b78d25	-0.12887423658603683
61	0x3fc00878bf2babbb	0.12525853476048873
62	0x3fbb71441963ba5e	0.1071970521913754
63	0x3faa200919b3e9ed	0.051025661838099846
64	0x3fa5941b38c4fe64	0.04214558666216986
65	0xbfb7679b8303d0f1	-0.0914246744976628
66	0xbfc561fc629e17dd	-0.16705279174146784
67	0xbf69ac920aca591b	-0.0031340458284133794
68	0xbfc546ca84ef75cc	-0.16622287264810465
69	0x3fb06ef461016bb6	0.06419303291606479
70	0x3f6ccf76a315a1c5	0.003516895020471563
71	0x3fb43d044763b1b7	0.07905604117303865
72	0x3fa546b693b9f09a	0.04155512383747002
73	0x3fbd9122e9ee3ee0	0.11549585543820795
74	0xbfa750b20fbb4e16	-0.0455375332072913
75	0x3fb1c0f9948e6fae	0.06935081364502935
76	0xbfd15abf0075c9d3	-0.27116370243962
77	0x3fa7971d65c4231a	0.04607478968870833
78	0xbf996677c899bc51	-0.02480494653576343
79	0xbfc54c3aee20dbb7	-0.16638886096344915
80	0x3fb8e4251ae1c563	0.09723121553704099
81	0x3fc401ea86623344	0.1563084751291176
82	0x3fa604327ccdbed2	0.04300077222330646
83	0x3fc623d83b424930	0.17296889203550725
84	0x3fbf3bf8fd3c9536	0.12200885946784443
85	0x3f9a2a6b67fd2dda	0.02555244276235933
86	0xbfabbaf05ed2804a	-0.05416060597895063
87	0x3f9db396fe4f8f95	0.02900539328756187
88	0xbfc52373d8a8d43b	-0.1651444251926096
89	0xbfb6f7f99f18107c	-0.08972129949694535
90	0xbfc3039f6447e617	-0.14854805370832544
91	0x3fc542eae6e1e997	0.16610466264303334
92	0xbfaa6bd23ae1e580	-0.05160386055735966
93	0x3fbb628356e26180	0.10697193976591812
94	0xbfa38100533d3a22	-0.038093576584845815
95	0xbfd2ee0c423e74d0	-0.29577928990495383
96	0x3fc15045ce38b9ac	0.13526222772038687
97	0x3fc88affa8c8de69	0.19174190274655992
98	0xbfc58f5b6baf5fc4	-0.16843741186198546
99	0xbfb5cb3ed9be878b	-0.08513253036519879
100	0xbf9ea78b3d609868	-0.029936004277395872
101	0xbf6ed93cd4438703	-0.00376569634146129
102	0xbfc7c03114d5bb28	-0.1855527259571883
103	0xbfb708eac580b670	-0.08997981378407771
104	0x3fb5d4155c956430	0.08526738653508015
105	0xbfc426eb1d03cc7b	-0.15743769566288165
106	0xbfb9e01730fc5f1a	-0.10107560106223126
107	0xbfa2cc91f2dadb18	-0.03671699609315321
108	0x3fa63f4a91d92571	0.04345162420629379
109	0xbfb38c2c540dca09	-0.07635762264343539
110	0x3fc35eaecdd15496	0.15132699060146554
111	0xbf899fb8077d651a	-0.012511670807429588
112	0x3fbbc2446ca0e9e0	0.10843303348602928
113	0xbfa1f74c0d9cdf88	-0.03508985201045706
114	0x3faa289cfa5bcec8	0.05109110408912226
115	0xbfc59be84030fbe3	-0.16882041105597442
116	0x3fc8f258dde1b806	0.19489584764545514
117	0x3fbf5bbf4f754286	0.12249370279210767
118	0x3fb8b55b5d04c3a6	0.09651728650056998
119	0x3fc7563b3617d02c	0.18231907025585892
120	0x3fb649954c40b068	0.08706029044759733
121	0x3fb0bf7401ca91a2	0.06542134326679741
122	0xbfbfdb7b1de52d44	-0.12444276313651864
123	0x3fc1257cb08a0a5f	0.1339565145500101
124	0x3fb14cb9f4b9e885	0.0675770018077931
125	0x3fc35ba06ce7c867	0.15123372380873265
126	0xbf83d33ea6e3fa0f	-0.009680261104674263
127	0xbfbf3b8068a883ba	-0.12200167231686879
128	0x3fb661ca71709135	0.08742966908954915
129	0xbfade6415047e472	-0.05839733223906131
130	0xbfa588e5a4f262b6	-0.04206006659041377
131	0x3fb9b4ada55b2e75	0.10041318213478141
132	0xbfb8088d2db25929	-0.09388048520699911
133	0xbfae26642f871c8e	-0.05888665275738801
134	0x3fbaf39505beb9f5	0.1052792681718769
135	0x3f80943dc40fb666	0.008095247789209736
136	0xbfa61c95cb2284e7	-0.04318683724091859
137	0xbfaa9210072a91b4	-0.051895619272986165
138	0x3fb995f3633df269	0.09994431660556703
139	0xbf91d6d5690ba078	-0.01742108777662607
140	0xbfa6b2cd0a19f929	-0.04433289287861648
141	0x3fb5e699aa6507ce	0.08554993066812175
142	0x3fbb8e207f5bda2f	0.10763743504853872
143	0xbfc4ea021affcf4b	-0.16339136427233777
144	0xbfc33c182c8cb652	-0.15027143645549984
145	0x3fb65f2e85deef66	0.08738985794383111
146	0xbfa765cc2c28720d	-0.04569852866208999
147	0x3fa8ecb4eabc37ae	0.0486809288541815
148	0x3fa0cc102edae4d2	0.032806878776179396
149	0xbf96d93fde343718	-0.022313116013768924
150	0x3fb5c3d9789d5fa4	0.08501967615791145
151	0x3fc2aefaec7f6bfe	0.14596497104398048
152	0xbf903861479510f0	-0.01584007262614845
153	0xbfbfa7aa8c3af844	-0.12365213321297214
154	0x3f704840fa3d9134	0.003975156610838849
155	0x3fad9fb697c3142a	0.05785914042056846
156	0x3fc05d8e5028e027	0.12785509981199647
157	0x3fb279729b7886c5	0.07216564460443482
158	0xbf6944a4c9ffc056	-0.0030844896827986563
159	0x3fc0537cb29ed3bf	0.1275478241128933
160	0xbfaf0f4de487db92	-0.06066363730126691
161	0x3fb94419f77fb390	0.09869539539768213
162	0x3fc11ffd296b9fe1	0.133788724160012
163	0x3fbc55bb318910c5	0.11068315467224739
164	0xbfa836b5d3213b0b	-0.04729240610378412
165	0x3fbaabf0bd9d0eac	0.10418610219226804
166	0xbfa2791dd771d1b9	-0.03608029608668368
167	0xbfb23d0262f04a27	-0.0712434283780473
168	0xbfb31c0e5cbddd05	-0.07464685215187579
169	0xbf90e748e0c0a7b5	-0.016507281034286076
170	0x3fa66e5047ea26d3	0.04381037595619621
171	0x3fbe04bcf919a9ed	0.11725979882763911
172	0xbfb96d2187cf19bc	-0.09932145658158381
173	0xbfbebc5e71161361	-0.12006178151029935
174	0xbfce4030f2ee9daa	-0.23633396016996971
175	0xbfb12d5194f38d49	-0.06709775816448373
176	0xbfbe84d6290ae57d	-0.11921442510619858
177	0xbfac1dc2dc04f653	-0.054914559705576814
178	0xbfae6404e04cb32f	-0.05935683477432573
179	0xbfc147c77c9adeac	-0.13500302871920178
180	0xbfa370c7621f49c1	-0.03796980927258487
181	0x3fc062d3d5dd426f	0.1280159754046681
182	0x3fb4df5fb5f38a75	0.08153341476603677
183	0x3fb4e7e006121be1	0.081663133127321
184	0xbfb3639a5e93e71d	-0.07573857125308021
185	0xbfc2f34c59bf4ed0	-0.1480498731822224
186	0xbf77d71014444ad5	-0.005820334252592392
187	0x3f7fee4f685efc56	0.007795629679036761
188	0x3f9c79c71099c5e5	0.027808294666504713
189	0xbfc59d7312ea7a94	-0.168867477642341
190	0x3f88f184a1026f87	0.012179409183140212
191	0xbfb5395876a5ec52	-0.08290627381022489
192	0x3f8353b059f86729	0.009436967607189555
193	0xbf8089557b0e7737	-0.008074443643461755
194	0xbfbaa4380ea44a8f	-0.10406828267540845
195	0xbfc1a7781bb6deee	-0.13792325356711593
196	0x3f8d1cea238c0571	0.01421530648213107
197	0xbfab28c02445c19b	-0.0530452770498215
198	0x3fb9beea40000000	0.10056938230991364
199	0xbfbcfc323195d76e	-0.11322320662097038
200	0x3fb17c39d020b73d	0.0683017857670309
201	0xbfaa38c8798aaac8	-0.05121447070753998
202	0xbfc04bc6a0e21fa3	-0.12731249671582842
203	0xbf97787b592b03c7	-0.022920539204964088
204	0xbfbfa3f6c2988137	-0.12359564066764937
205	0xbf8602300e063464	-0.010746360233293291
206	0xbfb5e98d7cdc897a	-0.08559498117805289
207	0xbfb00213d628d3a3	-0.06253169992926515
208	0xbfc1d318101de61d	-0.13925457751229056
209	0xbf8918f978409532	-0.012254666311558002
210	0x3fb6b283cf6afaff	0.08866142095483197
211	0xbf8554d6124cb88a	-0.010415718491995091
212	0x3fb70fdb1df4dafd	0.09008569222792669
213	0xbfb7b0b454adff2a	-0.09254004542708275
214	0x3f9c30a78cd47839	0.0275293521600519
215	0xbfb5d878cdcbc6d0	-0.08533434891048874
216	0xbf6a512ee100c255	-0.003212539253603356
217	0xbfc3a0945456fa90	-0.1533379947486151
218	0xbfc5300f2585ca5c	-0.16552914936217433
219	0x3f95eadb12572c79	0.02140371608201661
220	0xbfc941ec671b0b22	-0.1973243239827634
221	0xbf8a3f48a1ee8b54	-0.012816016618506211
222	0xbfa95ed156074073	-0.04955152678633192
223	0x3faf1e3a55e174f0	0.06077749536846422
224	0x3f6f2582e857ae8b	0.003802066496737149
225	0x3fa09100fb0de0ce	0.03235629143358808
226	0x3fbf6b727ce152dc	0.12273326443512239
227	0xbfada285d96c62ba	-0.05788057593435299
228	0xbfba2a9f67931eb6	-0.10221287039450541
229	0x3fadc054c213d1fa	0.058107994738666194
230	0x3fc3aa3bc6ddec51	0.15363261423394417
231	0xbfbbe2711767126a	-0.1089239771018328
232	0xbfb574abbad30ba0	-0.083811505423951
233	0x3fa8f3d970ba8db0	0.04873542309840262
234	0xbfb7852f3dd2c52d	-0.0918759847579806
235	0xbf915eca0513c24b	-0.01696315437306088
236	0x3fb8c68d9e54590b	0.09677968135324393
237	0x3faee095eb81d89a	0.060307202337683566
238	0x3fc70a03c02637fe	0.17999312288560526
239	0xbfcc6ae4059b192b	-0.2220120456096962
240	0x3fa2a391e445f5a2	0.03640418921984724
241	0x3f9cebb9a0441ce9	0.02824296990095557
242	0x3fa0b89dcbc9f2de	0.032658511282510835
243	0x3fb4b0e20d47118a	0.08082402061615404
244	0xbfb86044403017fa	-0.09521891181074685
245	0xbfb19f8cad9c90b0	-0.06884078253330261
246	0x3fb13ef83dd4b9b1	0.06736709126992114
247	0x3fa65dc670aa17af	0.04368419766710418
248	0x3fa4b35875584cd4	0.04043079788621076
249	0xbf89a6a2b37a9e33	-0.012524863340629277
250	0xbfb2332ed0603857	-0.0710934885721327
251	0xbfb66a5517e54fce	-0.08756000359909352
252	0xbfb42a2fd97a97d9	-0.07876872119467694
253	0x3fb262fdf7e21942	0.07182299901805769
254	0xbfb9a61132c64993	-0.1001902340852097
255	0x3f76b902e77b5766	0.005547534317619318

bias f8 [60]
0	0x3fa57a994fec3ff5	0.04195098019238223
1	0xbf9f0881a3a74618	-0.030305886853801395
2	0x3fa12afc27b4ce6a	0.03353107437797294
3	0xbfb4174d733265b4	-0.07848056852744528
4	0x3fb279a7f6f3e25c	0.07216882495038973
5	0x3f843f5db2c35648	0.009886486070551773
6	0x3fbf8f8af7740fb6	0.12328403989164269
7	0x3fbe215ff2ee5272	0.11769675904208457
8	0x3fa9d4ad3ac74395	0.05045071928510151
9	0x3fc01cfbe966ba34	0.12588452240511716
10	0x3fa1761ac70a29cb	0.034104191586340336
11	0xbf97eaa5e344859d	-0.023356048580472345
12	0xbf6095d061a30fe6	-0.002024561877165698
13	0x3fb6cdfc5aeacb7e	0.08908059329659854
14	0x3fa6c3a427140a3e	0.044461374063776024
15	0xbf974bbbaf19523b	-0.02274983650416316
16	0x3f88b9a56fb9debc	0.012072842094524965
17	0x3fba7bf63fd5769b	0.10345400865977654
18	0xbfc6758385c25dbb	-0.1754612353440573
19	0xbfc8307490e403b8	-0.18897873949756927
20	0x3f953032d2cd7fe5	0.02069167529714368
21	0xbf785bff58939d5c	-0.00594711060077854
22	0xbfa198c37bd07790	-0.03436861883550002
23	0x3fb5d98aa1e1d92f	0.08535067035868303
24	0x3fbebe7ec7294106	0.12009422647793508
25	0x3f83e62a71b39e1c	0.009716350169084946
26	0xbf9892fd4b24ed79	-0.023998220168534232
27	0x3fbb17f8357a9583	0.10583449655185544
28	0xbfb59136317f143d	-0.08424700458915964
29	0xbfb223a0c7eceb04	-0.07085614090912534
30	0xbf72c1b2b868a672	-0.004579256178240608
31	0xbf5a5c5b5f38ae06	-0.0016089336685450885
32	0x3fbccbf80087bb04	0.112487316255038
33	0x3fa2b97bc9f1942b	0.036571377183271934
34	0x3fc077b15120b995	0.12865272961921606
35	0x3fba9797abe7d66f	0.10387561747469375
36	0x3fa7c3b4ecaac52b	0.04641499890329678
37	0xbf9895a709040827	-0.02400837891128318
38	0xbfa1501200d7a42c	-0.03381401310236529
39	0x3f75b5dfad2b88e6	0.005300401435962087
40	0xbfa6c2b9d90c1342	-0.04445439123632024
41	0xbfb4375149510bb5	-0.07896907844501196
42	0x3fbc3e022b6fcb26	0.11032117424455787
43	0x3f93abb74e47db98	0.01920973220145647
44	0x3fb72efe207e82af	0.09056080144228916
45	0x3f97f9830aaae235	0.023412749792188065
46	0x3fc1917c1ae2a016	0.13725234329945185
47	0xbf700dfa3285f45c	-0.0039195798238980915
48	0x3fc24cbe41c146ba	0.14296701632206582
49	0xbf843c88134d7c0a	-0.009881079758711681
50	0x3fa093dcc792c8aa	0.03237810074041765
51	0x3fb8b8731a862c66	0.09656447789727593
52	0x3f9344c091bff47c	0.01881695642076807
53	0xbfa72307d15b62f8	-0.04518913679721054
54	0x3fbf32ee9db27e07	0.12187091207533039
55	0xbfb9b5948b73ddeb	-0.10042694477657903
56	0xbfb0cfe8dee4c5d0	-0.06567244950999584
57	0x3fa2890251993391	0.03620154615473504
58	0xbfa3bb5236977c31	-0.03853852192309438
59	0x3f9aba654a7bcea5	0.026101668044204236
