PyNNTraining/best_model.pt (torch, 4143 bytes, 5 tensors)

weight f4 [12, 15]
00000000: 981b 6cbe 520e a73e 18ce 11be b789 9f3d
00000010: 43e9 b43e 54b5 a2be d98e c73c 3660 80be
00000020: 418a 1a3d 2bdb 81be 8718 a8be 07e8 2fbd
00000030: 31e1 e6be 0152 9dbe 7e23 d1be 919c 92bc
00000040: 56fd 0a3d 6305 d63c c579 a33e d491 c0bf
00000050: 0e34 963e 1e41 bc3e 3e84 fa3d 0389 e53e
00000060: 9906 a1bd 8d19 e33d 54a3 51be a219 d7bb
00000070: df8f 343c 8133 bebd 378d 11bf 255f b9bc
00000080: fe89 d93d 6b5e 23be 1581 5ebe 60bf 4bbe
00000090: ae81 1d3c 9746 80be 5278 cebe 48a1 fa3e
000000a0: bc3d 01be 2f88 ce3e f96a 1ebd a7a9 a0bb
000000b0: f67e a33e 4692 fcbe 5f89 6abd 0a68 85bd
000000c0: c28d 163d 2b31 b23d c2e5 b13e 2cfe babe
000000d0: b841 903e 914e d33d 12be af3e 1114 bf3c
000000e0: 23cd 263e 9956 5f3e abde 713c 8114 b73d
000000f0: 353f 34be 25a4 2cbe 03e1 af3e fe3c 993e
00000100: 5960 adbe ffff a23f 43bb b93e 71c3 d8bd
00000110: b7a2 ab3e 611e 373e fb73 063e b3dd 453d
00000120: 8be9 c63b c5ac 55be 8bea 7ebd 4529 a83e
00000130: 19b4 1bbe d77f 6dbf 6b02 683c a768 80bf
00000140: 4cfb be3e 0889 553d 0199 eabe adbc 913e
00000150: 5a4d 29be 8fec 803d c35f 93bd d2d1 603e
00000160: 6275 513d 762b 82bd 5e26 c43d 895b 143e
00000170: 7297 223d dc95 193c ed52 3cbd d5ce 53be
00000180: fd20 023f 0ed5 273d 85a2 ce3e 48f8 16be
00000190: cb46 963e 363f 403e b1f6 b03d 4240 a83d
000001a0: 64aa 93bd 5fec 0d3f ba21 81bd 90ee 90bc
000001b0: 622c 5e3d 1ec3 1cbe f4c1 22be 63a7 37bd
000001c0: 8bb7 1cbe bd06 d53e 48f6 e73e fabe 03bc
000001d0: ccf7 873e a7e1 eebd 341f 413d 0369 d7bd
000001e0: 4f93 abbe 144d 1e3e 5e9d f3bd e006 843d
000001f0: bc60 773d 7c4a 1dbf bbb0 313e 6f5c 163f
00000200: b3a2 8d3e 80e0 643e c593 b2be 9548 15bb
00000210: 65b6 d23c aee5 d13d 3731 083f 9c62 44be
00000220: 7d24 e53d 5c24 593e 9c22 b9be ba4d 09bf
00000230: 7a25 94bf ea5f ee3e 4d68 1ebf b4d6 343e
00000240: ce01 b73c 4056 c2bd 345b 533d 427c 06be
00000250: faaa f23d 14c0 bdbb ffd4 2cbe 6e58 f33d
00000260: e142 19bd 5c1c 38be ba57 4a3e 10d2 2e3e
00000270: 8a14 af3d d68f 5cbd 0a78 46bf 70bb 9c3d
00000280: 532a 2a3d 8578 8b3d 97e3 81bd 916e a53d
00000290: a830 f53c 86a5 e6be d107 38be 4f99 873b
000002a0: a674 27bd b933 95be c9e1 133e c09c 18bd
000002b0: 526e 113d a2ca 1fbe 3bf8 a3be ecf6 a83d
000002c0: 8ada 663e 3465 193e 7f1d 723e a213 32be
-0.23057401 0.32628113 -0.14238775 0.07789939 0.35334215 -0.31778967 0.024360107 -0.25073403
0.037729505 -0.25362524 -0.32831213 -0.042945888 -0.45093682 -0.30726627 -0.4084739 -0.017896922
0.033933006 0.026125615 0.3192884 -1.5044503 0.2933659 0.3676843 0.122322544 0.44831094
-0.078625865 0.11088858 -0.20472461 -0.006564335 0.01102063 -0.09287167 -0.568561 -0.022628376
0.10622023 -0.15953986 -0.21728928 -0.19897223 0.009613438 -0.25053856 -0.40326172 0.48951173
-0.12621206 0.40338275 -0.038676236 -0.0049030366 0.319328 -0.49330348 -0.057259914 -0.065139845
0.036756285 0.08700784 0.34745604 -0.36522043 0.2817514 0.1031772 0.343247 0.023324998
0.16289191 0.21810378 0.014762561 0.08939458 -0.17602237 -0.16859491 0.34351358 0.29929346
-0.3386257 1.2734374 0.36275682 -0.105841525 0.3352258 0.17882682 0.1313018 0.048307132
0.006070321 -0.20866688 -0.062235396 0.32843986 -0.1520542 -0.92773193 0.014160733 -1.0031937
0.373011 0.052132636 -0.45819858 0.2846426 -0.16533414 0.0629512 -0.071959995 0.2195504
0.051137336 -0.06355946 0.095776305 0.14488043 0.03969521 0.009374108 -0.04597752 -0.20684369
0.50831586 0.04097467 0.40358368 -0.1474315 0.29350886 0.18774113 0.08640803 0.08215381
-0.07210234 0.554388 -0.06305261 -0.01769188 0.054241545 -0.15308806 -0.158943 -0.044837367
-0.15304391 0.41606703 0.45305085 -0.008041138 0.26556242 -0.116641335 0.0471489 -0.10518076
-0.33510825 0.1545909 -0.1189525 0.06446624 0.060394987 -0.6144178 0.17352574 0.5873479
0.27663192 0.22351265 -0.34878364 -0.0022778858 0.025721738 0.10248886 0.53200096 -0.19178241
0.111886 0.21205276 -0.36159217 -0.53634226 -1.1573937 0.46557552 -0.618779 0.17660028
0.022339728 -0.09489107 0.05160065 -0.13133338 0.118490174 -0.0057907198 -0.16878127 0.11882101
-0.037417296 -0.17979568 0.19760028 0.1707232 0.085488394 -0.05384811 -0.77526915 0.07652938
0.04154427 0.06810097 -0.063422374 0.080777295 0.029930428 -0.4504816 -0.17971732 0.004138149
-0.04088273 -0.29141024 0.14441599 -0.037258863 0.0355056 -0.15604642 -0.32025322 0.082502216
0.22544304 0.14980012 0.23644064 -0.17390302

bias f4 [12]
00000000: 709d b53e c3e3 24be 4ff0 ef3e 0036 313e
00000010: dc11 bd3c 1616 093e a902 19bf 8ce9 433e
00000020: 0b85 453e 0112 d53c 34ad 5e3e 1dd8 153f
0.35471678 -0.16102509 0.46863028 0.17305756 0.023079805 0.13387331 -0.59769684 0.1913206
0.19289033 0.026009561 0.21745759 0.5853289

weight f4 [6, 12]
00000000: 7cf1 11bf b532 96be 8075 a73b 2310 263c
00000010: c9a0 313e 6107 e53c 5205 813e 98a9 a1be
00000020: 1f22 5e3e c5f9 8abe f51a 2d3e 9ee6 663e
00000030: 2f65 103e 4ec1 523e f9cf d4bd e167 c33e
00000040: 51b1 7f3e 68d4 9d3d 55b8 fa3e 9405 e23d
00000050: 75f7 5a3e ae5c 823e f4cf 8c3e 592a ebbd
00000060: 0c6f 963e 01fb f73e c45a c2ba dbf0 de3e
00000070: 9a12 1fbd b0d3 46be 8f45 a8be 788e 1fbe
00000080: db6a cb3d de2f 773e 9bfd 42be b2cb 823d
00000090: 02df 5bbd 3705 dcbe 2e29 f53e d10b 84be
000000a0: 071f bfbc bfc1 6e3e 06b8 643f 2355 5dbf
000000b0: 1478 febd 3aab d5bd 6bf3 893e 4a7b 623d
000000c0: 7508 f03e 08e9 b9bf 9783 0bbf 56ea 84be
000000d0: 653d 5fbf b46e 9bbf 3249 e9bd 5d5c 943e
000000e0: 470d 5fbf 3509 98bf d88a 3bbf 6100 f23e
000000f0: 9d77 743e 5988 303e 6b0f 9c3e 71c0 7a3e
00000100: 7072 723e 8eb0 9d3e 2a64 b1be 81d5 4abe
00000110: 4da0 6a3e ec20 943e fa49 373e ee51 7d3e
-0.570091 -0.2933556 0.0051104426 0.010135683 0.17346491 0.02795762 0.25199372 -0.31574702
0.21692704 -0.27143684 0.16904815 0.22548911 0.14101098 0.20581552 -0.1039123 0.3816519
0.24969985 0.07706529 0.4896876 0.1103622 0.2138346 0.25461334 0.27502406 -0.114826865
0.29381597 0.48433688 -0.0014828076 0.43543133 -0.0388361 -0.1941669 -0.3286557 -0.15581691
0.099324904 0.24139354 -0.19042055 0.06386508 -0.053679474 -0.4297273 0.4788298 -0.25790265
-0.023330225 0.23316096 0.893433 -0.86458033 -0.12425247 -0.104330495 0.26943526 0.05529336
0.46881452 -1.452424 -0.54497665 -0.25960034 -0.87203056 -1.2143159 -0.11390914 0.28976718
-0.87129635 -1.187781 -0.73258734 0.47265914 0.23873754 0.17239513 0.30480513 0.24487473
0.23676467 0.30798763 -0.34646732 -0.19808008 0.22912712 0.28931367 0.17899314 0.24738285

bias f4 [6]
00000000: 1c4b aa3e 0197 fdbe 7f84 583e bbd2 b8bd
00000010: 68d1 063e f1be c7bb
0.3326043 -0.4952927 0.21144293 -0.09024569 0.1316582 -0.00609576

weight f4 [1, 6]
00000000: 2d9f af3e f412 26bf 6517 dd3e c301 a63e
00000010: 8085 80bf 79a0 073f
0.3430113 -0.6487267 0.4318191 0.3242322 -1.0040741 0.52979237
