nnTraining/best_model.pt (torch, 196379 bytes, 11 tensors)

weight f4 [256, 9]
00000000: 57a0 7bbd 3f55 be3e 0a30 20bf 7b99 15bc
00000010: e514 2b3d 45ed 3fbf 138d c33d 4871 5abe
00000020: 7c5f 3f3d d418 2bbe 3b45 cebd b9fd 023f
00000030: 6062 3f3e ade8 ff3d f25c 04bd 7791 92be
00000040: 871c 67be dd89 ab3e e7be 6f3d 0cd4 26be
00000050: 322f 5fbe dc86 dabe f355 6e3e 9f2a 613e
00000060: fd35 293e 6261 d63d 9738 773e 098b 623e
00000070: a5e8 00bf 1627 18bf a1f1 51be 56b0 62be
00000080: 48da 26bf 5791 e4bd d4d2 b13d c70e cf3d
00000090: 41bc 553e 3a82 3f3e 2873 a83d f617 edbd
000000a0: 61e8 be3d 654d 203e 4b03 ddbd 995c 263f
000000b0: c72b 84be a229 6c3e b22b d63e ee43 c63e
000000c0: 1587 9a3e 042e 193f 99d3 2a3f 7281 a03e
000000d0: 1a7d 983e 1a38 2e3e c37b ea3b 3c4a 37bf
000000e0: 5c6b f5bd 398e eb3d ac11 b7be 997c 38be
000000f0: beef c7bd c552 983e fa2f 28be baac cf3c
00000100: 1126 0b3f b4c3 73be ec05 003f 8e96 413c
00000110: 4c47 cf3b 3e93 11be b89d 23be fea4 65be
00000120: 2dae 2b3e b18e b03e 1e19 e7bd d0d7 b4bd
00000130: a3eb 2a3d fe8c 9ebd 7572 05bf 69bd d33e
00000140: a69d c63d 043e e1bc 6b3b f83e 5e39 11be
00000150: ba38 983e fb33 a0bd 8e53 eb3e ea99 4ebe
00000160: 883b 1b3f 32d2 3abe 4e61 0d3d aaee 203f
00000170: 84c2 0dbe 3e8b e33e 162f 493e 2e47 95bd
00000180: c75b a93e 55d0 c9be 96d3 25bd af4f 98be
00000190: c948 92bd e2eb f13e 7c0b d5bb 168b c33d
000001a0: 9d58 183f 6669 5b3c 979d 073c f834 a5be
000001b0: cee9 96be f599 a9bd 2f1e 8abe a898 683d
000001c0: 3751 dbbd 3700 f7be 282e 0f3e c35b d33e
000001d0: 413f 133e 3621 dabd 6674 c4be 3757 9a3c
000001e0: 4225 27bf 7d1d c5be 25be 7abd a62c 1d3e
000001f0: 31ae 1b3e 929e 143e f51b 99bd ec3a b1bd
00000200: 6d5e 6f3e 29ce 803c 86ce 58be 9534 2b3e
00000210: 3b26 1a3e d6b7 10bd 6c58 4ebe bed6 0e3e
00000220: 2e4a 083e 07ba 99be 4ca9 d1bc 068d 22be
00000230: 8b91 843e c72a b83e 71af ea3e a10b 93be
00000240: 7af0 8abe d79f cebe d008 ff3e 10ed 39be
00000250: a1db 4abc 5ed0 123f c3d0 00be b836 d03e
00000260: eb78 393e b9b3 963d 4520 983d 0dd8 003f
00000270: 84e9 3e3e 17f9 e8be 63d4 b13e 924a 3d3e
00000280: 84c0 c53e 6d55 093e 6a44 863c 31b1 c63b
00000290: 9d7a 35be 46ec 233e 6c5b febc e6e5 30bf
000002a0: 396a 00be e163 29bf 6da3 c3be 91c4 62bd
000002b0: 3e71 003f 456c 203d 12a2 23bf 4390 afbd
000002c0: b220 b3bd 7c3b 983e 9ee4 c03c 1ce9 da3e
000002d0: 3310 a6bd 13f9 cf3e f068 1abe 76af 10be
000002e0: a73d 66be 83d4 9e3c 11be a03e de9c 7abb
000002f0: 59c2 863c a782 263e 7645 803e 0f77 55be
00000300: 3a39 963e 88cb cf3d c5b9 00be 9c1e a7be
00000310: a478 0fbe af2d 14bd 3a5f efbd 9f34 0fbc
00000320: a024 a1be 43cf 50be 4f76 813c 7f31 f63e
00000330: 6c35 6d3e 692e 373e 6aa1 d13e 5695 373e
00000340: 198f 683d 8525 913e db2a 72be f37e 443d
00000350: f412 9f3e 4a83 08bf c7be 10be dcc1 173e
00000360: 62f7 cb3d b294 0cbe f06e 7abe 8650 183e
00000370: 5c52 f53d ec93 d23e 415f 273d f6c3 f3bd
00000380: 2361 59bd fb1b c43d 5ee7 833e 7521 663e
00000390: af45 383f 1fdc 56b9 9b0e 81be 14bf 333d
000003a0: 194c fcbb 6616 dfbe ffb0 86bd f85f b7bd
000003b0: 0fcc 073e b8aa 303e e75c 2e3e ca3f 1f3d
000003c0: 80a9 c53e 212c ff3d ac21 8abe 3642 94bd
000003d0: ac37 293d adcf 133f 5afc 70be 0d88 113f
000003e0: 64cf bd3e 255b c3bd 3b94 c9be c7f3 17ba
000003f0: 340b 553e 8de6 60bd c997 7e3e 4462 013f
-0.06143221 0.37174413 -0.625733 -0.009130831 0.041767973 -0.7497142 0.09548392 -0.21332276
0.04672192 -0.1670869 -0.100717984 0.511684 0.18689871 0.12495551 -0.032315202 -0.28626606
-0.22569476 0.3350362 0.058531668 -0.16291827 -0.21795347 -0.42681015 0.23274975 0.21988915
0.16524501 0.10467793 0.24142681 0.2212335 -0.5035499 -0.5943464 -0.2050233 -0.2213758
-0.6517682 -0.11160534 0.086827904 0.101102404 0.20872594 0.18702021 0.08225089 -0.11576836
0.093216665 0.15654524 -0.10791644 0.6498504 -0.2581465 0.23062757 0.41830212 0.387237
0.30181184 0.5983584 0.6672912 0.3134876 0.29782945 0.17013589 0.007155867 -0.7159765
-0.11983368 0.11501736 -0.3575567 -0.1801628 -0.09762524 0.29750648 -0.16424552 0.025350917
0.5435496 -0.23805124 0.50009036 0.01181568 0.006325638 -0.14216325 -0.15978134 -0.22426221
0.16765662 0.34483865 -0.112840876 -0.088302255 0.041728627 -0.07741736 -0.5212777 0.41355446
0.09698038 -0.027495392 0.48482832 -0.1418204 0.2973078 -0.078224145 0.45962185 -0.20175901
0.6063771 -0.18244246 0.034516625 0.6286417 -0.13843733 0.4444217 0.19646868 -0.07288967
0.33077833 -0.39416757 -0.040484987 -0.29748294 -0.07142789 0.47250277 -0.006501613 0.09548013
0.59510213 0.013391828 0.008277318 -0.32266974 -0.29475254 -0.08281318 -0.26976153 0.05678621
-0.1070885 -0.4824235 0.13982451 0.41280946 0.14379598 -0.10650866 -0.38370055 0.018840415
-0.65291226 -0.3849906 -0.061216492 0.15349063 0.15203167 0.14513615 -0.074760355 -0.086538166
0.23375864 0.015723305 -0.21172532 0.16719277 0.15053646 -0.03533157 -0.20150918 0.13949105
0.13309547 -0.3002474 -0.025593422 -0.15874109 0.2589229 0.35970137 0.45836976 -0.2871981
-0.27136594 -0.40356323 0.4981141 -0.18156838 -0.012381465 0.57349193 -0.12579636 0.40666747
0.18112533 0.07358498 0.0742803 0.5032967 0.18643767 -0.4550254 0.3473235 0.18485478
0.3862344 0.13411494 0.016390044 0.0060636033 -0.17722555 0.160081 -0.031049453 -0.691008
-0.1254052 -0.6616803 -0.3821062 -0.05536324 0.50172794 0.039165754 -0.63919175 -0.085724376
-0.087464705 0.29732883 0.023546513 0.42755973 -0.081085585 0.40619716 -0.15079093 -0.14129433
-0.22484456 0.019388443 0.3139501 -0.0038240473 0.016450094 0.16260777 0.25052994 -0.20846198
0.29340535 0.101462424 -0.12570865 -0.3264054 -0.14010864 -0.03617638 -0.11688085 -0.008740573
-0.31473255 -0.20391564 0.015803484 0.48084638 0.2316491 0.17888798 0.40943462 0.17928061
0.056777094 0.28348938 -0.2364916 0.04797263 0.31069148 -0.5332533 -0.14135276 0.14820045
0.09959294 -0.13728598 -0.24456382 0.14874467 0.119785994 0.4112848 0.040862326 -0.11902611
-0.053071152 0.09575649 0.25762457 0.224737 0.7198133 -0.00020490632 -0.25206456 0.0438834
-0.0076995012 -0.43571776 -0.06576728 -0.089538515 0.13261436 0.17252624 0.17027627 0.038879193
0.3860588 0.12459589 -0.26978815 -0.07239191 0.04131286 0.57738763 -0.23533764 0.5684822
0.3707229 -0.09538869 -0.39370903 -0.00057965185 0.20805055 -0.05490737 0.24862589 0.50540566

bias f4 [256]
00000000: 934f 053d 697b 93bd c07b 84bd 36f1 a2be
00000010: e874 53be 6a7b a2be b54e 99bc 9ce2 3fbd
00000020: 9f0b 45be 3c66 0e3d ae8a 2ebd 866b 4a3e
00000030: 4b06 553e e935 ba3d 2d8a 9abc 30c9 5cbe
00000040: 6da5 2c3e 6032 39be 3ec3 5ebd c2ed afbd
00000050: a4c7 79be 9169 4abe 16dc 06bc dae6 c6be
00000060: 553c 7abe 9c02 acbd 5848 65bd 4654 c1bd
00000070: 7f66 54be 78c2 04be d0e5 e83c b35d 91bd
00000080: de0e 8f3e 1994 b83d c2f4 e0bd d70f 69be
00000090: 6810 153e a12d 123e 83b6 7dbc 36a7 00be
000000a0: 7ad1 a7be 26a7 523e ada1 343c b413 2bbe
000000b0: f93c 26be 3df3 a9be f0e1 083e 12b3 8ebd
000000c0: 5be4 df3b cf43 97be 2e65 b8bd 8f86 263e
000000d0: df54 553e 1cbc 443e 896c b2bd 008c cebe
000000e0: 414f a3bd f17b 613e d7dc 363e 0abf 693d
000000f0: 376c 66be 6a1d 1fbe 51fb 563d a7db 34be
00000100: 02f1 b2be bfe1 6abe 9c56 b5be f817 9cbb
00000110: 3f58 89be e1da 723a fc99 12bd 333a 0c3c
00000120: f139 e6bd f8d0 66be 053b c5bd 8cff 04be
00000130: 3898 26be cb8d 1a3e 70dc 0d3e 35e3 8a3e
00000140: 1250 89be 0e07 9fbe 6f2c 23be 20e4 b9bd
00000150: d53d cd3d 5fe0 10bd b6e4 55be 5edc 933d
00000160: d93c 3cbe 0b00 843d 075d be3d fff0 0fbe
00000170: d79f 6f3d 36f6 4c3e 62c0 39be 7987 18bd
00000180: 72c4 1ebe cb35 a0bd e4f2 c0bd 9757 4f3e
00000190: 30b4 ccbd 4b66 f8bd e319 ed3d 57ed a7bb
000001a0: e6f7 8e3e 24ba eebd 05f1 b7bd d044 39be
000001b0: 1127 7bbd 911e 963e 871d 963d 58f7 bcbd
000001c0: 7fcd 24be 39bc ab3d c878 b33d 95e0 98bd
000001d0: e22c ab3e 2c1f ca3d 2b2d 4c3d 3419 943d
000001e0: 4ee8 a7be 6e09 49bd 4fe5 0f3e a3ed e0bd
000001f0: d116 c53d 29a0 683e 0e26 58be bed5 9bbd
00000200: 858a 18be afe0 b8bd 461c b7bc dd86 8d3c
00000210: 5cd5 973d 127f acbd 09ce 093d 2f27 bf3c
00000220: 8368 813d ca4c 923c c10b 003c 967c 853e
00000230: 8395 0d3e 001b b7bd 4ec7 503d 1f81 c3bd
00000240: 3760 afbd 9f7c 0ebe 70d3 87bc fadc 10bc
00000250: bb95 08be 03fb 563d 605a 52bd ed86 a7bc
00000260: 1a64 cbbd 0bbd 41bd 4e1a 663d 9160 85bc
00000270: 968f 7d3e 8f98 663e dace f0bd 0877 32be
00000280: f4aa 63be 7689 98be 8574 89bd f23f a8be
00000290: 0f55 aebd 6892 99bd 5f4b 89bd b186 5cbe
000002a0: 5bb8 24be 8e8b c0bd c1a8 52be 36d2 34be
000002b0: bbe3 4cbd ed37 c5bd e998 ecbd 4ce8 62be
000002c0: 9429 bcbd 16e0 a1bd c1b4 dc3b 85b4 82be
000002d0: ef12 663e 8bbf babe 6a13 d23d ca6d 44be
000002e0: ea9e 75be d77e b33e 30f0 563e 614e 403d
000002f0: 4bb9 0b3e 48cd 5dbd 602d af3d c7cd bc3c
00000300: d668 3fbe e53b febd 46f5 17be 5eb0 d7bd
00000310: 9e5d d33d e768 6bbe 4132 c93d 494b 15be
00000320: fd42 84bd c73c efbd 06c7 b6bd edfb 523e
00000330: e63e d0bd 61c5 48be a94b b93d eaf8 703e
00000340: a083 4abe c718 47be 7141 9d3e 51c0 e5bd
00000350: f9e9 1abe 0321 43bd f2e5 8ebe 40d8 1d3e
00000360: 74ad 8bbe 590d 1bbe 04ee 27bc 4cec 573d
00000370: 2fbb 63be d286 f1bc 1aa7 15be 0993 f3bd
00000380: 997b 76bd bcb8 7c3e 71be 49bd ac6c 2bbe
00000390: eca7 973e d179 a0be 7b11 c23d 251f 71be
000003a0: 8bc7 7abe a56e c3be ea9e 6cbe 8629 49bc
000003b0: 9d61 943e f94f 4b3d bbb6 563e 5433 95bd
000003c0: 7187 ffbd 6783 1b3e 87e7 aa3e dc00 683d
000003d0: c4a3 8cbe c873 aebe 8403 4abd dda6 59be
000003e0: 4408 ffbd b196 babb da7b 9c3d 67ef aa3d
000003f0: 8c7d ac3e ea39 d93b aa3c 853e 2e26 133c
0.03254659 -0.07201273 -0.06468916 -0.31824654 -0.20650065 -0.31734782 -0.018714288 -0.04684697
-0.19242714 0.034765467 -0.042612724 0.1976758 0.20803182 0.09092314 -0.018864715 -0.21561122
0.1685998 -0.18085623 -0.054385416 -0.085902706 -0.24392563 -0.19766833 -0.0082311835 -0.38848
-0.24437077 -0.08398935 -0.055977196 -0.09439902 -0.20742224 -0.12964809 0.028429896 -0.0709795
0.2794103 0.090126224 -0.10984184 -0.22759949 0.1455704 0.14275219 -0.015485409 -0.12563786
-0.32777005 0.20571575 0.011024875 -0.16706735 -0.16234197 -0.3319339 0.13367438 -0.06967749
0.006832642 -0.2954392 -0.090036735 0.16262268 0.20833157 0.19212383 -0.08712108 -0.40341187
-0.07974101 0.22019936 0.17857681 0.057066955 -0.22502218 -0.15538564 0.052485768 -0.17661916
-0.349495 -0.22937678 -0.3541764 -0.0047635995 -0.2682514 0.0009264183 -0.035791382 0.008558798
-0.1124152 -0.22540653 -0.09630398 -0.12988108 -0.16269004 0.15093152 0.13853621 0.2712647
-0.268189 -0.3106007 -0.15934919 -0.090767145 0.10021559 -0.035370227 -0.20888028 0.07219766
-0.18382587 0.06445321 0.09295087 -0.14056776 0.058502045 0.20015797 -0.18139794 -0.03723857
-0.15504625 -0.0782276 -0.09421328 0.20248257 -0.099953055 -0.12128886 0.11577203 -0.0051247287
0.27923506 -0.11656597 -0.08981518 -0.18092656 -0.061316554 0.29320195 0.07329851 -0.092268646
-0.16094016 0.0838551 0.087632716 -0.074647106 0.3343268 0.09869227 0.049847763 0.072313696
-0.32794422 -0.04908126 0.14052318 -0.109828256 0.096234925 0.22717346 -0.21108267 -0.076091275
-0.14896591 -0.0902723 -0.022352349 0.017276222 0.07413742 -0.08422674 0.033643756 0.023334114
0.06318762 0.017858882 0.007815302 0.26071614 0.13826565 -0.08940697 0.05097132 -0.09546112
-0.085632734 -0.13914727 -0.016580313 -0.008841747 -0.13338368 0.052485477 -0.05135572 -0.02045008
-0.09931202 -0.047299426 0.05617743 -0.016281398 0.24761805 0.22519134 -0.11758204 -0.1742822
-0.22233182 -0.29792374 -0.067116775 -0.32861286 -0.085123174 -0.07498628 -0.06703829 -0.21535756
-0.16085951 -0.09401618 -0.20572187 -0.17658314 -0.05002187 -0.096298076 -0.11552603 -0.22158927
-0.09187618 -0.07904069 0.0067354147 -0.2552835 0.2246816 -0.3647426 0.10257609 -0.19182506
-0.23986402 0.3505771 0.20990062 0.046949748 0.13644902 -0.05415085 0.085535765 0.023047341
-0.18692335 -0.12413768 -0.14839658 -0.10531686 0.103205904 -0.22989236 0.09824038 -0.145795
-0.064580895 -0.11681514 -0.089246795 0.20603915 -0.10168247 -0.19606544 0.09047634 0.23532453
-0.19776773 -0.19443046 0.3071399 -0.11218322 -0.15128316 -0.047638904 -0.2790981 0.15414524
-0.27280772 -0.1514181 -0.010249618 0.052715585 -0.22239374 -0.029483233 -0.14614525 -0.11893279
-0.060176466 0.24679846 -0.049253885 -0.16740674 0.29620302 -0.3134294 0.094759904 -0.23547037
-0.24490182 -0.38170353 -0.23107496 -0.012277966 0.28980723 0.049636815 0.20968144 -0.07285181
-0.12477005 0.15186845 0.33379766 0.056641445 -0.27468693 -0.3407271 -0.04931976 -0.2125506
-0.124527484 -0.0056942333 0.0764081 0.083464436 0.33689535 0.0066292183 0.26022846 0.008981271

weight f4 [128, 256]
00000000: 1bfd 52be d4f3 83be 9aa4 3c3d c73d b6be
00000010: 4256 cdbd 7fe6 efbe f984 18be 96b3 48bd
00000020: 4a31 f73d bd84 853d b3ea 83be 0b50 763e
00000030: 2b4e cdbd b5ec 1bbe 2c9d 9cbd 2c6f 8f3c
00000040: 92a7 bdbe 39e0 82bd 9bea 88be 3860 dabd
00000050: 01bb b5bc 16be f93d a895 d73c 6615 863c
00000060: cf90 5e3e 41ba adbd be44 663d 61c7 d03d
00000070: 8fd0 04bd a1d3 d23d 0137 5c3d b97c 18bd
00000080: a19f 003e 8848 34bd 6f98 94bc e5bb b1bd
00000090: bf69 4c3e 754f df3d b838 b53d dedc 653e
000000a0: 1c2a 11bc d288 633e f995 07bc c0a1 92be
000000b0: 5edc 033c ba9a 50be c116 483e 6e56 be3d
000000c0: da2a bcbd 9ad0 35be 2665 7fbd d4bf c3bd
000000d0: d920 34be fef9 423c 99dc 493d 4dca 68be
000000e0: b7ca fb3d dc41 883c 0431 903d 4add 2f3d
000000f0: b1e9 c53d 35db 86bd 8a77 903d c9f0 49be
00000100: 8e38 2bbd f332 923d 0a2e 723c a2a2 eabd
00000110: 4c35 053d 0b06 84bd f9d6 43bd 530e 4c3c
00000120: a742 7a3e 66c2 903e 2833 8d3e 3a49 ff3c
00000130: 81b9 85bd 2d0b 4a3c 54dd 363e 61ea 2a3e
00000140: 3207 7bbe 79a1 bb3c 75fd ce3d 62ab 443e
00000150: 1bab 3e3e a6ff ee3d ed7a 55be 6b50 ea3e
00000160: 175e 36be e1ef f8bd 7521 ccbd a4d7 a43d
00000170: 7701 f13c 4d71 e0bb 796a 20bd 8b82 c23d
00000180: 3617 b73d 306f fb3c 5162 ebbd 1335 c03c
00000190: 17b8 08bd dc4d 6dbe 87cc e63c ebc5 323e
000001a0: 0132 1dbe 8227 8cbd cd30 c53e 64ee a9be
000001b0: 77a1 1b3e 4811 dc3d 4d8e c13d 5545 e83b
000001c0: 681b 8e3e 0f5a 593c 2050 e83d b74d 08be
000001d0: 3b0a f8bd c0d5 cfbd d9e7 663c ffbc 97bd
000001e0: 2d2f ff3c 2c4e 7cbd 1f32 a3bc 1b9d 1fbd
000001f0: 8853 073e 6d46 183e 1b1d c43d 47b8 59bd
00000200: 8b69 90bd 2716 bb3d 8def 333e 7964 0a3e
00000210: 3dbc 33be 7848 993d 7525 a33c cf87 903e
00000220: c7a9 883d d511 2dbc bb90 8abe 5772 c23e
00000230: ce01 c7bc 187b b83e a183 113d 1460 b2bd
00000240: fdfe f9bb 2fc9 e43e 24b6 efbd 7184 c23d
00000250: cca5 ccbd 135f 0d3d 503f 1dbd c54b b7be
00000260: b350 643d d805 67be 2e16 a6bd fc98 7cbe
00000270: be10 31be 37fa e63d 4c75 06bc de09 5bbd
00000280: 76e7 d23c 325d 813d 4fdf 56be c206 d43d
00000290: 15bc dc3c 5def e1bd ddb3 a13d 98cd 6b3e
000002a0: 53dd b5bd 2abd f13c 4e86 36be 87b2 d03d
000002b0: 4ada 6abd 8bff ca3c 8beb 57be e941 d8bd
000002c0: 3fbc 62bd 6a77 d3bd 030a e43d 572d 803d
000002d0: ec65 2a3e 302b dfbb 57b0 543e 95cc 4ebe
000002e0: dc8d 9d3d d78d b93c 9691 cb3e 70bc 7d3d
000002f0: 6ac8 9fbe 56a6 43bc 2724 4dbe 9670 9e3e
00000300: 09fc 1ebe a6f9 023d 41b0 17bd ebe2 b13d
00000310: 495d e03d 045f 0cbe a734 3cbd a37e 2bbe
00000320: 43a9 b5be 6359 203e 2ff4 d33a df95 49be
00000330: f13a f63d 5ee4 05bd 05cb d8bd 67f6 79bd
00000340: 45b2 26be 0426 d0bc 763f 18be 46b6 3bbd
00000350: cbdd a8bd e5ef 97bb 59f6 c3be efde 3c3e
00000360: 56fa 973d 1b45 99bd f96c 8fbc 32dc 1fbe
00000370: 0e6c a0bc dfe0 123e b4fa e03d d8e2 dbbc
00000380: bfd4 a4bc f878 a2bc 81ae 5c3b b86e 8d3d
00000390: f137 5dbe 7a8b b1bd 702a 1b3e 5193 b1bd
000003a0: f518 9e3d 66eb 6c3d 6bf9 7bbe eb9f 8d3d
000003b0: 26eb 84be c99f 31bc e58b 7ebe a461 28bd
000003c0: 9aec d53d 28f3 8ebe 8c40 4d3e fd2b 0e3e
000003d0: b1bc 3bbe a9ac 14be a63f 1a3d c758 053d
000003e0: 0056 a0bc ddf1 923d dcca b63d c27b bc3d
000003f0: a5ea a73e 53a1 e9bd 8bf6 1c3f 4460 8d3d
-0.20604365 -0.25771964 0.046055414 -0.35594007 -0.10026218 -0.46855542 -0.14894475 -0.04899939
0.12069948 0.065194584 -0.25765 0.24053971 -0.10024675 -0.15227015 -0.07647166 0.017509066
-0.37041909 -0.06390423 -0.2674149 -0.106628835 -0.022183897 0.12194459 0.026316479 0.016367625
0.21734928 -0.08482791 0.0562179 0.101942785 -0.03242546 0.10294271 0.053763393 -0.03722832
0.12560894 -0.044014484 -0.018139092 -0.08678416 0.19962214 0.10903827 0.08848709 0.22447535
-0.008860137 0.22220162 -0.008275502 -0.2863903 0.008048145 -0.20371523 0.1953993 0.09293829
-0.09187861 -0.17755356 -0.062352322 -0.09558073 -0.17590655 0.011900423 0.049282644 -0.22733422
0.12294524 0.016632967 0.07040599 0.042935647 0.09663714 -0.06584779 0.0705405 -0.19720758
-0.04180198 0.07138624 0.014781484 -0.11456801 0.03252153 -0.06446465 -0.047812436 0.012454587
0.24439488 0.28273314 0.27578092 0.031162847 -0.06529523 0.012331766 0.17857867 0.16690971
-0.24514464 0.022904145 0.10106937 0.19206002 0.18619959 0.11669855 -0.20847674 0.4576448
-0.1780933 -0.12155128 -0.09967319 0.08048943 0.029419644 -0.006849444 -0.03916404 0.09497555
0.08939974 0.030692667 -0.11493362 0.023462808 -0.033378687 -0.23174232 0.028173698 0.17458312
-0.15351106 -0.06843473 0.38513795 -0.3318969 0.15198313 0.10745484 0.0945097 0.007088343
0.27755284 0.013266101 0.11343408 -0.13310896 -0.12111326 -0.101481915 0.014093363 -0.07409095
0.031150425 -0.061597988 -0.01992136 -0.038968187 0.13215458 0.14870615 0.09575864 -0.053154256
-0.07051381 0.091350846 0.1757185 0.1351489 -0.17552276 0.074845254 0.019915322 0.28228614
0.066730075 -0.0105633335 -0.27063546 0.3797786 -0.024292853 0.36031413 0.03552592 -0.08709732
-0.007629274 0.4468474 -0.117046624 0.094979174 -0.09992561 0.034514498 -0.038390458 -0.35799995
0.055741023 -0.22560823 -0.08109699 -0.24667734 -0.17291543 0.112781934 -0.008206677 -0.053476207
0.025745135 0.06316604 -0.20983623 0.103528515 0.026945153 -0.11031983 0.07895634 0.23027647
-0.08880105 0.029509146 -0.1782467 0.101903014 -0.057337083 0.024780056 -0.21085946 -0.10559446
-0.055355307 -0.10325511 0.11134722 0.06258648 0.16640443 -0.0068105683 0.20770393 -0.2019523
0.07693073 0.022650642 0.3975951 0.061947286 -0.3120759 -0.011941513 -0.20033322 0.3094527
-0.15525831 0.031976365 -0.037033323 0.08685859 0.10955293 -0.1370812 -0.04594865 -0.16747527
-0.354807 0.15659098 0.0016170795 -0.19686078 0.12022961 -0.03268849 -0.10585598 -0.061026003
-0.16278942 -0.025408752 -0.14867958 -0.045828126 -0.08245429 -0.004636752 -0.38273886 0.18444417
0.07420795 -0.07483884 -0.017508017 -0.15611342 -0.019582774 0.14343594 0.10985318 -0.026841566
-0.020120976 -0.019833073 0.0033673348 0.069058836 -0.21603371 -0.08669181 0.15152907 -0.086706765
0.07719604 0.05784168 -0.24606864 0.069152676 -0.25960654 -0.010841318 -0.24858053 -0.041108742
0.10445519 -0.27919888 0.20044154 0.13883968 -0.18333699 -0.1451899 0.037658356 0.032555368
-0.019572258 0.07175038 0.08925411 0.092032924 0.32796207 -0.11407723 0.61313695 0.06903127

bias f4 [128]
00000000: 9fb2 943c f51c 10bd 12de 03bc 4407 61bd
00000010: 255d 08be 4fbe 24be 3c05 88bd afcf 1abc
00000020: 4762 ca3b 1d76 d0bc 6436 9fbd 0e80 7b3d
00000030: 6f36 7ebd 9dbe d43b 0ee4 373c aec0 31bc
00000040: c8d2 543d aa2c b1bd 5a7e 3dbd 6fe7 09ba
00000050: d016 953d 45e7 0abe b013 e4bc 0f38 903c
00000060: 4244 32bd cbff dcbc 2e5f 1ebd 627d 57bd
00000070: e071 42bc b09b e0bd af10 4bba 22eb 95bc
00000080: f1c7 b13d 07fc 443d 2b94 83bd 5fd7 b9bd
00000090: 165b 4dbd 5837 fcbc 7681 c2bc a334 653d
000000a0: 5b29 9d3d 1fcb 6dbc cc3b e23d 33ec ac3c
000000b0: b442 1e3b d5ca d3bd 7b0f 693b 7410 9abd
000000c0: b04c 3bbd e006 0bbd 5355 2ebd 7eb9 113d
000000d0: 4cfd 6e3c ae7d 10bd 1178 fabd 4863 10bd
000000e0: de71 72bd d388 bb3d a45a 97bc 5f2b 1fbd
000000f0: 0131 99bc be6e d13c af5f b9bb 950b 313d
00000100: 03ab 1a3d 6997 f6bb 612d 8dbd 7c78 3e3d
00000110: 3e1c 0c3d d0ce d53d ee97 aebd 4100 b2bd
00000120: 4046 d7bc 56dc 94bd 58e8 c9bd 889c c83d
00000130: fbda 8cbc 8aba c5bc d058 a03b a453 29bc
00000140: 44b2 ba3d bf91 8bbd cf7c 8f3d f3de 903a
00000150: cab3 06be 96e1 bebc 43c5 983c c94b 6cbd
00000160: 1351 52be 9ad7 923d 1893 88bd 51ff c6bd
00000170: c882 eabc 1183 9abd 98b8 57bd b041 7bbd
00000180: 4462 e9bd 23fe 20bd 7b87 8ebc 8fce b0bc
00000190: f7e7 9c3d b51b b63d f3ea 8abd 18b9 c6bc
000001a0: cef7 71bd a102 86bd 2d14 603d 77c3 b9bb
000001b0: 9926 7d3b 5eba 70bc 14ca 04bd 398a 623d
000001c0: 5d7c 4c3c efcd cdbd 51de b1bd 4196 b33d
000001d0: aeaa 30bd 4f58 ed3c 094e 8a3d 1c27 dcbc
000001e0: 957f bb3c 3a86 09bd c4f3 adbd 88d7 68bd
000001f0: fc42 813c 82de 383c f027 4bbd 847f 17bd
0.01815158 -0.035183866 -0.008048551 -0.05493857 -0.13316782 -0.16088222 -0.066416234 -0.00944893
0.0061762664 -0.025446946 -0.07774046 0.06140142 -0.06206363 0.0064924494 0.011223806 -0.010849161
0.05195883 -0.08651097 -0.046263076 -0.00052606215 0.07279742 -0.13564785 -0.027841419 0.017604856
-0.043522127 -0.02697744 -0.03866499 -0.05260981 -0.01186797 -0.10967195 -0.00077463215 -0.018300597
0.08680714 0.048091915 -0.06424745 -0.09074282 -0.050135694 -0.030788109 -0.023743372 0.0559584
0.076739036 -0.01451376 0.110465616 0.021108722 0.0024148645 -0.103414215 0.0035562206 -0.075226694
-0.04572743 -0.033942103 -0.04256184 0.03557729 0.014586758 -0.035276107 -0.12229932 -0.035250932
-0.059190623 0.091569565 -0.018475838 -0.03885972 -0.018700125 0.025565501 -0.0056571583 0.043223936
0.037760746 -0.0075253737 -0.06893421 0.04650162 0.03420662 0.10439837 -0.08525072 -0.08691455
-0.026278615 -0.07268588 -0.09858769 0.09795481 -0.017194262 -0.0241368 0.0048934 -0.010334883
0.09116033 -0.06814908 0.07006227 0.0011052772 -0.13154522 -0.023300927 0.01864875 -0.05768946
-0.2053874 0.07170029 -0.06668681 -0.097166665 -0.028626814 -0.0754453 -0.052666277 -0.06134194
-0.11395696 -0.039304864 -0.017398586 -0.02158287 0.07661431 0.088920034 -0.06783094 -0.024258181
-0.059074216 -0.0654347 0.05470674 -0.005669053 0.0038627742 -0.014692871 -0.03241928 0.0553076
0.012480822 -0.10049044 -0.086849816 0.08768893 -0.043131523 0.028972773 0.06753165 -0.026874118
0.022887984 -0.033575274 -0.0849376 -0.05684617 0.015779011 0.011283519 -0.049598634 -0.036986843

weight f4 [64, 128]
00000000: 028e 933b 9ebb 4a3e cc8e 66bc 7aca 2fbd
00000010: f6e3 093e 9b37 133e 1450 57bd 55aa aa3d
00000020: c8ba 0b3d 3cee 9cbd caf4 103e 5669 bcbd
00000030: 83af a5bd f32a 96bc 8832 7dbe a50f d3bc
00000040: 864f 793e c351 dcbd 413b 93be dbe3 b83d
00000050: 79d4 8d3e 54f5 a23e 87c7 50bd 19d3 083d
00000060: 8870 393c 64d4 90bc bdc1 81bb 27d2 8abc
00000070: ac88 94bc e7e7 443e b2ab f13c 0467 3abd
00000080: fe32 9e3d 54df 013e 44ab a33c 4c13 273e
00000090: 7883 dbbc 5bd6 c4bd c57f 9c3b ed25 7a3e
000000a0: ea02 22bc 3d8f 993d 4fba 5a3e 556d f53d
000000b0: c3f0 18be b58d 61be 0080 7f3d cf15 5b3b
000000c0: eb5e 42be 4453 53be e7f0 7fbd c3d7 a33d
000000d0: b0b4 073e cc41 a2bd aff3 7ebd 7bcb b33b
000000e0: b2b9 1cbe f339 9bbe 4bd7 87be 9dc1 0bbd
000000f0: 19b9 ccbd 42a9 28be e466 803d 9a05 893e
00000100: a2a8 41bd fcd1 8ebd 6021 c73c f17a be3c
00000110: 3fed 013e 286e 453d 22a6 1abe e61f 983d
00000120: 3ff6 a4bd 525a 0ebd 0c10 97bc 235d 7e3e
00000130: 6ce7 973c 85a5 51bd ba69 d6bc 520c 9cbd
00000140: 3f32 03bd 25e4 82be dcb4 9a3e 2382 92be
00000150: 005a 293e 5a9b 89be 47f7 51be 12c8 2c3c
00000160: 3295 ccbd 86da b93d 095a 373d 352d 863c
00000170: c08f cebc e1a9 303c aed6 593d c9b1 f3bd
00000180: 9afd 9dbd 8522 083d d193 7ebc d3dc 0ebe
00000190: 2012 b83d 675b 693a 989c a9bd a6cf 643e
000001a0: 3458 50bd 039f 093d 2c45 323e 6f0d 9d3d
000001b0: 4ac8 d9bc 76ff c7bb a124 a93d 3cd4 5e3e
000001c0: 2066 8f3d 2ebe f7bc f1b4 55bc c2c5 613e
000001d0: 2448 3fbd effa a43c a0fe 9c3e 52d7 3b3d
000001e0: 4646 1cbe 16f8 b93c fea0 913d 3741 b53d
000001f0: cf7f 33be 002c 05bd 9d0d 58bd 8626 eebb
00000200: c081 96be 4e9a 89bd 3a5d 9abd 509f 06be
00000210: 14be 4a3c 2023 7dbe a355 fbbd 457a c3bd
00000220: 7d6a 7bbd 67f5 bd3c 8b02 81be 8c08 45be
00000230: d222 d93d a0d6 ae3c f112 953b d5f6 723d
00000240: 7aba 20bd aeef 063e d223 df3c fa64 78be
00000250: d8f3 20bd 04aa 383d eb8b 09be 9b78 fd3c
00000260: 8034 28bd 5ed6 37bd 9c33 2ebe d886 a0bd
00000270: 9672 08bd c195 89bd 7516 9ebd 110f 85bd
00000280: 2bbf 32be aee5 11be f513 55bc 958e a5bc
00000290: 9132 ed3d 9ec6 43be 1ba5 23bd ff83 32be
000002a0: a930 6f3d 8bd7 3b3e 36ae 26be 19d3 b7bd
000002b0: 0218 253e 7d90 fb3d 32ac 7b3d 1518 823d
000002c0: 41e8 523e 553e b43d 92b1 b9bc 16d1 50be
000002d0: ab05 90bd b67c 10be 8c7d 3d3d 2103 abbd
000002e0: 86fc c83d fe2d 0a3e 7fd5 cb3d b720 fc3c
000002f0: aecf 883c 71c7 d23d a1a3 76be df02 56bc
00000300: 2d0d d4bb 0806 31bd cee0 3bbc 5aab 21be
00000310: 2f71 15be 04cf 55be 7f31 3cbc 8380 2dba
00000320: a577 7cbc ad8c 5dbd b45a 7cbd bb7e 023d
00000330: 4d42 67bc d001 e4bc fa65 63bd a5de 7c3d
00000340: e54f 6fbe 4790 ac3c 5b0a b7bd b9fa 273e
00000350: e432 9abc bee3 ef3c 4b8c ae3d b7a5 903d
00000360: 5a10 3dbd f391 c2bd db62 3cbd b799 0a3d
00000370: f27e 9dbd 8755 2cbd e426 44bb fe21 35be
00000380: a6e9 0b3d 3d61 b7bd c427 5cbe c499 65bc
00000390: 144c 35be 8ea3 3cbe ed23 4abd 35a1 7d3a
000003a0: 3587 51bd a1e5 0fbc 1383 1bbe bb85 66bd
000003b0: de5e e03d af66 843d b55e 47bc 6432 ffbc
000003c0: d4ef 40be 0b78 f7bd da8e 05be 37b1 803d
000003d0: 9624 44bd d2ab a63d 4507 11be 82f9 683d
000003e0: 400f d13d b46f 2fbe 5d33 81bc dc47 7abd
000003f0: 8076 f83d 44f2 12be a9bf 0b3d aa39 4ebd
0.0045030126 0.19798133 -0.014072131 -0.042917706 0.13465866 0.1437668 -0.052566603 0.083332695
0.034113675 -0.07662627 0.1415588 -0.09199779 -0.08090117 -0.018331027 -0.24726307 -0.025764296
0.24346742 -0.10757782 -0.28756145 0.09027835 0.27701166 0.31827796 -0.050971534 0.033404443
0.011318333 -0.0176794 -0.003959863 -0.016945912 -0.018131576 0.19229089 0.029500816 -0.0455084
0.0772457 0.12682849 0.019979127 0.16315955 -0.026796088 -0.096111976 0.0047759735 0.2442853
-0.00988839 0.07498024 0.21360134 0.11983744 -0.14935593 -0.22026713 0.06237793 0.0033429747
-0.18981521 -0.20637232 -0.0624856 0.08000138 0.1325252 -0.07922706 -0.062244114 0.0054869032
-0.15305212 -0.3031765 -0.26531443 -0.03412019 -0.09996242 -0.16470817 0.06269625 0.26762086
-0.04727996 -0.06973645 0.024307907 0.023251982 0.12688158 0.048200756 -0.15102437 0.07427959
-0.0805478 -0.034754105 -0.018440269 0.24840216 0.018542968 -0.051183242 -0.026173461 -0.076195374
-0.03203034 -0.25564685 0.3021611 -0.2861491 0.16538239 -0.26876336 -0.20504485 0.010545747
-0.09989394 0.09074883 0.0447636 0.016378978 -0.02521503 0.01078269 0.05318325 -0.11899144
-0.07714386 0.033236045 -0.015538172 -0.13951425 0.08987832 0.00089018646 -0.08281821 0.22344837
-0.050865367 0.03359891 0.174092 0.07668578 -0.026584763 -0.0061034514 0.082589395 0.21760648
0.07001901 -0.030242052 -0.013043628 0.22048095 -0.046699658 0.020139186 0.30663013 0.045859642
-0.15261182 0.022701304 0.07110785 0.08850329 -0.17529224 -0.032512665 -0.052747358 -0.007267776
-0.29395866 -0.067188844 -0.07537313 -0.1314671 0.01237442 -0.2472043 -0.12272193 -0.095448054
-0.061380852 0.023188306 -0.25197253 -0.19241542 0.106023446 0.021342576 0.004549377 0.05931743
-0.039240338 0.13177368 0.02723876 -0.2425727 -0.039295048 0.045084015 -0.1343228 0.030941298
-0.041065693 -0.04488217 -0.17011875 -0.078382194 -0.033312403 -0.067180164 -0.07719127 -0.06497014
-0.17455737 -0.14247772 -0.013005246 -0.02020959 0.115819104 -0.19118735 -0.03995238 -0.17433165
0.058396015 0.18343942 -0.16277394 -0.089758106 0.1612244 0.12283418 0.061443515 0.063522495
0.2059641 0.088009514 -0.02266768 -0.2039226 -0.07032331 -0.14110073 0.04626231 -0.08350206
0.0981379 0.13494107 0.099528305 0.030777318 0.016700592 0.10291947 -0.24085857 -0.013062208
-0.0064712972 -0.043218642 -0.011467172 -0.15788022 -0.14593957 -0.20879751 -0.01148641 -0.0006618576
-0.015409385 -0.054089237 -0.06160994 0.03185914 -0.014114928 -0.027832896 -0.055517174 0.061735768
-0.23370321 0.02106489 -0.08937522 0.16404237 -0.018823095 0.0292834 0.085228525 0.070628576
-0.046158172 -0.09500494 -0.045992713 0.033838 -0.076902285 -0.042073753 -0.0029930407 -0.17688748
0.03415837 -0.089540936 -0.21499544 -0.014013711 -0.17704803 -0.18421766 -0.049350668 0.0009675206
-0.051154334 -0.008782775 -0.1518672 -0.05627988 0.109555945 0.06464898 -0.012168576 -0.031151958
-0.18841487 -0.12083443 -0.13042775 0.06283801 -0.047886454 0.08138241 -0.1416293 0.056878574
0.10207987 -0.17132455 -0.015771562 -0.061103687 0.12131977 -0.1435023 0.03411833 -0.05034796

bias f4 [64]
00000000: 3751 f93c 250a 0cbd 11a7 963d 4997 20bd
00000010: 127b 3c3d 3ba7 8e3d c29f 8c3c 5eac 8e3d
00000020: 8f42 f63c c92e 7abc d48a 4a3d d680 813d
00000030: 7129 0a3e 9f74 1cbc 6202 033d ffbe 303c
00000040: 4f98 91bc 3311 cb3c 0577 0a3d dd8c 07bd
00000050: b672 fbbd 9d9c 19bd 5122 30be 1031 aebd
00000060: 38b1 a0bd e3c2 d4bd 69e6 11be e6df ba3c
00000070: 05f1 e33c b0f0 f8bd 1d64 dfba 98a2 75be
00000080: 0f50 3f3d c965 a93d de24 ffbd 552e 633d
00000090: 9bf8 843d dabe 8f3d 1755 fb3b 3a26 c5bd
000000a0: 78b6 9cbd 56d1 92bc b9fa f73c 505e 5e3d
000000b0: 9b58 e23c ade1 a03b 530f 85ba dbd1 833c
000000c0: f4b6 80bd 9165 7bbd 9a59 a53d 4b39 423c
000000d0: 1050 803d e07e 4dbe 08ab 69bd e519 2c3d
000000e0: e80d 773d 3637 3c3d 87e8 ee3d d8ae cc3d
000000f0: 6ce7 16be 93cf 4d3d 0ec9 00bd 735e 6bbd
0.030434234 -0.034189362 0.07356084 -0.039206777 0.046015806 0.069654904 0.017166022 0.0696647
0.030061034 -0.0152699435 0.049448803 0.06323402 0.13492371 -0.009549289 0.031984694 0.0107877245
-0.017772822 0.024788475 0.033804912 -0.033093322 -0.12277739 -0.037502874 -0.1720059 -0.08505452
-0.07846302 -0.10388734 -0.14248051 0.022811841 0.027824888 -0.121552825 -0.0017043386 -0.23987806
0.04670721 0.08271367 -0.12458204 0.055464108 0.0649273 0.07018824 0.0076700556 -0.09626432
-0.07651991 -0.017922085 0.030270921 0.054289162 0.027630141 0.004909715 -0.0010151662 0.016091278
-0.062848955 -0.06137616 0.08073731 0.01185448 0.06265271 -0.2006793 -0.057047874 0.042016882
0.060315996 0.04595109 0.11665445 0.09994286 -0.14736718 0.050246786 -0.03144174 -0.05746312

weight f4 [32, 64]
00000000: 6912 05bd 8b92 97bd 3f47 6e3c dc38 463d
00000010: 0ee7 fbbd d5cb 26be 7a7c 24bd 061c 28bd
00000020: 2c2a 473d cace c6bb 3327 783d f22a 1cbc
00000030: c4f6 183d 2121 943d fbe9 2dbd a8b3 b7bb
00000040: fb14 213d 797b 01bc 2cfd a6bd fd78 cc3d
00000050: e567 b8bd 8456 7a3d daba 77bd 2463 83bc
00000060: 164e 54bc bcc3 e2bd aeeb fc3c 5a12 f7bd
00000070: 1584 b4bc 2b31 07be b97a 88bd ca42 5ebc
00000080: 9690 b53c 9cd7 943c a386 c8bd bb3f 33be
00000090: 6f23 afbd 4c3a 8e3d 4ac7 c8bd 8d30 003e
000000a0: aecc 7fbc b53d 873d 8c8b b0bb 35e0 d8bd
000000b0: 0196 543d f301 b0bd 0e2b 86bb ad3b 8d3d
000000c0: 37de 15bd 9480 60bd 4a6a 11bd 3d8e 31be
000000d0: 2eeb 1abd 8979 b23d ff70 8fbd e255 f3bd
000000e0: e2da 153c 0d03 a03d 577c a23c 5e1b 09be
000000f0: aa47 09be 7b64 c93c 5a8b 02bb 41c3 1bbe
00000100: ef4b 603e 5edf bebd 1fc1 593d 6eee 0bbd
00000110: be9f 5bbd 3e58 f03c f932 ce3c 2c28 0e3d
00000120: e7f8 0a3e a4c5 203e 76d7 ae3d 4061 76bd
00000130: 07a5 133d 4f9a 483e c8f6 44bd 3f82 7d3d
00000140: 4c86 bb3d 38c8 843d a1fd 78bc 0996 7cbd
00000150: 4382 bb3d 7000 a23c 49a9 003e 493a 4ebc
00000160: 1ef7 213e 9793 d63c 9e57 73bd 4d76 853d
00000170: 3136 9e3d 878b bb3d 5fd4 053e 865b abbc
00000180: e937 1dbd 7b4d f3bd ec7c babc f918 1c3e
00000190: 5aaa c1bd 93d1 d1bc 3c85 4e3e 8082 ad3d
000001a0: ac0a c03d 6654 cf3c 50d1 4cbd c8be 04be
000001b0: 0fba 34bd f379 873d f64a a13e 0ce9 d3bb
000001c0: f188 b83d 4171 30bb 2f68 f63d 3a6d 113d
000001d0: 3bc7 493d 772f 903c 6365 69bd 0087 b9bd
000001e0: 0ae0 8e3d c55b 173e d45c 223d d175 9bbd
000001f0: 8cd5 433e 2f10 5ebd c22f a83d d401 e73d
00000200: 3b4a 2a3d 1400 20be 8a5c 11be f62b 073e
00000210: 20d9 aebd 05b6 d13d 1641 05bd 4c2f 88be
00000220: df78 203e c4cd 843e 9bc8 22be 4e0f 5b3d
00000230: 93a4 ad3d 2903 413e a3fd 2e3e 6d15 8d3d
00000240: d640 6a3c e342 753d 45c7 e5bd dcc1 3fbd
00000250: 0df3 db3d cb72 a73e e78d e73d 8196 0f3b
00000260: e638 343e 3214 93bd fa4c 4c3d 43d6 f7bd
00000270: 7be5 823d fb56 b2bb 5064 323e b614 c6bc
00000280: 250c 71bd 3e88 383d 1f22 a9bd 5246 983d
00000290: 1df7 09be a333 b8bd 97f0 203e a31d 0abe
000002a0: a062 f1bd d3e4 833d a1de 4ebe 8a7d b8bc
000002b0: f6f5 d7bd 12a7 78bc a1a8 4a3e 7a59 d13d
000002c0: 3919 1e3e daf5 553c 312a 89bd cb27 80bd
000002d0: c65e dfbd 6c15 a8bd 35a2 7f3e 4db6 0c3d
000002e0: 1562 3dbd 67db 463d 88e2 d43d 42a0 743d
000002f0: 2972 e53d b28d 69be 2351 353e 443b b53d
00000300: f54d 7c3e 71c2 2ebe 5065 3cbd d7d7 933e
00000310: 833e 1ebe a02b 983d 6027 8b3c 9aa4 29be
00000320: 818e da3d ecdd 7c3e 6d94 f8bd 50ea 013d
00000330: c80e 033d 939e 383e cd61 af3c 81be c6bd
00000340: 6b9c 28be 8b48 3ebd 45c6 bd3d 2c78 a63b
00000350: 2b9a dcbd f0d0 183e 8233 a93d ed3d 8cbd
00000360: 0fc0 1e3d 7603 bebc 6809 663d c361 98bd
00000370: 64d2 f13d d5f1 4cbd 78f4 6f3e 5328 2dbd
00000380: 05f6 943d fd9c e83d f79c 283d 1d91 153e
00000390: 755a b2bd 1468 bbbd 9e28 813e d6e9 74bd
000003a0: 9d08 d5bc 0612 2b3e 1265 5cbb 139c 8ebd
000003b0: aee6 a7bd c161 86bd 7587 813e b012 ab3d
000003c0: e95b 783e f770 253e a96e 53bc c523 09be
000003d0: bc6c 833c 0c64 573d cde3 7b3e 09eb 16bd
000003e0: 8bb2 9dbc a3f2 443e add1 12bc 80f4 29bd
000003f0: ebb7 3a3d dd83 53bd a1c3 403e 58d3 9d3d
-0.03248826 -0.07400998 0.014543354 0.04839407 -0.122999296 -0.16288693 -0.040157773 -0.04104235
0.048624203 -0.0060671316 0.06058426 -0.009531723 0.03734471 0.07232881 -0.04245947 -0.0056061335
0.03932665 -0.007902973 -0.081537575 0.09984014 -0.09004191 0.061117664 -0.06048093 -0.016038485
-0.01295807 -0.110724896 0.0308741 -0.12064047 -0.022035638 -0.1320235 -0.066640325 -0.013565728
0.02216367 0.018169217 -0.09791305 -0.1750478 -0.0855168 0.06944713 -0.09803636 0.1251852
-0.015612764 0.066035666 -0.005387729 -0.10589639 0.051900867 -0.08594122 -0.004094488 0.06896148
-0.036588874 -0.05481012 -0.035501756 -0.17339416 -0.03782194 0.08714587 -0.07003974 -0.11881615
0.009146424 0.07813082 0.01983468 -0.13389346 -0.13406244 0.024584046 -0.0019919486 -0.15211202
0.21903966 -0.09319948 0.05316269 -0.03416293 -0.05361914 0.029338952 0.02517079 0.03470628
0.13571511 0.15700394 0.0853719 -0.06015134 0.036046054 0.19590114 -0.04808691 0.06189179
0.091564745 0.06483501 -0.015197189 -0.061666522 0.09155705 0.0197756 0.12564577 -0.012587138
0.15816924 0.026193423 -0.05940973 0.06516705 0.0772518 0.09157472 0.13069294 -0.020917665
-0.0383834 -0.118800126 -0.022764646 0.15243901 -0.0945632 -0.025612628 0.20168012 0.084721565
0.093770355 0.025308799 -0.050004303 -0.12963402 -0.04412275 0.06615057 0.31502503 -0.0064669903
0.090104945 -0.0026922973 0.1203159 0.035504557 0.049262267 0.017600758 -0.056981456 -0.09058952
0.06976326 0.14781101 0.03963931 -0.07590831 0.1912443 -0.054214653 0.08212234 0.112796456
0.041574698 -0.1562503 -0.14195457 0.13200364 -0.08537507 0.102397956 -0.032532774 -0.26598585
0.15671109 0.25938237 -0.15896837 0.053481393 0.08478656 0.18848862 0.17088942 0.06888852
0.014297685 0.05987824 -0.11219648 -0.046815738 0.10739718 0.32704768 0.113063626 0.0021909776
0.1759983 -0.07181586 0.049878098 -0.12101414 0.06391426 -0.005442498 0.17421079 -0.024179798
-0.058849473 0.045051806 -0.08258461 0.074352875 -0.13473172 -0.08994224 0.15716778 -0.13487868
-0.11786389 0.06440129 -0.20202114 -0.0225208 -0.1054496 -0.015176551 0.1979089 0.102221444
0.15439309 0.013059104 -0.066975005 -0.0625759 -0.109067485 -0.08207211 0.24964221 0.034353543
-0.046236116 0.048549082 0.1039477 0.059723146 0.11203415 -0.22807959 0.17706732 0.08849195
0.24639113 -0.17066361 -0.045995057 0.2887561 -0.15453534 0.07430196 0.016986549 -0.16566697
0.10671712 0.24694031 -0.12137685 0.0317176 0.03199652 0.18029241 0.02140894 -0.097043045
-0.16465919 -0.0464559 0.092663325 0.0050802436 -0.10771593 0.14923453 0.082617775 -0.06847749
0.03875738 -0.02319501 0.056161314 -0.074405216 0.11807707 -0.050035316 0.23433101 -0.042274784
0.07273487 0.11358068 0.04116532 0.14606138 -0.087086596 -0.09150711 0.252263 -0.059793316
-0.026005084 0.16706094 -0.0033629579 -0.069633625 -0.081982955 -0.06561614 0.25298658 0.08353174
0.24253811 0.16156374 -0.012904801 -0.13392551 0.01604306 0.052585647 0.24598618 -0.03684524
-0.019250175 0.19233184 -0.008961123 -0.04149294 0.045585554 -0.051639426 0.18824627 0.07706326

bias f4 [32]
00000000: 9cd8 32be 6614 cbbd 7e18 6c3d cff6 a03d
00000010: 382a aa3d d287 a63d 9711 b93d 5dd8 b43d
00000020: bbbe 27be 28eb 8dbd 8c84 47bd 1e6f 04be
00000030: 7497 123e 9801 13be b23a 9f3b fd02 003e
00000040: 9f97 c13d ce10 21bd 9a8b d13d 5146 4e3d
00000050: 74ae 24bd 8964 ed3d 42bb 41be c878 2b3c
00000060: 7b90 9e3d 0475 10be 56ba ecbd d337 043e
00000070: 5c6b 57bd d2c6 8dbd c495 f23d 0da9 89bc
-0.17465442 -0.09916 0.057640545 0.07859575 0.08308834 0.081313744 0.09036558 0.088303305
-0.16381352 -0.06929618 -0.04871039 -0.12933013 0.14315587 -0.14356077 0.004859292 0.1250114
0.094527476 -0.039322667 0.10231705 0.050360028 -0.040205434 0.11591441 -0.1891909 0.010465808
0.07742401 -0.14107138 -0.11558978 0.1291192 -0.05259262 -0.069226876 0.11844972 -0.016804243

weight f4 [32, 32]
00000000: 2c5b d13d c570 e13d a155 5ebe 91aa a9bc
00000010: 1cf3 8a3d 675b 21bd b457 f33c 0326 913d
00000020: 3afc b73b 1708 393d 24f5 5dbd 572b 9fbb
00000030: 7e5d 7fbd f389 c83c d161 9d3d 15de 5abd
00000040: c173 acbd 1017 02be 3b13 f0bc 9839 8ebd
00000050: dfc1 08bc d25d 18be e331 b2be e4d1 10bd
00000060: cb86 86bd 7d53 63bd b929 633d ce26 45bc
00000070: 3c70 623d 0b39 1c3e 64b4 003d 00e4 37be
00000080: 9a81 323d ca98 043e 53e1 bdbd 0cd3 1cbe
00000090: 5537 50bd ced3 943d 1099 3ebe 418a 113d
000000a0: f834 dabc 62af 3ebe 9295 74be 9e00 7fbd
000000b0: 465b cdbd f94e b13d 7132 a0bd 0509 26be
000000c0: b46c e5bd 1b54 693c f16c fbbd 8c8b 2dbe
000000d0: 6807 39be f190 9cbe 7f99 313e a8ac 303e
000000e0: 8fec d0bb 6b59 c2bd 36d5 a2bd 1d09 38be
000000f0: d52c d83d 2e8c 54bd 82bf 48bb c026 a43d
00000100: 5409 64bd eca9 11be 9b03 65be 7bcf 27be
00000110: 954f 993e 4081 0e3e 62cc 803d 4725 22be
00000120: 6784 ec3c 58d0 c0be 57fb 41be a675 1bbe
00000130: 9936 413e 6345 023e d039 f83d ab3f ec3d
00000140: 6820 e13d 8100 01be 990c 42bd 99d3 d6be
00000150: cd0c 53be ef89 333e 17b1 0ebe db20 1f3c
00000160: e558 9c3d 225f 5ebe 44d8 c73d 0231 bf3c
00000170: 9bb0 e63d 4b89 41be eae9 e53d 3b0a 5dbe
00000180: 67d2 0e3e 178c 003e 8e52 22be dce4 11bd
00000190: c442 1abc c03e 3bbe 75e0 b1bc 7860 263d
000001a0: 971e 1ebe 2ade 5cbe f050 0dbe 314f 68bd
000001b0: 85a6 3f3c c472 343e 3e52 103e 810d b1bd
000001c0: 38b1 21be dfc0 ee3d 7585 9dbd 9807 86be
000001d0: 02e8 2abe 6e99 46bd 5915 e2bd 8b08 e1bd
000001e0: 15c2 70bc 8dab d4bd 6fdc a63d ec6d a2bd
000001f0: 2a5d 1fbd 21b4 043e 2cf4 18be b830 d63d
00000200: ac50 863d 9718 0a3c faf1 57bd c4d4 37be
00000210: 506f 60be 514a c73d cf3a 22be 4fb7 3cbe
00000220: cadd eabd c825 a03b d8da 22bd c6ce d0bb
00000230: a031 f63c a237 c23d a713 12ba c63d 59be
00000240: e7b1 05be 80b8 ed3c 0ab8 bcbc 5ba6 03be
00000250: 7628 79bd 2f1c edbc 75ef dabd 33c2 60bd
00000260: cdc0 88bd 5253 09be a0d2 cf3c 1221 713d
00000270: f4d2 b2bd 7923 3cbd ca8c 8e3d b965 52b8
00000280: 5746 54be b230 1dbe f0d8 bcbd 68fa 84bd
00000290: 2d5e 21be 5230 453a 71a1 b6bd 8be6 edbd
000002a0: 84ad 993d 7ae9 adbd ac39 60bd db19 ce3d
000002b0: b6a4 8f3d 30b1 263d 576a 913c 0570 04be
000002c0: ddfd d1bc d9ab 09be ae4d 85ba d188 91bd
000002d0: abf8 1bbe 326b c53c d651 e23d 8ff7 ddbd
000002e0: 8860 8e3c e59c 95bd 766e be3d f0c6 b7bd
000002f0: 8855 003e 882c cfbd b216 833d a736 b4bd
00000300: 9112 b63b 2316 913d b7fc 88bc 39c7 3cbd
00000310: a65a 873e 15d5 373d f8a2 933e abab 88bd
00000320: 7587 853c 4b77 02be 1c7e c6bd 2463 a1be
00000330: f6b0 83bd c9c7 73be f946 d93d 15ff 423e
00000340: 1416 233e 14b0 a3bd c6e4 c7bc 95f9 13bd
00000350: 1e06 58be 1135 063d 5a12 8ebc 5a15 f13d
00000360: 31c6 183e dee1 f6bd b511 553d 770c a13e
00000370: ef76 a4bc 0b17 20be 3181 453e 7615 483e
00000380: 2d22 b23d 7f43 afbb b35b 43be 36c0 d5bd
00000390: b4f2 e83d b899 b03d 8eae 2d3e bd3d f2bd
000003a0: 9d1f c0bd 9c05 53be ecdd 62be 2735 08be
000003b0: 6fdd 873d 5e9b f33d bd3a 673d 962f a73d
000003c0: 7e02 dd3d b276 e5bc 8697 1cbe b12f 74bd
000003d0: 9942 4bbe dc35 693e 0386 70bc 46dd f6bc
000003e0: 15c3 333e b996 18be bcc2 e9bd 0a37 2f3b
000003f0: 2704 653d f2a3 02be 0342 c23d 0d45 0e3e
0.10222468 0.11007837 -0.21712352 -0.020711215 0.06784651 -0.03939381 0.029704906 0.07087328
0.0056147845 0.04517373 -0.054188862 -0.0048574614 -0.06234502 0.024479842 0.076846726 -0.05343445
-0.08420516 -0.1270411 -0.029306045 -0.06944579 -0.008347004 -0.1487954 -0.34803686 -0.035356417
-0.065686785 -0.055499543 0.05545971 -0.012033178 0.055282816 0.15256135 0.031422034 -0.17958069
0.04358063 0.1294891 -0.09271493 -0.15314883 -0.05083402 0.07266961 -0.18613076 0.03553224
-0.026636586 -0.1862159 -0.23885182 -0.062256448 -0.10027175 0.08657641 -0.07822121 -0.16214378
-0.11202374 0.014241244 -0.12276638 -0.16947764 -0.18069232 -0.30579332 0.1734371 0.17253363
-0.006375856 -0.094897114 -0.07950823 -0.17972226 0.10555426 -0.0518915 -0.0030631726 0.080152035
-0.05567296 -0.14224976 -0.22364657 -0.16387741 0.2994353 0.13916492 0.06288983 -0.15834533
0.028871728 -0.37658954 -0.18943535 -0.15181598 0.18868484 0.12721781 0.12120402 0.11535581
0.10992509 -0.12597848 -0.047375295 -0.4195831 -0.20610352 0.17533086 -0.13934742 0.009712423
0.07634143 -0.21715978 0.09758046 0.023338798 0.112641536 -0.1890003 0.11226256 -0.21585934
0.1394745 0.1255344 -0.15851805 -0.035618648 -0.009415332 -0.18285656 -0.021713475 0.040619344
-0.15441357 -0.21569124 -0.13800406 -0.056716148 0.011697416 0.17621905 0.14093873 -0.08645154
-0.1579026 0.11657881 -0.076914705 -0.2617767 -0.16690066 -0.048486166 -0.11039228 -0.109879576
-0.01469471 -0.10384283 0.08147513 -0.07931122 -0.038907208 0.12959339 -0.14936894 0.10458511
0.06558356 0.008428714 -0.052721 -0.17952257 -0.21917462 0.097309716 -0.15842746 -0.18429302
-0.11468084 0.0048873164 -0.039759487 -0.0063723056 0.03005296 0.09483267 -0.00055723864 -0.21214971
-0.13056146 0.02901864 -0.023036975 -0.12856428 -0.060829602 -0.028944103 -0.10690204 -0.054872703
-0.06677399 -0.1341069 0.025368989 0.05886943 -0.08731642 -0.045932267 0.06960447 -5.016264e-05
-0.20729958 -0.15350607 -0.09221065 -0.06493074 -0.15758581 0.0007522154 -0.08917511 -0.11616238
0.075037986 -0.08491798 -0.0547425 0.10063525 0.07013838 0.040696323 0.017750902 -0.12933357
-0.025633747 -0.13444461 -0.0010170245 -0.07106174 -0.15231578 0.024098966 0.11050765 -0.10838234
0.017380014 -0.07305316 0.092984125 -0.08973491 0.12532628 -0.101159155 0.06400813 -0.087994866
0.0055564125 0.070843 -0.016722066 -0.04608843 0.26436347 0.044880945 0.28835273 -0.06673368
0.016299943 -0.12740819 -0.09692022 -0.3152095 -0.06430237 -0.2380668 0.1060924 0.19042619
0.15926391 -0.079925686 -0.02440108 -0.03612669 -0.21096084 0.03276545 -0.017342735 0.117716506
0.14919354 -0.120547995 0.05201884 0.31454822 -0.020076243 -0.1563379 0.19287564 0.19539437
0.08697925 -0.0053486223 -0.19077949 -0.10437052 0.11374417 0.086230695 0.16961119 -0.11828182
-0.0938103 -0.20607609 -0.22154969 -0.13301526 0.06634032 0.11894868 0.0564525 0.08163373
0.10791491 -0.0280107 -0.15292177 -0.059615795 -0.19849624 0.22774452 -0.014680388 -0.030134808
0.17554887 -0.14901246 -0.11414096 0.0026735687 0.055912163 -0.12757853 0.09485247 0.13893528

bias f4 [32]
00000000: 17c1 dfbd 586e 96ba 98f4 d03d a3f1 b5bc
00000010: 0946 e9bc 7845 debd 126f 553e a538 de3d
00000020: c232 c9bd 4034 1cbe 0d8d 2ebe 0d30 1fbd
00000030: 6aa5 95bd 950d 9db9 97e1 53be ece2 593e
00000040: 662a d2bd b6bd 7d3c dad2 79be fed3 283e
00000050: 7a13 a7bd ed3e 343e fc8c 3dbe dc10 04be
00000060: 53ac 1abe 3e99 2d3e 803b 163e bcd8 4abd
00000070: f2fb 733e 8d04 20be 0ec8 813e 1217 98be
-0.10925501 -0.0011476977 0.102029026 -0.022209948 -0.028475778 -0.10853094 0.20843151 0.10850648
-0.098241344 -0.15254307 -0.17045994 -0.038864184 -0.07306941 -0.00029955493 -0.20691524 0.2127797
-0.10261993 0.015487125 -0.2439684 0.16487119 -0.08158012 0.1760213 -0.18510813 -0.12897056
-0.15104799 0.16952989 0.14671135 -0.0495231 0.23826578 -0.15626736 0.25347942 -0.297051

weight f4 [1, 32]
00000000: b3b4 493c 5319 cabc a964 e6bd a3c7 82bc
00000010: 9d1d 843d 7a51 a63d ed7b dbbd 603b 2fbe
00000020: 3d7d 08bb d673 ac3c 8649 833c e2cb 25bd
00000030: 58dd 83bd 1ed9 cf3a 2ce0 2ab9 aad3 eabd
00000040: 8fac 3fb9 0bbb b83a 2676 413e 7006 e6bd
00000050: f319 a1bc cf1a 0abe 0741 bcbc 8f8a 2abd
00000060: 0a70 2ebc a280 25be c7b8 4ebe d65e fcbb
00000070: b719 c1bd 31ea 4d3c 5f97 02be 2e25 d53d
0.012311148 -0.024670279 -0.11249668 -0.015964335 0.06450961 0.08121009 -0.10716996 -0.17112494
-0.00208266 0.021051329 0.01602627 -0.04047764 -0.06438702 0.0015857553 -0.00016295974 -0.11466153
-0.00018279463 0.0014093829 0.18892726 -0.112316966 -0.019665694 -0.13486789 -0.022980226 -0.041636046
-0.010646829 -0.16162351 -0.20187674 -0.007701735 -0.09428733 0.012568043 -0.12753056 0.10407482
