nnTraining/best_model.pt (torch, 196379 bytes, 11 tensors)

weight f4 [256, 9]
0.081995085 -0.43550906 0.43275476 0.34044972 0.25357878 -0.0647583 0.04354577 -0.71442705
-0.03186646 0.09589501 0.029757822 0.046087287 0.2720298 -0.2621866 -0.6073072 0.16002727
-0.25287634 -0.008887654 -0.26249936 0.2659353 0.61909765 0.051153816 0.1408907 0.6972711
-0.24988289 -0.08447943 -0.2934045 -0.054353762 -0.5939252 -0.6312777 -0.18736078 0.43539312
-0.034942508 -0.1061749 0.3864728 -0.30309054 -0.16796575 -0.17234758 -0.8641849 -0.5155677
0.091788776 0.3814987 0.091818474 -0.0761085 0.41986942 0.037602197 -0.9469565 0.07607027
0.0999486 -0.13311015 0.18203095 -0.28130734 -0.5511919 0.35366023 -0.1041511 0.6477032
0.90896326 0.50118804 -0.4338121 -0.0796657 -0.037783377 0.3230606 -0.3140419 -0.025804397
0.36267957 0.6649767 -0.16548127 0.045674115 0.39870626 -0.059945688 0.2925084 0.27112174
0.08378453 -0.087528385 -0.30985266 0.42212853 -0.0626385 -0.089673705 -0.19950484 -0.059914064
0.4293462 0.003001131 0.23231535 0.5349398 0.07675775 -0.7328463 0.5355352 0.1518283
-0.06012577 0.0656208 -0.28985003 0.0052773985 0.28041434 -0.51546764 -0.049141336 0.57271624
0.25083846 0.115653284 0.32550502 0.09695161 -0.4091316 0.25238714 0.09001064 0.10169668
0.15438142 -0.27228543 -0.16342708 0.23538823 -0.29602572 -0.29406604 -0.5153489 0.34770185
-0.24069087 0.2755977 -0.26367694 0.08326785 -0.026459495 -0.012203136 -0.016561741 -0.22832106
0.11270498 0.3425849 0.5933273 0.13826425 -0.46268252 -0.034035444 -0.20716591 0.37503347
0.85555863 0.15449673 -0.12103767 0.19476816 0.05494993 0.74220586 0.124323875 0.008698916
0.6187987 -0.61380607 0.5887478 0.29519328 -0.056638584 -0.1358715 0.2916056 -0.053875756
-0.18464501 -0.18544379 -0.6135646 -0.25225085 -0.4737388 -0.099617146 -0.1890399 0.3409638
0.3146565 -0.06594275 -0.61672336 0.54487634 -0.22153752 0.4173128 0.35953826 -0.19872063
0.602544 -0.24800439 0.1963598 0.2706158 -0.20661217 0.17901173 -0.02187884 -0.7741731
-0.1249891 -0.30927685 -0.22840376 -0.22527383 0.25306034 0.3556582 -0.51617885 0.25015655
0.37910128 -0.016067853 -0.0045736535 -0.06794449 0.19641449 0.85632163 0.23970534 -0.33879808
-0.1471329 -0.12761824 0.08530282 -0.046124082 -0.24803215 0.17902364 -0.68347454 0.20144191
0.31382492 0.35275728 -0.06655583 0.2888524 0.574261 0.35192978 -0.3724775 0.018926635
0.1784343 -0.3162283 0.2020145 -0.5192651 0.2520127 0.079035215 -0.080182895 -0.36050364
-0.985766 0.37264478 0.22717729 -0.20079933 0.10331015 0.09678764 0.07959828 0.45394975
-0.11197518 -0.2929919 0.31789744 0.19210683 0.2806659 -0.42285112 -0.17999801 -0.5730211
-0.016993752 -0.08938996 0.15455739 -0.33542594 0.5744388 0.12749738 -0.37745127 -0.17731261
-0.121017404 0.2214096 0.19887471 0.18326685 -0.14201292 0.015922984 0.24483776 -0.1997601
0.25021237 -0.27170232 0.02901642 0.13457206 -0.26802725 -0.7192635 0.25248963 -0.10873917
-0.60102856 -0.13052641 -0.18918578 -0.324961 -0.14921229 0.4026538 0.24889022 -0.35882494
00000000: 0aed a73d 0bfb debe 0892 dd3e 6d4f ae3e
00000010: 14d5 813e 00a0 84bd 0d5d 323d b1e4 36bf
00000020: 6886 02bd 9a64 c43d adc6 f33c 06c6 3c3d
00000030: 7d47 8b3e 523d 86be 7c78 1bbf 30de 233e
00000040: 0279 81be 869d 11bc 5166 86be ac28 883e
00000050: 2f7d 1e3f aa86 513d a745 103e 5c80 323f
00000060: 4de1 7fbe 8d03 adbd 1d39 96be 0da2 5ebd
00000070: 7b0b 18bf 6a9b 21bf 81db 3fbe d9eb de3e
00000080: e01f 0fbd 3a72 d9bd c3df c53e af2e 9bbe
00000090: 37ff 2bbe e27b 30be 393b 5dbf 3ffc 03bf
000000a0: c1fb bb3d cc53 c33e 530b bc3d c6de 9bbd
000000b0: 20f9 d63e c304 1a3d be6b 72bf bbca 9b3d
000000c0: dab1 cc3d 074e 08be 5266 3a3e 8407 90be
000000d0: ea1a 0dbf f412 b53e 2c4d d5bd e0cf 253f
000000e0: d1b1 683f dc4d 003f 9f1c debe c527 a3bd
000000f0: bec2 1abd 3368 a53e 1aca a0be be63 d3bc
00000100: 23b1 b93e ea3b 2a3f ec73 29be c814 3b3d
00000110: 3a23 cc3e 9c89 75bd a9c3 953e 78d0 8a3e
00000120: 3997 ab3d 1542 b3bd 02a5 9ebe 3b21 d83e
00000130: 9d48 80bd d9a6 b7bd ff4a 4cbe 7368 75bd
00000140: 44d3 db3e 9fae 443b 13e4 6d3e d1f1 083f
00000150: 2b33 9d3d d19b 3bbf d618 093f e178 1b3e
00000160: 7046 76bd 3364 863d 3967 94be 07ee ac3b
00000170: 7892 8f3e b0f5 03bf 6d48 49bd 889d 123f
00000180: e66d 803e a1db ec3d 98a8 a63e 918e c63d
00000190: b279 d1be e338 813e 8057 b83d 5946 d03d
000001a0: 2a16 1e3e ff68 8bbe 6e59 27be 9d09 713e
000001b0: af90 97be d38f 96be e8ed 03bf fa05 b23e
000001c0: ab77 76be 241b 8d3e aa00 87be 5688 aa3d
000001d0: 95c1 d8bc aaef 47bc 7dac 87bc ffcc 69be
000001e0: ded1 e63d 4a67 af3e 4ce4 173f 2595 0d3e
000001f0: b9e4 ecbe c068 0bbd 4d23 54be 6304 c03e
00000200: e405 5b3f 6434 1e3e 99e2 f7bd 4e71 473e
00000210: 2e13 613d 3401 3e3f 849d fe3d e685 0e3c
00000220: 9769 1e3f 6522 1dbf 2db8 163f 9323 973e
00000230: dcfd 67bd e621 0bbe 544d 953e d3ac 5cbd
00000240: 9513 3dbe fae4 3dbe 9212 1dbf 0627 81be
00000250: e48d f2be 1304 ccbd ad93 41be cf92 ae3e
00000260: a81a a13e fe0c 87bd 95e1 1dbf 047d 0b3f
00000270: bbda 62be 06aa d53e 6615 b83e 6c7d 4bbe
00000280: 5340 1a3f ddf4 7dbe 8b12 493e 278e 8a3e
00000290: 2492 53be da4e 373e 413b b3bc 3530 46bf
000002a0: 49fa ffbd 8959 9ebe ade2 69be 2fae 66be
000002b0: 2091 813e d518 b63e 4c24 04bf 8514 803e
000002c0: 9019 c23e bba0 83bc 96de 95bb 7b26 8bbd
000002d0: e120 493e e537 5b3f 5175 753e f176 adbe
000002e0: 02aa 16be 5bae 02be 3fb3 ae3d 9bec 3cbd
000002f0: 24fc 7dbe f951 373e 30f8 2ebf ca46 4e3e
00000300: a9ad a03e 9a9c b43e 6c4e 88bd 76e4 933e
00000310: c502 133f 2430 b43e 5fb5 bebe 080c 9b3c
00000320: 7bb7 363e ade8 a1be e4dc 4e3e 8fee 04bf
00000330: cf07 813e 37dd a13d ee36 a4bd ef93 b8be
00000340: 295b 7cbf 4ccb be3e 2aa1 683e 579e 4dbe
00000350: 4694 d33d 9938 c63d 6c04 a33d 1a6c e83e
00000360: 3e53 e5bd 0903 96be 74c3 a23e a7b7 443e
00000370: 71b3 8f3e f17f d8be 6651 38be 83b1 12bf
00000380: 7b36 8bbc 1512 b7bd 4b44 1e3e f3bc abbe
00000390: 6c0e 133f ac8e 023e 4b41 c1be 7091 35be
000003a0: f9d7 f7bd 33b9 623e d0a5 4b3e 4eaa 3b3e
000003b0: d66b 11be eb70 823c c0b6 7a3e e98d 4cbe
000003c0: d61b 803e 911c 8bbe d8b3 ed3c 42cd 093e
000003d0: de3a 89be a721 38bf 5246 813e a4b2 debd
000003e0: 02dd 19bf b7a8 05be ebb9 41be 4a61 a6be
000003f0: 1bcb 18be a428 ce3e 14dd 7e3e e7b7 b7be

bias f4 [256]
-0.0876069 -0.20095462 0.15709464 0.039821964 0.06584481 0.028022438 0.045908038 -0.08161973
-0.2979829 -0.015359352 0.118110575 -0.2797003 0.23347847 -0.25827903 0.21964641 -0.039776813
-0.030729027 0.010262307 -0.23017175 -0.25702128 -0.17421524 -0.2434653 -0.23493142 0.23558287
0.12816326 0.062397726 -0.21583228 -0.18116778 -0.07543286 -0.084881365 0.24724908 0.24179874
0.23257206 0.21130618 0.017184632 -0.22064647 0.030943418 -0.28219506 -0.18575266 0.019760814
0.20122978 -0.017492466 -0.03714543 -0.23672445 -0.32211617 -0.017787874 0.06383727 0.015770344
-0.21071088 -0.06274379 0.18168518 -0.166506 0.027698036 0.07034444 -0.20055102 0.00487458
-0.09614609 0.30917928 -0.12166744 0.28613058 -0.0034203974 -0.035340488 0.07305827 -0.15068743
0.11914442 -0.26997155 -0.20892385 -0.03535724 -0.23658054 -0.16352084 -0.24264298 -0.2428573
-0.27137476 0.18044345 -0.32134473 0.03823426 -0.2720304 0.15225768 0.28467813 -0.21921004
-0.05586146 0.11329102 -0.2676723 0.24542192 0.04556212 -0.15171649 -0.13935573 -0.23626174
-0.14712815 -0.017222108 0.07447848 0.009262235 -0.31068188 -0.063316785 0.14512499 0.32718095
-0.010547228 -0.029394945 -0.22370833 -0.096092954 -0.3092136 -0.21742307 0.15423198 0.3123921
-0.28016207 0.2901044 0.15656702 -0.079556026 -0.18403065 -0.23106533 0.1431585 0.0151962675
-0.28047958 0.0149719715 0.03595017 0.12798576 0.13732977 -0.24729149 0.027144609 0.043142095
0.25889593 -0.097275734 -0.038655024 -0.019274367 -0.35927293 0.18174747 -0.028342452 -0.14437926
-0.069521226 -0.029802922 -0.3536794 -0.29631197 -0.08841438 0.26360732 -0.30474237 0.108138494
-0.030365707 -0.10822798 -0.0063393973 -0.1132929 0.009943489 -0.09485721 0.1248768 0.17902046
0.28154275 0.062296573 -0.033864427 0.23934373 -0.18693385 0.09849747 -0.13881582 -0.21525915
-0.36752376 0.02811286 0.041220132 -0.08617596 -0.28212014 0.05397583 -0.11530018 -0.14506145
-0.013043631 -0.2263839 0.028306095 -0.2157767 0.11971827 -0.16655274 -0.17699084 -0.18701422
-0.27115664 0.1554083 -0.2405295 -0.22504216 -0.080681525 -0.20375922 0.1811926 0.003037194
-0.05194436 -0.17016913 -0.017539911 0.17799608 -0.26286545 0.29888198 -0.20827256 0.16051608
0.15048969 -0.23540099 0.009347993 -0.36402178 -0.012452395 -0.32161403 0.052725565 0.26563767
0.3102583 -0.12796964 0.0050651236 -0.181067 -0.010063106 0.089384146 -0.14007096 -0.05108972
-0.00978275 0.19767427 0.004990264 -0.19867167 -0.044327248 -0.2321094 -0.16315565 -0.14597207
-0.08459643 -0.016738534 -0.38414353 -0.023757806 -0.17596161 -0.18322915 -0.17347755 -0.17789088
-0.029921794 0.2060459 -0.23264757 -0.04031589 -0.06904865 -0.06234333 -0.060487345 -0.21403395
-0.080636024 0.064926356 0.22298296 0.20811372 -0.023563396 0.16158056 0.07232725 -0.04330145
-0.07358352 -0.1814604 -0.2550152 -0.07945513 -0.12122371 -0.011684058 -0.082302414 -0.06326282
0.059631623 -0.3450238 -0.021614505 0.30937773 0.1893534 -0.08492854 -0.13697986 -0.21337067
-0.09000877 0.050123457 0.070340745 -0.023774635 0.24224222 0.13994844 0.079693064 -0.112082236
00000000: 3f6b b3bd 0cc7 4dbe 6bdd 203e 5b1c 233d
00000010: a5d9 863d 508f e53c 110a 3c3d 3f28 a7bd
00000020: 3791 98be cba5 7bbc f5e3 f13d e134 8fbe
00000030: fb14 6f3e 263d 84be fdea 603e 03ed 22bd
00000040: 71bb fbbc 3c23 283c 25b2 6bbe 4b98 83be
00000050: 7b65 32be f84e 79be dd91 70be a33c 713e
00000060: 3b3d 033e c294 7f3d 2303 5dbe 0c84 39be
00000070: 8b7c 9abd 48d6 adbd dd2e 7d3e 179a 773e
00000080: 5f27 6e3e a660 583e c9c6 8c3c 26f1 61be
00000090: 0d7d fd3c df7b 90be f235 3ebe 6ee1 a13c
000000a0: 2e0f 4e3e 5c4c 8fbc ce25 18bd e567 72be
000000b0: 69ec a4be e0b7 91bc 1dbd 823d cf30 813c
000000c0: 98c4 57be d17f 80bd ae0b 3a3e 8d80 2abe
000000d0: fee6 e23c bf10 903d 3f5d 4dbe f1ba 9f3b
000000e0: 3ee8 c4bd bf4c 9e3e c72c f9bd b57f 923e
000000f0: bf28 60bb 30c1 10bd 939f 953d ce4d 1abe
00000100: fd01 f43d b639 8abe 22f0 55be c1d2 10bd
00000110: 2b42 72be 0272 27be 6777 78be 96af 78be
00000120: a2f1 8abe 2bc6 383e 4c87 a4be 879b 1c3d
00000130: 9247 8bbe 70e9 1b3e 55c1 913e 9978 60be
00000140: fcce 64bd 1f05 e83d 580c 89be e24f 7b3e
00000150: 589f 3a3d 915b 1bbe 45b3 0ebe 99ee 71be
00000160: c3a8 16be 6115 8dbc 2c88 983d a1c0 173c
00000170: b211 9fbe 3bac 81bd a59b 143e 4384 a73e
00000180: 48ce 2cbc abcd f0bc cc13 65be 62cc c4bd
00000190: 3f51 9ebe 27a4 5ebe fdee 1d3e dbf1 9f3e
000001a0: 6771 8fbe 9088 943e 1b53 203e 45ee a2bd
000001b0: 8872 3cbe 649c 6cbe 2498 123e c4f9 783c
000001c0: 059b 8fbe 004d 753c 7c40 133d b30e 033e
000001d0: 2da0 0c3e fb39 7dbe 5f5e de3c c4b5 303d
000001e0: 028e 843e 8038 c7bd bb54 1ebd 47e5 9dbc
000001f0: 9ff2 b7be 021c 3a3e 6e2e e8bc 28d8 13be
00000200: 2561 8ebd 4225 f4bc 7715 b5be 34b6 97be
00000210: 9912 b5bd 8af7 863e 3107 9cbe b777 dd3d
00000220: 81c1 f8bc a2a6 ddbd b8ba cfbb 1c06 e8bd
00000230: 04ea 223c 7f44 c2bd 68bf ff3d 2451 373e
00000240: 5f26 903e b12a 7f3d 6db5 0abd 8616 753e
00000250: 966b 3fbe 0bb9 c93d bc25 0ebe e56c 5cbe
00000260: 132c bcbe f14c e63c 71d6 283d 067d b0bd
00000270: 0d72 90be c315 5d3d 8022 ecbd fd8a 14be
00000280: f4b4 55bc 2ed1 67be 2fe2 e73c 91f4 5cbe
00000290: da2e f53d cd8c 2abe 163d 35be a880 3fbe
000002a0: 0bd5 8abe 5a23 1f3e 5e4d 76be 7471 66be
000002b0: 5b3c a5bd 42a6 50be 8e8a 393e a90b 473b
000002c0: 9cc3 54bd d140 2ebe dcaf 8fbc 9b44 363e
000002d0: 4d96 86be 0f07 993e 6745 55be 545e 243e
000002e0: f819 1a3e f50c 71be 5328 193c 1061 babe
000002f0: 2105 4cbc 98aa a4be c3f6 573d a901 883e
00000300: 2dda 9e3e 790a 03be 56f9 a53b a169 39be
00000310: badf 24bc 090f b73d c36e 0fbe 7443 51bd
00000320: d447 20bc 206b 4a3e 5e85 a33b 9670 4bbe
00000330: 7d90 35bd 16ae 6dbe 4612 27be b479 15be
00000340: e540 adbd 401f 89bc 76ae c4be bb9f c2bc
00000350: 482f 34be 6ca0 3bbe 19a4 31be 0729 36be
00000360: 8d1e f5bc b2fd 523e 2a3b 6ebe 4622 25bd
00000370: 6169 8dbd b85b 7fbd 94c1 77bd b72b 5bbe
00000380: 8024 a5bd 1cf8 843d a555 643e c31b 553e
00000390: 0608 c1bc 6075 253e 4f20 943d dc5c 31bd
000003a0: f5b2 96bd c1d0 39be 5a91 82be 5fb9 a2bd
000003b0: 2344 f8bd 7e6e 3fbc 2b8e a8bd f08f 81bd
000003c0: 4a40 743d f6a6 b0be e710 b1bc c266 9e3e
000003d0: dce5 413e 04ef adbd 7344 0cbe d77d 5abe
000003e0: 8556 b8bd 414e 4d3d cf0e 903d 06c3 c2bc
000003f0: 580e 783e a54e 0f3e 1e36 a33d 5f8b e5bd

weight f4 [128, 256]
-0.028307788 0.10700507 0.12029044 -0.2507607 0.15834798 -0.011343391 0.01893923 -0.16232723
-0.10671077 0.13070148 0.1273994 -0.069527775 0.03819667 0.044590835 0.060436133 -0.09648393
0.022730557 -0.24632327 -0.10777954 -0.17721531 -0.1367728 -0.275051 0.04638613 -0.11840753
-0.16297752 -0.20073311 -0.029917344 -0.11874006 0.10721268 -0.00959637 -0.062199388 -0.035860017
-0.36074808 -0.1582046 -0.22552882 -0.15752767 0.009083011 0.040308602 -0.26854855 -0.14310452
-0.02736409 0.05358217 0.056572564 0.10534355 -0.04130017 -0.16316947 -0.032605108 -0.014393265
0.033360444 -0.2181979 0.05397936 0.038511187 -0.11030087 0.10873921 0.010548391 -0.2542337
-0.07728126 0.028175998 -0.07032063 0.27638912 0.2502016 -0.10826358 -0.20949857 -0.16711411
-0.1448467 -0.0034035828 -0.5314256 -0.12569182 0.018678935 -0.17042743 -0.027100455 -0.24724957
-0.16568401 0.04319736 0.063513525 -0.15668489 -0.11837371 -0.27081475 -0.0589836 -0.21517166
-0.3514043 0.12860303 -0.13237654 -0.3527227 0.015199196 -0.03195665 -0.013503832 0.05604719
0.01736948 -0.35310316 -0.09743484 -0.056285173 0.00016466805 0.05090043 -0.0014429382 -0.08924266
0.1601378 -0.17909673 0.03164245 -0.12805277 -0.036980536 -0.11711604 -0.13722788 -0.34549493
-0.055699065 0.05511107 0.06625498 0.13649563 -0.055489883 -0.12251803 -0.033385877 -0.25158212
-0.1448603 -0.458575 -0.19929886 0.08815697 -0.3255671 -0.053591732 -0.3305151 -0.13162838
-0.24441482 -0.011290827 0.2066591 -0.021230325 -0.31025025 0.019396251 -0.11731968 -0.23693688
-0.297256 -0.11795651 -0.23218474 -0.011759407 -0.19991048 -0.13050096 -0.25887507 -0.23448534
0.115620986 -0.13962199 -0.15561363 -0.16878669 -0.16406676 -0.105055064 -0.29451668 -0.2423922
-0.007953226 0.00590463 -0.0739635 -0.2805422 0.1029216 -0.06872884 -0.09088051 0.18029368
0.099480025 0.017440794 0.00015736475 -0.20172608 0.02100658 -0.1880488 -0.03446757 -0.20109391
-0.08275095 -0.17038243 0.040360354 0.018814651 -0.4438391 -0.0045605544 -0.083052196 0.012819358
0.07838504 -0.33921415 -0.1326999 -0.32518658 0.06186497 0.08181253 0.2582872 -0.083144784
-0.04898869 0.047389343 -0.13660094 0.17570278 0.1363103 -0.42026266 -0.114540055 0.10893576
0.19746666 -0.15588439 0.13418324 -0.13388444 -0.11271297 0.07840493 0.15966138 -0.011613768
-0.103208296 -0.04607287 0.023026286 -0.03709421 -0.06296139 0.0076840622 -0.16141728 0.03670959
-0.122254394 -0.012533127 0.1954568 0.021648794 0.04207698 0.010036426 0.087003246 0.01865918
0.071767636 0.085394934 -0.12505725 -0.10567314 -0.30237272 0.034733985 -0.23734352 -0.06137728
-0.21943705 -0.16948411 0.019624226 0.08837847 -0.32574195 -0.1054954 0.12734325 -0.15257223
0.40026197 -0.13788675 -0.11113623 -0.22804497 -0.081399746 -0.07760004 -0.29838234 -0.13039851
0.06918335 -0.24674593 0.016381714 0.09085074 -0.013274205 0.10175723 0.13727798 -0.2293688
-0.27367058 0.13246848 0.025440635 -0.10987165 0.13904051 -0.08446113 -0.11354516 -0.0023967323
0.11961751 0.11861068 -0.12250863 -0.022042586 -0.060947757 -0.4939314 0.26549327 -0.087838724
00000000: bce5 e7bc 7925 db3d d65a f63d b563 80be
00000010: f925 223e a1d9 39bc 7226 9b3c 1c39 26be
00000020: 2d8b dabd 9cd6 053e fd74 023e 9464 8ebd
00000030: 1d74 1c3d e1a4 363d e18b 773d 5e99 c5bd
00000040: 6f35 ba3c 2b3c 7cbe 85bb dcbd ee77 35be
00000050: 2b0e 0cbe 7cd3 8cbe 62ff 3d3d a67f f2bd
00000060: 94e3 26be fb8c 4dbe 3815 f5bc fd2d f3bd
00000070: 5292 db3d 183a 1dbc c9c4 7ebd f4e1 12bd
00000080: f9b3 b8be 6300 22be 07f1 66be ef4e 21be
00000090: e9d0 143c a21a 253d 327f 89be fe89 12be
000000a0: a82a e0bc fa78 5b3d a2b8 673d 5cbe d73d
000000b0: 5e2a 29bd e615 27be ef8c 05bd bbd1 6bbc
000000c0: f6a4 083d 456f 5fbe 7619 5d3d e8bd 1d3d
000000d0: 6ce5 e1bd aab2 de3d 29d3 2c3c eb2a 82be
000000e0: a345 9ebd 5ad1 e63c 4304 90bd e082 8d3e
000000f0: 6d1a 803e 4cb9 ddbd cb86 56be f61f 2bbe
00000100: b152 14be a50e 5fbb 820b 08bf 5bb5 00be
00000110: 9104 993c 8784 2ebe c601 debc fe2e 7dbe
00000120: 12a9 29be b7ef 303d 6113 823d 0172 20be
00000130: ea6d f2bd 3ba8 8abe ca98 71bd f655 5cbe
00000140: 44eb b3be 83b0 033e b78d 07be 1298 b4be
00000150: 0c06 793c fae4 02bd 2d3f 5dbc bd91 653d
00000160: 714a 8e3c f0c9 b4be eb8b c7bd 488b 66bd
00000170: beaa 2c39 f87c 503d f920 bdba dbc4 b6bd
00000180: 2afb 233e 2265 37be 839b 013d 4420 03be
00000190: e778 17bd 89da efbd 7785 0cbe b6e4 b0be
000001a0: b424 64bd 25bc 613d b1b0 873d 83c5 0b3e
000001b0: 5c49 63bd bcea fabd a1bf 08bd 5fcf 80be
000001c0: 4256 14be 58ca eabe 0015 4cbe a48b b43d
000001d0: bbb0 a6be 0183 5bbd 4639 a9be 97c9 06be
000001e0: e147 7abe 29fd 38bc 719e 533e 38eb adbc
000001f0: 1fd9 9ebe e3e4 9e3c 4d45 f0bd 959f 72be
00000200: f031 98be 2f93 f1bd d6c1 6dbe 87aa 40bc
00000210: 55b5 4cbe 0ba2 05be 468b 84be ed1c 70be
00000220: b2ca ec3d 11f9 0ebe 2e59 1fbe 6bd6 2cbe
00000230: 1e01 28be 1c27 d7bd e4ca 96be a935 78be
00000240: 3f4e 02bc a07b c13b 2d7a 97bd 3aa3 8fbe
00000250: 8fc8 d23d b5c1 8cbd 901f babd e89e 383e
00000260: 2fbc cb3d ffdf 8e3c 4702 2539 4891 4ebe
00000270: fe15 ac3c dd8f 40be de2d 0dbd 90eb 4dbe
00000280: 5479 a9bd bb78 2ebe e650 253d 2f21 9a3c
00000290: e13e e3be b470 95bb 4517 aabd 4908 523c
000002a0: 5688 a03d 7aad adbe 7ce2 07be db7e a6be
000002b0: 1f66 7d3d 548d a73d 383e 843e d047 aabd
000002c0: 5da8 48bd 541b 423d 1ee1 0bbe 6eeb 333e
000002d0: ed94 0b3e ab2c d7be fa93 eabd b619 df3d
000002e0: b334 4a3e 28a0 1fbe 5567 093e 0119 09be
000002f0: 0fd6 e6bd c492 a03d 467e 233e ac47 3ebc
00000300: df5e d3bd e8b6 3cbd 9fa1 bc3c 19f0 17bd
00000310: e7f1 80bd 96ca fb3b 924a 25be cc5c 163d
00000320: 8360 fabd bf57 4dbc d425 483e d058 b13c
00000330: e958 2c3d d26f 243c c22e b23d 23db 983c
00000340: e9fa 923d 8ae3 ae3d 020f 00be 296b d8bd
00000350: 99d0 9abe 3945 0e3d 2e0a 73be be66 7bbd
00000360: 1bb4 60be 3e8d 2dbe fcc2 a03c c5ff b43d
00000370: a6c7 a6be f90d d8bd 4566 023e e53b 1cbe
00000380: 23ef cc3e 2f32 0dbe 649b e3bd 9f84 69be
00000390: e9b4 a6bd c5ec 9ebd 92c5 98be 3087 05be
000003a0: 00b0 8d3d f7aa 7cbe f232 863c f40f ba3d
000003b0: 0d7c 59bc 1866 d03d 9992 0c3e a8df 6abe
000003c0: 8d1e 8cbe d1a5 073e e168 d03c 6304 e1bd
000003d0: a360 0e3e f5f9 acbd 5d8a e8bd 7f12 1dbb
000003e0: 06fa f43d 28ea f23d cee5 fabd a792 b4bc
000003f0: 5ba4 79bd 94e4 fcbe bcee 873e cae4 b3bd

bias f4 [128]
-0.019155942 -0.12080306 -0.024916548 0.0067595113 -0.05715761 -0.077099055 -0.022310255 -0.023025313
-0.029107219 -0.108392715 -0.03297858 0.038849477 -0.16479419 -0.027903054 -0.022791218 0.026464812
-0.04424596 -0.07171446 -0.048825108 -0.03434198 -0.04106312 -0.053572062 -0.031320695 0.036863886
-0.041288566 0.030393098 -0.079827555 -0.01560033 -0.04965772 -0.05284189 -0.08058271 0.009349626
-0.17601554 0.003743657 -0.034926407 -0.08171122 0.062170256 -0.10327269 -0.0019877695 -0.025758533
-0.06963124 0.053375114 0.09970394 -0.041157644 -0.024531947 -0.012508719 -0.025276786 -0.069426335
0.04829283 -0.023725266 -0.06590327 -0.033165324 -0.16801062 -0.06275642 -0.1576608 -0.06539264
-0.1629156 0.021928297 -0.09208358 0.08195664 -0.103555396 -0.08951243 0.011018903 -0.0403153
-0.18678316 0.003984875 -0.079522274 -0.021071091 -0.012486189 0.10682673 -0.019159824 0.15010817
-0.0007334896 0.07458352 -0.09673321 -0.15506822 0.01732596 0.00059146533 -0.0034962273 0.03218189
0.1141615 -0.042759012 -0.049482305 -0.26408586 -0.049022403 -0.12396665 -0.07107312 -0.07665027
-0.05206117 -0.18195798 -0.02677103 -0.059129786 0.062418357 -0.124702 -0.13524053 0.013835733
-0.019925397 -0.16465393 -0.009565636 -0.08534522 0.063472494 -0.119987294 -0.23513126 -0.04998108
0.008488862 0.0549917 -0.053490464 -0.05855694 -0.023928827 -0.027264753 0.045721103 -0.03181058
-0.06295127 0.07246637 -0.024930863 0.007086786 -0.008430884 0.10371714 -0.10261843 -0.083372444
-0.07313679 -0.089337714 0.12446333 0.09543635 0.028014498 -0.028587345 -0.10047981 -0.123974435
00000000: ecec 9cbc 9867 f7bd ca1d ccbc e47e dd3b
00000010: 191e 6abd 1ce6 9dbd ffc3 b6bc 959f bcbc
00000020: 4372 eebc 00fd ddbd 8c14 07bd a120 1f3d
00000030: cfbf 28be f294 e4bc a6b4 babc bccc d83c
00000040: 403b 35bd 08df 92bd d6fc 47bd 2daa 0cbd
00000050: cd31 28bd 616e 5bbd 214a 00bd 96fe 163d
00000060: 331e 29bd f2fa f83c a17c a3bd 8798 7fbc
00000070: e565 4bbd bd70 58bd 8c08 a5bd 2c2f 193c
00000080: 6b3d 34be 2458 753b fe0e 0fbd 3658 a7bd
00000090: 3da6 7e3d a280 d3bd 3d45 02bb 8f03 d3bc
000000a0: d39a 8ebd dd9f 5a3d 9431 cc3d eb94 28bd
000000b0: 39f7 c8bc 5ff1 4cbc 4311 cfbc 652f 8ebd
000000c0: b4ce 453d 7d5b c2bc 4bf8 86bd 5dd8 07bd
000000d0: fa0a 2cbe 7086 80bd d571 21be 94ec 85bd
000000e0: 59d3 26be f9a2 b33c 5196 bcbd e2d8 a73d
000000f0: da14 d4bd 4b52 b7bd a188 343c a821 25bd
00000100: 1644 3fbe 8e93 823b 93dc a2bd 489d acbc
00000110: df92 4cbc f9c7 da3d 10f5 9cbc f5b5 193e
00000120: a747 40ba 3fbf 983d 101c c6bd 34ca 1ebe
00000130: 2cef 8d3c 910c 1b3a f620 65bb 28d1 033d
00000140: 81cd e93d 1324 2fbd f5ad 4abd 4336 87be
00000150: b7cb 48bd 3ae2 fdbd c98e 91bd d1fa 9cbd
00000160: 183e 55bd 3153 3abe eb4e dbbc 1332 72bd
00000170: 64aa 7f3d c363 ffbd 7e7c 0abe 45af 623c
00000180: 963a a3bc 0a9b 28be 2fb9 1cbc 7ac9 aebd
00000190: defd 813d e6bb f5bd 40c6 70be f6b8 4cbd
000001a0: de14 0b3c fa3e 613d d118 5bbd 67d9 6fbd
000001b0: 6306 c4bc 555a dfbc 0d46 3b3d d04b 02bd
000001c0: 98ec 80bd 4069 943d cf3b ccbc 4538 e83b
000001d0: b121 0abc a769 d43d 9d29 d2bd 2cbf aabd
000001e0: bec8 95bd b1f6 b6bd a1e6 fe3d 2274 c33d
000001f0: a97e e53c 0230 eabc 5cc8 cdbd 4fe6 fdbd

weight f4 [64, 128]
0.13331151 0.05255663 0.06625167 0.04873218 -0.03551073 -0.040001117 0.030342849 0.010686437
0.12650418 0.054231245 0.077178895 0.24689414 0.07656413 -0.021133995 0.044481155 0.29475036
-0.062402356 0.11801859 0.058119897 -0.049446337 0.042475704 -0.0055102063 0.2660676 0.31364843
-0.106894046 0.053543597 -0.032587413 0.013350963 0.21820016 -0.056235388 -0.060474038 0.2196942
0.13719179 0.08818327 -0.040378917 -0.118520804 0.20768645 0.33803096 0.02829192 0.049277157
0.28156084 0.15625635 0.2981629 0.17913902 -0.013618127 0.061486438 -0.044085573 -0.260368
0.40050894 -0.013187623 -0.046256267 0.19518039 -0.010898944 -0.06631476 -0.013966073 0.012960858
-0.040800605 0.14517081 -0.012439407 0.12121384 0.1723864 -0.064235836 -0.037114393 0.038123924
-0.008709175 -0.01823902 0.043517716 0.03919724 -0.0077901226 0.29379448 -0.26379853 0.48232526
0.120294146 0.11602629 0.06894874 -0.13467462 0.39131516 -0.01860763 0.12782624 0.057514004
0.27665642 -0.012959003 0.3083193 -0.063377164 0.0013259238 -0.08138974 -0.06182379 0.11163901
-0.14193 -0.10376849 -0.031501517 -0.046791576 0.001953438 -0.14103886 0.0508113 -0.17217487
-0.02503371 0.041533742 0.22121249 -0.038004488 0.32851103 0.15778178 -0.015906934 -0.032374747
0.16149624 0.26353595 0.06957759 0.02192761 0.28973526 0.06384314 0.11294549 0.03805965
0.058068946 0.2422682 -0.094381094 -0.1601164 0.007939209 0.23635298 0.22988018 0.03362049
0.071450904 0.0007265486 0.4263004 -0.120564714 0.2098703 0.3090726 0.015820287 -0.07234908
-0.17058314 0.0059817233 0.09654951 0.07777476 -0.12636837 0.0045005414 0.04381293 -0.065728165
-0.16093719 -0.099344544 0.15541086 -0.12120523 -0.24219684 0.015979182 -0.041210312 0.063471965
0.09885371 -0.16174385 0.07744624 0.16464521 0.13158527 0.083773315 0.087672226 0.20238598
0.2554981 -0.25670767 0.058410525 -0.017144375 -0.005012423 -0.05419013 -0.024868641 -0.109937906
0.18499812 -0.05245597 0.03356331 0.17761798 -0.04700376 0.0640899 -0.09399346 0.048741642
0.15943591 0.10284654 -0.10761671 0.033825167 0.05503913 0.015831389 -0.018257635 0.21946073
-0.06718174 -0.034147166 -0.065890394 0.0302919 0.052171577 -0.052849926 0.19248898 -0.041540544
0.07753828 -0.1021888 -0.03127221 -0.12341279 0.06206229 -0.09785713 0.19004263 -0.042157188
-0.14083342 -0.013857461 0.048966527 -0.018663136 -0.007400641 -0.087624684 0.023172395 -0.0239561
-0.06190198 -0.09151928 0.015978213 -0.0097671235 0.06956533 0.080684036 0.0036314342 0.15455648
0.039502434 -0.018374024 -0.06227687 0.16087689 0.02285191 0.12096116 -0.05067347 0.0786112
0.047154393 -0.032174572 -0.07227207 0.05936761 -0.07738672 -0.062628135 -0.20639232 0.22354591
0.035459362 0.13416152 -0.39106813 -0.046552744 -0.1016587 0.016086686 0.08357812 -0.014939123
0.094761714 -0.045086496 0.0023584983 -0.039529853 0.047106724 0.02565282 -0.028787537 -0.015136612
0.0771904 -0.08551115 0.075098366 0.047512375 0.017130416 -0.20229693 -0.19934364 0.0282126
0.0150031 -0.049828745 0.04036293 -0.040689148 -0.18897809 -0.023278814 0.20318124 -0.0105168
00000000: d082 083e 9f45 573d f5ae 873d 659b 473d
00000010: b373 11bd 36d8 23bd 9191 f83c 2a16 2f3c
00000020: 508a 013e 9521 5e3d f80f 9e3d d1d1 7c3e
00000030: a8cd 9c3d 3321 adbc df31 363d 85e9 963e
00000040: 9d99 7fbd bbb3 f13d 210f 6e3d 3e88 4abd
00000050: 01fb 2d3d f68e b4bb 033a 883e 8796 a03e
00000060: 44eb dabd 8850 5b3d 617a 05bd ffbd 5a3c
00000070: dd6f 5f3e 1457 66bd a0b3 77bd 84f7 603e
00000080: 017c 0c3e 6e99 b43d 5d64 25bd 09bb f2bd
00000090: c2ab 543e 6512 ad3e 75c4 e73c d8d6 493d
000000a0: be28 903e aa01 203e cfa8 983e 3870 373e
000000b0: 911e 5fbc 34d9 7b3d 1393 34bd f44e 85be
000000c0: 820f cd3e e610 58bc 3677 3dbd 5edd 473e
000000d0: 7c91 32bc 08d0 87bd f5d1 64bc c759 543c
000000e0: 891e 27bd a8a7 143e a8ce 4bbc f63e f83d
000000f0: 0f86 303e 148e 83bd 4305 18bd d527 1c3d
00000100: edb0 0ebc ff69 95bc a23f 323d 498d 203d
00000110: 4944 ffbb 3b6c 963e 9a10 87be 56f3 f63e
00000120: c75c f63d 319f ed3d ff34 8d3d 25e8 09be
00000130: 765a c83e 076f 98bc e2e4 023e ce93 6b3d
00000140: e9a5 8d3e 0052 54bc 07dc 9d3e e3cb 81bd
00000150: 9fca ad3a aaaf a6bd f13a 7dbd fea2 e43d
00000160: 1956 11be 9384 d4bd bc07 01bd 86a8 3fbd
00000170: 4005 003b 7e6c 10be 821f 503d 9c4e 30be
00000180: 7f13 cdbc 491f 2a3d 8785 623e 98aa 1bbd
00000190: 9932 a83e 8c91 213e 424f 82bc 629b 04bd
000001a0: 455f 253e 2fee 863e b27e 8e3d 88a1 b33c
000001b0: 2e58 943e 31c0 823d f74f e73d 70e4 1b3d
000001c0: b4d9 6d3d 2815 783e e04a c1bd 8ef5 23be
000001d0: 7513 023c 8406 723e b665 6b3e a4b5 093d
000001e0: da54 923d da75 3e3a 0c44 da3e a2ea f6bd
000001f0: 3de8 563e c43e 9e3e 8c99 813c c12b 94bd
00000200: 59ad 2ebe 5502 c43b c0bb c53d 6048 9f3d
00000210: b666 01be 4779 933b 3075 333d 7d9c 86bd
00000220: b8cc 24be 2775 cbbd 0624 1f3e 733a f8bd
00000230: 7302 78be c6e6 823c 25cc 28bd 97fd 813d
00000240: d073 ca3d 2ea0 25be 229c 9e3d c198 283e
00000250: 4abe 063e 5891 ab3d 7f8d b33d 453e 4f3e
00000260: a6d0 823e 306f 83be e03f 6f3d 5c72 8cbc
00000270: 403f a4bb 78f6 5dbd 52b9 cbbc 2027 e1bd
00000280: 2670 3d3e 12dc 56bd ae79 093d 7de1 353e
00000290: 0487 40bd 9141 833d a57f c0bd 51a5 473d
000002a0: 2b43 233e 35a1 d23d 2666 dcbd 428c 0a3d
000002b0: b670 613d d4b0 813c 0991 95bc 50ba 603e
000002c0: 9596 89bd e6dd 0bbd 8bf1 86bd b826 f83c
000002d0: ddb1 553d 2a79 58bd d51b 453e 6b26 2abd
000002e0: 64cc 9e3d 5d48 d1bd 4a17 00bd d8bf fcbd
000002f0: 0735 7e3d 5269 c8bd 899a 423e 04ad 2cbd
00000300: a336 10be 670a 63bc 2091 483d 6fe3 98bc
00000310: 1481 f2bb 9274 b3bd 09d4 bd3c 953f c4bc
00000320: ee8c 7dbd 766e bbbd bee4 823c 4906 20bc
00000330: 4578 8e3d ac3d a53d 5bfd 6d3b 0e44 1e3e
00000340: 4ecd 213d 1f85 96bc 0816 7fbd e9bc 243e
00000350: ee33 bb3c 7cba f73d fc8e 4fbd e9fe a03d
00000360: f724 413d 7cc9 03bd 6103 94bd 732b 733d
00000370: ee7c 9ebd 2e43 80bd 8258 53be 38e9 643e
00000380: d63d 113d a361 093e 153a c8be 17ae 3ebd
00000390: 7032 d0bd 3ac8 833c 012b ab3d 39c3 74bc
000003a0: 6e12 c23d 9eac 38bd 0991 1a3b 0eea 21bd
000003b0: fbf2 403d dd25 d23c d7d3 ebbc 8dff 77bc
000003c0: 0016 9e3d 7820 afbd 2ccd 993d 569c 423d
000003d0: 1655 8c3c ed26 4fbe bd20 4cbe 1c1e e73c
000003e0: 90cf 753c 3a19 4cbd 9a53 253d aaa9 26bd
000003f0: 7983 41be 36b3 bebc be0e 503e a84e 2cbc

bias f4 [64]
-0.013978147 -0.13289817 0.0014574869 -0.00048522107 -0.008786235 -0.043172725 -0.011111208 -0.3146147
-0.096950464 -0.03206777 -0.03317568 -0.018398276 -0.17464235 -0.011671484 -0.025008105 -0.119181395
0.026341494 -0.102223404 -0.023060681 0.011994809 -0.09370012 0.17712456 0.014767548 0.0011308523
0.024154976 -0.0646019 -0.08949231 -0.024262331 0.080317795 -0.10308009 -0.18329147 0.12673664
0.014035567 -0.031729687 -0.04808222 -0.076270886 -0.2104818 -0.079954155 0.024116216 -0.055310693
-0.013068752 -0.047787122 0.016786024 -0.00072097435 0.005084263 -0.22814019 0.017507462 0.0036201014
0.005101127 -0.08999 -0.012290074 0.06949109 -0.01355384 0.09976498 -0.027574485 0.19429365
0.14885549 -0.01059761 0.0007439122 -0.2635549 -0.0016073043 -0.009325715 -0.0018933556 -0.12061782
00000000: 9904 65bc 7516 08be 2509 bf3a 4565 feb9
00000010: 24f4 0fbc e2d5 30bd c90b 36bc 2e15 a1be
00000020: f78d c6bd 7e59 03bd 39e3 07bd fbb7 96bc
00000030: 72d5 32be c139 3fbc ccdd ccbc 6015 f4bd
00000040: 1eca d73c 815a d1bd c1e9 bcbc e085 443c
00000050: d9e5 bfbd 2460 353e 96f3 713c 1b39 943a
00000060: a8e0 c53c 004e 84bd bf47 b7bd ccc1 c6bc
00000070: a87d a43d a71b d3bd c2b0 3bbe 40c7 013e
00000080: 6ff5 653c fdf6 01bd ddf1 44bd e933 9cbd
00000090: 8a88 57be 01bf a3bd 5f8f c53c 778d 62bd
000000a0: 521e 56bc 6ebc 43bd d882 893c c5ff 3cba
000000b0: e499 a63b 959d 69be cf6b 8f3c 393f 6d3b
000000c0: 5b27 a73b ad4c b8bd 4e5c 49bc 5851 8e3d
000000d0: ed10 5ebc 9551 cc3d e3e3 e1bc eaf4 463e
000000e0: 936d 183e 99a1 2dbc 1a03 433a abf0 86be
000000f0: 2fac d2ba e2ca 18bc 792a f8ba 7a06 f7bd

weight f4 [32, 64]
-0.04732776 -0.14380936 0.036564462 -0.0011791991 0.23202826 0.082918644 0.010825892 -0.15263765
0.038547836 0.14334956 0.051505458 -0.11501022 -0.021474212 0.035543647 -0.01744706 -0.03809308
0.050976966 -0.05504911 0.25157255 -0.06303205 -0.14177011 -0.14024489 -0.028985215 -0.09532786
-0.04459805 -0.067548305 0.15285306 -0.03312379 -0.14899744 -0.14990246 -0.08524006 -0.20297553
0.14951207 -0.06095213 -0.19645666 -0.008762724 -0.21230434 -0.123872384 0.2691685 -0.25109208
-0.010884128 -0.06452758 -0.08736871 0.039665084 -0.27448723 -0.1979167 0.17646913 -0.058086284
-0.032495644 -0.04191806 0.1463072 0.244225 0.34566647 -0.038314663 -0.02032444 -0.07025434
-0.2167309 0.015533322 0.014018134 0.0094640255 0.07154155 0.01476668 -0.17954354 -0.3365508
0.030432664 -0.031157749 0.084074765 0.2783845 0.3101623 -0.37205845 0.17046924 -0.31453365
-0.12794188 0.08044791 0.17294146 0.23541442 0.077426344 -0.02418891 -0.0007899182 -0.099991105
0.31850415 -0.092227705 0.41336125 -0.25050744 -0.056191787 -0.39607975 -0.07458035 -0.021318743
-0.109994255 -0.38060948 0.17727345 0.072604574 -0.17129521 -0.08885814 0.0737926 -0.42003527
-0.0028555933 0.082215436 -0.29429036 -0.42003703 -0.30273214 -0.22274977 0.06268826 -0.08575336
0.04100633 -0.168067 0.22934853 -0.158101 0.034987576 -0.15140429 0.1408505 0.02190787
-0.06822434 -0.082935646 0.18175566 0.26180577 0.14439927 -0.20489629 -0.07864918 -0.42207387
-0.3869721 -0.010313476 -0.06888543 -0.18917571 0.08289264 -0.15602663 0.059605166 -0.060674105
-0.26966333 -0.0994092 -0.039229188 -0.012136321 -0.064968884 -0.20355949 -0.11202574 -0.045508202
-0.10380275 0.07147586 -0.06489544 -0.02198339 0.054672383 -0.011531933 0.0735611 -0.10947744
-0.21606572 -0.12934312 -0.0982539 -0.07150673 0.03501887 -0.027638026 -0.047696885 -0.0509717
0.17300563 0.036529277 -0.034705043 -0.15118942 0.19723822 0.12697822 -0.031781044 0.26348493
-0.062916316 0.12896611 0.21223642 -0.01755922 0.25313145 0.11043271 0.0059992787 0.13921012
-0.034883138 -0.12737978 0.08281103 -0.13838321 -0.16806889 0.13011108 -0.07287175 0.1213442
-0.092531875 -0.152609 0.11227071 0.019438813 -0.051032737 0.25757793 0.022314612 0.01180958
0.16210505 -0.22900572 -0.11289781 0.048102465 -0.1975054 0.023123167 -0.21568927 0.04978914
-0.046455815 0.061839253 0.2222458 0.1697388 0.18842798 -0.03990822 0.12480902 -0.07759096
0.11655544 0.15184267 0.107133284 0.32385927 0.07997629 -0.0006347279 0.16252014 0.07414745
0.25587606 -0.014310395 0.42809352 -0.008010162 -0.06427095 -0.033545695 0.2475555 0.19802238
0.0017761254 0.00628574 0.014511969 0.19079407 -0.021146022 0.031630058 -0.040962875 -0.18291171
0.3127303 0.25524318 -0.13389242 0.10793455 -0.25015706 -0.09294603 0.03240755 -0.022370128
0.09998453 0.25292203 0.14476681 0.18588324 0.02646264 -0.013461033 0.11106348 -0.14872904
0.12834552 -0.06559609 0.24294837 0.014237923 0.06125428 -0.10190085 0.14721367 -0.1938661
-0.084443614 0.08050952 0.18982129 -0.02843418 0.11450174 0.03570274 0.008297905 -0.020440537
00000000: c1da 41bd c342 13be 9ec4 153d 5b8f 9aba
00000010: d198 6d3e 40d1 a93d 155f 313c 0b4d 1cbe
00000020: 56e4 1d3d 3aca 123e 63f7 523d 7a8a ebbd
00000030: b0ea afbc 3796 113d 23ed 8ebc 7d07 1cbd
00000040: 39cd 503d 2d7b 61bd 1ece 803e f316 81bd
00000050: 2f2c 11be 5b9c 0fbe 6772 edbc 413b c3bd
00000060: 72ac 36bd c456 8abd 8385 1c3e d0ac 07bd
00000070: c992 18be 0880 19be 5792 aebd d1d8 4fbe
00000080: b119 193e f1a8 79bd ef2b 49be 8791 0fbc
00000090: 4f66 59be ceb0 fdbd 74d0 893e 248f 80be
000000a0: 5753 32bc 0927 84bd 5eee b2bd db77 223d
000000b0: 9789 8cbe adaa 4abe 53b4 343e e2eb 6dbd
000000c0: 271a 05bd 46b2 2bbd 8ed1 153e 1e16 7a3e
000000d0: 32fb b03e d6ef 1cbd 717f a6bc 82e1 8fbd
000000e0: b4ee 5dbe 797f 7e3c 51ac 653c 000f 1b3c
000000f0: 6084 923d f2ef 713c 43da 37be 6350 acbe
00000100: ec4d f93c 893e ffbc 642f ac3d 6a88 8e3e
00000110: 98cd 9e3e 727e bebe 7d8f 2e3e 8e0a a1be
00000120: 3203 03be e0c1 a43d 9117 313e 7a10 713e
00000130: b491 9e3d d227 c6bc 8312 4fba 23c8 ccbd
00000140: fa12 a33e e1e1 bcbd 16a4 d33e 8342 80be
00000150: 5c29 66bd f7ca cabe 95bd 98bd a5a4 aebc
00000160: ab44 e1bd 3fdf c2be 2c87 353e b5b1 943d
00000170: 0368 2fbe 42fb b5bd 9320 973d dd0e d7be
00000180: e824 3bbb 9160 a83d 3aad 96be 180f d7be
00000190: b5ff 9abe 8418 64be b462 803d 759f afbd
000001a0: 41f6 273d c119 2cbe 57da 6a3e 3be5 21be
000001b0: 224f 0f3d ba09 1bbe 1d3b 103e 2278 b33c
000001c0: 34b9 8bbd 2ada a9bd 281e 3a3e 680b 863e
000001d0: 67dd 133e 55d0 51be d212 a1bd 111a d8be
000001e0: 3521 c6be dbf9 28bc ce13 8dbd 47b7 41be
000001f0: 9ec3 a93d 72c5 1fbe 8c24 743d 6985 78bd
00000200: 5011 8abe 0d97 cbbd c9ae 20bd 6bd7 46bc
00000210: 680e 85bd e671 50be c06d e5bd cf66 3abd
00000220: 8996 d4bd f061 923d e7e7 84bd 8316 b4bc
00000230: 26f0 5f3d 6ff0 3cbc 34a7 963d b535 e0bd
00000240: 5540 5dbe 8672 04be 5739 c9bd 1f72 92bd
00000250: f26f 0f3d 2469 e2bc cf5d 43bd b4c7 50bd
00000260: 6328 313e b99f 153d e026 0ebd 66d1 1abe
00000270: d1f8 493e 9406 023e d72c 02bd 7fe7 863e
00000280: 45da 80bd b10f 043e 8154 593e 5ad8 8fbc
00000290: 729a 813e 8b2a e23d 9995 c43b 198d 0e3e
000002a0: 9fe1 0ebd d86f 02be d498 a93d 54b4 0dbe
000002b0: 401a 2cbe d73b 053e c93d 95bd 4f83 f83d
000002c0: 5a81 bdbd 8945 1cbe 30ee e53d 253e 9f3c
000002d0: b407 51bd 41e1 833e 22cd b63c f87c 413c
000002e0: defe 253e 7a80 6abe f836 e7bd 1707 453d
000002f0: db3e 4abe cc6c bd3c a6dd 5cbe b2ef 4b3d
00000300: 7448 3ebd 284b 7d3d 6794 633e 02d0 2d3e
00000310: 44f3 403e cd76 23bd df9b ff3d 02e8 9ebd
00000320: 9eb4 ee3d a57c 1b3e b268 db3d e2d0 a53e
00000330: 9cca a33d de63 26ba ae6b 263e 9eda 973d
00000340: 3002 833e 2676 6abc 132f db3e 0e3d 03bc
00000350: 7da0 83bd 3667 09bd 307f 7d3e 61c6 4a3e
00000360: e1cc e83a 9cf8 cd3b 9cc3 6d3c 855f 433e
00000370: 6c3a adbc 858e 013d b0c8 27bd 354d 3bbe
00000380: 301e a03e 3caf 823e 181b 09be ca0c dd3d
00000390: 9614 80be 7d5a bebd c7bd 043d 8f41 b7bc
000003a0: b0c4 cc3d ff7e 813e c03d 143e 2d58 3e3e
000003b0: 2ec8 d83c aa8b 5cbc 4075 e33d 6d4c 18be
000003c0: 026d 033e 3e57 86bd 75c7 783e 2d46 693c
000003d0: c5e5 7a3d 65b1 d0bd 2ebf 163e d684 46be
000003e0: c6f0 acbd 2de2 a43d 8360 423e ccee e8bc
000003f0: e37f ea3d 093d 123d f0f3 073c ea72 a7bc

bias f4 [32]
-0.035663772 0.03314654 0.17792591 0.039820526 0.086531304 -0.16416112 0.08858375 0.013077147
0.06570868 0.047810916 0.035556387 0.045946587 0.06933013 -0.34246248 0.027805982 -0.24446847
0.15305443 -0.09211813 -0.01967841 -0.1340386 -0.083624445 0.10141994 -0.11147943 -0.23314866
0.08326356 -0.104580395 0.14265108 0.06399442 0.04786414 -0.0028953915 0.08023805 -0.41038284
00000000: 2d14 12bd abc4 073d 3632 363e d91a 233d
00000010: 5337 b13d da19 28be 666b b53d 8841 563c
00000020: 4692 863d 61d5 433d 93a3 113d 7d32 3c3d
00000030: f5fc 8d3d 3e57 afbe 5fc9 e33c f155 7abe
00000040: 4dba 1c3e 6ea8 bcbd 9e34 a1bc 6a41 09be
00000050: 4b43 abbd 42b5 cf3d 544f e4bd 86be 6ebe
00000060: 1686 aa3d 3f2e d6bd 2013 123e 820f 833d
00000070: 300d 443d 9cc0 3dbb d953 a43d b31d d2be

weight f4 [32, 32]
-0.121123046 -0.14887488 -0.1886825 -0.09561937 0.08648163 -0.018593464 -0.29082894 -0.15645406
-0.20427237 -0.09535035 -0.16657035 -0.14594902 -0.14836745 -0.14302662 -0.18871377 -0.028467724
-0.20255966 0.00317746 0.080725364 0.20617755 -0.018600097 -0.19533606 -0.11176808 -0.17323443
-0.26488322 0.026416553 -0.13255887 -0.09904031 -0.033621915 -0.23123522 -0.09862261 -0.16471611
-0.119230784 -0.026718406 -0.23963411 -0.15514524 -0.17486025 -0.080256395 0.025039325 0.025616556
-0.032826215 -0.41621205 -0.1367609 0.10647105 -0.05300402 0.07055035 -0.08719655 -0.021163685
-0.16211918 -0.05978894 -0.030606294 0.15430088 0.036385953 -0.09397073 -0.22120419 -0.06714842
-0.16265753 -0.00539792 -0.19824249 -0.119809516 0.21558979 -0.22600646 -0.21654353 -0.057679348
0.24877554 0.15545838 -0.008519484 0.14119813 -0.05910835 -0.06433065 -0.055383865 0.031409472
0.13481487 -0.5215061 0.09626061 0.1654553 0.08002941 -0.15011536 -0.11815917 -0.09031085
-0.12602739 0.056761328 -0.0042268448 0.124486364 -0.16984725 0.09044228 0.032590497 0.022268647
-0.32212475 -0.2086926 -0.15946211 -0.25449273 -0.44141626 0.005008513 0.05788797 -0.18860981
-0.035077263 -0.008692585 -0.069609605 -0.122669 0.06026264 -0.004046589 -0.1905722 0.049469654
-0.015920024 0.04007969 0.024736261 0.015698291 0.011443609 -0.18901162 -0.07581872 -0.15009162
0.065799855 -0.14143196 -0.08939952 0.112099886 -0.069306284 -0.12471648 0.03502042 -0.14698665
-0.20885713 -0.12258456 -0.1677353 -0.25162116 -0.04477121 -0.09997895 -0.14855431 -0.093257554
-0.1556574 0.0866081 -0.16059078 -0.062303625 -0.13239591 -0.12514672 -0.17055738 -0.15188524
0.036712747 0.05611782 -0.15621677 0.048982117 -0.11166556 -0.12961902 -0.17216301 0.058556166
-0.060657848 0.047916815 0.10100892 0.016247736 0.103977546 -0.09599745 -0.07614339 -0.003096454
-0.012474843 -0.14139451 -0.07544524 0.038536806 0.004725522 -0.115035206 0.051024787 -0.07304984
0.106251664 -0.17035034 -0.036527466 -0.24935986 0.16029738 -0.086005285 -0.16593453 0.024310429
-0.20082678 -0.3216231 -0.14216478 -0.015183914 0.05449072 -0.13750586 -0.16187662 -0.14356
-0.037830986 -0.042934336 0.009599265 -0.16776365 -0.19692996 -0.119572766 -0.040054817 -0.3501504
-0.35961547 -0.019611686 0.052754596 -0.19334169 -0.19397937 -0.117782675 0.08692896 -0.094042145
0.16214612 0.13064298 -0.17396165 0.0014318902 -0.24925211 -0.03999226 -0.23752949 0.10237434
0.03170591 -0.38487265 0.13486151 0.07640479 -0.057185337 -0.1952881 0.26892465 -0.12583189
-0.37709048 -0.127401 0.052140653 -0.09890158 0.086716734 0.10052272 -0.19778721 -0.31591707
-0.29960796 -0.07408839 -0.25003102 -0.254418 -0.32912618 0.21733263 0.2173056 -0.28995588
-0.02237145 -0.0787443 -0.012247186 -0.09592859 0.11399614 -0.15038714 -0.5337174 0.06511332
-0.28349552 -0.4887188 0.0901022 -0.24269627 -0.14038257 -0.19388726 -0.04044679 -0.14154275
-0.1948419 0.009291099 0.20347162 0.042167135 -0.016436355 -0.22815295 -0.08612185 -0.09497576
-0.217932 0.0012924809 -0.19776803 -0.15258779 -0.15410268 0.17454767 0.11288557 0.12247826
00000000: 5c0f f8bd a872 18be fc35 41be 17d4 c3bd
00000010: 481d b13d 5251 98bc 88e7 94be 7e35 20be
00000020: c72c 51be 0b47 c3bd 6b91 2abe a973 15be
00000030: a3ed 17be 9275 12be 2f3e 41be 2535 e9bc
00000040: cd6b 4fbe ef3c 503b 5753 a53d 3520 533e
00000050: 3b5f 98bc 2d06 48be aae6 e4bd 5e64 31be
00000060: c69e 87be 8767 d83c 83bd 07be a5d5 cabd
00000070: 22b7 09bd edc8 6cbe a7fa c9bd 57ab 28be
00000080: 452f f4bd 8fe0 dabc a562 75be 65de 1ebe
00000090: 910e 33be 775d a4bd 451f cd3c d0d9 d13c
000000a0: c874 06bd bf19 d5be 0d0b 0cbe 7e0d da3d
000000b0: be1a 59bd b47c 903d 1b94 b2bd 775f adbc
000000c0: 9202 26be 3fe5 74bd 0dba fabc 0d01 1e3e
000000d0: 7009 153d ba73 c0bd 5a83 62be 1c85 89bd
000000e0: b28f 26be 09e1 b0bb 1400 4bbe b15e f5bd
000000f0: 92c3 5c3e 3d6e 67be 96bd 5dbe 2e41 6cbd
00000100: 04bf 7e3e 7b30 1f3e 4e95 0bbc 3e96 103e
00000110: 991b 72bd cabf 83bd 31da 62bd 38a7 003d
00000120: e90c 0a3e 6c81 05bf 4824 c53d 1d6d 293e
00000130: 76e6 a33d d7b7 19be 6ffd f1bd e5f4 b8bd
00000140: 530d 01be 917e 683d 5881 8abb b5f2 fe3d
00000150: 70ec 2dbe cd39 b93d 9d7d 053d bd6c b63c
00000160: 89ed a4be 83b3 55be 094a 23be df4c 82be
00000170: 5001 e2be 741e a43b f01b 6d3d ee22 41be
00000180: 2dad 0fbd 586b 0ebc 7b8f 8ebd e239 fbbd
00000190: f5d5 763d 4099 84bb 5c25 43be b1a0 4a3d
000001a0: b66a 82bc 9a2a 243d b3a3 ca3c b499 803c
000001b0: fa7d 3b3c 438c 41be d846 9bbd 9eb1 19be
000001c0: 13c2 863d 8ad3 10be 1817 b7bd a094 e53d
000001d0: 74f0 8dbd 5b6b ffbd 9271 0f3d ab83 16be
000001e0: a5de 55be 9d0d fbbd cdc2 2bbe 7dd4 80be
000001f0: 0462 37bd c4c1 ccbd 9f1e 18be d1fd bebd
00000200: a764 1fbe 965f b13d e971 24be 1632 7fbd
00000210: cb92 07be 7626 00be 98a6 2ebe ce87 1bbe
00000220: 1b60 163d cddb 653d 4af7 1fbe 79a1 483d
00000230: eab0 e4bd d9ba 04be 804b 30be 97d8 6f3d
00000240: 5d74 78bd 6c44 443d c4dd ce3d f919 853c
00000250: 2ef2 d43d 509a c4bd 11f1 9bbd e1ed 4abb
00000260: 4963 4cbc b9c9 10be 0983 9abd c5d8 1d3d
00000270: 8dd8 9a3b 9497 ebbd 5eff 503d 289b 95bd
00000280: 799a d93d 5270 2ebe d39d 15bd 3158 7fbe
00000290: ff24 243e 8a23 b0bd beea 29be aa26 c73c
000002a0: 89a5 4dbe c8ab a4be a593 11be f4c5 78bc
000002b0: a931 5f3d 56ce 0cbe fcc2 25be 6501 13be
000002c0: aaf4 1abd eadb 2fbd 3c46 1d3c 3cca 2bbe
000002d0: 02a8 49be 91e2 f4bd 8510 24bd ea46 b3be
000002e0: 851f b8be b0a8 a0bc 3415 583d 5dfb 45be
000002f0: 87a2 46be 0b38 f1bd d007 b23d 2b99 c0bd
00000300: a209 263e 46c7 053e 0123 32be 43ae bb3a
00000310: f23b 7fbe edce 23bd ee3a 73be a3a9 d13d
00000320: 0ede 013d 070e c5be 2319 0a3e 1d7a 9c3d
00000330: 2c3b 6abd 9bf9 47be 7eb0 893e 13da 00be
00000340: 0112 c1be 6875 02be 7091 553d e98c cabd
00000350: 8b98 b13d dbde cd3d bb88 4abe e2bf a1be
00000360: 3766 99be a7bb 97bd 1104 80be 1343 82be
00000370: 3a83 a8be 728c 5e3e 5c85 5e3e 1975 94be
00000380: 5544 b7bc b144 a1bd 6ca8 48bc 3576 c4bd
00000390: cf76 e93d 16ff 19be b4a1 08bf 225a 853d
000003a0: 5326 91be 5a39 fabe 8187 b83d 5f85 78be
000003b0: 73c0 0fbe 628a 46be 89ab 25bd 95f0 10be
000003c0: a384 47be b239 183c dd5a 503e 72b7 2c3d
000003d0: 89a5 86bc eda0 69be a760 b0bd a782 c2bd
000003e0: 9129 5fbe 7668 a93a b483 4abe f93f 1cbe
000003f0: 18cd 1dbe a0bc 323e 8d30 e73d e2d5 fa3d

bias f4 [32]
0.037395056 0.03457804 0.124617584 -0.20959216 -0.27406183 -0.025462821 0.09515553 0.06827075
0.13540025 -0.2775206 -0.3268012 -0.28023857 0.21225505 0.10726719 0.03382691 0.041061856
-0.024880148 0.16409594 -0.21101451 0.15787187 0.1297706 0.15534562 0.16920839 -0.061206438
0.08304052 -0.21768372 0.107977286 -0.14573526 -0.009172773 -0.23922871 0.025641268 -0.040828027
00000000: 8f2b 193d b4a1 0d3d 8137 ff3d 549f 56be
00000010: d551 8cbe 6897 d0bc e7e0 c23d 89d1 8b3d
00000020: 5da6 0a3e 2e17 8ebe 7d52 a7be 6e7b 8fbe
00000030: 6359 593e e7ae db3d 168e 0a3d 7a30 283d
00000040: 74d1 cbbc c408 283e 3014 58be 2aa9 213e
00000050: 96e2 043e ec12 1f3e f744 2d3e 9ab3 7abd
00000060: 2611 aa3d 7be8 5ebe 3223 dd3d a03b 15be
00000070: 6649 16bc 5ff8 74be a30d d23c 4a3b 27bd

weight f4 [1, 32]
0.07267011 0.034348726 -0.061822854 -0.0021062088 0.03268136 0.022315148 -0.13029492 0.10513677
-0.0720097 -0.02386291 -0.017488962 -0.02134695 -0.093068466 -0.08357107 -0.13185243 -0.24854659
-0.08626525 -0.118286125 0.00359462 -0.09392652 -0.098805115 -0.07383165 -0.12380474 -0.06340894
-0.15916722 -0.008536128 -0.12958644 0.016223863 -0.007733163 0.070659615 -0.09859174 -0.010625556
00000000: 11d4 943d 40b1 0c3d f639 7dbd 5208 0abb
00000010: e4dc 053d 42ce b63c 086c 05be f251 d73d
00000020: d279 93bd 267c c3bc 0345 8fbc cddf aebc
00000030: ae9a bebd 4f27 abbd 5304 07be ff82 7ebe
00000040: d6ab b0bd ff3f f2bd b793 6b3b 8c5c c0bd
00000050: 565a cabd 0c35 97bd 578d fdbd 8cdc 81bd
00000060: bbfc 22be 1edb 0bbc 4fb2 04be e8e7 843c
00000070: 7966 fdbb fdb5 903d 77ea c9bd d016 2ebc
