nnTraining/best_model.pt (torch, 196379 bytes, 11 tensors)

weight f4 [256, 9]
000000 81 52 e4 bd c1 45 9f be 6e 98 3f be af 45 dd 3e
       -0.11148549 -0.31107906 -0.18710491 0.43217227
000010 ae 86 24 bd 92 5b 6b bf 8e ae 42 3d 21 32 43 bf
       -0.040167503 -0.919366 0.04752975 -0.76248366
000020 97 47 e1 be 60 95 b8 be a0 ee 34 3f a2 cd d4 3b
       -0.4399993 -0.36051464 0.7067661 0.00649424
000030 68 ac ad 3d e9 3d 86 3e 30 13 8c bb 5a 79 a3 bd
       0.084801495 0.2621911 -0.0042747483 -0.0798213
000040 c4 a8 3f 3d 83 31 38 3e 48 1b b0 bc 30 89 d0 be
       0.046791807 0.17987637 -0.021497384 -0.40729666
000050 5c fd 34 3d e1 37 38 bf 65 fe 36 3f 30 82 37 3e
       0.044186935 -0.71960264 0.71481925 0.17920756
000060 a1 19 0c 3e 1f 63 84 be 35 64 d3 3e 81 76 cb be
       0.13681652 -0.25856873 0.4128739 -0.3973885
000070 81 ed 93 be 22 8c 28 bf 2c 14 30 be 8b 8a b1 be
       -0.2889214 -0.65838826 -0.17195195 -0.34676012
000080 eb c5 f8 3e 7c af 1a be ac f4 b4 3e 0a 83 31 bd
       0.485885 -0.15106004 0.3534292 -0.04333786
000090 e4 28 2c be 57 bd 31 bf 0d da 66 bf 67 9c a2 bc
       -0.16812474 -0.69429535 -0.9017647 -0.01984997
0000a0 ea 10 d3 3e 56 23 04 3d 59 22 ac bd cf a6 37 3f
       0.41223842 0.03226026 -0.08404989 0.71738905
0000b0 b4 b4 ba bd 7b 30 4b be a1 b1 87 3f ee bc ad be
       -0.09116498 -0.19842713 1.0601083 -0.33933204
0000c0 ac 0a 9a 3e eb 69 9f 3e 61 4d 96 be 3f a3 0a bf
       0.30086267 0.31135496 -0.2935591 -0.54155344
0000d0 74 6c 98 bd f3 9e bb 3e d8 16 ee bd 87 9c 25 3e
       -0.07442561 0.36644706 -0.11625451 0.16172992
0000e0 83 19 60 bf 75 66 e4 bc b4 5d eb be 82 6c 17 3f
       -0.8753893 -0.027880887 -0.45969927 0.59149945
0000f0 f9 96 3d 3e 94 9b 4c 3f 45 0e 1f 3e 35 4c 89 3e
       0.18514623 0.79924893 0.15532787 0.26815954
000100 c2 4d 2b 3e 19 14 3b bf f9 2d 86 be f5 00 cc 3c
       0.16728881 -0.7307754 -0.2620695 0.0249028
000110 7b e5 a4 be 0f 37 90 be 61 3b 8b be 40 3d bb 3e
       -0.3220633 -0.28167006 -0.2719374 0.36570168
000120 19 43 a5 3e 76 42 5d 3f 25 8d 3a bd 50 28 19 be
       0.32277754 0.86429536 -0.045544762 -0.14956784
000130 de cc 96 3e 73 d5 b0 3c 1b 6a 6d 3e 9d 7a a8 bd
       0.29453176 0.021586156 0.23185007 -0.082265116
000140 8a c4 be be 98 08 09 3d 34 a9 31 3f 6a 7c 00 3f
       -0.37259322 0.03345546 0.6939881 0.5018984
000150 c5 99 02 be 5c 8f 42 3e fb ed 6b 3d 0b bf 87 3e
       -0.12753971 0.19 0.057600003 0.26512942
000160 5c bd 5b 3e 10 df c9 be ff fd 4b 3e 4f c2 07 bd
       0.21458954 -0.39427996 0.1992111 -0.03314429
000170 09 92 bc be dd d0 1d bf 65 37 d2 bc f0 a0 00 3d
       -0.36830166 -0.61646825 -0.02566118 0.031403482
000180 bc 08 de bd af a7 3f 3f cf f7 96 3e 75 f2 17 bd
       -0.1084151 0.7486524 0.29485938 -0.03709646
000190 64 8d 2d 3f 0c 7c 34 3e a3 9f 56 bb 0f 7a 77 be
       0.6779387 0.17625445 -0.003274896 -0.24167655
0001a0 52 a9 56 bd 75 a7 ae 3e 1a b9 9c be 7d 1a 3d bd
       -0.05240757 0.34112135 -0.3060997 -0.04616784
0001b0 f4 e4 d5 bd d5 42 4b bf 2d b8 c5 bc 71 39 8e be
       -0.1044406 -0.7939885 -0.024135673 -0.277782
0001c0 39 67 d9 be 85 27 91 be cc 84 76 be 82 0f 9a 3e
       -0.42461565 -0.28350464 -0.24074095 0.30089957
0001d0 ac 3a bb 3d 99 c9 69 be 4c 6e f5 be d7 23 ae bd
       0.0914205 -0.2283081 -0.47935712 -0.0850293
0001e0 80 ed cd be 58 87 33 bb b2 14 ab bd 9a a8 28 be
       -0.4022026 -0.0027393904 -0.08353557 -0.16470566
0001f0 42 36 87 bf 5b bf 04 be 2f 2d 46 bd d1 62 46 bf
       -1.0563433 -0.12963621 -0.048382934 -0.7749453
000200 20 98 ca 3e d4 65 c5 3d 95 5e da 3e f9 9c 75 be
       0.39569187 0.09638563 0.42650285 -0.23985662
000210 14 66 d8 ba 19 bb f0 be 4b 77 59 3b a9 bc 4e 3c
       -0.0016509914 -0.47017744 0.0033182676 0.012618222
000220 b7 2f 03 3f fa b7 70 3f 5e e5 72 3e 34 d5 e7 be
       0.5124468 0.94030726 0.23720309 -0.4527985
000230 4e 16 58 bf 91 67 49 be 44 aa 05 bf 64 0b 85 be
       -0.84409034 -0.19668414 -0.5221293 -0.25985253
000240 ca 1b d7 3d 6d 31 d6 3d 42 4f d5 bd db 68 83 3e
       0.10503347 0.10458646 -0.10415508 0.25665936
000250 c0 98 a5 3d 7a 34 3b bd 21 16 d5 be a1 cc 27 bd
       0.080857754 -0.045704342 -0.41618446 -0.040966634
000260 02 a6 43 3e b8 13 fd 3c 9a 9c eb 3d 1d ca d3 be
       0.19106296 0.030893192 0.11504479 -0.41365138
000270 af 51 39 bd f7 c8 e9 be f1 cd 8f be 7d 94 69 be
       -0.045243915 -0.45661137 -0.28086808 -0.2281055
000280 d5 ba fa 3e 10 c6 79 3e 22 ea 6b 3d 39 3e b9 3d
       0.48970667 0.24391961 0.057596333 0.09045071
000290 c8 96 49 be ad 2a 76 be 53 1b 33 be 19 61 46 be
       -0.19686425 -0.24039717 -0.17490892 -0.19372977
0002a0 22 88 91 be e7 6d 42 3f bd 68 54 3e d8 cd b8 be
       -0.28424174 0.7594895 0.2074308 -0.36094546
0002b0 fd 9a a8 be 99 b5 b5 be 9a 34 19 be 39 f0 23 3f
       -0.32930747 -0.3549011 -0.14961472 0.64038426
0002c0 82 83 aa 3d de 9a 2c 3e ce 35 bc be 81 2a 81 bd
       0.083258644 0.16855952 -0.367598 -0.06306935
0002d0 5f cd 3b be 64 e5 ee 3d 16 1e 55 bf 98 90 9c 3f
       -0.18340062 0.116648465 -0.8324903 1.2231627
0002e0 c2 33 88 be 3f cb 85 be 10 4a aa be 45 cc 21 3d
       -0.26601988 -0.26131627 -0.3325963 0.039501447
0002f0 b5 cc ef 3d f7 ff 84 be 29 81 3a 3f 4f ee e0 3d
       0.11708967 -0.25976536 0.7285333 0.10982954
000300 b4 4e 43 3e 38 58 19 3f e0 54 f3 bd 9e 8f 05 bf
       0.19072992 0.59900236 -0.11881423 -0.5217227
000310 61 87 4f 3d 67 9e d6 bd 7c 8c 5c be 71 bd 85 3e
       0.050666217 -0.104794316 -0.21537966 0.26121095
000320 a8 e0 8b bf 18 5d 8d be bf 37 56 be e5 76 27 3f
       -1.0927935 -0.27610087 -0.20919703 0.65415794
000330 d7 a8 18 3e f1 46 90 3d 40 9f fc 3d d5 e6 83 bd
       0.14908157 0.07044781 0.12335062 -0.06440512
000340 0a 86 3d 3c 84 90 ab 3e 8d b4 29 3f 16 0d c8 be
       0.011567602 0.33508694 0.66291124 -0.39072484
000350 12 77 77 3e d7 7b 44 3e 2b a9 e9 3d 6d 63 e7 be
       0.24166515 0.19187866 0.11409219 -0.45193043
000360 ae c9 21 be 54 7e e6 be 45 f9 84 3e 2a ba 4c bf
       -0.15799591 -0.45018256 0.25971428 -0.79971564
000370 34 c9 5d be d4 8c 32 be fc 2c 25 3e e0 3a 43 bd
       -0.21658784 -0.17436534 0.16130441 -0.04766357
000380 69 b9 f6 3e ce 46 28 3e 2d 32 e9 3c b4 d3 3e 3f
       0.48188332 0.1643326 0.028466308 0.74541783
000390 1a 68 c7 be 77 55 dd bd c9 df d7 bd 8a 39 0b 3e
       -0.3894661 -0.10807317 -0.105407305 0.13596168
0003a0 43 59 6f bc 4f 37 d8 3e 53 83 89 3e e2 42 61 bf
       -0.014608684 0.42229697 0.26858005 -0.8799268
0003b0 de 9a 84 bd b6 b9 d8 be 25 60 81 3d a5 fb 14 3d
       -0.06474851 -0.42329186 0.06317166 0.0363728
0003c0 31 0a 76 be 0b 1c 38 bd 02 59 b6 bb 9b ff 9f be
       -0.24027325 -0.04494862 -0.00556481 -0.312497
0003d0 44 66 5b bf 7b a4 bd bd b5 1c 08 be 49 23 68 3e
       -0.8570292 -0.09259888 -0.13292201 0.2266971
0003e0 56 43 e1 3e dc e2 12 be cf 02 d1 3e 7d 8d 9d 3e
       0.43996686 -0.14344352 0.40822455 0.3077201
0003f0 00 89 3c bd 9b 87 72 be 88 b1 cb bd bc c5 4f be
       -0.04602909 -0.23684542 -0.09945971 -0.20290273

bias f4 [256]
000000 ff 75 69 3d 56 0a 7d 3e e7 fd e5 bd 48 7e a6 3e
       0.056997295 0.24710974 -0.11230069 0.3251822
000010 2f 62 32 3e 23 42 40 3e 00 dc 65 3d 5a 0f c8 be
       0.17420267 0.18775229 0.05611801 -0.39074212
000020 41 7e b7 be cf 57 e7 bd 37 d0 25 be c2 38 57 be
       -0.35838512 -0.11296045 -0.16192709 -0.21017745
000030 7f a9 1d bc b1 1e ff 3d 8a cd c2 bc a8 d9 ed bd
       -0.009622931 0.12457026 -0.02377965 -0.1161378
000040 80 31 8c be aa 32 48 be a3 47 97 be 67 b0 93 3e
       -0.27381516 -0.19550577 -0.29546842 0.28845522
000050 9f a0 45 3e ba f3 e6 3d 03 8b ff 3d 57 07 b7 bc
       0.19299553 0.11276956 0.12477686 -0.022342367
000060 d4 7e ad 3d 23 6c 59 be df 14 78 be 2b 5d 8c 3e
       0.08471456 -0.21232657 -0.24226712 0.27414832
000070 a5 49 a1 39 24 c8 8f be 37 57 ae 3d d7 ae 82 3d
       0.00030763182 -0.28082383 0.08512729 0.06381004
000080 3e f3 88 3d 16 96 3f 3d 6a 47 47 3e e5 a9 aa 3d
       0.0668702 0.046773992 0.19460836 0.08333186
000090 ca 74 8b bd 1a 90 3e be 17 3a 34 be 02 0b 0b be
       -0.06809385 -0.18609658 -0.17600285 -0.13578418
0000a0 16 a8 a7 be e7 7a 42 be 3b 28 1b be 10 1e d8 bd
       -0.32745427 -0.18992196 -0.15152065 -0.10552609
0000b0 56 47 b7 be 43 ef 1d be 38 4d da bd 20 38 56 be
       -0.35796613 -0.15423302 -0.106592596 -0.20919847
0000c0 70 75 55 be 02 a7 09 bd 8d 2d 5d be 79 a2 7f 3e
       -0.2084558 -0.033606537 -0.21599407 0.24964322
0000d0 ee 34 8c 3e a7 20 55 be 9e 7b 62 3d 65 60 b4 be
       0.27384132 -0.20813237 0.05529367 -0.35229793
0000e0 c9 d8 82 3d 78 22 7f 3e 76 a4 80 bd 33 a4 01 3d
       0.06389005 0.24915493 -0.062813684 0.031650733
0000f0 0e b3 e9 bd d8 55 b2 3d cf fc 8d be 91 f7 83 be
       -0.11411105 0.0870778 -0.2773194 -0.25774816
000100 d0 a5 3b be 1f dc a1 3e 37 07 c3 bb 84 7c 80 be
       -0.18324971 0.31613252 -0.005951788 -0.25094998
000110 20 64 51 be 8d 03 82 3d 72 1e 34 bd c0 01 cd be
       -0.20448351 0.063483335 -0.043974347 -0.40040398
000120 df 5c bf be 2d c4 83 be 7c 85 a6 bd 4b c1 27 be
       -0.37375543 -0.25735608 -0.08130929 -0.16382329
000130 8a dd 4e 3d c1 67 79 3e ee aa 85 3e 72 33 66 3e
       0.050504245 0.24355985 0.26106972 0.22480562
000140 13 e1 b1 bd 5e 8e 66 3e 69 56 b1 3e 7a 43 1e be
       -0.086855076 0.22515246 0.34636238 -0.15455428
000150 fe 99 20 3e 51 0d 90 3e af ca ee bd dd db 9d bc
       0.15683743 0.2813516 -0.116597526 -0.019269878
000160 26 ab 83 bd 92 a6 81 3e 92 8c d9 3d 4c e2 0e be
       -0.06429128 0.25322396 0.10622515 -0.13953513
000170 63 cb 9e be 66 a5 a8 3c a8 47 b8 bd dd bb c8 3d
       -0.31014547 0.02058668 -0.08998042 0.09801457
000180 b2 b1 91 be cd e8 ab be 9f 6f d1 be de 2e 20 3e
       -0.28455883 -0.3357605 -0.40905473 0.15642878
000190 61 8f 58 be 4f 87 f0 3d 26 7c cb bd 85 01 b8 be
       -0.21148445 0.11744558 -0.09935789 -0.3593866
0001a0 84 67 96 3e 3b 61 0e 3e 9e 35 78 be 34 d9 16 3c
       0.2937585 0.13904278 -0.24239203 0.009207059
0001b0 95 80 17 be 2d c3 98 be 35 76 e2 3d 96 c9 68 3e
       -0.14795144 -0.29836407 0.110577025 0.22733149
0001c0 e4 e4 5a be f2 ac 89 3d 57 d3 ad 3c 29 d7 d2 be
       -0.21376377 0.0672244 0.021218939 -0.4117978
0001d0 a7 24 37 3e ea 72 83 3c 46 20 92 be 00 c5 74 be
       0.17885076 0.016046006 -0.28540248 -0.23903275
0001e0 e3 6c 0f be a1 6f 47 be 6f e9 c4 be 85 51 25 be
       -0.1400638 -0.19476177 -0.38459346 -0.16144378
0001f0 36 fa 2c 3d 74 72 72 be ea 9b 25 be 20 71 a9 be
       0.042230807 -0.23676473 -0.16172758 -0.3309412
000200 91 75 17 be 2a b5 54 be 68 90 b9 3c 3f f1 59 3d
       -0.14790942 -0.20772234 0.022651866 0.053208586
000210 cf ab d3 be 3f 1b d6 bc b3 27 b0 be 89 70 91 3e
       -0.41342017 -0.026136039 -0.34405288 0.2840617
000220 55 4c 94 be fe a1 a0 3e 5a fe 00 bc 71 95 9b bd
       -0.28964487 0.3137359 -0.007873142 -0.07596863
000230 d3 d4 93 be 99 44 a0 be 8b be 6b 3e f1 98 5c bd
       -0.2887331 -0.31302336 0.23021905 -0.053856794
000240 b1 39 90 bd da 74 2d 3e 24 d6 22 be c0 f7 66 bd
       -0.07042254 0.16939107 -0.15902 -0.056388617
000250 20 df 44 3d ba d0 14 3e 60 0e 51 3c 70 8e 8d bd
       0.04806435 0.14532748 0.012759775 -0.069119334
000260 93 9a 93 3e b2 1e 4a be c3 7a 8f 3e 0e d4 5c be
       0.28828868 -0.19738272 0.28023347 -0.21565267
000270 9d 8f cc bc 27 fc 87 3c 3b 84 8e 3d cc 6e 43 be
       -0.024970824 0.016599728 0.06958815 -0.19085234
000280 02 52 a4 3e 48 02 d6 3d 25 69 6c be bb 1f 9d be
       0.32093817 0.10449654 -0.23086984 -0.3068827
000290 7d 3d d7 3d 58 d7 e2 3d dc 2b c8 bd eb b0 88 be
       0.10509775 0.1107623 -0.097739905 -0.26697478
0002a0 fa e4 04 3e 0a bb b2 3d 13 61 78 3e 34 9e 72 bd
       0.12977973 0.08727081 0.24255781 -0.059232906
0002b0 3e 93 6c bd b3 25 74 3c 53 81 01 be 8c 95 82 be
       -0.05775761 0.014901566 -0.1264699 -0.2550472
0002c0 0c c2 af 3d cf 50 cb 3c b6 2c 29 be 00 15 97 be
       0.085819334 0.024818806 -0.16520962 -0.2950821
0002d0 e0 2d 07 be 8b 6a 94 be dd 09 fc 3b 09 a1 89 bd
       -0.13201094 -0.28987536 0.0076916055 -0.06720168
0002e0 e3 60 51 be 28 c0 2d bd 5c 72 8e be a2 e3 ed bd
       -0.20447116 -0.042419583 -0.27821624 -0.11615683
0002f0 5f 3d 89 3d 2b 67 dd bd c2 87 07 bf 25 e8 9d 3d
       0.06701159 -0.10810693 -0.52941525 0.07710294
000300 29 b7 3b 3b b9 7a b7 3d 3f cb b1 be c8 6a 26 bc
       0.0028643108 0.08958954 -0.34725377 -0.010157295
000310 0f 39 97 3d 01 d6 8a be b4 83 38 be 81 8d 99 be
       0.0738393 -0.27116397 -0.18018991 -0.2999077
000320 98 e0 7b be 9d 61 ed bc 3e e6 cf bc e5 63 ed bd
       -0.24597394 -0.02897721 -0.025378343 -0.11591319
000330 fa a4 e2 3c cb 16 38 be 29 7a 31 be 57 70 b2 bc
       0.027666558 -0.17977445 -0.17331757 -0.021782083
000340 00 d7 66 bd 93 53 b0 be f4 59 11 bd 97 9b 82 bd
       -0.056357384 -0.34438762 -0.035486177 -0.06377333
000350 4f 33 ee be b1 44 63 3d ec d8 35 bc 14 6c 87 bd
       -0.4652352 0.05548543 -0.0110990815 -0.06612411
000360 75 0b a1 bd c6 6e 5d 3c c2 31 e7 3d 33 ed c8 bd
       -0.078635134 0.01351518 0.112887874 -0.09810867
000370 64 eb ac 3e c5 21 45 3e 49 e1 a9 3d 00 d5 7c 3e
       0.3377334 0.19251163 0.08294923 0.24690628
000380 81 07 82 be 78 28 d2 bd 21 b1 80 3e 4a c9 ac bd
       -0.2539635 -0.10261625 0.2513514 -0.0843683
000390 e9 8e 31 be 9d 5d 84 bd b3 1b 82 be c9 7b 2d bd
       -0.17339672 -0.06463168 -0.25411758 -0.04235438
0003a0 49 36 14 3e 55 a7 5e 3d 09 79 31 be c4 38 99 be
       0.14473833 0.0543588 -0.17331327 -0.2992612
0003b0 09 f8 a0 3d a2 65 98 3b 2f d9 83 bc 56 f3 0c be
       0.07859809 0.0046507875 -0.016094772 -0.137647
0003c0 df bf e8 bd 96 7a 00 bd 52 71 76 be 1a 89 e6 bd
       -0.113647215 -0.031366907 -0.24066666 -0.11256619
0003d0 4b 2b 10 be 04 ac 3c be b2 2a bd 3c a6 5b a4 be
       -0.14079015 -0.18424994 0.023091648 -0.32101172
0003e0 90 bf 96 3d 7e 80 8c be ed f9 ef bd 08 87 26 be
       0.073607564 -0.27441782 -0.117175914 -0.16262448
0003f0 f0 d9 43 3d 1d 1b cf bd ac b8 01 3e 80 e7 27 3a
       0.047815263 -0.10112593 0.12668103 0.00064050406

weight f4 [128, 256]
000000 d7 1c 3a 3e 40 dd 8f bd 9c d5 e9 3d 22 39 0e bf
       0.18175064 -0.07024622 0.11417696 -0.5555593
000010 d0 37 0b be 03 e0 85 3d 26 f5 61 be 46 d5 04 3e
       -0.1359551 0.065368675 -0.22066173 0.12971982
000020 eb 59 7f be 20 58 17 bf 8a e4 16 3d 8b c8 f8 3d
       -0.24936645 -0.59118843 0.036839046 0.121476255
000030 17 9d 9f be 1c f9 fd 3c 3b ac 89 3e d7 e7 14 3d
       -0.31174538 0.031002574 0.26889214 0.036353912
000040 2a 09 c0 bd b7 0a a7 be c7 b6 60 be ac 2b 55 3e
       -0.09376748 -0.32625362 -0.21944724 0.20817441
000050 b1 67 28 3e 9a 94 f1 bd 19 ec 23 bf 4d 24 25 be
       0.16445805 -0.117959216 -0.6403213 -0.16127129
000060 63 53 a0 bd 3e 2c 3f 3d 6c ab e6 3c 1e 52 7c bd
       -0.07828405 0.046673052 0.028157912 -0.06160175
000070 1c 38 17 bd 2d d6 82 be 01 75 27 bf 1b 4b 9e 3e
       -0.036918744 -0.25554028 -0.6541291 0.30916676
000080 62 a9 87 bf 82 a6 96 be bd 96 9a bd 69 f5 71 ba
       -1.0598567 -0.2942391 -0.07548282 -0.00092299894
000090 d4 c2 07 be 32 f5 85 3b df 6a 43 be 7d 96 06 bf
       -0.13257915 0.0040880674 -0.19083737 -0.52573377
0000a0 98 85 68 3c 69 c2 aa 3e 62 a8 7d be e8 4c d9 bd
       0.0141920075 0.33351448 -0.24771264 -0.10610372
0000b0 37 ea 1f 3e 08 e3 80 be 70 22 b0 be 62 03 36 be
       0.1561669 -0.2517321 -0.34401274 -0.17774728
0000c0 51 e4 c4 be 08 a1 1f 3d df f2 fe 3c 2d d1 27 3e
       -0.38455442 0.03897193 0.03112167 0.16388388
0000d0 eb 03 b2 be 5b 99 04 bf 8c 91 21 bf 0a ea 87 bd
       -0.34768614 -0.517965 -0.6311271 -0.06636436
0000e0 69 c8 4e 3e b5 d0 86 bc bb b4 0b bf 97 4f 08 3e
       0.20193638 -0.016456941 -0.5457265 0.13311611
0000f0 e0 bd 20 bf bd 13 3d bc ca 7b 10 bf 4f fe 83 3e
       -0.62789726 -0.0115403505 -0.5643889 0.2577996
000100 70 3e 8a bf 06 f0 16 3e 86 f6 09 bc ee fc 41 3c
       -1.0800304 0.14739999 -0.008420592 0.011840088
000110 6b 18 06 bd 66 9d bf b9 ec 75 da bb 1d 77 93 bd
       -0.03273813 -0.0003654763 -0.0066668894 -0.072004534
000120 90 3f 7c bd ac 8b 3b bf ae e1 80 be 7a e5 88 bd
       -0.061584055 -0.7326 -0.2517218 -0.06684394
000130 4f 75 cf bc 3c b6 b8 3c dc c3 dc be 5e e7 06 be
       -0.025324492 0.022547834 -0.4311818 -0.13174197
000140 dc b8 fc bc ba b3 11 3e 4e 70 0a bd 7e 2e 29 bd
       -0.030849867 0.14228716 -0.03379851 -0.041304104
000150 3c 05 1c bf ae 5e a9 be 07 b5 6e bc ba 85 8c be
       -0.6094549 -0.33080047 -0.0145695275 -0.27445775
000160 5d c2 1c be f4 14 39 bf c5 6b d2 be c4 73 e9 3c
       -0.15308519 -0.72297597 -0.41097847 0.028497584
000170 5c ae 7f 3e f6 27 3f bc 0a 12 e2 be e5 cf a6 be
       0.24968857 -0.011667242 -0.44154388 -0.32580486
000180 c8 13 17 3d 8f 3c 41 bf da c0 2a bd 0d 0a 64 be
       0.0368841 -0.7548303 -0.041687824 -0.22269459
000190 1b 93 bb be c4 6c 55 bf e1 57 bc be 49 f4 f9 be
       -0.3663567 -0.8336909 -0.36785796 -0.48819187
0001a0 ca 8c 0b be bc ae b2 bd a3 fd 9d be 76 20 0c bf
       -0.13627926 -0.08724734 -0.30857572 -0.5473703
0001b0 14 2c f2 be 49 5c 4a bf 20 a9 c6 3d 17 b5 94 bc
       -0.47299254 -0.79047066 0.09700227 -0.018152757
0001c0 9a 2d 89 bd b9 53 6a 3d 34 62 92 3e 63 9a 73 be
       -0.06698151 0.05720875 0.28590548 -0.23789363
0001d0 f8 c7 58 3e 7d c7 e1 be f8 66 5f be c8 b8 bd bd
       0.21170032 -0.4409751 -0.21816623 -0.0926376
0001e0 04 44 c7 be e8 e6 ab bd e5 cf f4 be 08 ba 55 bf
       -0.3891908 -0.08393651 -0.4781486 -0.83486986
0001f0 c4 c1 a6 bc 9b 88 00 bf 33 70 20 be 2e ca 83 bf
       -0.020356067 -0.50208443 -0.156678 -1.0296075
000200 b9 d2 26 bd b4 65 42 bf ac 4d 28 bd 29 a8 b9 be
       -0.040728305 -0.75936437 -0.0410897 -0.3626111
000210 4a ec 41 bd 23 9c 26 bf 2b 35 ae bd 47 26 f8 3d
       -0.047344483 -0.65081996 -0.08506235 0.12116676
000220 af b0 72 be 77 ca cf 3c d9 37 69 3e ac bd 1a be
       -0.23700212 0.025365097 0.2277521 -0.15111417
000230 ef 56 56 bf 15 69 96 be 7d 83 1e 3e 49 13 ea be
       -0.837264 -0.29377046 0.15479846 -0.45717838
000240 da 63 38 be ac 82 96 bc 41 96 10 3d 8a 80 2e bf
       -0.1800684 -0.018372856 0.035299543 -0.68164885
000250 74 11 16 bd 22 2a e9 3c 8d cd 96 bc 78 1e f2 be
       -0.03663774 0.028462473 -0.018408561 -0.4728887
000260 b4 a3 65 be f7 a9 20 be 98 bb 40 bc 20 45 31 be
       -0.22425729 -0.15689836 -0.011763476 -0.17311525
000270 0f ee 23 bd bf 70 26 3e cc 02 09 bf 9b 34 1c bc
       -0.040021952 0.16253947 -0.5351989 -0.0095340265
000280 59 41 65 be 68 26 98 be 00 16 2d bd e7 8a 0d bf
       -0.2238821 -0.29716802 -0.04225731 -0.55290073
000290 31 13 81 be 6b d0 2c 3d e7 c2 25 bf 01 8d df be
       -0.25209954 0.04219095 -0.6475052 -0.43662265
0002a0 9c 54 2a be 09 4e 81 be fb da af bd a2 45 1a be
       -0.16633838 -0.2525485 -0.08586689 -0.15065625
0002b0 21 18 dc be 94 57 2a be c7 47 10 bf 0a 1d 34 3e
       -0.4298716 -0.16634971 -0.56359524 0.17589203
0002c0 6d 56 2f bf 42 1f 4b 3e de 02 db be a8 3c 2f 3e
       -0.6849125 0.19836143 -0.42775625 0.17112982
0002d0 79 aa ac be 5c 98 59 be 9c c5 cc be 34 d8 b2 be
       -0.3372381 -0.21249527 -0.39994514 -0.34930575
0002e0 13 c0 ab 3d 0d e3 02 be 69 22 c1 be 20 4c b3 be
       0.083862446 -0.12781925 -0.37721565 -0.35019016
0002f0 f3 51 c7 be d5 f8 9b 3d dc 49 9d be bf d6 00 3e
       -0.3892971 0.0761582 -0.30720413 0.12581919
000300 95 05 65 be 37 f4 ab 3c 2e 6f 56 be 29 d5 a6 3d
       -0.2236541 0.020990474 -0.20940849 0.08146126
000310 b0 17 bb be ba 9a 9d be d6 b8 9a be ad 00 f2 be
       -0.3654151 -0.3078211 -0.30219144 -0.4726614
000320 b4 f2 3f bd 25 b0 9a 3e c1 65 e1 3d 61 1e 3b 3e
       -0.04686232 0.30212513 0.11005736 0.18273307
000330 d4 8e 8e bf 36 d2 c8 bd 49 f9 9e bc a8 b6 a9 be
       -1.1137338 -0.098057196 -0.019405978 -0.33147168
000340 90 40 d5 3c 5e 28 54 bf f0 a2 9d 3d 0b 7f ec be
       0.026031762 -0.82874095 0.076970935 -0.46190676
000350 84 9e 79 be b3 83 eb be 47 6a 0d 3f a9 a8 02 3e
       -0.24376875 -0.45998916 0.5524029 0.12759651
000360 38 d4 ed bd ea fa a4 3d 8a cb 36 bf d8 ac 91 be
       -0.11612743 0.080556706 -0.71404326 -0.28452182
000370 d5 a4 03 be 1d 16 18 bf f3 cd 48 be 8e c2 a1 bd
       -0.12855847 -0.5940874 -0.19609813 -0.078984365
000380 01 34 b7 be a5 d3 9e bd 65 b1 17 bf d5 ec f0 3d
       -0.35781863 -0.07755212 -0.5925506 0.11763922
000390 f2 cf e8 3d a4 3b 13 bf 26 89 2f 3c d6 b9 0f bf
       0.113677874 -0.5751288 0.010713851 -0.5614294
0003a0 56 25 5b bf 53 cb c7 be 05 b9 9c 3e f1 e7 80 bd
       -0.85603845 -0.39022312 0.3060991 -0.06294239
0003b0 82 0f bb bd b7 11 ac 3d 76 6b 8d be 20 d1 36 bd
       -0.09133817 0.08401816 -0.2762105 -0.04463303
0003c0 45 07 9c 3d 75 44 a2 be bc 2f df be 99 1a a9 be
       0.07618574 -0.31692854 -0.43591106 -0.33028105
0003d0 cf 0d f5 3e 06 de 99 be 40 36 8a be 4f 84 16 3e
       0.47862098 -0.30052203 -0.26994514 0.14698909
0003e0 d9 8e d9 be ec 0a 7d 3e 86 56 72 3c 0f 06 76 be
       -0.42491797 0.24711198 0.014791137 -0.24025749
0003f0 3a 92 48 bc 47 6d f6 bd 72 68 00 bf 65 2a d4 3d
       -0.012241894 -0.12032562 -0.5015937 0.103596486

bias f4 [128]
000000 69 0f 11 3d 41 bc a0 bd e5 1e ce bc e2 79 d1 3c
       0.035415087 -0.078484066 -0.025161216 0.025570814
000010 0b 59 c5 bd 37 93 cc 3a b4 5e 7b be 61 e6 29 be
       -0.09636124 0.0015607838 -0.24547845 -0.16591789
000020 7f d0 aa 3c 30 9d 74 3d ad e8 b9 bd ad 09 1c 3d
       0.020851372 0.05972022 -0.090775825 0.038095165
000030 38 9a a7 3c c7 0b 79 bd a9 2c cf bd b5 d6 10 be
       0.02045928 -0.060802247 -0.1011594 -0.14144404
000040 d2 3f 3d be 2d 94 11 be 51 f2 22 3c 2c 4a e4 bb
       -0.18481377 -0.14216681 0.009945468 -0.00696685
000050 21 de ef bd b2 bb 44 bd d6 57 a0 bd ee 7d 02 be
       -0.117122896 -0.048030563 -0.078292534 -0.12743351
000060 29 6c 5c 3b 88 49 20 3c 7d 41 95 bd 07 f0 e6 bc
       0.0033633804 0.009783156 -0.072878815 -0.028190626
000070 55 d9 cb 3d 41 84 0b bd 85 f5 6e 3d 58 73 c6 bd
       0.09953562 -0.034061674 0.058339614 -0.09689969
000080 e1 a1 87 bc 15 0c a3 bc c8 bc 45 bd cf cc 91 bc
       -0.016556682 -0.019903222 -0.04827574 -0.017797856
000090 35 a0 a3 bd eb 32 0e 3e ba e4 4e bc 4c d3 57 bd
       -0.079895414 0.13886611 -0.012627775 -0.052691743
0000a0 80 de 9d 3d 6a 67 5b bd 5a 9c b8 bc 55 d8 14 be
       0.07708454 -0.05356542 -0.022535492 -0.14535649
0000b0 18 4c 66 3d 54 03 94 3d f6 49 00 3a 0f c5 4d 3d
       0.056224912 0.07227197 0.00048938335 0.050236758
0000c0 b8 64 7d bc 92 a2 3e bd 17 9b 0e 3d d1 ac 7e bd
       -0.015465908 -0.046541758 0.034815874 -0.06217653
0000d0 ca 01 a7 3d 4a ee ce bd cb 99 a2 3d 82 de 47 bc
       0.08154638 -0.10104044 0.0793949 -0.012199046
0000e0 ba 6e 77 bc 66 7b dc bd fd 5f 63 be dc 27 2d 3c
       -0.015102083 -0.10765724 -0.22204585 0.010568585
0000f0 5b 58 a0 3c 11 b2 18 bd ed 51 1c bd b7 7b 5a 3c
       0.019573381 -0.037279192 -0.038164068 0.01333516
000100 45 00 ca bd 64 79 10 3b 90 f4 f8 bc d0 6b ea bd
       -0.09863333 0.002204501 -0.030390054 -0.11446345
000110 f8 4f 9c bc 3e b9 b7 3c 37 e1 5e 3d 1b 62 6b 3d
       -0.0190811 0.022427198 0.054414 0.057466608
000120 c5 78 78 be 9a c2 84 3c 69 21 b2 3c 5e 8c 03 bc
       -0.2426482 0.016206075 0.021744447 -0.008029072
000130 48 3e 45 bd 4e 85 3e bd b8 7f d7 3d 68 a1 ba bd
       -0.0481551 -0.046513848 0.10522407 -0.09112817
000140 74 52 d5 bd b7 07 11 bd aa 1c e0 3d 50 da fe 3b
       -0.10416117 -0.035407748 0.10942967 0.0077774897
000150 f5 69 cb bc 46 2e a1 bd 9f 55 f4 37 da f8 9b bd
       -0.024830798 -0.07870154 2.9126937e-05 -0.07615824
000160 02 59 98 bd d6 8e cb bd 40 92 c2 bd 5d fa a8 3d
       -0.07438852 -0.09939353 -0.09500551 0.08250878
000170 22 65 f3 bc 67 ea 1e 3e 79 ad 45 3d da 71 56 bb
       -0.02971131 0.15519105 0.04826114 -0.003272167
000180 87 55 4b bc ca 54 05 bd bb 93 5a bd b6 a6 1a be
       -0.012410528 -0.032551564 -0.053363543 -0.15102658
000190 64 25 be bd e8 58 2e 3d 20 73 aa 3c 6c 4a 06 be
       -0.092844754 0.042565256 0.020806849 -0.13114327
0001a0 b9 a1 55 3c fe 1d cd 3d 61 ad e3 bd 9b ee ac bd
       0.013039046 0.10015486 -0.11117054 -0.08443948
0001b0 f3 82 2b 3c cb 5a 36 be 41 32 54 be 16 28 26 bc
       0.010468232 -0.17808072 -0.20722295 -0.010141393
0001c0 3d cf 14 bd e0 62 f5 3c 35 88 fa bb 02 95 b4 bc
       -0.03633045 0.029954374 -0.0076456317 -0.022043709
0001d0 f2 fd 83 bd 03 43 c8 bc 16 dd 3f bd 65 df 8c 3c
       -0.064449206 -0.024446016 -0.046841703 0.017196367
0001e0 6b 88 2a be 86 cd 6a 3d 01 fd 04 bd 1d 94 40 be
       -0.16653602 0.05732491 -0.032467846 -0.188065
0001f0 f2 fd be bd 51 b8 14 be 04 f8 23 3d be 61 37 be
       -0.0932578 -0.14523436 0.040031448 -0.1790838

weight f4 [64, 128]
000000 3d f5 b2 be 4f a6 8f bd 7f d4 32 bd 20 32 82 be
       -0.34952727 -0.07014143 -0.043659683 -0.25428867
000010 1d f3 be 3e b1 8a 1a bf d5 00 81 bc 56 2c 5c 3c
       0.37294856 -0.60367876 -0.015747467 0.013438305
000020 2c 96 50 be 54 cb 8b be c5 ea 43 3d 4d 55 96 be
       -0.20369786 -0.27303565 0.047831316 -0.29361954
000030 20 37 ee 3b 12 55 55 be 9c 5b a5 3c 86 1d 57 be
       0.007269755 -0.20833233 0.020185284 -0.21007356
000040 c0 39 bb 3d 9f 69 23 be 0c af 1f bd b8 17 e2 be
       0.09141874 -0.1595826 -0.038985297 -0.4415872
000050 43 47 b3 be a8 eb 65 3e 3d f6 61 bc e9 b6 9d bc
       -0.35015306 0.22453177 -0.013791618 -0.019252257
000060 eb e9 98 be 60 91 67 bd 7e 35 22 bd b8 43 3e bd
       -0.29865965 -0.056535125 -0.039601795 -0.0464513
000070 fc 1c 6d 3e 65 8e 05 3c 6d 82 c0 3d 17 82 af bc
       0.23155588 0.008151625 0.09399877 -0.021424336
000080 ea d1 91 bd 0c 33 bb be 05 34 bd be f4 eb c9 bd
       -0.07120116 -0.36562383 -0.3695375 -0.098594576
000090 37 e6 89 3d b7 0e 91 3e 79 10 12 3d a4 0a 81 3c
       0.06733363 0.2833154 0.03566024 0.015752144
0000a0 dc 5b 46 bd 85 3f 32 3b 01 1c 1c be 10 67 74 3d
       -0.048427448 0.0027198505 -0.15245058 0.0596686
0000b0 1c c4 d8 bd d6 5a 6c be 3f 89 dd bd 44 0e 03 3e
       -0.1058428 -0.23081526 -0.10817193 0.1279841
0000c0 85 8f 06 bb b6 d2 75 bd 5a 81 e5 bd 90 f5 a3 be
       -0.0020532322 -0.060015403 -0.112063125 -0.32023287
0000d0 40 b3 b4 3e 65 f0 06 bc f4 31 9b 3d f4 3c 49 bc
       0.35293007 -0.008236025 0.07577887 -0.012282599
0000e0 35 96 43 be 65 cb 6e bc 9b b4 9d bd ba 89 6a 3d
       -0.19100268 -0.01457486 -0.077004634 0.057260253
0000f0 62 77 c1 3d 3f 79 2e be af e8 7e bc 6d 5c a2 be
       0.094465986 -0.17038439 -0.015558406 -0.3171114
000100 ad 20 7a be a7 ce 27 3e 22 19 3d bc dd 21 10 be
       -0.24426527 0.16387425 -0.011541637 -0.14075418
000110 d2 e0 14 bd 93 a9 ef 3c ca f3 e1 bd 08 1e 42 3e
       -0.036347218 0.029255664 -0.11032827 0.18956769
000120 02 02 33 be d5 60 b9 bb 37 f2 34 3d d7 31 33 3c
       -0.17481235 -0.005657295 0.044176307 0.010937176
000130 91 fc c7 be e9 4e 2e 3c 90 3b 7f 3d 46 cc 28 be
       -0.3905988 0.010638931 0.062312663 -0.16484174
000140 e9 90 02 bd 3c 66 bf bd 15 76 0e 3e 4a ab de bd
       -0.03187648 -0.093456715 0.13912232 -0.108725145
000150 1d aa 8d bd 0e 2e e6 3c 8b 66 cf bd cb f2 40 bd
       -0.06917212 0.028098132 -0.101269804 -0.047106545
000160 59 73 1f be 50 ba 9c 3d b8 b7 00 bd 45 2c 4b 3e
       -0.15571345 0.07652724 -0.031425208 0.19841106
000170 a3 5a ef bd cc 96 cc 3e 57 6f a6 bb 7f 56 86 be
       -0.116872095 0.399588 -0.0050791907 -0.26237866
000180 6e c3 05 be 26 96 29 bc a3 92 1f bd b2 b4 92 3d
       -0.13062832 -0.01035074 -0.038958203 0.07163371
000190 d0 dd 35 3d f8 be c3 be b3 c4 be be bf 6f 86 3e
       0.04440099 -0.38231635 -0.37259445 0.2625713
0001a0 7e c9 5d be 43 7b 14 3f 16 48 ab 3d 9c 3f e4 bc
       -0.21658894 0.5800058 0.08363359 -0.027862363
0001b0 a3 26 92 3b 1b 3a 6b be 8a 88 35 be 17 71 29 bf
       0.0044601723 -0.22971384 -0.17727867 -0.66188186
0001c0 c1 f2 79 bc 76 ba 2f be 6d f8 e7 be e1 c6 54 3e
       -0.015255631 -0.17160973 -0.4530672 0.20778991
0001d0 e1 d6 81 bb ac ef 74 bd 78 32 c2 bd a9 51 f8 3b
       -0.003962383 -0.05979888 -0.094822824 0.007578094
0001e0 c1 6d 9b be 5c 18 48 bb 0d 48 f4 3b 3d 90 09 3d
       -0.30357173 -0.0030532097 0.007454878 0.033584822
0001f0 65 e9 fb be 0b c4 c0 bd bd a3 a8 bd dc fd df bc
       -0.49201503 -0.09412392 -0.082343556 -0.02734273
000200 0d ad 0e be 01 57 99 3d 04 50 89 3d ba 66 39 3c
       -0.13933201 0.07487298 0.06704715 0.011315996
000210 8b 22 1c be 76 5a 9f 3d 22 24 0e bf 15 49 4b bd
       -0.15247552 0.07780926 -0.55523884 -0.049630243
000220 cd 7c 8c 3e ce 4d 94 3e 82 72 2c bc 82 49 7e 3e
       0.27438965 0.2896561 -0.010525348 0.24832729
000230 59 55 04 3e 52 47 29 3d 81 90 41 bd 36 e7 a3 3d
       0.12923183 0.041327782 -0.04725695 0.08003084
000240 06 ca 46 3e e9 6a 2f bd e5 a9 f4 3d 9e e2 58 bd
       0.19413003 -0.042826567 0.11946467 -0.052950494
000250 12 3d 81 3e e8 ca a4 be 4e 42 27 3d 36 57 4f be
       0.25241905 -0.32186055 0.040834717 -0.20248112
000260 19 c8 e8 3e 84 10 b9 3d bb 44 27 3d ca 47 21 bc
       0.45465162 0.09036353 0.04083703 -0.009843776
000270 62 ce f1 be c4 9d af 3d 1a 79 f4 be 69 e9 1e bb
       -0.4722777 0.08575013 -0.47748643 -0.002424801
000280 a2 77 2d bd 9f 0a 59 bd e1 f3 46 be 57 ad 93 bd
       -0.04235042 -0.052988645 -0.1942897 -0.07210796
000290 c6 98 4e be af 64 f7 bd c4 04 18 3e 35 78 a8 bc
       -0.20175466 -0.12079751 0.14845568 -0.020565132
0002a0 f8 9b 3b bd 4e 8b c8 3c 20 9d 6e 3e 53 f2 65 3e
       -0.04580304 0.024480488 0.23302126 0.2245572
0002b0 f7 d4 21 3e 8e 0d bd 3e e0 48 5c 3b 86 92 28 3e
       0.15803896 0.36924404 0.0033612773 0.16462144
0002c0 e0 2b 86 3c 3d b8 d7 3b 18 69 29 3e 49 93 11 3e
       0.016378343 0.006583242 0.16543996 0.14216341
0002d0 64 f1 86 be 30 82 76 bd c2 5c a1 be 9f b1 4a 3f
       -0.2635604 -0.06018275 -0.3151608 0.7917728
0002e0 e8 b8 8c 3e f3 c1 5a bd 3c 46 36 3e 93 93 18 3d
       0.27484822 -0.05340762 0.1780023 0.037250113
0002f0 fa 73 78 bd 28 aa 21 bd 21 e3 9e 3c e6 78 58 3c
       -0.06065748 -0.039468914 0.019395413 0.013212418
000300 0e 59 87 3d 23 7d 67 be 6d bd 2f 3d cf 21 22 be
       0.06608783 -0.2260633 0.04290526 -0.1583321
000310 c4 6b 40 bd 28 58 08 bf 4e 3e 0f be 3f 3b 81 bd
       -0.046977773 -0.53259516 -0.13988611 -0.063101284
000320 30 ce d7 3d 73 14 59 bd ce 3a b2 bd 99 c4 65 3d
       0.10537374 -0.052998018 -0.08702622 0.056095693
000330 72 91 3f be 9b 92 01 3c 90 37 a8 be 70 ca 66 bd
       -0.18707827 0.007908489 -0.3285489 -0.056345403
000340 ba 04 96 3d b4 3f ab 3c 1e 35 4c bc e3 a2 df 3c
       0.0732512 0.0209044 -0.012463836 0.02729935
000350 4f 15 4d bd af ca 83 3d 1f 1d cc bd bd 13 64 3d
       -0.05006915 0.06435143 -0.09966492 0.055682886
000360 87 47 cf 3d 47 65 a0 3d 51 66 54 bd 78 1c 95 be
       0.10121065 0.07831817 -0.05185539 -0.29123282
000370 d0 56 0f 3e 44 8d dd 3a 3d 3f 3c 3e 20 6b bc 3e
       0.1399796 0.0016903062 0.18383498 0.3680048
000380 b3 e8 bb 3d 7b 72 3b 3d c3 e7 61 bd 6a 06 73 3d
       0.09175243 0.045763474 -0.055152666 0.05933229
000390 93 b2 90 3e 54 93 78 3e b8 98 e4 bd 80 1d 3c be
       0.2826124 0.24274951 -0.11161941 -0.18370628
0003a0 9d ff f8 bc 85 25 30 be 35 e5 32 3d f0 4d 0b 3e
       -0.030395323 -0.17201813 0.04367562 0.1360395
0003b0 4d 67 7e 3e dd 78 ea 3d 6e 52 f1 bd 75 d5 f4 3d
       0.24844094 0.11448834 -0.117833 0.11954776
0003c0 4f 62 11 be 2d 42 5e 3e bc 58 83 3b e8 54 89 bd
       -0.14197658 0.21704932 0.0040083807 -0.06705648
0003d0 fc 82 91 bd 2d 33 08 bd a7 cc 2c bd 50 a4 1a 3d
       -0.071050614 -0.03325193 -0.04218736 0.037754357
0003e0 bf 6d 2c 3e 4b 2b b2 bd e2 6d ce bd 83 f0 ab 3e
       0.1683874 -0.08699664 -0.10079552 0.33581933
0003f0 6b f1 ab 3d 84 50 0a be e0 d2 0f 3e de 5f 1e be
       0.08395656 -0.13507277 0.14045286 -0.15466258

bias f4 [64]
000000 44 44 1e 3d dc cb 50 bd 44 80 b0 3d f6 07 75 3d
       0.038639322 -0.050975665 0.08618215 0.059822045
000010 34 db 1d 3e b4 3a 81 bd 66 8f ec bd 7e 45 b4 ba
       0.1541565 -0.06310025 -0.115507886 -0.001375362
000020 43 fa fb bb 44 26 15 bd 23 9a 21 3d 5b d3 50 bd
       -0.0076897456 -0.036413446 0.039453637 -0.050982814
000030 c7 05 0c 3e 08 cb 9c bd 07 3b 2b bd 34 6f 85 be
       0.13674079 -0.07655913 -0.04180434 -0.26061404
000040 df 26 b2 3d 8a a3 34 bb 76 3c 21 3c 36 fc 8f 3d
       0.0869882 -0.0027563297 0.009841075 0.07030527
000050 f1 c7 b0 3d 7f 49 7e 3d 3f fa 25 3e c3 df af 3d
       0.08631886 0.06208181 0.16208743 0.08587601
000060 47 60 30 bd 86 42 42 3c e5 69 6c be ad 4a 2f be
       -0.043060567 0.011856681 -0.2308727 -0.1711833
000070 19 ae 10 3e 55 55 da bc 8b 5c 2c 3e dd c3 cf bd
       0.14128913 -0.026652018 0.16832177 -0.1014478
000080 1c 69 38 3d a8 83 35 be 81 c5 8c be 47 6d 1d be
       0.045022115 -0.17726004 -0.27494434 -0.15373717
000090 4c 1a ce 3d 11 c8 77 3d 89 82 77 bd 71 05 ae bc
       0.100636095 0.060493533 -0.060427222 -0.021242829
0000a0 e8 8e 03 3d 39 d7 2e 3d 38 51 01 bd 06 55 a7 3c
       0.032118708 0.04268572 -0.031571597 0.020426285
0000b0 ee c4 07 bd 49 9e 38 3e e7 f1 9d 3d c2 7b 0f be
       -0.03314679 0.18029131 0.07712155 -0.14012054
0000c0 28 a3 38 bd 7f a5 26 bc 37 8f c1 bc ba 4a 60 3d
       -0.045077473 -0.010171293 -0.02362786 0.054758765
0000d0 5e cf ce 3d ce e7 2f 3e 1e d4 77 be f1 9b fc 3d
       0.10098146 0.1717827 -0.2420201 0.12334431
0000e0 cf f0 ab bc 26 b9 77 3d bc 39 d2 bd 67 ef c0 bd
       -0.02098885 0.060479306 -0.10264918 -0.094206624
0000f0 83 01 42 bc 80 2d d6 3d 42 eb 49 3d ed 4d a5 bd
       -0.011841181 0.10457897 0.049296625 -0.08071504

weight f4 [32, 64]
000000 50 d2 c4 bd a0 41 11 3e f9 14 0d bd 27 c6 6a be
       -0.096104264 0.1418519 -0.03444383 -0.22927152
000010 b5 0e d8 bd d9 f0 5b ba cb d7 cf bd 47 9b fd 3d
       -0.1054968 -0.0008390076 -0.10148581 0.123831324
000020 38 70 96 3d 84 df 30 be 80 12 36 3e 1b b2 36 be
       0.07345623 -0.17272764 0.17780495 -0.1784138
000030 82 94 cb be 01 73 4f 3c 04 33 8d be 52 62 35 be
       -0.3976174 0.012661696 -0.27577984 -0.17713287
000040 9c 0d 94 be 20 5f 47 bd 6a 51 ed 3d 62 a8 64 be
       -0.28916633 -0.048674703 0.11587794 -0.22329858
000050 45 ff 16 be 95 6b bb bd fe 0e a5 be 1a b0 20 be
       -0.14745815 -0.09151379 -0.32238 -0.15692177
000060 fe 60 35 3c dd 5a 45 be 3e 52 27 be 8f 42 59 bd
       0.011070488 -0.19272943 -0.16339967 -0.05304199
000070 83 0c 9e bc 8d e0 8e bd 65 21 14 be 80 a2 32 be
       -0.019293075 -0.069764234 -0.14465864 -0.17444801
000080 c7 d5 4f 3d 41 b8 7b be d3 a9 05 be 83 fa b3 bc
       0.050740983 -0.24582006 -0.13053064 -0.02197004
000090 e9 67 0e be 5d 2a 35 3d 9f f5 5d be 71 d1 0c be
       -0.13906826 0.044229854 -0.21675728 -0.1375177
0000a0 05 25 8c be 21 df cc 3d 8b 58 9f 3d 15 2d 22 be
       -0.27371994 0.10003496 0.0778056 -0.1583751
0000b0 c1 f2 9f 3d bd ce 76 bd 05 66 40 be 39 4b 05 be
       0.078099735 -0.060255755 -0.18788917 -0.13016976
0000c0 3c 10 c1 3d 63 4d d6 bd d5 46 9f be 8b 13 54 be
       0.094269246 -0.10463979 -0.31108728 -0.2071058
0000d0 e4 f9 87 be 9c ce 96 be 15 46 81 be f3 c3 59 be
       -0.2655784 -0.29454505 -0.2524878 -0.21266155
0000e0 b7 bb fd 3b 94 e7 ba be f3 0d 22 be 09 bd 13 bd
       0.0077433246 -0.36504805 -0.15825634 -0.03606895
0000f0 c8 e0 82 3c 0a 11 8e bc 6e ac 23 3d 2d e3 af 3e
       0.015976325 -0.01734211 0.039959364 0.3435301
000100 e4 fb 5a 3e 8a 49 28 bd 70 ee 41 3e 9b c1 87 bc
       0.21385151 -0.041085757 0.18938613 -0.01657181
000110 8c 7d 60 3e 57 42 28 be de 63 95 bd a6 fe 2c bd
       0.21922892 -0.16431557 -0.07294439 -0.04223504
000120 4c d4 7e bd 31 a4 44 be 9b 4a cf bd 44 fe 99 3d
       -0.06221418 -0.19203259 -0.10121652 0.075192004
000130 b8 37 85 3e 0a c4 c0 bd 51 da 2c be 3d 76 92 3e
       0.26019073 -0.094123915 -0.16880156 0.28605834
000140 18 ad 73 3d d1 84 df bd 00 6b 33 3c da 02 87 3d
       0.059491247 -0.109140046 0.010950804 0.06592341
000150 47 5b a7 3e 8b fa de 3d d3 18 28 bd a9 fa 99 3e
       0.32686827 0.10887631 -0.0410393 0.3007405
000160 dd f9 f1 3d 05 7a 86 3e bb a0 6d 3e d8 82 cd bc
       0.11815236 0.2626497 0.23205845 -0.025086805
000170 09 81 73 3e 1d 21 90 be a7 fa 8d 3e e1 3a e0 bc
       0.23779692 -0.28150263 0.27730295 -0.027371826
000180 5f 83 de bd 53 21 38 3e ad a8 e0 bc 4a 7f dd 3b
       -0.10864901 0.17981462 -0.02742418 0.006759559
000190 98 82 83 3e a1 b0 8b 3e 65 00 80 bd 5c 1e 70 be
       0.25685573 0.27283195 -0.06250075 -0.23449081
0001a0 b1 1e 4d 3b 75 a3 72 be e0 56 ad be f4 1d 71 be
       0.003129881 -0.23695166 -0.33855343 -0.23546582
0001b0 e0 b6 95 bd 99 12 6e 3e 43 16 82 3e 64 fc ad 3d
       -0.07310271 0.23249282 0.2540761 0.08495405
0001c0 cd 8b 06 be 97 bc cc 3c cb 7e 65 3d dc de a3 3e
       -0.13139267 0.02499227 0.056029122 0.32005966
0001d0 62 8d 87 3e c9 83 bb 3d c3 6a ea 3d 6c cf 97 3e
       0.26475054 0.091559954 0.114461444 0.29650438
0001e0 3c 2c 5b be f1 40 38 3e a2 14 83 3e 2e 3b 42 39
       -0.21403593 0.17993523 0.2560168 0.00018523328
0001f0 8e 6f 04 be f6 ad 05 3e e6 d7 5f be 97 e9 21 3c
       -0.1293318 0.13054642 -0.21859702 0.009882352
000200 a7 8c 2d 3e 5d 42 4e be 8b 05 36 3d eb 9d 0a 3e
       0.16948186 -0.20142503 0.04443888 0.13536803
000210 ee ff 47 3d ef aa 04 be 0e 54 f3 3d a8 c0 8b be
       0.048828058 -0.12955831 0.118812665 -0.27295423
000220 70 f8 48 bd 27 3f c8 bd bf c8 9b bd 8c 65 cd 3c
       -0.049065053 -0.0977767 -0.07606649 0.025072835
000230 67 fa 06 be 1c 0f 1f be 7d c9 7e 3c a9 90 17 be
       -0.13181458 -0.15533108 0.015550968 -0.14801277
000240 0f 76 92 3c 08 c7 b3 be 8d b3 a1 bd 8f a2 2e 3e
       0.01787856 -0.35112786 -0.07895575 0.17054199
000250 c6 79 6f bd 2d b2 79 bb 8a 00 0f 3e 12 9a 8e be
       -0.05846574 -0.0038100586 0.1396505 -0.2785192
000260 67 eb 7e 3e a0 01 c8 be ba 05 87 bd 7c 38 19 bd
       0.24894486 -0.3906374 -0.06592889 -0.037407383
000270 5f bf 2b 3d d6 44 d8 3c ae b4 09 3e 1c 58 8a 3c
       0.041930553 0.026400011 0.1344783 0.016887717
000280 14 7f db bd bb 29 b2 3d bd 1a 73 be 49 a7 75 3d
       -0.107175976 0.08699366 -0.23740669 0.05997399
000290 9a d0 25 be 8a 9f 67 bc 76 c8 af bd ee d7 d9 bd
       -0.16192856 -0.014137158 -0.08583157 -0.106368884
0002a0 05 86 80 be 08 f4 28 3b ab 5f 27 be c0 4c 9a 3d
       -0.2510225 0.002578022 -0.16345088 0.0753417
0002b0 1f 49 20 be cf ea 3d bc be 30 64 3d d2 96 ad 3d
       -0.15652893 -0.011591627 0.055710547 0.08476032
0002c0 13 99 c2 bd c3 b3 81 bc 8a d7 8c bd af 18 81 3d
       -0.09501853 -0.015832787 -0.06877048 0.06303536
0002d0 ce 23 06 3e a6 d1 5c be 24 5f d9 3d 90 76 94 bc
       0.13099596 -0.2156435 0.1061385 -0.018122941
0002e0 07 be 7e be ba 1a 38 be 21 e5 13 be a2 0c f4 3d
       -0.24877177 -0.17978945 -0.14442874 0.11916472
0002f0 bf a8 1e 3b 3c 8e e6 bd a0 c8 16 be cc eb 1e bc
       0.0024209467 -0.11257598 -0.1472497 -0.009699773
000300 4a 5a db 3e 36 45 30 be 74 e3 f8 3e e0 7d 88 be
       0.42842323 -0.17213902 0.48611033 -0.26658535
000310 bd 35 9d 3e b3 e2 06 be c8 c8 9a bd b0 fd 58 3c
       0.30705062 -0.13172416 -0.07557827 0.013244078
000320 97 b4 15 3e 9d 7f a6 be 95 4b 85 3c f6 3f cb bd
       0.14619671 -0.32519236 0.016271392 -0.09924309
000330 c0 90 0a bc c5 ff 95 3d 41 34 76 be 2c 5e 85 3e
       -0.008457363 0.07324175 -0.24043371 0.2604841
000340 77 b0 59 3e f4 73 ed be a7 5b 91 be 06 97 8e bd
       0.21258722 -0.46377528 -0.28390238 -0.06962399
000350 2b 53 fa 3e e0 bc 03 be ec 31 3c 3e 73 3d a1 3e
       0.48891577 -0.12865019 0.18378419 0.31492195
000360 25 1e 9a 3e c7 96 2e 3f 13 88 6f 3e 7c 33 91 bd
       0.30101123 0.6819882 0.23391752 -0.07089898
000370 67 6b dc 3e 2a 5c bf bd f8 ae 88 3d 99 ff 7d 3d
       0.4305069 -0.09343751 0.06673998 0.062011335
000380 86 2f 85 be 05 1d f0 bc 16 e2 c7 3c 31 bc 04 3e
       -0.2601282 -0.029310713 0.024399798 0.12962414
000390 82 67 14 3e 2e f6 b9 3e ab 8d 12 bd 5a 2d 24 be
       0.1449261 0.36320633 -0.035779636 -0.16032925
0003a0 31 82 ea bd 44 6d 13 be 56 7e af bc 4a 9b 76 3d
       -0.11450613 -0.1439715 -0.021422546 0.06020669
0003b0 92 d8 78 3c b2 c4 ae 3d eb 52 c7 3e 6e 4f 28 3d
       0.015188353 0.085336104 0.3893045 0.041091375
0003c0 e6 d2 8f be 6f ee a0 be cd 7d 74 be 87 23 fa 3e
       -0.2809059 -0.3143191 -0.23876114 0.4885523
0003d0 d6 5e 1e 3e 2d 85 f7 3d e7 ec 13 3e f9 7c ad 3d
       0.15465865 0.12085948 0.1444584 0.08471102
0003e0 6c 23 82 be 4b 9c 43 3e b7 15 44 bd 5f 42 1a be
       -0.2541765 0.1910259 -0.04787227 -0.15064381
0003f0 4f 5a 8a bd 59 25 c7 3c a9 41 a0 bd e8 6c 85 bd
       -0.06755506 0.024309801 -0.07825024 -0.06514913

bias f4 [32]
000000 f2 e5 bc 3c 63 9f 27 3e dc d9 37 be 6f 3e c8 bd
       0.023058865 0.16369395 -0.179542 -0.09777533
000010 2f 73 3b bd b1 01 04 be fe 70 34 3e b4 09 ad 3c
       -0.045764145 -0.1289127 0.17621228 0.02112279
000020 c6 38 58 bd c9 35 ff bb 7e 44 dc 3d 1b bb 27 bb
       -0.05278852 -0.007788394 0.10755251 -0.0025593701
000030 8c 90 51 3d 7f 5b 10 3e b7 6c b0 3c 1c 16 21 3e
       0.05116324 0.14097403 0.021536214 0.1573109
000040 18 43 18 be 9d 17 1b 3e 8c e4 26 3e 9a 2a 70 3e
       -0.14869344 0.15145727 0.16298121 0.23453751
000050 23 e9 1d bd df 2a 3e 3e c5 e1 54 3e ef ec 15 3d
       -0.038552415 0.18571042 0.20789249 0.03660291
000060 85 37 14 3e b8 d4 a0 3e 28 42 c9 bd 41 9e 12 3e
       0.14474304 0.31412292 -0.098270714 0.14318182
000070 70 45 2b be 70 c4 16 bd 58 7e c6 bd 0e 48 f1 3d
       -0.16725707 -0.03680843 -0.09692067 0.117813215

weight f4 [32, 32]
000000 07 91 5e bd f4 4a 4e bd 15 2b 1f bd 30 4a 8a bd
       -0.054337528 -0.05036445 -0.038859446 -0.067524314
000010 fa a0 24 be ab ff 01 be b8 ff b1 bd 14 90 b0 bc
       -0.16077033 -0.12695186 -0.086913526 -0.021553077
000020 25 a5 8d bd f2 96 d0 3d 3b a9 3b 3d 9d 0d 27 be
       -0.069162644 0.101850405 0.045815688 -0.16313787
000030 c2 22 e5 bd 80 94 0a bd 8e a4 57 bd 91 94 cd bd
       -0.1118827 -0.033833027 -0.052647166 -0.100381024
000040 35 23 d7 3c 78 fa b3 3c d1 54 1f 3d 19 60 3d be
       0.026261905 0.021970019 0.038899247 -0.1849369
000050 bc 42 1b 3d 1c cf bb bc d9 5d 23 3d 5d ee 81 3c
       0.03790544 -0.022925906 0.039884422 0.01586073
000060 35 eb 33 be a9 03 c8 bc 43 e4 fa bd 82 ed 11 be
       -0.17570193 -0.024415808 -0.12250569 -0.14250758
000070 31 2d 2b be 9d 1f 99 bb 24 a0 14 be 39 b9 05 be
       -0.16716458 -0.004672958 -0.14514214 -0.13058938
000080 a3 c0 83 3e 6e 9e db be 5a 21 2b be 6a b9 c2 be
       0.25732908 -0.4289431 -0.16711941 -0.38032085
000090 a6 51 b0 be 0c 2e 4d be 04 08 b8 be 91 ef fb be
       -0.34437293 -0.20037097 -0.35943615 -0.49206212
0000a0 99 82 f3 3d a3 d9 90 3c 73 6b 23 3e 11 1e ce be
       0.11890144 0.017681902 0.15958957 -0.40257314
0000b0 bc 52 c4 bd c2 8c 27 bc 3b 60 04 bf df de c4 3b
       -0.09586093 -0.01022643 -0.51709336 0.0060080136
0000c0 ca 5f 84 bc fc 01 2d 3d 14 ad 05 3e 1d 84 b7 bd
       -0.016158957 0.04223822 0.13054305 -0.089607455
0000d0 d0 e0 04 bf 12 70 a0 bd bb 7b a1 be 5e 06 0d 3e
       -0.51905537 -0.07833876 -0.3153971 0.1377196
0000e0 d6 7f dd bc 8e f2 3f 3d 7a 22 ab 3d 33 b8 66 3e
       -0.027038496 0.046862178 0.08356185 0.22531204
0000f0 3a 4f 20 be 22 59 15 bf 2c 56 df bd 4d 69 02 bf
       -0.15655223 -0.5833913 -0.10905108 -0.50941926
000100 b1 86 9e 3d 1d 6a d4 bd 09 e5 24 be 55 c8 2f be
       0.07740534 -0.10371802 -0.16102995 -0.17166264
000110 f2 38 4f bd be e5 43 3e 79 d0 6e bd 75 1b d4 3c
       -0.050591417 0.19130608 -0.058304284 0.025891999
000120 60 b7 bd 3d b3 ad d5 bc 6d ee 65 bd d3 56 1c 3d
       0.09263492 -0.026083803 -0.056135584 0.03816874
000130 f9 55 aa 3c dc 78 1b 3e 1f 90 b4 bd e9 80 85 3e
       0.020792948 0.15182823 -0.088165514 0.26074913
000140 37 c3 d7 bd 80 2f 16 3e 42 cb 2b 3e 49 52 88 3d
       -0.10535281 0.14666557 0.16776755 0.0665632
000150 c4 bb 8b bd 80 cb 75 3e cb 32 89 be 15 65 31 be
       -0.06822923 0.2400341 -0.26796564 -0.17323716
000160 70 49 03 3e 52 77 c7 3c 2d f7 43 bd e4 a5 24 3e
       0.12820983 0.024348889 -0.047843147 0.16078907
000170 a6 9f 80 be e4 9a 94 be 45 de 8d 3e bf 9c ef bd
       -0.25121802 -0.29024422 0.2770864 -0.11699819
000180 c4 17 5e bb 27 38 8e be 23 fd d1 bd 1c 4e be be
       -0.0033888677 -0.27777216 -0.1025336 -0.37168968
000190 6d 66 87 bd 9d 0f c5 bd 30 d6 77 be 55 92 22 be
       -0.06611333 -0.096221186 -0.242028 -0.15876134
0001a0 4b 5a d3 bd d4 0a 31 3e 4b ab 5c 3e a2 99 8b be
       -0.103199564 0.17289287 0.21549718 -0.2726565
0001b0 0d 48 70 be f5 a3 8e bd cd c9 da be 32 c2 43 3e
       -0.23464985 -0.06964866 -0.42732087 0.19117048
0001c0 de 8c 8a 3d 97 e4 4c 3e 72 b9 d3 bc ad 9b 0a be
       0.067651495 0.20009075 -0.025845263 -0.13535948
0001d0 79 51 5c bd b4 fd 29 bd 3b b7 f6 bd 5f 01 22 be
       -0.053788636 -0.041501716 -0.12046667 -0.15820836
0001e0 21 af 24 3e 41 9b bd be c9 10 7e bc 1b 34 33 3e
       0.16082431 -0.37032512 -0.015506932 0.17500345
0001f0 76 4f 6d be 8d cf a2 be 58 b4 f4 3d 72 bc 24 be
       -0.23174843 -0.31798974 0.1194846 -0.16087511
000200 d4 e7 e2 bd 18 cb 99 bd c4 01 60 3e e1 40 99 be
       -0.11079374 -0.0750944 0.21875674 -0.2993231
000210 de cf 42 be cc af 0d bd 7d 7d af be d4 33 91 be
       -0.19024608 -0.03459148 -0.34275427 -0.28359854
000220 f0 ee 04 be ba a1 4e bd 2a a6 e6 3d b7 f6 0f bf
       -0.12981772 -0.050447203 0.11262162 -0.5623583
000230 95 8d 49 be 3b 3c 72 3e 97 d3 56 bf 96 26 17 3e
       -0.19682916 0.23655789 -0.8391661 0.14760813
000240 b4 6a 4f 3d 3b d2 39 3c 9e 4d 22 3e 3a 54 17 3d
       0.05063887 0.011341627 0.15849921 0.03694556
000250 d5 47 12 bf 04 58 3d be 94 74 00 bd 87 d0 d5 be
       -0.57140857 -0.18490607 -0.031361178 -0.41760656
000260 a7 6a d3 3d 09 5b 31 bf 8d 78 03 3e e9 24 31 bd
       0.10323077 -0.69279534 0.12838955 -0.04324809
000270 59 91 f5 be 12 c3 2f bf 58 6d 79 bd 92 8e b4 bd
       -0.47962454 -0.6865703 -0.060895294 -0.08816256
000280 53 bd a4 3d 2c 35 9b bd 28 02 34 bd 62 74 d0 be
       0.08043923 -0.07578501 -0.04394737 -0.40713793
000290 65 57 a0 bd 1a ba b9 be 38 19 bc be bd 30 d1 be
       -0.07829169 -0.36274797 -0.3673799 -0.40857497
0002a0 64 12 45 3e 6d fa 5d be 40 cb a0 bc 1c 47 a5 be
       0.19245297 -0.21677561 -0.019628167 -0.32280815
0002b0 d4 2d 12 3e 66 61 73 3e e1 f1 c2 be 5d 0b a3 bd
       0.14275295 0.23767623 -0.38075164 -0.07961152
0002c0 9b 17 b3 3d 4b 3a 05 bd c7 0e 50 3e d8 2b 23 3c
       0.08744737 -0.032526296 0.20318137 0.009959184
0002d0 7e 11 35 bf a2 e2 0d 3e ce f4 15 bd c0 2a 5e be
       -0.70729816 0.13855985 -0.036610417 -0.21695995
0002e0 2f 3a 9f bd 62 33 5d 3e 45 53 e9 3d 82 2f 28 be
       -0.077747695 0.21601632 0.113928355 -0.16424373
0002f0 fb c3 9e be b1 91 20 bf 62 0f 00 3d b2 45 9b be
       -0.31008896 -0.6272231 0.03126467 -0.3032661
000300 bd a2 09 3e a7 e5 a6 bc 76 3f e2 bd c9 de 72 be
       0.13440986 -0.020373179 -0.110472605 -0.23717798
000310 48 0c ec be 28 36 b5 3d 99 be 0f bd ac 9b 68 bd
       -0.4610312 0.0884822 -0.035093877 -0.056789085
000320 ea dd 37 3e b7 a3 26 3c 74 89 02 be e9 43 4e be
       0.17955747 0.010170869 -0.12747747 -0.20143093
000330 cf 7e 68 3e 81 86 0c be 32 18 72 bd 48 d0 b1 3d
       0.22704624 -0.13723184 -0.059105106 0.086823046
000340 e9 ad fd 3c cd 22 21 3e 65 14 47 bc 73 05 6b 3d
       0.030966716 0.15735932 -0.0121508585 0.057378244
000350 a0 48 0a bf 93 b7 0a be cd a8 81 bb 3e c5 9b bd
       -0.54017067 -0.1354659 -0.00395689 -0.0760598
000360 6f 25 c7 3d 53 91 18 3e 5b 16 c6 3c c7 46 e4 bc
       0.09723937 0.14899187 0.024180582 -0.02786578
000370 69 48 3a bf d4 79 89 bd 2c c7 be 3d 76 ac f5 3b
       -0.7276674 -0.0671269 0.09315333 0.0074973656
000380 2e b1 ec bd 09 01 6d be 7f 17 a2 3d a3 9f 4c be
       -0.11557232 -0.23144926 0.07914638 -0.19982772
000390 15 3c 2a be fc c2 42 be 62 5c e3 be 94 67 83 be
       -0.16624482 -0.19019693 -0.4440642 -0.2566496
0003a0 e8 be a9 3c ed 60 d6 3d c9 d0 0b be 54 4f 82 be
       0.020720914 0.10467706 -0.13653864 -0.25451148
0003b0 f5 49 28 3d b1 68 7d 3e e6 b3 1a bf cb 7d bd bc
       0.041086156 0.24746968 -0.60430753 -0.023131272
0003c0 b3 d0 16 be ed 67 8c 3d 18 c7 66 3e 7b 8d 81 bd
       -0.1472805 0.0685576 0.22536886 -0.063258134
0003d0 70 dd 96 be 22 34 27 3e 1f f1 67 be c1 59 53 be
       -0.29465818 0.16328481 -0.22650574 -0.20639707
0003e0 13 e3 d7 3d f0 02 ef be 4b e9 2b 3e 17 08 c4 3d
       0.10541358 -0.4668193 0.16788213 0.095718555
0003f0 23 10 6d be f1 68 cc be 1d 94 90 bc 0d 05 a2 be
       -0.23150687 -0.39923814 -0.01764875 -0.31644478

bias f4 [32]
000000 df 52 f9 bd da ca 9b 3e 11 f6 27 bf c2 de db 3d
       -0.121740095 0.304282 -0.6560984 0.10735847
000010 e9 3e 15 3e 76 40 87 3e f0 60 92 3e 9e c4 13 3e
       0.1457478 0.26416367 0.28589582 0.14430472
000020 f8 b3 11 bd 4a 9c bd 3e 36 93 e3 3d ee ca cb bd
       -0.035572022 0.37033302 0.11112063 -0.09950815
000030 44 2e 3a be 05 a6 a5 3e db dc 87 3e f1 cb 28 bd
       -0.18181711 0.32353225 0.26535687 -0.04121012
000040 68 3f a2 bd e1 d5 5f be 22 a9 d9 3d 16 72 de 3d
       -0.0792225 -0.21858932 0.10627963 0.10861604
000050 f7 d0 1b be ff bd a9 3e 2b c0 7d 3e 92 18 a3 3e
       -0.15216433 0.33152768 0.24780338 0.31854683
000060 28 8a 95 be c6 e5 70 3e b8 c1 8e 3e d4 c3 26 be
       -0.29206967 0.23525152 0.2788217 -0.1628564
000070 a0 6f 94 3e 0b 99 8d 3e bd f8 83 bd b8 69 9f 3e
       0.28991413 0.27655825 -0.064439274 0.31135345

weight f4 [1, 32]
000000 ff 97 a8 3d dd 65 26 be 4a 41 c8 3e 50 72 14 be
       0.08232116 -0.16249795 0.39112312 -0.14496732
000010 90 e9 5c be 00 1c 0e be 34 60 dc bd 83 7d 60 be
       -0.21573472 -0.13877869 -0.10760537 -0.21922879
000020 90 2d 4f 3d 82 cd 0f be 10 42 87 3d 39 13 3c 3d
       0.05058056 -0.14043239 0.06604397 0.04591677
000030 73 ec b8 bd d2 0f ec bd 15 a8 9c bd 50 d5 30 bc
       -0.09029474 -0.11526455 -0.076492466 -0.010793045
000040 07 3a 1b bc f4 46 4a 3c 2e 53 64 3e 4e d9 f2 3d
       -0.009474284 0.012346018 0.22297356 0.11857854
000050 af 8f 56 3d f8 85 d8 bd e5 cb c5 bd 3e d5 de bd
       0.05238312 -0.105724275 -0.096580304 -0.108805165
000060 0d bc 0a 3c c1 bf 26 be 3d d7 a6 bd 7f c9 15 3e
       0.008467686 -0.16284086 -0.08146522 0.14627646
000070 31 e1 07 be f3 f7 04 be 7c 80 1c 3d 9f a9 bf bd
       -0.13269497 -0.1298521 0.03820847 -0.093585245
