nnTraining/best_model.pt (torch, 196379 bytes, 11 tensors)

weight f4 [256, 9]
00000000: 892d 563e 2b32 9c40 4e61 91bf 7d74 9c3d
00000010: 3319 2fc0 0627 cd3f e1e4 de3e cecb 09bf
00000020: 258d c2be a677 7abf 48fe 87bd a578 e8bf
00000030: 93b8 71c0 7603 83bd 8bac dfbe dec7 0c3e
00000040: 2445 1540 bbbd 6640 02aa 4abf 22f2 64c0
00000050: 346a a640 0863 863e 3377 08c0 e5f8 8040
00000060: 6f9e 1a3f 845d b6bf 806e 9abf 559f 3c3f
00000070: 90fd 41c0 340c c540 3c4c 443f 0bdd b83f
00000080: 272f 51bd 5399 a13d 0ca3 d0bf ac60 6c3e
00000090: 5011 03be 6173 8640 9b8b b440 98ff b63f
000000a0: 5ba3 ec3c 26f3 c7bf de76 4fc0 2dd1 c0be
000000b0: 68a2 993f a18f 843f c545 2f40 1084 bc40
000000c0: 1a88 8a3e 89d8 23bf 086a 51bf 1071 97be
000000d0: 9902 903f 9d7c 82be daa1 a8be 4ea1 a2c0
000000e0: aaf9 273f 3091 62be 7be1 533f c050 3dc0
000000f0: 879d 4a3f 393c 0940 95a1 a239 a384 e53e
00000100: 9777 5bbf 4c52 66be ef92 8dbf b574 11bd
00000110: b6d9 17be b16f 09c0 ce78 d1be 0823 0240
00000120: 722e 7a3e 34d9 a6be f6d4 09c0 2939 b13e
00000130: 6064 ae3f ad00 9ebf 6d5e 17be 9a44 80bf
00000140: 0139 6f3d d937 ca3f 9765 bebe 77f5 aa3e
00000150: 1432 85bc 9077 4ebd 22c5 cdbc cba3 dabc
00000160: 2cdd 82bc 9cd2 de39 46df 1cbe 4c0a fabf
00000170: d88f 13c1 0688 5240 642a a8bf a1bb 10c0
00000180: c037 bf3d 8a40 15be 6f7f a6bf 2c32 d0bb
00000190: cb4d ce40 60ba ffbf 9c84 9dbf 5075 c5bf
000001a0: aeaf d23e 6196 0e3f 5ee6 2440 5d4e 5e3f
000001b0: 714f e6bf 6c8d d93d 1bd6 f3bd c056 293e
000001c0: a249 b8bd 473b 2abd 21f4 0fbe 3513 0fbd
000001d0: b0ab 53be 3303 763f d872 6640 68a2 2140
000001e0: 4e62 153f efba 03bf cdf3 28bf 5ce8 d1bd
000001f0: 575d 233c 2a66 2fbf 521f 25be 73a1 bb3f
00000200: a768 38c1 d5f0 2d40 e47e 47bd 4576 1b3f
00000210: 6dd2 7c3d f250 aebf 0c0e 81bf 4844 37bf
00000220: 9952 9ac0 f47d 1440 7c9f 6b3f 032a f33f
00000230: e49b d5bf 99a7 1c3f 7595 94bf e132 37bf
00000240: a88e 34be 7f53 423f 9371 8240 3ea0 283f
00000250: 3b3d 7840 d8e9 74be 32c3 ae3d 6351 21bf
00000260: 43a3 e0bf de45 e2be 130e 4fc0 c649 f8bf
00000270: ad84 88bf ecb4 e73f 358a 953f 13ff 1f40
00000280: 8ae9 e23f 080a 53c0 596c 723d 047c 0c40
00000290: 6769 d3c0 3440 4e40 bc37 04c0 cc8b e43e
000002a0: 12bc 7abf 1304 02c0 baae 21be d23e bfbe
000002b0: 2d6c bd40 7366 06c1 3463 8540 cbf5 503f
000002c0: 36e2 80bf 56ac 143f 19ac 293f 0070 09c0
000002d0: afb8 4dbf cbbc ee3f d65a ffc0 e309 d93c
000002e0: 84ee 0c3f f017 eebf 78c0 f93e 80f8 2d40
000002f0: 17f7 6dbf ba8b 85bf a6ee 4e40 0ad3 3a3f
00000300: cba6 283e 69b8 9340 da40 a13e bf28 19c0
00000310: 43e8 9dbf 5cad 4e40 656f 68bf 9c51 fabf
00000320: 24cc ccc0 9adf 0c3f cff2 cbbe 1313 89c0
00000330: 4b82 d23d 8420 0cbf 75ea 48bf f2b9 573f
00000340: daee 6e40 8bb3 6bc0 e0fe 433e 2190 10c0
00000350: f720 2dbe 4d82 99be 8538 99bf 5f8a a93d
00000360: c46d 45be 5491 69c0 9ae7 34c1 498b 4bbf
00000370: 4ed3 5a3f 9660 c7bf f6c4 bb3d a31d 3abf
00000380: f0f6 3f3f 594b 073f 43ad af40 f80f 3ebf
00000390: bc48 a63f 7797 c2be ec06 263f e161 14bf
000003a0: 2ead 15c0 feeb aa3e 9461 43bf 9856 813e
000003b0: f944 b4c0 d996 cdbf f1cd a5bf b0d7 943f
000003c0: 400c a93e 3dc2 debf 2d58 9c3f 3163 1a3e
000003d0: 7f4a bf40 1ed0 8540 47d4 cb3d 864d f5bf
000003e0: b3fa 183f 6cf9 863e f365 fa3d 5a3f 373f
000003f0: a2f3 9abe 7d96 90c0 3487 b2bf ba75 df3e
0.20915808 4.881124 -1.135782 0.07639406 -2.735913 1.6027534 0.43533996 -0.53826606
-0.3799831 -0.9783882 -0.06640297 -1.8161818 -3.7768905 -0.063971445 -0.43686327 0.13748118
2.332345 3.6053302 -0.7916566 -3.5772786 5.2004642 0.2624743 -2.1322753 4.0303826
0.60398 -1.4247289 -1.2064972 0.7368062 -3.0311012 6.1577396 0.76678824 1.4442457
-0.05107036 0.078905724 -1.6299758 0.23083752 -0.12799573 4.2015843 5.6420417 1.4296751
0.028886488 -1.5621078 -3.24163 -0.37659588 1.2002687 1.0356332 2.7386334 5.891121
0.27056962 -0.6400228 -0.81802416 -0.29578447 1.1250793 -0.25485697 -0.32935983 -5.0821905
0.6561533 -0.22125697 0.8276593 -2.9580536 0.7914662 2.1443007 0.00031019436 0.44827756
-0.85729355 -0.22492331 -1.1060466 -0.03551169 -0.14829144 -2.147442 -0.4091248 2.0333881
0.2443178 -0.32587588 -2.153623 0.34613922 1.3624382 -1.2343956 -0.14782114 -1.0020936
0.058403973 1.5798293 -0.37186882 0.333904 -0.01625923 -0.050406992 -0.025118414 -0.02668943
-0.015974604 0.00042500056 -0.15319547 -1.9534392 -9.222618 3.2895522 -1.3137937 -2.261452
0.09336805 -0.14575401 -1.300764 -0.006353637 6.446996 -1.9978752 -1.2306094 -1.5426426
0.41149658 0.5569821 2.5765605 0.8683832 -1.7992994 0.10622677 -0.11906072 0.16536999
-0.08998419 -0.041560438 -0.14057972 -0.034930427 -0.20670962 0.9609863 3.6007595 2.5255375
0.58353126 -0.51457113 -0.6599701 -0.10249397 0.009970984 -0.68515265 -0.16125229 1.4658645
-11.52555 2.7178242 -0.048704997 0.6072734 0.061724115 -1.3618453 -1.0082412 -0.71588564
-4.8225827 2.3201876 0.9204023 1.8997196 -1.6688199 0.61193234 -1.1608111 -0.7156201
-0.17632544 0.75908655 4.076364 0.6586951 3.8787372 -0.2391733 0.08533324 -0.6301481
-1.7549824 -0.4419393 -3.235234 -1.9397514 -1.066549 1.8102088 1.1682802 2.4999435
1.772752 -3.2974873 0.05918536 2.1950693 -6.6066165 3.2226686 -2.0659018 0.44637907
-0.9794322 -2.0314987 -0.15789309 -0.37352616 5.919455 -8.400012 4.1683598 0.8162505
-1.0069034 0.58075464 0.66278225 -2.147461 -0.8035993 1.8651365 -7.9798384 0.026493972
0.55051446 -1.8601055 0.48779655 2.7182922 -0.92955154 -1.0433266 3.233316 0.7297827
0.16469876 4.616261 0.3149479 -2.393112 -1.2336506 3.229331 -0.90794975 -1.9556155
-6.3999195 0.5502869 -0.39833686 -4.2835784 0.10278758 -0.54737115 -0.78482753 0.84268105
3.7333283 -3.6828334 0.19140196 -2.258797 -0.16907106 -0.29982224 -1.1970373 0.08278345
-0.19280154 -3.6494951 -11.306543 -0.7950941 0.85478675 -1.5576351 0.09168427 -0.7270147
0.7498617 0.52849346 5.4899 -0.74243116 1.2990947 -0.38006184 0.6485431 -0.5796185
-2.338695 0.33383173 -0.7632077 0.25261378 -5.6334195 -1.606166 -1.2953473 1.1628323
0.33017159 -1.7403027 1.2214409 0.15076901 5.9778438 4.181655 0.09952598 -1.9164283
0.59757537 0.2636217 0.122264765 0.7158104 -0.30264002 -4.51837 -1.3947511 0.43644506

bias f4 [256]
00000000: 6fa7 5cbf 5151 783f e81d 963e e756 87bf
00000010: 9214 4c3e 12e0 92bf 366d 81be f398 80bf
00000020: 2b16 9dbe 1b09 d1bf 89b2 c3bc 3819 efbe
00000030: b83f ec3f 294b 97bf 2244 853d 7f89 883b
00000040: 0561 28bf 99a5 83bf 3732 c0be 2c95 9a3e
00000050: e4b2 043f 7feb 37bf 7492 313f 5b89 6bbf
00000060: 8aba 1a3e e577 4fbf 37a2 ca3e d49c f6be
00000070: f900 5ebf 036d 54be 60d8 503f ed36 a9bf
00000080: 6ab0 d53d 4e05 c93e c7ec 813f 36fe babe
00000090: 1e21 443b 1a27 25bf b2e0 82bc 72ce 493f
000000a0: 1d2d 463e 2c15 cb3e 8686 89bf 264c 3abf
000000b0: 2855 b7be 0122 363f 5719 77bf ab16 b4bd
000000c0: 37e2 c8be feac 0a3f 9a2e eb3d d2c4 a7be
000000d0: 1f96 bcbf 5b94 4cbf 7f52 db3f a9ac f13d
000000e0: ce00 10bf d137 38bf daa7 1cbe f376 d13e
000000f0: 31ef d8be 5e5a 2e3f 320e 83bf 25f6 e7be
00000100: 5414 10bf b563 24bd 0ca5 393f 46ab 67bf
00000110: 7e63 4abf 59a5 8abf d845 e63f 7c03 2bbd
00000120: c40d 113f bdcf 233e db84 8c3e 29b2 ce3e
00000130: ac7f c8be 57f3 16bf dc2f 01bf fcdf fdba
00000140: 5409 23bf 4481 81be 17bc 493f 134a db3d
00000150: 2ae1 15be c926 00bf b5d9 9dbe 9b2d 523f
00000160: e14b a0bf ce0d 26bc 6bb0 8fbf fedc 4ebf
00000170: 24b8 74be eb49 35be 0ee7 35be 0fc2 3c3e
00000180: d703 7ebe 26ba d8be aee6 b73e 2183 903e
00000190: a770 b5bf 61db 55be 60d9 3b3f 1311 763e
000001a0: 7123 50bf 9ba5 95bd 19ca 083f 6b71 80bf
000001b0: 3b71 4ebe 724a 29bf 7e5c 6abe c7f8 c93e
000001c0: 3c5b 31bf adba 443f 5bb5 cbbf 14b0 17bf
000001d0: b35f 37be 8566 b8be 8eb1 b9be a095 88bf
000001e0: 9fc9 1f3e fdf4 bfbe 8acc 0abf 921b 383d
000001f0: be16 acbe 9ed0 13bf c85b 83bf 70b4 afbe
00000200: 2531 253e e3b5 05bf 7073 ccbe 5307 3dbe
00000210: 0d6a afbe a59c 26bf 9e1f 47bd 7beb 143f
00000220: 7e38 9bbe 4f5e ef3f 7732 c2bf c047 81bf
00000230: b223 b7bf e7ea e73f 0cdf 79be c9b6 acbe
00000240: d3d9 0c3f 11d2 973f ec10 ef3f f99d 38bf
00000250: 59d6 2bbf d7c5 2bbf 28d2 533f 5ab6 d8be
00000260: afd8 2fbf 9661 d2bd 7964 b8be a5be 0b3e
00000270: ed56 9cbf 37fb d6bd ae1f 3abc 3677 a9bd
00000280: f522 6cbe d1c9 42bf 5ec9 7fbd b47d 0b3d
00000290: e3df 903e 2aae 8abf 4759 b2bd 8faa fcbd
000002a0: 1c5f e9be cdce aa3d 518c fabd ce22 ea3f
000002b0: a1f9 ed3e d521 1cbf 9a58 d2be f41a 003f
000002c0: 47a4 fcbe 5b4b 04bf d129 febd 1c31 c93e
000002d0: edbd fe3d 969d 1fbd eae4 e53f 1bdc a8bf
000002e0: f50b a33e 8862 12be d4f5 bb3e 4236 3c3e
000002f0: 5e0b 04bd 1c8d 3f3f 5129 fb3e 2b09 0bbc
00000300: 2a91 00be 9ddb f73d d550 93bd 8f66 85be
00000310: 8ece f03e 03de c9be 082c 03bf 1ca4 f73e
00000320: 5e67 47bf f80a b43f 9daf 9bbf 1a29 03c0
00000330: a6a6 0cbf 164a 3fbf 5d1f e23f dd28 993f
00000340: f568 173f 1c96 4d3d 6395 4f3f 5024 cbbe
00000350: 6042 40bf ae13 66bf f9d7 a73e 59b1 ef3f
00000360: 282e 05bf 6138 51bf 971c 2ebe aaa5 11be
00000370: 1eff b43e f954 713f 9973 92bf 0fcb 053f
00000380: 1573 1ebf 9513 ffbe 7b53 6f3f 4c84 ebbe
00000390: d093 38be 64bb 16bf 91d2 243f f614 443e
000003a0: 0267 1dbd ed5e 41bd 71e8 1b3f b906 afbf
000003b0: 66e9 54be e641 243f 46ae e9be 5403 7bbe
000003c0: a4fb 7ebe f422 6cbf 4e86 08bf b60c c23e
000003d0: 8320 7abd 6d9b 51be 4d6f 95bf fb62 8dbf
000003e0: f778 a2be 4a7c 423f e8e7 24bf b40e 4abf
000003f0: a4e3 1ebc cec5 143e e6e5 12bf a8de 51be
-0.86192983 0.9699908 0.29319692 -1.0573395 0.19929722 -1.1474631 -0.25278634 -1.0046676
-0.30680975 -1.6330904 -0.023888843 -0.46698928 1.8456945 -1.1819812 0.06507136 0.0041667814
-0.6577304 -1.0284911 -0.3753831 0.30191934 0.51835465 -0.71843714 0.69364095 -0.9200646
0.15110222 -0.8104232 0.39576885 -0.48166525 -0.86720234 -0.2074471 0.8158016 -1.3219887
0.10434039 0.3926186 1.0150384 -0.36522073 0.0029926966 -0.6451279 -0.015976284 0.78830636
0.19353147 0.3966459 -1.0744178 -0.72772443 -0.35807157 0.71145636 -0.9652304 -0.08793386
-0.39235088 0.54170215 0.11483498 -0.3276735 -1.4733313 -0.7991387 1.7134551 0.118005104
-0.5625123 -0.7196017 -0.15298405 0.40911064 -0.4236999 0.6810664 -1.0238707 -0.4530498
-0.5628102 -0.04013415 0.72517467 -0.9049572 -0.79058063 -1.083171 1.7990065 -0.04175137
0.5666163 0.15997215 0.2744511 0.403703 -0.39159906 -0.5896506 -0.5046365 -0.0019369121
-0.6368611 -0.25293934 0.7880263 0.10707488 -0.14636675 -0.5005918 -0.3083016 0.8210084
-1.2523156 -0.010135127 -1.1225713 -0.8080596 -0.23898369 -0.17703979 -0.17763922 0.18433402
-0.24806152 -0.4232952 0.35918182 0.28225043 -1.4175004 -0.20884468 0.7337856 0.24029951
-0.8130408 -0.07306977 0.53433377 -1.0034612 -0.20160381 -0.6612922 -0.22886845 0.39447615
-0.6927984 0.76847345 -1.591472 -0.5925305 -0.179076 -0.36015716 -0.36268276 -1.0670662
0.15604256 -0.374916 -0.5421835 0.044948168 -0.336111 -0.577402 -1.0262384 -0.3431735
0.16132028 -0.5223066 -0.39931822 -0.18459825 -0.34260598 -0.6508277 -0.048614137 0.58171815
-0.30316538 1.8700656 -1.5171651 -1.0100021 -1.4307768 1.8118562 -0.24401492 -0.33733204
0.55019873 1.1860982 1.8677039 -0.7211605 -0.67123944 -0.67098755 0.8274255 -0.42326623
-0.6869001 -0.10272519 -0.36014155 0.13646944 -1.2214028 -0.10497134 -0.011360092 -0.08274691
-0.2306021 -0.760892 -0.062447898 0.034055427 0.28295812 -1.0834401 -0.087084346 -0.12337219
-0.45580375 0.08340225 -0.122337945 1.8291872 0.46479514 -0.60989124 -0.41083223 0.5004113
-0.49344084 -0.51677483 -0.124103196 0.3929528 0.12438569 -0.038968645 1.7960484 -1.3192171
0.3184506 -0.14295399 0.3671099 0.18380073 -0.032237403 0.7482469 0.4905496 -0.0084860725
-0.12555376 0.12102435 -0.07193152 -0.26054808 0.4703259 -0.39427194 -0.5123906 0.48367393
-0.778921 1.4065847 -1.2162968 -2.0493836 -0.54941785 -0.7472242 1.7665821 1.1965595
0.59144527 0.050191984 0.8108732 -0.39676142 -0.7510128 -0.8987378 0.32781962 1.8725997
-0.52023554 -0.8172665 -0.17003094 -0.14223352 0.3535089 0.94270283 -1.1441528 0.5226297
-0.6189435 -0.49819627 0.93486756 -0.45999372 -0.18025136 -0.58879685 0.643838 0.19148621
-0.038428314 -0.04720967 0.6090155 -1.3673927 -0.2079216 0.64163053 -0.45640773 -0.24512988
-0.24900681 -0.92240834 -0.5332993 0.37900323 -0.06106616 -0.20469446 -1.1674591 -1.1045831
-0.31732914 0.759709 -0.6441636 -0.78928685 -0.009697828 0.14528582 -0.5738205 -0.20495093

weight f4 [128, 256]
00000000: b585 ebbe 7282 afbe 24a8 9dbc a914 bdbf
00000010: 51e3 5fc0 6c4a b2bf 7438 543f 56c8 81c0
00000020: 31a8 90be bc09 4e3e 0e6f 083f 7c82 6f3f
00000030: 12ce 98bf a06e 8d3e fbab ecbe 7480 1a3d
00000040: 54f5 5dc0 9ef0 d83e b667 ebbe 5950 eb3e
00000050: bbe3 303f 102a 69c0 8304 933d 2e60 a3bf
00000060: 5234 d9bd 429f db3c 7c8a a1bf 6222 adbe
00000070: 2384 1abe 075d e33d a66b ad3d b627 633f
00000080: 8747 7a3f 7ee6 8fbe 8aa2 913e 445f 603f
00000090: bf7c 58c0 4fa6 e73d 354c 0bbf 52ea c2c0
000000a0: e017 86c0 19aa e13f ff64 a83f 1328 4a3f
000000b0: 9738 bf40 e148 e23d 2faf 25c0 ff99 ec3e
000000c0: 6acf fcbf b645 e2bf fb76 c9bf aa69 6e3e
000000d0: 297c 38bf 13e6 c93f 8d2a 8f3e 4125 873f
000000e0: 5ebf 33bf 9366 f6be 7645 df3e 0261 993e
000000f0: 141d 1f3e 4612 913c 80e0 0f3f 20a0 f9bf
00000100: b125 9f3f 80ab 68bd b116 84bf f2af 2e3f
00000110: c71f d23e 6fac 8cbf 38c6 ecbe 3952 ba3f
00000120: b5fe 4bc0 9b5d 70be da24 e43c 6614 c83d
00000130: 239a f9c0 ce61 98c0 e895 cbbf 3912 c93c
00000140: df87 363e 7db5 0c40 d154 5c3f b9fd babf
00000150: bb4b 1740 fb8b cf3f 9b76 d63e 6b9a b6be
00000160: 5fc3 613f 05f8 9b3f b023 e43e 5f41 a13e
00000170: 19c7 513f 1f49 02c1 5d8d 1dbf ca51 c9bd
00000180: 5e30 cebf 7f30 4540 6aa5 9cbe e609 cdbd
00000190: 525f f53e 114e 0bbe 8bad 9a3e 9da8 953f
000001a0: b534 91bf ee81 bb3e 853b 403f b0ed 62c0
000001b0: 617f 49bf 0508 683f 0aa1 b0bf a123 5d3f
000001c0: 66fc 9a3f a7ee 45bf 0b7f 8d3f 623a bebe
000001d0: 38d6 97c0 d47e 92bf 698e 4a40 13be b83f
000001e0: 1780 243f f3f0 97bf baa8 a3be 547d 5c3f
000001f0: 316c 08bf f4a8 223f f38e 8e3f 162c 82be
00000200: d548 5cbe 5911 833f 10f7 fabe dc4f 513f
00000210: ebde 1b3f 08d0 803e f5d0 813f 64d9 7ac0
00000220: c880 1dc0 e0fa cebf 4662 a5bd 3277 67be
00000230: 5803 8cbe 4e8f 57bf fba8 883f 6e37 b1bf
00000240: 977f cfbd b02d aec0 cee9 8dbf 8952 533f
00000250: d373 353f 0b87 1ec0 df4a dfbf b45b 9dbf
00000260: 2492 3ebd 9164 ccbf eadb 62be f2b2 65be
00000270: 91c3 733f 712e 6b3e e8b5 93bf 3067 0e3f
00000280: 2d77 2240 1ab3 97bd 6ee1 31bf 3daa 33c0
00000290: cc17 1540 ae83 99bf 6910 86bf 126e 823e
000002a0: fad9 fbbf 4f59 1abe c2b9 b1bf e7fa 9dbe
000002b0: a64f a2be dd56 143f 4f73 78c0 f0e9 e13f
000002c0: 5575 40bf 6359 5cbf 3a71 3240 69e9 a7bf
000002d0: 07f9 a5c0 13d0 9cbf 834d edbe 764f a7be
000002e0: e8f5 04bf 4aba 06bf 5650 7f3f b372 0f3e
000002f0: 2239 c9be dc53 ccbd 7b5f 8c40 824c 053f
00000300: 3a1e 2abf 0425 ccbf 56ce 8540 3223 c03e
00000310: 99cc a93e 8060 a7bf 17e2 323e 3417 a0bd
00000320: a19d 62c0 1e1d 9cbe e2f2 3b3f 7ebd cabc
00000330: 1ef2 373e 2d32 5d3f 8af6 f0bd ec39 15bf
00000340: 37f1 5740 cf89 fabe 49f0 34bf ff37 063f
00000350: 6d66 31be 0d3e 263d 9a25 0f3f 79fa afbf
00000360: f7ed 24c0 9daf fc3e c9f7 07bf b927 19bf
00000370: fed3 73bd 8949 94be 7340 3cc0 7975 543f
00000380: f149 e63e cb18 9f3e a682 a5be d578 bcbf
00000390: 71b4 88bf ac38 8c3e 3071 79bd 6168 063f
000003a0: a478 26bf b4ba 733e c4ea 8ebe b6fe a43f
000003b0: e37f 11bc 739c 14c0 c3d1 e6be 76a8 ba3e
000003c0: 027a 05c1 5e7a d73f c794 c6bf 229e e93f
000003d0: 9723 88bf 27f6 62c0 5f64 973e e3d7 3abf
000003e0: 9fdf 89bf 852f 913f 971b 893e 9c00 023f
000003f0: 8317 cebd 16a5 9d3f 9102 1f40 dd6b a0bf
-0.46000448 -0.3427921 -0.019245215 -1.477193 -3.4982493 -1.3928962 0.8289864 -4.055705
-0.2825332 0.20120901 0.53294456 0.9355848 -1.1937888 0.27623463 -0.4622496 0.03772016
-3.4680986 0.42371076 -0.45977563 0.45959738 0.6909749 -3.6431923 0.07178595 -1.2763727
-0.106056824 0.026809338 -1.2620387 -0.33815295 -0.15089469 0.11101728 0.08467798 0.8873247
0.9776539 -0.2810554 0.2844432 0.87645364 -3.382614 0.11311018 -0.5441316 -6.0911036
-4.1904144 1.7630035 1.3155822 0.789674 5.975658 0.11049057 -2.5888174 0.4621124
-1.9750798 -1.7677524 -1.5739435 0.23282495 -0.72064453 1.5773338 0.2796215 1.0558244
-0.7021388 -0.48125133 0.43607682 0.29956824 0.15538436 0.017708909 0.56201935 -1.9501991
1.2433378 -0.05680418 -1.0319425 0.6823722 0.4103987 -1.0990123 -0.4624498 1.4556342
-3.187421 -0.23473208 0.027849603 0.09769516 -7.8000655 -4.761939 -1.5905123 0.024544822
0.17825268 2.1985772 0.8606692 -1.460868 2.3639972 1.6214594 0.41887364 -0.35664687
0.8818874 1.2185065 0.44558477 0.31495187 0.81944424 -8.142852 -0.6154383 -0.09830053
-1.610851 3.081085 -0.3059495 -0.100116536 0.47924286 -0.13603999 0.30210528 1.1692082
-1.134421 0.36622566 0.7509082 -3.5457573 -0.7870999 0.90637237 -1.3799145 0.8638249
1.2108276 -0.7731728 1.1054395 -0.37153918 -4.7448997 -1.1444955 3.164942 1.4433006
0.6425795 -1.1870407 -0.31964666 0.86128736 -0.53290087 0.6353905 1.1137375 -0.2542426
-0.21512158 1.0239669 -0.4901662 0.8176248 0.6088702 0.25158715 1.0141894 -3.9195185
-2.4609852 -1.6170311 -0.08075385 -0.22604063 -0.273463 -0.8420304 1.0676569 -1.3845041
-0.10131758 -5.443077 -1.1086977 0.82547814 0.7087986 -2.4769924 -1.7444724 -1.229361
-0.04652609 -1.596819 -0.22154203 -0.22431543 0.95220286 0.22966935 -1.1539888 0.556262
2.538524 -0.07407208 -0.69484603 -2.8072655 2.3295774 -1.199331 -1.0473758 0.25474602
-1.9675896 -0.15073131 -1.3884814 -0.30855486 -0.31701392 0.5794504 -3.8820379 1.7649517
-0.75179034 -0.86073893 2.7881608 -1.3118106 -5.186649 -1.2250999 -0.463482 -0.3267781
-0.51937723 -0.52628005 0.9973196 0.14008598 -0.393014 -0.099769324 4.3866553 0.52069867
-0.6645237 -1.5948796 4.1814375 0.37526852 0.33163908 -1.3076324 0.17469059 -0.07816926
-3.540871 -0.30490965 0.73417485 -0.02474856 0.17963454 0.8640469 -0.117657736 -0.58291507
3.3740976 -0.48933265 -0.70679146 0.52429193 -0.17324229 0.04058652 0.5591675 -1.3748313
-2.5770242 0.49352732 -0.53112465 -0.59826237 -0.059528343 -0.28962353 -2.9414337 0.8299175
0.44978288 0.31073603 -0.3232624 -1.4724375 -1.0680066 0.27386987 -0.06089896 0.5250302
-0.65027833 0.2380169 -0.27913487 1.2890232 -0.008880588 -2.322049 -0.4508191 0.3645665
-8.342287 1.6834219 -1.5514153 1.8251383 -1.0635861 -3.546274 0.29568765 -0.72985667
-1.0771369 1.1342627 0.26778862 0.5078218 -0.10063078 1.2316005 2.4845316 -1.2532917

bias f4 [128]
00000000: 52d1 bc3f 8c9c 3a3f eaa7 523f 64ea cf3f
00000010: 7709 ddbf d11f 5ebe 6e9b 85bf 73e9 24be
00000020: e5f4 8e3f 55c7 0bc0 05f3 c4bd 190c 77bf
00000030: ef3e 30bd 15b6 aa3e 7c09 8fbd a1b6 9cc0
00000040: 0852 a6be 4017 5bbe a898 9e3f e00a 5dbd
00000050: b411 38be 2a81 fbbe 87b0 c6bf c847 2bbf
00000060: 0377 ffbf 3de4 b9be 893a 603f 68a9 c43f
00000070: e4ef e8bf fc73 d0bd a2eb 9cbe 021c 7abd
00000080: b14b 7fbd 354a 20bf 549e 6dbe 4b82 06c0
00000090: 0a4f a5bf f109 5bbe a613 df3e 1d10 74bd
000000a0: 9fc9 fabf 6bb5 713e 237a 9e3f 2a16 7d3e
000000b0: 6a9a 3c3f 4008 e43f 7b80 1cbd 2366 8ec0
000000c0: b324 003f 4685 623f bec4 07be 5c2c 2cbf
000000d0: e013 803e fd47 de3d a12b 32bf c448 67bf
000000e0: 9426 103d 697f c7bf 1a1b c3bd e010 fbbd
000000f0: 9534 acbf 7bb7 5abf 7e2a 20c0 08dc 373f
00000100: 9592 c0bd 7273 14be f28b aebd 20dc a0bf
00000110: f1ff 85bd cdcb 5abd f68e 363e 603b 533f
00000120: 3c2d ba3e f4bf abbe cba6 fa3e 66db 303e
00000130: 3171 2bbd 1ac2 c1bf 9d44 e73f 85c0 c5bf
00000140: 5807 aebc 6fdb 2bbf 7a0c 5d3e c3d6 51be
00000150: a3be a0bf 0b09 45c0 88cd 3fbe 972a 9e3e
00000160: d119 4b3f 3b02 a3bf ac3f ea3e dfd6 84bf
00000170: b19b efbd 17be c03f cdb7 98bd 1815 58c0
00000180: 2ba8 9e3f b51d 8abd 411d 0cbf 47c2 8fbf
00000190: a3ec ae3e c816 383f 46d5 c63f ce45 0fc0
000001a0: 73c0 413f dae9 cbbd 4208 333f 76b4 7d3f
000001b0: 0580 1fbf 5770 94bf d004 abbf 0b65 ecbe
000001c0: d524 43bd d3ce 50bf 32ec 9f3f 649d c73f
000001d0: 7ba6 87bf aabc 64bd 5060 4abe a46f 5e3f
000001e0: fd51 083f 07e5 0a3e 578c 053f 5561 e6bf
000001f0: 184b 63bd 3a42 363f 8ff3 663f 756a c0be
1.475138 0.7289512 0.82287467 1.6243405 -1.7268513 -0.21691824 -1.0438058 -0.16104679
1.1168486 -2.1840413 -0.09616665 -0.96502835 -0.04302877 0.33342043 -0.06984231 -4.8972936
-0.3248446 -0.21395588 1.2390337 -0.05396545 -0.17975503 -0.49121982 -1.5522622 -0.66906404
-1.9958194 -0.36306944 0.8758932 1.5364199 -1.8198209 -0.10178372 -0.30648524 -0.061061867
-0.062328044 -0.6261323 -0.23204929 -2.1017025 -1.2914746 -0.21390511 0.43569678 -0.05958568
-1.959278 0.23604362 1.2381023 0.24715486 0.7367312 1.7815018 -0.038208466 -4.449968
0.50056 0.8848461 -0.13258645 -0.6725519 0.25015163 0.108535744 -0.6959782 -0.90345407
0.03519304 -1.5585757 -0.095266536 -0.12259078 -1.3453547 -0.8543622 -2.5025935 0.71820116
-0.09402958 -0.14497164 -0.08522786 -1.2567177 -0.065429576 -0.053417016 0.17827973 0.82512474
0.36362636 -0.33544886 0.48955378 0.17271194 -0.041855995 -1.513736 1.8067814 -1.5449377
-0.021243736 -0.67131704 0.2158679 -0.20492081 -1.2558178 -3.078677 -0.18730748 0.30891868
0.7933627 -1.2735056 0.45751703 -1.0378073 -0.11699618 1.5058011 -0.07456932 -3.3762875
1.2395071 -0.067439474 -0.5473214 -1.1231164 0.34164914 0.7190976 1.5533836 -2.2386355
0.7568428 -0.09956713 0.69934475 0.99103487 -0.6230472 -1.1596783 -1.3360844 -0.4617084
-0.047642548 -0.8156559 1.2493956 1.5594907 -1.0597681 -0.055843987 -0.19763303 0.868891
0.53250104 0.1356393 0.52167267 -1.7998453 -0.055491537 0.71194804 0.9021539 -0.3758122

weight f4 [64, 128]
00000000: d609 aabf 6018 2ac0 31d4 4fbe 160d 8f3f
00000010: 69ec ccbf ca3e 03c0 c2ad 36c0 cfd4 67bf
00000020: 2766 493f 0a0c cabd 82a3 2ebd 6bf1 de3f
00000030: 607e dcbb dab4 3bc0 9f0d 68bb 7396 7f3e
00000040: 4cdd 273f 6294 533e adf4 013f 09e1 863d
00000050: 4a2c 19c0 985b d0bf 4ced 8f3f 6bc3 11bf
00000060: be19 e2be 4e7a 3b3e a5aa 98be 73fa 18bf
00000070: eaa7 d13e bcab 9ebf 62b7 9cbf a3e6 aabd
00000080: 5e02 c53c a143 c0bf b0b7 9d3f 4a14 833d
00000090: ca96 9e3d f777 febf ba6a dabf e94b 98bd
000000a0: 88ea 75be ab4b 89bf dd4c cdbe f7e4 dabf
000000b0: b78b 9cbf e01e 2d3f c6bb 833d df93 00c0
000000c0: c9d9 d2bf 0ec2 3cbf 056b 483d 4410 a3be
000000d0: 58bb 82bf f79c 25bf 2f3c e03e c611 ef3e
000000e0: 4068 00c0 422b 9f3f 6750 823d ea40 5bbd
000000f0: 906d 1ac0 081d 9b3f 01f6 523f f3b3 04c0
00000100: 57cc 88b9 b895 f8be 755e 683c 3afa 1340
00000110: b626 94bd 25c3 713d 55cd 17c0 e075 a4be
00000120: 779e 8f3f 1813 023d edd7 7dbf 2df4 893f
00000130: d606 963d e85d 7abf 4881 043f 08f6 0fc0
00000140: e5d5 78bd 1c3a 923f a8b3 ccbf 3c90 dfbd
00000150: 5057 a6bf 3e2a 69bf a221 5f3f 92d2 a2bf
00000160: 809d e73f 871b 02bf 5308 b9bf 603d d13f
00000170: a623 253d 6b3e 3abf e1ba 223d 8880 0ec0
00000180: f6cf b13e 5586 553d 12f2 19bf 6670 ae3f
00000190: d531 bdbf 3656 3a3f 97bf 8abf 4e9e ad3e
000001a0: 6b19 0ac0 9b57 b6bd e818 2ac0 340e cbbf
000001b0: 6fe7 0140 332f 85bf a57f 2bbf 031d d6bf
000001c0: cea3 c0bd 441c 52bf 53ff 2bc0 38f4 90bf
000001d0: 2c9d ba3f 03a1 d43d d144 4fbd b48a 7240
000001e0: e782 d4bf a5e5 01bf 579e dcbf 937e 1e3f
000001f0: 431c 453c 9b6e b63f e3d5 3a3f e370 8abf
00000200: 7079 e9be 8f76 44be d8e2 88bd e5e6 33bd
00000210: 7755 ddbe f72a 98bd 5f9f 32be b0ce febe
00000220: 288b b4be 81f0 76be 1652 043d b2a0 35be
00000230: 0d25 843d 4ed9 19be e4da 04bc 5011 16be
00000240: 7cdb 7cbe 1233 3cbe ef21 473a 35fa 8c3d
00000250: 3ed6 92be 537d 7fbe a681 1abe 7a99 07bf
00000260: 9dd6 25be e248 83bd e50a 89be 25e8 53be
00000270: a3f5 79bd acb6 8ebe 9dad eebb cc64 b3bb
00000280: 1b36 a7bc 1518 82be b844 69be 8cef 6abe
00000290: 9f09 a1be 5aa3 8ebe e7e1 c4bd aa0a ad3c
000002a0: c94f f33c 0f63 a9bd 21e5 ad3d dc01 79be
000002b0: ab85 fe3d fe71 6fbe 4a0b a9ba 5c94 9cbd
000002c0: 7a6b f7be 2d06 5abe 02c4 7e3d b480 a9bc
000002d0: 2cfb 37be 8ac8 4dbe 30cf d5bd b5f5 d9bd
000002e0: 0e6a 21be fbe2 4dbe b6ee 413d 2c69 4cbc
000002f0: 9b70 b5bd 1b39 ecbd b3b5 78be 626f e8be
00000300: c51a 04bd 6ecf 0abe 47e6 4ebc ee49 85bd
00000310: 16a3 dabc a7cf 9cbc 7124 673d 1a58 74bd
00000320: c38a c6bd 84d0 9dbe 90e6 b63c 8429 a9be
00000330: 379c e53b 336e 52bd c035 afba 7c16 913c
00000340: b8e9 da3c 4303 eebe 2450 203d b95c d3bc
00000350: 24d8 b2be 5d8e 3bbf 2c6c 753d e379 c4be
00000360: 2624 19bd ed45 7c38 69ee 38be ee0c 33be
00000370: 09ab 8cbd 1560 8ebe 1194 36bd 42fd bdbd
00000380: dc7c 0bbe 7197 82bd 77c2 8bbd b12d 0abe
00000390: 6255 e7be 775a 64be 382f 8abe 0e45 95be
000003a0: fbb9 e13d 5dac c7bb 5355 b03c ae4e 63bd
000003b0: facd 16be 4acf e3be ccc3 80be d052 5fbe
000003c0: 7098 7dbd 095d b5be 9f5f b1be 7394 6abe
000003d0: 0ad9 2cbe 43d5 dcbd c68f 51bd 9c7b b8bd
000003e0: e2a3 a6be 8b19 92be c658 043e cf01 f5bd
000003f0: 7f88 033d db07 9abe 5386 8c3b 54da 1ebe
-1.3284252 -2.6577377 -0.20295788 1.1175869 -1.6009647 -2.0507073 -2.8543553 -0.90559095
0.786715 -0.098655775 -0.042636402 1.7417425 -0.0067289323 -2.9329133 -0.003540851 0.24959736
0.6557205 0.20662072 0.5076397 0.06585891 -2.3933282 -1.6277952 1.1244292 -0.5693881
-0.44160265 0.18308374 -0.2981769 -0.59757155 0.4094842 -1.2396159 -1.2243464 -0.08344772
0.02404898 -1.5020639 1.2321682 0.06400354 0.077436045 -1.988036 -1.706382 -0.07436354
-0.24015248 -1.0726217 -0.40097705 -1.7101125 -1.2230138 0.67625237 0.06432299 -2.0090253
-1.6472713 -0.73733604 0.048930187 -0.31848347 -1.0213423 -0.64692634 0.43795916 0.46693248
-2.006363 1.2435076 0.06362992 -0.053528704 -2.4129372 1.2118235 0.8240662 -2.0734832
-0.00026092186 -0.48551726 0.014182677 2.3121476 -0.07233946 0.059023995 -2.3719075 -0.3212118
1.1220235 0.03175649 -0.991576 1.0777642 0.073255226 -0.9779954 0.5175977 -2.2493916
-0.06075086 1.1423984 -1.5992327 -0.109161824 -1.2995396 -0.9108008 0.87160695 -1.2720511
1.809494 -0.50823253 -1.4455665 1.6346855 0.0403172 -0.7275149 0.039729003 -2.226595
0.34728974 0.052130062 -0.60134995 1.3628051 -1.4780833 0.727878 -1.0839719 0.3390984
-2.1578014 -0.08903428 -2.6577702 -1.586371 2.0297506 -1.0405029 -0.66991645 -1.6727604
-0.09406243 -0.8207438 -2.6874588 -1.132453 1.4579215 0.10382273 -0.050602738 3.7897158
-1.6602448 -0.50741035 -1.7235821 0.61911887 0.012030664 1.4252504 0.72982615 -1.08157
-0.45600462 -0.19185852 -0.06683892 -0.04392137 -0.43229267 -0.0743007 -0.17443608 -0.49767065
-0.35262418 -0.24115182 0.032304846 -0.17737082 0.064523794 -0.15024301 -0.008108828 -0.14655042
-0.24693102 -0.18378857 0.0007596304 0.06883661 -0.2867908 -0.24950151 -0.1508852 -0.5296856
-0.1619515 -0.06410386 -0.26766124 -0.20694025 -0.061025273 -0.27873743 -0.00728388 -0.0054746624
-0.020411542 -0.25408998 -0.2278012 -0.22942942 -0.31452653 -0.27859002 -0.096134 0.02112325
0.02970113 -0.08270847 0.084909685 -0.24317116 0.12427839 -0.23383328 -0.0012897041 -0.07645485
-0.48324186 -0.21291418 0.062198646 -0.020691253 -0.17966908 -0.20096031 -0.104399085 -0.10642568
-0.15763113 -0.20106117 0.047346793 -0.012476247 -0.088593684 -0.115343295 -0.24288063 -0.45397478
-0.032252092 -0.1355569 -0.012628145 -0.065082416 -0.026689094 -0.019141985 0.056431238 -0.059654333
-0.096944354 -0.30823147 0.022326738 -0.33039486 0.0070071477 -0.051374625 -0.0013367459 0.017710917
0.026722774 -0.46486863 0.039138928 -0.02580105 -0.34930527 -0.73264104 0.059917614 -0.38374242
-0.03738799 6.0146605e-05 -0.18059696 -0.17485401 -0.0686856 -0.2780768 -0.0445748 -0.09276821
-0.13621849 -0.063765414 -0.068242006 -0.13493992 -0.4518233 -0.22300135 -0.2698915 -0.29154247
0.11021801 -0.0060935454 0.02152506 -0.055494957 -0.14727011 -0.44494087 -0.2514938 -0.21808934
-0.061912954 -0.35422543 -0.34643266 -0.22908191 -0.16879669 -0.10782864 -0.051162504 -0.090079516
-0.32546908 -0.28535113 0.1292449 -0.119632356 0.032112595 -0.30084118 0.0042884736 -0.15512973

bias f4 [64]
00000000: e96c 2cc0 0329 34bf 56ba 8140 249b 92c0
00000010: a12b 84c0 cdbc c0c0 2e7f 6ebf 3588 0dc0
00000020: 39d5 eec0 3c52 a9c0 7cc8 3f40 0c6f 66c0
00000030: 8d8b 6340 4783 ec3f aeb7 80bf 9977 d9bf
00000040: 9c4b 8dc0 2764 b73f afe6 75c0 3df3 fcbf
00000050: 3a06 f2bf e609 873f 8e1a bbbf 8e07 bebf
00000060: 9e46 343f 5dc3 213e de4a aabf 54de 3f40
00000070: 56cd b33f dad5 e1bf 7a5c 5bc0 ed40 963e
00000080: 9816 14c0 888a adc0 7ed1 9dbf 70d2 0e40
00000090: fd09 49bf 4209 b0be a85b de3f 920d 7b40
000000a0: 7153 4dc0 a57d fcc0 0e8c 4dc0 613a 03c0
000000b0: 1de8 923f 3b19 f4bf 92af c3bf b262 a7bf
000000c0: 5f88 863f 2e60 a9bf b5bf bcc0 eca3 dbc0
000000d0: 7db8 1540 068f 8ec0 4543 2ec0 ec19 9f3f
000000e0: cb00 973f 8c55 32c0 72a0 e9c0 69ac d8be
000000f0: e15c 8fc0 8358 7340 9f4a 78c0 7b51 33c0
-2.6941473 -0.7037508 4.053996 -4.581438 -4.130326 -6.023047 -0.9316281 -2.2114384
-7.463528 -5.2912884 2.9966116 -3.6005278 3.5553925 1.8477563 -1.0056055 -1.6989623
-4.4154797 1.4327439 -3.8422048 -1.976173 -1.890815 1.0549896 -1.4617479 -1.4846056
0.70420253 0.15797181 -1.3304098 2.9979448 1.4047039 -1.7643387 -3.4275193 0.2934641
-2.313879 -5.4231606 -1.2329557 2.231594 -0.78530866 -0.34382063 1.7371721 3.9227033
-3.2082179 -7.8903375 -3.2116733 -2.0504382 1.1477085 -1.90702 -1.5287955 -1.3076994
1.0510367 -1.3232477 -5.8984017 -6.86376 2.3393853 -4.454959 -2.7228558 1.2429786
1.1797117 -2.7864714 -7.3008356 -0.4231904 -4.4800878 3.8022773 -3.8795545 -2.8018482

weight f4 [32, 64]
00000000: 0988 8ebe 6305 b13e 9834 bfbd da12 8a3e
00000010: 2d3c 2cbe be41 843b cc1c bcbe fc80 68bf
00000020: 5fde ff3d 1b89 92bf 9657 ba3e 9370 05c0
00000030: c357 1abe 3124 1e3e ee76 f7bf 80f5 8abe
00000040: d810 803f b4dc 5a3f 90c2 92be dacb 7c3f
00000050: 979f 753e 8b88 903f 51fe 253d 6f2b 9abf
00000060: eb02 203f 1af8 093e 937d cf3e ed68 063e
00000070: e4f5 ab3e f06f aa3c 140e b2be 8eca 543f
00000080: b761 d03c 6913 20bf 651e 2e3f ea12 3abc
00000090: 88ef 053f 70e8 1abe 630f 033c b93d 313d
000000a0: ac58 61bf acd3 273f cfe3 903e 22b3 90be
000000b0: 33f1 15bf e5b5 edbe c105 d23d 6a3b a6be
000000c0: 0a6a a93e 1b65 c63c 073a 4ebf 8982 013f
000000d0: 966c ce3d 2e71 c63e c337 adbc d967 d43f
000000e0: 1d98 fd3e 3b68 883d 17f2 133f f9df 03bf
000000f0: 9b43 6ebe 6b94 81bd 0c1b b63f cd3e 8ebe
00000100: 58ea 7b3d 2a23 b0bc 2f0f febe 3498 a5be
00000110: 1c05 e3be 651d ad3e 9245 17bf 22f2 993c
00000120: ad6e 1dbf c49a 39be 99dc 1b3f 82aa 42bf
00000130: c813 c8bf 504b 22c0 490b f63c 963e a53d
00000140: 5816 0440 b64e 823d f534 db3e 2202 153e
00000150: e9d8 2cc0 b1f4 e1be d940 163d 0ff4 863b
00000160: 5a75 13c0 bd73 48be 914f dc3d 07ae 32bf
00000170: 27dd 48bf 62f5 633e 418c 213f c8cd a13f
00000180: b11f 2bc0 545e 0cc0 727f 84be e02f f4bf
00000190: a0ff 4c3d 24e5 0b3e aaec 22c0 70e4 30bf
000001a0: 634f b83c ec92 c7be 40cd 163e c699 46bf
000001b0: 351d 333d abfb 07be ecf2 213e 9582 ec3d
000001c0: d333 a1bd 23db dabf 06eb f5be 9834 ffbe
000001d0: d15c 13c0 911d 923e 931b a9be c418 e03f
000001e0: 90cb d8bf 586e 783d 145b 0cbf 5936 973e
000001f0: 5fc6 efbf 3b31 89bf 9f14 013f 92df 063e
00000200: 3b48 1dbf cf7c 8bbc 0905 b1be c9c0 19bf
00000210: 68ac a9be 69dc f7be 7839 35bf 1ca4 b1be
00000220: f238 29be 5573 cfbe d8ba 2cbe d736 cdbf
00000230: a7c1 bfbf 4639 d1c0 cd13 f8bd 0f66 f0be
00000240: d941 08bf 0952 94c0 8437 9abd f6ab 9ebf
00000250: 551b 43c0 b526 35bf 45d3 b7be e3d7 72be
00000260: 534d 55c0 2bbc d3bd 2860 c6be d401 87c0
00000270: 3245 ba3e 8846 cabd e9d8 66bf 8945 bbbf
00000280: 9dc5 3ec0 3940 d7bf e625 44be 3390 94bf
00000290: 37d8 1bbe 6aa8 05bf 4077 afc0 15a1 7cbf
000002a0: 570a 26be 391e 24be 75a0 4b3f 9178 26bf
000002b0: 69b2 f4be d9df 41be a200 9fbf 8129 efbd
000002c0: 9e54 a4be 749a f5be 9044 98bf e003 50be
000002d0: 0d9a 6fc0 f302 e7bc 65a3 c2be 835b 95bf
000002e0: bba6 d1c0 deb4 3cbe fda7 92be e611 e43c
000002f0: c77c c2be ea33 5dbf 968d 65be 41f5 abbd
00000300: cfa9 a3be fcf3 fbbd c0d8 a2bf 8d4a 45bf
00000310: bf69 19bf a492 293e c4d7 4fbf cd85 ecbe
00000320: 27d7 99bf 54c0 c1be d7c7 c9bf d274 9bbf
00000330: 2dd1 92bf e48d 0bbf 877f 97be f787 9bbf
00000340: c674 c2bc 8acb 13bf 7161 08bf d911 97be
00000350: d0b8 9ebe 0d1c 19bf 516c fdbe 47c1 abbe
00000360: 6ef1 00be eb26 5cbe 8ab6 cabe 981b 81bf
00000370: 0351 b7bf e9c0 6c3d d49a 8ebe 2eb0 16bf
00000380: e189 19bf 47ac 5dbe f679 5e3e 6330 cbbf
00000390: f4b6 babf 125d 56bf eb57 b3bf 6393 cfbf
000003a0: 974a a5be bdf1 88bf a2d1 c03e 7e07 1bbf
000003b0: 3a1d fdbe 78ab 84be 56cd f5be 3579 95be
000003c0: 4ab6 7bbe 8581 8dbf 43c4 983e 8bd0 713e
000003d0: 86a7 82bf 6faf c3bb fa6d 05bf acbd 0abf
000003e0: 4d6a efbe 84e6 8e3e cd3e 37bf a813 47be
000003f0: 298c 6ebe 8b2a a8bf 54ae eabc 4373 d2be
-0.27838162 0.34574422 -0.09336203 0.26967508 -0.1681983 0.0040361574 -0.3674072 -0.90821815
0.12493586 -1.1448091 0.36394948 -2.084996 -0.15072541 0.15443493 -1.933317 -0.27140427
1.000514 0.85493016 -0.28664064 0.9874855 0.2398666 1.129167 0.04052574 -1.2044505
0.6250445 0.1347355 0.40525493 0.13125964 0.33586037 0.02080533 -0.34776366 0.83121574
0.025437219 -0.6252962 0.6801513 -0.0113570485 0.5231862 -0.1512773 0.007999274 0.043271754
-0.8802593 0.6555736 0.28298804 -0.28261667 -0.58571166 -0.46427837 0.10255004 -0.32467204
0.33088714 0.024218133 -0.8055729 0.50589806 0.10079305 0.38758224 -0.021144753 1.6594192
0.49530116 0.066605054 0.57791275 -0.5151363 -0.23267977 -0.063271366 1.4227004 -0.27782288
0.061502784 -0.021501143 -0.4962096 -0.32342684 -0.44339836 0.3381149 -0.5909053 0.018792216
-0.61497 -0.18125445 0.6088348 -0.76041424 -1.5631037 -2.5358467 0.030034678 0.08068578
2.0638638 0.06362669 0.4281384 0.14551595 -2.7007391 -0.44131997 0.036682937 0.0041184495
-2.3040376 -0.195754 0.107573636 -0.69796795 -0.7846245 0.22261575 0.63104635 1.2640924
-2.6738093 -2.1932573 -0.25878483 -1.907711 0.05004847 0.13661629 -2.5456948 -0.6909857
0.022498792 -0.3897928 0.14726734 -0.7757839 0.043729026 -0.13279597 0.15815324 0.11548344
-0.07871213 -1.7098125 -0.4803087 -0.49844813 -2.30254 0.28538182 -0.3302885 1.7507558
-1.6937122 0.060652107 -0.54826474 0.2953365 -1.8732413 -1.0718149 0.5042209 0.13171223
-0.6143834 -0.017027287 -0.34574154 -0.6005979 -0.33139348 -0.48410347 -0.70790815 -0.34695518
-0.16525629 -0.4051768 -0.1686815 -1.6032361 -1.4980973 -6.5382414 -0.12113152 -0.46952865
-0.53225476 -4.635014 -0.0753012 -1.2396228 -3.0485432 -0.7076219 -0.35903373 -0.23715167
-3.3328445 -0.103386246 -0.38745236 -4.218973 0.36380917 -0.09876734 -0.9017473 -1.4630595
-2.9808114 -1.6816474 -0.19155082 -1.1606506 -0.15219198 -0.52210104 -5.483307 -0.9868329
-0.16214882 -0.16027154 0.79541713 -0.6502772 -0.47792366 -0.18933047 -1.2422068 -0.11677838
-0.32095808 -0.479694 -1.1895924 -0.20313978 -3.7437775 -0.028199648 -0.38015285 -1.1668552
-6.551603 -0.1842837 -0.2864379 0.027840566 -0.37985823 -0.8640734 -0.22417292 -0.08396388
-0.3196549 -0.12302396 -1.2722397 -0.7706688 -0.5992698 0.16559845 -0.8118861 -0.46195832
-1.2018784 -0.37842047 -1.5764111 -1.2145026 -1.1470085 -0.5451338 -0.29589483 -1.2150868
-0.023737323 -0.5773245 -0.53273684 -0.29505804 -0.31000376 -0.5980843 -0.494967 -0.33545896
-0.12592098 -0.21499221 -0.3959239 -1.0086546 -1.4321598 0.05780116 -0.278525 -0.5886258
-0.5997601 -0.2164775 0.21726212 -1.5874141 -1.4587083 -0.83735764 -1.4011205 -1.6216854
-0.3228347 -1.0698773 0.37659937 -0.6055831 -0.4943636 -0.2591207 -0.4800822 -0.29194036
-0.24581257 -1.1055151 0.29837236 0.23614709 -1.0207374 -0.005971841 -0.52120936 -0.54195666
-0.4676079 0.27910244 -0.715802 -0.19441092 -0.23295654 -1.3137983 -0.02864758 -0.41103563

bias f4 [32]
00000000: 7f36 45c1 c4dc 303f dd0a 6540 58bb 0bc0
00000010: 3fe4 b83f 0fba e8be 328e b2bd 1922 cdbf
00000020: ec6d b0c0 617e a8be 2d38 d2bf ed28 a040
00000030: bb42 a7bf bcdb f4bf 13c2 2bc1 2d90 7fc0
00000040: 597f 53be 12ea 0bc1 4f5b 9e3d 31d7 103e
00000050: bcf2 adbf 25a5 813d 9f27 98bf 5db7 4cbf
00000060: cac2 fdbf f06a efbe 150f 00be 0468 14c1
00000070: c609 c3bf 0d67 043f 9d77 adbf b282 22bf
-12.325805 0.6908686 3.578788 -2.1833096 1.4444655 -0.4545445 -0.08718528 -1.6026031
-5.513418 -0.3290892 -1.6423393 5.004996 -1.306724 -1.9129558 -10.734881 -3.9931748
-0.20654048 -8.744646 0.077322595 0.14144589 -1.3589702 0.06330327 -1.1887091 -0.7996729
-1.982507 -0.46761274 -0.12505753 -9.275394 -1.5237358 0.51719743 -1.3552128 -0.63480675

weight f4 [32, 32]
00000000: 5014 5bbe 1ba4 72bc 455a 313c 4aec 74bd
00000010: df65 09c1 d71d 8ec0 dc42 ffc0 b7b0 03bf
00000020: d1a8 febe 75dd 2b3e 2586 9d3c fbb1 36be
00000030: 18b3 bbbe ef44 ebbf 1e2e 9ebe 4f42 0bc0
00000040: 4027 aebd 9408 49bf 7b67 30c1 1c04 76c0
00000050: 9f77 b0be 7385 933c d4f8 7dbd 3836 353d
00000060: 58a7 bdbe 8474 48be 82ba a4bd b3af 67be
00000070: 0f0a 46c0 e1ce 78c0 cae9 20bf d3ea b6bc
00000080: f3ed d8bd 4b36 c5bc d015 6fbe 3576 3cbe
00000090: e7de 2abe 2d45 68bd 97fa b6bd 20bb b8bd
000000a0: 862f 86be ef83 2cbd 9bb6 f4bd ef0c 32be
000000b0: 8ca9 efbd 2be2 3bbe 3dfa 85bd 4b7d a6bd
000000c0: 3fc6 1cbe 3978 cbbd 3064 67bd 14ad d3bd
000000d0: 9678 6f3d 421e 16be 4be8 11be e6f5 15bd
000000e0: 4c18 18be 0690 b1bd 72d3 e4bd 997b 073c
000000f0: 77b1 87bc e624 38be a5f3 17be a64b b5bd
00000100: 3c64 4abe e4ff 5fbf 25e7 c3bd bdc5 71bc
00000110: 7ca7 01bf 055c 91be ed45 80be 7699 eabe
00000120: bde5 8abe 90ca afbd 8ad4 11bf 161c e4be
00000130: 3031 a9be 720d 40be 7f8b 48be 4f2d afbd
00000140: e9a6 01bf 20bf 8dbe 8469 e3bd 3511 76be
00000150: 15b0 2abd 4445 85be d44f 83bf 98dd afbc
00000160: 2fc8 f1bd 1098 0dbf b111 13bf 090c 0bbe
00000170: 36ff a0bd d740 63be b60e 97bb 0700 d03d
00000180: e1a4 5fbe 75f5 c5be a60d 323c 4e8a 53be
00000190: 8bf3 71bd f58e 0bbe 3c97 89be 2198 6fbe
000001a0: 4d2c 07be 8cd4 bbbc ce8b 47be d04e 1bbe
000001b0: e179 98be 2473 66be af08 80ba 9fdc a0be
000001c0: e827 21bd f6c0 3abe 0827 ddbe fb8b 1bbf
000001d0: 1e53 25bc 928e 16be 865b 49bd ea2d adbd
000001e0: aa02 21be d268 03bd 4021 bf3c d2c8 033a
000001f0: c477 1dbe 4cdd 1fbe 8193 a8be aedd e7bd
00000200: b410 e8bd 21bb 483d 8813 893d 70d9 49be
00000210: 4b69 093e 0dca d9c0 4f7b 9bbe 949b b2bd
00000220: c72d 31c0 1ff8 c33c 57e8 54be 3639 72bd
00000230: 4032 3b3c 5cd2 cec0 e6f8 6abf 0d5e 04c0
00000240: 9ae5 c33d a36b 3bbf ba97 03be cfff 0c3d
00000250: 6ba0 6a3e 2e1b 7a3c 4632 b1be aa19 55bd
00000260: 3c60 8bbe a58c 513d 0711 0f3e fe49 5fbe
00000270: e352 b0bf e4fb 29be 3641 cc3d c2c9 f3bd
00000280: dc2c 55bd 3176 48be 46ee 1fc0 f480 673e
00000290: 9504 0bc0 fe68 57bf 1ecd 96bf f709 47bf
000002a0: 438e 43be cc9c a6be a656 043c d9cb f6bf
000002b0: 603d 1bbf 3458 4abe 3dbb d5be 316b b2be
000002c0: 6232 61bd 399c 60be 3b7c c8bf bb90 a2bf
000002d0: 34e1 71be ec3f 883e ac0d 48bf 6a7c c0bf
000002e0: cccb 21be b5ca f5be 08b6 85be 1196 71be
000002f0: 7f75 92be 453b 0cc0 8969 05be 1b76 5bbd
00000300: d49a f5bd 32bd 013e 8a49 93bc 9e8f 93be
00000310: 4bfc 88bd 0ec1 c7bb bdf1 95bc 5339 39be
00000320: cdc8 2bbd 2dba b23d 7663 b23d c0a9 1e3a
00000330: dfd1 ea3e 2bff 2abc cf91 95bd 77f6 b1bc
00000340: cf75 713e 0348 ddbc 44c7 07bc 6043 7abb
00000350: 5b6d a73e 23e8 293d b85e ec3e c030 a7bd
00000360: 8f20 3bbe 6333 923e 58ec 293f 7275 84bd
00000370: 99b0 91bd 78a4 8bbc 2f86 c73e 8629 dd3b
00000380: e5f2 53bc 6690 58be c4c5 4a3d 17a0 a3be
00000390: d079 1dc0 aea0 81be 1370 d6bf fcec a83d
000003a0: 1944 2cbf 4b19 dcbd 03d0 87be b59b 89c0
000003b0: 6715 8dbe ecb8 f9be ccf9 f7be 92c0 b7be
000003c0: da9d 98c0 bdfb debd 5c06 17c0 72fc 91c0
000003d0: 7ef7 c5be 1c61 e3be 302c e2be fd7b 9dc0
000003e0: 5089 81be 2c2c f8be 1596 e4be aa3e 1ebe
000003f0: b24a d7be b1f2 51c0 af67 0fc0 1c19 0c3b
-0.21394467 -0.014809634 0.010824745 -0.059795655 -8.587371 -4.4411426 -7.9769115 -0.5144152
-0.49738172 0.16783698 0.019229004 -0.17841332 -0.36660075 -1.8380412 -0.3089456 -2.1759222
-0.0850358 -0.78528714 -11.025264 -3.8440008 -0.34466264 0.01800797 -0.06200488 0.04424116
-0.37041736 -0.19575697 -0.08043386 -0.22625618 -3.094364 -3.887627 -0.62856734 -0.02232877
-0.1059226 -0.02407374 -0.23348165 -0.18404467 -0.16686593 -0.056706596 -0.08934515 -0.09020066
-0.26208133 -0.04211801 -0.11948892 -0.17387746 -0.117022604 -0.18347995 -0.0654187 -0.081293665
-0.1531 -0.0993504 -0.05649203 -0.103357464 0.05846461 -0.1465998 -0.14248769 -0.03661146
-0.14853019 -0.086700484 -0.111731425 0.008269214 -0.016564114 -0.17982826 -0.14839037 -0.088523194
-0.19764799 -0.87499833 -0.09565572 -0.014756617 -0.50646186 -0.28390518 -0.2505335 -0.45820206
-0.271284 -0.085835576 -0.56964934 -0.44552678 -0.3304534 -0.18755129 -0.19584464 -0.08553564
-0.5064531 -0.2768488 -0.1110411 -0.24030001 -0.04167183 -0.26029408 -1.0258737 -0.021467969
-0.1180576 -0.55310154 -0.5744887 -0.1357881 -0.078611776 -0.22192703 -0.004609908 0.10156255
-0.2184024 -0.3866383 0.010867512 -0.20658228 -0.05907015 -0.13628753 -0.26873195 -0.23397876
-0.13200493 -0.022928499 -0.19486925 -0.15166783 -0.29780486 -0.2250486 -0.0009768213 -0.3141832
-0.0393447 -0.18237671 -0.4319384 -0.6076047 -0.010090617 -0.14702824 -0.04915955 -0.08456023
-0.15723673 -0.032082386 0.023331285 0.0005027178 -0.15377718 -0.15611762 -0.32925037 -0.11321579
-0.11331311 0.049006585 0.066931784 -0.19711852 0.13419072 -6.8059144 -0.30367514 -0.087210804
-2.768419 0.023922024 -0.20791756 -0.05913659 0.011425555 -6.4631786 -0.9178604 -2.0682404
0.095652774 -0.73211116 -0.12850848 0.034423646 0.22912757 0.015265269 -0.34608668 -0.05202643
-0.27221859 0.05115952 0.13971339 -0.2180557 -1.3775295 -0.16599995 0.099733755 -0.119037166
-0.052044734 -0.19576336 -2.498918 0.22607785 -2.1721547 -0.8414458 -1.1781347 -0.7774958
-0.19097237 -0.32541502 0.008077299 -1.9280959 -0.60640526 -0.1976021 -0.41744414 -0.34847406
-0.05497969 -0.21934594 -1.5662912 -1.2700418 -0.23621064 0.2661127 -0.7814586 -1.5037968
-0.15800399 -0.48006216 -0.2611544 -0.23592402 -0.28605267 -2.1911175 -0.1302854 -0.05357943
-0.11992422 0.12669829 -0.017979402 -0.2882051 -0.06688746 -0.006096012 -0.018303746 -0.18088274
-0.041939545 0.087269165 0.08710377 0.00060525164 0.45863244 -0.010436813 -0.073032014 -0.021723969
0.23580097 -0.027011877 -0.008287255 -0.0038187131 0.3270062 0.04148115 0.46166015 -0.08163595
-0.18274139 0.2855483 0.66376257 -0.064677134 -0.071137615 -0.017046198 0.3896956 0.0067493347
-0.012936329 -0.21148834 0.04950501 -0.31958076 -2.4605598 -0.253179 -1.6752952 0.08248326
-0.6729141 -0.10747012 -0.26525888 -4.300257 -0.2755539 -0.48773897 -0.48432767 -0.35889107
-4.769269 -0.10887859 -2.3597631 -4.562066 -0.38665384 -0.44410026 -0.44174337 -4.9213853
-0.25300074 -0.484712 -0.44645754 -0.15453592 -0.42049176 -3.2804377 -2.2407033 0.002137727

bias f4 [32]
00000000: d22a ae3f 538c 21bf 1138 9bbe 7805 0abf
00000010: 7fb6 a03f cdf4 b23c 72ea 1240 39a2 263f
00000020: 694a 31bf 2243 a93f 99c3 5fbf 0de7 b53f
00000030: 5c6e 6bbf b23b 62be 502a 993f 04cf 54bf
00000040: a8d4 b9be 54f0 76c0 2b16 ac3f 597f 983f
00000050: ae96 ab3f 871b f5be ac50 a63f bef8 0e40
00000060: 2128 a53f 92bf 93be df2a dc3f 8ed4 a63f
00000070: 4d43 b53f 9cbe b33f e37d 8dbe 7245 af3f
1.3606818 -0.6310474 -0.30316213 -0.53914595 1.2555693 0.021845246 2.2955594 0.6509128
-0.69254166 1.3223612 -0.87407833 1.4211136 -0.9196527 -0.22093084 1.1966038 -0.8312838
-0.36295056 -3.8584185 1.3444265 1.1913863 1.3405359 -0.47872564 1.2993369 2.233932
1.2902871 -0.28857094 1.7200583 1.3033617 1.4161164 1.4042544 -0.27635106 1.3693068

weight f4 [1, 32]
00000000: ec09 40bd 9cd6 55bb d1cc 30bd 9ec7 4f3c
00000010: 9d14 2cbd 5445 0ebe 9d61 f2bc f786 363e
00000020: 0e23 c73d 2765 2cbd ea96 3c3d 4648 0dbd
00000030: 720c 9bbc 3234 93bc 8462 08bd 8466 fc3c
00000040: ffe2 54bd 025f a3bc c78a 39bd 703a 6cbd
00000050: 2a2a 0cbd d254 603d c1d4 88bd 2df4 05bd
00000060: 1918 7cbd 18f6 803c f9d3 06bd 70d5 69bd
00000070: 03db 68bd c024 06bd db00 6b3c c95b 68bd
-0.046884462 -0.0032629138 -0.04316408 0.01268187 -0.042011846 -0.13893634 -0.029587561 0.17824923
0.09723483 -0.042088654 0.04604236 -0.034492753 -0.018926833 -0.017969225 -0.033297077 0.030810602
-0.051974293 -0.019942764 -0.045298364 -0.057672918 -0.0342199 0.05476839 -0.066812046 -0.032703567
-0.06154642 0.015742347 -0.032916997 -0.057088315 -0.05684949 -0.03274989 0.014343466 -0.05672816
