nnTraining/best_model.pt (torch, 196379 bytes, 11 tensors)

weight f4 [256, 9]
00000000: 8e75 97bf 7cd5 50c0 dd7d 09c0 1825 9bbf
00000010: 9661 46bf 3e62 c6bf 35f1 273f 4e8f de3f
00000020: 9874 87bf 90c2 eebe b962 1841 181f 49be
00000030: fd98 8e3e eccc 78bf 973a adbf 3276 9abf
00000040: efc9 95bd cb5f f03f 3d70 b3be b5b7 ef3f
00000050: a3f6 2340 fc9e 973f a5e5 3740 dec8 fabf
00000060: 439b 9dbf 3f69 e83f 121c c23e c888 93bd
00000070: 0cb7 d43f 70bc 64bf 150a 85bf 7982 42bf
00000080: 4892 d03e 50ce ec3f 5809 033d 239b 15c0
00000090: 440d 573f 392e b940 1386 0941 c980 083e
000000a0: e20c 60be b8bd a5bd 8b2f 16be f5dd 5abf
000000b0: a68d 613f 7b69 f93e cbeb ba3f 76d0 a7c0
000000c0: 481d a13f 326e 073f c6df 63c0 6d45 333e
000000d0: a1d5 8cbf 8c78 a7bf b5cf 40bf d299 2640
000000e0: 8b19 f1c0 b086 6340 bcc4 31bf afbe 5d3f
000000f0: 75b8 acbe b6f8 2e3f 5a00 5ebf 984f 4abe
00000100: dc19 7c40 26ca bdc0 6d76 cd3f acd7 a9be
00000110: c05d 413e f4fc 263e 6098 02c0 1f8b 75be
00000120: 6806 aebe a5c7 a5bf b84b f340 3f62 7440
00000130: b36d 87bf 309e 7b3e 5214 77c0 74e8 a8bf
00000140: 0902 7c3f 01f9 d73e 98c0 21be 4dc1 9c40
00000150: 8f04 c53f 971e 0440 9acb 2840 5d69 06bf
00000160: 7f9f 11c0 be83 02bf 9576 d63e eb36 8cc0
00000170: 1bb4 b040 f95b 5a3f 1bb5 3f40 0795 2440
00000180: b7da 0fbf bf1d c6bf 78c3 023f fe9b d9be
00000190: 3c90 ecc0 dd34 90c0 8173 6040 e02b 323d
000001a0: 6442 133f 1c45 c0bf a9c5 e8bf 7782 65be
000001b0: 7793 d4bf 4cbe 953e 2b19 a9bf cad5 13be
000001c0: 5eac 6e3c f382 3cbe 83c8 43be 8b19 3abb
000001d0: 61cf afbe d4bb 2b3f fa70 1640 cfc5 cfc0
000001e0: 0bc0 243f 6058 1fbe d395 09bf 3bf6 a53e
000001f0: 968a 8440 cdb6 a33e 243a a13f cfad 0b3f
00000200: 7459 4d40 0968 673e 0f1a 23b9 002a 0b3f
00000210: 3846 263b 61e9 57bf d39c 81bf 89c0 56bd
00000220: 5e73 89bf 440b f340 2878 8e3f c0cf ee3c
00000230: 7cf2 eabf e19e 07bf b98a 2cc0 68d4 acbe
00000240: 1cca 823e 1999 12c0 f06e 4740 9a3a dabf
00000250: fd90 803f 4060 d0be 2303 c23f 665a 3a3f
00000260: 98e1 03c0 21f0 17bf 083a 8f40 3525 e3c0
00000270: 445c f7be d8fe d33f a4c5 27bf f4e8 0b3f
00000280: 98a7 303f 98af d73c 4c72 0abf 5f29 a6c0
00000290: 7c76 983d 0cb7 8840 7766 c9bd f95b 6d3d
000002a0: b279 54bd 3cc8 143d 5e07 c9bf 3f68 acbe
000002b0: 115b 1a40 4edf 363e 7204 8f3f ecff 6440
000002c0: 6494 5440 64f2 ecbe 7510 dc3f 8305 053e
000002d0: 1c88 d9bf 0092 39be aa28 91be b62c e43e
000002e0: 0875 ac3b 742b 6b3d beff 60be 2def 09be
000002f0: 2c92 3fbd e690 8e3f 4b65 2d40 0c41 51bf
00000300: 199e d6be d60c 19bf 1b38 a43d 7b9d ff3d
00000310: ad9e 14be c265 0d3f 8df0 e3bb 9d7b 8840
00000320: 75cb b740 03e8 e03e 1333 0ac0 4cb2 833f
00000330: d3ba 473e a518 0a3f dabd b03e 9d22 f1be
00000340: b7fa 68be a623 e5bf 5391 6140 30a4 753f
00000350: 9235 003e 6823 48c0 4d45 7f3e 3f66 5640
00000360: 0358 153f 1ec8 c33e f16b 4141 219d 4940
00000370: 05b5 973f 3c78 c53e 2bd8 7bbf 57a7 70be
00000380: 4ff1 773e 926d 753f ed44 443e 7581 2640
00000390: 4041 413f 7d78 313f 91a8 763f 607d 033f
000003a0: 7c96 0ec0 6a48 d8bf d7ae 15bf 094f 86c0
000003b0: 7eec 58be a784 a33d a877 c93e c8f5 43c0
000003c0: 6d0d 653f e7c7 0940 5065 823e d412 f83c
000003d0: cb81 7740 169b 24c0 2ade 023f 7b46 25c0
000003e0: 0e16 9b3f 6b64 e63e 2859 10bf e90a 10bf
000003f0: d117 933e 0d07 1041 064b c83f 2beb f6bd
-1.183275 -3.26303 -2.148307 -1.2120695 -0.77492654 -1.5498731 0.6560243 1.7387483
-1.0582457 -0.46632814 9.524102 -0.19640768 0.27851096 -0.97187686 -1.3533505 -1.206732
-0.073139064 1.8779234 -0.3504657 1.8727938 2.5619285 1.1845393 2.8733914 -1.959255
-1.2313007 1.8157119 0.3791204 -0.07203823 1.6618361 -0.8935003 -1.0393702 -0.75980335
0.40736604 1.8500462 0.031991333 -2.3375938 0.84004617 5.7868924 8.595233 0.13330378
-0.21879914 -0.080928266 -0.14666574 -0.8549493 0.88106763 0.48713288 1.4603208 -5.244197
1.2587061 0.5290252 -3.560533 0.17506953 -1.1002694 -1.3083663 -0.75316936 2.6031384
-7.534368 3.5550957 -0.6944082 0.86619085 -0.3373448 0.6834825 -0.86719286 -0.19756925
3.9390783 -5.9309263 1.6051766 -0.33172357 0.18883419 0.16307431 -2.0405502 -0.23978852
-0.33989263 -1.2951552 7.602993 3.8184965 -1.0580353 0.24572062 -3.8606153 -1.3195939
0.98440605 0.42182162 -0.15796125 4.8985963 1.5392016 2.064367 2.6374269 -0.5250452
-2.2753599 -0.5098227 0.41887346 -4.381704 5.5219855 0.8529659 2.9954288 2.571596
-0.5619311 -1.5477828 0.5107951 -0.42501825 -7.3926067 -4.506453 3.5070498 0.043498874
0.5752318 -1.502109 -1.8185321 -0.2241305 -1.6607503 0.29246747 -1.3210806 -0.14437023
0.014567463 -0.18409328 -0.19119458 -0.0028396572 -0.34337905 0.6708348 2.3506455 -6.4928966
0.64355534 -0.15561056 -0.5374424 0.3241442 4.141917 0.31975403 1.2595868 0.54562086
3.2085848 0.2259828 -0.00015554599 0.5436096 0.0025371443 -0.8434048 -1.0125984 -0.05242971
-1.0738332 7.595125 1.1130419 0.029151797 -1.835525 -0.52976805 -2.695967 -0.33755803
0.25544822 -2.2905943 3.116146 -1.7049134 1.0044247 -0.40698433 1.5157207 0.7279419
-2.0606441 -0.5935078 4.475834 -7.098292 -0.4831258 1.6562147 -0.6553595 0.54652333
0.6900573 0.026328847 -0.54080653 -5.19255 0.07444474 4.2723446 -0.09833997 0.05794904
-0.05187387 0.03632377 -1.5705373 -0.33673283 2.4118083 0.17858621 1.1173232 3.5781202
3.321557 -0.4627868 1.7192522 0.12990384 -1.6994662 -0.18122101 -0.28351337 0.44565362
0.0052629746 0.057414487 -0.21972558 -0.13470145 -0.04677026 1.113797 2.7093074 -0.8173988
-0.41917494 -0.5978521 0.08018514 0.12481209 -0.14513655 0.55233395 -0.006956166 4.2650895
5.743586 0.4392701 -2.1593673 1.0288787 0.19504862 0.53943855 0.34519845 -0.4709672
-0.2275189 -1.7901504 3.524495 0.95953655 0.12520435 -3.127161 0.2492878 3.3499906
0.5833742 0.38238615 12.088853 3.1502154 1.1852118 0.38568294 -0.9837672 -0.23501335
0.24213146 0.95870316 0.19166918 2.6016514 0.7549019 0.69324476 0.9635096 0.5136318
-2.2279348 -1.6897099 -0.5846991 -4.197148 -0.21183965 0.07984286 0.39349103 -3.0618763
0.8947361 2.152826 0.2546792 0.030282415 3.867297 -2.5719657 0.51120245 -2.5824268
1.2116106 0.44998488 -0.5638604 -0.5626665 0.28729108 9.001721 1.5647895 -0.120565735

bias f4 [256]
00000000: b5e7 713f 1bd8 ddbc a3c1 3abe b2be 57bf
00000010: c6ca 3abf b45f 1cbf 245d 0c3f fd90 bcbd
00000020: 6d1f d23e 0199 12bf 0e30 11bf c0a9 b83d
00000030: c742 da3f ea5c 5cbf a898 a3bf 3392 b7bd
00000040: 49ee a8bf eb1f 833e b111 d03e e1e1 efbd
00000050: 1ee3 e03f fac0 8fbf a438 6fbd 7402 a8bf
00000060: 4b3c 14bf 0a0c 6abf b3df 9bbd d9f4 0ebf
00000070: 7d9b 02bf ea5b 23be 7942 dabe 6e60 6a3e
00000080: 0631 d43f 55dd 963e bb41 df3e 0906 503f
00000090: 4240 c43e 89dc e03e 2fdb 93bc cd21 02bf
000000a0: 3b96 4dbf d0b0 85be 63a3 403f da93 8fbf
000000b0: 9c8e 98bf 525c 3abf d1e0 21bf b2ec ccbe
000000c0: 0e99 b33e b5a8 26bf de76 953d 8410 cdbe
000000d0: e7b0 91be 3355 f93e c07c ad3c 5aa8 1dbf
000000e0: 84a8 8cbe 7d8d 97be 8340 01bf 6c7e 31bf
000000f0: 8c9e 3f3f 5595 8a3f 94d9 81be 8088 febe
00000100: a992 1ebf 6103 943f f6d4 a1bf 0a86 d63f
00000110: a3fb df3f 0076 253c b4cc bcbf db04 d7be
00000120: e0ec 513e 52ca 87be 24ac 29be f1ed 69bf
00000130: fe70 80bf 592b 313f 05d4 26be cb1e e53f
00000140: 8f67 013e 7ab5 533f 9d9b a63e 69f5 403f
00000150: 5481 79bf f62e 363e 23b6 eb3f 2ab6 fd3e
00000160: 4fd9 e53f 3a22 c1be 894a 4cbe 3c22 47bf
00000170: 317e ac3f fb9c 52bf 7cec 4bbf 7e8d 42be
00000180: fc37 cdbe a589 6cbe 4a54 65be 0f69 babd
00000190: 9b30 8cbe d722 09bf 5789 afbe c528 6ebe
000001a0: b35c 4a3f bf6c 83bf 9a4c 6b3e a0ce 00bf
000001b0: b65f 2dbf 429c fb3d b797 7ebf f536 c9bf
000001c0: 445c e2be 3ff3 5abe 4194 37bf 7f0e d93f
000001d0: 8e45 9abf 820e a6bc 9dea 26bf 3cfe 083f
000001e0: 5b73 b63c 3d8f 5a3e c7c8 00bf 32da 0d3f
000001f0: f6d6 c8bf 2cd5 52bf caaf ba3e bea0 88bf
00000200: f99e c3bf 8da2 973e 9ce9 6bbf 80a5 d53e
00000210: 577b 733e 4742 8d3f 912d e6be a7b5 c0bd
00000220: 2dfe c3be 38ad e8be 31ff c3bf 712e c53f
00000230: 2724 46bf b8d6 ba3d 2b90 29bf 189a 993f
00000240: 7aaa b13e 80e0 c9bf 6d65 bbbf cbf8 563f
00000250: 7d4c 35bf edcc ac3a f421 1dbf 443d e93f
00000260: 6e5c a9be 79b5 b8be c9aa 11bf 65bf 8e3d
00000270: b364 54bf 675f 57be bc72 1dbf 5a0c 143e
00000280: 781a 743d ea66 cfbe b95c 0cbf 608d 4fbe
00000290: 2470 85be a194 10bf c0c0 f9be de0e b7be
000002a0: 0d8f 08bc d915 b1bd fbfb 473f 7243 383e
000002b0: 473a 6bbf 5e53 bfbe dbed b4be 263f 5f3e
000002c0: 2d52 103e 9faf 10bf c084 0b3e 0802 6fbe
000002d0: fe0b 85bd 8ef3 6abe cc85 85bf 3624 cfbe
000002e0: 64ee 9bbe a081 063f d7bc 193e c140 03bf
000002f0: cff7 94be 7540 09bf 3d72 85bf 288d 96bd
00000300: 5f77 2e3f da45 4f3c 15e9 c63e ff43 18bf
00000310: e2a2 ecbe 7dd4 b3be 34f7 ca3e a0d7 4fbe
00000320: ada9 b1be e78e 2abf a7fb af3f 61cd 2a3f
00000330: 9ddb 113f 2916 debe 472f c1bf a5a4 cdbe
00000340: 352b 14bf 6722 173f 39a9 b0bc 27c2 73bf
00000350: 40d2 e0be 2c2f 7cbf 916d acbe 0a5a 17bf
00000360: 2653 5fbe ed52 11be a4a5 57bf 0cce f73d
00000370: 86e3 b1be 1baa 563d c4f5 3abd adfa 37bf
00000380: b938 5c3f 4a19 f5bb dc96 66bf b28c 863b
00000390: 32af d7bd 1058 febe f1d4 acbe cf87 eb3e
000003a0: 0f69 efbc c371 57bf 6384 c9be 6e2f 983d
000003b0: c067 53be a675 d53f 524d 72be 9868 b8bd
000003c0: 56f2 02be ea64 90be 2275 f1be df30 0cbe
000003d0: 41cf 5ebe b98f 95bb 8871 80be ebc3 b6be
000003e0: aa97 80bf a679 503f d66b 16be 47f6 cbbe
000003f0: ebeb ad3e 8b03 0cbf dde7 a2be 9640 b6be
0.9449418 -0.027080586 -0.18237929 -0.8427535 -0.7296566 -0.6108353 0.5482962 -0.09207342
0.410396 -0.57264715 -0.5671395 0.09016752 1.7051629 -0.86079276 -1.2780962 -0.08963432
-1.3197719 0.2561029 0.40638497 -0.11713005 1.7569311 -1.1230767 -0.058403626 -1.3125749
-0.579045 -0.9142462 -0.076110266 -0.5584236 -0.51018506 -0.15953031 -0.4262884 0.22888348
1.6577461 0.29465738 0.43604836 0.8125921 0.38330275 0.43918255 -0.01804885 -0.50832826
-0.8030736 -0.2611146 0.7524931 -1.1216996 -1.1918521 -0.7279712 -0.6323367 -0.40024334
0.3507771 -0.65101177 0.07298063 -0.40051663 -0.28455278 0.48697814 0.02117765 -0.6158501
-0.27472317 -0.29600134 -0.5048906 -0.6933353 0.748513 1.0826823 -0.2536131 -0.49713516
-0.61942536 1.1563531 -1.2643116 1.6759655 1.7498668 0.010098934 -1.474997 -0.41995892
0.20500517 -0.26521546 -0.16569573 -0.91378695 -1.0034482 0.6920677 -0.16291817 1.7900022
0.1263716 0.82698786 0.325406 0.75374466 -0.97462964 0.17791352 1.8414959 0.49553043
1.7956942 -0.37721425 -0.19950308 -0.7778661 1.347601 -0.82270783 -0.7965772 -0.18999287
-0.40081775 -0.23099382 -0.22395435 -0.091020696 -0.27380833 -0.53568786 -0.3428447 -0.2325774
0.790477 -1.0267562 0.2297844 -0.50315285 -0.6772417 0.12285663 -0.9945025 -1.5719897
-0.44211018 -0.21381854 -0.7171059 1.6957549 -1.2052476 -0.02027059 -0.6520174 0.5351293
0.022271803 0.21343704 -0.5030636 0.55411065 -1.5690601 -0.82356524 0.3646224 -1.0674055
-1.528289 0.29616204 -0.92153335 0.4172783 0.23777519 1.1035851 -0.4495664 -0.094096474
-0.38279858 -0.45444655 -1.5312253 1.5404798 -0.77398914 0.091229856 -0.6623561 1.2000151
0.34700376 -1.5771637 -1.4640328 0.8397338 -0.70819837 0.0013183631 -0.61379933 1.8221822
-0.3307833 -0.36075953 -0.5690122 0.06970099 -0.82966155 -0.21032487 -0.61503196 0.14457837
0.059595555 -0.40508205 -0.54828984 -0.20268774 -0.2606212 -0.5647679 -0.4877987 -0.3575353
-0.008334887 -0.08646745 0.78118867 0.17994478 -0.918858 -0.37368292 -0.3533772 0.21801433
0.14093848 -0.56517977 0.13624859 -0.23340619 -0.06496428 -0.22944471 -1.0431457 -0.40457314
-0.30455315 0.5254154 0.15013443 -0.5127068 -0.29095313 -0.5361398 -1.0425488 -0.07351142
0.68150896 0.012650931 0.38849702 -0.59478754 -0.4621802 -0.35123053 0.39641726 -0.20297098
-0.34699765 -0.666243 1.3748673 0.66719633 0.5697573 -0.43376282 -1.5092553 -0.40164676
-0.5787843 0.5903687 -0.021565067 -0.9521813 -0.43910408 -0.9850948 -0.33677343 -0.59121764
-0.21809062 -0.1419179 -0.8423712 0.12099847 -0.347439 0.05240832 -0.045644537 -0.71866876
0.8602405 -0.0074798213 -0.90073943 0.0041061277 -0.10531463 -0.4967656 -0.3375621 0.4600205
-0.0292249 -0.8415796 -0.39358816 0.074309215 -0.20645046 1.6676528 -0.23662308 -0.09004325
-0.12787756 -0.2820199 -0.47159678 -0.13690518 -0.21758749 -0.004564252 -0.25086617 -0.3569635
-1.0046284 0.8143562 -0.14689574 -0.39836332 0.33969054 -0.54692906 -0.31817523 -0.3559615

weight f4 [128, 256]
00000000: b200 3ec0 f503 4c3d 46ad 143f 7b5e cf3f
00000010: 0cf6 203e dd66 1c40 36be 52c0 ac94 3dbf
00000020: 90b4 ba3e 01e5 443f 6d32 063f ff5a 443f
00000030: 769a 44c0 283d d43e e65d 013f d299 74bf
00000040: a51b 5e3f 1da5 803f 14b5 bbc0 7929 663e
00000050: 9f3f 18c1 4387 5e3f c737 543f d242 8d3e
00000060: f173 2c3f 1d56 2bbe 235a 25c0 efcf 74c0
00000070: 81ef 84bf 2344 65ba 242b 10c1 99a7 313f
00000080: 563e 23c0 bbd2 7e3f 1744 653f a983 003e
00000090: 64dd 433e 7595 e2bf 3e18 36c1 420b 40bf
000000a0: 13d9 6f3e 87b0 b9c0 b900 a6bd c75f a63e
000000b0: b4f4 54c0 c28c b23f cf32 7dbe 6c7a 7fbf
000000c0: ca7f c4be a044 adbf 4b5b f93e d08f 1dc0
000000d0: 355a b33b 3879 2e3e 2da4 893e 02ae 0f3f
000000e0: 02e4 3e3c 3d87 3f3f bb00 69bd b515 82c0
000000f0: ea50 25be 1265 57bd 5b83 fb3f e7ac 9d3f
00000100: 5eac 90bf 4729 ad3e ea13 603f b857 fbbf
00000110: c4a6 14c1 a55e ad3d 07a7 cec0 2f94 c0be
00000120: e199 3a3e 9b47 cdc0 0ea8 cfc0 4d19 48be
00000130: efea 113f 858c b0c0 40cd 8d3e f520 f4c0
00000140: 624c d13f e505 81bf 1adf 89c0 78f2 7cc0
00000150: 289c d5be 87da 723f 1907 36c1 49ab 533e
00000160: 240c 22c1 11eb 883f 5955 8fbf 9521 05bf
00000170: 937a f73e 5fb4 1e3f 5b29 08be 7301 c7bf
00000180: 3f1a 9bc0 5f06 353f a6df 473f c108 653f
00000190: 8fa5 ad3e e574 863f faf2 a2bf d8be 3abe
000001a0: eb25 b0bf 199e 6d3f ce86 b8bf 37ef 9cbf
000001b0: 94c3 1abf 5ec2 ecbf 1e45 3e3f ca7e 283f
000001c0: ea02 9fc0 5131 ffbf 2cbd b9bf bbcc bbc0
000001d0: 80ac 983f ca77 67c0 d629 bf3f 7fa5 8c3e
000001e0: f4d4 adc0 512e f23f 375a afbf 190f e4c0
000001f0: 2b5c c33f 9f4e 023f e473 203e c6ff 4ac0
00000200: c35e 633f ab38 8cbf 206a fec0 574b 863f
00000210: 6f84 653e 9d93 8fc0 9713 62c0 f8b0 fe3e
00000220: d4d7 903f 9d6f 23c0 b3c3 0f3f d4cf bec0
00000230: 3b87 8c3f d162 383f 8359 4b3f 3275 72bd
00000240: f2a6 4cbe a2b3 8b3f 78f1 0dc0 fbc0 c7bf
00000250: 5969 99c0 dcf8 4b3f 256a c73e 5ad7 52c1
00000260: 780e 4fc0 6348 953e e240 963e 7e43 bd3f
00000270: 7a06 26bf cf5a f73d 91f6 623f 8eab 80bf
00000280: 8279 1a3e 63d0 e0c0 9881 053f ea1d 963e
00000290: fb34 eebf 36b7 eabf 5159 8dbf 939e abc0
000002a0: b6cb 1040 ce36 a83f 2c8b 45c1 c3f3 dc3f
000002b0: 9bf1 163f e788 4c3f 18b3 313f 6808 24c0
000002c0: 4864 b83d 50b3 173f 59e3 05be 224c c0c0
000002d0: 1ec6 883f c356 203f 387e 51bf bfe5 e03e
000002e0: e23d c13f 5a3f b73d ab43 8abe b8a2 0bc0
000002f0: cec8 2bc0 ae31 293f 0214 d2be a7ec 0f3f
00000300: 0c0b 9fbe 29e3 9bc0 fbff 26bf d238 82c0
00000310: 0575 2d3f 670e 04bf 30b1 08c0 81bf 08c1
00000320: 23e5 5d3c 6955 1dbf b134 183f 8620 f43e
00000330: 6af2 3bc0 ff51 2b3e 3ee1 35bf 09b2 d0c0
00000340: 3020 29be 904a 17c0 4fba d0bf ab06 bbc0
00000350: e4a8 873e 0e89 7cbe 59e8 4e3f 3fa4 9ebf
00000360: abac a03e 5739 b13e f8d3 e53f 62c2 9dbf
00000370: 92b7 acc0 7c78 a3be a368 c6be 2e2c cdbf
00000380: a548 92bf 43bc c7c0 d4a5 fc3f 70b8 23c0
00000390: c871 553f 763e 5540 7ab1 9cc0 bb2a 963f
000003a0: 7857 83c0 6f52 963f 1abb 0440 468f 003e
000003b0: f884 333f d438 96bf 0aa6 dec0 b7e3 c73e
000003c0: fc0f 5ec0 fcbc dcc0 5b9d 91bd 53cf 73bf
000003d0: e258 ba3f dfab 1ec0 71af 95c0 e13e a2c0
000003e0: 7ba0 a5bf 5715 9ac0 fd02 23c0 dc61 2a3f
000003f0: 3b82 2dc1 beb4 ffbf b3a2 1fbe 7082 8a3f
-2.9687924 0.04980846 0.58076894 1.6200708 0.1571886 2.4437783 -3.2928596 -0.7405498
0.36465883 0.7691193 0.52420694 0.7670135 -3.0719275 0.4145291 0.505339 -0.9554721
0.8676093 1.0050389 -5.8658543 0.22476758 -9.5155325 0.86925143 0.8289761 0.27590042
0.6736441 -0.16732068 -2.5836265 -3.8251913 -1.0385591 -0.000874581 -9.010532 0.6939636
-2.5506797 0.995403 0.8955702 0.12550224 0.19127423 -1.7701861 -11.3809185 -0.7501718
0.23422651 -5.8027987 -0.081056066 0.32494947 -3.3274355 1.3949206 -0.24726413 -0.99796176
-0.38378745 -1.3536568 0.48702464 -2.4619026 0.0054734 0.17038429 0.2688307 0.5612489
0.011651041 0.7481573 -0.056885462 -4.06515 -0.16144148 -0.052586623 1.9649462 1.2318391
-1.1302602 0.33820555 0.87530386 -1.9636145 -9.290714 0.08465318 -6.457889 -0.37613055
0.18222763 -6.414991 -6.4892645 -0.19540901 0.56999105 -5.5171533 0.27695656 -7.629023
1.6351435 -1.0079924 -4.308484 -3.952299 -0.417207 0.94864696 -11.376733 0.20670809
-10.127964 1.0696737 -1.1197921 -0.5200437 0.48335704 0.61993974 -0.13297026 -1.5547317
-4.846954 0.70712847 0.78075635 0.8946648 0.33915374 1.0504423 -1.27304 -0.18236864
-1.3761572 0.9281936 -1.4416139 -1.2260503 -0.6045468 -1.8496816 0.74324214 0.65818465
-4.9691057 -1.9936925 -1.4510856 -5.8687415 1.1927643 -3.6166863 1.4934642 0.27470013
-5.4322453 1.8920385 -1.3699406 -7.126843 1.5262502 0.50901216 0.15669209 -3.1718612
0.8881647 -1.0954794 -7.9504547 1.0491742 0.224138 -4.486769 -3.5324457 0.4974439
1.1315866 -2.5536873 0.5615799 -5.9628696 1.0978769 0.7202578 0.7943346 -0.059193797
-0.1998556 1.0914195 -2.217863 -1.5605768 -4.79411 0.79676604 0.3894817 -13.177576
-3.235258 0.2915679 0.29346377 1.4786222 -0.6485363 0.12077867 0.8865748 -1.0052354
0.15085414 -7.025438 0.5215087 0.29319698 -1.8609918 -1.8337162 -1.1042882 -5.363107
2.2624335 1.3141725 -12.3464775 1.726189 0.5896241 0.79896396 0.694139 -2.563013
0.09003502 0.59257984 -0.13075007 -6.0092936 1.068546 0.6263239 -0.8183322 0.43925282
1.509701 0.0894763 -0.27004752 -2.1818066 -2.6841311 0.6609143 -0.4103089 0.5622048
-0.31063116 -4.8714795 -0.65234345 -4.069436 0.6775668 -0.51584476 -2.1358147 -8.546754
0.0135434 -0.6145845 0.594554 0.47681063 -2.9366708 0.16730498 -0.7104682 -6.521733
-0.16516185 -2.363926 -1.6306857 -5.844564 0.2649604 -0.24661657 0.80823284 -1.2393874
0.31381735 0.3461406 1.7955313 -1.2324946 -5.3974085 -0.3192786 -0.38751706 -1.6029108
-1.1428419 -6.241731 1.9738107 -2.5581322 0.8337674 3.3319373 -4.8966646 1.173179
-4.1044273 1.1743907 2.0739198 0.12554654 0.7012477 -1.1736093 -6.9577684 0.3904092
-3.4697256 -6.8980694 -0.07110091 -0.95238227 1.4558375 -2.4792402 -4.677666 -5.0701756
-1.29396 -4.815105 -2.5470574 0.6655557 -10.844295 -1.9977033 -0.15589409 1.0821056

bias f4 [128]
00000000: 7299 abbf 0404 1d3f aa9c 9f3f 5eeb cabe
00000010: cce9 1e3d fcbe 853f 5ea3 843e bebb 643f
00000020: 3ecf 173f da42 693f e8b6 d33d cf08 91bd
00000030: c7d1 91bd 3334 153f e01e 323f c346 70bf
00000040: 8d11 5cc0 f775 54bf 3e8e 7ebf 294d 923e
00000050: 4026 ccbe 6d20 7d3f face bdbd 5810 85bd
00000060: 25bb a9bd d936 243f 591e dfbd 8054 69c0
00000070: 49d5 d7bc d2b8 f2bd 5afd 46bd 32f9 adbd
00000080: ff97 80be d41b 96bf 6047 c4bd 458d 793f
00000090: b2cb f13f b6e9 a93f 1b43 74c0 46a6 403f
000000a0: 50ce 24be 57cb 2fbe 4801 31bf 43fb eabe
000000b0: 5378 6cbf ac49 f3bd 827f 1f40 4662 80bf
000000c0: 3ccf 1dbe 350e 45c0 c768 013f a026 05c0
000000d0: 7e4e a5bd fe70 6b3f 3829 24c0 4edc fc3e
000000e0: 9b16 483e de3f aebd 7f3f 8c3e 5cf5 71bf
000000f0: ca4d 763f edd1 a1bf f699 debd 9a07 5b3f
00000100: 8641 97bf 1d6f 3c3f 5f36 75bd 65e3 133e
00000110: 269c 8d3e 27bb 2c3f b268 e13e 80fb c5bd
00000120: 7270 02bf 0fff 57bf 7d08 403f bfa0 9c3f
00000130: 2354 b4bd 6c35 993e a868 0cc0 bdb1 453f
00000140: a69f 123f a0b9 22bf 4304 dabd 8217 553f
00000150: d699 84be 60f7 313f 9eac dabf 0995 c7bd
00000160: ab32 c73e c964 773f 02c3 f9be 1abf 04be
00000170: e24f 62c0 fc84 383f 0e48 11bf d9c1 913e
00000180: 32dd 4dbd 70a3 823d 00a6 99bd 77b1 15bd
00000190: ccce 80bd 44f4 b2bd 44dc a33f 2699 cc3f
000001a0: 118c 073f 2d65 acbd cc83 333d e687 28bd
000001b0: e308 01c0 6f9f 21bf f247 d7bd 6907 c0bf
000001c0: 7a86 7abe e666 09bd 459e 09be 7c71 32be
000001d0: 66a5 2cbf b209 8b3d 4a66 febd 33a9 a13e
000001e0: b4ce 673e 2e6c 883f b08c f1bd 8cdb 33c0
000001f0: 4b79 193f 5d30 a4c0 a7cc 8b3e 669c 823f
-1.3406203 0.6133425 1.2469685 -0.39632696 0.038797185 1.0448909 0.2590589 0.8934897
0.593006 0.9111763 0.10337621 -0.07081758 -0.0712009 0.58282775 0.6957836 -0.93857974
-3.4385712 -0.829925 -0.99435794 0.28574494 -0.39872932 0.988776 -0.09267993 -0.06497258
-0.08287648 0.6414619 -0.1089446 -3.6457825 -0.02634682 -0.11851658 -0.04858146 -0.08494796
-0.25115964 -1.1727242 -0.09583926 0.97481185 1.8890288 1.3274448 -3.8165958 0.75253713
-0.16094327 -0.17167412 -0.6914258 -0.45894822 -0.923711 -0.11879286 2.4921575 -1.0029991
-0.15411085 -3.0789921 0.505505 -2.0804825 -0.08071612 0.9196929 -2.5650158 0.4938683
0.19539873 -0.085082754 0.27392194 -0.94515014 0.96212447 -1.2642189 -0.108692095 0.85558474
-1.1816871 0.73607045 -0.059866305 0.14442213 0.27658194 0.6747307 0.4402519 -0.096671104
-0.5095283 -0.84373564 0.7501295 1.2236556 -0.0880511 0.2992357 -2.1938877 0.7722433
0.57274854 -0.6356449 -0.10645344 0.83238995 -0.25898618 0.6951809 -1.7083929 -0.09745223
0.38905844 0.9663816 -0.48781592 -0.12963524 -3.5361257 0.7207792 -0.5675057 0.28468207
-0.050259776 0.063788295 -0.07502365 -0.036546197 -0.062894434 -0.08737996 1.2801595 1.5984237
0.529481 -0.08417735 0.043826863 -0.041145228 -2.0161674 -0.631339 -0.10511769 -1.5002261
-0.24465361 -0.033545397 -0.13439281 -0.17426103 -0.6743988 0.067889586 -0.12421854 0.315744
0.22637445 1.0658014 -0.11794412 -2.810275 0.59950703 -5.1309037 0.27304575 1.0203979

weight f4 [64, 128]
00000000: 50d9 b6be a162 bf3d 1a3b d83f ff63 083f
00000010: ce49 43be d2db 77be 385d 7abf 1735 1dc0
00000020: eb76 7ec0 0645 7fbf 7943 78bd dfc1 503d
00000030: f71e 8ebf e1b0 dc3e 6831 54be 03ed 58bf
00000040: 74cd 24bf bf88 463e 0208 f6bd c7a0 eabe
00000050: 2288 f0bf 6795 253f c98f 053c 6304 2fbd
00000060: 44bc babd bb3f 0fbf 5dbc 3f3d c2d8 8fbd
00000070: 4b10 9abd 2bbc 833d e63f 59bd e1ee 9e3d
00000080: 528d 0b3f 1e74 89be ec3b 123d dc15 923f
00000090: d01a 23bf 4f87 e3be 7ac6 f23f 7aac f93f
000000a0: 2686 ebbd e646 0140 5f56 0a3f 3005 a33e
000000b0: 9620 9ebe b438 b53c c290 0fbf f8ae cf3d
000000c0: 1b81 bebd 4f95 3c3f e643 4d3f 4d20 90bf
000000d0: a62f b63c 10d2 54c0 3208 703f 2d38 903f
000000e0: e516 bc3f 8c8d e6bd ecb4 433e e11a 143f
000000f0: 09ce 1abf 2842 babd 6128 663d c557 473c
00000100: 4d9d 9bbe 400c e63f 50e3 3a3d 8c03 a3bf
00000110: b345 b63f ed74 79bf 4d9c 803e 515e 433d
00000120: db9d ccbf 1380 edbf 927f e63f 92e5 ca3f
00000130: 6df5 8cbd dfd8 34bf 1c00 06bf 8bba c23f
00000140: 624d 433f 22a7 743f 36dc 37bd c10e 4f3e
00000150: 360c 5abe fca4 b13f 74b8 33be 9b5b 8abc
00000160: 608d 8dbe 8465 35bf d4d0 8c3f 715b 88bf
00000170: ff38 dbbe 6e0d 0cbf 8b27 053f c71f b6be
00000180: a60e 03bd 388c df3e c80f 63bb 6cc7 5ebd
00000190: c288 a9bd 6aa5 f13c 512f 873f 1845 88be
000001a0: 2ec0 c93f 6130 ed3b 1876 403f daf8 153d
000001b0: a5bd eabe 487a 7abe 1bf0 473d 1c27 4d3e
000001c0: 0646 093e 2b58 923d 5d62 91bd 195f 3bbd
000001d0: 8220 0fbf 18d9 17bf 55b5 efbf 0487 453f
000001e0: 862a ce3f 0aef 50bf ae5e 2a3e d8cc 9bbf
000001f0: 1ebf 92be 272e 03bf 9496 24bf 78ea e73f
00000200: 1564 e23f 9032 af3e cb42 adbe dc3c 34bf
00000210: 944c 66bf fe1b 6bbf e425 bbbe 0a90 26bf
00000220: f622 01c0 881f c2bf 891d 3bbf c7b1 2fbd
00000230: dc65 a03e b8f9 4dbf 0119 b2bf 5b7e cebd
00000240: 5316 00bf 99fb abbf d472 9a3f cc34 46bf
00000250: a8f9 94be 789a 71bf 3ae7 eb3b 9ea8 96ba
00000260: 8fb5 813d 8500 2cc0 8283 0ebe 19d4 2ec0
00000270: 8db0 cfbc 7a06 18bd 65ef 93bd a565 14bd
00000280: a565 06be bbc3 c23e 0e04 9cbd 9593 e7bf
00000290: 5658 0e3c 1822 32bf 9415 b1be 5277 febe
000002a0: a8d4 2a3c 2d61 bcbf bbd3 0fc0 a36a b2bf
000002b0: 2e7a 31be 623a f03b 40ce 1b40 1716 ebbe
000002c0: d50f 02bf 0f05 81bf 3244 9abf ba57 bcbe
000002d0: 033d b2bd 3f79 7bbf 24ed b9bf e08c 7cbf
000002e0: fa68 f4bf ea72 5d3c abf2 493f 2cb3 9e3e
000002f0: 4800 81bf 5c1e 0bbf ccd5 dcbc d4e8 183e
00000300: 87e0 223e e38d ebbe 6fcb bdbd afea 52bf
00000310: d6fb 96bf bd0a e63f 0c47 dbbf a474 c13d
00000320: b7e1 50bf c88d 0f3d 05f8 63bf 6ac8 22bf
00000330: 2071 9dbd b613 593d bd80 433c c1e5 25c0
00000340: 40ba acbe 1f65 25c0 66cc bd3d 655c 0d3e
00000350: 0b4a 03c0 1639 68bf 9b0c c53d 9ee4 16bc
00000360: 1771 063f eeee c7be 5a03 65be 0717 72bf
00000370: 9901 20bf 4da0 88be 1eb4 8bbf f5d2 21bf
00000380: b74f 82bd 90d0 a2bf 9a03 08be 9b9d a63d
00000390: 905f 8c3d 38ac 143d 90fd c2bf c557 a8bf
000003a0: abaa a4be 6900 b9bd df1f 26bf 7e2c a13d
000003b0: 781b 8d3d b757 523e cbe5 03be b248 2c3e
000003c0: ef7a cebf 6b27 253d 797b e53c cc74 793d
000003d0: 2110 15c0 48c1 4cbe 5f80 033f eb3b 02bf
000003e0: 028c 5fbf 987a 2ec0 b519 25bf afae 16bf
000003f0: c4c2 53c0 645a 23bf 3ade 60c0 6dcf 98bf
-0.3571267 0.09344984 1.6893036 0.5327758 -0.19071123 -0.24204949 -0.9779849 -2.4563653
-3.9760082 -0.99714696 -0.060611222 0.05096614 -1.11032 0.43103698 -0.20721972 -0.8473665
-0.64375997 0.19388102 -0.12013246 -0.45825788 -1.8791544 0.64681095 0.008151957 -0.042728793
-0.0911794 -0.5595662 0.046810497 -0.07023765 -0.07522639 0.064323746 -0.053039454 0.07760406
0.5451251 -0.26846403 0.035701677 1.1412921 -0.6371279 -0.4443917 1.896682 1.9505761
-0.11500196 2.0199523 0.5403804 0.31839895 -0.30884236 0.022121765 -0.5608026 0.101407945
-0.09301969 0.73665327 0.8018173 -1.1259857 0.022239517 -3.3253212 0.93762505 1.1267143
1.4694487 -0.11257467 0.19111985 0.57853514 -0.60470635 -0.090946496 0.056190852 0.012166922
-0.30393448 1.7972488 0.04562694 -1.2735457 1.424002 -0.9744404 0.25119248 0.04769737
-1.5985674 -1.855471 1.8007681 1.5851309 -0.06882749 -0.7064342 -0.52343917 1.5213178
0.7628995 0.95567524 -0.044887744 0.20220472 -0.2129372 1.3878474 -0.17550832 -0.016889384
-0.27646923 -0.70858026 1.1001229 -1.0652906 -0.42816922 -0.5470799 0.5201346 -0.3557112
-0.03199639 0.43661666 -0.0034646858 -0.054389402 -0.082780376 0.02949782 1.0561315 -0.26615214
1.5761774 0.007238433 0.75180197 0.036614276 -0.45847812 -0.24460709 0.048812967 0.2003445
0.13405618 0.07145723 -0.070988394 -0.04574499 -0.5590898 -0.59315634 -1.8727213 0.7715914
1.6106727 -0.81614745 0.1663768 -1.2171888 -0.28661436 -0.512423 -0.64292264 1.8118429
1.7686793 0.34218264 -0.33840021 -0.70405364 -0.899606 -0.9183959 -0.36552346 -0.65063536
-2.0177588 -1.5165873 -0.7309194 -0.04289415 0.31327713 -0.80459166 -1.391388 -0.10082694
-0.50034064 -1.3436157 1.2066293 -0.7742431 -0.29096723 -0.94376326 0.007199195 -0.0011494344
0.06333458 -2.6875317 -0.13917354 -2.7316954 -0.02535274 -0.03711555 -0.07223395 -0.03622975
-0.13124712 0.38039955 -0.07617961 -1.8091913 0.008688053 -0.6958327 -0.34586775 -0.4970041
0.010426678 -1.4717156 -2.247298 -1.3938793 -0.17331764 0.0073311785 2.4344635 -0.4591529
-0.5080541 -1.0079669 -1.2052062 -0.3678568 -0.08703043 -0.9823188 -1.4525495 -0.9865246
-1.9094536 0.013516167 0.78885907 0.30996072 -1.0078211 -0.543432 -0.026957415 0.14932567
0.15905963 -0.46006688 -0.092673175 -0.8238935 -1.1795604 1.7972027 -1.7131057 0.094460756
-0.81594414 0.035047323 -0.8905032 -0.6358706 -0.076875925 0.052997313 0.011932549 -2.592148
-0.33735847 -2.584297 0.092675015 0.13804777 -2.0513942 -0.90712106 0.09621545 -0.00920978
0.5251631 -0.39049476 -0.2236456 -0.94566387 -0.6250244 -0.266848 -1.0914342 -0.6321252
-0.06362861 -1.2719898 -0.13282624 0.081355296 0.068541646 0.036297053 -1.5233631 -1.3151785
-0.3216146 -0.09033281 -0.6489238 0.07869814 0.06890005 0.20541273 -0.12880628 0.16824606
-1.6131266 0.040320795 0.028012978 0.0609024 -2.3291094 -0.19995606 0.51367754 -0.5087268
-0.8732301 -2.7262325 -0.6449235 -0.58860296 -3.3087626 -0.638098 -3.5135636 -1.1938301

bias f4 [64]
00000000: 8f86 9dbf 61eb dabf f210 0bc0 30d6 dd3f
00000010: c085 c93f 3cc7 4b3f 2d55 07be ddaa 70bf
00000020: 243e 8440 8e55 05c0 52e6 3ac0 3075 76c0
00000030: 0127 e2c0 df30 013f b5e9 9ec0 a3b2 95be
00000040: 4a82 47bd c185 963f 3546 0b3f 9ca5 aebf
00000050: 0d18 8cbf 75b3 26c0 b054 dcc0 a400 e93e
00000060: d625 42c0 676b dc3f 6133 27c1 cff8 2d3e
00000070: 603f 783e 4877 8f3f 2ba0 eb3f 88f5 45c0
00000080: bf46 373f 309a d93e 5a28 e4bd 10ec 963e
00000090: f061 2bc0 3edb 5240 4c0f c6bf afbf 75c0
000000a0: b863 d4bf 21c5 43bf aa65 61bf 997f 34c0
000000b0: 70b6 5fbf f423 82bf 251c 62c0 e378 863e
000000c0: 70ff d4bf 0a7f 3ac0 531c 8dc0 b49c 1d40
000000d0: f803 11c0 6b9e e7bf dd9a 2b3f 4cc6 72bf
000000e0: b99e f7bd 7502 0d40 b02a e8bf 2345 7bc0
000000f0: ef2d 86bf bc7c 0dc1 0696 14c0 8907 ef3f
-1.2306689 -1.7103082 -2.1729093 1.733099 1.5743942 0.7960088 -0.13216086 -0.94010717
4.1325855 -2.0833468 -2.9203076 -3.8509026 -7.067261 0.50465196 -4.9660287 -0.29237852
-0.048708238 1.1759568 0.54404 -1.364429 -1.094484 -2.6047032 -6.885338 0.455083
-3.0335593 1.7220277 -10.450044 0.16989444 0.24242926 1.1208277 1.8408254 -3.093111
0.71592325 0.42500448 -0.11140509 0.29476976 -2.6778526 3.2946315 -1.5473418 -3.8398244
-1.6592932 -0.7647267 -0.8804575 -2.820288 -0.8738775 -1.0167222 -3.5329678 0.26264104
-1.6640453 -2.9140038 -4.4097075 2.4626894 -2.2658672 -1.809522 0.6703318 -0.94833827
-0.12090821 2.203275 -1.8138027 -3.9260948 -1.0482768 -8.842953 -2.3216567 1.8674175

weight f4 [32, 64]
00000000: 224d 453e d7d6 bebe 3e2a 983e 4975 0d3d
00000010: 2867 e03d 5d21 ce3d 6766 eb3d ea46 13bf
00000020: fe96 323e 7348 ed3c a085 373d a46d 1bbd
00000030: 30dd b6bc fa44 a63e 1e31 243d 4229 903d
00000040: d655 2bbf dd6f be3d c97d 2d3d ce74 0fbf
00000050: 0103 9cbf a879 603d ff0f 89bd 9a9b 02c0
00000060: a793 b6bf 9056 733e 5829 0bbf b474 013e
00000070: ebfc fe3e 2d5e 833e ade5 f93d e56c 8a3e
00000080: 1125 893e cc96 1ebf df16 77bd 614e cb3d
00000090: f274 403e 37a6 153d 4bfb 98bd e6ef fabf
000000a0: c7b5 4a3e 62ae c7be 62dc 09bf c3cb 7bbe
000000b0: 6b28 80bd aafd b23d 7883 353e 9dce 12bd
000000c0: 34d0 9d3e ab62 443c 9c2d b73e 9b32 eb3d
000000d0: 0aac 363e 9f6a d3bf 6af3 4f3e 6bda e1bf
000000e0: 3981 27bd 6e24 af3e 8d07 dfbe eb71 41bf
000000f0: 1f7e c0bf 4aaa 88bd eec6 1cbf 3f54 563e
00000100: b3b6 b8be 14d2 1dbf 56e4 9dbe 1c3d f0be
00000110: 3cb8 8fbf 8e43 7cbe 516d aebd a0a5 dbbe
00000120: f50c 59bf 8f76 4abf a459 02bf 4ec4 21bf
00000130: 93f3 cbbe f8cc 8fbd 8d66 0ebf cea6 c5bd
00000140: 5056 b8be 9224 f5be 2b63 01bf ac29 40bd
00000150: 0a02 15be dcca 30bf 765c 2dbf ae53 06bf
00000160: 4c70 97be 8027 813e 875f 60bd ceb4 48be
00000170: 37a5 2abf 3e87 a7be 6441 03bf 6307 c9be
00000180: 12b7 31bf 16e3 84bd 1708 b9be 5ffe 51bf
00000190: 2da4 9bbe c273 56bf a424 ddbd e569 fbbe
000001a0: db71 68bf 1027 55be 4d28 9ebe f290 00bd
000001b0: 517f 57be 2f44 1cbf 40ed 39bf a0c6 e9bc
000001c0: 306c 02bf 0aca a3be 9685 553e c299 fdbd
000001d0: b303 513d bfea 4dbe 0678 15bf 2d95 08bf
000001e0: 095b b9bc a4f0 13bf 64c8 a2be 7ae8 2dbf
000001f0: 9589 9fbe 8801 38be d1a4 83be 10a3 0dbf
00000200: a43e 57bf 00bc 88bf bc77 2dbf 46e7 42bf
00000210: d515 5fbf 2496 b0bf 82f5 18bf 4992 55bf
00000220: 0e92 5fbf 66eb 2dbf 9ca6 75be 49cd 55be
00000230: 9721 a3be 54ab cebf 0f52 55be 1d3d 3cc0
00000240: eaa0 9fbe 4d93 7cbe 0f6d f9bf 56f1 1fbe
00000250: 81d4 a6bf 40bd dbbd 7688 10c0 a163 b6bf
00000260: 8cc8 04bf a5ab 35bf cab5 30c0 f83e febe
00000270: 8b77 37bf 7416 5ebf d535 f5be 2058 6ebf
00000280: d32b b4bf 5c13 50bf 111e b9bf 13b5 b1bf
00000290: dbd8 77bf dc32 01bf eaca fcbe 17f2 edbe
000002a0: 2f06 8fbd aefb 85bf 34ab debe c2d3 67bf
000002b0: ac7a bbbf 7632 03bf d415 d0bf 806f 5fbf
000002c0: 8764 9cbf 5f5c bdbe cff6 013f 9ec5 63bf
000002d0: 3511 f0bf dcf8 e2bf 1a5c 9bbf ebb5 d1bf
000002e0: b0f2 b4bf 8ac7 68bf 4a18 a4bf 1aee 3abe
000002f0: dec0 18bf 14f7 52bf a184 4dbf 5652 77bf
00000300: 50c3 59bf 4190 a7be ae3d 7dbf 5e93 1dbf
00000310: f868 37bf 0c03 13bf 5261 2fbf 8fb8 75bf
00000320: 683d 0abf f445 34bf fe17 eebc 76eb fcbe
00000330: 9dfc 09bf 94ac 07bf b598 42bf 39cd 00bf
00000340: 84b9 89bf 83b9 0bbf e8d4 d0bf 88d7 3abe
00000350: 4674 a0bd 7e34 c9be 1958 4ebf 282b 9ebe
00000360: fa6c 0bbd a691 58bf 2760 aebf 81d8 28be
00000370: c876 13bd 5800 cbbf 26d4 9abe 3574 a9bf
00000380: fde9 61bf 57b6 d2bf 18fa a5bf 2e9d 87bf
00000390: 31dd 23bf 5d4b c3be fb59 87be 918d 64bd
000003a0: d645 debf 7113 9cbe 0217 52bf 49da 8ebf
000003b0: 58d0 51bf cdb7 3fbf 34b8 74bf 63d5 32be
000003c0: 4c50 e9bd ae55 e9be 2167 a7be 66cd 84bf
000003d0: f1f4 67bf ecb9 9abd 6fe8 50bf d740 5cbe
000003e0: 778e 0cbf 94c1 0dbf a6e8 8abf 5bd0 b8be
000003f0: b38e 1cbe 66d7 1cbe 9691 5dbb 519b f6be
0.19267705 -0.37273285 0.29719728 0.03453568 0.109571755 0.10064957 0.11494141 -0.5753008
0.17440411 0.02896521 0.04480517 -0.03794636 -0.022322267 0.324745 0.040085904 0.07039119
-0.6692785 0.0929868 0.042356286 -0.56037605 -1.2188417 0.05480352 -0.06692504 -2.0407472
-1.426381 0.2376349 -0.5435996 0.12642175 0.49802336 0.25657788 0.1220201 0.27036205
0.26786092 -0.6194885 -0.060324546 0.09927059 0.18794611 0.036535468 -0.07469805 -1.9604461
0.19795905 -0.3900023 -0.538519 -0.24589448 -0.06257709 0.08739789 0.17725933 -0.035841573
0.3082291 0.011986415 0.35776985 0.114842616 0.17839065 -1.6516913 0.20307699 -1.7644781
-0.04089472 0.3420748 -0.43560448 -0.7556445 -1.5038489 -0.06673105 -0.6124104 0.20930575
-0.36076888 -0.6164868 -0.3083827 -0.46921623 -1.1228099 -0.24635145 -0.08516944 -0.428998
-0.84785396 -0.79087156 -0.5091803 -0.6319016 -0.3983427 -0.070215166 -0.5562523 -0.09650956
-0.3600335 -0.47879463 -0.50541943 -0.04691474 -0.14551559 -0.6905954 -0.6771921 -0.52471435
-0.29577863 0.2522545 -0.054778602 -0.19600222 -0.6665835 -0.3272037 -0.51271653 -0.39263448
-0.6941997 -0.06488626 -0.36138985 -0.82028764 -0.30398694 -0.8377038 -0.10798004 -0.4910423
-0.9079873 -0.20815682 -0.30890122 -0.03138823 -0.21044661 -0.6104154 -0.7262764 -0.028537095
-0.5094633 -0.3199008 0.2085174 -0.123828426 0.05102892 -0.2010908 -0.58386266 -0.53352624
-0.022626417 -0.57789063 -0.3179351 -0.67932856 -0.31159654 -0.17969334 -0.25711682 -0.5532694
-0.84079957 -1.0682373 -0.67760825 -0.76134145 -0.8714269 -1.3795819 -0.59749615 -0.8342634
-0.87332237 -0.67937315 -0.23989338 -0.20879091 -0.31861565 -1.6146035 -0.20832084 -2.94123
-0.31177455 -0.24665566 -1.9486407 -0.15619406 -1.3033601 -0.10729456 -2.258329 -1.4249154
-0.5186851 -0.70965034 -2.7610955 -0.49657416 -0.71666783 -0.8675301 -0.47892633 -0.9310322
-1.4075874 -0.8127954 -1.44623 -1.3883384 -0.9681527 -0.5046823 -0.4937356 -0.46473762
-0.06983601 -1.0467432 -0.43489993 -0.9055749 -1.4646811 -0.5124887 -1.6256661 -0.8727951
-1.2218179 -0.36984536 0.50767225 -0.88973415 -1.8755251 -1.7732196 -1.2137482 -1.6383642
-1.4136562 -0.9092947 -1.2819912 -0.18254891 -0.5966929 -0.8240826 -0.802805 -0.9661001
-0.8506365 -0.32727244 -0.9892224 -0.6155299 -0.71644545 -0.57426524 -0.68507874 -0.9598474
-0.5399995 -0.7041924 -0.029064175 -0.49398392 -0.5390108 -0.5299771 -0.7601426 -0.50313145
-1.075974 -0.54579943 -1.6314974 -0.18246281 -0.078346774 -0.3929786 -0.80603176 -0.308923
-0.034039475 -0.8459724 -1.3623093 -0.1648884 -0.03600195 -1.585948 -0.3023998 -1.3238589
-0.8824766 -1.6461896 -1.2966948 -1.0594842 -0.64009386 -0.38143435 -0.26435837 -0.05579907
-1.7365062 -0.30483583 -0.8206636 -1.1160365 -0.8195853 -0.7488983 -0.9559357 -0.17464213
-0.113922685 -0.4557318 -0.3269587 -1.0375183 -0.90608126 -0.07554993 -0.81604666 -0.2150911
-0.54904884 -0.553735 -1.0852249 -0.36096463 -0.1528881 -0.15316543 -0.00338087 -0.48165372

bias f4 [32]
00000000: e2f9 30bf a2ae a3bf 2667 32bd 53ea 4fbe
00000010: 68c8 0f40 24c9 c9bf 24fd 65c1 7b5c b3c0
00000020: dc58 25c0 f0e0 963f fcae 55c1 391e b5c0
00000030: 5b27 0bbf 73e8 443e 9229 b5bf 9e33 52bf
00000040: 7393 d8c0 bc86 db3e 12a2 31c1 0f94 68be
00000050: 2e5d a0bf ccbc 42bd 7081 43bf ba29 5a3f
00000060: 3167 88c0 1b63 563e da31 293f 60ac ecc0
00000070: c26a 103e 209e 513f a28a 89c0 ce54 6940
-0.6913129 -1.2787669 -0.0435554 -0.20304231 2.2466068 -1.5764508 -14.374302 -5.605039
-2.5835485 1.1787395 -13.355221 -5.6599393 -0.54356927 0.19229297 -1.4153311 -0.8211001
-6.767999 0.42876232 -11.102068 -0.2271273 -1.2528436 -0.047543332 -0.7636938 0.8521992
-4.2625966 0.20936243 0.6609169 -7.396042 0.14103225 0.81881905 -4.298173 3.645801

weight f4 [32, 32]
00000000: 938f 44be d7ac e5bc 0417 b3bc 64ba 22be
00000010: 1d3c 4abe 43fe 83bb 6bb7 d5bd c451 97bb
00000020: 4180 29be 7851 bbbe 25f4 14bd 36c6 5cbe
00000030: 0efc 85be a28f f2bd 44d2 f1bd e774 f9bd
00000040: d9ef 1fbe 50d0 56be d60d 0cbe 5f37 d9bd
00000050: 1523 8abe 90fe 1fbe 8d87 32be 9ed5 52be
00000060: 98ca 3ebe e3cd 8cbe 21fd e5bd 4596 0ebe
00000070: 478f 93bd d833 5abe 7b77 10be a42a c5bd
00000080: df97 2dc0 2775 083d ab00 49c0 aa08 a8c0
00000090: 7d6d 13c1 d5ef d83d a74f 99be bffb 04bf
000000a0: 11e3 033c 42e2 e33b 1d9c 7bbe 590d 9ebf
000000b0: 1f10 503e 495f 2cc0 b2c8 f1be ed8e ccbe
000000c0: 6ba4 d5be 5a0b a4c0 bc4c 223d ba3f 83c0
000000d0: bb9d b9be 99d4 c3c0 e4ae 27c0 c3c5 2e3c
000000e0: a672 a6bf 3798 d6c0 9ecb abbf 435c 1bbf
000000f0: 85c8 86c0 2446 8e3d d12e a33d 23d6 09be
00000100: c28a 1abe fc88 093d d3aa 89bd db8b 14be
00000110: c7e2 c7bc ec88 4b3e 6fb1 dabc fce7 78bd
00000120: 604c 9dbb 4d34 79bd 9e9f 12be 3829 35be
00000130: 6492 663e 3a2e 02bd dc0e bcbd 6f71 92be
00000140: 840b 8cbe 5417 9ebd abfe 59bd 8c34 d7bd
00000150: e1f7 ecbd 6ec4 bdbd 4888 7bbe d8bb 87be
00000160: 78ba 34be 8b34 a5bd 2d24 89bd f0de 88bd
00000170: 4039 6bbe ee06 02bf f8e7 0cbe 79e7 e2be
00000180: d653 efbd bd8c 0cbe bdc1 2ebe ada9 10be
00000190: 76fa 05bf 2bdc 61bc d348 7fbe 9737 50be
000001a0: cf1d 77bf 0648 29be b2a3 93be 17b2 66be
000001b0: 4afa b6be bcec 96bc b47f e0be ca78 9bbf
000001c0: c49b e5be 5bb8 33be 72d5 adbe 9984 c7bd
000001d0: 511d 96be 3f94 59be 76b9 18be c98c 92bf
000001e0: 5445 2dbe c845 0cbf b3a8 c0be e374 edbc
000001f0: 0c18 86be 84b7 eebf 1040 efbd 2ec6 d5bd
00000200: c32f 3bbe dcfc f3bd 559f 1ebe 3488 8bbe
00000210: 35f8 72be 1d58 88bb a40f 0bbe 26ef 50be
00000220: a53e 6ebe a3ce fabe dae5 71bc 9b1a 44be
00000230: 73b2 fdbe 945d 9ebd 7274 25bd 67e7 c0be
00000240: 082f 7abd ea5a a1bd 0774 8dbe 10fd dfbd
00000250: 3d8b 83be 5dd1 b3be 5036 93be f50c bbbe
00000260: 75e4 36be 3d11 6cbe 5a43 30be 3acd e6bc
00000270: 740d 0ebe 3863 0abf bcd2 61be 46bc 45be
00000280: e48d 6bbc 18fd b7bd 6d8b 0cbe 09e1 67bc
00000290: c1d5 0ebe 6e39 b0bd 76ae 9abe c2b5 9cbd
000002a0: 7aa0 e5be ca12 7abe dae0 ddbc 092b bd3b
000002b0: ab18 67b7 1d23 aabc 10b5 2f3e 0aa5 e23e
000002c0: acd4 55bd d40f 35bd a11a eabc 2937 f2bd
000002d0: 2d5a f9be 6d1d a83d c271 60b8 8540 3f3d
000002e0: 9653 493c 68a8 af3a f999 293e d641 13bd
000002f0: 80f0 23bc 1bee 603d bf07 5abd 0a86 343c
00000300: 0bc5 9ebd 69ee ecbe 38f8 6a3e 1339 563c
00000310: 2ffe db3d 6908 9d3d 3f7e 9fbf 07ce 71c0
00000320: a0ce 34bd 1802 c5bc 0067 18c0 0d2a 9bc0
00000330: 8905 3cbe 4504 30bd 56b6 603e 345d 663e
00000340: 7552 7cc0 85d5 913d 61f3 33c0 c5a3 34bd
00000350: 2f72 dfbe 994c cabc 6211 e9bd 343f 043d
00000360: cbb3 16bd 2387 88bd bdb3 103e 845b e7bf
00000370: 5144 03be 1de5 813d d456 9dbf e29b 58bb
00000380: 635f 61c0 1695 103e 1125 0fc0 295e 77be
00000390: d197 ae3d abd0 02be 070c d3bf aee0 4cbf
000003a0: d9c6 26bd d3d5 1b3c 930e cebe ed9b 87bf
000003b0: 7244 1e3d ade0 65c0 ffa9 81be 1b72 25be
000003c0: 22e3 86bf 0d64 2dc0 ff72 0fbf 9711 7fc0
000003d0: 5737 7f3c d10c afc0 51a9 39c0 d666 923c
000003e0: a992 93bf d09d 00c1 b71b c4be 4eae 30be
000003f0: 2430 c2c0 90c6 8e3a 494a 4cbf 2be8 a1bd
-0.19195394 -0.028036518 -0.02186156 -0.15891415 -0.19749494 -0.004028113 -0.10435375 -0.0046179015
-0.16552831 -0.36585593 -0.036365647 -0.21559986 -0.26168865 -0.11843802 -0.11807683 -0.121805005
-0.15618838 -0.20977902 -0.13677153 -0.10606264 -0.2697989 -0.15624452 -0.17434521 -0.20589301
-0.18631971 -0.2750083 -0.11229921 -0.13924511 -0.07205062 -0.2130884 -0.14108078 -0.09627274
-2.7123945 0.03331485 -3.1406658 -5.2510576 -9.214231 0.10592619 -0.29943582 -0.51946634
0.008049742 0.0069544623 -0.24571271 -1.2347823 0.2031865 -2.6933157 -0.4722343 -0.39952794
-0.41727003 -5.1263857 0.03962396 -4.101529 -0.3625315 -6.119702 -2.6200495 0.010667267
-1.3003738 -6.706081 -1.3421514 -0.60687655 -4.2119775 0.06946972 0.07967914 -0.13460593
-0.15091994 0.033577904 -0.06722035 -0.14506476 -0.024400128 0.1987645 -0.026695935 -0.060768113
-0.0048003644 -0.060840894 -0.14318702 -0.17691505 0.22516781 -0.031782366 -0.09182522 -0.28602168
-0.27352536 -0.07719293 -0.053221386 -0.105080694 -0.11570717 -0.092659816 -0.24563706 -0.265105
-0.17649257 -0.080666624 -0.06696353 -0.06683147 -0.22971058 -0.50791824 -0.13760364 -0.44317225
-0.11685912 -0.13725562 -0.17066093 -0.14127226 -0.523353 -0.013785402 -0.24930124 -0.20333706
-0.9652986 -0.16531381 -0.28835827 -0.22528873 -0.3573783 -0.01842343 -0.4384743 -1.2146237
-0.44845402 -0.17550795 -0.33951908 -0.09742088 -0.29319242 -0.21247958 -0.14914498 -1.1449214
-0.16920978 -0.5479398 -0.37628707 -0.0289864 -0.2619022 -1.8649755 -0.11682141 -0.104381904
-0.18279938 -0.119134635 -0.15490468 -0.27252352 -0.23727496 -0.0041608945 -0.13580185 -0.20403728
-0.23266084 -0.48985776 -0.014764274 -0.19150774 -0.49550208 -0.07732692 -0.040394254 -0.37676546
-0.06108001 -0.078786686 -0.27627584 -0.1093694 -0.25692168 -0.3512067 -0.28752375 -0.36533323
-0.17860587 -0.23053451 -0.17213193 -0.028174032 -0.1387232 -0.54057646 -0.22053045 -0.19310102
-0.014377091 -0.08983821 -0.13725062 -0.014152774 -0.13948728 -0.08604704 -0.30211228 -0.07651855
-0.44848996 -0.2442123 -0.027084757 0.0057729525 -1.3774416e-05 -0.020768696 0.17158914 0.4426654
-0.052204773 -0.044204548 -0.02857715 -0.11826927 -0.4870161 0.082087375 -5.3511707e-05 0.04669239
0.012287995 0.0013401629 0.16562642 -0.035951458 -0.01000607 0.054914575 -0.053230044 0.0110182855
-0.07752427 -0.46275643 0.2294625 0.013075131 0.10741841 0.0766762 -1.2460402 -3.7782
-0.044142365 -0.02404885 -2.3812866 -4.848883 -0.18361486 -0.04297282 0.21944556 0.22496492
-3.9425328 0.07120804 -2.8117297 -0.044101495 -0.43641803 -0.024694728 -0.11380269 0.032286838
-0.036792558 -0.066664 0.14131065 -1.8074803 -0.1281903 0.06342528 -1.2292123 -0.0033051898
-3.521447 0.14119372 -2.2366374 -0.24157013 0.085250504 -0.12774913 -1.6488045 -0.80030334
-0.04071698 0.009511429 -0.40245494 -1.059446 0.038639493 -3.5918381 -0.2532501 -0.16156809
-1.0538065 -2.7092316 -0.56034845 -3.9854486 0.015577159 -5.4703145 -2.9009593 0.017871302
-1.1529132 -8.038528 -0.38302395 -0.17253992 -6.0683765 0.0010892916 -0.7980085 -0.07905611

bias f4 [32]
00000000: 6597 c1be 2e8f 4c3f 7afa 42be dd2a e1be
00000010: 2548 efbe 451c 1440 6d6c 923f 1f7b 393f
00000020: 7c96 343f e008 d2be 628f 43bf ecf9 643f
00000030: d012 7e3f a533 ab3f 2d22 7e3f 3ce4 6dbf
00000040: 0a42 94c0 8ccc 623f 7895 dd3f d6be 0cbf
00000050: 7911 c43f 6898 7e3f 405f 633f 80a7 803f
00000060: 426a 753f 7002 6c3f 71f2 34bf 4071 3fbe
00000070: 7634 2f40 4d33 1bbc 8ace 943f 8f9c 093f
-0.37810817 0.79905975 -0.19040862 -0.43978015 -0.4673473 2.3142254 1.1439339 0.7245349
0.7054212 -0.41022396 -0.7639066 0.8944385 0.99247456 1.3375136 0.992709 -0.92926383
-4.6330614 0.88593364 1.7311239 -0.5497869 1.5317832 0.99451303 0.88817215 1.0051117
0.9586526 0.9219122 -0.70682436 -0.18695545 2.737577 -0.00947268 1.1625531 0.53754514

weight f4 [1, 32]
00000000: ccbc 60bb f540 3bbd 342b b0be 7dd4 bdbc
00000010: f646 f23c 9aa9 9fbc d389 11bd c58f dabc
00000020: d0bd 52bd 640e bc3c d137 17bc d408 63bd
00000030: 0afe 3cbd 7d49 70bd 5cd5 3cbd ffe9 f03c
00000040: d018 e13d 8a56 69bd b50a 11bd b065 b0bc
00000050: 9a71 b6bc 25d0 79bd 667f 75bd 1e9c 3fbd
00000060: e22d 90bd 7f00 84bd b830 473c bef2 433b
00000070: 0575 aabc c212 f4bd 539b 36bd 4267 f2bc
-0.003429222 -0.045716245 -0.3440796 -0.023172611 0.029574852 -0.019490052 -0.03553183 -0.026679883
-0.05145055 0.02295608 -0.009229616 -0.05542834 -0.046140708 -0.058663834 -0.046101913 0.029408453
0.10991061 -0.056967296 -0.0354106 -0.021532863 -0.022270966 -0.060989518 -0.05993595 -0.046779744
-0.070400015 -0.06445407 0.012157612 0.0029899324 -0.020807752 -0.1191764 -0.044581722 -0.029590253
